data/predictor/Ablation/3_201_TNetwork-F_2024-06-30_20-47-12.pt (torch, 271691 bytes, 14 tensors)

conv1.bias f4 [64]
000000 d8 a3 2b 3c 83 7f 33 3d 46 6d 1a bc ef f2 8d bc
       0.010476075 0.043822777 -0.009425467 -0.017327754
000010 da 23 31 3d 6e 6c 22 3b e0 04 5a bc aa 52 4e bc
       0.04324708 0.0024783867 -0.013306826 -0.012592951
000020 d7 85 42 bb c3 1f b6 bc 1d 13 83 bc 99 dd 4b bc
       -0.0029681826 -0.022231942 -0.016000325 -0.01244297
000030 d2 72 04 bd f9 1b 96 3c 00 00 00 00 3a 71 92 3c
       -0.032336064 0.018323885 0.0 0.017876256
000040 14 45 f4 bb 9a 76 80 3c 1f 3b a2 3a a0 7c fd 3b
       -0.007454524 0.015681554 0.0012377239 0.0077358037
000050 85 c3 4a 3b 7b ef e8 bc 25 18 13 3d 81 db 27 3c
       0.0030939293 -0.028434506 0.035911698 0.010245205
000060 e9 e6 8b bc bb a2 5e 3d 3f 54 99 3c 50 d3 5a bc
       -0.01707788 0.05435441 0.01871693 -0.013356045
000070 89 50 b2 bb d6 e2 59 bd 96 6a b7 bb 1c 79 c8 bc
       -0.0054417294 -0.053194843 -0.005597423 -0.024471812
000080 e5 aa 1a bd 89 17 47 3d ce b4 96 bd 82 d6 91 3d
       -0.037760634 0.04860643 -0.073587045 0.07120992
000090 08 20 2f bd 43 fa b1 3b 86 4d 2b bd a2 8e 55 3d
       -0.042755157 0.005431445 -0.04182198 0.05213798
0000a0 21 64 d5 bc 3a bb 59 3d d3 4e d1 3c 86 2e 89 bd
       -0.026048722 0.05315707 0.025550282 -0.06698327
0000b0 30 71 d0 bc 51 36 7f 3c 1b dc 95 bc f7 87 a6 bd
       -0.025444597 0.015576915 -0.018293431 -0.08131402
0000c0 f8 7e 3f bc 52 b1 ed 3c f9 d1 1d 3d cf ec 7a 3c
       -0.011687987 0.029015217 0.038530324 0.015315249
0000d0 15 6e 07 3d 16 fa c6 bc e6 ac 90 bc 15 38 72 3d
       0.033063967 -0.024289172 -0.01766057 0.059135515
0000e0 e6 74 da bc 1c 74 de 3c f5 68 c1 3c ac 3e 2f bc
       -0.02666707 0.027154975 0.023609618 -0.0106960945
0000f0 b2 75 e9 bc 06 e7 af 3d 13 5d 30 3d 08 b7 67 bd
       -0.028498504 0.08588986 0.043057512 -0.056571037

conv1.lin.weight f4 [64, 4]
000000 0e a0 1f 3e 9a 9a 90 bd 74 d5 f1 3b bf 85 f5 be
       0.155884 -0.07060738 0.007380182 -0.47953603
000010 b2 96 60 bc 04 12 82 3d 38 a9 5f be 41 a4 24 bd
       -0.013707804 0.063510925 -0.21841896 -0.040195707
000020 8f a7 21 be fe ba 6d 3d 01 34 80 3e bd 75 a6 bd
       -0.15786575 0.058039658 0.25039676 -0.081279255
000030 39 1b 7a 3e 70 9c d5 bd c8 72 e2 3b 22 13 c3 3d
       0.24424447 -0.10430229 0.0069106556 0.09525134
000040 fe b5 83 bd e5 af 4b bd ca 9c c2 be 81 58 8f 3e
       -0.06431197 -0.049728293 -0.38010246 0.2799721
000050 00 5e 13 3e 7f fe 4b be f2 1e 89 3e 3d 4f 74 be
       0.14391327 -0.19921301 0.26781422 -0.23858352
000060 4e e5 ed 3d bb 53 4c be bc 51 6f 3e 35 1d 64 be
       0.11616002 -0.19953816 0.23371023 -0.22276767
000070 6d 02 8e 3c 25 0e 97 3d 4d de e4 3d a1 0a 8d bd
       0.017335141 0.07375745 0.11175213 -0.06886793
000080 5c 0d 85 3d fd 2d 90 be e7 9f 1d 3e 25 e4 9c be
       0.06496689 -0.28160086 0.15393029 -0.3064281
000090 75 07 99 be 2f 46 9e 3e 63 f4 54 3d 5a 9d 5e be
       -0.29888502 0.3091292 0.051990878 -0.21739712
0000a0 51 68 11 3e d4 10 1e be 7b 2b 27 bc 54 41 a2 3e
       0.1419995 -0.15436107 -0.010203238 0.31690466
0000b0 dc a4 89 3e 66 39 93 3d 44 f6 9b 3a 7c 8b d9 be
       0.2688359 0.07188682 0.0011898954 -0.4248923
0000c0 27 d7 9f 3d c0 a7 34 be 67 0c 71 3e 74 be 81 3d
       0.07804709 -0.17642117 0.23539887 0.06335154
0000d0 90 3b f3 be 1d 03 25 be d2 53 f7 3d 2c a0 98 be
       -0.4750638 -0.16114469 0.12076534 -0.298097
0000e0 7c a2 06 be ae 86 02 be c8 91 c1 bd f4 a2 e0 bd
       -0.1314792 -0.12746689 -0.09451634 -0.10968581
0000f0 ea 97 88 3e c3 01 96 be 59 44 ff bc f0 64 cf 3e
       0.266784 -0.2929822 -0.03116052 0.40506697
000100 ae 79 3a 3e f4 03 9f bd 8d 27 72 be e7 2d 26 be
       0.1821048 -0.07764426 -0.236479 -0.16228448
000110 45 f6 25 3e 05 2b c2 3d 6f 02 0a be f8 c7 0f bf
       0.16207226 0.094808616 -0.13477491 -0.56164503
000120 0d a5 02 3e 60 14 a2 3d cc 83 a7 be 66 4b 29 3e
       0.12758274 0.079140425 -0.3271774 0.16532668
000130 93 96 5c 3e 0e 01 67 be f2 0e 33 be 39 5f ad be
       0.21541815 -0.22558996 -0.1748617 -0.33861712
000140 2b 02 33 3e c5 c6 23 3e 42 62 ca bb 8f 23 ef be
       0.17481296 0.15993793 -0.006176264 -0.46706817
000150 1c 01 f4 bc e4 fa 8d 3e 5b f8 88 bc 18 64 32 3e
       -0.029785685 0.27730477 -0.016719988 0.17420995
000160 3f 75 6b be 85 c9 72 3e dd 82 ff bd 01 78 78 3e
       -0.22993945 0.23709686 -0.12476132 0.24264528
000170 fe bb 18 3c 92 b7 d0 3d c4 4c 4a be 06 82 26 3d
       0.009322165 0.10191263 -0.19755846 0.040651344
000180 1a d9 25 be 8b 4e 41 3e 0d 51 1f be a5 15 ac be
       -0.16196099 0.18877618 -0.15558262 -0.33610263
000190 7e 85 d9 bd f5 5e 45 3e d8 bf a1 be c0 08 01 bf
       -0.10621165 0.19274504 -0.31591678 -0.50403976
0001a0 de 0c 51 3e d7 a4 0f be 49 f5 6f be a7 0a bd 3e
       0.20415065 -0.14027725 -0.23433413 0.3692219
0001b0 2f ed 2b be 98 d8 68 bd 52 eb 2a 3e 2e 21 00 be
       -0.16789697 -0.056847185 0.1669133 -0.12512657
0001c0 92 59 20 bd f7 1b 35 3e 34 50 69 3d 82 84 d0 3e
       -0.03914792 0.17686449 0.056961253 0.40726095
0001d0 7f 1d 9e 3d f3 31 78 3e dc 3f b0 3d 3d 03 88 3e
       0.0772047 0.24237804 0.0860593 0.2656497
0001e0 c1 db 11 3e 25 cd 33 be 7e 49 2f 3b 6b 07 1f 3e
       0.14243986 -0.17558725 0.0026746686 0.15530173
0001f0 4d 2d 10 be f4 56 6e bb 4d 73 07 3e d6 d8 cb 3d
       -0.14079781 -0.0036367746 0.13227578 0.099534675
000200 73 8c 70 3e 43 bf bd bc 11 34 93 3c 26 93 0b bd
       0.23491077 -0.02316249 0.017969163 -0.03407588
000210 f9 54 09 bc c0 d6 b4 3d 8f 90 8e be 87 e2 83 3d
       -0.0083820755 0.08830023 -0.27844664 0.06439691
000220 97 be 2b be 9a 9c 06 be 63 09 5e 3e c0 92 ac bd
       -0.16771923 -0.13145676 0.21683268 -0.08426428
000230 61 75 83 bd 22 9b 38 bd d9 b4 a0 be 51 7e 1c 3e
       -0.064188726 -0.04506982 -0.31387976 0.15282561
000240 1c d6 64 3e 3a 67 7b 3e 76 58 91 3d 2f 46 99 be
       0.22347301 0.24551097 0.07096951 -0.29936358
000250 05 4b 42 be 8e b8 82 3e 2f 6f be bd c4 16 8c 3e
       -0.1897393 0.2553143 -0.0929855 0.2736112
000260 0c 42 96 3d a6 02 51 3e 82 ac 56 3e b2 31 93 be
       0.07336816 0.20411167 0.20964244 -0.28748852
000270 1c 27 11 be 3a ad 87 3e be fd 90 be 38 50 1c bf
       -0.14175075 0.2649935 -0.2831859 -0.61059904
000280 bc 7c 2a 3e 7e c1 41 be 29 63 06 3e 74 70 f3 3e
       0.16649145 -0.18921468 0.13123764 0.47546732
000290 bd 29 7a be 57 e6 8e 3e a6 2f 30 be 5e 23 e3 bd
       -0.24429984 0.2791011 -0.17205676 -0.1109073
0002a0 59 e0 b0 3d d6 6c 2f 3e c3 7f b3 bd b2 78 39 be
       0.08636541 0.17131361 -0.08764603 -0.18112448
0002b0 a9 8c 3c be 55 3c 84 bd 24 ad 54 3e 87 f9 87 3e
       -0.18413033 -0.0645682 0.20769173 0.26557562
0002c0 c9 18 47 be 71 b9 72 3e d6 1d 10 bc dc 3c 19 be
       -0.19443049 0.23703553 -0.008796176 -0.14964622
0002d0 28 cb 17 bd 0f 18 11 bd d1 1d bd be 29 9c a3 3e
       -0.03705898 -0.035423335 -0.3693681 0.31955078
0002e0 20 aa d8 bc 1b b3 1d be f6 ad 29 be 3f 95 37 3e
       -0.02644831 -0.15400355 -0.16570267 0.17928027
0002f0 d0 5e 7b be 78 b8 a7 3b 4c b5 93 3e 87 c2 a7 be
       -0.24547887 0.005118426 0.28849256 -0.327656
000300 d2 3a 11 3e b4 0d 4e be 11 79 a4 3d a3 f3 92 3e
       0.14182594 -0.20122415 0.08030904 0.28701505
000310 51 ca 95 3d 61 eb ab bd da 2a ae be 00 08 2a 3e
       0.073139794 -0.08394504 -0.34017068 0.16604614
000320 9f af 4f be 7f 1e 92 3d 9a 49 b2 3a 4a ec 9d 3e
       -0.20281838 0.07134723 0.0013602257 0.30844337
000330 7c 41 06 be 66 dc a4 3d f6 3a 7b bc 99 47 c4 3e
       -0.13110918 0.0804985 -0.015333882 0.38335875
000340 a1 a7 69 be 73 19 1e 3d 5a 28 e1 bc 7b ba 5d 3e
       -0.22817852 0.03859849 -0.027485061 0.21653168
000350 5d df 15 be 1b 49 6e 3e cc 3f 0a 3e 42 24 d9 bc
       -0.14635988 0.23270075 0.13500899 -0.026506547
000360 17 85 3c be 69 ef 42 bc 44 17 ad bc c6 ec 20 3c
       -0.18410145 -0.0118979 -0.021129258 0.009822076
000370 58 06 1d be 2f 2b 84 39 52 82 86 be 49 5b 14 3e
       -0.15334451 0.00025209176 -0.26271302 0.14487948
000380 7a ed 80 be 30 aa 8d bc 52 68 54 3e a3 7e ad 3e
       -0.2518118 -0.017293066 0.2074292 0.3388568
000390 74 28 64 be 1e 0f 6a 3e ec 2e c5 bd f6 35 94 3e
       -0.22281057 0.22857329 -0.0962809 0.2894742
0003a0 7f a0 a6 3d 82 d8 e2 3d c7 d6 ad be ad a8 e9 3d
       0.08136081 0.11076452 -0.33952925 0.114091255
0003b0 9d e3 93 3e 50 7b ee 3d 7d bd ef bd ce 84 14 be
       0.28884593 0.11644614 -0.11706064 -0.14503786
0003c0 98 b0 d4 3d b3 7d 18 3e d6 92 97 3d 77 4a 89 bd
       0.10385245 0.148917 0.074010536 -0.06703656
0003d0 15 08 8c 3d 3e 3e 82 be 4e 11 3b be 5b 7d c2 3d
       0.06837479 -0.25438112 -0.1826832 0.09496566
0003e0 95 dc 88 3e 23 63 39 bd e5 57 76 be ac ee df bd
       0.2673079 -0.04526056 -0.24056967 -0.10934195
0003f0 82 c6 83 be 57 83 5b 3e e7 83 80 be f1 9e 0c 3e
       -0.25737387 0.21436821 -0.25100634 0.13732506

conv2.bias f4 [64]
000000 30 e5 06 3d 4d 1a 88 3c 77 b5 5b bd ab ac cf 3c
       0.032933414 0.016614104 -0.053639855 0.02535089
000010 28 ef 83 bd de 68 ef bc a1 1d de bc d5 fe b9 bc
       -0.064421 -0.02922481 -0.027113738 -0.022704521
000020 10 3b 0d bd b6 bd 79 bc 11 92 d4 bc bc 8a 6e bd
       -0.034480155 -0.0152429845 -0.025948556 -0.058237776
000030 ce 4b 3e bc 7d 65 0a bc 1a b5 3e bc 3b a8 55 bd
       -0.011614753 -0.008447048 -0.011639858 -0.05216239
000040 bb 32 51 bc de 11 98 bb 8f be 89 bc d0 66 5f bc
       -0.012768443 -0.004640802 -0.016814498 -0.013635352
000050 8c 1e dc 3b 59 36 ec 3c 26 9b 48 bc 3a fa 3d bb
       0.0067175087 0.028834509 -0.0122440215 -0.0028988258
000060 1f 8e 6d bc c9 55 e3 bc ea a8 18 bd 80 e1 55 bd
       -0.014499216 -0.027750866 -0.037270464 -0.052217007
000070 60 e4 75 bc 59 c5 f9 bb 28 3c 3e bc 6e 34 40 bd
       -0.015008062 -0.0076224026 -0.011611022 -0.046925
000080 65 87 89 3c c3 5b fa bc 21 27 74 bc 91 c8 c4 bb
       0.016788194 -0.030561334 -0.014901907 -0.0060053547
000090 f3 8a e8 bc 68 6a 10 bd 63 bc 18 bc 04 78 8a bc
       -0.028386569 -0.035257727 -0.009322259 -0.016902931
0000a0 e9 c3 f8 bc f9 84 c6 ba a2 ac 8a bc 9d da 4d bc
       -0.030366855 -0.001514583 -0.01692802 -0.0125643285
0000b0 b6 8a ed bc e9 c2 30 bc e1 94 3a bd 55 05 ae bd
       -0.028996807 -0.010788658 -0.04555214 -0.08497111
0000c0 2a 96 fc bb 71 e8 09 bd 7c b4 3c bc 7f c7 01 bd
       -0.0077083306 -0.03366894 -0.01151764 -0.031684395
0000d0 a7 81 e9 bc 72 07 33 bb 77 79 26 bd 0a 37 b5 3c
       -0.028504206 -0.002731767 -0.04064318 0.022120971
0000e0 00 00 00 00 28 98 1e 3b e5 9f 07 bd 33 3e 11 bc
       0.0 0.002419958 -0.03311147 -0.008864927
0000f0 99 be 9f bc 85 b1 68 bc 2c 06 db bc bb 36 63 bd
       -0.019500064 -0.01420248 -0.026736341 -0.055472117

conv2.lin.weight f4 [64, 64]
000000 13 a8 50 be 6f ee 68 3c e0 42 91 3d 1d 09 31 be
       -0.20376615 0.014217003 0.070928335 -0.17288633
000010 f7 78 16 3e 25 85 c3 bd 7a f4 8f 3d 58 83 49 be
       0.14694582 -0.0954688 0.07029052 -0.1967901
000020 04 bb f3 3d 48 21 2c 3e 64 4a 4d 3d 4a 7b 2d bd
       0.11900905 0.16809571 0.050119773 -0.042353906
000030 55 7e 5f bd 96 3c c1 3d bf ca e2 bd 41 7e 15 3d
       -0.05456384 0.09435384 -0.11073827 0.03649736
000040 7c 8b 9a be e0 34 21 3d c1 ba e6 3d b9 84 dc bd
       -0.30184543 0.039357066 0.11266089 -0.10767502
000050 ca 77 6b 3d bd a5 1d be 89 4f 86 3e 3f de 69 bd
       0.057487287 -0.15395255 0.26232556 -0.057096716
000060 32 f6 4f be 54 f7 c8 3d a5 3b fe be ac 98 34 be
       -0.2030876 0.09812799 -0.4965488 -0.17636365
000070 4a 32 23 3e 69 a5 12 be e9 c7 09 be d7 f4 86 3b
       0.15937153 -0.14320911 -0.13455166 0.0041185427
000080 6f e0 46 3e 2f dc b1 3e c1 10 d5 bc 31 9f cb 3e
       0.19421552 0.347383 -0.026008965 0.3976989
000090 b5 e3 94 3b bc 42 47 3e a0 1c 8a 3d 79 3b 26 bd
       0.0045437464 0.19459051 0.06743741 -0.04058406
0000a0 fe 2d 08 3e 29 b0 a7 3d 55 f3 15 be 1f 61 c4 bd
       0.13298795 0.08187897 -0.14643605 -0.09588837
0000b0 d9 a3 c8 bd 3e 54 05 3e 50 89 8a 3e 01 95 9f be
       -0.097968765 0.13020417 0.27057886 -0.31168368
0000c0 a3 e3 7b 3e a9 8c 88 3e 3a b4 00 3c f8 93 1c bd
       0.24598555 0.26669815 0.007855469 -0.03822705
0000d0 4d 0f 87 be 73 86 96 3d 88 15 af bd ed 27 bc bd
       -0.2637886 0.07349863 -0.08549029 -0.09187303
0000e0 37 01 24 be 8e 47 f8 bc 39 a1 43 3e 1d f1 46 3c
       -0.16016088 -0.030307557 0.1910447 0.012142447
0000f0 d5 95 e5 3d 70 07 1a bd 9b 9b 52 be 18 6e c1 3d
       0.11210219 -0.03760475 -0.20567171 0.09444827
000100 d5 7d 4f 3e a0 54 3f 3d fd 14 3d 3e 80 7d 68 3e
       0.20262845 0.046711564 0.18465038 0.22704124
000110 10 96 06 3e 8b 4e fb bd e7 b5 14 be 33 16 04 be
       0.13143182 -0.1227084 -0.14522515 -0.12899093
000120 d3 c2 bf be 14 00 0c be bd ca 52 bd 61 b1 3c 3d
       -0.37453327 -0.13671905 -0.051462878 0.0460676
000130 0c 07 16 be 1b c4 5c bf 36 57 ff 3d 76 94 e3 3c
       -0.14651126 -0.86236733 0.12467806 0.027780753
000140 03 71 b8 3d 72 ac 00 be 14 73 11 be fe 25 19 3e
       0.0900593 -0.12565783 -0.14204055 0.14955899
000150 cd 7d 14 3e 46 9b 26 be 03 e6 72 3e 64 4b 88 bd
       0.14501114 -0.1627017 0.23720555 -0.066550046
000160 e4 08 b7 be 95 e5 b0 3c 26 ba 84 3d 8a 44 bc 3c
       -0.3574897 0.021593848 0.064808175 0.0229819
000170 26 56 5a 3e ad d4 26 be 01 1c 70 3e db 96 88 bd
       0.21321926 -0.16292067 0.23448183 -0.066693984
000180 be 8f 45 be 5f 82 3b 3d 80 73 6f 3e ac 28 da 3e
       -0.19293115 0.04577863 0.23383904 0.42609155
000190 1a 5d a3 bd 11 7c 25 3e ff 7d 84 3d e8 7e 19 bd
       -0.07976742 0.16160609 0.06469344 -0.037474543
0001a0 df 4b 3d bc 53 f3 f8 3d 0b ba 2f be 98 8e a6 bd
       -0.011553734 0.121557854 -0.17160814 -0.08132666
0001b0 c3 5c ab bd e2 a8 29 3e 1b 88 36 3e c0 be 9f be
       -0.08367302 0.1656833 0.17825358 -0.31200218
0001c0 f4 cd 1f be e7 3b 97 3d 20 c3 cb bd 96 5c 85 3e
       -0.15605909 0.07384472 -0.099493265 0.260472
0001d0 ad c9 82 bd a8 b3 32 3e 6a 1d b7 bd 75 11 bb 3d
       -0.06386123 0.17451346 -0.08941157 0.09134189
0001e0 96 8b 4f 3e 26 80 0e 3e 1a d1 69 3d c8 6b 2c 3e
       0.20268092 0.13916072 0.05708418 0.1683799
0001f0 59 c3 20 bd 89 9a 9d 3d e4 39 74 bd 42 94 1f 3f
       -0.039248798 0.07695491 -0.05962552 0.623356
000200 f8 cb b6 3c 5e 78 3d bd 94 6e 44 bd 2e 1b 91 3c
       0.022314057 -0.04625737 -0.047957018 0.017713156
000210 2c 07 ff be 6f c6 45 bd fa 8e 94 be b9 fe e6 ba
       -0.4981016 -0.048284944 -0.29015332 -0.0017623521
000220 1f e3 fe bc 6e 41 0b bd d1 30 51 be f6 42 9b bd
       -0.03111416 -0.033997945 -0.20428778 -0.07581131
000230 b3 40 64 be d0 b3 3b be 40 06 2b bc f6 49 87 bd
       -0.22290306 -0.18330312 -0.010438502 -0.06605904
000240 72 ba 26 3e ab 24 44 3e 07 6a f1 bd 5c 3a 9b 3d
       0.1628206 0.19154613 -0.11787801 0.075794905
000250 3a 58 1d 3d 81 a8 40 3e fa da 6b 3e 5e 50 28 3e
       0.038414218 0.18814279 0.23032752 0.16436908
000260 7c 6c 96 3d 00 e4 89 3d df 40 46 be 95 8c 96 be
       0.073449105 0.06732941 -0.19360684 -0.2940413
000270 2c f8 da 3d f7 d1 2e be 0e b6 35 be 05 8a 67 be
       0.10691866 -0.17072283 -0.1774523 -0.22611244
000280 17 de 98 3d 7d 17 22 3e b3 b3 e7 bd a9 a5 c8 be
       0.07464235 0.15829273 -0.11313572 -0.3918889
000290 3c 2e 54 3e 4a c4 0d 3d 95 ca 84 3d 79 ad 68 3e
       0.20720762 0.034611024 0.06483952 0.22722425
0002a0 91 90 88 bd 2d 95 a5 3c 16 89 dc bd 8a 0a c2 be
       -0.06668199 0.020212734 -0.107683346 -0.37898666
0002b0 85 27 a2 3e 50 80 a8 be 4f 0b 47 3e 9d f7 ae bc
       0.31670776 -0.32910395 0.19437908 -0.021358306
0002c0 94 fa 6c bd 42 e2 34 be 93 3d b5 bd 13 ef 96 bd
       -0.057856157 -0.17664436 -0.08849635 -0.073698185
0002d0 58 5d 12 be 3b 3b 06 be e2 e2 03 3e a3 ed 5c be
       -0.1429342 -0.13108532 0.12879518 -0.21575026
0002e0 1d d9 14 be da bb 58 3e 3e c1 6a be 44 95 10 3d
       -0.14535947 0.2116541 -0.22925279 0.0352986
0002f0 ff dc b9 bc a7 73 2e 3d 63 87 1e be 65 2c fd be
       -0.022688387 0.042590763 -0.15481333 -0.49447933
000300 a3 0c 3c be 35 87 13 3e e0 6e a1 3d 14 57 14 be
       -0.18364196 0.14407046 0.07882476 -0.14486343
000310 31 9f 77 3e a4 e2 f2 3d fd 26 44 bd c9 82 04 3e
       0.2418182 0.118596345 -0.047888745 0.12940516
000320 30 11 11 3d cd 60 8a 3e 21 ba 3e 3e 58 02 5e 39
       0.035416782 0.27026978 0.1862569 0.00021172443
000330 df 80 25 3c a4 ce 40 be 78 83 06 be c6 ae 7a 3e
       0.010101526 -0.18828827 -0.13136089 0.24480733
000340 5f ac 07 bd 94 3b cf bd 8e 94 98 3d 4b 15 4c be
       -0.03312337 -0.101187855 0.074502096 -0.19929998
000350 75 eb ff bd 5f fa 4a 3e 19 fe 75 3e e1 a2 f3 3d
       -0.12496082 0.19822071 0.24022712 0.11896301
000360 bd 57 15 3e 85 c3 67 3e e2 fc 92 be e5 a5 59 3c
       0.14584251 0.22633179 -0.2870856 0.013284181
000370 1a 41 c7 3c af f7 e4 3d d2 6e 50 bd 6c e5 e8 bd
       0.024323035 0.111800544 -0.050886936 -0.11371884
000380 ed 1c d0 bd 37 b9 40 be f7 d8 66 be 04 4f 7a 3e
       -0.10161767 -0.18820654 -0.22543703 0.24444205
000390 f6 e8 ac bd 6d d9 44 3d 67 38 2b be 21 4b f4 bd
       -0.08442871 0.048058916 -0.16720735 -0.11928392
0003a0 3e d7 3d 3e 7b e9 73 3d 88 cb 4f 3d 6f 38 ed 3d
       0.1853914 0.059548836 0.050731212 0.115830295
0003b0 b1 d8 62 3e 32 01 94 3e e3 33 4e 3e 57 d8 83 3d
       0.22152974 0.28907162 0.2013698 0.06437748
0003c0 c4 96 07 be 5e 5f dc 3d 26 e4 02 3e 74 ba 5f 3e
       -0.13241106 0.10760377 0.12782344 0.2184847
0003d0 fa c6 51 be 89 a3 9d bd 90 25 45 be 43 64 61 be
       -0.2048606 -0.076972075 -0.1925261 -0.22010903
0003e0 7c 43 2e bd 86 75 09 bd c5 74 16 bd a7 6b 5d 3e
       -0.042544827 -0.033559345 -0.036732454 0.21623097
0003f0 a3 0c c0 bd 8d 71 3d be 87 b0 cb bd 8a 5f 85 be
       -0.0937741 -0.18500347 -0.09945779 -0.26049453

conv3.bias f4 [64]
000000 e7 c5 02 bc f5 e8 7e 3c ef 7d 0a bd 70 21 5f 3c
       -0.007981754 0.015558471 -0.033811506 0.013618812
000010 42 7f 3e bd 22 00 31 3d 1b 27 04 bd 9a 6e e4 bc
       -0.04650808 0.043213017 -0.032263856 -0.02788477
000020 59 37 b7 bc 3b 12 29 bd 7b d6 1a 3d b7 88 4c bd
       -0.022365259 -0.04127715 0.0378022 -0.04993507
000030 97 d4 2f 3c dc 6a 21 bd a2 c3 19 3b 67 fa a8 3c
       0.010731838 -0.03940855 0.0023462554 0.020627214
000040 9d 95 47 bd fd cc 3d 3c 17 be de bc 4f f1 c7 bc
       -0.048726667 0.011584518 -0.027190251 -0.024407057
000050 09 5f 69 bc d8 04 d1 bc 9c 9e 9c b9 28 ed a0 bc
       -0.01424385 -0.025515005 -0.00029872812 -0.019644335
000060 36 78 d8 bc d0 ad 35 3d 29 df 57 3d 03 c9 07 3d
       -0.026424509 0.044355214 0.052703056 0.033150684
000070 60 55 2a bd 12 df c7 bc 1d 5c 18 3d ca eb 12 bd
       -0.041585326 -0.02439836 0.03719722 -0.035869397
000080 bb 39 2c bd 2d 2b 45 3b ea b2 82 3c 78 9e 31 3d
       -0.042047244 0.003008555 0.015954453 0.04336402
000090 8c d8 84 3c 77 8b 46 bd 2b c5 cc ba a9 0e d4 3b
       0.016216539 -0.048472848 -0.0015622725 0.006471474
0000a0 5c eb e4 bc 77 ec 8b bc e7 b3 52 3c db bc d3 3c
       -0.02794426 -0.017080529 0.012860275 0.02584689
0000b0 fd e8 f0 bc 0c f3 09 bd ef f3 36 3d 75 af 27 bd
       -0.029407972 -0.033679053 0.044666227 -0.040938813
0000c0 90 85 40 bd 2a cd d9 3b 10 8e 68 bd 5d aa 25 ba
       -0.047002375 0.006646772 -0.056776106 -0.00063196366
0000d0 d3 f2 c6 bc 76 56 42 bc cc 78 f9 bb 56 c4 b3 bc
       -0.02428571 -0.011861434 -0.007613277 -0.021944206
0000e0 31 2f e1 bc 5b af 21 bc 71 49 0d bd 1f c0 ef bc
       -0.027488323 -0.009868468 -0.034493867 -0.029266415
0000f0 d5 b8 b1 bc c0 9e 86 3c 69 5e 16 3d ea e4 00 bd
       -0.02169458 0.01643312 0.03671113 -0.03146831

conv3.lin.weight f4 [64, 64]
000000 7d 14 54 be 41 e0 30 3e 4b 0a 89 bd 45 06 dc bd
       -0.2071094 0.17273046 -0.06691416 -0.10743383
000010 48 0a 9c 3e 1e cb a8 be f5 c3 5f bd f6 57 9e 3d
       0.30476594 -0.32967466 -0.05463024 0.07731621
000020 8f b5 05 3d 44 e5 5f 3b fc c5 d6 bd 80 e7 29 be
       0.03264385 0.0034163753 -0.10486981 -0.16592216
000030 69 21 3a 3e b1 93 36 3e c5 e8 96 bd 05 92 9d bd
       0.18176807 0.17829777 -0.07368616 -0.07693867
000040 5d 5d 3a 3e 9d d0 e0 3b 72 a3 d4 3d bf f6 90 be
       0.18199678 0.006860806 0.10382737 -0.28313252
000050 39 00 a4 bd 36 5b f8 bd 7f a2 40 3e a2 86 28 be
       -0.08007855 -0.12126772 0.18811987 -0.16457608
000060 18 b7 ae 3d 5e a1 0a be 76 c7 c6 bd 32 26 4b 3d
       0.08531016 -0.13538119 -0.09706013 0.049596973
000070 38 da 04 be f4 05 60 bd 98 80 8e bd 0e 6a 40 3d
       -0.12973869 -0.054693177 -0.06958121 0.04697614
000080 c9 3e a2 bd 93 fa 70 3d 5f b1 17 3e a5 1e f0 3d
       -0.079221316 0.058832716 0.14813755 0.11724595
000090 a0 f8 5e 3d 6c dc 90 3e 5e ec 51 3e 1d 11 10 be
       0.054436326 0.2829317 0.20500323 -0.14069028
0000a0 d7 58 c4 ba e9 dc 26 be 4f a4 78 3e e5 e3 c6 3d
       -0.001498009 -0.16295208 0.24281429 0.09711436
0000b0 0f e1 4d 3c a9 bb 5b bd 66 c3 18 be ee 3e 35 3e
       0.012565865 -0.053645764 -0.14918289 0.17699787
0000c0 80 ec ab 3a c4 b3 f1 3d 35 d1 5a 3e a0 a8 38 bd
       0.0013116747 0.11801866 0.21368869 -0.04508269
0000d0 99 b6 87 bd c6 80 39 3e de a2 ed bd dd 7a 90 bb
       -0.066266246 0.1811553 -0.1160333 -0.0044091777
0000e0 b6 fa f8 3d 49 91 21 3e aa 2b 0f be 50 07 61 3e
       0.12157194 0.15778078 -0.139815 0.21975446
0000f0 c6 90 15 3d 59 e0 27 be 80 7d b4 3e d4 cf b5 3e
       0.03651502 -0.16394176 0.35252 0.35510123
000100 7c c3 6d 3e 47 55 97 3d 25 eb 7c bd 7c b9 7b 3d
       0.23219103 0.07389312 -0.06174769 0.06145619
000110 1c 6b 62 bc 0f 87 94 3d 39 2e ad 3d 8c 15 d2 3c
       -0.013819482 0.07252323 0.08456082 0.02564504
000120 30 1b 57 be d8 d1 3b be 42 28 25 be 12 51 7e be
       -0.21006465 -0.18341768 -0.16128638 -0.24835613
000130 68 1f 91 3c 8b b4 de 3c 8b 71 c9 bd 96 08 b2 3c
       0.017715171 0.027185699 -0.0983611 0.02173261
000140 11 86 25 3e c6 0c e9 bd c7 06 d8 bb 1a ae c3 3e
       0.16164424 -0.113793895 -0.006592605 0.38218766
000150 de c8 40 3e 3e 4b 9c bc ae 53 9f bd 7c 0c ac bc
       0.18826625 -0.019078847 -0.077796325 -0.021002047
000160 47 c3 49 3e 45 45 de 3d 1d 76 39 3e 26 f7 5d be
       0.19703399 0.10853056 0.18111463 -0.21676311
000170 6d cb f5 3d ae 72 0a be 79 31 88 bd c6 ec e5 bd
       0.12001691 -0.1352031 -0.06650061 -0.112268016
000180 44 50 0a 3e 4f d4 3a 3e fe 04 52 3e d1 c6 02 3d
       0.13507181 0.18245052 0.20509717 0.031927887
000190 b2 3e 8e 3d 03 86 81 3e f4 d6 53 be 83 cd 80 3c
       0.06945552 0.25297555 -0.20687467 0.015722996
0001a0 73 7b f0 bd 84 4b 47 be 89 9f 23 3e d0 2b b0 bd
       -0.11742296 -0.194624 0.15978827 -0.086021066
0001b0 79 5b a9 bd e7 db ba bd 5e 77 82 bc f2 73 2f bd
       -0.082694 -0.09123974 -0.01592606 -0.042835183
0001c0 b3 30 44 be 38 6b 3e be e8 d6 76 bd c9 4d 88 3d
       -0.19159202 -0.18595588 -0.060263544 0.06655461
0001d0 62 ec c9 3d 52 cb fe 3d 62 32 c3 3d 4e 03 eb 3c
       0.098595396 0.12441124 0.09531094 0.0286881
0001e0 1c a7 0e be ec 8a 8a 3c 42 25 26 be 6b ba 9e 3d
       -0.13930935 0.016911946 -0.1622515 0.077504
0001f0 b1 e5 15 3e cc 3e db 3d 03 69 87 be 5d 7b 0b bc
       0.14638402 0.10705337 -0.26447305 -0.008513299
000200 2a 0a 29 bc 85 34 c4 3d a7 f0 e0 bc 7c 43 28 be
       -0.010317365 0.0958033 -0.027458502 -0.16431993
000210 d5 f3 8a be 24 b2 a9 bd cb e1 f0 3d 65 e2 55 3d
       -0.27139154 -0.08285931 0.117618166 0.05221786
000220 ea f0 13 be 28 27 95 bd 46 32 51 be d4 b6 9c 3e
       -0.1444737 -0.07282859 -0.20429334 0.30608237
000230 7f 90 96 3c 57 52 fb 3d ef 82 32 be 32 5a 6b 3e
       0.018379448 0.122715645 -0.1743276 0.22983626
000240 f7 9a 5f be fe 0b 43 bd 76 a0 28 be 3a 5c a7 bd
       -0.21836458 -0.04761886 -0.16467461 -0.08171888
000250 2f 88 3f be 89 c3 a6 3d 42 d4 5f be 03 22 96 be
       -0.18704294 0.08142764 -0.21858314 -0.29322824
000260 71 f5 31 be 79 13 ff 3d 99 f7 74 be 9d 99 c2 3d
       -0.17378785 0.12454886 -0.23922576 0.09501956
000270 46 71 88 3d c3 30 cf 3b cd 97 a9 3b c4 51 4b be
       0.0666223 0.0063229515 0.0051755668 -0.1985541
000280 71 43 20 bc 93 5d 89 3d b8 ef 29 3e 7b 94 34 3d
       -0.009781704 0.06707301 0.16595352 0.044086915
000290 8e 9e 82 3e 3f a3 b5 be 66 16 28 3e 52 7a 4c 3e
       0.25511593 -0.3547611 0.16414794 0.19968536
0002a0 1c 5e 38 3d 68 22 03 3e a2 72 71 bc d6 88 7f bd
       0.045011625 0.12806094 -0.014736803 -0.062386356
0002b0 b3 61 39 3d 43 af 32 3e bc 12 4b 3e b0 c4 8f be
       0.04525919 0.1744967 0.19831365 -0.28079748
0002c0 d8 66 a2 bd dc ed d1 bd 91 87 eb 3b 24 d2 10 be
       -0.07929772 -0.10250446 0.0071877916 -0.14142662
0002d0 19 a5 0d be a1 6e d5 b9 9c 41 c5 bd 6b ee f0 3d
       -0.13832511 -0.0004070895 -0.096316546 0.117642246
0002e0 ec ae 79 bd 15 28 6e be 10 7e 20 3e 95 19 67 3e
       -0.060957834 -0.23257478 0.15673089 0.22568353
0002f0 64 fa de bd 41 e9 82 b9 b0 88 45 be 65 43 91 be
       -0.10887602 -0.0002496932 -0.19290423 -0.2837173
000300 6c ef ec 3c 5c 54 08 be 11 17 d5 3d bf 46 c9 3c
       0.028922759 -0.1331343 0.1040479 0.024569867
000310 39 1f d1 3d 19 21 dd bd 76 bc b9 bd 30 a4 3a 3e
       0.102110334 -0.107973285 -0.09069149 0.18226695
000320 23 9f a3 3c f9 04 1b 3e 5e 42 29 bc 78 8a ff 3d
       0.019973343 0.15138616 -0.010330765 0.12477583
000330 8c c7 08 3c 63 3b 3d bd cf 1c 0f be 57 91 15 3d
       0.008348357 -0.046199214 -0.13975833 0.03651556
000340 75 8d af bd 4f f0 9d 3d fe 95 12 bd ac 48 86 3e
       -0.08571903 0.07711851 -0.035787575 0.2622732
000350 eb 35 80 3e 9f a6 19 be 9b 57 a2 bd 08 e1 58 bd
       0.25041136 -0.15004967 -0.07926866 -0.05294898
000360 46 15 3e bd 8a b0 49 3e f0 71 43 3e b5 a0 26 be
       -0.046407007 0.1969625 0.19086432 -0.16272242
000370 4d 7b 2e be 22 d7 92 3c a0 3f b9 bc 99 f5 49 be
       -0.17039223 0.017924849 -0.022613347 -0.19722594
000380 eb 42 0e 3a 82 24 0e 3e 44 19 12 be b0 f6 d7 3d
       0.00054268417 0.13881114 -0.1426745 0.10545099
000390 4f f3 94 bd 02 41 8e 3d 31 6b e4 bd d7 b4 1b be
       -0.0727297 0.06945993 -0.11153258 -0.15205704
0003a0 52 bd 7c bd f5 f7 6a 3e f3 e7 71 3e 17 95 85 3e
       -0.061703987 0.2294615 0.23623638 0.2609031
0003b0 53 bf c4 3d 5c 7f 52 3d 6b 19 b0 bd 83 b1 1e bd
       0.09606805 0.05139099 -0.08598598 -0.038743507
0003c0 d7 4f f8 3d 10 1e 3d bd 98 62 4a bd a8 a0 43 be
       0.12124603 -0.046171248 -0.049410433 -0.19104254
0003d0 f0 52 2f be b8 60 d4 3c e8 7f f9 3b 97 ac db 3c
       -0.17121482 0.025925025 0.0076141246 0.026815696
0003e0 e8 27 eb 3c 86 9f 91 3d 3a a6 ad 3c 52 e2 09 bc
       0.028705552 0.07110505 0.021197427 -0.008415775
0003f0 fb 9b f0 3d 23 67 f7 bd 23 bd 14 3d 61 41 5c be
       0.11748501 -0.12080219 0.036313187 -0.21509315

fc1.weight f4 [256, 64]
000000 bf 68 1a be 86 dd 8a b9 dd 89 93 3e 92 c6 e8 3d
       -0.1507902 -0.0002648646 0.2881612 0.11365999
000010 fb 9f b9 bd 1c 4b 35 3e 6b b6 04 be b8 38 f7 bc
       -0.09063717 0.17704433 -0.12960212 -0.030178413
000020 92 8d 82 3d 2c d6 11 bd d0 d7 21 3e 30 68 43 3c
       0.06374659 -0.03560464 0.15804982 0.011926696
000030 49 88 ac 3c ec 88 90 3d e2 c8 1a bd 32 b1 c7 bc
       0.02106108 0.07057366 -0.037789233 -0.024376485
000040 5d 3c ec bd 00 bf 5c bc f8 03 6b bd af 7d 12 3e
       -0.11534951 -0.013473272 -0.05737683 0.14305757
000050 e0 48 19 3d 2a b7 da bd 46 fa 59 be db c7 7b 3c
       0.037423015 -0.10679467 -0.21286878 0.0153674735
000060 c8 be 13 bb c4 e8 07 bc 50 36 f2 bd 15 4c a3 bd
       -0.0022544134 -0.008295242 -0.118267655 -0.07973496
000070 ed 8e e9 3b 54 ce 0b 3e 77 50 93 3c ab 51 6f 3d
       0.007127634 0.13652927 0.017982705 0.058427494
000080 27 c1 5d bd 5b 54 de 3d 83 21 7a bb 4b 18 3a bc
       -0.054139283 0.10855933 -0.0038166947 -0.011358331
000090 6f 76 2c be b4 f3 c2 3d 98 9e 2a bd 9c 1c 05 3b
       -0.16842054 0.09519139 -0.041655153 0.0020311242
0000a0 0f 72 41 3e 20 88 00 3d e8 ee a9 bd ad c5 45 bd
       0.18891166 0.03137982 -0.08297521 -0.04828422
0000b0 ab ec 2e 3d 2a 87 89 3d 97 50 a2 3d 9a be ee bc
       0.042706173 0.067152336 0.079255275 -0.02914362
0000c0 ca 13 86 3d 07 5e 95 3d 4f 46 bf bd e8 53 36 be
       0.06546743 0.07293325 -0.09339582 -0.17805445
0000d0 85 66 19 3d e5 77 ac 3b 73 c3 c4 bd ce bb ce bd
       0.037451286 0.005263316 -0.096075915 -0.10094415
0000e0 e6 8e 07 bd c6 69 a7 3d 0e d0 a9 3d 38 44 e3 bd
       -0.033095263 0.081744716 0.082916364 -0.11096996
0000f0 c1 1e e3 bd b2 e3 68 3c 84 77 18 bd 69 89 38 3d
       -0.1108985 0.014214443 -0.037223354 0.04505292
000100 28 ec df bd 11 7c cb 3c 22 92 98 3e 62 86 cb 3d
       -0.10933715 0.024839433 0.2979899 0.09937741
000110 f6 74 85 bd fc 07 f2 3d 65 6e 86 bd 45 a5 2c 3d
       -0.06516449 0.11817929 -0.06564025 0.0421498
000120 ef d7 44 3e ea 3b 2f 3d 19 96 88 ba b9 b5 b5 bd
       0.19222997 0.042781748 -0.0010420709 -0.088725515
000130 11 2c ab bd 5a 66 95 3c dc c4 4b 3e 90 da 7a bc
       -0.083580144 0.018237282 0.19899315 -0.015310898
000140 56 ea 94 bd ec a7 02 be 02 a7 2d bd 2c 72 10 3c
       -0.072712585 -0.1275937 -0.0423956 0.008816283
000150 5b 9f dd 3d ce 26 d7 3c 70 a1 52 be b6 49 93 3e
       0.1082141 0.02626362 -0.20569396 0.28767174
000160 90 6a a7 bd aa bd d8 3a 14 d8 71 3d 28 8a c8 bd
       -0.08174622 0.0016536016 0.05904396 -0.09791976
000170 42 12 ab 3d 22 c6 4b 3d f4 54 83 bd c7 32 2a 3d
       0.08353092 0.0497495 -0.06412688 0.04155233
000180 fc 37 ff 3c 43 03 c0 3d bd 38 c8 bd 12 c7 fc bd
       0.031154625 0.09375622 -0.09776447 -0.12342657
000190 96 87 fd bd bc c4 9d bd ed 91 2c be a8 fc 9c 3d
       -0.123793766 -0.0770354 -0.16852541 0.07665378
0001a0 dc b2 3b 3e 05 e7 9b 3e 0d 10 4e 3d 12 4c 9b 3d
       0.18329948 0.3044969 0.050308276 0.07582869
0001b0 34 b8 4e bd 7c 75 6f bd 44 37 77 bd 4a 30 e2 bd
       -0.05046864 -0.05846165 -0.06035544 -0.11044367
0001c0 be cd 0a bd 22 31 62 3d 3b da 69 bd 6a 2b 46 be
       -0.033887617 0.055222638 -0.057092886 -0.19352499
0001d0 2f 40 fe bb 9f 59 65 3d ba d3 14 3d 5b 7d 06 be
       -0.007759116 0.055993672 0.03633473 -0.13133757
0001e0 a1 67 a1 3d 1b 3f dc bd 7a f8 30 3c f4 d7 ad 3c
       0.07881094 -0.10754224 0.010801429 0.021221139
0001f0 2a 70 56 bd c3 fb fb 3d 3d c9 0b 3d b1 6b a4 bc
       -0.05235306 0.12303879 0.034127463 -0.020070883
000200 78 96 7a be 90 95 14 3c 2f ab ac 3e a2 18 ba 3d
       -0.24471462 0.009068862 0.33724353 0.090867296
000210 89 33 f5 bd 23 b9 58 3e d0 c3 db 3c 9c de e1 3c
       -0.1197272 0.21164374 0.02682677 0.027571969
000220 7c be 5b 3e 63 4d 4e bd 9a 46 df 3d 06 64 e8 3c
       0.21459383 -0.05036677 0.10902138 0.028368007
000230 e1 6b f4 bd 21 28 2d 3d e6 d4 07 3c 40 24 cb 3c
       -0.11934639 0.042274598 0.008290505 0.024797559
000240 2b 61 c1 bd 97 45 c1 bd 5d 98 97 bd dd b5 d7 3d
       -0.094423614 -0.09437101 -0.07402108 0.105327345
000250 c4 97 88 3b fd c9 7d 3c 06 b8 fc bd 06 d2 ca 3d
       0.0041684825 0.015490052 -0.12339787 0.0990334
000260 29 05 38 be 6b 67 55 3d 09 62 90 bd f6 de b8 ba
       -0.17970718 0.05210058 -0.07049949 -0.0014104533
000270 3c af 91 bd 16 4d 43 bd cf 17 41 bd f2 00 c0 3c
       -0.071135014 -0.047680937 -0.047141846 0.02343795
000280 25 e1 8c 3d 63 e7 8b 3e a0 cf 1a be c4 df 51 bd
       0.068788804 0.27324972 -0.15118265 -0.05123879
000290 c0 67 85 bd 83 aa ab 3c 3c 1c 96 be 0a a2 b1 3d
       -0.06513929 0.02095533 -0.29318416 0.086734846
0002a0 10 0d 74 3d 78 40 82 3d 87 02 c3 bb e0 a6 28 3d
       0.05958277 0.06359953 -0.005951229 0.04117477
0002b0 75 0c b8 3d f6 80 ee bd d6 ef 8c bd 90 02 53 3d
       0.08986751 -0.11645691 -0.068816826 0.051516116
0002c0 96 c2 85 bb 22 77 79 bc d3 c4 81 bd f2 cf a3 bd
       -0.0040820343 -0.015226157 -0.06336369 -0.07998647
0002d0 0e 71 a3 3d 32 cb 33 3e e6 38 99 bd 2c e6 cb bc
       0.07980548 0.17557982 -0.07481556 -0.024890028
0002e0 50 77 61 3d 6a 51 06 be 35 8a fb bc 68 52 03 bd
       0.055045426 -0.13116995 -0.03070555 -0.03206101
0002f0 0e 9c 29 be 4c 71 75 3d 82 a5 4c bd e3 60 a0 3d
       -0.16563436 0.0599225 -0.049962528 0.0783098
000300 eb 45 86 bc 5f a3 e7 bc f3 70 fa 3e 8d 02 72 3d
       -0.016390761 -0.028276144 0.48914298 0.059084464
000310 3c 90 7f 3a c2 a0 3b 3d 2c e2 05 3c 75 b1 b7 3c
       0.00097489706 0.045807607 0.008171599 0.022423485
000320 8f 82 89 3e 94 41 23 3d 9b 33 c0 bc f1 91 93 ba
       0.2685742 0.039857462 -0.023462107 -0.0011258704
000330 a7 06 1f be 82 8e 58 3d 98 fb 3f 3e 60 63 bc bd
       -0.15529881 0.05287028 0.18748319 -0.09198642
000340 a8 70 46 bd f2 ec 3e be 25 a7 8d 3d c6 93 96 3e
       -0.04844728 -0.18645075 0.06916646 0.29409617
000350 4e 7e 11 bd 39 24 0e 3d 48 2a d0 bd f8 77 9c 3e
       -0.035520844 0.034702513 -0.101643145 0.3056028
000360 55 b7 d1 bd d9 21 f2 3b ed 6e 1d be 19 4b 40 be
       -0.10240046 0.007389289 -0.15374346 -0.18778647
000370 8f a3 19 3e aa 49 ad 3d 39 b7 ea b9 57 65 3f bd
       0.15003799 0.08461316 -0.0004476847 -0.046727505
000380 06 ed b9 b9 20 b2 60 3e a1 61 13 3d 57 fb df bd
       -0.00035462546 0.2194295 0.035981778 -0.10936611
000390 5d 21 36 be 94 a7 bd 3d 43 fe b8 bd 1b a1 4c 3c
       -0.17786165 0.092604786 -0.090328716 0.012489582
0003a0 ea df 54 3d e7 c7 c2 3e d7 7c cd bd 37 e4 86 bd
       0.051971354 0.38043138 -0.10033577 -0.06586497
0003b0 bd 87 ef 3d c2 63 e8 bc 58 e5 12 bb 3c a1 1a 3e
       0.11695812 -0.02836788 -0.0022414532 0.15100569
0003c0 0a f0 11 3e 8f 93 ea bd e5 0e d5 3d 7d e3 68 be
       0.14251724 -0.11453926 0.104032315 -0.2274303
0003d0 e8 55 c1 bd 08 f6 54 bc 43 6f ca bd b4 83 42 3c
       -0.094402134 -0.012998112 -0.09884503 0.011872221
0003e0 df 69 70 3e 0d 11 04 be 79 ff 1f bd 26 e2 8f 3c
       0.23477887 -0.1289713 -0.039061997 0.01756389
0003f0 4f 14 0f be 55 8d 7d 3d 9d f1 c0 bd 5f 1d d9 3d
       -0.13972591 0.061902363 -0.09421084 0.10601305

fc1.bias f4 [256]
000000 d6 a4 20 3d 94 81 b5 3d cd 62 a7 3d be 10 e3 3c
       0.0392197 0.08862606 0.08173142 0.027717944
000010 94 d4 75 3d c8 d1 f9 3d 5f de 93 3d 2f ac 5a 3d
       0.060017183 0.12198216 0.07220148 0.053386863
000020 b8 c4 25 3d 2e 1d a9 bd da 96 de 3c a3 c8 ee bc
       0.04047081 -0.08257519 0.027171541 -0.029148405
000030 53 96 c9 bc 2d b4 ee bd d6 cc 7b 3d a3 2d 07 be
       -0.024607813 -0.116554596 0.061474644 -0.13201003
000040 42 2a e6 bd c0 d9 38 3d 1c e8 1a bd ea 9f f3 bc
       -0.11238529 0.045129538 -0.037819013 -0.029739339
000050 d8 91 3f bd 5b 08 74 bd 13 c5 9b bd 47 be b3 bd
       -0.046769947 -0.05957828 -0.07605948 -0.08776527
000060 35 05 73 3d 38 27 e0 3c e4 49 17 3d e2 2f 74 bd
       0.059331138 0.027362451 0.036935702 -0.059615977
000070 8b 78 6a bd 36 1d ff bd 33 25 ea 3d 86 a2 80 bd
       -0.057243865 -0.124567434 0.114328764 -0.06280999
000080 8c e4 7b 3d 75 76 58 3d ff 67 61 3d 54 3c 07 3c
       0.061497256 0.052847344 0.05503082 0.008254129
000090 6c 8c 0a 3d 49 76 16 be 31 93 0c be 86 6b 73 3d
       0.033825323 -0.1469356 -0.13728024 0.059428714
0000a0 57 4e 2d 3d b8 ba e5 bd 23 77 b2 3d 95 2b d9 3c
       0.04231104 -0.112172544 0.0871413 0.02651004
0000b0 1f b9 98 3d 8e 0e 4c 3d 06 ea fc 3c 99 72 c9 bb
       0.07457184 0.049818568 0.03087331 -0.0061476943
0000c0 cf 97 3c 3d 87 d8 ee 3c ff 87 8b bd 3e 3f 91 3d
       0.046043213 0.029155983 -0.068130486 0.070921406
0000d0 81 81 a5 3d 7e 15 d4 3c dc 0a ad bb ef 70 f5 ba
       0.080813415 0.025889155 -0.0052808356 -0.0018725673
0000e0 2a 9b 16 be 89 ec 81 3d d8 c0 c4 3c 4d 01 e3 bd
       -0.14707628 0.063439436 0.024017736 -0.110842325
0000f0 7e 5b ed bd f2 75 89 3d 4b 1a de 3c 39 12 03 bd
       -0.115897164 0.067119494 0.027112147 -0.0319998
000100 3a d9 77 3d 74 14 b4 bd ed 4e 32 3d db 69 f0 bd
       0.060509898 -0.087929636 0.0435323 -0.1173894
000110 8e ed 03 be 1c d9 12 be ba 7d 93 3c 18 68 e0 bd
       -0.12883589 -0.14340633 0.018004287 -0.10957354
000120 c1 18 c3 bd fd 77 86 3d 0a ea af bc e6 f8 27 3d
       -0.09526206 0.06565855 -0.021473903 0.041008852
000130 f2 aa 6d 3d cc 47 9e 3d 08 e8 20 be cb b8 b7 3d
       0.058024354 0.07728538 -0.15713513 0.08970793
000140 9f 51 f7 3d 8b 01 6f 3d c1 d9 9a 3c 4a 26 12 3d
       0.12076115 0.05835108 0.018902661 0.035681047
000150 cc e4 c1 3d 44 d8 96 3d d7 ac a7 3d 5c 16 a9 3d
       0.09467468 0.07365468 0.081872635 0.08256218
000160 56 3a ff bd 50 54 6f 3c f4 96 05 3e 0b 2a d1 3d
       -0.124622986 0.014607504 0.13045865 0.10213097
000170 78 60 76 bd bd 4c 9f 3d c8 47 ac 3c b0 1c bd 3c
       -0.060150594 0.077783085 0.021030322 0.023084968
000180 60 81 ef bd e8 d9 77 3d b6 34 a4 3d b2 84 a9 3d
       -0.11694598 0.060510546 0.08017866 0.08277263
000190 fc 07 24 bc 00 86 1c 3d 3e 92 f8 3c 39 5e 82 bd
       -0.010011669 0.03821373 0.030343171 -0.06365628
0001a0 9b f0 d5 3c 14 a9 79 3d 4a a5 42 3d 88 03 db bd
       0.026115706 0.06095226 0.047520913 -0.10694033
0001b0 4d 12 b0 bd ec 4b 81 3d 5b 32 01 be 1c bf a4 3d
       -0.085972406 0.06313309 -0.12616865 0.08044264
0001c0 50 1d 46 bd e5 6b 78 3d fe 07 93 bd 3c 0f c5 bd
       -0.0483678 0.06064977 -0.07179259 -0.09622046
0001d0 a2 39 2c 3d 23 08 48 3d 14 e7 d9 bd 7f 75 ee 3c
       0.04204715 0.048835885 -0.10639778 0.02910876
0001e0 17 51 26 3c 7c b5 ae 3d b7 18 a5 bd f6 c4 c5 bd
       0.010151169 0.08530709 -0.080613546 -0.09656708
0001f0 12 04 cb 3d a1 9f 2e 3d 36 89 f6 3d c2 e2 6d 3d
       0.09912886 0.042632703 0.1203789 0.05807758
000200 95 ef 91 3d 70 f8 0e 3d fa 97 98 3d 9e 96 c4 3d
       0.07125775 0.034904897 0.07450862 0.095990404
000210 2e 44 94 3d 12 70 ef 3c b5 ce b9 bd 6d b4 98 3d
       0.07239567 0.029228244 -0.09072629 0.074562885
000220 3e 24 08 3d 25 db e9 bd 22 37 23 3d a2 0c 79 3d
       0.03323769 -0.114187516 0.0398475 0.060803063
000230 5b 15 c8 3d be ca 53 be be 19 c2 3b b7 be 95 3c
       0.09769698 -0.20682809 0.005923479 0.018279416
000240 34 94 89 3d f1 97 fe bd cf 3a 5f 3c 6b a3 c3 3c
       0.06717721 -0.12431324 0.013624861 0.023881635
000250 56 4d 1d 3d 36 54 9f bd b9 22 e4 bd 1a 38 dd bd
       0.03840383 -0.07779734 -0.11139435 -0.10801716
000260 cb 4b eb 3d e5 37 d1 3d 87 82 ab 3d eb 89 1a 3d
       0.11489066 0.10215739 0.083745055 0.037729185
000270 19 80 48 3c 7d 70 22 3d db be d2 3d 28 cd 35 3d
       0.012237572 0.03965806 0.10290309 0.044385105
000280 20 85 ae bd 7c fe ab bd 95 6f 2c 3d 8e 67 b3 bd
       -0.08521485 -0.083981484 0.0420986 -0.08759986
000290 79 59 f8 3c 64 53 03 be f2 9c 07 3d 4e 23 d5 3c
       0.030316101 -0.1282478 0.03310866 0.026017811
0002a0 a2 a2 c3 3c af bc 23 3d 4c e0 32 3c 4a 47 9c bc
       0.02388126 0.039974865 0.010917734 -0.019076962
0002b0 5c d8 dd bd 8c 6c 68 3d de 54 86 bd 75 af c0 3c
       -0.10832283 0.056744143 -0.06559156 0.023521164
0002c0 88 60 f9 3d f2 a0 cb 3c fc 1d a0 3c c2 eb e6 3c
       0.12176615 0.024857018 0.019545548 0.02818859
0002d0 dc 4b a8 3d 68 b5 be bd 6b dc ad bd 0d bf cd bc
       0.08217594 -0.09311944 -0.08489307 -0.025115514
0002e0 a4 9f 6d bd 37 cc 8f 3d 74 f7 cb bd 79 df 29 3d
       -0.058013573 0.07021373 -0.09959307 0.041472886
0002f0 7a 39 1a bd e2 b0 e5 3c 9e 44 cb bd 62 8f e1 3d
       -0.03765247 0.028038446 -0.09925197 0.11013676
000300 a0 bf 77 bd 03 5e 28 3a ec 9f f6 bd f7 97 0d 3d
       -0.060485482 0.00064227 -0.120422214 0.034568753
000310 0a 93 9b 3d d3 14 ba 3d 0c 39 3a 3d 42 4e 5f 3d
       0.07596405 0.09086003 0.04546456 0.05451799
000320 ef 37 39 3d 9d e0 e5 bd 5a ea e7 3d 3a 0a 86 bd
       0.045219358 -0.11224482 0.11323996 -0.06544919
000330 b2 6a 19 3d 23 46 8a 3d f6 da af 3d 11 49 fd 3d
       0.03745527 0.06751659 0.08586685 0.12367452
000340 b5 ec 03 be f3 d6 60 3d 2f 26 8d 3d 63 e5 72 bd
       -0.12883265 0.05489249 0.068920486 -0.05930079
000350 04 12 1c 3d 06 fa d5 3c 99 cd 65 3d 23 7c 74 3d
       0.03810312 0.026120197 0.056104276 0.0596887
000360 cc 93 c9 bd 22 52 f1 bb dc 43 f0 3c 54 32 a3 3d
       -0.09842643 -0.0073645273 0.029329233 0.07968584
000370 27 03 be 3c fa 58 01 3d 93 a1 97 3d 6a f3 c6 3b
       0.023194863 0.031578995 0.07403865 0.0060714977
000380 96 3f fa b9 c8 fa e5 bd d3 b0 03 3d 8e 2f 0c 3d
       -0.0004773109 -0.11229473 0.032151055 0.03422504
000390 1d 29 13 bd be e2 ef bd b6 71 c7 bd 12 41 c3 bd
       -0.03592788 -0.117131695 -0.097384855 -0.095338956
0003a0 76 f6 a5 3d 4b 4e 00 3e 5c 44 13 3d c5 1f be 3d
       0.08103649 0.12529866 0.035953864 0.09283403
0003b0 97 9e fc bd 44 18 60 bc b8 e4 97 bd 0f 7b 01 bb
       -0.12334936 -0.01367766 -0.074166715 -0.0019757187
0003c0 da 36 6a bd 41 37 b8 3c b3 ce 47 3d 9f 3b d2 bc
       -0.057181217 0.022487285 0.048781108 -0.025663195
0003d0 f2 08 29 3b dd 84 81 3c 83 79 b5 3d a7 e7 e0 bd
       0.0025792685 0.015810424 0.08861067 -0.10981684
0003e0 10 7c a9 3d 73 e5 02 be 37 6f a2 3d 31 bf 01 3d
       0.08275616 -0.1278284 0.07931369 0.031676475
0003f0 f0 b2 e8 3c e0 2b 97 3c 30 87 dc 3d 80 32 7b 3d
       0.028405637 0.018453538 0.107679725 0.061327457

fc2.weight f4 [128, 256]
000000 c0 68 92 ba 62 d9 49 bd 58 f0 87 3c 40 64 58 bc
       -0.0011170134 -0.049279578 0.016594097 -0.013207495
000010 5a 2d 63 bd d0 4b d5 bc 3e c9 0b 3d 80 08 9f bc
       -0.055463172 -0.026037127 0.034127466 -0.019413233
000020 b8 36 75 3d fe b1 18 3d 40 7f 32 3c 24 0f df bc
       0.059866637 0.03727912 0.010894597 -0.0272289
000030 2c 08 86 3c f8 60 df 3c 96 1e 2b bd 48 d1 54 3c
       0.016361319 0.027267918 -0.041777216 0.01298935
000040 78 75 4e bc a2 6a 36 bd 54 2d 85 bc 70 6d 3a 3d
       -0.012601249 -0.044535287 -0.016256966 0.045514524
000050 3c ff 72 bd 58 c3 91 3c 00 84 4f bb 10 63 16 bd
       -0.05932544 0.017793342 -0.0031664371 -0.036715567
000060 aa 77 0c 3d 40 06 38 bd 7e fe 58 3d 3c 20 1e 3d
       0.034293808 -0.044927835 0.052977078 0.03860496
000070 c0 35 b0 3a 20 f2 46 3d ec f6 78 bd 9c 15 e9 bc
       0.0013443753 0.048570752 -0.060782358 -0.028452687
000080 a2 04 30 bd c6 9c 7f 3d 28 8f 66 bd 66 37 49 bd
       -0.04297317 0.06240537 -0.05628887 -0.049125098
000090 ee d2 46 3d f0 e9 4c 3c 8c 08 86 bc 46 d8 51 3d
       0.048541002 0.012506947 -0.016361497 0.051231645
0000a0 40 54 40 bd 40 89 27 3b e0 fe c1 bb 1a 7a 0c 3d
       -0.046955347 0.0025563985 -0.005920276 0.034296133
0000b0 c2 9e 2b 3d 5c 09 5d 3d d8 21 0a 3d f0 c5 c0 bb
       0.04189945 0.053964004 0.033723682 -0.005882971
0000c0 98 21 0f bc c4 22 32 3d b4 65 e7 3c a0 a5 bd bc
       -0.008736037 0.043490186 0.028246738 -0.023150265
0000d0 40 b8 87 3b 78 db 86 3c a4 49 c3 bc 48 0f 28 bd
       0.0041418374 0.016462073 -0.023838826 -0.0410302
0000e0 18 6a 6f bc 30 2c 32 3d 80 8a 61 bc 20 fe da 3c
       -0.014612697 0.04349917 -0.013765931 0.026732504
0000f0 ee f9 17 3d de ac 44 bd c0 44 81 3a c6 0c 60 3d
       0.037103586 -0.04801642 0.0009862408 0.05469968
000100 ac c3 ef 3c 30 47 73 bd 68 02 1a 3c 30 de b0 bc
       0.029268108 -0.05939406 0.009399988 -0.021590322
000110 58 b7 cb 3c 8a de 77 bd 5e 88 63 3d b2 80 4b 3d
       0.024867699 -0.060514964 0.05554997 0.04968328
000120 3a 13 3f 3d c6 0e 22 bd 84 cc 3f bd 70 7f 84 3b
       0.046649195 -0.03956487 -0.0468259 0.004043512
000130 e8 44 2d bc e8 ce a2 3c 96 88 73 3d 1a 90 23 3d
       -0.010575511 0.019874051 0.05945643 0.039932348
000140 3c c7 ce 3c 8e ee 59 bd 20 ae 3f bc e0 ec cc 3c
       0.025241487 -0.05320602 -0.0116992295 0.025015295
000150 58 0e 2c 3c 08 ce 03 bd 9e 9f 50 3d 9e 8d 69 bd
       0.010501467 -0.03217891 0.050933473 -0.057019822
000160 a8 ae ef bc e0 70 8c 3c a8 15 86 bc 90 70 02 bd
       -0.029258087 0.017143667 -0.016367748 -0.03184563
000170 e0 6c 36 bc 38 2f b6 3c ba 44 60 3d 3e 79 2a bd
       -0.011134356 0.022239313 0.054753043 -0.04161953
000180 54 78 5d 3d c8 59 b4 3c 88 19 74 3c 24 8a 4e bd
       0.054069832 0.022015467 0.014898665 -0.05042471
000190 d6 11 51 3d 90 57 ae 3b 70 a1 b2 bc a0 7c 02 3d
       0.0510424 0.005320497 -0.021805495 0.031857133
0001a0 f4 cd 30 bd a0 ae 04 3c 4c 7b 23 3d 8c 2e 0c bd
       -0.043165162 0.0080982745 0.039912507 -0.034224078
0001b0 6e 66 27 3d 60 8c 4b bd 7c ea ee bc d0 30 d0 3b
       0.04086917 -0.04969442 -0.029164545 0.006353475
0001c0 a6 f2 21 3d 32 9b 67 3d 98 51 4a 3c 68 1a 24 3c
       0.03953805 0.05654449 0.012348555 0.010016061
0001d0 fa b6 15 bd a8 fd 0a bc d0 c6 b2 bc a0 72 4b bc
       -0.036551453 -0.008483328 -0.021823317 -0.012417465
0001e0 32 39 18 bd 08 3a f5 bc d0 6b f6 3c 60 5f 79 bb
       -0.03716392 -0.029934898 0.030080706 -0.0038051233
0001f0 d0 53 9f 3b 98 b6 ab bc da 43 0a bd de 3e 25 bd
       0.004862286 -0.02096109 -0.033756115 -0.040343158
000200 68 68 02 3d a8 0c 04 bd 90 af e8 3b b0 1c c3 bc
       0.03183785 -0.032238632 0.007101007 -0.02381739
000210 e0 4f 6b 3d a0 26 4c 3c 60 90 74 bb 7c 54 a5 bc
       0.05744922 0.012460381 -0.00373175 -0.020181887
000220 a4 b3 4f bd 58 ba 48 bd e8 7c 24 bc b0 89 5e 3d
       -0.050708428 -0.049005836 -0.010039546 0.054330528
000230 30 aa 98 3b e8 e0 72 bd e0 e6 5d bd b8 7c 1d 3c
       0.00465896 -0.05929652 -0.054175258 0.009612255
000240 64 9d ee 3c 60 ab 53 3c 18 b4 63 3d 60 64 59 3d
       0.029127784 0.012919277 0.055591673 0.05307424
000250 20 7d 65 3b b2 ef 10 3d d0 e1 23 bd c0 c1 34 bb
       0.0035017207 0.03538484 -0.040010273 -0.0027581304
000260 30 c5 43 3c aa 9e 47 bd 98 69 12 3d 70 e2 4f bd
       0.011948869 -0.0487353 0.035745233 -0.050753057
000270 60 2b 64 bc e8 ea 6f bd 90 c7 75 bd 48 63 52 3d
       -0.013926357 -0.058573633 -0.06000477 0.051364213
000280 f6 d5 29 bd 20 e2 2c bc 6a d3 7b bd c0 a8 f8 3a
       -0.041463815 -0.010551959 -0.061480917 0.001897119
000290 b0 b8 fc bb 34 f2 09 bd f4 17 60 bd 58 ce 7f 3c
       -0.007712446 -0.03367825 -0.054710343 0.015613161
0002a0 d0 87 6b bd 00 81 19 3b 0c a0 a3 bc c0 27 1c bc
       -0.057502568 0.0023422837 -0.019973777 -0.0095309615
0002b0 88 12 cb 3c e8 9c a1 3c 20 d3 e5 bb 00 a3 a4 b9
       0.02478911 0.019728139 -0.0070136935 -0.00031401962
0002c0 e8 8e 43 bd a8 45 5e 3c 78 f4 37 3d 10 bb 9a bc
       -0.047743708 0.013566412 0.044910878 -0.018888026
0002d0 2c d8 b1 3c ec 0b 93 bc a0 97 21 bb 4a 64 74 3d
       0.021709524 -0.01795002 -0.0024657026 0.059665956
0002e0 20 54 85 3c c0 a8 c6 bc 28 22 42 bc 50 e2 99 bc
       0.016275465 -0.024250388 -0.011848964 -0.018784672
0002f0 ca e3 43 bd 78 1c 56 bd 94 bf 33 bd b8 71 57 bc
       -0.04782466 -0.052273244 -0.043883875 -0.013149671
000300 5a 28 1b bd 76 c6 0d 3d ec c9 5b bd 2a 7b 0f 3d
       -0.03788028 0.034613095 -0.053659365 0.035029568
000310 c0 f2 7e 3d 60 62 09 3b d2 bd 21 bd d4 89 77 3d
       0.062243223 0.0020963177 -0.039487667 0.060434178
000320 5a 46 0a 3d ba 2e 57 bd 68 07 08 3c 5c 43 e4 bc
       0.0337585 -0.052534796 0.008302547 -0.02786415
000330 40 8a 0f 3d 0a a1 0e bd 38 ef 7a 3c 10 95 ab 3c
       0.035043955 -0.034821548 0.015315823 0.020945102
000340 d8 a2 e3 3c 04 bf 68 bd 44 fa 71 bd b8 ed e3 3c
       0.02778761 -0.05682279 -0.059076563 0.027823314
000350 18 8a 85 bc 44 09 df 3c 64 a1 8d bc 98 31 45 bd
       -0.0163012 0.027226098 -0.017288871 -0.048143
000360 cc 78 16 3d f2 d2 20 bd b2 2e 08 3d 74 10 56 bd
       0.036736295 -0.039263673 0.033247657 -0.052261785
000370 0a aa 6b 3d 1c a1 99 bc 20 56 51 bd 1a 8f 66 3d
       0.05753521 -0.01875358 -0.051107526 0.056288816
000380 80 0c 19 bc 00 f4 b6 3b 22 d0 7d bd 40 86 5d bc
       -0.009341359 0.0055832863 -0.06196607 -0.013520777
000390 48 d1 32 bd 3a 06 43 bd 58 ea d5 3c 3c ae 5d 3d
       -0.043656617 -0.04761336 0.02611272 0.05412124
0003a0 a4 29 42 bd e6 de 27 bd ac 41 c5 bc 70 ce 1f 3d
       -0.047402993 -0.040984057 -0.024079166 0.039015234
0003b0 80 bb 79 bd 58 b2 eb bc 4a d8 3f 3d e8 05 6b 3c
       -0.06096983 -0.028771564 0.04683713 0.01434467
0003c0 c8 30 2c 3c 78 a8 3f 3d 4e 83 5f 3d ae c5 06 bd
       0.010509677 0.046791524 0.05456858 -0.032903366
0003d0 e8 9a a8 3c 80 ad 0d bb fc c3 2d bd 14 e7 2e 3d
       0.020581678 -0.0021618307 -0.042423233 0.042700842
0003e0 e0 72 51 bd d6 88 3c bd a0 50 77 3b d0 19 73 3c
       -0.051134944 -0.046028934 0.0037737265 0.014837697
0003f0 a8 00 52 bc 30 83 e5 bc a2 cd 69 bd be 88 24 3d
       -0.012817539 -0.028016657 -0.057080872 0.04016947
