data/predictor/Ablation/4_201_TNetwork-F_2024-06-30_20-46-29.pt (torch, 271947 bytes, 14 tensors)

conv1.bias f4 [64]
00000000: 1833 ea3b 0000 0000 1dc9 e73c bb03 16bc
00000010: 0000 0000 56bc 66bd c671 20bc 50a9 413c
00000020: ae87 c1bc 5e7b 1d3d c9e7 52bc 4e02 35bd
00000030: e8b0 c53c 1fdc 283d ca1d 6ebd b459 fabc
00000040: d681 20bc e4a0 a4bc 997d 9bbc a3b2 4cbd
00000050: 86df c03c 5cb9 2ebc 5a2b c8bc e55d d7bc
00000060: 28f6 9ebc 77b4 bcbb 57a5 82bd 5efc 4dbc
00000070: 22d7 403d 44d0 61bd acb7 afbc f1e1 2fbd
00000080: 942f 2fbc bf53 8fbc 9cdf d6bc 861e a13b
00000090: 2336 17bc a383 09bd 8c98 0fbd 1244 9b3b
000000a0: c51b 1cbd 30c5 02bd 9aae 3dba ba77 7f3b
000000b0: 3604 023d eab8 083d f8e9 08bc 1738 26bd
000000c0: b7b4 dbbc 0000 0000 1ac8 b3bc b2af 14bd
000000d0: 471d 4bbc 548c 3f3c 6439 f1ba 5600 5dbd
000000e0: 9df6 8a3c c785 063c 7b06 3a3b 558f fbbc
000000f0: f698 8fbc 2b6d e738 d5de fc3c 2a9e 83bc
0.007147204 0.0 0.02829414 -0.009156163 0.0 -0.056331955 -0.009792751 0.011820152
-0.023624267 0.03844773 -0.012872645 -0.04419165 0.024132207 0.04122555 -0.058133878 -0.030560352
-0.00979658 -0.02009625 -0.018980788 -0.04997505 0.023544084 -0.01066431 -0.024434734 -0.02628989
-0.019404486 -0.005758818 -0.06379192 -0.012572376 0.047080167 -0.05513026 -0.021449886 -0.042940084
-0.010692496 -0.017495988 -0.026229672 0.0049169688 -0.009229216 -0.033572804 -0.03505759 0.004738339
-0.03811242 -0.031926334 -0.00072357955 0.0038981275 0.031742297 0.033379473 -0.008356564 -0.040580835
-0.02681957 0.0 -0.021946002 -0.03630037 -0.012397117 0.011691172 -0.0018403945 -0.0539554
0.016963298 0.008210606 0.002838521 -0.030707994 -0.017528992 0.000110352725 0.030867973 -0.01606663

conv1.lin.weight f4 [64, 4]
00000000: e0bd 88bd 75d2 c33d 1916 76bd f2c8 6d3e
00000010: b4df 0ebe d828 72be 1e81 cabd 99e7 8dbe
00000020: b821 cabe 473a e0be ba5d 0abd a900 be3e
00000030: 5b6d 0a3e 1d19 173e abe9 abbe 10bc 583e
00000040: f05f 56bd b642 60be fa33 67be 504c 77be
00000050: 7f7a d0be ae54 053e 7356 893e dfb3 1fbe
00000060: 241d 19bd 0bdd 8abe d5bb dc3b 6ce5 39be
00000070: e329 f0be c7cd 913e dcdc 17be 9524 503e
00000080: 0eb5 303e f148 3dbd 1521 9e3e aa4a 703c
00000090: 1666 73be 2929 8bbe 6720 693d 0328 8e3e
000000a0: 8e71 64be 3147 0a3d 1daa 5e3e 729a 463e
000000b0: c179 aebd 19f4 f73d 5e95 ea3d c511 e3be
000000c0: d7fd dcbd 45d3 06bc 1ccf 7dbb 3eab 123f
000000d0: f303 15bf 1e66 39bf 5f17 c53d a78b a8be
000000e0: ce08 ffbd 70fc 6a3e ca16 853d ab7c f5be
000000f0: 9392 edbc e05e 673e d9ed 553e 66a1 943e
00000100: 77f0 903c abc0 983e edb2 92be 0430 2ebf
00000110: 5385 5b3c 5d39 a83d de51 4abd 315e 42be
00000120: d343 483d 0cd2 15be 856b 98be e6f4 843e
00000130: e1c4 c4bd 87a4 273e 3bc8 f13d a3c7 b9bd
00000140: dfe1 5dbe b813 9c3e 1a59 51be fb18 23be
00000150: 123a 86be b144 183e 242b 0b3e 54ce a0be
00000160: d001 7b3d 1c17 6b3d 5261 2a3e d966 9fbd
00000170: 994e 453e 8d96 4c3e 1d56 553e 7392 8cbe
00000180: e0f1 41bd b464 74bd 729b bd3d 6388 c6be
00000190: 81bb b8be 9a32 c03d 2263 093e 6495 cdbc
000001a0: c70f 18be 9500 683e c60c 393e f336 bdbe
000001b0: f6e9 5e3c f146 8e3e 1356 84be 8cbd 17bf
000001c0: 0e0f 65bf c4ed 19bd 5074 01bf 2721 cc3e
000001d0: 511d 77be e124 c0bc d349 463e c3e0 27bf
000001e0: abdb 0c3e 3ef9 0b3e d0fb 5e3d 57ac 9c3e
000001f0: d44f e3bd 6011 893e 01fa 793e 7b16 3b3e
00000200: 8371 5b3e 4a37 b93d 6d15 133c e4de 1abf
00000210: f4c2 d1be 9d24 e43b 6a93 4e3e c3c5 ee3c
00000220: c0dd 4c3e 61e5 8a3e 40c2 b33d 0db9 42bf
00000230: bacf 47bf f757 0f3e 85af c43d a9bc 76be
00000240: f588 9abd 4b9b 0d3d 0277 58be 30cf 983e
00000250: 50d8 5d3e 4013 bb3d 2933 423e 9a8b ee3e
00000260: ff67 813c bcb3 afbd 47d2 473e ec4f a3bd
00000270: 23af 9ebd 9228 0d3e a007 3f3e 97ce 963e
00000280: c4bd 7b3e 77f7 ee3c c35f 083e bcd4 2fbe
00000290: 4dcd 923e b34c 92bd d0a2 853e 89cd 8cbe
000002a0: 8d4f 043e 5e8d 7d3e 245e 88be 8e8d 8b3d
000002b0: aad5 643e 123d c4bb b4a6 23be 7335 cfbe
000002c0: 0d02 8cbe be94 1d3e c5e6 c5bd 4c3b c5be
000002d0: 38b4 41be 8412 923e eb6b 16be eafb 7d3e
000002e0: 789f 0dbd 9573 e13c 1aa4 a53d 5f26 d23e
000002f0: 024e 1c3e fb54 023e 3cc2 203d 6975 c0be
00000300: a3bd bcbe 5711 6c3e 8e6e 4a3e 0f41 09be
00000310: a78b 96be d03f 06bd 305e 80be 80f8 babc
00000320: 4380 123e 8c2b 9c3e eea0 8bbe 66ef 1ebf
00000330: 75e8 efbd b48b e53d 3bb2 46bd 3d11 37be
00000340: 745e 603e 5674 d9bd e755 f73d 72c5 483e
00000350: e7ea c6bd cb6d 1ebe 843c f93d b3db 2ebf
00000360: 687b 9a3d dcff b6be 4ae4 c6bd 039c 963e
00000370: 2eec 4ebe 8c7e 35bd 939b 193e 6419 743e
00000380: 70ee 0f3e 2afc ab3d fc1e 39be 8e2d 8b3e
00000390: db85 17bd d4bf 923e 52d9 8abe bd76 903e
000003a0: 181c 8d3d 4dba 1bbe 0f70 77be 1303 223e
000003b0: d151 cd3d dada 1b3e 2898 0a3e e4e8 53bf
000003c0: e8ae b6bd 945b 913e 2afd 7f3d e732 d5bc
000003d0: c512 08bd db9f 9d3e 87c8 c73b 23f7 8ebe
000003e0: 3960 56bd 7018 963e 671e b7be cf0e 5a3e
000003f0: c9ac 77bd 73fc 1a3e 12b0 7b3d 2404 dc3d
-0.06676841 0.09561626 -0.060079668 0.23221186 -0.13952523 -0.23648393 -0.098879084 -0.27715757
-0.3947885 -0.43794462 -0.03378079 0.3710988 0.13518278 0.14755674 -0.33576712 0.2116549
-0.052337587 -0.21900448 -0.22578421 -0.24150205 -0.40718457 0.13020584 0.26823768 -0.15595959
-0.037381306 -0.27121767 0.0067362585 -0.18153924 -0.46906957 0.28477308 -0.14830345 0.20326455
0.17256567 -0.04621214 0.30884615 0.014666239 -0.23769411 -0.2717984 0.056915667 0.27764902
-0.22308943 0.0337593 0.2174458 0.19394854 -0.085193165 0.12107105 0.11454271 -0.44349495
-0.107906036 -0.0082290815 -0.0038728183 0.57292545 -0.5820915 -0.72421443 0.09623598 -0.32919046
-0.12452851 0.2294786 0.06498487 -0.47946677 -0.029000556 0.22594786 0.20891513 0.29029387
0.017692788 0.29834494 -0.28652135 -0.68042016 0.013398486 0.08214066 -0.04939448 -0.18981244
0.048892807 -0.14630908 -0.2976953 0.25968093 -0.09607864 0.16371356 0.11805769 -0.09071281
-0.21668194 0.30483794 -0.20444146 -0.15927498 -0.2621618 0.14869954 0.13590676 -0.31407416
0.061281025 0.057395086 0.16638687 -0.077832885 0.19268264 0.19979306 0.20833631 -0.27455482
-0.04734981 -0.05966635 0.092581645 -0.3877593 -0.36080554 0.093846515 0.13416722 -0.025095649
-0.14849769 0.22656472 0.18071279 -0.36955985 0.013605585 0.277885 -0.2584692 -0.592736
-0.89476097 -0.037580267 -0.50568104 0.39869043 -0.24132277 -0.023455085 0.19364099 -0.65577334
0.13755672 0.13669297 0.054439366 0.30600235 -0.110992104 0.2677107 0.24411775 0.18270294
0.2143002 0.09043749 0.008977276 -0.60496354 -0.4096905 0.0069623725 0.20173422 0.029147035
0.20006466 0.27128127 0.087772846 -0.76063615 -0.7805134 0.139984 0.0960379 -0.24095406
-0.07545654 0.034571927 -0.21139148 0.29845572 0.21664548 0.09134531 0.18964829 0.46590883
0.01579666 -0.085792035 0.19513808 -0.07974228 -0.077482484 0.13785008 0.18655252 0.2945449
0.24584109 0.029170735 0.1331778 -0.17170995 0.28672257 -0.071435355 0.2610078 -0.2750056
0.12920971 0.24760959 -0.26634324 0.06814109 0.22347131 -0.0059887255 -0.15981561 -0.40470466
-0.27345315 0.15388772 -0.096631564 -0.38521802 -0.18916404 0.2852975 -0.14689605 0.24803129
-0.03457591 0.027520934 0.080879405 0.410449 0.15264133 0.1272773 0.039247736 -0.37589577
-0.3686343 0.2305349 0.19768736 -0.13403724 -0.2940342 -0.0327757 -0.2507186 -0.022823572
0.1430674 0.30501974 -0.27271217 -0.62084043 -0.117142595 0.11208287 -0.048509818 -0.1787767
0.21911031 -0.106178924 0.120769314 0.1960657 -0.09712773 -0.1547157 0.121697456 -0.68303984
0.07543069 -0.3574208 -0.097115114 0.29415902 -0.20207283 -0.044310138 0.15000753 0.23837811
0.140558 0.08397706 -0.18078226 0.27183193 -0.03699289 0.28661978 -0.27118927 0.2821559
0.06890124 -0.15207787 -0.2416384 0.15821485 0.10025371 0.15220204 0.13534606 -0.8277724
-0.089200795 0.2839018 0.062497295 -0.026025249 -0.033221025 0.30786023 0.006096903 -0.27922925
-0.05233786 0.2931552 -0.35765383 0.21294712 -0.060467515 0.15135364 0.06144721 0.10742977

conv2.bias f4 [64]
00000000: 4e1b 29bc d34f 2dbd 0f20 52bc 2308 04bc
00000010: 0dde efbc 0301 35bc b2ed 173d e843 96bd
00000020: 0000 0000 2365 033c e46e 55bc 696b 9abd
00000030: 9da5 02bc 16fd 16bd 0000 0000 9fad 08bd
00000040: a1d9 2bbd 8726 59bd 76d9 22bd 5f85 23bd
00000050: af36 b8bc d348 813d 0000 0000 15a3 c1bc
00000060: 0496 2dbb 9f84 ff3c 0989 d8bc 0000 0000
00000070: ce78 e33c cd6a 023d 958c aebc 2cfe c33a
00000080: 82bc 1f3c 1d2c a0bc e7f5 613c 10c1 91bc
00000090: 73df 703b 9e32 70bc eb1a a6bc 8f3a 2cbd
000000a0: ede9 033c 551b 3bbd f964 1cbd 4e46 babc
000000b0: 2842 8e3c 28d0 f2bc ff3a c0bb eed7 34bc
000000c0: 930f b8bc 0000 0000 6241 57bb 0196 81ba
000000d0: 5964 26bd 2ff1 59bc 19b4 65bb 9ca9 33bc
000000e0: ce0c 1d3d c2dc 063d e1f0 cbbc e93b 9a3b
000000f0: 0d64 5cbd 3455 1b3d 1395 33bc b697 6ebd
-0.010321451 -0.042312454 -0.012825026 -0.008058581 -0.029280687 -0.0110476045 0.03709192 -0.07337171
0.0 0.008019718 -0.013026927 -0.07540018 -0.007974056 -0.036862455 0.0 -0.033368703
-0.041955594 -0.05301526 -0.03975817 -0.039922114 -0.022487013 0.06312718 0.0 -0.023637334
-0.0026487121 0.031191168 -0.026432531 0.0 0.027767565 0.031840134 -0.02130727 0.0014953068
0.009749534 -0.019552285 0.013791538 -0.017792255 0.003675428 -0.014660506 -0.020276507 -0.042048033
0.008051378 -0.045680363 -0.038182233 -0.022738602 0.01736553 -0.029640272 -0.005866408 -0.01103781
-0.022468364 0.0 -0.0032845368 -0.0009886624 -0.040623043 -0.013302132 -0.0035049974 -0.010965731
0.03834229 0.032925375 -0.024895133 0.004706849 -0.053806353 0.037923053 -0.010960835 -0.05825015

conv2.lin.weight f4 [64, 64]
00000000: c8b1 333e 0a08 17be daa1 433e 7551 c9bd
00000010: 7f61 473e 3e2c bb3d 54ae 1abb a35e 873c
00000020: 78d6 3ebe 1df4 0b3e 03d3 c8bd cb25 9639
00000030: deb3 8a3e 646f 49bd 2ed2 76bc 3dd9 2e3e
00000040: 9fb3 d2be 5e92 83bd 3970 2abd 1956 2cbd
00000050: fe17 8a3e 02bf 123e a68d 59bd 6120 e93d
00000060: dd31 86be e52b 0dbe 1999 6e3e 7bdc 10bf
00000070: 9741 9bbe 6e3a 8fbe d65d e8bc 8f77 b7bd
00000080: 0569 91be edbb 493e 1add f6bd c2f9 623e
00000090: 9c1b 56bd 2ee4 5f3d e228 853d 83a9 b4bd
000000a0: ed46 2fbd 4e44 c7be 46a3 d1be 2f5d c0bd
000000b0: 0219 113e 9343 8abb 1319 e6bd f195 e33d
000000c0: 6925 483d cfc8 563e ab28 b6be 121a c0be
000000d0: cac0 cc3c 99c6 27bf 7cfc 9d3d 005e 433e
000000e0: e532 4abe 49ae 05be 86f5 213e 23fd 0abd
000000f0: 4060 0a3e d54e 263e 81a8 a8be 9f00 1a3e
00000100: 965d f6bd 20d2 a5bd dba1 f63d 335d 48be
00000110: 4016 70bc 9e7e 5ebd 9930 563e 5839 373e
00000120: 3e52 12bd 82aa f0bd 973a 2b3e 64d6 a6bd
00000130: d5d0 f7bd 2271 c43d 67bc 383e a7cf 1cbe
00000140: cf48 8e3e 9497 82bd 7e38 acbe 5661 96bd
00000150: 7c0d 8d3e 8d56 7ebc 29f4 2dbe ad4b 653d
00000160: 0a02 7fbe 4d42 543d 5c20 893d 3550 e53d
00000170: e732 81be 2a87 c7be 3ecd 493d 71e0 cb3c
00000180: eae3 bebb f468 d7bd 52c0 c2bc 4470 2e3e
00000190: a125 08bf d7c9 19be b9c7 d9be 2691 00be
000001a0: 2081 8aba fcaf e9bd ce7e c33c 4ea6 1d3d
000001b0: f11a 273e 7833 05be e5c0 d73d 43b3 bebd
000001c0: 906b 96bd 2217 c93d da1a 343e 2268 343d
000001d0: 1009 0abe 061c c0bd caf9 a2bd dc6d 063e
000001e0: b833 2abe 8c89 4abd a061 1abc f2e4 76bd
000001f0: 0010 1e3e 579f c23c 6cbd 273e 560e 3c3e
00000200: 4afb 083e e029 afbd e37d 453b 5054 f7bc
00000210: 361e 9abd a2b1 a03d 5023 4abc 75d2 893c
00000220: 6046 5ebe 5ccc e1bd 44d6 fb3b 855a 3f3e
00000230: a8b4 02bd 7856 8fbc 2a24 81bd 6739 87bb
00000240: dae0 eebc a579 70bd 726f 27be 959b 543d
00000250: d6d5 11be ff68 2dbe 8a04 d03d 3e4d 4ebe
00000260: fabd e8bd 5b06 5cbe a5e6 c9bd 7a33 eebd
00000270: ba8a b2bd 20e9 78bd f31e 223e 0acf ccbd
00000280: c0e5 fe3b 18ba 68be 76a8 05be 7a88 da3d
00000290: afb7 413e b490 22be 97ec a3bd 15cf e23d
000002a0: 01fc dc3d b375 2abe d261 a8bd c669 adbd
000002b0: da7d fc3d 8a0b d43d 8675 06be ce40 ebbd
000002c0: 3119 9e3c be19 eb3d 9f3d 9b3d 6348 ed3c
000002d0: 7d6f 38be e00f e8bc 0af8 323e ccd5 0e3e
000002e0: a227 23be 17c3 05bd 02cd 96bd b9a3 293e
000002f0: e4c8 41be bf49 b3bd 1860 c63d 4b8d dabd
00000300: 85aa 63be 3829 13bd c946 23be 34d6 453d
00000310: d085 043c bc8b 97bd 328c 30be ea98 593b
00000320: 3d8a babc 95cc 163e 492a f8bd db26 d93d
00000330: 59c4 f7bd 9a18 cabd 4448 023d 58a5 fbbd
00000340: ac49 35bd 5884 32be 2811 053e 6d4c 29be
00000350: f0e4 01be 289d c9bc 303b f8bd 9ce3 c6bd
00000360: 9061 e6bc 381a 33be b3c3 d5bd 3d91 eabd
00000370: 8776 32bd 6a74 b3bd c3bf 1abe 5643 513e
00000380: caa7 e0bd 1cff ab3c 3de8 e7bd 9ddd eabd
00000390: 1ebe 513d 60dd 863c 0cd5 84bd 8435 4dbe
000003a0: 4160 10bd 9849 3c3e 3879 43be ca94 11be
000003b0: 209d fcbb 1431 3b3d 9c4c 303e bae4 05bc
000003c0: be19 acbd 7c2a 6a3d 194d 973d b2fb 31be
000003d0: 192b 503e 276e d8bd e108 0ebe 18a9 ecbc
000003e0: a133 3e39 edb2 8eba 76b3 fcbd fc73 2abe
000003f0: e056 00be 9cfe 3e3d 9fc0 8e3d c786 f43d
0.17548287 -0.1474916 0.1910471 -0.0982999 0.19470786 0.09139298 -0.0023602443 0.016524618
-0.18636501 0.1366734 -0.09805872 0.00028638387 0.27090353 -0.049178496 -0.015064759 0.17075057
-0.41152665 -0.06424402 -0.04161093 -0.042074297 0.2697143 0.14330676 -0.053113602 0.11383129
-0.26209918 -0.13786276 0.2330059 -0.56586426 -0.3032348 -0.27974266 -0.028365057 -0.08958351
-0.28400436 0.19700594 -0.120538905 0.22165588 -0.052272424 0.05466097 0.065019384 -0.08821394
-0.04279225 -0.389193 -0.4094488 -0.09392773 0.14169696 -0.0042194813 -0.11235251 0.111125834
0.048863802 0.2097504 -0.35577902 -0.3751989 0.024994273 -0.6553741 0.07714173 0.19078827
-0.19745977 -0.13054766 0.15816316 -0.033932816 0.13513279 0.1624101 -0.32941058 0.150393
-0.12029569 -0.08096719 0.1204259 -0.19566803 -0.014653742 -0.05431997 0.20916976 0.17892969
-0.035722964 -0.11751272 0.16721569 -0.081463605 -0.121003784 0.09591891 0.1804062 -0.15313588
0.27789924 -0.063765675 -0.3363685 -0.07342784 0.2754935 -0.015523565 -0.16987671 0.055980373
-0.24903122 0.05182104 0.06695625 0.11196939 -0.25234148 -0.3897031 0.049268 0.024887295
-0.0058255093 -0.10518065 -0.023773346 0.17035013 -0.5318242 -0.15018402 -0.4253519 -0.1255537
-0.0010567047 -0.114105195 0.023864176 0.03848868 0.16318871 -0.13007915 0.105348386 -0.09311535
-0.07344735 0.09818865 0.17588368 0.04404462 -0.1348002 -0.09380345 -0.079578 0.13127846
-0.16621292 -0.04944758 -0.00942269 -0.060276933 0.15435791 0.02375762 0.16380852 0.18364844
0.13377109 -0.08552909 0.0030134849 -0.03019157 -0.075252935 0.07846381 -0.012337521 0.016823987
-0.21706533 -0.110253066 0.0076854546 0.18686874 -0.03191057 -0.017497286 -0.06305726 -0.004126716
-0.029159952 -0.05870976 -0.16351107 0.051906187 -0.14241728 -0.16934584 0.10157116 -0.20146653
-0.1136436 -0.214868 -0.09858445 -0.11630912 -0.08717866 -0.0607692 0.15832119 -0.10000427
0.007778853 -0.22727239 -0.13052544 0.10670562 0.18917726 -0.15875512 -0.0800411 0.11074654
0.107902534 -0.16646461 -0.08221783 -0.0846744 0.12328692 0.103537634 -0.13130769 -0.1148697
0.019299122 0.11479519 0.07580113 0.02896518 -0.1801128 -0.028327882 0.17477432 0.13948745
-0.15933087 -0.032656755 -0.07363321 0.16566361 -0.1892429 -0.087543 0.09686297 -0.10671481
-0.22233017 -0.03592798 -0.15944971 0.048299983 0.008088544 -0.07399699 -0.1724098 0.0033202716
-0.022770995 0.1472648 -0.1211744 0.10603114 -0.12097997 -0.098679736 0.0318072 -0.12287396
-0.044259712 -0.17433298 0.12994826 -0.1653306 -0.12684989 -0.02461107 -0.12120664 -0.09711382
-0.028122693 -0.1749047 -0.10437717 -0.11453483 -0.043570068 -0.087624386 -0.15112214 0.20435843
-0.10969503 0.020995669 -0.11323593 -0.11468051 0.0512067 0.016462982 -0.06485948 -0.20039946
-0.035248045 0.18387449 -0.1908921 -0.14216915 -0.0077091604 0.0457011 0.17216724 -0.008172208
-0.084033474 0.057169423 0.07387752 -0.1738117 0.2032894 -0.10567885 -0.13870575 -0.028889224
0.00018139045 -0.0010887064 -0.12338917 -0.16645807 -0.1253314 0.046629533 0.06970333 0.11939769

conv3.bias f4 [64]
00000000: cb84 9dbc 53fa 5c3d 7705 56bd 3286 4fbd
00000010: 510d d83b 288c 5bbd 4026 1dbd cc4b 24bd
00000020: a105 3ebd 4317 103d cfa0 503d b4e7 ee3c
00000030: 111c d4bc d97e 3e3b 9b3d 15bb 97f1 a53d
00000040: 3594 df3b 71e8 42bc af20 27bc 6fa9 b83c
00000050: 84e9 e73c 8010 8b3b ed7c ffbc afa3 b039
00000060: 102b a3bb 9365 e33c 8b5b edba 8480 1b3d
00000070: 8ec3 12bd ce8a 10bd 7a12 eebc 7d7a a1bc
00000080: dc08 723d 2c34 a93b 0761 073d 934e 0dbd
00000090: 0aad 62bd 5e64 d3bc 8962 bdbc d802 253d
000000a0: a572 51bd 2672 efbc 2d7b 53bd 6e03 7b3d
000000b0: a232 d63b d7e5 663d 7aa8 43bc 4302 8fbc
000000c0: 9606 fbba 2ffb 3fbd a5b7 333b 6c0d 8d3d
000000d0: 6002 053d d833 783d 2af8 36bd ecfc 233d
000000e0: 11ea 413d d334 53bd eebc 3cbd b732 833d
000000f0: ac64 763d 20ce 383d 02a9 38bd 7da6 2a3d
-0.01922836 0.053949665 -0.052251305 -0.050665088 0.0065933843 -0.05360046 -0.038366556 -0.040111348
-0.046392087 0.035178434 0.05093461 0.029163219 -0.02589229 0.0029067306 -0.0022772315 0.0810272
0.0068230876 -0.011896239 -0.0102006635 0.02254173 0.028309591 0.0042439103 -0.031187499 0.0003369129
-0.0049794987 0.027758395 -0.0018108947 0.03796436 -0.035831027 -0.035288624 -0.029061545 -0.019711727
0.05909048 0.00516369 0.033051517 -0.034498762 -0.055340804 -0.025804695 -0.023118274 0.040285915
-0.051134724 -0.029229235 -0.05163114 0.061282568 0.0065367976 0.056371536 -0.011942023 -0.017457133
-0.0019151743 -0.046870407 0.0027422693 0.06887326 0.032472968 0.060596317 -0.04467026 0.040036127
0.047342364 -0.05156405 -0.046078615 0.064061575 0.060154602 0.04511845 -0.045083053 0.04166268

conv3.lin.weight f4 [64, 64]
00000000: 5e94 07bd 7786 703d 8e9c a6bd 4f78 21be
00000010: 9ba5 1a3e c915 503e e868 33be 9fc8 c63d
00000020: 2838 57be 54c6 47be d0dd bebd d074 563e
00000030: c1d4 493e 5a37 223d 79c4 4f3e 8371 70bd
00000040: d1a5 48be 1ed7 49be 5ffa e7bd bd81 74bd
00000050: 84b4 673e 6a4d 6a3d b2ec a73d 2a95 1abe
00000060: 0538 adbd eb5b 59bb 40a4 36be 1463 353d
00000070: caa1 b93b c12a 07be 3d25 e33d f1f3 ffbd
00000080: 112e 51be b99d 2d3e 3f95 1bbe 5576 8abe
00000090: 1253 d0bc 6447 05bd 2a76 383a 43af e43d
000000a0: fb17 cd3c 4290 f43d 551c 74bd be25 193d
000000b0: 3a11 35be 3c90 dfbd baee d3bd 1eca cdbd
000000c0: 0f8f 283e d0e8 94bc 1ff7 823d ae80 54bd
000000d0: 7901 7b3d c3a7 be3d 6195 943c cb25 22be
000000e0: 52de 253d 7f06 28be bb47 2b3d f048 c33d
000000f0: 92ff 65bb 131a 26be 99cc 643d 039a e43c
00000100: 1016 0ebe d599 d8bc 4270 1bbe cebb 4b3c
00000110: c166 643e d406 10be 7703 55bd ce18 a4bd
00000120: d8ba d53c a22e 203d 87db a63d 970a bbbd
00000130: 2b50 fd3d f728 d2bc 1cac 25be fd73 48be
00000140: 3f40 ea3d f35c 5ebd 5272 e93d c332 fb3d
00000150: 35f1 99bd a7cf 8abd 4038 5dbe 6a98 f9bd
00000160: 37bf f4bd 8130 583e 0c13 28be f042 73bd
00000170: 61cf aebd 9fd2 8ebd 1467 6abd 613e 633d
00000180: e1e4 9ebc f42d fdbd 9d53 3c3e 9eb5 703e
00000190: cf87 cd3c 1239 91bc 20f4 6fbc be76 7abe
000001a0: 5387 1bbc 8c91 073d 9948 993d 65e9 e93d
000001b0: 7f22 4b3e 3ba0 d1bd cf36 1c3e 4089 cfbd
000001c0: 24d7 5ebe 6c43 373d 2f66 5f3e 99bb f7bc
000001d0: 5813 ecbd 156d 5e3e d6fb 883e 151d ff3d
000001e0: d43d 543e 35e6 bc3d 7680 3e3e e858 753d
000001f0: 7827 70be 061f 6c3e 1fa8 d8bd b7e6 173e
00000200: 26fc ebbd 7cce d13d 7d17 1a3e bc84 0b3e
00000210: c320 6abe 12ef b73c 8d38 26bd f058 8bbe
00000220: 0018 cbbb e9e8 c2bd 1264 203e 6b75 9f3e
00000230: b40b 23be dd13 d7bd 2c0a 43bd ec20 943d
00000240: 2bb4 88bd c74f 0e3d bd84 a63b 00bd 54be
00000250: 38db 373e 817f a6be a9b3 313e c9a9 3c3e
00000260: 5c97 333e c1f2 f0bd b4ab 83bd f7f4 1a3e
00000270: 22ee 413e 8b18 09bd 8203 583e dcd5 ca3d
00000280: cc1c fb3d 4963 24bd ba20 303d 1700 14bd
00000290: 71c6 6cbe 6d44 ce3c 507f 3b3e e0cf e53d
000002a0: 7426 8a3d 024b dbbd 9a7e c8bd 9c00 7a3b
000002b0: ff50 f0bd 3d38 b2bd 45ee 93bd 1acd f53d
000002c0: 87a3 e7bd 34c8 723d 32ce 08be c0c8 12bd
000002d0: f576 3fbe bb9a 943d 0e32 06be 2b6f 3b3d
000002e0: 0280 47be 2259 2dbe 5d61 83bd 0286 1d3e
000002f0: 4d65 5d3d d6fd 893d 461a 94bd a0a7 f8bd
00000300: f65e 1abe 9eff 013e cd8e 20be bcf0 953d
00000310: 03e4 e73d 672b 503c 1be9 94be 1fe1 18be
00000320: dd14 313e db4b da3c cda1 04bb 5093 863c
00000330: 777c 573d d974 123c 45de 253e e0dc b9bc
00000340: decb 84bb 1b0f 02bd 5d1e 36be 5d31 47be
00000350: 0704 673d fe56 01bd 4d65 443e 3839 3fbd
00000360: db95 4b3e 420d 5ebe 944b 50be 531f 57be
00000370: d7e3 bebd cc69 f5bd 3497 763d d1ff 70be
00000380: ffc8 c73d 5b1c 063e ec3e a5bc d06f 4ebe
00000390: 3a71 88be 316b babc ccf5 483e 03ca c43c
000003a0: aa06 4fbd 2ae5 fbbd d5c5 8abc 539e 2c3e
000003b0: c2c2 01be bc4a 5d3c e188 ba3b a718 c4bd
000003c0: 3e8e 563e 28e9 59bd f7cc 9dbe 61ab 1bbe
000003d0: 0305 e93d f939 063d 726f 80be 6293 4fbe
000003e0: b2c5 46bd a90b e5bb bc62 523e c6ea 4d3e
000003f0: 2bc7 d8bd 36ca 4dbd 014b 593e d205 8f3d
-0.03310048 0.058721986 -0.08135329 -0.1576855 0.15102236 0.2032081 -0.17520487 0.09706234
-0.21017516 -0.1950925 -0.09319651 0.20942998 0.19710065 0.03960357 0.20289792 -0.058702003
-0.19594504 -0.19710967 -0.11327051 -0.05969404 0.22627455 0.057202734 0.08199443 -0.15095964
-0.084579505 -0.003316636 -0.17836094 0.04428394 0.0056650387 -0.13199903 0.11091087 -0.124977
-0.20427729 0.16954698 -0.15193652 -0.27043405 -0.025430236 -0.032538787 0.0007036651 0.11166241
0.025035849 0.119415775 -0.059597332 0.03738951 -0.17682353 -0.109161824 -0.10348268 -0.100483164
0.16460823 -0.01817742 0.06394791 -0.05188053 0.0612807 0.09309342 0.018137636 -0.1583473
0.040495224 -0.16408728 0.041816454 0.09535396 -0.0035094959 -0.16220884 0.055859182 0.02790547
-0.13875604 -0.02644054 -0.15179542 0.012434913 0.22304823 -0.14065105 -0.052005257 -0.080125436
0.02609007 0.039106973 0.0814734 -0.09132879 0.123688065 -0.0256543 -0.16178936 -0.19575496
0.11438035 -0.054287862 0.11398758 0.122655414 -0.0751671 -0.06777888 -0.21603489 -0.12187274
-0.11950534 0.21112253 -0.16413516 -0.05939001 -0.08535648 -0.069737665 -0.05722721 0.05547941
-0.019396247 -0.123622805 0.18391271 0.23506781 0.025089173 -0.017727409 -0.014645606 -0.24459359
-0.009492713 0.03309779 0.0748455 0.114214696 0.19837378 -0.1023564 0.15255283 -0.101336
-0.21761757 0.044742033 0.21816324 -0.03024082 -0.11527127 0.21721299 0.26754636 0.12456719
0.2072671 0.09223596 0.18603691 0.05989924 -0.23452556 0.2305871 -0.105789416 0.14834104
-0.11522703 0.10244462 0.15048023 0.13624853 -0.2286406 0.022452865 -0.040581275 -0.2721629
-0.0061979294 -0.0951708 0.15663174 0.3114427 -0.15922433 -0.105018355 -0.047617123 0.07232842
-0.06674989 0.03474405 0.0050817416 -0.20775223 0.17954719 -0.32519153 0.17353691 0.18424143
0.17538208 -0.11765052 -0.06429234 0.15132509 0.18938497 -0.03347067 0.21095088 0.09904072
0.12261352 -0.04013375 0.04299996 -0.0361329 -0.23122574 0.025179112 0.18310285 0.1122129
0.067456156 -0.10707666 -0.09789772 0.0038147336 -0.11734199 -0.08702133 -0.07223181 0.12002011
-0.11310487 0.05927296 -0.13359907 -0.03583598 -0.18697722 0.07256075 -0.13105032 0.045760315
-0.19482425 -0.16928533 -0.06415055 0.15383151 0.054051686 0.067378685 -0.07231574 -0.12141347
-0.15075287 0.12695166 -0.15679474 0.07321307 0.11322787 0.01270566 -0.29084095 -0.14929627
0.17293115 0.026647499 -0.0020238042 0.016427666 0.052608933 0.008938991 0.1619807 -0.02268833
-0.004052623 -0.031752687 -0.1778502 -0.19452424 0.056400325 -0.031577103 0.19179268 -0.046685427
0.19881384 -0.21684745 -0.20341331 -0.21008043 -0.09320801 -0.1198307 0.060202792 -0.23535086
0.09755134 0.13096754 -0.020171605 -0.2015984 -0.26648885 -0.022756191 0.19625014 0.024022108
-0.050543465 -0.12299569 -0.016940037 0.16857271 -0.1267195 0.013506588 0.005692587 -0.095750146
0.20952699 -0.05320087 -0.30820438 -0.15202095 0.11377909 0.03277013 -0.25085026 -0.20271066
-0.04852838 -0.0069899154 0.20545477 0.2010909 -0.10584863 -0.05024167 0.21220018 0.06983532

fc1.weight f4 [256, 64]
00000000: eada 673d b930 84bb ad67 5bbe 88fc 1d3e
00000010: 399a 803c 0984 07bd e43d 0ebe 246e 1a3b
00000020: b116 283e a37d d73d 3230 f23c d4c2 313b
00000030: fa93 48be ab0d 033f bd67 263e 1913 cbbd
00000040: e8e6 523d 5868 7c3c 82d8 c6be 6212 653e
00000050: 2a88 0d3f 0d43 bc3d 4903 b63d 74b9 07be
00000060: fa84 0f3e 8f71 5e3e 2ea2 173d e019 41be
00000070: 026d ecbd 1897 afbd 59dc e43c 62e5 a9bd
00000080: cf7f 5e3d 8ef9 4f3e dbba 6cbd 822c 34be
00000090: 11d9 043e b273 83bc 5fa4 063e 4ecc 0d3e
000000a0: edea 233c 18a4 e63d 6c51 debc fe72 fbbd
000000b0: dd82 dabc 4c6e 0abe 7cb6 373e 1ddc 1bbd
000000c0: fccd 223e ed88 babd 8604 26be 85a4 2fbd
000000d0: 6f6d 8d3e f76d 0f3e 0b21 abbd 5ad3 a4bd
000000e0: ed03 5c3e a8f4 50bc 7917 d2bc 0064 873d
000000f0: c9e9 8fbd d3a2 ba3d 026a ecbd 4920 b4bd
00000100: 4922 bebd 523f 55bc bf94 b8bd 6d68 51bb
00000110: 22a5 3cbe fbef 30bc d04b 34be 55cd 7bbb
00000120: ff14 8dbd 23c2 b93d 4eee b7bd c7f2 02be
00000130: 9397 e3bc c983 cb3d 3fd6 f23d fef0 3bbd
00000140: 5a7b 57bd 0353 a1bd 5970 773d 1525 143d
00000150: 1f16 003e d865 ba3d e334 d8bd d94c e2bd
00000160: 94b8 c33d eea2 6bbd 8eb3 4ebe fce3 a53d
00000170: 6a19 92bd e4e1 073e 5f9e a03b c3eb 923c
00000180: 70b8 a33d f133 b43d 10a8 46bc eabe 91bb
00000190: 6ab8 223e f417 e2bc da0d 79bc bb67 bb3d
000001a0: c78a 1bbd c4b8 1e3e bc45 7dbd a0cb df3d
000001b0: 4ad2 ecbc 3a40 2e3d b761 bcbd de91 6bbd
000001c0: 455a e33d ecbb 56bd 9ca5 3c3c 2032 e4bc
000001d0: ac2f 293e 2068 b9bd 56bf af3c 84c6 223e
000001e0: 3980 4f3d 9bb5 2c3e 3a72 00be e313 b73d
000001f0: 814a e7bd 6030 0b3e 7ff5 e93d 2eb6 20bd
00000200: bbc1 90bd f0af c53c 5081 433d 8816 543c
00000210: 5fd4 06be 66f0 56bc 3a31 a5bd aa0e 45be
00000220: e60c 003d 7a01 a1bd cc99 efbd f25f 78be
00000230: 6125 1a3e 16b1 e8bd 0d8c c0bd 3dec 863d
00000240: 5b44 523d 451f 29be 1d86 8bbc b1bb 9dbd
00000250: 790a 973d ba5c ab3d 9d88 0cbe 68e0 0abd
00000260: c89c 52bb c5d4 c33d 97fa d1bd e443 403e
00000270: 5076 e6bd bb56 7e3d d6cb f6bd 537c d33d
00000280: 1685 f33c 4a9b 333d 1224 eebd 715a 25bd
00000290: b874 263e c537 08bd 0c84 2fbc d326 a83c
000002a0: b542 f9bd bde1 1e3e f9af 2ebe 27f5 c43b
000002b0: 4409 db3d c4ee 32bc 7d60 40bd d276 573d
000002c0: 282c e8bb dfaf aebd 62a3 3c3d 66bc 973d
000002d0: c995 31bd bc48 71bd 64dd 49be 1f77 023d
000002e0: 937b 953c 162a 8dbd a93e 0c3c 5b24 893d
000002f0: 6aff 243d e1bf b53d a4e3 fb3d 92b3 a73d
00000300: 2bfe dc3d c651 fa3b 9bef ab3d 16d7 f53d
00000310: 9030 5cbd 390b a33b 3586 e6bd 6c7d 633d
00000320: cd63 bbbd 70c4 143e 74e8 a23d 37f4 33be
00000330: 7d86 2ebe c0cb 933e bcd6 533e 79d2 b63d
00000340: e0e3 94bd 4639 41be 55e8 3fbc c7a8 b1bc
00000350: 417a 523e cc5e 993d ae4d acbd 6285 263e
00000360: 3c95 053e 4e42 303e e801 873d 17f6 bdbc
00000370: 1f30 36be c999 c7bd 2699 1abd b415 363d
00000380: e58d b839 8bb0 97bd 2eb8 0b3e 3fa3 343d
00000390: a095 e53c 3f3f ab3d c9e0 edbd be04 7c3d
000003a0: 037b bd3d 2920 353e 5c10 933d 9bb8 8ebd
000003b0: fcc5 28bc d272 aabc 9568 2ebb 9c98 ef3d
000003c0: 407d 303c 8322 bebd b31c 9c3d f220 a13d
000003d0: 13b9 803e 0945 39bc a118 623d 18ca d63d
000003e0: 4858 e53c 1902 9abc 460d c8bd 1083 273e
000003f0: 4acf ae3d 3f25 183e 36e1 dcbd 97af 89bd
0.056605257 -0.0040341285 -0.21426268 0.15428364 0.01569854 -0.033084903 -0.13890797 0.0023564184
0.16414906 0.1052201 0.029563997 0.0027124183 -0.19587699 0.5119273 0.1625051 -0.09915752
0.05148974 0.015405737 -0.38837057 0.22370294 0.55285895 0.091924764 0.08887345 -0.13254339
0.1401557 0.21723007 0.0370199 -0.18857527 -0.11544229 -0.08573741 0.027937101 -0.082957044
0.054321107 0.20310041 -0.057795387 -0.17595103 0.1297343 -0.016046379 0.1314864 0.13847467
0.010004741 0.11261767 -0.027138434 -0.122777924 -0.026673729 -0.13518637 0.17940706 -0.038051713
0.1589889 -0.09108148 -0.16212663 -0.042881507 0.27622554 0.14006792 -0.08355912 -0.080481246
0.21485873 -0.012753643 -0.025645958 0.0661087 -0.07027013 0.091130875 -0.11543657 -0.087952204
-0.09283883 -0.013015585 -0.09012746 -0.0031953112 -0.18422368 -0.010799403 -0.17607045 -0.0038421948
-0.0688877 0.09070232 -0.08981 -0.12787925 -0.027782237 0.099372454 0.118572704 -0.045884125
-0.05260787 -0.07877161 0.060409877 0.036168177 0.12508439 0.091014564 -0.10556962 -0.11049814
0.0955669 -0.05752843 -0.20185682 0.08100125 -0.071337536 0.13269764 0.004901692 0.017934686
0.07994163 0.087989695 -0.01212503 -0.0044478076 0.15890661 -0.027599312 -0.015201056 0.091506444
-0.037974145 0.1550017 -0.061834082 0.1092751 -0.028908867 0.04254172 -0.09198325 -0.057512157
0.11101202 -0.05242531 0.011514094 -0.027855933 0.16522092 -0.090530634 0.02145354 0.1589604
0.050659392 0.16866152 -0.12543574 0.0893934 -0.11293507 0.13592672 0.11423778 -0.03923624
-0.07068201 0.024131745 0.047730744 0.012944825 -0.1316695 -0.013118839 -0.0806603 -0.19243875
0.0312623 -0.0786161 -0.11699256 -0.2425535 0.15053321 -0.113619015 -0.094017126 0.065880276
0.05133472 -0.16515835 -0.017031724 -0.07701815 0.073750444 0.083672956 -0.13723989 -0.033905417
-0.0032136906 0.09562067 -0.10252874 0.18775898 -0.11253035 0.06209443 -0.12050597 0.10326447
0.029726546 0.043849267 -0.116279736 -0.040369455 0.16255462 -0.03325631 -0.010712635 0.020526325
-0.121709265 0.155158 -0.17059316 0.0060106697 0.10695127 -0.010921184 -0.04696702 0.05260355
-0.007085342 -0.085296385 0.04605425 0.07408981 -0.043355737 -0.058907256 -0.1971336 0.031851884
0.018247401 -0.06892793 0.008559861 0.066963874 0.040282644 0.088744886 0.122992784 0.08188547
0.10790666 0.0076391427 0.083953105 0.12003915 -0.05375725 0.004975703 -0.11256067 0.055539533
-0.09149895 0.1452806 0.07954493 -0.1757363 -0.1704349 0.28866386 0.20687383 0.08926863
-0.07270026 -0.18869504 -0.011713107 -0.021686925 0.20554449 0.07488784 -0.08413254 0.16261819
0.1304521 0.17212793 0.065921605 -0.023188634 -0.17791794 -0.09746129 -0.03774371 0.04445429
0.00035200935 -0.0740672 0.13644478 0.044100996 0.028025448 0.083616726 -0.1161514 0.06152796
0.09251978 0.1768805 0.07180855 -0.069688044 -0.010301109 -0.020806704 -0.0026612629 0.1169903
0.010772049 -0.09283926 0.076226614 0.07867612 0.251412 -0.011307963 0.05519927 0.10487765
0.027996197 -0.018799828 -0.09768157 0.1635859 0.08535631 0.14857958 -0.10785143 -0.06722944

fc1.bias f4 [256]
00000000: c07c cd3c 987f d23d f65c cc3d a9ee 523d
00000010: 7bb4 27bc face 383c 095c 923d 3412 f23d
00000020: 52d5 0cbd 868a d83d 6043 043d f653 ffbd
00000030: 39b4 9f3d c2e6 93bd 9791 943d f047 c13d
00000040: 6b47 b63d e023 dfbd 249f f63d 7110 923d
00000050: ea02 813d fad7 a7bd da73 c4bd 55fe 883d
00000060: 0b84 2e3d 2198 d6bd 8b6f 9c3d 704a ef3c
00000070: a626 b33d 8727 5cbd 3c96 d23d f4e4 d4bd
00000080: 80b3 a1bd 7909 593d 279c dc3d 875d 9a3d
00000090: cc99 b33d 6220 8dbd 9eb3 ba3d 58dd e23d
000000a0: fa54 373d 909e 7fbd 6c25 2cbd b17c 2fbd
000000b0: 58a4 fc3d c83a f4bd cbe7 3a3d 57ef f0bd
000000c0: 62fb e5bd 95af 0d3c 8253 c1bd bbf4 c63d
000000d0: 92bb 383d a5d9 d1bd 459b 983d 27ac 033e
000000e0: dba6 583d f6a0 68bd a68e c23d 0ef3 4f3d
000000f0: 954d a2bd b050 633d 508e dbbd 1b88 36bd
00000100: beb2 063e 1250 e1bb f5c3 db3d 3a36 aebd
00000110: 48c4 e7bd 4cd9 9ebd fa06 bebd 7526 2d3e
00000120: ad1e 7abd b8d4 583d 9510 383d 9c5f c83d
00000130: 33ae f73d d94b 883d a7d2 d4bc fa71 68bd
00000140: 25d5 dbbd e600 4d3d 83c1 9a3d 3514 b93c
00000150: 8ebf e1bd 83ac 70bd ad6b 303d 6972 863d
00000160: c55f 1f3b 00cb 35bd cc71 893d 2874 3cbd
00000170: 6c07 873d 1628 b2bd 5356 ca3d 4a9e 833d
00000180: a69a c63d eedd 9dbd 2d47 143d 5237 c6bd
00000190: 25fb 113d fb92 8c3d 8597 763b 0a94 24be
000001a0: ea01 0a3e aae4 13be cb97 8f3d 50cc 893d
000001b0: 7c94 b93d f4d9 223d 76b4 4dbd 73bd 2e3d
000001c0: c27a dbbd 75de a2bd 231e 0cbe c4a8 013e
000001d0: 6231 a9bd 0a5f d33d 928e cc3d dad9 0fbd
000001e0: 0ce8 a23d e6fd 733d 1137 543d 5c1a 80bd
000001f0: 2fa9 87bd ad2d 09be 1ed3 7d3d 0ef0 0b3e
00000200: 1894 a73d f9c8 313d 1ed6 2a3d 046e 483d
00000210: 8760 e0bd fd39 06be b4cb 63bd 62bd af3d
00000220: 0426 adbd b8cb 91bd 2b0e e13d cd16 b8bd
00000230: 8f8a 853d a199 e73c 5202 ff3d c79c 0bbe
00000240: e521 0c3c e802 2f3e a214 23bd 36cd 1b3e
00000250: fcbf d73d 49c1 c93c c11b d03d 9f9f 0dbe
00000260: 7856 aa3d d7af 4a3d 6e3f d7bc 5fde 8b3d
00000270: bb9c f03d a4c1 03be ffff 933d a301 c0bd
00000280: 59d1 b7bd 7aec 3a3d f836 febd 4845 213d
00000290: 34f7 093e 4fdf ecbd eb2d 763d a29b a63d
000002a0: 61a3 303d acd1 86bd f98f d63d 3c50 4fbd
000002b0: 9523 d03d b5e7 fa3d 239c a13c a838 c6bd
000002c0: d893 a63d ea7e 7a3d 4f6c 233d 7c5f 043e
000002d0: 11a8 cb3d 785b 70bd 3aff 40bd dcd9 0a3e
000002e0: f35d ee3d 5a98 fc3d 6ce9 a4bd 25f2 d4bd
000002f0: f78f debd 4b64 a03d 96e0 b63d c708 073e
00000300: fb06 553d 63d9 b93d fe80 753d 864f 3a3d
00000310: ae88 d2bd 46c5 323d 4107 00bd c380 5b3d
00000320: 9eb3 563d c28b 2a3d aff3 2b3d 7d4a 8d3d
00000330: b8ae 613d 1e17 403d a9e9 733d 8069 5c3d
00000340: b079 923d bf7f 76bd 7985 a93d 42bd fabd
00000350: aa3f 153e c831 f3bd 5017 983c 781f 9dbd
00000360: 8407 89bd cda2 523d 1624 973d e9a4 cabd
00000370: 140d ddbd ebd4 653d bd4d d43d a0b0 6abd
00000380: 11f6 c7bd 7856 453d 61b2 ddbd 26be d7bd
00000390: 6c31 113d 73d5 96bd 496f 9d3d bc14 ac3d
000003a0: 4c4a f8bd d4ba be3d 4c0e 4d3d 7ca5 5f3d
000003b0: ac28 9d3d 9883 86bd 9250 ca3d 63b3 05be
000003c0: 09fe 423d 2a2a f8bd ac16 053e abc0 4bbd
000003d0: 3bc0 fe3d 2611 793d f90f 913d c5db 84bb
000003e0: 4e69 4bbd b0df 4abd ec20 0f3e 1634 87bd
000003f0: 9bbd af3d 5ce5 9dbd f088 11be 0f55 9d3d
0.0250839 0.10278243 0.099786684 0.051497135 -0.010235901 0.011279816 0.071464606 0.11819878
-0.034383126 0.10573296 0.032290816 -0.12467186 0.077980466 -0.07221748 0.072543316 0.09437549
0.08900341 -0.108955145 0.120420724 0.07132042 0.06299384 -0.08195491 -0.095924094 0.06689135
0.042606395 -0.10478235 0.07638463 0.0292103 0.08747606 -0.053748634 0.10282561 -0.10395232
-0.07895565 0.05298755 0.10771971 0.0753737 0.08769569 -0.06890942 0.091162905 0.11077374
0.044758774 -0.062407076 -0.042027876 -0.042843524 0.123360336 -0.11925274 0.04563121 -0.117644005
-0.11229588 0.008647819 -0.09439756 0.097146474 0.045100756 -0.102465905 0.0745149 0.1285864
0.0528935 -0.05679413 0.09499864 0.050768904 -0.07924954 0.05549687 -0.10720503 -0.044563394
0.13154122 -0.006876 0.10730735 -0.08506437 -0.113167346 -0.0775629 -0.092786744 0.16909201
-0.06106441 0.05293724 0.04493769 0.09783861 0.12093773 0.06655092 -0.025979353 -0.05674932
-0.107340135 0.050049685 0.07556441 0.022592643 -0.11022864 -0.05875827 0.043071438 0.06564791
0.0024318558 -0.04438305 0.06711158 -0.046009213 0.065932125 -0.08699052 0.09879746 0.064266756
0.096974656 -0.07708345 0.03620069 -0.0967852 0.0356399 0.06863972 0.0037626934 -0.16072097
0.13477293 -0.14442697 0.07011374 0.06728423 0.09061524 0.039758638 -0.05022093 0.04266114
-0.107167736 -0.079525866 -0.13683371 0.12662035 -0.08261372 0.10320862 0.09988131 -0.03511987
0.07954416 0.05956831 0.051810328 -0.06255028 -0.06624066 -0.1339633 0.061968915 0.13665792
0.081825435 0.043404553 0.041708104 0.048933044 -0.10955911 -0.13108058 -0.05561419 0.08581044
-0.084545165 -0.071189344 0.109890305 -0.08988724 0.065205686 0.028271498 0.124516144 -0.13634025
0.008553003 0.17090952 -0.0398146 0.15215 0.10534665 0.024628298 0.10161544 -0.13830422
0.08317274 0.0494841 -0.026275363 0.06829523 0.11748644 -0.12866837 0.07226562 -0.09375312
-0.08975477 0.045635678 -0.12412828 0.039372712 0.13473207 -0.1156603 0.060102385 0.08135153
0.04312456 -0.065829605 0.10476679 -0.050613627 0.10163037 0.12251226 0.019727772 -0.09678775
0.08133668 0.06115619 0.039898213 0.1292705 0.099441655 -0.05868098 -0.047118403 0.1355967
0.11639013 0.12333746 -0.08052334 -0.10397748 -0.10867303 0.07831629 0.08929555 0.13186942
0.05200861 0.09074666 0.05993747 0.045485996 -0.10279976 0.043645166 -0.031256918 0.053589594
0.05241739 0.04163719 0.04198044 0.06898973 0.055098265 0.046897046 0.059549008 0.05381155
0.07152116 -0.060180422 0.08277411 -0.12243129 0.14575067 -0.118747294 0.018565804 -0.07672018
-0.066908866 0.05142479 0.0737993 -0.09894735 -0.1079351 0.056111258 0.1036639 -0.05729735
-0.0976373 0.048178166 -0.10825039 -0.10534315 0.035447523 -0.07364931 0.076872416 0.08402392
-0.12123546 0.093129784 0.050062463 0.054601178 0.07673773 -0.06568068 0.09878649 -0.13056712
0.047605548 -0.12117417 0.1299693 -0.04974429 0.12439009 0.06080737 0.07083125 -0.004054519
-0.049660973 -0.04952973 0.13977402 -0.066017315 0.08581086 -0.077097625 -0.14212394 0.07682239

fc2.weight f4 [128, 256]
00000000: 1a98 c03c c01a 113d 6d7a abbc b83d dc3c
00000010: ed1e 68bd c02e 94bb d899 863c 19be 83bc
00000020: 847d 19bd 51ef 10bd e2ea 53bd b20f 793d
00000030: a5f7 31bd 4edf 67bd 6e61 1b3d c8f1 2b3d
00000040: ee04 023c 7828 14bc 4c94 6f3d a876 4bbd
00000050: f7fa 253d 0a15 08bd 535c b6bc 2a5d 4a3d
00000060: 3033 dd3b a695 6a3d 0cb7 4bbd d835 523c
00000070: a074 7b3b c0c0 79bd 4854 27bc 906c 17bc
00000080: 7667 13bd bbbc f93b 2bfe 673d 7703 20bd
00000090: 1c61 52bd 561d 303d 6ef4 c33c 4bb0 1439
000000a0: 72de 203d 60e2 08bd 5b99 25ba 8a1d d43c
000000b0: 9161 0fbd e0e8 7b3d 1ae5 e83c 4662 1a3d
000000c0: f67b 0ebd 601a 463d 200f 46bc 60b9 e8bb
000000d0: 283c 213c c075 a93b a0b7 153c dba0 48bd
000000e0: 9815 3abd a03c 7bbd c2df d93c 5eeb 15bd
000000f0: 3a3b 1c3d 38eb 633d 144a 69bd e2d6 1bbd
00000100: 1af3 58bd 88af 7b3d 3876 a7bc 3836 5f3d
00000110: ac57 823c 1866 b9bc 8ae2 3b3d 40f8 943c
00000120: 80df 683d d20d 0f3d 2227 63bd 3ad8 603d
00000130: d8c4 eb3c d38b 44bc 33f2 c73b 8839 32bc
00000140: 641a e83c a4af a7bc 1405 b73c 0802 513c
00000150: 86e9 14bd 20bf d93b c2fd 723d b8f0 99bc
00000160: 3823 aabc c400 f43b 3e70 633d 506f 973c
00000170: d634 613c b0b6 5fbc 977a a0bc c2eb 743d
00000180: 0004 3dbb a69f 41bd 3050 d73c b690 60bd
00000190: e0fb d5bb a8bb 0a3d 80e1 6abb d0ee ec3c
000001a0: 809a a63b 48c8 7cbc c3f3 043c 84ea bc3c
000001b0: 90d1 ec3b fa9f 483d 78b7 6abd 5810 633d
000001c0: 1edd 04bd 090a 97bc 8213 e1bc ff5e 47bd
000001d0: 3289 723d 943c 493d ca6d 063d a438 cb3c
000001e0: 9100 6cbd 305d f4bb 3c31 25bd b2dc 343d
000001f0: a6a4 6cbd 17cc e7bc c03b 433d 5f66 63bd
00000200: d217 64bd 3850 9ebc 00ef 653b 66aa 57bd
00000210: c401 58bd f894 9abc b8b9 2abd 97d1 cf3c
00000220: 4846 51bd 6003 a2bc 4d9e 63bd e6fc 1dbd
00000230: 5a1d 17bd 3042 bcbc f69a a1bc 604f 9b3c
00000240: 50f4 b83c 2903 fd3b d0bc 683c 42f3 333d
00000250: 80aa 5abc 28db e33c 9462 4bbd 2ce2 283d
00000260: 4466 b9bc cd97 213d 08c8 ae3c 85f3 f8bb
00000270: f889 733c c989 353d 55f7 143c a05a fc3c
00000280: 082d 353c 9ac6 2b3d 808f 79bb 82ef 643d
00000290: 38dd f83c 70a7 8a3b f5c1 e1ba c15d 0bbd
000002a0: c1b9 e2bc 906d 0dbd 8c6e 9e3c 60a1 44bc
000002b0: f0d6 063d d090 8a3b 302c b2bc 3925 043c
000002c0: cfda f33c 9205 763d d83e 393c 8cd2 14bd
000002d0: 3369 78bd 7ebc 34bd 1697 623d c0cf 013d
000002e0: b136 33bd ac36 e8bc fcab 403d 9a60 4cbd
000002f0: f652 5bbd bcb3 88bc c02b 803b baa7 083c
00000300: aca2 a33c e8d2 e73c f065 5dbd 1cf1 7ebd
00000310: 7ef1 2dbd 143c 4e3d 5024 583c 90e8 a5bb
00000320: 1c28 ca3c 4c6d 71bd 4d30 51bc bcee 3c3d
00000330: 7c7e 33bd cf0d 0bbd c896 b3bc e4c0 9dbc
00000340: 453a cc3c dcde 2d3d 291e 4d3c de3e 3c3d
00000350: e4f5 2a3d 9c6c 4b3d 6c55 973c 7093 57bd
00000360: 2839 c0bc e0ec bb3c 8129 383c 76a9 493d
00000370: f4dc 533d 08d2 69bd 2cd8 79bc 2079 10bd
00000380: c824 6ebd 6a92 22bd 68c6 083d d04c 36bd
00000390: 38a0 3a3c b671 01bd bb47 0fbd 5376 04bd
000003a0: 28bc 843c 6cb2 bf3c b736 033c 085a 06bd
000003b0: 06f9 24bd 36a5 73bd 0834 f63c a450 f13c
000003c0: 1078 d03b 18fc 3c3c 1cc5 31bd bc26 9abc
000003d0: 01c4 e8bc d2de 0c3d 0655 063d 3c6a d6bc
000003e0: 744b 85bc 802a 52ba 77e5 503d 1e09 44bd
000003f0: 081a 213d a465 5d3d 9639 5ebd 8cd1 01bd
0.023510028 0.0354259 -0.0209324 0.026884899 -0.056670118 -0.0045221746 0.01643078 -0.016081857
-0.037473217 -0.03538448 -0.051737674 0.060805984 -0.043449063 -0.056609444 0.037934713 0.041978627
0.007935746 -0.009042852 0.058491036 -0.049673706 0.04052254 -0.03322319 -0.02226082 0.049405254
0.006750487 0.057271622 -0.049735114 0.01283022 0.0038369074 -0.060974836 -0.010212965 -0.009242192
-0.03598734 0.0076213754 0.056638878 -0.039065804 -0.051362142 0.042996727 0.023920264 0.00014180054
0.03927464 -0.033419013 -0.0006317102 0.025892992 -0.035005156 0.061501384 0.028429557 0.037691377
-0.034786187 0.048364997 -0.012088567 -0.0071021765 0.0098410025 0.0051715076 0.009138018 -0.04898153
-0.04543075 -0.061337113 0.026595954 -0.036601417 0.03814242 0.055644244 -0.056955412 -0.038046725
-0.052966215 0.061446697 -0.020442113 0.054495066 0.015910946 -0.02263169 0.04587034 0.018184781
0.05685377 0.03492529 -0.05545724 0.05489371 0.028780386 -0.011996227 0.0061018704 -0.010877974
0.028332897 -0.020469494 0.022341289 0.012756832 -0.036355518 0.0066450983 0.059324034 -0.018791541
-0.020768747 0.0074463803 0.055526964 0.018485695 0.013745507 -0.013654396 -0.019589705 0.05979515
-0.0028841496 -0.047271393 0.026283354 -0.054825507 -0.00653027 0.03387037 -0.0035839975 0.028922468
0.005084336 -0.01542861 0.008114758 0.023061045 0.0072271302 0.04898069 -0.057303876 0.05543551
-0.032437436 -0.018437402 -0.027475122 -0.04867458 0.05921287 0.049130037 0.032819547 0.024807282
-0.057617728 -0.007457398 -0.040330157 0.044155784 -0.05777421 -0.02829556 0.047664404 -0.05551755
-0.05568678 -0.01932536 0.0035085082 -0.05265274 -0.05273606 -0.018869862 -0.04168102 0.025368495
-0.051092416 -0.019777 -0.05557089 -0.03857126 -0.036893226 -0.02298078 -0.019727211 0.018958747
0.022577435 0.007721324 0.014205173 0.04393316 -0.013346314 0.027814463 -0.04965456 0.04123132
-0.022631772 0.03945141 0.021335617 -0.007597389 0.014864437 0.044320855 0.009092172 0.030804932
0.0110581 0.041937448 -0.0038079917 0.055892475 0.030378923 0.004231386 -0.0017223941 -0.034024958
-0.027676465 -0.034528315 0.019339822 -0.012001365 0.032919824 0.004228689 -0.021749586 0.008065515
0.029767422 0.060063906 0.011306487 -0.036333606 -0.0606472 -0.044125073 0.055319868 0.031692266
-0.04375333 -0.028346382 0.047039017 -0.049896814 -0.053545915 -0.016687267 0.0039114654 0.00834077
0.019975029 0.02829881 -0.054052293 -0.06224166 -0.042466633 0.050350264 0.013192251 -0.005063124
0.024677329 -0.058942124 -0.012767863 0.046126112 -0.043821797 -0.033948716 -0.021922484 -0.019257016
0.024930129 0.042448863 0.012519398 0.045958392 0.041738406 0.049664125 0.01847335 -0.05263084
-0.023464754 0.0229401 0.011240364 0.049233876 0.05172439 -0.057085067 -0.015249293 -0.035271764
-0.058140546 -0.039690413 0.03339234 -0.044506848 0.011390738 -0.031602584 -0.034980517 -0.032339405
0.016203001 0.023400508 0.0080086505 -0.032800704 -0.04027655 -0.05948373 0.030054107 0.029457398
0.006361969 0.011534713 -0.04340087 -0.018817298 -0.028413774 0.034392186 0.03279593 -0.026173703
-0.01627133 -0.0008017197 0.051000085 -0.047860257 0.039331466 0.05405201 -0.054254137 -0.03169398

fc2.bias f4 [128]
00000000: 75f6 76bd 2ce1 12bd 3a06 613d bef3 ac3d
00000010: 8c37 9b3c 45e6 3e3d 6682 adbd 4f18 acbc
00000020: 89b3 64bc fcdb 23bd 8884 ac3d 1459 9a3d
00000030: ee80 6dbc 14e2 523d c4d2 c63d 3c99 e93c
00000040: bad4 7cbd 7676 903d ccf9 3b3d 7e00 683c
00000050: b410 aebd 6e8d 893d 7a3b 833d b121 73bd
00000060: 5e73 713d de0d 3fbd 37a2 b2bc 2d65 383b
00000070: a845 a2bc 45be a63d 63c5 a93d 40a6 e73b
00000080: 5bd9 57bd d595 893d 69dc a83d c238 6c3d
00000090: 84c6 7c3d 3a10 3bbd 8e9a 3dbc 7ffd 793d
000000a0: d484 a9bc 78d4 dfbc 1626 d23c cea1 fe3b
000000b0: 8984 923d 4940 c8bc 52cf 02bd 0f07 c43c
000000c0: 5d9f 873d 356c 7e3d ce4a 1ebd 5226 8d3d
000000d0: a4b5 89bc 083a d63c 7f41 27bb 3984 aabc
000000e0: b11d 5e3d 2153 7e3d 035c 573d 6a5b 223c
000000f0: b9ab ad3d 6803 643c 633b 9e3d d011 a2bd
00000100: d27a 3ebc 1c53 d43d c20d 413d 030e 77bd
00000110: 4f17 863d df5c a53d d011 223d b23d d53c
00000120: 194b 09bd 64a3 41bd 2f43 963d aea5 d43d
00000130: cb69 363a 74dc 173d e37b a03d fb71 e5bc
00000140: 36c0 52bd 7235 913d 1d5d 8abc e0d2 5bbc
00000150: 0cc4 9d3c b80f bf3a 8cfd 3f3d d6f9 0f3d
00000160: a621 5938 60fd 3f3d 2325 bc3d fcde febc
00000170: 9ec9 adbc d456 433d deac efbb 63c6 84bd
00000180: 2392 51bb 09dd cb3a 58cc 303d 0859 d43c
00000190: c108 523d b33d 6ebd 170e 4abc 34cc 213d
000001a0: 7cde c3bc 8318 843c 600d 8f3d ae7b 97bc
000001b0: 7a40 80bd def4 563d da6a 4c3d 3db6 b7bc
000001c0: 0bbf 3d3d 3114 be3c 49bf fd3c 9472 8fbd
000001d0: c51c 3fbd 3bb2 8d3c c5fe ccbc 362e 8b3d
000001e0: 0aec 3d3d d02d 9bbd 981e 16bc 0c7d b33d
000001f0: e340 773d 5907 a3bc 40de 82bd e36f bf3c
-0.060293633 -0.035859272 0.05493758 0.08444928 0.018947385 0.04660632 -0.08472137 -0.021007685
-0.01395882 -0.040004715 0.08423716 0.075365216 -0.014496071 0.051485136 0.09708169 0.02851545
-0.06172631 0.07053845 0.04589252 0.014160274 -0.084992796 0.06716429 0.06407829 -0.059358303
0.058947913 -0.046644084 -0.021805866 0.0028136477 -0.019808605 0.0814176 0.08289602 0.007069379
-0.05269752 0.06718031 0.08245165 0.057671316 0.061712757 -0.04566977 -0.011572493 0.06103277
-0.02069322 -0.027322993 0.025652926 0.0077707535 0.07154185 -0.024444716 -0.031935997 0.023929147
0.06622193 0.062114913 -0.038645558 0.06892075 -0.016810246 0.026150718 -0.0025521216 -0.020815002
0.054227535 0.062090997 0.052577984 0.00990949 0.08480019 0.013916828 0.07726171 -0.07913554
-0.011625962 0.10367414 0.04713226 -0.060316097 0.065474145 0.080743544 0.03956777 0.026030395
-0.033518884 -0.047274962 0.07337033 0.103831634 0.00069585134 0.037075475 0.078361295 -0.028008452
-0.051452838 0.07090272 -0.016890103 -0.013416976 0.019258521 0.0014576828 0.04687266 0.03515037
5.176817e-05 0.046872497 0.09186771 -0.031112187 -0.021214303 0.047690228 -0.0073143085 -0.06483152
-0.0031977973 0.0015553545 0.043163627 0.02592136 0.05127788 -0.05816431 -0.012332461 0.039501384
-0.0239098 0.01612497 0.06984973 -0.018491592 -0.06262298 0.052479617 0.04990659 -0.022425765
0.04632477 0.023202987 0.030975001 -0.07004276 -0.046658296 0.017296901 -0.025023827 0.067959234
0.046367683 -0.075770974 -0.009162568 0.08764085 0.060364615 -0.019900965 -0.06390047 0.023368781
