data/predictor/Ablation/4_TNetwork-F_2024-06-30_11-03-46.pt (torch, 864887 bytes, 16 tensors)

conv1.bias f4 [64]
0	0xbd8b38b9	-0.06797928
1	0x3d88a5e6	0.066722676
2	0xbdd3b279	-0.10336775
3	0xbd6f1ea2	-0.058378823
4	0x3d55eae2	0.052225955
5	0xbd5f3e68	-0.054502875
6	0xbcc41005	-0.02393342
7	0xbd5a71c9	-0.05333117
8	0xbdb8f0dd	-0.09030316
9	0xbd201f52	-0.03909237
10	0xbd155bec	-0.036464617
11	0xbdfec7bc	-0.1244044
12	0xbc39a0a4	-0.011329804
13	0x3cc456e6	0.023967218
14	0x3dc924a4	0.09821442
15	0x3c9aa892	0.018879209
16	0xbd6c1694	-0.05763872
17	0xbdd48440	-0.10376787
18	0x3d28fd04	0.04125692
19	0x00000000	0.0
20	0xbdba4561	-0.09095264
21	0x3d42aa06	0.04752543
22	0xbda0b7c9	-0.07847554
23	0xbc0528d1	-0.008127407
24	0x3d38e248	0.045137674
25	0xbde10b11	-0.10988439
26	0xbd03f8e4	-0.032219782
27	0xbd53e62b	-0.051733177
28	0xbcb3eaa2	-0.021962468
29	0x3d38c7d7	0.045112457
30	0xbdc69b54	-0.09697595
31	0xbd288de3	-0.04115094
32	0x3d0b4720	0.034003377
33	0xbdfaece7	-0.12252217
34	0x3d41c0c5	0.04730298
35	0x3d490324	0.04907526
36	0xbd2c5ee2	-0.042082675
37	0x3e1addae	0.15123627
38	0x3c301052	0.010746079
39	0xbe11b4d3	-0.14229135
40	0xbcf097e2	-0.029369298
41	0xbc14f72e	-0.009092135
42	0xbd27cdc5	-0.04096772
43	0xbc7b4f08	-0.015338667
44	0x3bcd4894	0.0062647555
45	0xbd3dcf0e	-0.04634004
46	0xbdad49df	-0.084613554
47	0x3c957122	0.018242422
48	0xbd55cc38	-0.05219671
49	0xbd7107f0	-0.05884546
50	0xbd14308e	-0.036179118
51	0x00000000	0.0
52	0xbc265227	-0.010151423
53	0xbdad8d9f	-0.08474278
54	0xbccd25a9	-0.025042372
55	0xbd144192	-0.036195345
56	0x3d6046f2	0.05475516
57	0x3cc19660	0.023631275
58	0x3dec3b76	0.11534779
59	0x3dc0862b	0.094005905
60	0x3bc9ee32	0.0061624283
61	0x3cd802d9	0.026368545
62	0xbd887322	-0.06662585
63	0xbb6b78c3	-0.0035930134

conv1.lin.weight f4 [64, 6]
0	0xbd8359dd	-0.064136244
1	0xbd07796d	-0.033074785
2	0x3ec16536	0.3777253
3	0x3e639301	0.22224046
4	0x3dc7fe45	0.09765295
5	0x3f82cf7f	1.0219573
6	0xbf1e86b9	-0.6192432
7	0x3e66a358	0.22523248
8	0xbdc92718	-0.0982191
9	0xbd769a48	-0.060205728
10	0xbd9116b5	-0.07084409
11	0x3ebfd8b2	0.37470013
12	0x3e194a3f	0.14969729
13	0xbd2badcb	-0.04191379
14	0xbf3460c0	-0.7046013
15	0x3ec1f3d3	0.37881336
16	0x3c2aff34	0.010436822
17	0x3ee954bc	0.4557246
18	0x3b46c9b1	0.003033262
19	0xbdbf5583	-0.09342482
20	0x3ef04ee5	0.46935192
21	0x3e1c6dc0	0.15276241
22	0xbe42df90	-0.19030595
23	0x3e33e4d3	0.17567758
24	0xbe477ee4	-0.19481999
25	0xbf83ccc3	-1.0296863
26	0xbee97a93	-0.4560133
27	0x3e7eae4b	0.24871175
28	0xbe2768d0	-0.16348577
29	0x3f597009	0.8493658
30	0xbe2a3784	-0.1662274
31	0x3dd47a15	0.10374848
32	0x3edced38	0.43149734
33	0x3ea6295d	0.32453433
34	0x3da58c5a	0.080834106
35	0x3f550df1	0.832244
36	0xbdd004ca	-0.101571634
37	0xbdb3dcf5	-0.087823786
38	0xbd3f410e	-0.0466929
39	0x3e927665	0.28605953
40	0x3e338d2c	0.17534322
41	0x3e9e731b	0.30947194
42	0xbee2bde7	-0.4428551
43	0x3cea0164	0.028565116
44	0xbe9d26c3	-0.30693635
45	0xbd2ac19f	-0.041688558
46	0x3c764a3e	0.015032349
47	0x3f611c66	0.8793396
48	0xbe63f0fb	-0.22259896
49	0x3e3bdabe	0.18345162
50	0x3ee2a221	0.4426432
51	0xbe1828f0	-0.14859366
52	0x3e789cc8	0.24278557
53	0xbe3f57e2	-0.18685868
54	0x3c298a33	0.010347891
55	0x3ec69899	0.38788298
56	0xbe0d79b1	-0.13815953
57	0xbf0164b9	-0.50544316
58	0xbe901c59	-0.28146628
59	0xbf78cdfc	-0.9718931
60	0xbe09ab56	-0.13444266
61	0xbf2877f7	-0.6580805
62	0x3e2e5ea7	0.17028295
63	0x3ef42532	0.47684628
64	0xbe47a437	-0.19496237
65	0x3fd255a9	1.6432391
66	0x3d62b1e5	0.055345435
67	0x3dd87c87	0.10570627
68	0x3c498cc4	0.012301628
69	0x3dd98f86	0.10623078
70	0xbe05e6ea	-0.13076368
71	0x3f9294de	1.1451681
72	0xbea1a6be	-0.31572527
73	0x3e41d5ff	0.1892929
74	0x3e1b9216	0.15192446
75	0x3ede8c77	0.4346654
76	0x3dca7efa	0.098875
77	0x3ec36738	0.38164687
78	0x3ca4320b	0.020043394
79	0xbf3093ae	-0.6897534
80	0xbf08c671	-0.534278
81	0x3e535b13	0.20640211
82	0x3d210293	0.039309096
83	0x3f06f9d0	0.52724934
84	0xbe11cc67	-0.1423813
85	0xbd5f931d	-0.054583658
86	0x3f13751d	0.57600576
87	0xbbc31b95	-0.005954216
88	0xbe0bfa4b	-0.13669698
89	0xbd91fb8b	-0.07128056
90	0xbd9b9b3a	-0.075979665
91	0x3e0cb750	0.13741803
92	0x3e855227	0.2603924
93	0xc0078376	-2.1173987
94	0x3d5dca10	0.05414778
95	0x3fb9560d	1.4479386
96	0x3e50f9de	0.20407817
97	0xbe4dd9eb	-0.2010266
98	0x3e8b1a6a	0.2716859
99	0x3e112bc8	0.14176857
100	0xbe20edbf	-0.15715693
101	0xbf882185	-1.0635229
102	0x3d928e6c	0.07156071
103	0x3d07d7fc	0.033164963
104	0x3e604314	0.21900588
105	0x3e077769	0.13229145
106	0x3c3e1834	0.01160245
107	0x3ecbfba6	0.3984043
108	0xbd734d80	-0.05940008
109	0x3e99dc55	0.30050912
110	0xbf8a9099	-1.0825378
111	0x3eff8e2c	0.49913156
112	0x3d80efa8	0.06295711
113	0x3f14720f	0.5798654
114	0xbe108873	-0.14114551
115	0xbe6a4916	-0.22879443
116	0xbd9cbb90	-0.07652962
117	0xbe84d854	-0.25946295
118	0xbdc8211c	-0.0977194
119	0xbe86cf31	-0.2632995
120	0x3da2af37	0.07943576
121	0x3d2fd26e	0.04292529
122	0xbf367e88	-0.7128682
123	0x3e176732	0.1478546
124	0xbe17c61d	-0.14821668
125	0x3f8a4dae	1.0804956
126	0xbf1156e5	-0.56773216
127	0xbf031d18	-0.5121627
128	0x3e81a6c5	0.25322548
129	0x3ef2e074	0.4743687
130	0x3e5a9f3a	0.21349803
131	0x3f1abb94	0.6044247
132	0x3e4581bc	0.19287771
133	0xbdda7281	-0.10666371
134	0xbde133bb	-0.10996195
135	0xbe1f29df	-0.15543316
136	0x3d6716ce	0.056418233
137	0xbe9b8639	-0.3037584
138	0x3d795d07	0.060879733
139	0xbdb9740d	-0.09055338
140	0x3e8314d9	0.25601843
141	0xbfcbdbf3	-1.5926498
142	0x3e37cf85	0.17950256
143	0x3f88daca	1.0691769
144	0xbf0f8df3	-0.5607597
145	0x3d026262	0.031832106
146	0x3e84327e	0.25819772
147	0x3eebb923	0.46039686
148	0x3da1ecdf	0.07906508
149	0x3f33b7b4	0.70202184
150	0xbe2149e3	-0.15750842
151	0x3e7ced31	0.24699856
152	0x3e8a6bef	0.27035472
153	0xbe47ce82	-0.1951237
154	0x3e41ac4d	0.18913384
155	0x3fe5f262	1.7964594
156	0xbba9e765	-0.005185055
157	0x3e8821dc	0.26588333
158	0xbf0b2474	-0.543525
159	0x3d84e85f	0.06489634
160	0xbdee52ba	-0.116368726
161	0x3fb6a8b4	1.4270234
162	0x3d884164	0.06653097
163	0xbd456d43	-0.048199903
164	0x3e1916ea	0.14950147
165	0xbfa6a6c1	-1.3019639
166	0x3e0a881e	0.13528487
167	0x3fa487b7	1.2853917
168	0x3baf72cc	0.005354261
169	0xbc46d542	-0.012135806
170	0x3bf30646	0.0074165193
171	0xbfc4467b	-1.5334009
172	0xbe8d8a70	-0.27644682
173	0x3fb30471	1.398573
174	0xbd674042	-0.056457765
175	0x3dce8bd8	0.10085267
176	0x3ef44807	0.47711203
177	0xbd02f27e	-0.03196954
178	0x3ca3f1f1	0.020012828
179	0xbce1d257	-0.027566118
180	0x3e20d89f	0.15707634
181	0xbdff34de	-0.124612555
182	0x3e2d53cd	0.16926499
183	0x3e41c8d3	0.18924265
184	0x3c8eef4f	0.017448096
185	0x3f6538a2	0.8953954
186	0x3cd58322	0.026063506
187	0x3e988894	0.297917
188	0xbf701bb6	-0.93792284
189	0x3e430b45	0.19047268
190	0xbe095102	-0.13409808
191	0x3f7c68ed	0.98597604
192	0xbe032c71	-0.12809922
193	0x3e9c6f4a	0.30553657
194	0xbf01fc23	-0.50775355
195	0x3eaa3c74	0.33249247
196	0x3d5b0763	0.05347384
197	0x3e88f348	0.2674811
198	0x3dd23cf6	0.102655336
199	0x3e95d183	0.29261407
200	0x3e73cedc	0.2380938
201	0x3e7274fc	0.23677438
202	0x3d2b8381	0.04187346
203	0x3eb8e2ee	0.36110634
204	0xbf29cc96	-0.663278
205	0x3e8d7421	0.27627662
206	0xbe8062af	-0.2507529
207	0xbeb44e77	-0.35216114
208	0xbdf938c2	-0.12169029
209	0x3ecc2b0d	0.39876595
210	0xbe51ae5c	-0.20476669
211	0xbda0d5db	-0.0785329
212	0x3e977a3c	0.29585445
213	0x3eb4ce34	0.3531357
214	0xbe318d08	-0.17338955
215	0x3e6f1ff6	0.23352036
216	0x3dc63c5e	0.09679483
217	0x3e005fdc	0.12536567
218	0xbf371082	-0.71509564
219	0xbe140625	-0.14455469
220	0xbe32015f	-0.17383336
221	0x3fb1d8a7	1.3894242
222	0xbe3485d7	-0.17629181
223	0xbe954d4b	-0.29160532
224	0x3e527d62	0.20555642
225	0x3eb3b295	0.35097185
226	0xbe371d9b	-0.17882387
227	0x3e9db212	0.3079992
228	0xbea37f60	-0.31933117
229	0xbd1bd41b	-0.038044076
230	0xbd3256e7	-0.043539908
231	0x3e7a3051	0.24432494
232	0xbdc570c4	-0.09640649
233	0x3f1c53bb	0.6106526
234	0x3e021667	0.12703858
235	0x3e8fb585	0.28068176
236	0x3e97109b	0.29504856
237	0x3eacb5f1	0.3373256
238	0xbce93770	-0.028468817
239	0xbd38194a	-0.044945993
240	0x3b598244	0.0033189217
241	0x3ec1e0a5	0.37866703
242	0xbf8ad7a8	-1.0847063
243	0x3ce3615e	0.02775639
244	0xbe6f47a6	-0.23367175
245	0x3f80a240	1.0049515
246	0xbf4add23	-0.7924368
247	0x3e6619a1	0.22470714
248	0xbee3cd7d	-0.44492713
249	0x3e3d548a	0.1848928
250	0xbb807e4d	-0.003921306
251	0x3f6f7594	0.93538785
252	0xbe6dd985	-0.23227508
253	0x3df658a6	0.12028627
254	0xbe12115c	-0.14264435
255	0x3eebfaf4	0.460899

conv2.bias f4 [64]
0	0xbcd35120	-0.02579552
1	0x3bc1f824	0.0059194732
2	0xbd812099	-0.06305046
3	0xbd197295	-0.03746279
4	0xbdc1694e	-0.094439134
5	0xbd115993	-0.035485815
6	0xbd169bf8	-0.036769837
7	0xbcf0b56d	-0.029383386
8	0xbc668ba0	-0.014071375
9	0xbc202880	-0.009775281
10	0xbcb5e5ba	-0.022204269
11	0xbd24c94c	-0.040231034
12	0xbd357ce1	-0.044308547
13	0xbd8190ad	-0.06326423
14	0xbd91ef95	-0.07125775
15	0xbdbd736d	-0.09250531
16	0xbd05225d	-0.032503475
17	0xbd5be84d	-0.053688336
18	0xbd17f0f9	-0.037095044
19	0xbd6a2d17	-0.057171907
20	0xbcc018a7	-0.023449255
21	0xbd2c5b32	-0.042079158
22	0xbd5f20b3	-0.054474544
23	0x3cf0be09	0.02938749
24	0x3b5602c4	0.0032655457
25	0xbd3f3186	-0.04667809
26	0xbdcfb6ea	-0.1014231
27	0xbb0b9b95	-0.002130245
28	0xbc792194	-0.01520576
29	0xbcc26d1f	-0.023733674
30	0xbd389dbb	-0.0450723
31	0x3bfe0816	0.0077524288
32	0xbd602149	-0.054719243
33	0xba86d4e4	-0.0010286835
34	0xbd5f30b0	-0.05448979
35	0xbbd36a8f	-0.0064519118
36	0xbde4fd6d	-0.1118115
37	0xbd6fc486	-0.05853703
38	0x3bd7a7e8	0.0065812953
39	0xbe3b6789	-0.18301214
40	0xbd210e4b	-0.03932027
41	0xbcd6d20c	-0.026223205
42	0xbd411c98	-0.04714641
43	0xbc80b34f	-0.015710501
44	0x3bff9b47	0.007800493
45	0xbd149cba	-0.03628228
46	0xbb317451	-0.0027077387
47	0xbd59c211	-0.05316359
48	0xbd2b910c	-0.041886374
49	0xbd6e1e4d	-0.058134366
50	0xbd93f0d9	-0.072236724
51	0x3ca381f4	0.019959427
52	0xbd50293e	-0.05082058
53	0xbce86d8a	-0.028372545
54	0xbe09941f	-0.1343541
55	0xbc304d7b	-0.01076066
56	0xbd54963a	-0.05190108
57	0xbdfc222d	-0.12311206
58	0xbd7a679c	-0.061133966
59	0xbd3ff9e5	-0.046869177
60	0xbd959b4c	-0.07305011
61	0xbe384a21	-0.17997028
62	0xbd3cd746	-0.04610374
63	0xbb42518b	-0.0029650654

conv2.lin.weight f4 [64, 64]
0	0xbe2ee5eb	-0.17079894
1	0x3d6e9841	0.05825067
2	0xbefa44d1	-0.48880628
3	0xbf2b7fca	-0.66991866
4	0xbf022e93	-0.50852317
5	0xbe067a2a	-0.1313254
6	0x3e1f150b	0.15535371
7	0x3f073eec	0.52830386
8	0xbb019a4e	-0.001977581
9	0x3e3bf83c	0.18356413
10	0xbeed8520	-0.4639063
11	0xbe69dd71	-0.2283838
12	0xbccf1689	-0.0252793
13	0xbd3d0019	-0.04614267
14	0xbec0d9b9	-0.3766611
15	0xbe3b8537	-0.18312536
16	0xbf0eb167	-0.55739444
17	0xbf6abf21	-0.9169789
18	0x3ca04951	0.01956621
19	0x3d0257c4	0.03182198
20	0xbdfe4f69	-0.1241749
21	0xbe0fc14c	-0.1403858
22	0xbdaa17d5	-0.08305327
23	0xbe54acb4	-0.20769006
24	0xbb8ba783	-0.0042619123
25	0x3e274dd9	0.1633829
26	0x3e8d57a3	0.27605924
27	0xbdb7d887	-0.08976846
28	0x3dd23738	0.102644384
29	0xbe166dfb	-0.14690392
30	0xbf1bed66	-0.60909116
31	0x3e25fa71	0.16208817
32	0x3da5bd71	0.08092774
33	0xbe13d8ea	-0.14438215
34	0x3eb08bfe	0.34481806
35	0x3d93cf8c	0.07217321
36	0x3c647ec2	0.013946237
37	0xbcae6f51	-0.021293314
38	0x3f05f5c8	0.5232816
39	0xbce0abc9	-0.027425664
40	0x3db6bca7	0.08922701
41	0x3dac516f	0.0841397
42	0x3dcfbdb9	0.101436086
43	0xbe745910	-0.238621
44	0xbe089ed1	-0.13341834
45	0x3e6afd02	0.22948077
46	0xbe31ba7b	-0.17356293
47	0x3e50c7da	0.20388737
48	0xbe84a925	-0.25910297
49	0xbdb27016	-0.08712785
50	0x3d57d90d	0.05269723
51	0xbdf8d846	-0.12150626
52	0x3daf78c4	0.08567956
53	0xbe4faed7	-0.2028154
54	0x3e107d5a	0.14110318
55	0x3e923380	0.28554916
56	0x3ecad9d1	0.39619306
57	0x3eb4a84b	0.35284647
58	0x3ef6eb59	0.4822643
59	0x3e92b5d2	0.28654343
60	0xbd848a75	-0.06471721
61	0xbe88f7dd	-0.26751605
62	0xbe3d632b	-0.18494861
63	0x3e2f33d9	0.17109622
64	0x3e92d7d3	0.28680286
65	0x3e8a2894	0.26984084
66	0xbc4b29e2	-0.012400122
67	0x3d04677b	0.03232525
68	0x3f32baf8	0.6981654
69	0x3dce7364	0.10080603
70	0xbbcb5934	-0.006205702
71	0x3eb75036	0.35803384
72	0x3e81723c	0.25282466
73	0x3ee86654	0.4539057
74	0x3f3f3068	0.7468324
75	0x3c7c91fe	0.015415667
76	0x3d950456	0.07276218
77	0xbe3245f0	-0.17409492
78	0xbd057663	-0.032583605
79	0xbe2b55c5	-0.16731937
80	0xbe14ce7e	-0.14531896
81	0x3d944d9c	0.07241365
82	0xbeeff065	-0.46863094
83	0xbe3a016e	-0.18164608
84	0xbdf4d2ee	-0.11954294
85	0x3eeb1490	0.45914125
86	0x3d90a1c5	0.07062105
87	0xbf10ae14	-0.5651562
88	0x3ed24ed1	0.41075757
89	0x3e31e15d	0.17371126
90	0x3f0644ab	0.5244853
91	0xbf1a832c	-0.603564
92	0xbf5c84af	-0.8613996
93	0x3e1e61a9	0.15466942
94	0xbe63dfd9	-0.2225336
95	0xbe70d395	-0.23518212
96	0xbeaceec2	-0.33775908
97	0x3e2f4807	0.1711732
98	0x3edd1a77	0.43184254
99	0x3e904367	0.28176424
100	0xbe24b407	-0.160843
101	0x3ee64c34	0.44980013
102	0x3dd68160	0.10473895
103	0xbdf71640	-0.12064791
104	0xbe4d612e	-0.20056602
105	0x3dafbedc	0.085813254
106	0x3e3b121a	0.18268624
107	0x3c98235e	0.018571552
108	0x3a1875f1	0.00058159145
109	0x3cbfe12f	0.023422806
110	0xbd216cca	-0.03941039
111	0x3e599310	0.21247506
112	0xbe696405	-0.2279206
113	0x3e499014	0.19683868
114	0xbe756105	-0.23962791
115	0x3e247181	0.16058923
116	0x3e3910c2	0.18072799
117	0xbd9b7e05	-0.07592396
118	0x3d68e360	0.056857467
119	0xbed60e78	-0.41807914
120	0x3dd62132	0.1045555
121	0xbefd55ee	-0.49479622
122	0x3e2beeeb	0.16790359
123	0x3e9a5c8e	0.3014874
124	0x3dbcd8bc	0.09221026
125	0x3ea97cd1	0.3310304
126	0xbe249ce4	-0.16075474
127	0x3e76fff4	0.24121076
128	0x3e55f302	0.20893481
129	0x3e7bafed	0.24578829
130	0xbea9eab5	-0.3318688
131	0x3e0677df	0.13131665
132	0x3f9e7c9f	1.2381781
133	0x3e7dc486	0.24781999
134	0xbd3ae42a	-0.04562775
135	0x3f17aae2	0.5924512
136	0xbdb994e5	-0.090616025
137	0x3eb6677e	0.35625833
138	0x3f1cd82f	0.6126737
139	0x3e040865	0.12893827
140	0x3d9e8f35	0.07742158
141	0x3e18f8e2	0.14938691
142	0x3d494a8f	0.04914337
143	0xbea50cb4	-0.32236254
144	0xbe842f38	-0.25817275
145	0x3d094f8e	0.033523135
146	0xbee20c01	-0.44149783
147	0x3e316d81	0.17326929
148	0xbc85fb9e	-0.016355332
149	0xbccf3a88	-0.025296465
150	0xbe5c56e8	-0.21517527
151	0xbf0ba5a6	-0.54549634
152	0xbd1c30fa	-0.038132645
153	0x3e88bc1d	0.2670602
154	0x3ebb5e90	0.36595583
155	0xbebda41e	-0.37039274
156	0xbf0a5a60	-0.5404415
157	0xbcb11b84	-0.021619566
158	0x3e5a4cdf	0.21318386
159	0xbe20a748	-0.15688813
160	0xbe93d935	-0.28876653
161	0x3e28b0a5	0.16473635
162	0x3ec9ba8d	0.3940014
163	0x3d8e9cea	0.06963523
164	0x3e9aaa7d	0.30208197
165	0x3e6c19d7	0.23056732
166	0x3e5a364a	0.21309772
167	0xbd624590	-0.05524212
168	0x3e5f0481	0.21779062
169	0xbd4e4c39	-0.05036566
170	0xbdcad5a0	-0.09904027
171	0xbe6a6948	-0.22891724
172	0xbd10f297	-0.0353876
173	0x3c8212fd	0.015878195
174	0x3a807c1d	0.0009802614
175	0x3e594cd8	0.2122072
176	0x3da3a753	0.07990899
177	0x3d4b6c07	0.04966357
178	0xbe3e74f2	-0.18599299
179	0x3e5b457d	0.21413226
180	0x3e6f2316	0.23353228
181	0xbd11aad8	-0.03556332
182	0x3ea4acba	0.3216303
183	0xbf09cec9	-0.53831154
184	0x3cd36d0c	0.025808834
185	0xbf06dbe5	-0.5267928
186	0x3d4532a4	0.048143998
187	0x3d8ad3c9	0.06778676
188	0xbcf28568	-0.029604629
189	0x3e3ca6db	0.18423025
190	0xbcf558c8	-0.02994956
191	0x3ef5be9c	0.47996986
192	0x3da6bb18	0.08141154
193	0x3d0caaec	0.03434269
194	0x3e3156dd	0.17318292
195	0xbd415333	-0.047198486
196	0x3ea7dab7	0.32784054
197	0xbe2c345b	-0.16816847
198	0xbcade742	-0.021228436
199	0x3e2fe006	0.17175302
200	0xbeae88d4	-0.34088767
201	0x3d40b82e	0.047050647
202	0x3e64a1e1	0.22327377
203	0x3ddf566a	0.10905154
204	0x3e40d66b	0.18831794
205	0x3e19f6f3	0.1503561
206	0xbd47d525	-0.048787255
207	0xbe1e0a11	-0.15433528
208	0xbd697ec3	-0.057005655
209	0xbdef6d09	-0.11690719
210	0xbe679a3d	-0.22617431
211	0xbe076d0c	-0.13225192
212	0x3dca6558	0.09882611
213	0x3bff7f21	0.0077971374
214	0xbe0ccbb5	-0.13749583
215	0x3ba3b528	0.0049959607
216	0x3da56eb4	0.080777556
217	0xbe811c2f	-0.25216815
218	0xbe4ecc5b	-0.20195143
219	0x3df15826	0.11784391
220	0xbdf5f480	-0.12009525
221	0x3e1d0c92	0.15336826
222	0x3e1fd1d5	0.15607388
223	0xbe1faee4	-0.15594059
224	0x3d7ad9b9	0.061242793
225	0x3d4ffd83	0.050778877
226	0xbe0e2794	-0.13882285
227	0x3e82a6dd	0.25517932
228	0xbe30109c	-0.17193836
229	0x3ea465c3	0.32108888
230	0x3e13c33c	0.14429945
231	0xbe399739	-0.18124093
232	0xb9893b1c	-0.00026174716
233	0x3ed03d3b	0.40671715
234	0xbe6a2adb	-0.2286791
235	0xbdfa3948	-0.12217957
236	0x3e37e02c	0.17956609
237	0x3e8725ef	0.2639613
238	0xbdce0988	-0.10060412
239	0xbc6a53cb	-0.014302204
240	0xbc5694f6	-0.0130970385
241	0x3d2be953	0.041970562
242	0xbd0d6781	-0.034522537
243	0xbdc7e1a0	-0.097598314
244	0xbe1b4cbb	-0.15165989
245	0xbe14a2d0	-0.14515233
246	0xbdde402a	-0.10852082
247	0x3b8fc6c1	0.004387707
248	0xbdc12b9d	-0.09432147
249	0xbe29978c	-0.16561717
250	0xbedac736	-0.4273011
251	0x3e7a0d3b	0.2441911
252	0x3e09652e	0.13417503
253	0xbe60f263	-0.21967463
254	0x3e2a7c18	0.166489
255	0x3d9e252e	0.07721935

conv3.bias f4 [64]
0	0x3b8b1622	0.004244582
1	0x3b8b3216	0.004247914
2	0x3ae788f6	0.0017664719
3	0x3c5ed44d	0.013600421
4	0x3c26f59c	0.010190394
5	0xbca0cfd2	-0.019630346
6	0x3c8fa52a	0.017534811
7	0xbce6a2ab	-0.028153738
8	0xbbd4a283	-0.0064890995
9	0xb9c484ed	-0.0003748307
10	0xbd307da9	-0.04308859
11	0x3adf41e0	0.0017033182
12	0x3bde72e3	0.006788598
13	0x3b806d07	0.003919247
14	0x3cb690dc	0.022285871
15	0xbbc8db0f	-0.0061296294
16	0x3ae3d892	0.0017383269
17	0xba587733	-0.0008257508
18	0xbcb1a762	-0.02168626
19	0xbc7fab80	-0.015604854
20	0x3c19065b	0.009339894
21	0xbc8ec5fb	-0.017428389
22	0x3c1831cf	0.009289219
23	0xbb525508	-0.003209414
24	0x3c67f9f2	0.014158713
25	0xbb9bba76	-0.0047524525
26	0xbbcc99ce	-0.006243921
27	0xbc0c1ba3	-0.008551511
28	0xb82a1bad	-4.0556934e-05
29	0x3c234d32	0.009967135
30	0xbc3d4592	-0.011552231
31	0x3c8e3da7	0.017363383
32	0x3c9801b6	0.018555503
33	0x3a5b45cd	0.0008364588
34	0xbd06739d	-0.0328251
35	0xbae900f6	-0.0017776776
36	0x3a8fcc20	0.0010970868
37	0x3b83f37c	0.0040268283
38	0x3bcce588	0.006252948
39	0xbb94400d	-0.004524237
40	0xbb21e8f7	-0.0024705508
41	0xbcbec1e0	-0.023285806
42	0x3b240ca2	0.0025031944
43	0xbca2370d	-0.01980164
44	0x3c87a510	0.0165582
45	0xbc9ce66b	-0.01915284
46	0x3b23f0ed	0.002501543
47	0xbd122c21	-0.035686616
48	0x3c1ed8c6	0.0096952375
49	0x3c692cc5	0.014231865
50	0xbc8bb3ad	-0.01705345
51	0xbc74e97e	-0.014948247
52	0xbc89e885	-0.016834507
53	0xbb23ad2e	-0.002497505
54	0x3ab23789	0.0013596873
55	0xbc863988	-0.016384855
56	0xbc0ea9b6	-0.008707454
57	0xbb962d1e	-0.004583015
58	0x3bcb665a	0.0062072696
59	0xbc81547b	-0.015787354
60	0x3c481a6d	0.012213332
61	0xbcc1be9b	-0.023650458
62	0x3cc8aca9	0.024496393
63	0x3ccbc951	0.024876269

conv3.lin.weight f4 [64, 64]
0	0x3f1197e8	0.56872416
1	0x3f2cc526	0.67488325
2	0x3f2f5aa4	0.6849768
3	0xbe264368	-0.16236651
4	0xbe397fae	-0.18115112
5	0x3dfd88f4	0.12379637
6	0x3e31e7c6	0.17373571
7	0xbd7947ea	-0.0608596
8	0x3c019d57	0.007911048
9	0xbdbeb020	-0.09310937
10	0xbe2b068b	-0.16701715
11	0xbbd951ff	-0.006632089
12	0x3bcf8b35	0.0063337334
13	0x3e594d7d	0.21220966
14	0x3dad0030	0.084473014
15	0xbe20b4c7	-0.15693961
16	0xbc4dfa92	-0.012571948
17	0xbe11856c	-0.14211053
18	0x3e463741	0.19357015
19	0x3e084976	0.13309273
20	0x3c917fb1	0.017761083
21	0xbd17606b	-0.036957186
22	0xbdbd46e0	-0.09242034
23	0x3e46c329	0.19410385
24	0x3d6a39ad	0.05718391
25	0xbedc77bb	-0.43060097
26	0x3e2ea70e	0.17055914
27	0xbc8e8381	-0.01739669
28	0x3e250680	0.16115761
29	0xbe31d0b9	-0.17364778
30	0xbe0f3f5d	-0.13989015
31	0xbe0b2873	-0.13589649
32	0xbf4d24de	-0.8013438
33	0x3cd75486	0.026285421
34	0x3dc1598a	0.09440906
35	0x3d6dde49	0.058073316
36	0xbd7e80bf	-0.0621345
37	0xbeda8572	-0.42679936
38	0x3eb1d2a0	0.34731007
39	0xbf5b4faa	-0.8566843
40	0xbe0754f8	-0.13216007
41	0xbd5f144a	-0.05446271
42	0xbe994e08	-0.29942346
43	0x3e8c0618	0.273484
44	0xbc0f4622	-0.008744748
45	0xbcd11812	-0.025524173
46	0xbd37bf31	-0.04486007
47	0x3e249bef	0.16075109
48	0x3de6adf8	0.11263651
49	0xbd9bdf8c	-0.076109976
50	0xbe07b431	-0.13252331
51	0x3ed98029	0.4248059
52	0xbde4f31d	-0.11179183
53	0x3e8ff1c4	0.2811414
54	0xbf9020e0	-1.1260033
55	0xbe222da2	-0.1583772
56	0x3e1b456e	0.15163204
57	0xbb9a4415	-0.004707823
58	0x3d813d6e	0.06310545
59	0x3db5662a	0.08857377
60	0xbe05fc5c	-0.13084549
61	0xbe76ab3e	-0.24088761
62	0xbd5881ce	-0.052858166
63	0x3da34cb5	0.07973615
64	0xbce457c8	-0.027873889
65	0xbeedab62	-0.46419817
66	0xbefb1d19	-0.49045637
67	0xbc8caca6	-0.017172169
68	0xbd228a2c	-0.039682552
69	0xbd6058b6	-0.0547721
70	0xbb52ce7e	-0.0032166536
71	0xbdf9384a	-0.121689394
72	0x3d982a95	0.07429997
73	0xbc59c926	-0.013292586
74	0xba04fd42	-0.0005073139
75	0x3da70248	0.08154732
76	0xbe638a45	-0.22220714
77	0xbe19760a	-0.14986435
78	0xbd65bbb1	-0.0560872
79	0x3e4b1ef8	0.19836032
80	0xbdd9d4da	-0.10636301
81	0xbe2cc478	-0.16871822
82	0xbe19e1e5	-0.15027578
83	0xbd517e78	-0.051146
84	0xbde8aa1c	-0.11360571
85	0x3c0b7f85	0.00851429
86	0x3e4eb374	0.20185643
87	0x3cdb4101	0.026764395
88	0x3ab8baf4	0.0014093802
89	0x3f211848	0.62927675
90	0xbda7bc28	-0.08190185
91	0x3e26abcf	0.16276477
92	0x3e2ba3d7	0.16761719
93	0xbe17f74f	-0.14840434
94	0xbe89da12	-0.26924187
95	0xbdbe1ed4	-0.09283224
96	0x3f4a0ad5	0.7892278
97	0xbe36d6f2	-0.17855433
98	0xbdec56d0	-0.11539996
99	0xbe96354f	-0.29337546
100	0x3f4f09b6	0.8087419
101	0x3f2ec07b	0.6826245
102	0xbdf2c263	-0.118534826
103	0x3f3ea4bf	0.7447013
104	0x3e58a1b5	0.21155436
105	0xbd5abcf1	-0.053402845
106	0x3e78ff63	0.24316172
107	0x3ba50a46	0.005036625
108	0xbe3b7ff5	-0.1831053
109	0x3dc25b19	0.09490032
110	0x3dd32c38	0.103111684
111	0x3cb9cab3	0.022679662
112	0xbe4255d8	-0.1897806
113	0x3d2f3ba9	0.042781506
114	0xbe24bd3f	-0.16087817
115	0xbd0724c6	-0.032994054
116	0x3bde77af	0.0067891697
117	0xbe909d82	-0.2824517
118	0x3f3787a1	0.7169133
119	0xbe313794	-0.17306358
120	0xbe25aff4	-0.16180402
121	0xbdff738f	-0.12473213
122	0x3c22a9d0	0.009928182
123	0xbd89c8d5	-0.06727759
124	0x3cd57297	0.026055617
125	0x3c26b06e	0.0101739
126	0xbd8e1a2b	-0.06938585
127	0x3dbd070b	0.09229859
128	0x3e192980	0.14957237
129	0x3f04c836	0.51868
130	0x3f2194d2	0.63117707
131	0x3c0a6f7f	0.008449434
132	0xbe49e7cf	-0.19717334
133	0x3d0d058c	0.034429118
134	0xbe147f5e	-0.14501712
135	0xbe4f0b9e	-0.20219275
136	0x3e8e098f	0.27741668
137	0x3da2291f	0.079179995
138	0x3d952c17	0.072838
139	0xbc268247	-0.0101628965
140	0xbd63f76b	-0.055655878
141	0xbe401532	-0.18758085
142	0xbe768a92	-0.24076298
143	0x3e2dcea8	0.16973364
144	0x3e646b40	0.22306538
145	0xbe1afd1f	-0.1513562
146	0xbe55d921	-0.2088361
147	0xbe26193e	-0.16220567
148	0x3c655db5	0.013999392
149	0xbcea4570	-0.028597564
150	0xbe8422c8	-0.25807786
151	0x3e7b0800	0.2451477
152	0x3d8e9ab9	0.06963105
153	0xbefe1677	-0.49626514
154	0xbe5cebda	-0.21574345
155	0x3df73436	0.12070505
156	0xbe19980a	-0.14999405
157	0xbe7a27b0	-0.24429202
158	0x3c9cdcbf	0.019148229
159	0xbdcd5920	-0.10026765
160	0xbed16395	-0.40896288
161	0x3ca3ec77	0.020010216
162	0x3e0afd97	0.135733
163	0x3e9446d9	0.28960302
164	0xbf20dca3	-0.62836665
165	0xbf265d7f	-0.64986414
166	0x3e88fe0d	0.26756325
167	0xbf4e4910	-0.80580235
168	0xbdd09829	-0.10185272
169	0x3c933f9c	0.017974667
170	0xbe863ddd	-0.26219073
171	0xbcebef84	-0.028800733
172	0x3e5e9544	0.21736628
173	0x3d45c00d	0.048278857
174	0xbcfc7bcf	-0.030820755
175	0x3e36a1c4	0.17835146
176	0xbdbaf824	-0.0912936
177	0x3db67251	0.08908523
178	0xbd4994e2	-0.04921425
179	0x3ec6b324	0.38808548
180	0x3d8c8dab	0.068629585
181	0xbd49ef77	-0.049300637
182	0xbf4cae73	-0.7995369
183	0xbdf27dd5	-0.11840407
184	0x3d8f9267	0.07010346
185	0xbeee98d7	-0.46600983
186	0x3bb4cf3f	0.0055178697
187	0x3e0a38a5	0.1349817
188	0xbd19ee25	-0.037580628
189	0xbebd1a8c	-0.36934316
190	0x3d922292	0.071355
191	0x3dd76925	0.105181016
192	0xbd11fa1f	-0.035638925
193	0xbe923f69	-0.28564003
194	0xbea13df5	-0.31492582
195	0x3df37614	0.11887756
196	0x3dcb75a8	0.099345505
197	0x3d923470	0.07138908
198	0x3d83151c	0.06400511
199	0x3e36b07e	0.17840764
200	0x3dcc1014	0.09964004
201	0xbde07a70	-0.10960853
202	0xbd6b9dd7	-0.057523575
203	0xbd1efcc7	-0.038815286
204	0xbe060c30	-0.13090587
205	0xbe8def41	-0.277216
206	0x3dd2d663	0.10294797
207	0x3de368c8	0.1110397
208	0xbe1fb3a7	-0.15595876
209	0x3d5a2e55	0.053266842
210	0x3df07922	0.11741854
211	0x3ca4aff8	0.02010344
212	0x3de53939	0.11192555
213	0xbd13f616	-0.036123358
214	0xbd35a2d7	-0.04434475
215	0x3d9970e2	0.07492234
216	0x3ca94532	0.020662878
217	0x3da83887	0.08213907
218	0xbe934259	-0.28761557
219	0xbd6310c3	-0.055435907
220	0x3da5b9ca	0.08092077
221	0xbdf9eac6	-0.122029826
222	0x3e5926ee	0.21206257
223	0xbe9d903a	-0.307741
224	0x3edf14db	0.435706
225	0xbe0cfe92	-0.13768986
226	0xbe818d38	-0.25303054
227	0xbdb95ced	-0.09050927
228	0xbdac52fc	-0.084142655
229	0xbd063ba5	-0.032771725
230	0x3d754434	0.059879497
231	0xbe99a1a9	-0.3000615
232	0x3e4d34f1	0.20039727
233	0x3d908ee4	0.07058504
234	0xbd9df1af	-0.07712113
235	0xbd2fb1d1	-0.04289419
236	0x3e7bf379	0.24604596
237	0xbe0b6fc7	-0.13616858
238	0x3d60dea6	0.054899834
239	0xbdc4768f	-0.09592926
240	0x3c17381f	0.009229689
241	0x3d813263	0.06308439
242	0xbdf51fd6	-0.11968963
243	0x3e13d036	0.14434895
244	0x3dbd3251	0.09238113
245	0xbd9bf061	-0.07614208
246	0x3e00373a	0.12521067
247	0x3e2f1931	0.17099454
248	0xbc3577cb	-0.011075924
249	0xbb82b9f0	-0.0039894506
250	0x3c16b5fd	0.009198663
251	0x3df6bf27	0.12048178
252	0x3d2ef496	0.042713724
253	0xbd2ce870	-0.042213857
254	0xbe5554ad	-0.20833082
255	0x3d957b11	0.07298864

fc1.weight f4 [512, 64]
0	0xbe7b4657	-0.24538551
1	0x3d7bf38f	0.061511572
2	0xbdcb6008	-0.09930426
3	0xbee98284	-0.45607388
4	0x3e01d2db	0.12678091
5	0x3e8a8210	0.27052355
6	0xbd9d8552	-0.076914445
7	0x3df5f194	0.12008968
8	0x3d04c8ca	0.03241805
9	0xbd973a80	-0.07384205
10	0xbe7586e4	-0.23977238
11	0xbcb56ec8	-0.022147551
12	0xbe81f526	-0.25382346
13	0xbdf78e1b	-0.12087651
14	0x3d45f0d5	0.04832538
15	0x3db8a722	0.09016253
16	0xbec52200	-0.38502502
17	0xbdb65fa2	-0.08904959
18	0x3eba8fd2	0.3643785
19	0x3deae0f5	0.114686884
20	0x3d8314ee	0.064004764
21	0x3d67a5a1	0.05655444
22	0xbe9e4a09	-0.3091586
23	0xbe63c076	-0.22241387
24	0xbe50f230	-0.20404887
25	0xbdec7fb5	-0.11547796
26	0x3c9451c1	0.01810539
27	0x3d2b3718	0.04180059
28	0x3d95a103	0.07306101
29	0x3e68cdc2	0.2273474
30	0xbe91cd9a	-0.28477174
31	0xbe712b9b	-0.2355179
32	0xbd07862f	-0.03308695
33	0x3d4f5e3d	0.050626982
34	0x3d269819	0.040672395
35	0x3ef3ad7b	0.47593293
36	0x3e96ba4a	0.29439002
37	0x3d08c51a	0.033391096
38	0xbbbdeb8a	-0.0057959007
39	0xbdd1c74b	-0.1024309
40	0xbe379eef	-0.17931722
41	0x3dff0eea	0.124540165
42	0xbda0dda8	-0.078547776
43	0x3e421651	0.18953826
44	0xbd1958a4	-0.03743805
45	0xbdea900a	-0.114532545
46	0xbebb58ad	-0.36591092
47	0xbe9d3976	-0.30707902
48	0x3ed033fa	0.40664655
49	0x3df87f98	0.121337116
50	0xbe275d2b	-0.16344135
51	0x3e479561	0.19490577
52	0xbe01583c	-0.12631315
53	0xbe90d534	-0.2828766
54	0xbe68277c	-0.22671312
55	0x3e83a5c1	0.25712398
56	0xbd723653	-0.05913384
57	0x3e560375	0.20899756
58	0xbc599376	-0.013279786
59	0x3d91ff5b	0.07128783
60	0x3e3f55fb	0.18685143
61	0x3d4456d7	0.04793438
62	0x3d89f65f	0.06736445
63	0xbe691651	-0.2276242
64	0xbd81cc39	-0.063377805
65	0x3d2c7cc1	0.042111162
66	0xbe9ec68a	-0.31010848
67	0x3d1a5f17	0.03768834
68	0x3e6d7353	0.23188524
69	0x3e4db15e	0.20087191
70	0xbe3499ad	-0.17636748
71	0x3d03de40	0.032194376
72	0xbef5ce60	-0.48009014
73	0xbd802729	-0.06257469
74	0xbdce35a0	-0.10068822
75	0x3ec5e918	0.386544
76	0xbe176be9	-0.14787258
77	0xbe3be7f2	-0.18350199
78	0x3de94a5e	0.113911375
79	0x3ed2b26b	0.41151747
80	0xbc62aa6f	-0.01383458
81	0xbe6a04fb	-0.22853462
82	0x3dc143d4	0.09436765
83	0x3e32b66d	0.17452402
84	0xbe928967	-0.28620455
85	0x3e631c6e	0.22178814
86	0xbe49b530	-0.19698024
87	0xbe9904e0	-0.29886532
88	0xbd84258a	-0.064524725
89	0x3e27b5d1	0.16377951
90	0xbe702cb1	-0.23454548
91	0xbe4adfdc	-0.19811958
92	0xbed1c1b0	-0.40968084
93	0x3efb1f4c	0.49047315
94	0xbc321765	-0.0108698355
95	0x3d548a48	0.051889688
96	0xbdf9e768	-0.1220234
97	0xbe556bf0	-0.20841956
98	0xbe5d870f	-0.21633552
99	0x3c891bd3	0.0167369
100	0xbd920bb3	-0.07131138
101	0xbce20ce0	-0.02759403
102	0xbd9d6840	-0.076859
103	0xbe8a59eb	-0.27021727
104	0xbedbee51	-0.42955258
105	0x3d006830	0.03134936
106	0xbecba6f2	-0.39775807
107	0xbdacab57	-0.08431118
108	0xbe227e24	-0.15868431
109	0x3db5f713	0.08885016
110	0x3db9a588	0.09064776
111	0xbf093e93	-0.53611106
112	0x3e0d704c	0.13812369
113	0xbd86c87b	-0.06581207
114	0xbea92957	-0.33039352
115	0xbc24be72	-0.010055171
116	0xbe3af34c	-0.18256873
117	0xbe40628c	-0.18787593
118	0xbe75816d	-0.23975153
119	0x3e7a08a8	0.24417365
120	0xbe18299f	-0.14859627
121	0x3dd85f9b	0.1056511
122	0x3e8525fb	0.2600554
123	0xbeaa35bc	-0.3324412
124	0xbe9e2275	-0.30885664
125	0x3ea68f52	0.3253122
126	0x3e64d149	0.22345461
127	0xbd6ed8c6	-0.0583122
128	0xbdbe043a	-0.0927815
129	0xbd1cff78	-0.03832957
130	0xbe14efc8	-0.14544594
131	0x3d1415bc	0.03615354
132	0xbb9f0204	-0.004852535
133	0x3b384153	0.0028115108
134	0x3cac4200	0.021027565
135	0x3d3f1e17	0.046659555
136	0x3dc2da49	0.09514291
137	0x3db44b96	0.088034794
138	0xbdf87972	-0.12132539
139	0xbcbf6257	-0.023362322
140	0x3d99b51b	0.07505246
141	0x3c4554c6	0.012044137
142	0x3d5ee5d7	0.05441841
143	0x3d8b2866	0.06794815
144	0xbce4deec	-0.027938329
145	0xbe05f943	-0.13083367
146	0x3dc54e58	0.096340835
147	0x3dff5cbb	0.12468859
148	0x3d9cc3ba	0.076545194
149	0x3da330d4	0.079682976
150	0xbc68aac3	-0.014200869
151	0xbe0be56d	-0.13661738
152	0x3d3102b2	0.04321546
153	0xbd74857a	-0.059697606
154	0xbe0eba48	-0.13938248
155	0x3c1c0781	0.009523273
156	0x3d020fb5	0.03175326
157	0x3cd08cb7	0.025457723
158	0xbcebaf68	-0.028770164
159	0x3de882bc	0.113530606
160	0xbdbcc43e	-0.09217118
161	0x3dc330db	0.09530803
162	0x3d0c3d31	0.034238044
163	0xbc4a7ff2	-0.012359606
164	0x3db05e43	0.08611729
165	0xbd42f709	-0.047598872
166	0xbc289b74	-0.010290969
167	0xbd4013b2	-0.046893783
168	0xbe145a4e	-0.14487574
169	0x3d8a88e5	0.06764392
170	0xbdaa622d	-0.08319507
171	0x3d945160	0.072420835
172	0xbdaf8bec	-0.0857161
173	0xbdde9908	-0.10869032
174	0x3d79b805	0.06096651
175	0xbdb4cfb5	-0.088286795
176	0xbda3689b	-0.07978936
177	0xbd815d22	-0.06316592
178	0xbd9308a9	-0.07179386
179	0x3d2a040c	0.041507766
180	0xbd706dce	-0.058698468
181	0x3db1957e	0.086710915
182	0xbd87cb46	-0.06630568
183	0x3b8c577d	0.0042828904
184	0xbc787eca	-0.015166948
185	0x3d2663b4	0.040622428
186	0x3cec7ee3	0.028869098
187	0xbd2b55cb	-0.041829865
188	0xbe11e417	-0.14247166
189	0xbd4c7873	-0.049919557
190	0xbcd5fff3	-0.026123023
191	0x3daee702	0.08540155
192	0xbc838bc0	-0.016057849
193	0xbd5d0ade	-0.053965442
194	0x3caa3ad7	0.02078001
195	0x3d1b5416	0.037921987
196	0x3e19e426	0.15028438
197	0x3d7e5265	0.062090296
198	0xbd7fecd2	-0.06248171
199	0xbd5a6622	-0.053320058
200	0xbcf079f2	-0.029355023
201	0x3ddcf2ca	0.10788496
202	0x3da7a6e5	0.081861295
203	0xbcdeb1e2	-0.02718443
204	0xbd94bc21	-0.07262445
205	0x3db11cd8	0.0864808
206	0x3de8ab2e	0.11360775
207	0x3cf08787	0.0293615
208	0xbd918e30	-0.07107198
209	0xbd81a691	-0.06330598
210	0x3e124627	0.14284573
211	0x3d4713a8	0.04860273
212	0xbd7f96f8	-0.062399834
213	0x3c87ac3a	0.016561616
214	0x3d2dfb66	0.04247608
215	0x3caeb03f	0.021324275
216	0xbc86a39f	-0.016435442
217	0x3db0ef92	0.086394444
218	0xbd4d95f0	-0.05019182
219	0xbdad2992	-0.084551945
220	0x3cf4d053	0.029884493
221	0x3e006212	0.12537411
222	0xbd83ddcd	-0.064387895
223	0xbdb051d4	-0.086093575
224	0xbd907355	-0.07053248
225	0x3e055aa8	0.13022864
226	0xbd6b1a71	-0.057398263
227	0xbe045851	-0.12924315
228	0xbd77a531	-0.060460273
229	0x3a382f00	0.00070260465
230	0x3c5dd5ad	0.013539714
231	0xbc5077c7	-0.01272387
232	0xbd158fab	-0.036513966
233	0x3cbb741a	0.02288251
234	0xbd57f6df	-0.05272567
235	0xbdc2a136	-0.09503405
236	0x3da69152	0.081331864
237	0xbd70b5cf	-0.058767136
238	0x3dc49173	0.09598055
239	0xbca7b1ab	-0.02047046
240	0x3dcd96f3	0.10038557
241	0x3cd5520c	0.0260401
242	0x3c23efd6	0.010005912
243	0xbdf71bdf	-0.12065863
244	0xbe095f49	-0.13415255
245	0xbd11e24d	-0.035616208
246	0xbdb8bb50	-0.09020102
247	0xbb42d3a6	-0.0029728203
248	0x3df646f7	0.12025254
249	0x3dae3d5c	0.08507797
250	0xbcc3fb45	-0.023923526
251	0xbca92db6	-0.02065168
252	0xbdc6fb61	-0.097159155
253	0xbd9bf85f	-0.076157324
254	0x3dab3c2d	0.08361087
255	0xbd93581e	-0.071945414

fc1.bias f4 [512]
0	0x3da9ec47	0.082970195
1	0x3d4bc3e0	0.049747348
2	0xbdbdf7fb	-0.09275814
3	0xbe129985	-0.14316376
4	0xbde9fafc	-0.114248246
5	0x3c8940b8	0.016754493
6	0xbb277341	-0.0025550874
7	0x3d6eeb71	0.058330003
8	0xbcfb88b3	-0.030704832
9	0x3d0fc3f8	0.035099
10	0x3dd1acad	0.102380134
11	0x39d6f996	0.00041003217
12	0xbd23d34a	-0.039996423
13	0x3d9f7c14	0.07787338
14	0xbdd6d27e	-0.10489367
15	0x3d64b01f	0.055832025
16	0x3d4a2299	0.0493494
17	0xbc6c5490	-0.014424458
18	0xbb979e30	-0.0046270117
19	0x3af02646	0.0018321953
20	0x3b9f9093	0.0048695295
21	0xbd8f0908	-0.069841444
22	0xbe1faad9	-0.15592517
23	0xbe0011d5	-0.12506802
24	0xbdcda1c6	-0.100406215
25	0xbb91b30b	-0.0044463924
26	0xbad7e581	-0.0016471596
27	0xbde3e4a6	-0.111275956
28	0xbd111e98	-0.035429567
29	0xbe2219d5	-0.15830167
30	0xbdf6d310	-0.12051976
31	0x3d6533ef	0.05595773
32	0x3cbebda5	0.023283789
33	0xbb55a30b	-0.0032598402
34	0xbcbbf9c5	-0.022946248
35	0x3e02b049	0.1276256
36	0xbde91da4	-0.113826066
37	0xbd0a514e	-0.033768944
38	0x3d8b984c	0.06816158
39	0xbdee3bc0	-0.1163249
40	0x3b9c602d	0.0047722072
41	0xbd5d688a	-0.054054774
42	0x3cff941b	0.031198552
43	0xbd9d4f78	-0.07681173
44	0xbcab3835	-0.020900825
45	0x3d335348	0.043780595
46	0xbcdebee5	-0.027190635
47	0x3d89c395	0.067267574
48	0xbddef010	-0.10885632
49	0xbc9aae6d	-0.018882
50	0x3d5646e4	0.0523137
51	0xbcfb56c9	-0.03068103
52	0x3db1b144	0.08676389
53	0x3c9e5068	0.01932545
54	0x3dcf8b2a	0.10133965
55	0x3d34c86d	0.044136453
56	0x3d988e17	0.074489765
57	0xbdd21366	-0.10257606
58	0x3d52015b	0.051270824
59	0x3b0c022a	0.0021363595
60	0xbd648766	-0.05579319
61	0x3cc49d09	0.024000661
62	0xbd038013	-0.032104563
63	0x3d3f22f4	0.046664193
64	0x3ce348f7	0.027744753
65	0xbd92d6b7	-0.0716986
66	0x3d3109e5	0.043222327
67	0x3d093d58	0.033505768
68	0xbd3dafae	-0.04631012
69	0x3e097fb8	0.13427627
70	0xbddc5682	-0.107586876
71	0xbdef0c41	-0.11672259
72	0xbcb3bc35	-0.02194033
73	0x3dddd24f	0.10831129
74	0x3b2e1c18	0.0026567038
75	0x3d2097c9	0.039207254
76	0x3d2b75b4	0.041860297
77	0xbdfcc198	-0.123416126
78	0xbe5b6939	-0.21426858
79	0x3d9879a4	0.07445076
80	0x3dc975d2	0.098369256
81	0xbdbdb328	-0.09262687
82	0xbd4f0fec	-0.050552294
83	0xbddb542c	-0.10709414
84	0xbc02c108	-0.007980593
85	0xbe3644d2	-0.1779969
86	0x3cfde0c9	0.030990975
87	0xbd380c55	-0.044933636
88	0xbddb875a	-0.10719176
89	0x3d0987a1	0.03357661
90	0xbc8ab705	-0.016932974
91	0x3d512c70	0.05106777
92	0xbd8e02b1	-0.06934107
93	0xbde44562	-0.11146046
94	0x3d86b83f	0.06578111
95	0x3c05a68b	0.008157383
96	0x3df9efa8	0.12203914
97	0x3d13e0c7	0.036103036
98	0xbe4388a6	-0.19095096
99	0xbdf6307a	-0.12020965
100	0xbd72b871	-0.05925793
101	0x3ba14acd	0.004922247
102	0xbc2ce4fd	-0.010552642
103	0x3e0b7eb3	0.1362255
104	0xbd85ecad	-0.06539283
105	0x3da04ed8	0.07827538
106	0x3d685cb0	0.05672902
107	0xbdcc8d29	-0.09987862
108	0x3d88b6d2	0.06675495
109	0x3d9cbc77	0.07653134
110	0x3dc93f49	0.09826524
111	0x3d2c4c26	0.04206481
112	0x3d6e6c64	0.058208838
113	0xbdc76176	-0.09735386
114	0xbd60885c	-0.054817542
115	0xbd8743a1	-0.06604696
116	0x3dad3637	0.08457606
117	0xbd3da4d7	-0.04629978
118	0x3e361016	0.17779574
119	0xbd9f23b4	-0.07770482
120	0xbc8087be	-0.015689727
121	0xbc37211c	-0.0111773275
122	0xbd9e231f	-0.077215426
123	0x3de197d3	0.11015286
124	0xbd6b3ed5	-0.05743297
125	0xbdc75210	-0.09732449
126	0x3ca614b5	0.020273546
127	0x3c310f7f	0.010806917
128	0xbe50949b	-0.20369188
129	0xbdc6c986	-0.09706406
130	0x3c889584	0.016672857
131	0xbe3f89de	-0.18704936
132	0x3c8b5400	0.017007828
133	0x3c723265	0.014782523
134	0x3ca97105	0.020683775
135	0xbc7a6c50	-0.015284613
136	0xbcd0e3d2	-0.025499258
137	0x3c9964af	0.018724767
138	0x3d6a328d	0.057177115
139	0xbdbffcf1	-0.093744166
140	0x3e128958	0.14310205
141	0x3d877cfc	0.06615636
142	0x3dcee7dd	0.10102818
143	0xbddcac44	-0.107750446
144	0x3d359d42	0.044339426
145	0xbd8c7629	-0.06858475
146	0xbd97b2bb	-0.07407137
147	0x3d309896	0.043114267
148	0x3c607a0d	0.013700974
149	0x3cc89b9a	0.02448826
150	0x3d8bf704	0.06834224
151	0x3dcd6ee0	0.10030913
152	0x3dc2cfdd	0.09512303
153	0xbd3d2e91	-0.046186987
154	0xbd51b742	-0.05120016
155	0x3d39a561	0.045323733
156	0xbe1de6b2	-0.15420035
157	0x3cb4ed2d	0.02208575
158	0x3dfc438a	0.123175696
159	0xbdf1dd32	-0.11809768
160	0x3d916e89	0.07101161
161	0x3d8135bd	0.06309078
162	0xbe31e52e	-0.17372581
163	0xbd4f582b	-0.050621193
164	0xbc86dad0	-0.01646176
165	0x3d8b2bf0	0.0679549
166	0x3d9a42d7	0.0753228
167	0x3d0e843b	0.034794074
168	0xbdffde6e	-0.12493597
169	0xbddaa351	-0.106756814
170	0x3d0d2af1	0.03446478
171	0xbdac81d3	-0.084231995
172	0xbcd0166b	-0.025401315
173	0xbe02dedf	-0.12780331
174	0xbda926a9	-0.08259327
175	0xbd10cf6e	-0.03535407
176	0x3ca3e7de	0.020008024
177	0x3d2d1706	0.042258285
178	0xbcb02f0f	-0.021506814
179	0xbde4db3d	-0.11174629
180	0xbde0d420	-0.1097796
181	0xbbbd55fb	-0.005778072
182	0x3d2cdbe9	0.04220191
183	0xbdd9d716	-0.106367275
184	0x3d1ac00d	0.03778081
185	0x3e1cc09a	0.15307847
186	0xbc9eaf62	-0.019370738
187	0x3d1ed6b9	0.038778994
188	0x3e02a8e6	0.12759742
189	0xbc93c72c	-0.018039308
190	0xbd843554	-0.06455484
191	0xbd4e8220	-0.050417066
192	0xbc898745	-0.016788134
193	0xbd828155	-0.063723244
194	0xbd9e39ba	-0.07725854
195	0x3babf97a	0.005248246
196	0xbdf7c15a	-0.12097426
197	0x3bfdae6c	0.00774174
198	0xbe182dee	-0.14861271
199	0xbdf7b4eb	-0.12095054
200	0x3cd8e567	0.026476575
201	0xbd76b154	-0.060227707
202	0x3ce7063e	0.028201219
203	0x3d3b5a74	0.04574056
204	0xbd4e4984	-0.05036308
205	0xbdc676e8	-0.09690648
206	0xbd9a9426	-0.07547788
207	0xbd89b749	-0.06724412
208	0xbe137aac	-0.14402264
209	0xbe0a5f0b	-0.13512819
210	0xbd1c1355	-0.038104374
211	0xbddf6f2a	-0.10909875
212	0xbc4ea8e9	-0.0126135135
213	0x3a7a7d47	0.0009555411
214	0x3d830be9	0.06398756
215	0x3d83572b	0.0641311
216	0xbbbf79da	-0.0058433833
217	0xbe0cb2c6	-0.13740072
218	0xbd7e2f20	-0.06205666
219	0x3d718022	0.058960088
220	0xbc235149	-0.00996811
221	0xbd9ba7a7	-0.076003365
222	0x3d6b2808	0.057411224
223	0x3d8d7ba6	0.0690835
224	0x3d7979e3	0.060907256
225	0x3c96a9f6	0.01839159
226	0xbb9ecc81	-0.004846156
227	0x3d41ff92	0.04736287
228	0x3e0fe5bd	0.14052482
229	0xbdff04e4	-0.12452105
230	0xbd8394bc	-0.06424853
231	0xbd190330	-0.037356555
232	0x3da2a152	0.07940926
233	0x3dd89e38	0.10577053
234	0xbdd2c212	-0.10290922
235	0x3d1cacb7	0.03825065
236	0xbe3b92d4	-0.18317729
237	0x3d05aa7b	0.032633286
238	0x3d245dbe	0.040128462
239	0xbd390115	-0.045167048
240	0x3d348c1b	0.044078927
241	0xbc78c47c	-0.015183564
242	0x3d96dc4f	0.07366239
243	0xbc4b157b	-0.012395258
244	0xbdcaa51f	-0.098947756
245	0x3e21698b	0.15762918
246	0xbdcf6506	-0.101266906
247	0x3e2c2c63	0.16813807
248	0xbdeba76d	-0.11506543
249	0x3c94825d	0.018128568
250	0x3d1f8a6a	0.03895036
251	0xbd703310	-0.058642447
252	0xbd5eca41	-0.054392103
253	0x3d34b855	0.044121105
254	0xbdc2e7a3	-0.095168374
255	0x3d052ef9	0.0325155

fc2.weight f4 [256, 512]
0	0xbe11b3dc	-0.14228767
1	0x3d52187d	0.051292885
2	0x3c6c85df	0.014436214
3	0x3cc4b092	0.024009977
4	0xb924b600	-0.00015708059
5	0xbdbd63e0	-0.09247565
6	0x3dca6b46	0.09883742
7	0x3db42c45	0.08797506
8	0x3d21d01e	0.039505117
9	0x3da12c2e	0.07869755
10	0xbe42d578	-0.19026744
11	0xbd961971	-0.07329071
12	0x3c4f9ae8	0.01267121
13	0xbc2c6aba	-0.0105234925
14	0x3b2e111b	0.0026560489
15	0xbe57f9e3	-0.21091418
16	0xbd708bb5	-0.058726985
17	0xbc5df210	-0.013546482
18	0xbeada827	-0.33917353
19	0x3de4e82c	0.11177096
20	0x3d89a6ba	0.06721254
21	0x3af101c0	0.0018387362
22	0x3d4e3547	0.050343778
23	0x3d610e0e	0.054945044
24	0xbcaf9902	-0.021435264
25	0xbe2779c6	-0.16355047
26	0xbd70d9b8	-0.058801383
27	0xbd6798c7	-0.056542184
28	0xbb1ec529	-0.0024226403
29	0x3d09ffec	0.03369133
30	0x3c38d90f	0.01128222
31	0x3cd16693	0.025561607
32	0x3c7c7f04	0.015411142
33	0xbd6cb0ca	-0.057785787
34	0xbe475268	-0.19465029
35	0xbd5aa233	-0.05337734
36	0x3d1b748b	0.03795294
37	0xbdfe752f	-0.12424695
38	0xbde45d3a	-0.11150594
39	0x3b2c4c30	0.0026290528
40	0xbb0e7060	-0.0021734461
41	0xbaf9f6a0	-0.0019070692
42	0xbe50a1bf	-0.20374201
43	0x3c4fa81c	0.012674358
44	0xbd80f674	-0.06297007
45	0xbe0a2cca	-0.13493648
46	0xbead9b65	-0.3390762
47	0xbd96bcaa	-0.073602036
48	0xbcf374b0	-0.029718727
49	0x3d84d8fb	0.06486698
50	0x3d6ba890	0.0575338
51	0x3c425745	0.011861627
52	0x3caf8845	0.021427283
53	0xbb4e215f	-0.0031452996
54	0xbcaeb5bf	-0.021326898
55	0x3dceef02	0.10104181
56	0xbadc819d	-0.0016823296
57	0x3d0f726f	0.03502124
58	0xbda36f2a	-0.07980187
59	0x3db6defb	0.08929249
60	0xbe1a824b	-0.15088765
61	0xbde8e363	-0.113714956
62	0x3ce3b9b1	0.027798505
63	0xbea6e175	-0.32593885
64	0xbdef8e11	-0.11697019
65	0xbc54c8be	-0.012987314
66	0xbe68b541	-0.22725393
67	0xbe33c2b5	-0.17554744
68	0xbddfaa13	-0.10921111
69	0xbdef85e7	-0.11695462
70	0xbc57536a	-0.013142446
71	0xbcfbb228	-0.0307246
72	0xbe551719	-0.20809592
73	0x3e54caa3	0.20780425
74	0xbef8b77c	-0.48577487
75	0xbe447804	-0.19186407
76	0xbd5b618e	-0.053559832
77	0x3c9bdf06	0.019027244
78	0x3d7b58ec	0.0613641
79	0xbe27b3e5	-0.16377218
80	0x3d46fe65	0.048582453
81	0xbda75dba	-0.08172174
82	0x3c0cd651	0.008596019
83	0xbd31aa73	-0.043375444
84	0xbcc08dfc	-0.023505203
85	0xbe1e4c78	-0.15458858
86	0x3bb1cc97	0.0054260003
87	0xbc71951e	-0.014745025
88	0xbb9127e8	-0.004429806
89	0xbe1991a7	-0.14996968
90	0xbc9be235	-0.019028762
91	0x3d409f63	0.047027003
92	0x3d31f27b	0.043444138
93	0xbc80981c	-0.015697531
94	0xbe2b36bd	-0.167201
95	0xbe908086	-0.28223056
96	0xbdc47e38	-0.09594387
97	0xbd8e04af	-0.06934487
98	0x3bca7612	0.006178626
99	0x3e1ababd	0.15110298
100	0xbb83e358	-0.004024904
101	0xbe43131d	-0.1905026
102	0xbd9921ad	-0.07477126
103	0x3b9a5d19	0.004710805
104	0x3db60869	0.08888323
105	0xbe56e2aa	-0.20984903
106	0x3d2efdb4	0.04272242
107	0xbd6c1f2f	-0.057646926
108	0xbd532f0a	-0.05155853
109	0x3c22bfaf	0.009933396
110	0x3e205c0f	0.15660118
111	0x3e1228b7	0.14273344
112	0xbe22f8cd	-0.15915222
113	0x3c92cd28	0.017920092
114	0xbcafefe2	-0.02147669
115	0x3d2d32a9	0.04228464
116	0x3db396f6	0.08769028
117	0xbd5ef8e9	-0.054436598
118	0xbd32124d	-0.043474484
119	0x3c90f028	0.01769264
120	0xbdd98a22	-0.1062205
121	0xbea91d77	-0.33030292
122	0x3c7c3493	0.015393394
123	0xbdd31591	-0.10306848
124	0x3cb81fc8	0.022476092
125	0xbd090fad	-0.033462215
126	0xbd01b0e7	-0.031662848
127	0xbccae46e	-0.024767127
128	0xbc7dade3	-0.015483352
129	0xbc859cad	-0.01631006
130	0xbdec5dd1	-0.115413316
131	0xbc833178	-0.0160148
132	0x3d1c0045	0.038086195
133	0x3c1c3716	0.009534618
134	0xbc6aa4c1	-0.014321507
135	0xbdbe5e81	-0.09295369
136	0xbdd2aa87	-0.10286432
137	0x3c6d9b5b	0.014502372
138	0xbe9065b0	-0.2820258
139	0xb960b678	-0.0002143028
140	0xbcf102a0	-0.029420197
141	0xba9ea4d3	-0.0012103565
142	0x3c132520	0.008981019
143	0xbcbe08f8	-0.023197636
144	0xbd61f743	-0.055167448
145	0xbbeb98e9	-0.007189859
146	0x3e11af9b	0.14227144
147	0xbd70741d	-0.058704484
148	0x3d9bf410	0.076149106
149	0xbd727054	-0.059189156
150	0x3dfa2970	0.12214935
151	0xbce68604	-0.028140076
152	0xbba3a5ef	-0.004994146
153	0x3d558123	0.052125107
154	0x3c3a122e	0.011356873
155	0xbc751add	-0.014960018
156	0x3cd7e0fd	0.0263524
157	0x3d4cab81	0.049968246
158	0x3bb0c6e2	0.0053948024
159	0x3c7a4cfc	0.015277144
160	0xbdad5305	-0.084631
161	0xbe2a4f71	-0.16631867
162	0xbd775770	-0.06038612
163	0x3b764800	0.0037579536
164	0xbe77d4d5	-0.24202283
165	0x3d9d130f	0.07669651
166	0xbe42d821	-0.19027759
167	0xbdd7753b	-0.10520407
168	0x3d1b77cd	0.037956048
169	0x3d250686	0.040289424
170	0xbe934c25	-0.2876903
171	0x38efc431	0.000114329516
172	0x3dd62093	0.10455432
173	0xbca51b2f	-0.020154564
174	0xbd60ccbd	-0.054882754
175	0xbcf6b3b9	-0.030114995
176	0xbde8417a	-0.11340614
177	0xbe33ca97	-0.1755775
178	0xbd86a770	-0.06574905
179	0x3e94cc9f	0.29062364
180	0x3d16d73d	0.03682636
181	0xbea7152d	-0.32633343
182	0xbea02315	-0.31276765
183	0xbcd514b7	-0.026010854
184	0xbe4dae7d	-0.20086093
185	0xbe054604	-0.1301499
186	0xbdde8b6b	-0.108664356
187	0xbe4c8163	-0.19971232
188	0xbc6c8ecb	-0.014438341
189	0xbda6e633	-0.08149376
190	0xbcb18d93	-0.021673953
191	0x3c9dc01a	0.01925664
192	0xbe51eb31	-0.20499875
193	0xbd8cca82	-0.06874563
194	0xbc53b900	-0.012922525
195	0x3e1467d2	0.1449273
196	0x3ddd44d6	0.10804145
197	0xbbb410d2	-0.005495169
198	0x3c9a9de9	0.018874126
199	0xbd0d5bfa	-0.034511544
200	0xbdfd9b27	-0.123831086
201	0xbb873ce8	-0.0041271336
202	0xbe0da63e	-0.13832948
203	0xbd961d6b	-0.0732983
204	0xbc4eaf3e	-0.012615023
205	0x3cfeb4c1	0.03109205
206	0x3d8476d0	0.06467974
207	0xbe18e3f6	-0.1493071
208	0xbcba611d	-0.022751385
209	0xbc840cf4	-0.016119458
210	0xbe6297ac	-0.2212817
211	0x3d0d2a28	0.03446403
212	0xbc8285d6	-0.015932959
213	0xbdce702a	-0.10079987
214	0xbdb8e2d1	-0.09027637
215	0xbda7ac7f	-0.08187198
216	0xbd6168a2	-0.055031426
217	0x3c9c1dd8	0.0190572
218	0x3d042506	0.03226187
219	0xbe6a4e4f	-0.22881435
220	0xbdbf03cb	-0.09326895
221	0x3ce86be6	0.028371762
222	0xbe27107c	-0.16314882
223	0xbe03cdf8	-0.1287154
224	0xbd1fe90c	-0.03904061
225	0xbde8289d	-0.11335871
226	0xbcd5e064	-0.026107974
227	0xbe785fe7	-0.24255334
228	0x3d0467d5	0.032325584
229	0xbd0eeefa	-0.034895875
230	0xbba4f710	-0.005034335
231	0xbe7a8fe1	-0.24468948
232	0xbe5675d4	-0.20943385
233	0xbd98e1d2	-0.07464947
234	0x3d2ce36b	0.04220907
235	0xbe5fd04f	-0.21856807
236	0x3daa6598	0.08320159
237	0xbe3e06e4	-0.18557316
238	0xbdc15ce8	-0.094415486
239	0xbce22067	-0.027603341
240	0x3dbfe581	0.09369946
241	0xbb443e33	-0.00299443
242	0xbe0e58f9	-0.13901128
243	0xbe1f29de	-0.15543315
244	0x3d8604a7	0.06543856
245	0x3d3af0c3	0.045639765
246	0xbc86ffd3	-0.016479408
247	0xbe7b8c3f	-0.24565218
248	0xbce7f867	-0.02831669
249	0xbc6618ac	-0.014043968
250	0xbe4c5df7	-0.1995772
251	0xbcb31ec2	-0.021865252
252	0x3b9f53e8	0.0048622973
253	0xbdff4947	-0.124651484
254	0xbcb7a4cf	-0.022417454
255	0xbdf62a58	-0.12019795
