data/predictor/Ablation/5_201_TNetwork-F_2024-06-30_20-36-08.pt (torch, 272203 bytes, 14 tensors)

conv1.bias f4 [64]
00000000: 7226 f7bb 588d b53c 226f 493d 6ce4 513d
00000010: 99a4 823d 0000 0000 f3ce a3bc 80a9 cf3c
00000020: 0000 0000 2d82 493d 10d5 493d 68de e93c
00000030: f4c8 4dbb 8208 b63c 290f 5a39 68bb 193c
00000040: f83f 45bd 67f4 a43c 3e73 3c3b 7d9f 4f3c
00000050: bb85 0dbd b461 433c 6c3b a6bc 2db3 853c
00000060: 3004 433b 4995 aa3a da42 a2bc b61a 023c
00000070: 7e3f 613c 89ef 72bc 2bea 8d3d 1c61 803c
00000080: 1c92 1b3d cc5c a3bc 2dd2 483a 7886 32bd
00000090: cc1f 553c 83c5 083d 243c 383c 0000 0000
000000a0: 71c5 483b 5603 883b bfe8 56bc d009 943a
000000b0: 54ea 733c 1759 943d 8f78 a7bb 6e2b bcbc
000000c0: b569 663d 01b4 58bc d722 553d df09 9f3c
000000d0: f4f8 1cbd d6ef 6ebd b7fe dfbc 3716 a5bc
000000e0: 5765 0dbd dcb7 863d 4030 253d 6624 3ebd
000000f0: 765e 6f3d a44a 02bd 6627 26ba f878 43bd
-0.007542425 0.022162125 0.04917825 0.05124323 0.06379051 0.0 -0.019996142 0.025349379
0.0 0.04919641 0.049275458 0.028548434 -0.0031400295 0.022220854 0.00020795748 0.00938306
-0.04815671 0.020136071 0.0028755213 0.012672302 -0.034551363 0.01192515 -0.020292006 0.01632079
0.0029757135 0.0013014461 -0.019807268 0.007940939 0.013748048 -0.014827617 0.069294296 0.015671305
0.037981138 -0.01994171 0.0007660713 -0.04358527 0.013008069 0.033391487 0.011244807 0.0
0.0030635262 0.0041507883 -0.013117014 0.0011294428 0.014887411 0.07243555 -0.0051108073 -0.022969928
0.056253154 -0.01322651 0.05203518 0.019413887 -0.038323358 -0.058334194 -0.027343137 -0.020152194
-0.034520473 0.06578037 0.040329218 -0.04642143 0.058439694 -0.031809464 -0.0006338268 -0.047722787

conv1.lin.weight f4 [64, 4]
00000000: 096b 36bf e25c 2d3e 455e c8be a699 aebe
00000010: e982 033d 54b8 dcbd 00e3 a1b9 8d34 e43e
00000020: 1da9 8dbe 755f b83d f086 15be 8278 50bd
00000030: fbc6 60be 7b10 893e a498 8abe 4c3c e3ba
00000040: d589 c9bd cabd 90bd 95f1 95be 439c b13e
00000050: ce1f 93bd 1fa1 25be 35ae 96be 58c6 32be
00000060: b906 6a3e b89e 97be e6ad d9bd 16b8 713d
00000070: f610 76be 4f08 883e 6a98 09be 182b 7c3e
00000080: ceef 37be 154d 1ebe 86ef 42be 50a8 93bc
00000090: b757 c0be a16b e13d 435d fdbd 424b 45bd
000000a0: d66b 553e dee8 00bf 8727 94be 42f0 45bd
000000b0: 779e f43d 6709 58bd 64ad 913d 8f6b 03bf
000000c0: 3e1b 9d3e 9e85 1dbe b5e9 6abe 8021 5e3e
000000d0: 5896 8b3e 5cca a63d 43a1 5abe ad68 7f3e
000000e0: ed2f c6bd 109e 333d 4b00 aabe 66c8 673e
000000f0: d997 94be da5e fe3d 8416 423e 3263 a53e
00000100: a55b 3b3e 061d 1f3c 1940 1b3e c51c 6d3c
00000110: acb4 943e 4ecf 38be 1ce0 81bd 1df3 ed3d
00000120: 6b7c 053e a992 73be 07f8 083d 08c4 f7bb
00000130: 27c4 003e 1738 293e 0197 c1bd b3e7 dd3d
00000140: 750f b3be 4a3f 11be a456 9a3e 25f6 583d
00000150: 9df2 8cbe 2037 91be bcdf cebc bc69 833e
00000160: 1f2e 843e fd71 1fbe a79d 363e 2ce5 7f3e
00000170: 61b7 cbbe 4e02 8abe e8ed 1c3e 9a94 253e
00000180: 9159 493e a8c0 263e e416 38be 03c4 fb3c
00000190: a75c 763d 1b38 653d e5f3 5e3e 487d e4bd
000001a0: 47aa 8b3e 94be 803e ad8f 20be 0737 32be
000001b0: 2e2c 383e 3a14 8c3e ac07 93be 3871 f1b9
000001c0: 7c06 523d 0e0a 03bf 6585 23be 0644 8e3e
000001d0: a563 2ebe 3981 4c3e 4eea 2dbe 5e7d d5be
000001e0: 2767 88be 5809 89be 9bd6 a7be 5fef c23d
000001f0: 2aa2 58bb 474d 4f3d ffb8 8dbd a748 b53c
00000200: 80fc 1d3e e39c 9fbe 06b7 20be 9d9b 3fbe
00000210: 8ac9 8f3b c081 9e3c cd36 8bbe b784 e23b
00000220: d5c8 8bbd 086a 85be 0bee 973e 7785 0bbe
00000230: a44c 753e dfba c3bd 0f6d 243e 949b 0abe
00000240: 25fe 45bc 4b13 153e f541 c5be b0b8 093e
00000250: 19a8 02be 24dd 173e b43b e4bd 80c3 9dbd
00000260: 1c19 8fbe 0446 543e 10a7 55bd e56c f73d
00000270: b8a1 6ebd 7473 73bd d0b9 50bd 4065 86be
00000280: f1da a43d 743f babd 148d 3c3d ca74 483d
00000290: b6ee 793e eede 2e3d ce81 50be 7f9c f6be
000002a0: ce45 32be 5ef3 30be 4734 f8be 5e0e 323e
000002b0: 1898 79be cb42 fabe db03 913d e253 d6bd
000002c0: e0f9 1dba 3598 e0bc d273 a4be 8d1f 543e
000002d0: 1f7a e3be 675f 043e 6cd1 943d 80b0 00be
000002e0: 9630 8e3e 5ab2 c8bc 7e4d ba3d d425 7bbe
000002f0: 729f 6fbd 97f3 103d 4b37 6c3e 1cdb b5bd
00000300: db6b 403e c50b 9cbe 429a 5ebe 3fc5 13bf
00000310: 64a2 0c3d df18 14be 8bba 623e ac58 4ebe
00000320: fa40 66be c0d8 933e 6a86 4fbe 12a7 38be
00000330: 0d98 e83d 3951 cb3d 94a4 d13d 45f8 fbbe
00000340: 779d 98be c509 dc3d 2a91 523e 369c 393e
00000350: 412d a3be 2778 c13d 5c9d 7a3e 9b31 99be
00000360: e629 743e 9f3d 1bbc d349 3c3e 2eae 9dbe
00000370: 88bb 78be 3e93 52be b735 8a3e 6de8 70bd
00000380: d7cd 673e f52f 283e feaf 873e 35e1 22bf
00000390: d60e 9abe 1efe 573d 10c6 96be 2469 bfbe
000003a0: 8840 b33d e1d4 debe 6ce7 eabd b799 35be
000003b0: d0c4 f2bd c65f 673d d147 013e 4188 1cbe
000003c0: 490a e2be ef66 023e f548 14be b10a 6dbd
000003d0: 5064 bbbe 3f39 993e 6aaf ab3b 83c4 47be
000003e0: 8220 533e c495 c0bb 1814 0a3d 9ecd aebe
000003f0: cdff 5fbe ae0f 683e c542 623e ab23 18bd
-0.7125707 0.16929963 -0.39134422 -0.341016 0.032107268 -0.10777345 -0.0003087744 0.44571343
-0.27668086 0.09002582 -0.14602256 -0.050896175 -0.21950905 0.26770386 -0.2706958 -0.0017336695
-0.098407425 -0.070674494 -0.29285875 0.3468953 -0.07183801 -0.16174744 -0.29429784 -0.17458475
0.22854127 -0.2961328 -0.106288716 0.05901345 -0.24029908 0.2656884 -0.13437048 0.24625814
-0.17962572 -0.15459092 -0.19036683 -0.018024594 -0.3756692 0.11006857 -0.12371304 -0.048167475
0.20841917 -0.5035533 -0.28936407 -0.04832483 0.11944287 -0.05274334 0.0711315 -0.51335996
0.30684847 -0.15383002 -0.22940715 0.21692467 0.2726314 0.08144066 -0.21350579 0.24942274
-0.0967711 0.043851912 -0.3320335 0.2263504 -0.290221 0.12420435 0.18953902 0.32302243
0.18296678 0.00971151 0.1516117 0.014472191 0.29044092 -0.1804783 -0.063415736 0.11618636
0.13035743 -0.23786415 0.033439662 -0.0075612105 0.12574826 0.16525303 -0.0945263 0.10835209
-0.3497273 -0.14184299 0.30144227 0.052969117 -0.2752885 -0.2836237 -0.02525317 0.25666606
0.25816438 -0.15570827 0.17833577 0.24989766 -0.39788345 -0.26954883 0.15325129 0.16169968
0.19663073 0.1628443 -0.17977482 0.030733114 0.060146954 0.05596171 0.21772726 -0.11156708
0.2727835 0.251454 -0.15679808 -0.17403804 0.17985603 0.27359182 -0.2871679 -0.00046051457
0.051275715 -0.5118722 -0.15968855 0.27786273 -0.17030199 0.1997117 -0.16983911 -0.4169721
-0.266412 -0.2676494 -0.32780918 0.09518313 -0.0033055642 0.050610807 -0.06920051 0.02212937
0.15428352 -0.31174383 -0.15694818 -0.18711706 0.004388039 0.019348979 -0.27190247 0.0069127935
-0.06825415 -0.26057458 0.296738 -0.13625132 0.23955017 -0.09557127 0.16057228 -0.13535911
-0.012084519 0.14558141 -0.38526884 0.13449359 -0.12759437 0.14830452 -0.111442 -0.07703304
-0.27948844 0.20729834 -0.052161276 0.12081317 -0.058259696 -0.059436277 -0.050958455 -0.26249123
0.08049572 -0.09094134 0.04603298 0.048939504 0.24407467 0.04269307 -0.20362017 -0.48166272
-0.17409441 -0.17280337 -0.48477384 0.17388293 -0.24374425 -0.48879084 0.070808135 -0.10465218
-0.0006026309 -0.027416328 -0.32119614 0.2071516 -0.44429109 0.12927018 0.072665066 -0.1256733
0.27771443 -0.024499107 0.09096812 -0.24526149 -0.05850167 0.035388555 0.23067968 -0.088796824
0.18791144 -0.3047773 -0.21738532 -0.5772285 0.034334555 -0.14462613 0.22141473 -0.20151013
-0.22485724 0.28876305 -0.20266119 -0.18032482 0.113571264 0.09927601 0.10236469 -0.49212852
-0.29807636 0.10744051 0.20563188 0.18125996 -0.31870463 0.09446745 0.2447409 -0.29920658
0.23844108 -0.009475141 0.18387537 -0.3079695 -0.24290287 -0.20563981 0.26994106 -0.05881541
0.22637115 0.16424544 0.2650146 -0.6362489 -0.30089444 0.05273258 -0.29447985 -0.37384903
0.08752543 -0.4352179 -0.114699215 -0.17734419 -0.11853945 0.05648782 0.12625052 -0.15286352
-0.44148472 0.12734579 -0.14480956 -0.057871524 -0.3659997 0.29926488 0.005239417 -0.19508557
0.2061787 -0.0058772285 0.03371057 -0.34141248 -0.21874924 0.22662231 0.22095783 -0.03714339

conv2.bias f4 [64]
00000000: 4028 4abd 8417 e33b 1bc5 3c3c c42b 18bd
00000010: 8fef 133d 80bc 4d3d c50b 2bbd c933 c0bd
00000020: 627f 3f3d 9898 49bd df6a bcbc c1e6 48bd
00000030: 2ae3 acbb 3b01 1dbb 6a96 af3c 4f01 cb3c
00000040: dde8 ffbc 7f6c e03c 6892 57bc 0bf4 9dbb
00000050: 0000 0000 8c11 bc3b 77d9 8bbc fefc 90bb
00000060: e40d 80bc 132e 8eba 8977 87bd 53d0 a1bc
00000070: 579c aa3a a4f0 95bc 5604 f3bb 4135 8dbc
00000080: 61ee dcbc c534 a6bc ce43 6cbc 923c 0eba
00000090: 385e 113d 0496 ddbb 8c8a 5abd 786f a8bc
000000a0: fe5c d73b 6cba 423d 0000 0000 f18f 15bc
000000b0: e17f 453d 5f0e 9d3c b0a3 9c3a 87e6 e0bb
000000c0: a682 0c3c cdd5 843c c142 8e3c 6629 0abc
000000d0: c3c8 f03b 03e8 453d 4c16 53bc 9849 bdbc
000000e0: 1abe 2d3c fda5 51bd 1f11 1739 2db4 9dbc
000000f0: 5e6f 18bd 11aa 273d 9e01 77bc e4bd 39bd
-0.04935479 0.0069302935 0.011521603 -0.037151113 0.036117133 0.050228596 -0.04175927 -0.09384877
0.04675234 -0.04921779 -0.023000179 -0.04904819 -0.0052761035 -0.0023957032 0.021434028 0.024780897
-0.031238968 0.027395485 -0.013157465 -0.004820352 0.0 0.0057393964 -0.017071469 -0.0044246903
-0.015631624 -0.0010847471 -0.066145964 -0.019752657 0.0013016564 -0.018303223 -0.0074162884 -0.017237308
-0.026969137 -0.020288834 -0.014420463 -0.0005425896 0.035490245 -0.006762268 -0.053354785 -0.020560965
0.006572365 0.047541067 0.0 -0.009128557 0.048217658 0.019171892 0.0011950638 -0.0068634185
0.008576071 0.01621523 0.017365815 -0.008432722 0.0073481514 0.048316967 -0.012883734 -0.023106381
0.010604406 -0.05118369 0.0001440686 -0.019250954 -0.037215583 0.040933672 -0.015076069 -0.04534711

conv2.lin.weight f4 [64, 64]
00000000: 38a6 8fbd b914 103e a397 9fbe ae64 593c
00000010: cb5a 063e 8a9f f1bd d0b1 323e df19 a73d
00000020: 9187 1b3e 4b8a 843d d64b 6e3d c9e9 143e
00000030: 5152 a23d e9a9 2abd 08b8 e93d 0737 6b3d
00000040: 143c 1a3e fcaa 02be 022e d0bd 6462 303e
00000050: 8740 043e 8ae3 8f3d b007 6e3d 99b6 803d
00000060: 4233 52be 9a2a f93d 63de 29be 2824 47be
00000070: a26b 75bd 0b16 c7bd b9c6 6dbe 8cb0 70be
00000080: 4ab4 0abe dd32 c53c 6624 e43d 07fa 4abe
00000090: e6fe 4cbe e653 f33d 821c 45bd 1618 843d
000000a0: 7e8f b83c 4bd8 563e 9cd8 2cbe b3a3 f0bd
000000b0: 941f 6ebe 865d 8d3d 87c6 5cbd e542 5dbe
000000c0: 9019 993d 74b1 8c3d a239 7cbc 2af6 063e
000000d0: 9b19 37be 7da0 9dbd d88f b7bd 50c4 bebd
000000e0: 53a8 1e3e 76e1 82be 2bd7 1d3e c2b1 f13d
000000f0: 5b92 ecbd 65a2 c1bc 6c42 0f3e 266b ea3d
00000100: 95ae d1be a2d3 603e ee4b 883e 7b9a f53c
00000110: 74f0 b93d ea0e 0cbe c33e c73d 501b fa3d
00000120: 540c e4bd 7c85 723e 947e 9a3e 196a f13c
00000130: 752e 3c3e 6314 cebc 4327 c3bd f6fd 03be
00000140: bc29 f13d f008 14be cf62 473d 5ba1 2d3e
00000150: 8d90 5dbe 16b2 9ebd 7f1f 273d 3c1c 4bbe
00000160: b3d7 30be def0 5ebc 55e0 c4bd 5176 3f3e
00000170: 41b1 823e a56d 92be 7a3e f839 4ded babd
00000180: e7a5 683e de5c f83d b057 17bd c816 3bbd
00000190: 1e86 02bd 4c8a 4b3e 0447 183e 6cb3 53be
000001a0: 0e45 2fbe f58a e73d e7ab 34be 895f f4be
000001b0: 010b f23d d6e8 3c3e 8d89 b63b 5f28 6d3d
000001c0: a310 163e 49f2 0bbe a5a2 8a3e 8b5f cebd
000001d0: f687 233e 4f9e af3c 964f f0bc afa9 4bbd
000001e0: be84 6dbe 5d04 8abc df0f 833e 159b 99bd
000001f0: 2ce9 44bc 043c 46bd dd06 86be bbea 723e
00000200: db9b 6d3e 845a 0cbe f9ef 13be d8d8 27bd
00000210: 9942 103e 9ebf 2bbe b7e4 0fbe f2fe b3bc
00000220: 620a 9c3d 9804 92bb 2fad a13e 2ef4 c13d
00000230: 8592 6ebe a88c d33d 24df 553e 72b0 193e
00000240: c20f 21be 39b3 60be a883 89be 00aa f63c
00000250: fd59 14be 1ca7 003e 68da 74bd ab68 cdbc
00000260: c399 45be 9c63 46bc cb65 e23d d17b 2abe
00000270: c997 413e 2cad acbd 0acb 8f3e d1cd 063e
00000280: f2f5 18bf af48 aa3d 2f5e 7abe 46bd 22bd
00000290: cbff e8bd d262 d53d 0d15 973d 729c 963d
000002a0: a32b 0f3e 8ee0 703c adf9 84bd 364e 143e
000002b0: 4cb0 0d3e 87f7 813e 6432 543e aa22 293e
000002c0: d5b1 dbbe a05a dbbd 7434 88bc 4e02 debc
000002d0: cb33 b3bd 6f52 413e 1531 acbd 2372 323e
000002e0: 2fcf 303e 0d2e 8e3e 3864 8a3e 14a4 adbd
000002f0: c9bd e43d 8b40 b23d 3393 173d 40f7 1a3e
00000300: 88df b9bd 3597 c13c a239 28be 3001 abbe
00000310: b488 6ebd 3c1a 243d 126a 803e 6960 51be
00000320: 4056 273c 38d1 24be 6ca5 babe b5c2 b43d
00000330: 3b1a 1a3e 48ba d63d fe7a 18be c8e6 69be
00000340: 3498 233d 6036 ee3d d446 8abd 79c9 123e
00000350: d146 05be 9528 f93e 19d1 093e aa16 05be
00000360: 2aeb 19be 14d1 8d3d e60b 4ebd e2a8 e3ba
00000370: 5d84 a73e c014 72be 4eb3 0f3d d5b4 19be
00000380: 0c8b 903d 8a01 69bd 61e8 913c 4b2a 15be
00000390: beeb f3be fecf 5d3d ef76 bebe 8460 63bd
000003a0: dcce 93bc b851 9d3c c439 1c3c 86bf 103e
000003b0: 900c 013e 40e8 12be 19ca 37be 8856 db3d
000003c0: a2d2 f13d 9162 ab3d 0862 c4be a776 1d3e
000003d0: c563 4dbe a640 963e fba6 963d e308 903c
000003e0: a0a8 b93c c133 233e c0f7 a3be e463 3e3e
000003f0: 2520 d6be f777 8a3c c401 753e 0b7d 463c
-0.070141256 0.14070405 -0.31170377 0.013268633 0.13120572 -0.11798008 0.17450643 0.081592314
0.15188433 0.0647169 0.05817779 0.14542307 0.07925857 -0.041665945 0.11412054 0.057425525
0.1506198 -0.12760538 -0.10165025 0.17225033 0.1291524 0.070258215 0.0581128 0.06284828
-0.20527366 0.12166329 -0.1658874 -0.19447386 -0.0599171 -0.09721001 -0.23220338 -0.23504847
-0.13545337 0.024072105 0.11139755 -0.1982194 -0.20019111 0.11881237 -0.04812289 0.064499065
0.02252936 0.20980947 -0.16879505 -0.11749973 -0.23254234 0.06902604 -0.053900268 -0.2160755
0.07475579 0.06869784 -0.0153946 0.13179842 -0.17880861 -0.07696626 -0.08962983 -0.093147874
0.15493898 -0.25562638 0.15414111 0.11801483 -0.115513526 -0.023637006 0.13990182 0.11446218
-0.40953508 0.21955732 0.2662043 0.029980889 0.09079066 -0.13677564 0.09728768 0.12212241
-0.11135164 0.23683733 0.30174696 0.029469537 0.18377097 -0.025156206 -0.09528973 -0.12889847
0.11775538 -0.14456534 0.048678216 0.16956083 -0.21637173 -0.07748811 0.04080152 -0.1983499
-0.17269783 -0.013607232 -0.096131004 0.18697478 0.2552586 -0.28599277 0.00047348795 -0.09127293
0.22719537 0.12127088 -0.03694886 -0.045676023 -0.031866185 0.19876975 0.1487084 -0.20673913
-0.17116186 0.11305801 -0.176437 -0.47729138 0.11818505 0.18448195 0.0055705965 0.05789983
0.14654784 -0.13666643 0.27077213 -0.10076817 0.15969834 0.021437792 -0.029334825 -0.04972237
-0.23195168 -0.016847784 0.25598046 -0.07500283 -0.012018483 -0.04839708 -0.2617711 0.23722355
0.23203985 -0.13706404 -0.14447011 -0.040978283 0.14087905 -0.16772315 -0.14052092 -0.021972153
0.07619168 -0.004456114 0.3157744 0.09470402 -0.2329808 0.103295624 0.20885903 0.15008715
-0.15728667 -0.21943368 -0.26858258 0.03011036 -0.14487453 0.12563747 -0.0597786 -0.025074324
-0.19296937 -0.01210871 0.11054572 -0.16648795 0.18905558 -0.084314674 0.28084594 0.1316445
-0.5975028 0.083146445 -0.2444999 -0.039731286 -0.11376914 0.10419239 0.07377062 0.07354058
0.1398149 0.0147019755 -0.064929344 0.1448296 0.13836783 0.2538416 0.20722347 0.1651713
-0.42909113 -0.10710645 -0.016626574 -0.027100708 -0.08750113 0.18879102 -0.08407799 0.17426352
0.17266534 0.2776951 0.27029586 -0.08478561 0.11169011 0.08703717 0.037005614 0.15133381
-0.09075838 0.023631671 -0.16428235 -0.33399343 -0.05823584 0.04006408 0.25080925 -0.20446934
0.010213435 -0.16095436 -0.36454332 0.088262 0.15049069 0.10484749 -0.14890668 -0.22841942
0.039940074 0.11631465 -0.06751791 0.14334668 -0.13015296 0.48663774 0.1345867 -0.12996927
-0.15031114 0.06924644 -0.050304316 -0.0017369057 0.32718173 -0.23640728 0.035083108 -0.15010388
0.07057771 -0.056886233 0.017811002 -0.14566915 -0.47640795 0.054153435 -0.37200114 -0.055511966
-0.018042974 0.019204006 0.009535257 0.1413556 0.12602448 -0.14346409 -0.17948188 0.10709864
0.11807753 0.083684094 -0.38356042 0.15377294 -0.2005759 0.29346198 0.07356068 0.017582363
0.022663414 0.15937711 -0.32024956 0.18592793 -0.418214 0.016902907 0.23926455 0.0121147735

conv3.bias f4 [64]
00000000: 6d09 2cbd eeaa c6bc 7928 56bd bb78 94bc
00000010: 4740 4abd 13ac 753d 56e6 093d 1712 243d
00000020: 0146 843d a0e1 64bd 7332 3dbd b6ca 31bc
00000030: d7e6 abbc 24b3 253d 64b9 083d 0df4 5a3d
00000040: 3674 623c 066c 8abd 5dd8 ff3c 23e4 863c
00000050: 3dad 5f3d a305 5b3d 4b72 26bd fff2 42bd
00000060: b689 4c3d c35b 013d 4beb 95bd 5d25 18bd
00000070: 17b7 09bc 5652 513c 90a4 7b3d 9e34 40bd
00000080: b545 0abd 681e 153d eb4e 7dbd 9a88 61bd
00000090: df34 923d 9e50 c83c 867b 0c3d 3c95 8c3c
000000a0: dd30 78bd 4f72 503d 5f6b ec3b ee24 cfbc
000000b0: e479 1f3d 4a03 073d d8d2 d7bc b42f 623d
000000c0: 3a21 c73c eb42 b839 2fa1 343d 1ba4 393d
000000d0: 87e4 18bd 6dc6 e63b cb7f b03c 53b3 363d
000000e0: dad5 16bd 1bac 3abd 715f 8a3d 3550 fabc
000000f0: 73f8 fb3b 30ec 1abd 8e7c 8cbd bb20 85bd
-0.042001177 -0.024251428 -0.05228469 -0.018123975 -0.049377706 0.059978556 0.03366693 0.040056314
0.06458665 -0.055879235 -0.04619069 -0.010851553 -0.020984096 0.040454045 0.033379927 0.0534554
0.013821652 -0.06758885 0.0312311 0.016466206 0.054608572 0.053472172 -0.040636342 -0.04759502
0.04993602 0.03158165 -0.07320269 -0.037145007 -0.008405468 0.012775978 0.061436236 -0.04692518
-0.033757884 0.03640595 -0.06184284 -0.055061914 0.071389906 0.024452504 0.03429749 0.017161004
-0.060593475 0.050890263 0.007214948 -0.025286164 0.038934603 0.03296212 -0.026345655 0.055221274
0.024307836 0.00035145073 0.04409903 0.04532252 -0.037327316 0.007042697 0.021545311 0.04460461
-0.03682504 -0.04557429 0.06756485 -0.030555824 0.0076895296 -0.037822902 -0.068596944 -0.065003835

conv3.lin.weight f4 [64, 64]
00000000: c998 39bc 5183 5f3e 3896 a73d e985 453e
00000010: dfe4 f8bc 6870 2fbe 58ce 573e 5761 fa3d
00000020: 00bc 01be 4574 a23d 3636 36be e61c c9be
00000030: 0b57 ac3e 07d9 a03e d075 cc3c 5993 6fbe
00000040: 8fd7 fdbb f03a ecbd a90d 35bd e9a0 94bd
00000050: 3d14 38be dd36 4f3e 3bd9 f23d 725e 0abc
00000060: 94fc da3d 799f 0c3e 73bc cebe a9d3 373e
00000070: bcd0 8ebe 77e0 49be 76d0 433e 377f 66bd
00000080: 680e 2cbe 4dd1 5b3e 22e2 693e 1492 223e
00000090: a1b4 4ebd b563 6abc 1802 4d3e 5d0b f9bb
000000a0: b399 2ebd eec6 003e cb63 003e 435c f9bd
000000b0: c520 45be cf8e 46be c58e a73d 6188 58be
000000c0: 8e1c 68bd 7ea1 8fbe 45a4 0dbe a1db 013e
000000d0: 2104 95bd 9b1c 923d 0293 893d 3e8c d9bd
000000e0: c25a 04be 4d9f 20be 3948 12be ea96 5e3d
000000f0: 96d8 143e 1d36 2a3d 0e26 6d3e 91ad 953d
00000100: b544 97bd dcc9 3dbe d000 053e 408f a03c
00000110: 337b fbbd 1d99 71bd 0dc2 34be d300 83be
00000120: 39a0 593e bc40 33be 3b25 c4bd 3530 25bd
00000130: 2bc2 d5bd b8ef f1bc d8f5 c1bd f1a9 0a3e
00000140: d81b c0bd a3cc ff3d 6259 f3bd 494a 293d
00000150: d75c 4fbe bdf4 c63d 4166 413e 6834 123d
00000160: f964 a53b 0ec2 a23d 4b87 01be 74dc d8bc
00000170: ad92 34be 574f 92bd 7ab2 3d3e ea1d 1f3e
00000180: db7c 17bc b4fa 283e 5778 17bd 5c7b 4abd
00000190: 431e 873c 98ac cdbd 1af2 413e 159f 10be
000001a0: d677 14bc 62c2 09be 40fa ac3b 9662 f5bd
000001b0: 60d1 22bd c575 433e 7486 e43d 021b 7a3d
000001c0: 79a3 e63d 082a 05be f1d6 6ebe 51d2 4e3d
000001d0: 1f77 da3d 700f 66be a539 3f3e 806e e83d
000001e0: 296f 443b fbc0 56be 0755 01bd a9a3 663e
000001f0: d4d5 edbd 3a9c 1dbd 3557 19be 4e53 113d
00000200: 3e64 5b3e 3d6e 63be da34 cabd f9b6 963d
00000210: 2609 243d 1276 0fbe d539 aebd 5bfe 053d
00000220: f252 48be 2191 a33d 3b44 11bd ce64 62be
00000230: 4f75 003d af9a 4e3c c38e 2bbe e90b 3c3d
00000240: 4a29 49be 2be2 f5bd e71b 4b3e 6429 193e
00000250: c71d 423e a603 c73d 0e30 5b3e 54e1 f33b
00000260: 02fe 163e d92d 27be bf95 35bd b606 583d
00000270: 3494 4f3d 2873 68bd 216b 17be a29b 013d
00000280: 0405 273e 4bfe cf3c a178 53be b217 4bbe
00000290: 9882 1bbe e59f 1e3d 82a6 bd3d d807 98bd
000002a0: c364 a0be 33f0 23be 1c83 01be 7565 c83c
000002b0: c79d b43c 2bed 85bd b5b4 a43c 27f6 49be
000002c0: 89ec e6bd 187a 35be e9db ecbd 4b3d e8bd
000002d0: 7811 993d 94f7 88be 951a 293e 3eaa 2c3d
000002e0: 92fa 3c3d 4a6c 18bd 401b 4fbe 2d7f 493e
000002f0: 60db 2c3e f253 0e3e 325f a83d 7222 23be
00000300: d30a 1d3d dfbf 6dbe d121 babd 21d0 1fbd
00000310: 6ebe a5bd 2fcf 35be 4d6a 1fbe 38fa 42be
00000320: 25b9 38be aac1 563d b64b de3d e62a c5bd
00000330: 284c e5be 517d 7fbc 1e50 71bd 248d 7a3e
00000340: e7a2 553e dd59 973d 1836 bfbc e205 523e
00000350: 66e5 06be c442 59be 60b4 d4bb 2d7f 5dbe
00000360: ce6c 503e 0fa7 c9bd 3333 13be 40ce 4ebc
00000370: 97ab 543e 3293 6a3d d183 3fbd b10f 933d
00000380: d00c 923d cfd0 f0bd b63d c83c 96ff 77bc
00000390: d1a5 a5be 7b91 8fbd 24d6 0e3e ad70 73be
000003a0: 3e70 b0bd 701f 993d c99b c9bd 27b4 09be
000003b0: e7b3 68be 0585 28bc 7831 3b3e c355 b43d
000003c0: 7dd8 47be 69fd b9bd 95d1 073e d71c d3bd
000003d0: 5780 6c3d 6a14 22be 3757 463e 71ab aa3d
000003e0: 9d4f 77be 0558 ef3d 2ebe 6ebe e69f ce3d
000003f0: e8fa c43c 70a7 b63d cbdb d73d 91e7 c4bd
-0.011327931 0.21827437 0.08182949 0.19289364 -0.030382572 -0.17132723 0.21074808 0.12225597
-0.12669373 0.07932333 -0.17794117 -0.3927986 0.3366016 0.3141558 0.024958521 -0.23396052
-0.007746644 -0.11534679 -0.04420248 -0.07257254 -0.1797647 0.20235772 0.1185784 -0.008445369
0.10692707 0.13732709 -0.4037815 0.17951836 -0.27893627 -0.19714533 0.1912249 -0.056273665
-0.1680237 0.2146656 0.22840169 0.15876037 -0.05046523 -0.014305999 0.2002033 -0.0076002316
-0.042627048 0.12575886 0.12538068 -0.12175801 -0.19250782 -0.19390415 0.08181528 -0.21145774
-0.056667857 -0.28052896 -0.13832195 0.12681438 -0.07276178 0.07134362 0.06717493 -0.10622452
-0.12925246 -0.15685768 -0.14285363 0.05434314 0.14535746 0.041555513 0.23159048 0.07308496
-0.07386152 -0.18534034 0.12988591 0.019599557 -0.12279358 -0.05898391 -0.1765215 -0.25586566
0.21252526 -0.17505163 -0.09577414 -0.040329177 -0.10437425 -0.029533252 -0.09470719 0.1354139
-0.09380311 0.12490203 -0.11882283 0.04133061 -0.2025026 0.09714649 0.18886663 0.03569451
0.0050474373 0.07947169 -0.12649266 -0.026472308 -0.17634077 -0.07144039 0.18525115 0.15538755
-0.009246076 0.16501886 -0.03698 -0.04943405 0.016493922 -0.10042685 0.1894001 -0.14123185
-0.009061774 -0.13453057 0.0052788556 -0.119816944 -0.039750457 0.19087894 0.111584574 0.061060913
0.11261649 -0.13004315 -0.23324181 0.050493542 0.10667252 -0.22466826 0.18674333 0.11349201
0.0029973483 -0.20972054 -0.03157523 0.22523369 -0.1161305 -0.038479067 -0.14974673 0.035479836
0.21424958 -0.22210021 -0.09873362 0.07359118 0.040047787 -0.14009884 -0.08507124 0.032713275
-0.19562891 0.079866655 -0.03546546 -0.22108766 0.031361874 0.012610122 -0.16753678 0.045909796
-0.19644657 -0.12006029 0.19834863 0.14957196 0.18956672 0.09717493 0.2140505 0.0074426327
0.14745334 -0.16326083 -0.044332262 0.052740775 0.050678447 -0.056750447 -0.1478696 0.031642564
0.16310507 0.025389811 -0.20651485 -0.19833258 -0.15186536 0.038726706 0.092602745 -0.07423371
-0.31326875 -0.16009597 -0.1264767 0.024462441 0.02204789 -0.06539377 0.0201057 -0.19722806
-0.11275584 -0.17722356 -0.11565382 -0.11339816 0.07474035 -0.26751387 0.16514046 0.042154543
0.0461374 -0.037212647 -0.20225239 0.1967742 0.1688056 0.1389921 0.08221282 -0.15931109
0.0383404 -0.23217724 -0.09088481 -0.039016847 -0.08092962 -0.17754816 -0.15567894 -0.19040763
-0.18039377 0.052430786 0.108542845 -0.09627323 -0.44784665 -0.015593843 -0.058914296 0.24467903
0.20862924 0.07390187 -0.023341224 0.20510057 -0.13173446 -0.21216875 -0.006491229 -0.21630545
0.20354006 -0.09846317 -0.14375 -0.012622416 0.20768581 0.057269283 -0.04675657 0.07180727
0.0713135 -0.11758577 0.024443489 -0.01513662 -0.3235307 -0.0701017 0.13948876 -0.23773451
-0.086151585 0.07476699 -0.09844167 -0.13447629 -0.22724877 -0.010285621 0.1828059 0.0880542
-0.19516177 -0.09081537 0.13263543 -0.10308235 0.057739582 -0.158281 0.19369207 0.08333481
-0.24151464 0.1168671 -0.23314735 0.10089092 0.024045423 0.08918655 0.10539969 -0.0961448

fc1.weight f4 [256, 64]
00000000: f7e8 50be da9c c7bd 7be6 b0bd dc92 ed3d
00000010: 1c20 283c cf4f e33c b4d1 e63d 81a4 0d3d
00000020: f8d1 efbd 2c94 993c 7eda 7d3d d35a b73d
00000030: ee9e 153e 2b25 b23d ae71 14be 8814 4c3d
00000040: 8872 82be c9dd 4b3c 2dd5 ae3d e475 e1bd
00000050: 6247 6c3d 94f3 7d3d 35d8 f1bd c02f d7bc
00000060: c9fa a7bd 8611 8c3e f178 9d3c e0e1 5cbd
00000070: c0c4 85bb ebce 1c3e bb51 e53b 9d77 8e3b
00000080: 1e69 12be 719c 69bd fd7e a8bc 463f 153e
00000090: d0c8 8abd 532f 45be 9306 533d ab85 223c
000000a0: 2487 39be 2bf2 0a3e f13c b73a c185 4abe
000000b0: 0cf9 4ebe 21c8 26bd 4b6b 7abd d5fe 1a3d
000000c0: d8ca 7d3e 978e 2cbc 8514 9c3d d144 dbbd
000000d0: 9809 aa3e 43f8 7fbd 8db1 b7be c3ab d1bc
000000e0: dc2f dcbc 4627 e5bd fc27 62bd 8001 5a3e
000000f0: c0c3 ef3d 2928 89bd 2d19 aa3d f05a 2cbe
00000100: 494b ae3d 2718 313e 9b24 373e 8cbe c6bd
00000110: ead1 61bd ec8a fdbd 6b13 d2bd e012 ca3d
00000120: db19 b5bd 9841 a83c 18b6 193e e3bd e63c
00000130: ad6b d53d 981c 0a3e b279 c63d 8a84 c6bd
00000140: 42db 313e c8b6 8e3d 83cb 1c3d f9b6 06be
00000150: 6166 65be 54af 14be e5f3 093e f44c 5fbd
00000160: e4c6 21be e1a9 efbd cd24 653d c5e1 8bbb
00000170: 38a7 8b3d 394c 99bd 71fd 35bd 2c18 32bd
00000180: d69a 983e 173b da3d 8815 ec3d e2b4 0c3e
00000190: f30f 76bd 0410 b93d 6c9a 2bbe a04c abbd
000001a0: d2d7 f63d 306b b1bd b908 553d ff9c e73d
000001b0: 19ee 013e 6fff e9bd 701d b8bd 0ef2 d63d
000001c0: 44d3 1bbd e3aa 19bb 899f c4bd 5f99 a53d
000001d0: 9f40 e3bc f9a3 eabd 836e 673d 986a 50bd
000001e0: a169 073d 2749 143e 4f1e cfbd f601 033d
000001f0: c74c aa3d 6923 893d 0694 573d c1de 553e
00000200: 59cc cd3d 1cfb c73d ba92 a63d d0e3 05bc
00000210: dfb9 cbbd 5aa9 05be d2f5 32bd 4005 7f3d
00000220: 4c0a 21be b286 fe3d 7660 b63a cbc5 c43d
00000230: 07a8 e0bc b8be debc 7192 2b3d 8f92 e23d
00000240: 0b4a bd3d 789e 083e 09c5 263d 5f92 ad3b
00000250: f2af a2bd 0ceb 8dbd 7503 5b3e 70e5 b4bc
00000260: 477e 48be f1d7 07be bff0 25bd c87c 1cbd
00000270: 2507 ce3d ff38 45be 8878 d3bd 3e51 fc3d
00000280: a97a 8c3e daaf 043d ffee b0bd 2adb 233e
00000290: a212 18be de55 cdbc b649 f2bc a077 063e
000002a0: 0d0e cc3d 51e9 21be dd4d 1ebc 2134 d53d
000002b0: a8bc eb3d 27cb edbd 83f6 fc3d c48b f0bc
000002c0: 1bf8 9bbc bfa3 583c cbc6 81bd 5702 1dbd
000002d0: 9d0c e53c 49cc 8b3d 5944 fa3c 0ad7 273d
000002e0: 19b1 a1bd e335 493d 4e59 fdbc c86b 443e
000002f0: f513 4e3d 0ce5 bebc b4ab 193d 50a5 103e
00000300: a66b eebd de55 a03e ef10 613d 1621 f5bc
00000310: 68c6 97bd 30d4 bcbc ec88 423e 14cc dc3d
00000320: 1292 433d 891e 81bd 38cb 2a3d dc29 d23d
00000330: 2c0e f73d 1b68 59bd 420d cc3c eee1 043d
00000340: a743 183e a316 f8bc 9021 89bd 239a d9bc
00000350: edfe b53d b940 2bbe a683 dabc 3f2b c6bd
00000360: c080 203d 7a12 cb3d ef49 32be 840a 03be
00000370: cd52 a63e 916d 50be 9ae3 48be d55a 7dbd
00000380: 89f6 f23c 8fd7 a0bd 23bb 09be e588 bc3d
00000390: e71b a83d 2187 e53d e5e0 1fbe 9fe8 46be
000003a0: 0f5d 8ebd e8b3 213e e1fd b03d bfa1 5f3e
000003b0: 00bf 293e 4db9 71bc 943f b7bc 83f8 233d
000003c0: 1299 a6bd cb5e a1be 96e8 2ebe 0d0c 19bd
000003d0: ed6b fa3d cedb 8b3d 2af2 f0bc 085b 293b
000003e0: cd82 8ebc 3cdc 97bd ea3d a1bd 4741 0a3e
000003f0: 7578 3d3d 1f07 84be 2b51 45be ed32 003e
-0.20401369 -0.09746714 -0.08637711 0.11600277 0.010261562 0.027748017 0.112704664 0.03458071
-0.1170997 0.018747412 0.06197595 0.0895287 0.14611408 0.086984955 -0.1449649 0.049824268
-0.25478005 0.012443014 0.08536754 -0.11008814 0.057685263 0.061999872 -0.11808816 -0.026267886
-0.0820213 0.2735712 0.019222708 -0.05392635 -0.0040822923 0.15313308 0.0069982684 0.004347755
-0.14297912 -0.05703396 -0.020568365 0.14574918 -0.06776583 -0.19256334 0.05151994 0.009919564
-0.18117958 0.13568942 0.0013979954 -0.19777586 -0.20212191 -0.0407182 -0.06113748 0.037840683
0.2478441 -0.010532043 0.07621101 -0.10706485 0.33210444 -0.06249262 -0.35877648 -0.025594598
-0.02687829 -0.111891314 -0.055213913 0.21289635 0.11707258 -0.06697113 0.08305583 -0.16831565
0.08510453 0.1729437 0.17885058 -0.09704313 -0.05513183 -0.12380013 -0.1025761 0.09866881
-0.08842822 0.02053909 0.1501087 0.028166717 0.10420928 0.1348747 0.0969118 -0.096932486
0.17368796 0.069684565 0.03828002 -0.13155736 -0.22402336 -0.14520007 0.13471945 -0.054516748
-0.15798527 -0.11702324 0.0559433 -0.004268857 0.06819004 -0.074852414 -0.044431154 -0.043480083
0.2980563 0.10655802 0.11527544 0.13740876 -0.060073804 0.09036258 -0.16758126 -0.083642244
0.12052883 -0.086630225 0.05201027 0.113092415 0.12688483 -0.11425673 -0.0898999 0.10495387
-0.038043275 -0.0023447804 -0.096007414 0.08085894 -0.027740775 -0.114570566 0.056501877 -0.050882906
0.03305972 0.1448103 -0.10113203 0.031984292 0.08315425 0.06696207 0.0526314 0.20885755
0.10048742 0.09764692 0.081334546 -0.0081719905 -0.099475615 -0.13052884 -0.043691464 0.062260866
-0.15726584 0.12428035 0.0013914246 0.096080385 -0.027423872 -0.027190551 0.041887704 0.1106311
0.09242638 0.13341701 0.04071525 0.00529699 -0.07943715 -0.06929597 0.21388038 -0.02208206
-0.19579421 -0.13265969 -0.040512796 -0.03820494 0.100599565 -0.19260024 -0.10325724 0.12320183
0.27437332 0.032394268 -0.08639335 0.16001573 -0.14850858 -0.025065359 -0.029576164 0.13131571
0.099636175 -0.1581166 -0.009662119 0.104103334 0.11510593 -0.11611014 0.12351706 -0.02936352
-0.019039204 0.013222634 -0.06336745 -0.03833231 0.027960116 0.06826074 0.030550169 0.04097656
-0.07895107 0.049123656 -0.030926373 0.1918174 0.050312 -0.023302577 0.037517264 0.14125562
-0.11641626 0.3131551 0.05494779 -0.029923003 -0.0741089 -0.023050398 0.18997544 0.10781112
0.047746725 -0.06304652 0.04169771 0.1026189 0.1206325 -0.0530778 0.024908666 0.032442026
0.14869557 -0.030284232 -0.06695855 -0.026562756 0.08886514 -0.16723908 -0.026674103 -0.09676217
0.039185286 0.099156335 -0.17411016 -0.1279698 0.32485047 -0.20354296 -0.19618073 -0.061854202
0.029658573 -0.078536145 -0.13450293 0.09205798 0.08208447 0.112074144 -0.15613134 -0.19424675
-0.06951343 0.15791285 0.086421736 0.21839045 0.16576767 -0.014753652 -0.022369184 0.04003192
-0.081346646 -0.31517634 -0.17080912 -0.03736501 0.122276165 0.06829034 -0.029412348 0.0025841612
-0.017396355 -0.07415053 -0.07873137 0.13501464 0.046257455 -0.25786683 -0.19269244 0.12519427

fc1.bias f4 [256]
00000000: 1627 1b3e 06eb f53d 8946 df3d ed61 ce3d
00000010: 06b3 a83c 30d9 b03c 2c2c c3bd 0055 e0bd
00000020: b8ab 993d 6efa 1c3d bb38 883c daf7 c03d
00000030: 1ba2 333d c48c d0bd 56e0 b6bd fe1b b1bd
00000040: 5084 ce3c 9713 d93d 466c 993d a291 df3d
00000050: 1d04 033e a069 073d da61 433d 4cf6 c3bd
00000060: 8020 2abd 568a ffbd ce1a 623a c899 593d
00000070: 41ef b43d 457a 84bd be93 3e3d 24f0 333e
00000080: a997 c23d d7f3 213d 3985 143e 2f7b 313d
00000090: 145f 413d bf0c 42bd 6d22 ea3b af05 d0bd
000000a0: 6e24 bd3d c8c4 81bc 026e 82bd e18d 91bc
000000b0: cadd e0bd dc8c b9bd 7f7d 083e 146e c83c
000000c0: 131e 4dbd b4d2 0b3e 17f7 d7bd 51d8 1a3e
000000d0: 37a4 013e f2d1 3b3e 1ad3 e63d 402a cdbd
000000e0: aab7 6f3c e8d9 c63d c1f3 a63d 6953 573a
000000f0: 80cb 87bd 1ba9 ab3d e1fb 09be 20f8 ed3d
00000100: 9304 683d d3b8 09be 7103 1a3d 3436 bd3d
00000110: 61d3 213e eab1 1e3e 0b1a bcbd 14b7 87bd
00000120: d1fa ce3d 5fb1 fcbd 3cae bb3d e7df 5f3b
00000130: a116 493e 1321 3ebe 900b b7bd 5a69 01be
00000140: a0a3 af3d 2d95 2b3c d0b9 213d 3652 8ebc
00000150: 1751 77bc a88d 0d3e aaee 383e 8549 d83c
00000160: f145 98bc 7e40 e83d 58ff 2a3d 84dc f0bd
00000170: b4b3 923d 2be1 303e f2c4 ea3d 3b61 abbd
00000180: 4dff b4bd f8b3 07be 16f4 3c3e 22ca 97bd
00000190: 58ba 263d ab41 71bc 9fd2 bebb f012 203e
000001a0: 483d 1e3e 803a ef3d 50ca 633d 8497 07be
000001b0: 1724 bc3d 56a1 7d3d c4b1 013e 6584 3cbd
000001c0: 08e8 f9bd 2744 593d ac3f dbbc fd1c 63bd
000001d0: a779 d6bc 00a6 27be 7247 353e 1bfc 273d
000001e0: 9fcf 313d a59b 2dbd c821 e93d b403 31bc
000001f0: 9c3c c33d fa69 f23c fb80 cf3d f08b e1bd
00000200: f86c 4a3d e697 fd3d 816c b9bd a81b d73d
00000210: e4b7 123e 91d8 9c3b 9e13 22bd 34f6 01be
00000220: 1ff4 563c 23bd 6dbc 4c72 e93c 765e e0bd
00000230: 6c29 173e 826d 173e c9f7 91bc c36c 29bd
00000240: 820c 433d d128 343d febe eb3d ca40 20bb
00000250: 8017 423d a30b f53d 1d1e 3d3d 824f c5bd
00000260: d7eb 143d 8627 e9bd bee9 34bc 6396 f13d
00000270: 0aa9 f13c b827 243d 6f3d 053e c868 83bb
00000280: 73fa a63d 9d3a bf3d a8a6 0d3e 06e8 a4bd
00000290: 60bd a0bd 444e 733d a4d1 0abe f590 da3c
000002a0: a936 523e 654c 773d 0e41 613e 4bbb 6a3c
000002b0: 9df6 0bbe 79df 183e a8a5 85bc c775 9b3d
000002c0: 9c0d 2abc b808 cebd 0bfb 383d 820b babd
000002d0: 2c0a b0bd de81 1d3d 2e4d 143e 26ed 473e
000002e0: 5428 84bd 2b04 a4bb 3da8 8f3c 5346 e93d
000002f0: a4d9 083e fbad 3b3d 0121 bbbd f85b 7e3d
00000300: 17df 79bd 8649 fe3d d12a ba3d b0b8 113e
00000310: 17bd ca3d cbc1 b33d 285a 013e 79be 293c
00000320: efb8 223e 4534 8a3d 13b8 b6ba 03e4 33bc
00000330: 5cfc 6f3d e72a c83d e227 883d e62d aabd
00000340: bead f53d 8eda 8c3d 1dcd 1abe 9b24 4abc
00000350: 4a40 0e3e ea86 103d ab85 143d 191b a63d
00000360: ef9a 233d 2396 613c c550 203d 7e1d 9ebd
00000370: 731b cb3d 399a 103e c5a5 e0bd 7422 f53c
00000380: 0e9a d13c f6e1 f23d 02bd e7bb 382e fa3d
00000390: a64f 72bd a62a c13d c336 283e e2da 153e
000003a0: 13c5 cf3d 4d27 1d3e ff4f c23d 6a0d 1bbd
000003b0: 0907 c83d c38c 1fbe 051d e63d 1e6b 593d
000003c0: fa67 67bd e90b bbbd 3892 e53d 5955 193e
000003d0: 0f75 113d bc71 b1bd c8cd 34be 98d7 37bd
000003e0: 9f19 383e 26da d83c 35f8 e63d 0af0 1e3d
000003f0: c6ce 70bb 0ee9 7a3c aacb 72bd fab1 e33c
0.15151629 0.12007718 0.109021254 0.100772716 0.020593178 0.021587938 -0.095299095 -0.109537125
0.07503456 0.038324766 0.016628614 0.09422274 0.043855768 -0.10183099 -0.089295074 -0.08647917
0.025209576 0.105994396 0.07491355 0.10916449 0.12794538 0.033059716 0.04770074 -0.09568462
-0.0415349 -0.12477557 0.000862521 0.053125173 0.088346966 -0.064686336 0.046527617 0.17572075
0.09501583 0.039539184 0.14503945 0.043330368 0.047209814 -0.047375437 0.007145217 -0.10157334
0.09235464 -0.015840903 -0.063686386 -0.017767848 -0.10979803 -0.0906007 0.13329123 0.024466552
-0.05007751 0.13654596 -0.105451755 0.1512158 0.12660299 0.18341807 0.11270733 -0.10017824
0.014631191 0.09709531 0.08151961 0.0008214028 -0.066306114 0.08381864 -0.1347499 0.11619592
0.056644987 -0.13449411 0.03760094 0.09238854 0.15803291 0.15497556 -0.09184655 -0.06626716
0.10106433 -0.12338518 0.09164092 0.0034160556 0.19637538 -0.18567304 -0.08937752 -0.12637845
0.08576131 0.010472578 0.039483845 -0.017373186 -0.015095017 0.13823569 0.18059793 0.026402244
-0.018588038 0.11340426 0.04174742 -0.1176081 0.07163182 0.17273395 0.114633456 -0.083681546
-0.08837757 -0.13252246 0.18452486 -0.07411601 0.040705055 -0.014725129 -0.005823448 0.15632224
0.15453064 0.1168108 0.055612862 -0.13241392 0.09186571 0.06192144 0.12665468 -0.0460247
-0.122024596 0.05304351 -0.02676376 -0.055447567 -0.026181055 -0.16371918 0.17703035 0.04101191
0.043410894 -0.042384762 0.113833964 -0.010804106 0.09533045 0.02959155 0.10132023 -0.11013019
0.049420327 0.12382488 -0.090538986 0.10503322 0.14327961 0.004786559 -0.03956949 -0.12691575
0.013119726 -0.014510426 0.028496884 -0.10955517 0.14761895 0.14787868 -0.017818348 -0.04136349
0.04761935 0.043984238 0.11511038 -0.002445268 0.047385693 0.1196511 0.046171296 -0.096343055
0.036357727 -0.113844916 -0.011042057 0.11796262 0.02949955 0.04007694 0.13011716 -0.0040102936
0.08153238 0.093373515 0.13833106 -0.080520675 -0.078486204 0.05940081 -0.13556534 0.026680449
0.20528664 0.06037559 0.21997473 0.014326881 -0.13668294 0.14928998 -0.016314343 0.075908236
-0.010379221 -0.10060257 0.04516129 -0.09084226 -0.0859569 0.03845393 0.14482567 0.19524059
-0.064530045 -0.0050053797 0.017536277 0.113903664 0.13364273 0.045820218 -0.09137154 0.062099427
-0.06100377 0.12416367 0.09090198 0.14230609 0.09899347 0.087771975 0.12632048 0.010360354
0.15890859 0.06748251 -0.0013940356 -0.010979655 0.058590278 0.09773808 0.06648232 -0.08309536
0.11996029 0.068776235 -0.15117307 -0.012337829 0.13891712 0.035284914 0.03626029 0.08110637
0.039942678 0.013768706 0.039139528 -0.07720469 0.09917345 0.14121331 -0.10969118 0.029923655
0.025586154 0.11859505 -0.007072092 0.12215847 -0.05915799 0.09431963 0.1642714 0.14634278
0.10145011 0.15347023 0.09487914 -0.03785459 0.09766967 -0.1558104 0.11236004 0.05308067
-0.056495644 -0.09133131 0.1120953 0.14973964 0.035512026 -0.08664271 -0.17656624 -0.04488334
0.17978524 0.026471209 0.112778105 0.038803138 -0.003674434 0.015314354 -0.05927626 0.027794827

fc2.weight f4 [128, 256]
00000000: a1e0 043d ec91 023e 3d04 043e 22d6 2b3d
00000010: e77a ee3d 5f20 153e cb61 95bc 6011 313b
00000020: b2ce 0f3d fc8f 3dbc 5997 713c 2d80 c53b
00000030: 8c35 91bd 51c7 863d 8c60 19bd 9fc2 ea3e
00000040: 27d0 043e 7346 6d3d feca 2b3d ba3c ad3d
00000050: 9059 973d 8c40 c6bb 439b ed3d a47a 953c
00000060: ae17 fd3e 28a2 ae3d f699 e33d 312c 6bbd
00000070: 612f c0bd fc79 323d 80d5 ac3b 8c51 3b3d
00000080: 6cdc 893b 21bd 0e39 e4b1 c0bb a03f 813d
00000090: a916 233c 2b80 893d 8d3b 98bd 3e15 ee3c
000000a0: 40c5 903d bbf7 57bc ee1d d2bc 8e18 ac3d
000000b0: e297 6b3d 6ac5 5e3b 6c77 af3c edff 1cbd
000000c0: 982d 67bd 7bea 9c3d 1639 24bd 2d31 cf3d
000000d0: 07a0 8e3c 5332 793d 6f72 90bd a032 0b3c
000000e0: d477 313d aadb 0a3e f1e6 c13d 16ac 5e3c
000000f0: 789d 033d 0e04 803d 24d8 c8bc 2972 003e
00000100: 48d1 d43d b47b 863c 7859 12be 5be2 df3c
00000110: 3eba 18bd 0ab2 f93c d3b9 22bc 1026 b8bc
00000120: 2c1e 283d a4f1 02bd 8414 5cbc 16a8 083e
00000130: 9b69 a03d b577 02be 28d9 76bc 06a4 46bd
00000140: 1016 943d 0e14 c23c 1ef9 873d 5678 7a3d
00000150: 8bb8 9bbd 1f23 23bc db01 653c e14b 7e3b
00000160: 4dd2 1ebe d36a 083d a1ee 5e3d b202 fab9
00000170: 31f7 5a3c c338 263d b930 813d 1dc1 abbc
00000180: 0edf 1f3d 46e1 f5bd 1b01 bc3c 19ce b1bc
00000190: b5d6 03ba 30c8 02be 8405 fbbd 645d f13d
000001a0: 508b 853c 540d 27bd dc69 493d 0888 6f3e
000001b0: b092 afbc 4ddc 823d 30df d43d 4c1f e5bd
000001c0: 8489 10bd 7c96 d73d eae1 afbd 59f4 85bb
000001d0: 70ad 883d 15fa 89be dd42 6f3d 8951 d23d
000001e0: 5a3f 34bd 14b7 883d 9215 903d 606e e13d
000001f0: db7e 85bd fd0f b23d 9bd8 c73d 2a1d 123d
00000200: ae46 e23c 3b6b d3bb 0a79 30bd 32dc b03d
00000210: 3895 693d d54e 72bc fef0 36be 5e24 24bd
00000220: 5e11 c73d db2a d9bd a33a 81bd b75e d73c
00000230: 8d6d d43a 304e 45bd 7c63 d1bd 8950 063e
00000240: 60af c73d d6db 64bd 8b74 f93c 3d1e 13be
00000250: c15b a73d 3ddd 8a3d 84fb c63d 2cf1 5b3d
00000260: 4cbb c13a a6b0 123d 6010 1cbe ed1f 803d
00000270: 41d6 4abd 9d4b 5bbc 52f9 9b3d 76b0 efbd
00000280: 3e87 f13c e6d8 233d 519f 4fbd 5a64 563d
00000290: 5c1d c43d bef2 6b3d 3425 903c 2803 bd3d
000002a0: acb4 9d3c 6ceb eebb ebde 983d ad96 1c3e
000002b0: 898d 7abd a9b0 44bc 3687 debc 3f37 b8bd
000002c0: bc2d f4bd d431 e2bc fd5c 3cbd facf 373e
000002d0: 5c45 a03b b906 973d 7f0d 1f3d 02fb b63b
000002e0: b2df 623d ccbf dabd 3be6 75bc 424e 4bbc
000002f0: cfac 933d 3743 96bc f1ae cdbc ee9a 8bbd
00000300: 8190 1d3c 59b0 e23d 3554 233d a067 4bbd
00000310: 0f23 763d f2ec b6bc 0160 5d3d 1476 30bc
00000320: 9364 913d 0045 6ebd 6ced a33d c9de fcbd
00000330: 14d5 933d 586a 36bd b8c8 b33d 80dc be3a
00000340: eb8e 99bc 25f1 e13d ee01 c6bd 46af 1abe
00000350: 566b 44bc 5192 0f3e 819d c43d 4f0d 0b3d
00000360: 2c8d b53c e8f6 1a3e 9b28 393d aee4 0fbd
00000370: d876 9c3d 78cf 713b b8d3 e1bb a592 aa3c
00000380: 0c71 1e3e e0d2 5dbc 4285 acbd f5b3 a23d
00000390: e881 4ebd 7917 263d d4dc 143d 6079 653d
000003a0: cf77 d03d 6b3d 0c3d 1775 2ebb eac0 2c3e
000003b0: 135a 85bd b0a2 9bbe cdf8 343d 3bcf bb3d
000003c0: eb2d 63be 968e cfbc eb65 053d 926e a13d
000003d0: 5644 2e3e e8a7 2f3d cb7f 273e a05e 60bd
000003e0: a9e3 113d 41cb ce3d 77ec adbc e6f3 78bc
000003f0: 8a03 6cbd 538b 073c ed9e c33c 74c4 4c3d
0.032440785 0.12750977 0.12892242 0.04195226 0.116445355 0.1456313 -0.018235108 0.0027018413
0.03510923 -0.011569973 0.014745557 0.0060272426 -0.070902914 0.06580985 -0.03744559 0.4585161
0.12970029 0.057928514 0.041941635 0.08458848 0.073901296 -0.006050175 0.116018794 0.018246956
0.4943213 0.085270226 0.1111335 -0.05741519 -0.09384037 0.043573365 0.0052744746 0.045732066
0.0042071845 0.00013612631 -0.005880581 0.06310964 0.009954133 0.06713899 -0.074332334 0.029062863
0.070688725 -0.013181622 -0.025649037 0.08403121 0.057517894 0.003399218 0.02141925 -0.038330007
-0.056439966 0.07661911 -0.040093504 0.101168014 0.017410291 0.06083901 -0.070530765 0.008495957
0.043327168 0.13560358 0.09467877 0.013590833 0.032132596 0.06250773 -0.024517126 0.12543549
0.1039148 0.016416408 -0.14291942 0.027329614 -0.03728699 0.030480403 -0.009931999 -0.022479087
0.0410444 -0.031968728 -0.013432626 0.1334537 0.07832643 -0.12740977 -0.0150664225 -0.04849627
0.072307706 0.023691203 0.06639312 0.061149918 -0.07603558 -0.009957104 0.013977493 0.0038802552
-0.15509911 0.033305 0.054426793 -0.00047685724 0.013364599 0.040581476 0.06308121 -0.020966107
0.03903108 -0.12005858 0.022949746 -0.02170472 -0.0005029247 -0.12771678 -0.122569114 0.11785391
0.016301781 -0.040784195 0.04917322 0.23391736 -0.02143225 0.06389675 0.10394132 -0.1118761
-0.035287395 0.105267495 -0.085880116 -0.0040879664 0.066737056 -0.2694861 0.058413375 0.10269458
-0.04400573 0.066755444 0.07035364 0.110073805 -0.065183364 0.08694456 0.09758111 0.035672344
0.027621593 -0.006451992 -0.04308418 0.08635749 0.05702707 -0.014789303 -0.17865369 -0.040073745
0.097201094 -0.10603877 -0.06310012 0.02629028 0.0016206965 -0.04817027 -0.10224053 0.13116659
0.09750247 -0.055873714 0.03045108 -0.14367004 0.081717975 0.06780479 0.097159415 0.053696796
0.001478055 0.035812996 -0.15240622 0.06256089 -0.049520735 -0.013384727 0.076159135 -0.11703579
0.029483434 0.040001772 -0.050689045 0.052341796 0.09575912 0.057604544 0.017595865 0.09229118
0.01925119 -0.007291248 0.07464393 0.15291853 -0.061170135 -0.01200501 -0.027164083 -0.08994912
-0.11922786 -0.02761165 -0.045987118 0.1795043 0.004891081 0.07374329 0.03883123 0.0055841217
0.055389114 -0.106811136 -0.0150085045 -0.012408795 0.07210695 -0.018342597 -0.025107833 -0.0681666
0.009616972 0.11068792 0.039875228 -0.04965937 0.06009203 -0.022329781 0.054046635 -0.0107703395
0.07099261 -0.058171272 0.08004269 -0.123471804 0.07218376 -0.04453501 0.087785184 0.0014561564
-0.018744906 0.11032323 -0.09668337 -0.15105924 -0.0119884815 0.14020659 0.09600354 0.03394824
0.022162043 0.1513325 0.04520474 -0.035130195 0.07639855 0.0036897343 -0.006891694 0.020821879
0.15472811 -0.013539046 -0.084238544 0.0794448 -0.050416857 0.04054973 0.03634341 0.056023955
0.10179102 0.03423826 -0.0026620084 0.16870466 -0.06511321 -0.30397558 0.044182587 0.091703855
-0.22185485 -0.025336545 0.0325679 0.07882418 0.17018256 0.042884737 0.16357343 -0.05477774
0.035617504 0.10097361 -0.02123092 -0.015194869 -0.057620563 0.008272964 0.023879493 0.04999204

fc2.bias f4 [128]
00000000: 74aa 383d 8be7 9d3d 61cc 97bd 26e9 d13d
00000010: 37be 683d 5583 8bbd 5690 c43b 0a8b 7c3d
00000020: dc8d 72bc d5dc a33d fd9c 383d 5689 973d
00000030: db48 953d c63d 6f3c e870 463d ba8c f3bc
00000040: 1584 8a3d f631 003d e236 223c c9af cf3d
00000050: cec7 d63d 5d75 ce3d b911 563d 8e73 b83d
00000060: 1632 6bbc 188a 95bc 07d9 70bd 23c7 cf3c
00000070: b4fd 5abc d0cb 8a3d ceeb d53d f078 423d
00000080: 38cb 513d 4ea1 c33d 9e74 1bbd 8fe4 913d
00000090: 5dcc 0fbc 6386 22bd e4c5 30bc 11de 56bd
000000a0: 65d4 82bb 131e 77bd 972d 25bd b74b f43c
000000b0: af97 b33d 7066 4dbd 3b0c af3d de12 123c
000000c0: 801e 143e fb5b 463d 64e7 d13c de61 3d3d
000000d0: 3641 f4bc ed0a e83c c9fa 0a3c 627c ad3d
000000e0: d562 953d a01a abbc e91d 0a3c 23a1 2e3d
000000f0: 3bef 813d 2df4 893d 7a4c e23d 794e a03d
00000100: eb80 92bc f4a3 8cbc 7452 d13d c02f fc3d
00000110: a563 fb3d cc85 43bd 029f a53d ba91 f8bb
00000120: 0a4c 86bd e4ba 1ebd 562f bd3d 00c9 813d
00000130: 1212 373d 1362 45b9 52dd a5bd 0b2d 723d
00000140: 35a3 a83d be91 9cbc e949 2fbd f040 cb3d
00000150: 1f00 7f3d f8e7 34bd ffab fc3c 15a1 52bd
00000160: 2d08 593d 5935 f3ba 28e6 02bd dfc3 e73c
00000170: ab47 0d3e 4349 0f3d 1a95 833d 2390 f4ba
00000180: f8d8 c13d a640 bbbc c0aa 18bd 3ac1 9abd
00000190: fb2a de3d 2daf 8f3d b905 153d 9fb3 89bd
000001a0: d3ce ad3d 3431 b03c 4ac8 e9bc da82 e73c
000001b0: 8667 88bc dae1 3c3a 955d 59bd 4a1e 46bd
000001c0: acf8 573d 210e 023e 059d 8ebd f8e0 af3c
000001d0: e0a7 653c ac8c c1bc 4bcf 053d fcc9 a43d
000001e0: b2cf 003d c619 ed3c e1a1 3bbc 7a30 163d
000001f0: 4fd1 a93d b02a 023d 8e2d b8bb c376 8ebc
0.04508443 0.07710179 -0.07412029 0.10249548 0.056822028 -0.06812159 0.0059986515 0.061656035
-0.01480433 0.08001105 0.04507159 0.073992416 0.07289287 0.01460213 0.04844752 -0.02973019
0.06763474 0.031297646 0.00990078 0.1014095 0.104873285 0.10080979 0.052262995 0.09006415
-0.014355203 -0.018254325 -0.058800723 0.02536351 -0.013366152 0.067771554 0.10445367 0.047478616
0.051219195 0.09552251 -0.03795301 0.07123672 -0.008776751 -0.039678942 -0.010789368 -0.052457873
-0.0039926046 -0.060331415 -0.04032668 0.02982126 0.08769166 -0.05014652 0.08547255 0.008915631
0.1446476 0.048427563 0.025623031 0.04623591 -0.029816251 0.028325522 0.008482643 0.0847099
0.07294241 -0.02088672 0.008429983 0.04263414 0.06344458 0.06736026 0.11049743 0.078274675
-0.017883739 -0.017168023 0.10220805 0.12313795 0.12274865 -0.04773502 0.08086969 -0.0075857313
-0.06557472 -0.03875245 0.09237544 0.06337166 0.044694968 -0.0001882392 -0.08098854 0.059124988
0.08234254 -0.019112464 -0.042795096 0.09924495 0.062255975 -0.044166535 0.030843733 -0.05142315
0.052986313 -0.0018555328 -0.031957775 0.02829164 0.1379687 0.034981977 0.06424923 -0.0018658679
0.09465212 -0.022857975 -0.037272215 -0.07556386 0.108480416 0.07015834 0.03638241 -0.06723713
0.08486714 0.021507837 -0.028537888 0.028260637 -0.016650926 0.00072052854 -0.053067762 -0.04836873
0.052727386 0.12700702 -0.06963543 0.021469578 0.014017075 -0.023626648 0.032668393 0.08046338
0.031448074 0.028942954 -0.011452169 0.036667325 0.082918756 0.03177899 -0.005620665 -0.017390614
