data/predictor/Ablation/6_TNetwork-F_2024-06-30_10-31-15.pt (torch, 865399 bytes, 16 tensors)

conv1.bias f4 [64]
00000000: 13cc 6e3b 5dff 283b e96d fbbc c557 433b
00000010: e2a3 4cbd f38b 663c 0461 0abd e557 f0bb
00000020: f1f5 f33a ba95 c3bd 8eb4 51bd bee0 de3c
00000030: f179 debb 8fde 3bbd 232e b1bc c960 013c
00000040: d427 2cbd 9bf2 f2bc 7f2c 45bd cf7a 60bd
00000050: 9455 46bd b1c5 523c f2bc 14bd e3d5 d83c
00000060: 4947 483b 778e 9ebc c04b 263c 606d e53b
00000070: ce88 bcbc 5050 31bd 954d 223d d3c0 23bd
00000080: 83e1 293d 9e91 a2bc 452e 173d 8c7e eebb
00000090: 224d c53d b8d0 0abd 2b1c 93bb 0bd4 e13c
000000a0: 43ee fabc b528 23bd adbd b9bc b731 08bd
000000b0: 1ec5 3bbc f432 afbc 01d5 5ebd 39a3 3a3d
000000c0: 3954 9b3d 80a7 853c 6cbb 27bc c0ad 80bc
000000d0: 1920 6b3d c51b 7eba 4ec0 eabc ca72 2c3e
000000e0: d2c7 f1bc c1a4 5ebc 0e77 31bc 0000 0000
000000f0: 77c6 b83d 4f27 8f3d 2101 adbc d099 8cbc
0.0036437556 0.0025786974 -0.030692058 0.0029806953 -0.04996098 0.014071452 -0.033783928 -0.0073346966
0.0018612725 -0.095500425 -0.05119758 0.027206775 -0.006789439 -0.045866545 -0.021628445 0.007896611
-0.04203017 -0.029656699 -0.048138138 -0.05480462 -0.048421457 0.012864516 -0.036313005 0.026469177
0.0030560067 -0.019355042 0.010149896 0.007001564 -0.023014452 -0.043289483 0.03962477 -0.039978813
0.04147483 -0.019844826 0.03690936 -0.007278269 0.096338525 -0.033890456 -0.004489442 0.02756693
-0.03063119 -0.039833743 -0.022673452 -0.033250537 -0.011460571 -0.021386601 -0.054402355 0.045565818
0.075844236 0.016315222 -0.010237556 -0.01570785 0.057403658 -0.0009693469 -0.028656151 0.16840664
-0.029514227 -0.013589085 -0.0108316075 0.0 0.09022229 0.069899194 -0.021118702 -0.017163187

conv1.lin.weight f4 [64, 6]
00000000: f0c5 1e3e 24e7 833c 7ec9 fc3b a10e a33d
00000010: 0b35 6dbe 50d3 97be 76c5 9dbc 1337 8b3e
00000020: 1d34 bc3e 57fc 023e 3850 1a3c 9977 5c3e
00000030: 7d1b c43d 274f b93b 5ca6 5e3e 67a0 d3bf
00000040: 2601 e5bd 4c0c a13f 7454 82bc 0971 4fba
00000050: a445 b6bd 83ff 853e 4eb4 57be 9787 5d3f
00000060: 18c6 6fbd c7c2 0dbe aafd bfbd e20f 90be
00000070: 9c06 103e 80d2 e13c eec9 08be d71b bdbd
00000080: 107e adbe f1af d83e 442a 0b3e 4043 073f
00000090: 13a3 773e d357 58be 97d2 7b3e d601 8b3e
000000a0: 65e9 373e 9764 10bf 3209 e5bd d30c d53d
000000b0: 4509 043f 6b1e b73d bb8a ee3d bfaf 893e
000000c0: d11f 0cbe 1a92 073e 7897 edbd 5d74 023e
000000d0: 1500 0c3e 7979 573e 3434 573e 8904 7ebe
000000e0: 6ee1 4abc d566 ebbd ee01 6a3e 8eda 81bd
000000f0: 0b2c 083e 1565 bcbd 75e1 b9bd e546 113e
00000100: 5dcd fe3d 288f f43e c9a2 aebd e086 39bf
00000110: 9041 d5be d825 9b3e b84a 2ebe 7eaa f73e
00000120: 0003 4a3e 49a2 073e e19b 72bf 62f9 fa3d
00000130: 09b4 f23d 2c5d cb3e 571c 3f3e c38f 51be
00000140: ac43 1a3d 2083 983e 962e ac3d 0352 1c3f
00000150: 3602 febd 1a3e 10bd d366 09be fe68 5f3e
00000160: e9aa 5c3e bf8c cf3e 62c7 5bbe 1ddc 8ebd
00000170: ba03 78be 4d77 913e 3c9b 9abd a099 163f
00000180: bb82 f73d d57c 643e 183f b4be de8d 0dbf
00000190: 96ff 99bb dc9b 2bbf 35b4 b1bc 9c3a 1d3d
000001a0: 152a 92bf 5f9f 113f 7f5a 013d 2908 7dbe
000001b0: ecdb bdbd d604 8abe 589b 79be eca7 02be
000001c0: 654d a93d b4d6 93be 6fac ec3d 1173 88bd
000001d0: 94ac c73d cb53 80bf 3bb4 ac3d a071 503f
000001e0: 4bfc 80bd e563 323e 1233 7e3e b88f 373e
000001f0: 27fe 433e 453e b93f 71a2 56bd b5ce 3cbd
00000200: e6d9 e13e 9aeb 893d 354b c3bc 5854 5c3f
00000210: a13a 56be a2f8 273e 1010 d43e 37ac 03bf
00000220: 6bd9 443e 39f0 303f 009e afbe 1d4d 713e
00000230: b192 db3e 978f adbe 5b30 03be 8c27 2bbf
00000240: e5d4 343e e6e1 5b3e 0f15 60bf 25c6 f43d
00000250: 333c 713d fab1 493e 6ffb b13d 9558 13ba
00000260: 5df6 8f3e b93d b1bd 79f4 503e 4fba bcbe
00000270: 0833 f43d 6d0f 6ebe 2f98 073f b173 79ba
00000280: 116c 55be 987d 963e 31c4 b6bd 4a9b 85be
00000290: c5f5 d83d caa3 7e3d 1740 693d e1a0 8d3f
000002a0: 10c4 d0bd 5ad5 a6bc d3ad cfbb d221 1ebe
000002b0: 7c8c c73d 991a 65bc 6b1b c83d 047f 8bbe
000002c0: 9379 c63d e5bd b8bf 9464 5a3c 4db0 993f
000002d0: e9cf dfbe ff14 d5be 2161 353e c140 563e
000002e0: 750b 13be 3cd6 d43e 25e6 363e 74cc 79be
000002f0: 783d 3f3d 5145 a43e f7e9 6fbe a492 d3be
00000300: f388 2abf bcc8 cf3e 6eeb 403c bcce a5be
00000310: 71a9 103e 8b0c babd 70c1 283c 17c1 21be
00000320: 8b2e babe 1e9b 1e3e 8b5b 8a3e 6e57 e63e
00000330: 7519 92bd 0846 f63d cd87 07be 0577 0e3e
00000340: b8f3 45be be59 c03e 19f6 ffbb 8510 b23c
00000350: 6734 c43e 40d0 ec3d 2d89 053d 05bf 92bc
00000360: 9aa8 f6bd 54db 2a3e af77 f6bd 9022 543e
00000370: e180 6cbe 3006 443f b307 533e 86f5 75be
00000380: c28c ca3d 5ecf a03e b107 88be 66df b6be
00000390: 5760 82be 3101 87be 72f8 ebbd a888 53be
000003a0: 64b1 913e 4c55 8abd 4b32 45bd 7364 703b
000003b0: a115 183f 3f26 363e cbe1 0fbd ca1e 8bba
000003c0: fcaf 1b3e 0667 01be 0b56 b83e 7a05 ecbe
000003d0: 2dac 363e af46 243f f840 5a3e f284 05be
000003e0: 09ae f0bd cec9 403d 40db 81bd 2b93 12be
000003f0: 875c f4be 8f13 1ebe cfea f33d 0528 c03e
0.15505195 0.016101427 0.0077144494 0.079617746 -0.23164766 -0.29653406 -0.019259196 0.27190456
0.3675851 0.12791573 0.00941854 0.21529998 0.095755555 0.0056551876 0.21743149 -1.6533326
-0.1118186 1.2581878 -0.015909411 -0.0007913267 -0.08900002 0.26171502 -0.21064875 0.8653502
-0.058538526 -0.13843833 -0.093745545 -0.28137118 0.14065021 0.027566195 -0.1335828 -0.09233826
-0.3388524 0.42321733 0.13590342 0.5283699 0.24183302 -0.21127252 0.24592052 0.27149838
0.17960127 -0.5640349 -0.111833945 0.10402837 0.51576644 0.08941349 0.116475545 0.26891896
-0.13684012 0.13239327 -0.11601156 0.12739702 0.13671906 0.21042432 0.21016008 -0.24806418
-0.012382848 -0.11494223 0.22852299 -0.06340514 0.13298051 -0.09198967 -0.09076206 0.141872
0.12441514 0.4776547 -0.085271426 -0.7247143 -0.41651583 0.3030231 -0.1702069 0.48372263
0.19727707 0.132455 -0.947691 0.12254597 0.11850745 0.39719522 0.18663155 -0.20464997
0.037662193 0.2978754 0.08407323 0.6106264 -0.124027655 -0.035215475 -0.1341813 0.21817395
0.21549572 0.40537068 -0.21462777 -0.06975577 -0.24220172 0.28411332 -0.0754914 0.58828163
0.12085482 0.22313245 -0.35204387 -0.552946 -0.0046996577 -0.670347 -0.021692375 0.038385972
-1.1419092 0.56883806 0.031580444 -0.24710144 -0.092704624 -0.26956815 -0.24375665 -0.1275937
0.08266715 -0.28874743 0.115563266 -0.06662572 0.097497135 -1.0025572 0.08432814 0.8142338
-0.06298121 0.17420919 0.2482417 0.17925918 0.1913992 1.4472128 -0.05240101 -0.04609557
0.44111556 0.067343906 -0.023839572 0.860662 -0.20920803 0.1640344 0.41418505 -0.51434654
0.19223563 0.6911655 -0.34300232 0.23564573 0.42885354 -0.33898613 -0.12811415 -0.6685722
0.17659338 0.21472892 -0.8753213 0.119518556 0.0588953 0.19696799 0.08690535 -0.0005620805
0.28117648 -0.08654351 0.20405759 -0.36860892 0.11923796 -0.23248072 0.5296659 -0.00095158356
-0.20842005 0.29392695 -0.08924139 -0.2609504 0.10593752 0.06216792 0.056945886 1.1064721
-0.10193646 -0.020365406 -0.00633786 -0.15442589 0.09743592 -0.013983392 0.097708546 -0.27245343
0.09691157 -1.4432951 0.013329644 1.2006928 -0.4371331 -0.4161758 0.17712833 0.20923139
-0.1435984 0.41569698 0.1786123 -0.24394399 0.04668948 0.32084134 -0.23429094 -0.41322815
-0.6661522 0.40582836 0.011774881 -0.32384288 0.14127137 -0.09084424 0.010300025 -0.15796314
-0.36363634 0.1548886 0.27022967 0.4498858 -0.07133762 0.12025076 -0.13235398 0.1391259
-0.19331253 0.37568468 -0.0078113195 0.021736393 0.3832123 0.11563158 0.032601524 -0.01791335
-0.12043877 0.1668523 -0.120345466 0.2071631 -0.23096038 0.7657194 0.20608406 -0.24019441
0.09890129 0.3140821 -0.26568368 -0.35717314 -0.25464126 -0.26368096 -0.115219966 -0.20657599
0.2845565 -0.0675455 -0.048143666 0.0036680966 0.59408003 0.17788027 -0.035127442 -0.0010614034
0.15203851 -0.12636957 0.36003146 -0.46097928 0.17839117 0.64170355 0.21313846 -0.13038996
-0.117519446 0.047067456 -0.06340647 -0.14313953 -0.47726843 -0.15437149 0.119100206 0.37530532

conv2.bias f4 [64]
00000000: 90d5 a1bc d933 82bc 2930 20bd f49b c9bb
00000010: b32e 34bb 21d4 233c e0a8 0ebc 5e36 c5ba
00000020: 0370 f4bc f38b 37bd 1a56 adbd 8e86 bebc
00000030: 1edc 77bc 1740 1e3c 4fe1 c4bc 098d a73b
00000040: 7ac7 77bc 64fe 85bd 4718 6abc a0c6 91bc
00000050: b10b 0bbe c670 8a3b 65fc 4dba 8732 b6ba
00000060: 7e4f 84bc ed5a 7bbc edbd 96ba 6509 9ebc
00000070: 2a03 d1bc 3628 46bc 0449 24bd 330e 49bd
00000080: 96ad 62bb d5f7 febc 0e17 843a 0991 ddba
00000090: 7ec8 95bd a5bb 3bbc 0b6c 33bc 679e 2cbd
000000a0: da7a adbc 1351 1a3b 9ae2 dabc c3fa e4bc
000000b0: 6182 493c e8f5 5ebc 3c07 c2bc ecfb 2e3d
000000c0: e2fb ffbb dffe 38bd ec52 de3b d8df ed3b
000000d0: 489b c6bc a859 83bc e0ad 29bc de48 9fbc
000000e0: 7d11 a4bc 45c1 e9bc 3c77 443a e98d 97ba
000000f0: b6cd 17be a9f6 a83c 2f98 903c 9b48 48bb
-0.019755155 -0.015893864 -0.03910843 -0.0061526243 -0.0027493655 0.009999306 -0.008707255 -0.001504611
-0.029838568 -0.0448112 -0.08463688 -0.02325752 -0.015128164 0.009658835 -0.024033217 0.0051132482
-0.0151232425 -0.06542662 -0.014288015 -0.017794907 -0.13578679 0.0042248694 -0.0007857739 -0.0013900556
-0.016151186 -0.015341503 -0.0011500694 -0.019291589 -0.025514204 -0.012094548 -0.040108696 -0.049085807
-0.0034588329 -0.031124035 0.0010077672 -0.0016904186 -0.073136315 -0.011458312 -0.010951052 -0.04214325
-0.021176744 0.002354686 -0.02671938 -0.027951604 0.012299151 -0.013608433 -0.02368509 0.04272072
-0.007812009 -0.04516494 0.0067847874 0.0072593503 -0.024243966 -0.016033962 -0.010356396 -0.019443925
-0.02002787 -0.02853454 0.0007494574 -0.0011562678 -0.14824566 0.02062543 0.017650692 -0.0030560854

conv2.lin.weight f4 [64, 64]
00000000: 3566 42be ecb3 b03c 9589 5ebd da23 803e
00000010: fe0c af3d 6a19 413e acbb 013e 95c7 073e
00000020: b2d0 0a3d 7c96 4dbe 4c27 023d 1fc8 e53e
00000030: 6c68 10be 3acb 523d 3004 fcbd f34e 18bb
00000040: 463f 743b 0d04 b2bc bb2e 593e 4be4 0ebe
00000050: dc03 fc3d 8bdc aebd ada4 4c3d f4b4 d4be
00000060: 43c4 98bd 6715 a93d 2e56 bfbe 33f2 843d
00000070: 3a6d 483e bb5b 843c 61f9 5b3e f9cb 973c
00000080: 04a5 bc3d 2c68 033e 5515 313e 05f7 dabd
00000090: a542 1b3e 7d6c 37be b7a7 993d be31 2b3d
000000a0: b0ee 11be 6844 013e 97cb 3b3e b6d6 aa3c
000000b0: 3694 7e3c 5903 bbbe 475e 0abe 07a1 853e
000000c0: 4c5f 933d 0cd5 86bd 66c9 56be 5c85 303c
000000d0: b58d 1bbe 9c1e c63c c45c 733e b98f 873d
000000e0: 4777 2dbe 42b2 203d e552 e8bd 2a3e f43d
000000f0: 9e4d 15be a3ad adbe 96b7 453e f5dd b6bd
00000100: f13c 51be 1838 783d e6be da3e a917 b83e
00000110: 56b6 ec3d 6f74 dbbe 0ef3 23be b4ab a03d
00000120: b314 96bd 3ade 0cbe 4340 aa3d c463 fabf
00000130: 8aa2 0fbe 0a3c 313d 1e4a 6dbe b4f7 08bf
00000140: 4ee7 22be 51c3 bebe 2f91 45be e5b7 723e
00000150: 989c f43e a2d7 bf3e c538 c83e 4ed4 de3e
00000160: 6297 7cbe d3ce cabd 1bb0 3d3e f995 583f
00000170: 03e8 23be f5a8 ba3e 9189 26bf 9522 92be
00000180: d87a 2dbe 62c0 95be 57e9 063e 30e5 1bbd
00000190: b6a7 8d3e 202b 55be 03d2 2c3e a670 f43c
000001a0: b11d 493e 1aff d3bd 2bba 8cbe fdd8 5d3e
000001b0: 3c25 8bbd 197e 113e 91be a43d 4238 0fbf
000001c0: b222 5f3f 817c 813e 9f83 babc 605f 243e
000001d0: 1599 65be 50e0 09be 3a83 03be 45a4 803e
000001e0: 304e 3bbf bc38 b9bc f713 32be 9055 073d
000001f0: 29f1 fabc 7c48 983d 42bb 20be 7b11 ccbc
00000200: 42d3 1e3e 64a5 083e 0f73 c3be 5c9c 833e
00000210: 3e20 a33d 1592 aebd f6fa 8d3c 66f4 863c
00000220: 1d40 85be 4776 ba3d 9b7f e3bd 11b4 213f
00000230: 976a c739 1cae eb3d ecc4 03be 1453 d43e
00000240: 62a0 833e 23c1 d9be 2b94 47be cd3e 8abe
00000250: c98e c73d 0fbf 503e 38b8 9bbe db66 dbbd
00000260: e0b2 533e 3040 edbd 7448 3d3e 87fa d33e
00000270: 1ef8 b13d efd4 74bd 0b26 093f cf5c 9ebe
00000280: a044 89be 6be3 94ba 7e4e 003e 808e c13d
00000290: 4f5f 19bd b6fa e93c c16f a43d caa8 b03d
000002a0: a638 43be 62cb 5bbd eeba 5b3e 7b58 803e
000002b0: 2602 373e 6a0c ebbd 44c0 793e 2e92 f83e
000002c0: b7b1 20bf ef60 16be cc79 16bc 26c2 cb3a
000002d0: 9194 05bd 6a04 87be b953 8c3e 47f6 b73e
000002e0: 5954 0f3f 71a2 3e3b 56c9 f2bd 64c1 1b3d
000002f0: 4b44 27be 97b2 3abd e207 5ebd a218 fabd
00000300: 8694 5fbd fb47 093d eabe 8a3d 1b4d 363d
00000310: def4 96bd 323b d13d cf3a 84bd be6b 29be
00000320: 0921 2dbe c010 16be 2832 503e daa5 ae3d
00000330: da33 52be 452b 303e cffc 36bd 5456 513d
00000340: 4b7a 21be 552f e8bd b28e bf3d bf7e 25be
00000350: b872 4abd a74c 1dbe 5c5b e0bd 8a69 963d
00000360: 8457 143d 43a8 02be bd06 af3d 1c8e f8bd
00000370: b0c8 4e3c e61c cc3d 2c5d 85bd 4837 993d
00000380: ee15 40be 9679 48be 2da5 d3bd a6c2 343c
00000390: 8376 7f3a a1f6 40bd 0046 2fbd e265 c53d
000003a0: 780e 653d 0805 cbbd 623e 08be 435b 72bd
000003b0: 19a5 423e ee7a 483e 0216 24be 7aa4 3b3e
000003c0: aa15 d83d 81ef 89bd b04a 96bc e887 0abe
000003d0: 4d46 b7bd d1dd 98bd 5ff8 fabd 2bff 283e
000003e0: 547e 533e 347c 4bbe a19d e03d 4105 f7bd
000003f0: 61da 16be b9a6 2cbe 029e 2fbd b5af 42bd
-0.18984301 0.021570168 -0.054330427 0.25027353 0.085474 0.18857351 0.12669247 0.13259728
0.033890434 -0.20076936 0.031775758 0.44879243 -0.14102334 0.051463343 -0.12305486 -0.0023240417
0.003726916 -0.021730447 0.21209233 -0.13954274 0.123054236 -0.08538159 0.049961735 -0.41544306
-0.07459309 0.08256035 -0.37370437 0.06491508 0.19572917 0.016157022 0.21481849 0.018529879
0.09211162 0.12832707 0.17293294 -0.106916465 0.15162142 -0.17912479 0.07502692 0.041795485
-0.14251208 0.12623751 0.18339382 0.020854335 0.015538266 -0.36525992 -0.13512526 0.26099417
0.07195911 -0.06583604 -0.20975265 0.010773983 -0.15190776 0.024184518 0.23765856 0.0661921
-0.16940032 0.0392325 -0.11343936 0.11925919 -0.1458039 -0.33921537 0.19308314 -0.08929054
-0.20433404 0.06060037 0.4272377 0.3595555 0.11558215 -0.4286227 -0.16010687 0.0784525
-0.07328167 -0.13756648 0.08313038 -1.9561696 -0.14026847 0.04327015 -0.23172805 -0.53502965
-0.15908548 -0.3725839 -0.19293664 0.23702963 0.47775722 0.37469202 0.39105812 0.4352135
-0.24667123 -0.0990273 0.1852421 0.8460384 -0.16006474 0.3645703 -0.6505366 -0.2854201
-0.16941392 -0.2924834 0.1317495 -0.038060367 0.27667016 -0.20817232 0.16876988 0.029838871
0.19640233 -0.10351391 -0.27485785 0.21664806 -0.06794211 0.14208259 0.0804416 -0.5594522
0.87162316 0.252903 -0.02276784 0.16052008 -0.22421677 -0.13464475 -0.12843028 0.25125328
-0.7316618 -0.02261006 -0.17390428 0.033040583 -0.030632572 0.074357 -0.15696433 -0.02491068
0.15510276 0.13344342 -0.3817372 0.2570523 0.07965134 -0.08523957 0.017331582 0.01647396
-0.26025477 0.09104591 -0.11108323 0.63165385 0.00038035653 0.11507818 -0.12868088 0.41469634
0.257083 -0.42530164 -0.19490115 -0.27001038 0.09744031 0.20385383 -0.30413985 -0.107129775
0.20673704 -0.115845084 0.1848467 0.41402075 0.08689903 -0.05977338 0.53573674 -0.30930182
-0.2681017 -0.001135928 0.12529942 0.09451008 -0.03744441 0.028561931 0.08029128 0.08625944
-0.19064578 -0.053660758 0.21458027 0.25067505 0.17871913 -0.11476977 0.2438975 0.48549026
-0.6277117 -0.14685415 -0.009184312 0.0015545532 -0.032612387 -0.26370555 0.27407625 0.35930082
0.5598808 0.0029088522 -0.11854808 0.03802623 -0.16334645 -0.045580473 -0.054206736 -0.122117296
-0.054585002 0.03351591 0.06774695 0.044507127 -0.073709235 0.10216369 -0.06456529 -0.16545007
-0.16907133 -0.14654827 0.20331633 0.085277274 -0.20527592 0.17204006 -0.04467469 0.05110772
-0.15769307 -0.11337153 0.09353389 -0.16161631 -0.04942581 -0.15361272 -0.109549254 0.07344349
0.036216274 -0.12759499 0.08546207 -0.1213648 0.01262109 0.099664494 -0.06511912 0.07481247
-0.18758366 -0.19577631 -0.10334239 0.011032736 0.00097451376 -0.047110204 -0.042791367 0.09638573
0.055922 -0.09913069 -0.13305047 -0.059169065 0.19008292 0.19578144 -0.1602402 0.18324462
0.10551007 -0.06735135 -0.01834616 -0.13528407 -0.08948956 -0.07464183 -0.12254404 0.16503589
0.20653659 -0.19871598 0.10967565 -0.12061549 -0.14731742 -0.16860475 -0.042875297 -0.04753085

conv3.bias f4 [64]
00000000: 1c38 96bc 58bc 2bba 0e45 b5bb bbe0 19bd
00000010: 90ee 2bba 6ece 8dbb 2507 573c 8595 aabc
00000020: 1878 c7bc 0ed2 d03c b0fe bbbc f56e d23c
00000030: 06ca a63c d477 f1bb 18bf 6b3b cb59 11bb
00000040: 9dd8 a33c 409a 74bc 9c2b 90bc 3cd8 aa3b
00000050: b8b9 6a3b 56e4 503b ea12 95bc dfd9 81ba
00000060: 098e cabb a3b2 0ebd 0b8f 933b 9326 9bbc
00000070: 7968 0abc 3031 303d bd84 e33b 2a75 15bc
00000080: e6d9 693b 80d2 433d 362a c6bc 49d0 043c
00000090: 3ec6 0cbd 45fc 7fbb 6751 4cbc af93 12bb
000000a0: f564 593c feb6 e3bc e2d7 f43b a5fe 733c
000000b0: 18a0 813c c4b5 193d 5769 25bc 97c0 efbc
000000c0: f3ec b03c cb4a 9d3c 6751 fc3b 7b56 cd3c
000000d0: 6394 21bc 44fb 85bc c4ff 4e3b 889b c1bc
000000e0: 38b2 89bc 978f d237 27e7 183d 3690 51bc
000000f0: 6ab0 ae3c 8045 20bb 1746 1939 341c 023c
-0.018337302 -0.0006551198 -0.0055319136 -0.037567835 -0.0006558681 -0.004327587 0.013124262 -0.02082325
-0.024349257 0.025490787 -0.022948593 0.025687674 0.020360004 -0.007369021 0.0035972055 -0.0022178765
0.02000075 -0.014929354 -0.01759892 0.0052137654 0.0035816263 0.003187438 -0.018197495 -0.000990685
-0.0061814827 -0.03483833 0.004503136 -0.018939292 -0.00844776 0.04301566 0.006943314 -0.009122172
0.0035682856 0.04780817 -0.02419005 0.0081063 -0.034368746 -0.0039060276 -0.01247058 -0.0022365858
0.013268699 -0.027797218 0.0074720243 0.014892255 0.015823409 0.03752686 -0.010095916 -0.029266639
0.021597361 0.019200703 0.0077001336 0.025065651 -0.009862038 -0.016355164 0.0031585554 -0.023633733
-0.016808614 2.5100815e-05 0.03732982 -0.01279073 0.021324355 -0.0024455488 0.00014617328 0.007941294

conv3.lin.weight f4 [64, 64]
00000000: 8421 01be 0af4 a7be 12d2 47be c440 223e
00000010: 44c2 f8bd fb06 1d3e ebca 17bb 45e9 0abe
00000020: 9a18 133e 077b d63b 63d6 1d3e 8256 53bb
00000030: db3c 823e abf5 42be d213 043f 57b4 94bd
00000040: 0b7e 1ebe f1da 2d3e 5ecb 413e 990d 2f3e
00000050: a921 00bf 1161 753d 91c4 933d 1d17 d83d
00000060: 1bab 78bd 3f0d 3e3e 8270 d2bd 1c58 1b3e
00000070: e6fc 8b3d d10c 253e e0a8 cd3d 3650 ddbd
00000080: 4f10 5cbe b27a bb3d bcc1 97bd ed7f 11be
00000090: c7d3 8abd fb78 44be 9694 e23d 00dc d7bd
000000a0: a171 16bb 7e98 98be d65d f2bd 75ff 3c3e
000000b0: 19ba 4ebe 917d 703d e167 113d 2330 99bd
000000c0: b472 e43b c44c 6ebc c4c3 533c b9a7 2d3e
000000d0: 1c20 08be cc8c 3f3d 1567 013e 092a 93bd
000000e0: 85a2 a43d af58 45be 6402 f8bd 5ea9 b83e
000000f0: 8ed2 52be 660e e4be 8e99 36be 86a0 37be
00000100: 199e 203e 47da 2d3f 92c5 30bf e000 24be
00000110: d02a 73be 91ba edbd 56ac b83c d6b2 1f3b
00000120: 9c80 5a3e 277a 003e 141c 9abe 1db6 373c
00000130: 75d7 13bd 19f4 28be 7791 ef3d c2b2 75be
00000140: 3fe2 f13d f19b 70be 8348 23be d648 683e
00000150: 9fa3 cebe 3d8d 97bd 9109 023e dace 51bd
00000160: 5fc1 053c d3f3 1e3e 60cb 183e 8a3d 1dbe
00000170: b05e debc adbe debd bd96 9b3d de9c 4abd
00000180: 68af 633d e2d2 b93d cc00 283e 2db6 d2bd
00000190: 57bf 413c 8612 0e3e 83b0 86be 9736 843e
000001a0: 7c78 e3bd e53c f0bd 999e 583e 3874 4f3e
000001b0: 1ecf 40bf b0e5 e03d fadf b33e ff2a 35be
000001c0: 5336 56be dea3 493d b1ea c6be 0127 3abe
000001d0: 1619 3d3d e99d 3f3e ff3f 0f3e f541 a33d
000001e0: 1639 bfbd e7e7 e4bd f02a 71be 6dcb 573e
000001f0: ae81 fabe ecab f0be 76ed e03d f54f 04bf
00000200: 8c99 c03d 9984 71bf e978 2c3f 3e26 ddbd
00000210: 83de f13d b0be a3bd 7b7c 833d b6a7 3cbe
00000220: e42d 023e efa0 29be 6ed5 40be b678 db3d
00000230: 12d4 97be df2c 20bd 9deb aabe 5374 6e3e
00000240: 111e 94bd ff3b 3a3e b1fb d83c a77c 07be
00000250: def3 0c3f 7048 ccbd 3c18 3fbe fbaa bcbb
00000260: fae1 4c3e 295f 8e3d 22a5 513e 2517 5fbe
00000270: c805 453e 158f 17bd 0f60 3f3d 8c81 dabd
00000280: 7a8f 2d3c a658 b3bd c6f0 543d e600 cbbc
00000290: 31a6 943d a229 acbd 2fb5 86bd a188 e53c
000002a0: f849 c63c affc 9c3e 3cb7 5ebe 2c29 b43d
000002b0: 6c96 213f a1a5 033d d851 70be 8bf3 fa3e
000002c0: 28bf 233e 66d3 dc3d 8aa6 2d3e aad3 a43e
000002d0: 7bbb 71bd ba37 45be 4340 c63d d252 37be
000002e0: e1e9 0b3b 8f00 ec3d b2e6 5a3e 053d c1bd
000002f0: ce38 053f 917f 7c3f 0e67 4c3e 5e0b ba3e
00000300: 4d35 4abe 4aa5 0fbf 1c8e 143f aae8 523e
00000310: a354 7c3e 2226 4a3e d023 283e d317 37be
00000320: a1e5 79bd 3c88 76be d1dc 98bd 0412 31be
00000330: 0b27 36be 95ab c53d ac3b adbd 09d0 5e3e
00000340: a49b 07be 9675 743d 4210 f43d ceda abbd
00000350: b7a1 073d ead4 6ebe 1e71 cd3d 7626 57bd
00000360: 60a2 d6bd 7ce0 43be 7041 503e 240d 4c3e
00000370: 734f 3d3c e6cf 82be fdc0 e73d 4d06 35be
00000380: 88e0 1b3e 11a0 e13d dee5 1b3e e3ff 823e
00000390: 1ea0 033e 55e7 74be fc59 f43c 8009 083e
000003a0: afd4 2dbe 355f d23e 89b6 1c3e 26d1 113e
000003b0: e602 213f 0519 8bbc 270e 3cbe 01c9 a63e
000003c0: 2613 d3bc d615 dbbd 2dee 98bd 6e48 c43e
000003d0: 1eff 3c3d 142f 16bd c67f 21be ffd5 c53d
000003e0: 6880 193d c982 16be 549d 2fbe 66c7 283d
000003f0: aec6 ca3e 1c3c ae3e 77f9 4e3e b204 92bd
-0.12610441 -0.32803375 -0.19513729 0.15845019 -0.12146428 0.15334694 -0.002316172 -0.13565548
0.14364854 0.0065454277 0.15413813 -0.0032247608 0.25437054 -0.19039027 0.51592743 -0.072609596
-0.15477769 0.16978051 0.18925235 0.17095031 -0.5005136 0.059907023 0.072152264 0.105512835
-0.060710054 0.1855974 -0.102753654 0.1517033 0.06835346 0.1611817 0.10041976 -0.10806315
-0.21490596 0.09154262 -0.07409999 -0.14208956 -0.067786746 -0.19186775 0.11063497 -0.105400085
-0.0022955912 -0.29803842 -0.11834304 0.18456824 -0.20188178 0.0587135 0.035499457 -0.074798845
0.0069716815 -0.01454467 0.012925092 0.16958512 -0.13293499 0.046765134 0.12636979 -0.07185752
0.08038811 -0.19272111 -0.12109831 0.36066717 -0.20588133 -0.44542235 -0.17832014 -0.17932329
0.1568531 0.6791119 -0.6905147 -0.16015959 -0.237468 -0.1160785 0.022543114 0.002436807
0.21338123 0.12546597 -0.30099547 0.011212853 -0.036094148 -0.16499366 0.11697667 -0.23993972
0.11810731 -0.23496987 -0.1594563 0.22684035 -0.40359208 -0.07399986 0.12698962 -0.05122266
0.008163779 0.15522699 0.14921331 -0.15355507 -0.02714476 -0.10876212 0.075971104 -0.049466006
0.055587202 0.09073426 0.16406554 -0.102886535 0.011825404 0.13874254 -0.26306543 0.258229
-0.11106965 -0.11730365 0.2115425 0.20259178 -0.75316036 0.109813094 0.35131818 -0.17692183
-0.2091916 0.04922854 -0.3885093 -0.18178941 0.046166502 0.18712582 0.13989256 0.07971565
-0.0933706 -0.11177044 -0.23551536 0.21073695 -0.48927063 -0.47006166 0.10982792 -0.51684505
0.09404287 -0.9434295 0.67371994 -0.1079831 0.11810019 -0.07995355 0.06420227 -0.18423352
0.12712818 -0.16565298 -0.18831417 0.10716383 -0.29653984 -0.039105292 -0.33382884 0.23286562
-0.07232297 0.18186949 0.026487203 -0.13231145 0.5505961 -0.09974754 -0.18661588 -0.005757687
0.20008078 0.06951744 0.2047315 -0.21786173 0.19240487 -0.037001688 0.046722468 -0.1066924
0.0105932895 -0.08757143 0.051987432 -0.024780702 0.07258261 -0.08406378 -0.06577527 0.028019251
0.024205193 0.30661532 -0.21749586 0.087969154 0.6312015 0.032140378 -0.23468721 0.49013934
0.15990889 0.107825086 0.16958061 0.32192737 -0.059016686 -0.19259539 0.09680226 -0.17902687
0.002134912 0.11523544 0.21377066 -0.09435467 0.520398 0.9863215 0.19961187 0.36336797
-0.19746895 -0.56111586 0.5802934 0.20596567 0.24641661 0.19741109 0.16419911 -0.17880182
-0.061010007 -0.24075407 -0.074639924 -0.17292029 -0.17788331 0.09651867 -0.08458647 0.21759047
-0.13242966 0.05968245 0.119171634 -0.08391343 0.033113208 -0.23323408 0.10031341 -0.052526914
-0.10480189 -0.19128603 0.20337462 0.19926888 0.011554587 -0.2554924 0.113161065 -0.17678185
0.1522237 0.11016858 0.15224406 0.2558585 0.12854049 -0.23916371 0.029828064 0.13284874
-0.16975664 0.41088262 0.15304007 0.1423994 0.6289505 -0.016979704 -0.18364774 0.3257523
-0.025765967 -0.10697524 -0.074673034 0.3833651 0.046141736 -0.03666599 -0.15771398 0.09659957
0.037475973 -0.14698328 -0.1714986 0.041205786 0.39604706 0.34030235 0.20212351 -0.07129802

fc1.weight f4 [512, 64]
00000000: 06f1 0b3d 50a8 2e3c 6299 d83d 3880 f1bc
00000010: 1a66 7dbd 8c2c b43d cf3d aa3c 3add 82bd
00000020: e4e0 db3d 6ec1 4cbc f06a 71bd 7f8a 8fbc
00000030: 0ce8 893d 252f bc3d 9ce4 20bd 6d8f 123d
00000040: b4f8 c9bd f60e 9e3d eafd c43c 833b f3bd
00000050: 0bf4 e13d 47a6 0f3d d0ee a23d 3e10 ffbd
00000060: ac07 af3d 4180 d43d 0f86 f4bc 80f9 493d
00000070: b65d 39bc f8ee b03d 7268 593d db0e a7bd
00000080: 5f66 d7bd dd00 79bd 8291 043e bb02 7cbd
00000090: 487f bcbd be10 fcbc 122d f83d 8462 633c
000000a0: 61ed c6bd 58d5 c83c 0302 e0bd 59bb 5d3d
000000b0: e6d4 dcbd 7ec4 e7bd 789d 503d 91fd bebd
000000c0: 3670 5dbd 99dc aebc dddf bcbd 3da2 e6bd
000000d0: c843 ef3d a8ee 12bd 38f3 e3bd e533 c93d
000000e0: a39a c93d 102c 793d c7e2 c23d df49 99bd
000000f0: 4c8d 843d 62f4 ec3c 652a e93d 16e3 cd3d
00000100: a0d6 c8bd dcf1 59bd dfcf 793d a21f 94bc
00000110: f0ee ad3c 3d03 37bc 6f94 063d bf12 07bd
00000120: 5aa3 f7bd 59e3 a53d 9d81 d1bd 1bf0 e5bd
00000130: 0617 133d 953a 5dbd 9bca 08bc bd02 943d
00000140: 97af b03d b68f a73b daa1 be3d c821 4e3d
00000150: 0d03 a03c ded8 89bd 9dd3 d43d 26ec e2bd
00000160: 3f13 b7bc 3427 b53d e480 673c 6a12 2c3d
00000170: 4515 e23c 4c76 ab3d 2ae3 e33c 46a2 92bd
00000180: d142 baba 187d 6d3d b27b ad3d 3928 71b8
00000190: 8b9a e43d 733c 693c 181a f9bc 8176 e6bd
000001a0: 59cc 00bd 9e2e cf3d 7e41 d4bd bcd3 34bd
000001b0: 7eea ce3c d6ea c93d 42e3 c6bd b245 b53d
000001c0: 062d 1ebc 53a3 b73d 5dfb de3d f818 bebd
000001d0: ff13 ddbc b7bd 293c 88d9 953d 6b55 4dbd
000001e0: 95d2 083d 53fa 533d eb0a c9bd 0996 b33d
000001f0: 974f 0e3e 4d2f a03d b059 103d c5d2 8a3d
00000200: 9243 9fbe 4162 d5bc d66f 503c c42c 8f3d
00000210: 9dc2 2bbc 29e6 693d 147f a7be 0ddd c6bb
00000220: f9c8 073e a363 fabe db46 703e f7d8 0dbe
00000230: 842d 2e3d 81d7 5abc bf83 21be 0af1 ec3e
00000240: b3a1 de3e f79d 84be 5ab5 123e 0297 843d
00000250: a3e4 103e d858 083e eaa9 47be 037f 45be
00000260: 652f 5a3e 55d9 34be 3958 583b 7120 1bbd
00000270: 9d8b 773e ccd9 a0be 7161 873e 177b c73d
00000280: 0744 9c3e e646 9cbd 1e98 213e d989 c4bd
00000290: 333f 6c3d 03a5 e6be d385 fa3e b2ce 133d
000002a0: 0350 783b d836 2d3e 243d 11be f932 9d3e
000002b0: a5cd afbe 9752 e23d 4d06 c4bd 423e 35be
000002c0: a3e0 be3d 70b3 07bf f2ff ca39 39a9 82be
000002d0: e4c7 2abd 2d8d 96bb 1f04 2ebe 8d27 68be
000002e0: 0107 a23e f309 913d 4d7f a33c c8a2 25bf
000002f0: a0d8 d93c 784e ed3e 4e91 c5bd e55c 013e
00000300: 62f5 0dbe 0edc 52bd 1a35 42be f3c2 263b
00000310: 2ab4 4abe 6807 9ebd df48 0e3e 2ed7 56be
00000320: 4caa 9cbe 58bc d03d 5af5 71bb 1f7b 163d
00000330: 9943 5fbd 92a0 4a3f 2c26 06bf 46b1 723d
00000340: 3641 6e3e 8603 723d 2e84 56be 55a8 633d
00000350: 72ca a93d 18c7 15be a7d8 963d b0eb f1bd
00000360: e636 723d 922c 89bd 83fb 2a3e 1b8d aabd
00000370: 062e 35bd 0571 083e 932f b7bb 5a6d ca3c
00000380: 07e5 983d 5c4e 1b3e c96e d4bd 01ae cc3d
00000390: 81c4 0abf 7047 2cbe e8ff 11bd 63c3 1bbe
000003a0: c4c0 7d3e 5318 d7be 33e6 b2bd a550 32bd
000003b0: a818 4dbd d392 ea3d d219 89be f90d 46bd
000003c0: 3ee6 593d 2095 b63d 1220 4b3d bdcf 11be
000003d0: ac32 163d b5ec 3fbe 31ff 0fbe 0a41 02be
000003e0: a3f5 853d b581 7bbf 6054 743f 1142 2e3c
000003f0: 386b a93a 7137 713d 8e97 633d e5f7 bebd
0.034165405 0.010660246 0.105761304 -0.029480085 -0.06186495 0.08797559 0.020781426 -0.06389852
0.10736254 -0.012497289 -0.058939874 -0.017522095 0.067337126 0.091886796 -0.03928052 0.035781313
-0.098618895 0.07717697 0.024046857 -0.11876585 0.110328756 0.035070684 0.07955706 -0.1245427
0.08546385 0.10376025 -0.02984908 0.049310207 -0.011313846 0.0863933 0.053078122 -0.0815713
-0.105175726 -0.06079184 0.12946132 -0.06152604 -0.092039645 -0.030769702 0.121179715 0.013878468
-0.09713245 0.024515793 -0.10937884 0.054133747 -0.10782795 -0.11316775 0.050931424 -0.09325708
-0.05406209 -0.021345424 -0.09222386 -0.11261413 0.1168285 -0.03587213 -0.11130375 0.09824351
0.09843948 0.060833037 0.095159106 -0.07484793 0.06472263 0.028925125 0.11385039 0.10053079
-0.098065615 -0.05320917 0.060989257 -0.01808149 0.021232098 -0.011170206 0.0328564 -0.032976862
-0.12091704 0.08100004 -0.102298 -0.11227437 0.03591063 -0.054010946 -0.008349086 0.07227085
0.08627241 0.005113567 0.093082145 0.050325185 0.019532705 -0.06730817 0.103919245 -0.11080198
-0.022348044 0.08845368 0.014129851 0.04200975 0.027598033 0.08372173 0.027818281 -0.071598575
-0.0014210587 0.057980627 0.08470859 -5.7496338e-05 0.11162289 0.014235604 -0.03040795 -0.112530716
-0.03144488 0.101163134 -0.10364054 -0.044147238 0.025258299 0.098592445 -0.09711315 0.08851184
-0.009654289 0.089666985 0.108877875 -0.09282106 -0.026987074 0.010360173 0.073168814 -0.05013029
0.03340395 0.0517524 -0.098165356 0.08768851 0.13897549 0.07821522 0.035241783 0.06778482
-0.3110624 -0.026047828 0.012721976 0.0699096 -0.010483411 0.057104263 -0.3271414 -0.006068832
0.13260259 -0.48904142 0.23464529 -0.13852297 0.042523876 -0.013357044 -0.15772913 0.46277648
0.43482742 -0.25901768 0.14326993 0.06474115 0.14149718 0.13315141 -0.19498411 -0.19286732
0.21307142 -0.1766103 0.003301157 -0.037872735 0.24174352 -0.31416166 0.2644153 0.097402744
0.3052065 -0.0763071 0.15780684 -0.09596605 0.05767746 -0.4504777 0.48930225 0.036085792
0.0037889488 0.16915452 -0.1418348 0.30702952 -0.34336582 0.11050909 -0.09571514 -0.1769953
0.0932019 -0.53008175 0.00038719137 -0.25519732 -0.041694537 -0.004594466 -0.1699376 -0.22671337
0.3164597 0.07081976 0.019958163 -0.6470151 0.026592553 0.4634893 -0.09646855 0.12633093
-0.13863137 -0.05147939 -0.18965569 0.0025445789 -0.1979529 -0.077162564 0.13894986 -0.20980522
-0.30598676 0.10192174 -0.0036919923 0.03673851 -0.054507826 0.7915126 -0.52401996 0.059251092
0.23267063 0.05908539 -0.2094886 0.055580456 0.082905665 -0.1462673 0.07365542 -0.11812532
0.059134386 -0.06697954 0.16697507 -0.08327695 -0.044233344 0.13324364 -0.005590388 0.024710346
0.074655585 0.1516661 -0.10372693 0.09994126 -0.5420609 -0.16824126 -0.03564444 -0.15211253
0.24780566 -0.42010745 -0.08735313 -0.04353394 -0.050072342 0.11453786 -0.26777512 -0.04835317
0.05319809 0.08915162 0.04959113 -0.14239402 0.03666942 -0.1874264 -0.14062192 -0.12720123
0.06540992 -0.9824479 0.95441246 0.010635869 0.001292563 0.058890764 0.055564456 -0.09324626

fc1.bias f4 [512]
00000000: a6c5 d7bd a084 f5bd 2dbf 19bd 89a3 bb3c
00000010: e09b cc3c 6e63 3b3d d079 873d 1894 943c
00000020: 10c9 273d 4615 fbbd 288c debd 41ab 4b3d
00000030: f977 e13d 42ca 423e 2cd4 84bd c88b 14bd
00000040: f930 893d 7606 443d d64c 17bd 2b6b 7bbd
00000050: be5d 643d b871 3b3e ad00 bd3d f01e 923d
00000060: e68b 7d3b bb53 f63d e52c ff3d f95a f23c
00000070: 339e 243e 6caf 9d3d 04fe aa3d c2b0 663d
00000080: 0f1c d9bd 3be8 1abd d414 233d ae99 103e
00000090: 5570 0cbe daba 0e3e 9e70 ed3c f93b eabd
000000a0: 844a 403e 6cb7 f0bd 4830 a9bd 54c1 ddbd
000000b0: f306 133e 90b6 c73d c9ba b0bd 5234 313e
000000c0: 1791 a83c cedf dfb9 324c aabd fade c4bd
000000d0: dc0e e93d f8c1 ddbc fe37 d0bd f9a8 85bd
000000e0: 8fc9 243e 400f 083d 0891 debd c7f7 7a3d
000000f0: 0289 c8bd f089 d6bd 1629 d0bd a634 e8bd
00000100: 8ee1 ec3d 2e97 263e 74ad a6bd e6d4 01be
00000110: d40b b2bd 0e49 c7bc ef05 993c 8da5 0a3e
00000120: 8076 2cbd 1eda a6bd a667 343e bab0 1bbd
00000130: 4db5 babd ded2 ab3d eb57 ee3c 27ec 7dbd
00000140: e24b 343e f309 323e 2ee7 c3bd 2a1d 423d
00000150: 8142 a4bd e821 92bd 5097 e7bd 76c3 88bd
00000160: 46f2 233e c3ad ccbd b011 e8bd 175e 673e
00000170: a68c cdbd b419 a63d 2a9c 583d 0d05 663d
00000180: ded5 b83d bc42 153e 48cf 093e cf68 d63d
00000190: de52 2f3e 8817 0fbe c363 353e 1c85 043e
000001a0: 9b93 d63d ed42 ea3d 9ea7 9abd 3450 0d3d
000001b0: 8eca d2bd 3564 f8bd 9d8c 91bd 1915 253e
000001c0: ad20 073d 4a03 943d a4db 15bd 587e 313e
000001d0: a524 1f3e 5be1 1d3e 069c 553d c012 e6bd
000001e0: 0af0 d3bd 25a5 023d 6f57 0b3e 8726 973d
000001f0: b69a debd f06b 353d bf31 e5bd 0f0b 2d3e
00000200: 869c dfbd 1956 2a3c 62be babd 29ca 06bb
00000210: 0674 a53d 0b30 8a3a 40d0 d03d 2c46 04bd
00000220: 97d7 4a3e 66a1 013e 67c8 77bc f65b 383e
00000230: 6ed6 003e bb38 df3d 936c d0bd 4f6e 893d
00000240: 366c 603d 597f 2cbc 64b4 12bc 7320 a23d
00000250: a710 19be 9356 7bbd 569d 9dbd 48b3 553e
00000260: 14d2 353d 70e0 1f3c 4368 553e 09d5 49bd
00000270: 2c6b 723d aa26 21be a164 bcbd 237c b4bd
00000280: 7294 54be a9e0 693d 726b 043e c95f 1ebe
00000290: 509e e9bd b648 ea3d 8222 24be 5b26 12bd
000002a0: 0c28 97bd f0eb 04be 98aa e33d 06cf cbbd
000002b0: 5218 debd bb7a f2bd fdac cabd a4c4 813d
000002c0: 0039 c23c 3c9c d8bd f876 d7bd 1c7a 863d
000002d0: 1e83 a9bd 515c 8cbd bf61 433e 7714 15bd
000002e0: 7c50 c13a f67c 08bc 0241 473e 6329 febc
000002f0: 735e 02be d586 c33d d6ca c6bd 898e 1e3d
00000300: 0835 5e3d f6b4 323d e093 42bd 567b 173e
00000310: a768 f3bd a83f e4bc b3b5 7bbe 862c cebd
00000320: 5e0f d4bd 2847 05be 3fff 03bd 44d9 e53d
00000330: 7b71 acbd f98d d9bd 1d40 113e 0552 1bbe
00000340: 0e2b b63c 03d8 ec3c 7cb6 b93d 224a 593d
00000350: 2619 dcbd f697 483e e276 fe3c e0ea 863d
00000360: 2b8a dd3d 39bf 4c3d 2f83 b8bd 6383 0b3d
00000370: 403c b03d ba72 063d 7bdf 073e e757 213e
00000380: b7b5 b93d 345a f3bd dc61 a73d c59d 223e
00000390: 52fb cdbd a00b c33d adab d83c c981 a63d
000003a0: 899a f5bb ea86 d83c dcfb 263d eefd debd
000003b0: 96a2 ab3c a4e2 233d da7a 1cbd e437 0cbd
000003c0: b14a c33d 41b0 d73d 693e a5bd 071b 6b3d
000003d0: e5c6 423e 1f34 18be 8e1c b13c b84a 3f3e
000003e0: 2541 6c3e 828a b9bd 83e0 323e 0000 7dbd
000003f0: 32be 86bd d94b 043c f55d fa3d 800b 7fbd
-0.10535745 -0.11988187 -0.037535835 0.022905128 0.02497667 0.04574912 0.06615031 0.018137023
0.040963233 -0.12259917 -0.108665764 0.049723867 0.11009211 0.19022468 -0.06485781 -0.03626612
0.06698794 0.047857724 -0.03693851 -0.0613815 0.055753462 0.18305099 0.092286445 0.07134807
0.0038688122 0.12027689 0.12459735 0.029584395 0.16075973 0.07699475 0.08349231 0.056320913
-0.10601055 -0.03781913 0.039814785 0.14121124 -0.13714726 0.13938466 0.028984364 -0.1143722
0.18778425 -0.11753735 -0.08261162 -0.1082789 0.1435812 0.09751618 -0.086293764 0.17305115
0.020576997 -0.00042700622 -0.08315314 -0.09612842 0.11379787 -0.02707003 -0.1016693 -0.065263696
0.16092514 0.03321767 -0.10867506 0.061271455 -0.09791757 -0.10475528 -0.101640865 -0.11338167
0.11566459 0.16268608 -0.08138552 -0.1267887 -0.08693662 -0.024326827 0.018679587 0.13539715
-0.042105198 -0.08147071 0.17617664 -0.038010336 -0.09116612 0.08389829 0.029094657 -0.06199279
0.17607072 0.17386608 -0.095655784 0.047391094 -0.08020497 -0.07135373 -0.113081574 -0.06677906
0.16010389 -0.0999408 -0.113314986 0.22594486 -0.10036592 0.08110371 0.052883305 0.05615716
0.09025167 0.14576238 0.13457978 0.104692094 0.17121455 -0.1397382 0.17713837 0.12941402
0.10477372 0.11438546 -0.07551502 0.034500316 -0.102925405 -0.12128488 -0.07106898 0.1612133
0.032990146 0.0722719 -0.03658642 0.17333353 0.15541323 0.15417998 0.05215075 -0.11234045
-0.10348518 0.031895775 0.13607572 0.073803954 -0.108693525 0.04429239 -0.11191129 0.1689875
-0.10918526 0.010396504 -0.09118344 -0.0020567274 0.0807877 0.0010542882 0.101959705 -0.032293484
0.19808803 0.12659225 -0.015123463 0.1800383 0.12581798 0.10899492 -0.10176959 0.06710493
0.054790698 -0.010528409 -0.008954141 0.079163454 -0.14947759 -0.06136186 -0.07696025 0.20869172
0.0443898 0.0097581 0.20840554 -0.04927543 0.05918424 -0.15737405 -0.09198881 -0.0881274
-0.20759752 0.05709902 0.12931612 -0.15466227 -0.11407149 0.1143965 -0.16028789 -0.03568111
-0.07380685 -0.12980628 0.111165226 -0.09951596 -0.108444825 -0.11839815 -0.09896276 0.06336334
0.02370882 -0.10576674 -0.10520738 0.06566259 -0.08276962 -0.068535455 0.19080256 -0.03639647
0.0014748718 -0.008330574 0.19458392 -0.031025594 -0.12731342 0.095472015 -0.09706657 0.03871015
0.054249793 0.04362961 -0.047504306 0.14793143 -0.11885195 -0.027862385 -0.24581032 -0.10067086
-0.103544936 -0.13015425 -0.032225844 0.11223081 -0.08420082 -0.10622782 0.14184614 -0.15168007
0.022237327 0.028911596 0.09068009 0.053049214 -0.10746984 0.19589218 0.031062547 0.065877676
0.10817369 0.04998705 -0.09009396 0.034060847 0.08605242 0.032824256 0.13268845 0.15756188
0.090678625 -0.11882439 0.08172962 0.15880497 -0.10057701 0.09523702 0.026449049 0.08130223
-0.0074952287 0.02643152 0.040767536 -0.10888277 0.02095155 0.040011063 -0.038203098 -0.03423299
0.09535731 0.10531665 -0.080685444 0.057398822 0.19021185 -0.14863633 0.021620061 0.18680847
0.23071726 -0.090596214 0.17468457 -0.061767578 -0.065792456 0.008074724 0.12224952 -0.062266827

fc2.weight f4 [256, 512]
00000000: b2d9 e73c 22cd 0ebd 3f76 f2be e913 04bf
00000010: 7201 e6be eb5e 9b3b 1e25 f83b fb2a 8d3b
00000020: 369c 19be 014c b9bc 9e65 36bd 4d54 283c
00000030: d597 403e 0d41 463d dbd8 c0bb f950 fbbe
00000040: d1f5 e6bc 2b1d cb3c 19b2 33bd 5669 653d
00000050: 2f91 07be 4a1a 883d 3add a23c d95f fc3d
00000060: 2105 21bc a4b9 fb3d 4745 293e 0537 35be
00000070: 16ae ae3c 05b9 55bd b909 ea3c e1da 323b
00000080: 7a05 8abe 68da 52bd 9498 61be 9e44 afbd
00000090: 1ec8 1dbd 9b4d 3a3d 07c3 ebbe c114 0bbc
000000a0: cb0d 5b3e 6521 14bd 158c fdbc 8979 133d
000000b0: 9db7 383d 78b7 8fbd 4fd4 efbe c766 4d3e
000000c0: e126 fdbc f33f a13d 8ea3 1bbc efd4 21bd
000000d0: 112c 383d 5037 a1be 0028 a938 c6dd 6f37
000000e0: e6f5 143e f31a 80bc 30c4 603b a363 4e3d
000000f0: b2f6 ab3c cde2 193d 926b fabc 2428 643c
00000100: 202d 3e3d 7fd3 113d 970c 393d b08e c9bc
00000110: 182b 41bc a0e6 c8be c48b 67bd 78c9 8e3e
00000120: 2f6b 2abd f0ba 70bb f98a f03d c91a 97be
00000130: 6c71 c2bc bc7e fa3d 928b abbd 605f 313c
00000140: 36e3 ec3d b3b1 3a3e f166 50bc 23ae 7f3d
00000150: 0904 063d c16e 91bd 76dd 8abc d81c d6bb
00000160: 3d79 893e b6c5 80bc 5407 8f3c ae03 8f3d
00000170: 50fe 31bb 4de0 06bc cf09 923d 7736 6d3d
00000180: adc1 d23d 6c45 ff3d 1bc6 053e e3dc e13d
00000190: 1f45 af3d 76a8 f0bd e726 0bbc 4758 57bd
000001a0: 0934 033d 485e 413e efe2 0f3c c1e4 213a
000001b0: 73d0 863c 337d 44bd 8e17 f0be cca7 3f3d
000001c0: 6119 48bd 5016 3b3e fc40 613c 36a7 7b3d
000001d0: df0f 2a3d 2b4f cf3c fd8b 3bbd ec4e 0fbc
000001e0: a0dc 0abd bc4f fe3c 9ff1 4f3e de70 b53d
000001f0: 76c8 2dbd 5896 88bc 998d 70be 16f8 843e
00000200: 0328 8ebc 2e8d 8f3c 4ce8 4fbc c581 b73d
00000210: b06c 063e 5abf 10be f895 793d 580c a5ba
00000220: 7d57 d13d 998e 2d3d b8b8 86be b3ac 593d
00000230: 1983 6b3e 9adf df3d 82db 9e3c a2e8 34bc
00000240: 29c2 a3bd 20f9 7dbe 89bc fdbd 5c6c b83d
00000250: c868 b6be 9d54 1abe d24a d13c 91cf e73c
00000260: 0b26 5f3d f64b 043d 3aa0 383e 99ee 3b3c
00000270: ffc0 20bd 0c5e 75be eefc 1ebe 3ffa 883c
00000280: 4fa5 de3d 5d3d 87bd 154e af3c f13f acbe
00000290: 6115 2e3d 095d b23d 481b 83be 5e91 c2be
000002a0: 135f 52bc 45dd a2be e484 193e 7543 34bd
000002b0: b755 c6bc 3d48 343d 487f cd3c d48e 82bc
000002c0: f5f5 9e3d 4637 27bd d7b4 113d 88ee 2e3c
000002d0: 4041 10bb e08a 05bd 6cba 403e ff6b 77bd
000002e0: 365f d83b 863a 19bf 6487 3e3d ed34 813d
000002f0: c802 f8bc c2a9 173d 1ee5 fa3c 7351 4e3d
00000300: 1814 883d 1461 073d e948 273d e40d 4a3d
00000310: 066a 57bc 2021 5b3c 75b0 cabe 85e6 ce3c
00000320: 6ddb 84be 4cc7 9ebd 2bd8 9cbb e958 993d
00000330: de7a 87bb eb6e 8c3d e0b6 563e 2ec4 d2be
00000340: 880a 983c ec79 36bb 0c96 a13d 0a8b 89be
00000350: a3e6 23bb e74e c53d 2ba7 9abd bc38 073d
00000360: f781 eb3d bda6 d5bc 0d5e c8be d72e 573b
00000370: 3e2e c23d e1b7 0c3d 9192 773d 1d1b 87bc
00000380: 5d28 b63d 7029 2fbb 2d8d cd3d ac66 2d3d
00000390: d54f 0ebe e177 ec3d fd6f b8be 2417 a43d
000003a0: 4108 713d 65c8 843c 45d7 bebe 0441 02bc
000003b0: ee47 bd3c 45e9 5bbd 9336 fdbe 094e 293d
000003c0: 3397 393e a128 383c 725c 99be c67b 4b3e
000003d0: 2c2b 6ebd 7758 81be 6209 79be bc52 e53d
000003e0: 484e 3e3e 4f1d 013d 3a8f 2a3d 16b8 2bbd
000003f0: 6a2b cc3c 6b14 68ba 4c34 ebbc 16c1 443b
0.028302047 -0.0348636 -0.4735584 -0.5159288 -0.44922978 0.0047415397 0.007572784 0.004308102
-0.15000996 -0.02261925 -0.044530503 0.010274005 0.1880792 0.04840188 -0.005885226 -0.49085215
-0.028193386 0.024794182 -0.04387102 0.05600866 -0.13238977 0.06645639 0.01988088 0.12322969
-0.009827883 0.122912675 0.16530333 -0.1769677 0.021323245 -0.0521784 0.02856909 0.0027291107
-0.26957303 -0.05147782 -0.2203086 -0.085580096 -0.038520925 0.045484167 -0.46047232 -0.008488835
0.2139198 -0.03616466 -0.030950585 0.036004577 0.045096982 -0.07017416 -0.46841666 0.20058738
-0.030902328 0.078735255 -0.009499444 -0.03950971 0.0449639 -0.31487513 8.0659986e-05 1.4297146e-05
0.14546928 -0.01563785 0.0034296624 0.05038799 0.020991657 0.03756981 -0.030568872 0.013925586
0.046429753 0.03560209 0.045178022 -0.024604172 -0.0117900595 -0.39238453 -0.056529775 0.27888083
-0.041606124 -0.0036732517 0.11745257 -0.29512623 -0.023735724 0.12231204 -0.0837623 0.010825962
0.115667745 0.1823185 -0.012719856 0.06242193 0.032718692 -0.07101203 -0.016951304 -0.0065342
0.2685031 -0.015719276 0.017459549 0.06983124 -0.0027159639 -0.008232188 0.07130777 0.05791327
0.10290847 0.12464413 0.13063852 0.11028459 0.08558106 -0.117508814 -0.008493162 -0.052574422
0.032032046 0.18883622 0.0087821325 0.00061757496 0.016456818 -0.04797096 -0.4689297 0.046790883
-0.04885233 0.1827023 0.013748404 0.06143876 0.041519042 0.025306305 -0.0457878 -0.008746844
-0.03390181 0.03104388 0.20307015 0.08859418 -0.042427503 -0.016673252 -0.23491515 0.25970525
-0.017353063 0.017523374 -0.012689661 0.089602984 0.13127398 -0.14135495 0.060934037 -0.001259218
0.10221765 0.04237232 -0.26312804 0.053143214 0.22999229 0.109313205 0.019391779 -0.011041792
-0.079960175 -0.24802065 -0.12389476 0.09005043 -0.35626817 -0.1507134 0.025548372 0.028297218
0.05447964 0.032299004 0.18029872 0.01147046 -0.039246555 -0.23961657 -0.15526173 0.01672089
0.10871374 -0.06603501 0.021399537 -0.33642533 0.042500857 0.08709151 -0.2560675 -0.3800153
-0.01284005 -0.3180944 0.149921 -0.044009645 -0.024210794 0.044014204 0.025085106 -0.015937246
0.07761756 -0.040824197 0.035572853 0.0106769875 -0.0022011548 -0.032603145 0.18821114 -0.060405727
0.006603147 -0.59854925 0.046515837 0.06308923 -0.030274764 0.037027128 0.03062683 0.050370645
0.066444576 0.033051565 0.040841017 0.049329653 -0.013147837 0.013374597 -0.3958775 0.025256405
-0.2594866 -0.077528566 -0.0047865114 0.074876614 -0.00413452 0.068570934 0.20968199 -0.41165298
0.01855971 -0.0027843667 0.07889947 -0.2686389 -0.0025009296 0.0963419 -0.07551416 0.03301309
0.11499398 -0.026080484 -0.39134255 0.0032834315 0.09481476 0.034355048 0.06044251 -0.01649242
0.088944174 -0.002672758 0.10036693 0.042334244 -0.13897641 0.115463026 -0.3602294 0.08012226
0.058845762 0.016208837 -0.37273613 -0.007950071 0.023105588 -0.05368926 -0.494557 0.041334186
0.18124084 0.011240155 -0.29953343 0.19871435 -0.05814664 -0.25262806 -0.24319986 0.11197421
0.1858455 0.03152209 0.041640498 -0.041923605 0.024923045 -0.000885314 -0.02871146 0.0030022315

fc2.bias f4 [256]
00000000: 34bc e03c 751f 6c3c d468 ccbc b562 97bb
00000010: ed6f ff3d 2aea 3d3b 2966 033d 53dc 2fbd
00000020: 8860 bd3d 620b 48bd de4f a0bc fb28 4bbd
00000030: c386 02bd 8167 8d3b fe27 bdbc 888b 7d3c
00000040: b242 6dbc 7434 a73b e523 57b9 f01c 2fbc
00000050: 6aca e6bc be42 0ebd 730b 04bc 935c 0a3e
00000060: de00 243c 1535 453c b0f3 6dbd d15f 4cbd
00000070: df20 9e3c a23c db3d 28b2 cabc 5b84 c2bb
00000080: e85c 59bb adde 8b3d 5661 223d 4f80 c93b
00000090: c229 56bd c109 12bd f426 ab3b e053 bc3d
000000a0: 0e56 453d cc87 863a f5bb 3d3d 4216 abbc
000000b0: 9a02 853a e907 8d3d 718e 2fbd fcdb 443a
000000c0: e455 803b 4175 3bbc 6e2e aabd 5423 d6bc
000000d0: df7b 3abd 6e03 9e3c 9b5b 3b3d 5c94 80bd
000000e0: 05dc 21bd a380 623d aca6 853d ae26 a73d
000000f0: 8ac7 8cbc e426 1fbd 1008 823c fbb0 0b3e
00000100: 2511 303b bc46 c3bc 1475 6fbc f329 a7bd
00000110: 1aee eebc 83e1 093e 3350 123e 2804 b4bc
00000120: 7581 7bbb ec52 37bc 88f7 09bd 8946 13bd
00000130: 2e41 a0bd 1d02 a43d 8f08 3cbd 90fb f3bc
00000140: 4d34 1d3e 1150 9e3c 338e c139 534e 993d
00000150: a2c7 1f3d ac1d 533a 71e6 f7bc 4d80 0cbd
00000160: 1d8f 3e3e 0c76 48bd 089a 9e3d 3ec0 4ebc
00000170: f1ae e3bc 38bb 60bd 2034 183d 216b 15bd
00000180: d4cc 1d3d 6ee8 bdbc a698 81bd d99f 5a3d
00000190: 8579 033e 4cda 983d 789b 5a3d eb6d df3d
000001a0: 1fca 7e3c 43e9 2c3c 8a61 38ba 4f7a cc3d
000001b0: 60b9 6a3d b52d 0ebd 811e 0abe db64 d6bb
000001c0: b441 e6bc 716f 813d 9cf1 62bd 3280 17bc
000001d0: 0129 f6bd 02b4 8abc e706 4cbd 07ce 04bc
000001e0: 2642 983d 4055 013e a157 213c dbbc e43b
000001f0: f9b1 66bd 2f70 c43c e4e2 9c3d 3661 b93d
00000200: eb4a 923d 4e18 3cbd a497 db3d 59a5 d43c
00000210: 4d35 3abd f00c 2d3c 84e0 983d 8de6 fe3c
00000220: b73c ab3c 141d 68bd 04fb 35bd 8fb9 c1bc
00000230: 5c26 383c 48d0 06bd aa70 b8bc 951f a0bc
00000240: 1c80 6e3d 8cd4 9ebc 7bcf 063e 41fe a03d
00000250: 4980 4ebc a082 44bc cb8c 703b 642a 743d
00000260: 17e3 8d3c 8ad0 09bc e26c 54bd ac9c 9c3d
00000270: 77a4 46bd f0fe 9dbc 3a50 4e3d c39b 22bd
00000280: 7a4e 26ba 3b30 09bd fb33 283c d5f1 efbc
00000290: 8f32 263c d922 08bd 8352 da3d 3a97 043b
000002a0: 229b 86bd 3038 353d b1d9 d8bc 42a0 28bd
000002b0: 16b6 d0bc b291 233d 1405 3abd 2e87 c43d
000002c0: 37b4 1a3c 0831 5fbd 78ab 703b 37a8 d83c
000002d0: d6a1 c53d 0ea6 463d 86e6 87bd 6791 bc3d
000002e0: a8b7 e93b 22b3 a63c dde9 4b3d bc8f 06bd
000002f0: 95f5 f5bc fce8 fabc 6302 0d3d bb24 0ebc
00000300: 62b6 cb3c e13c c5bc a6dc 1dbd cc8a b43c
00000310: 9339 643d 6ea0 c23c 769a 883d a504 24bd
00000320: 71ba 923b 2190 023d 1da1 4e3d e767 4d3c
00000330: b9b6 7dbd 28ea 603d 4866 0c3d c323 04bd
00000340: e4fa 2fbc 3e62 d83c 7864 5cbd 66c5 443c
00000350: 22de d83b 7727 6d3d aa3f 59bd 53db 3bbd
00000360: 932a 5d3c 47fd 88bd efdb 343c 8189 e0bb
00000370: 2901 ac3d c6f4 66bd 9ce8 28bd 8515 6bbd
00000380: 9db3 053d 348d 64bd d578 1b3c e341 94bd
00000390: 4b8d 0abd 10f5 a2bb 086d 623d 6e66 2d3e
000003a0: 185e 08bc 67d5 e6bc 351e ee3c 8a2b f5bc
000003b0: c651 34bd d72d bcbc fd3a adbc 5422 023d
000003c0: 3de2 60bd 5311 2fbd 5629 d9bc 5ca6 763d
000003d0: e43b 4f3d fbaf 19bd d964 c6bc 7930 a5bb
000003e0: ebc0 d33c 5b90 123e 0205 2abd 61ad 783d
000003f0: b252 bebc 7b41 5a3d cdaa b43d db22 4bbc
0.027433492 0.014411797 -0.02495233 -0.004619921 0.1247252 0.0028978684 0.03207985 -0.042934727
0.092469275 -0.04883898 -0.019569334 -0.04959963 -0.0318668 0.004315317 -0.023090359 0.015475161
-0.014481233 0.0051026884 -0.0002051737 -0.010688052 -0.02817269 -0.03473162 -0.00805937 0.13511877
0.010009972 0.0120365815 -0.058093727 -0.049896065 0.019302784 0.10704924 -0.024743155 -0.005936188
-0.0033166949 0.068295814 0.039643608 0.006149329 -0.052285917 -0.035653833 0.0052231494 0.091956854
0.04817777 0.0010263859 0.046321828 -0.020884637 0.001014787 0.06886274 -0.042860452 0.0007509587
0.003916489 -0.01144153 -0.08309637 -0.026139893 -0.04552829 0.019288745 0.04574166 -0.06278297
-0.039516468 0.05529846 0.06525931 0.081616744 -0.017184991 -0.03885545 0.015872985 0.13641731
0.0026865688 -0.02383744 -0.014615316 -0.08162298 -0.02916627 0.13464932 0.14288406 -0.021974638
-0.0038376723 -0.011189204 -0.03368333 -0.03595594 -0.07824932 0.080082156 -0.0459066 -0.02978304
0.15351982 0.019325288 0.00036917775 0.07485642 0.039008744 0.00080534327 -0.03026125 -0.034302045
0.18609281 -0.048940703 0.07744223 -0.012619076 -0.02779338 -0.054866046 0.037159085 -0.03647912
0.038525417 -0.02318212 -0.063279435 0.0533751 0.12839325 0.07463512 0.053370923 0.10909637
0.015551119 0.010553661 -0.00070335774 0.09984266 0.057305694 -0.03471156 -0.13488199 -0.0065427846
-0.028107502 0.06320084 -0.055406198 -0.009246873 -0.120195396 -0.016931538 -0.04981127 -0.008105761
0.07434492 0.12630177 0.0098475525 0.006980521 -0.05632207 0.023979275 0.076604635 0.09051745
0.07143196 -0.045921616 0.107222825 0.02595775 -0.045460988 0.010562167 0.07464698 0.031115795
0.020902975 -0.056668356 -0.04442884 -0.023648052 0.011239614 -0.032913476 -0.02251466 -0.01954631
0.058227643 -0.01938846 0.13165085 0.07860995 -0.012603828 -0.011994034 0.0036705013 0.05961074
0.017320199 -0.008411536 -0.05186165 0.0764707 -0.04849669 -0.019286603 0.05036948 -0.039699327
-0.00063440914 -0.03349326 0.010266299 -0.02929012 0.01014389 -0.03323636 0.10660269 0.002023174
-0.06572558 0.044243038 -0.02647099 -0.04116846 -0.02547745 0.039933868 -0.045415 0.09596096
0.009442381 -0.05449012 0.0036723297 0.026447399 0.096500084 0.048498206 -0.06635766 0.09207421
0.0071324892 0.020349089 0.049783576 -0.03285192 -0.03002433 -0.030628674 0.034426104 -0.008675749
0.02486724 -0.02407688 -0.038540505 0.02203884 0.05571897 0.02375814 0.06670086 -0.040043492
0.004477792 0.031875733 0.05044662 0.012536979 -0.061941836 0.05491081 0.03427723 -0.032260668
-0.010740969 0.026414033 -0.053806752 0.012009954 0.006618277 0.057898965 -0.05303923 -0.04586346
0.01349892 -0.06688934 0.011038764 -0.0068523292 0.08398659 -0.056385778 -0.04123746 -0.05739357
0.032641996 -0.055798724 0.009489258 -0.072391294 -0.033826154 -0.0049730614 0.05527976 0.16933605
-0.008323215 -0.02817793 0.029067138 -0.029927988 -0.044023298 -0.022971077 -0.021146292 0.03177102
-0.054903258 -0.04274113 -0.026508968 0.060217246 0.050594226 -0.037521344 -0.02421801 -0.005041179
0.025848826 0.1431288 -0.041508682 0.060712222 -0.023232792 0.053285103 0.0882164 -0.012398447
