data/predictor/Ablation/7_TNetwork-F_2024-06-30_13-45-41.pt (torch, 865655 bytes, 16 tensors)

conv1.bias f4 [64]
0.00060956116 0.004416338 -0.030372398 -0.0058776005 -0.0034870224 0.0036557142 -0.025864746 0.076523595
-0.043792006 0.0021722598 -0.009877036 -0.0018766267 0.017090091 -0.009244982 -0.01407807 0.08363389
-0.024351355 -0.0058062403 0.09619987 -0.027165096 -0.014409504 -0.045959994 -0.050036352 -0.035313047
0.025554622 -0.04917375 0.16206694 -0.0022360934 -0.03835272 0.026210917 -0.02489492 0.05372006
0.030723521 -0.074527 -0.05074463 0.0066931527 -0.0076041142 0.006413426 0.02297361 -0.047221582
-0.02105837 -0.0679188 0.03917642 -0.00024084628 0.043824974 -0.03188958 0.009951381 0.034662656
0.015773665 -0.0037739836 -0.0014831037 -0.047014978 0.0154900085 -0.01577935 0.0023177275 0.09667321
-0.04699497 -0.011174297 -0.00510327 -0.04573219 -0.047738593 0.040426422 0.050664537 -0.013872513
00000000: f5ca 1f3a eeb6 903b 89cf f8bc e398 c0bb
00000010: 8786 64bb b594 6f3b 4ee2 d3bc 67b8 9c3d
00000020: 3f5f 33bd 795c 0e3b 4bd3 21bc 25f9 f5ba
00000030: 8500 8c3c 4478 17bc b5a7 66bc 3f48 ab3d
00000040: 7e7c c7bc 4642 bebb 7004 c53d 5689 debc
00000050: d715 6cbc 8c40 3cbd ebf2 4cbd 6aa4 10bd
00000060: ed57 d13c 6a6a 49bd e0f4 253e 6c8b 12bb
00000070: be17 1dbd 47b8 d63c 6ef0 cbbc 9109 5c3d
00000080: e5af fb3c 9da1 98bd 9ad9 4fbd 3c52 db3b
00000090: ef2b f9bb b727 d23b 2733 bc3c 6b6b 41bd
000000a0: 9a82 acbc 0319 8bbd 7477 203d ae8b 7cb9
000000b0: d181 333d a69e 02bd 1e0b 233c 6efa 0d3d
000000c0: c637 813c f054 77bb b464 c2ba c792 40bd
000000d0: cec9 7d3c b243 81bc 04e5 173b 9bfc c53d
000000e0: cc7d 40bd 6614 37bc 5539 a7bb ad51 3bbd
000000f0: 8b89 43bd 2d96 253d 9e85 4f3d 8949 63bc

conv1.lin.weight f4 [64, 6]
-0.011382697 0.07300391 -0.09467085 0.4527453 -0.11085491 -0.057587244 -0.006720292 -0.7078215
-0.16072398 0.26345813 0.15929383 -0.27613458 0.016664064 -0.3158917 0.041886333 0.39945364
-0.12117696 0.41184905 -0.009495281 0.039206848 0.13376625 0.1763788 -0.2310054 0.84775853
0.20682174 -0.3561313 0.0062942295 0.013546296 -0.06711325 -0.37152314 0.066977315 0.1803383
0.11924564 0.37626705 -0.070130795 -0.2489109 0.105236754 -0.10085116 0.41425538 -0.15349174
0.20864809 0.49528393 -0.5840739 -0.36058503 -0.32396388 0.33742905 -0.18503493 -0.45503134
0.16468422 -0.13385734 0.14248252 -0.0041486383 -0.019724458 0.29089105 -0.11744404 -0.36647847
-0.36278522 0.34524506 0.2563703 0.56498665 0.22239515 0.14680596 0.3073148 -0.08956181
-0.2553083 -0.63381296 0.10090527 -0.17276274 0.51025164 0.1341466 -0.0637819 0.111862965
-0.07345829 0.12172728 0.3937775 -0.15364416 -0.09350155 0.4118529 -0.0404067 -0.19836201
0.43397495 0.37157243 0.11938564 0.6438352 -0.04454231 0.18226445 0.34289232 -1.5460756
-0.18715298 0.96050304 -0.1746826 0.011474721 0.46553484 0.07320701 -0.0973014 0.54315925
0.19641024 -0.059461758 0.21989349 -0.951115 -0.02353406 0.52671087 0.20404416 0.23561929
-0.37998658 -0.28497785 -0.21900599 0.121371545 -0.5135178 -0.109178334 -0.05107802 0.527211
-0.29169065 0.6891402 0.07574503 -0.054049216 0.23413 -0.863401 -0.18719894 0.4814793
0.21394496 0.0025813025 0.19086231 -0.027410159 -0.16547728 0.17255679 0.110313684 -0.120721914
0.34358987 -1.3296992 0.08114682 0.8047113 -0.68184775 0.2869268 -0.16065583 -0.87522966
0.14958061 0.80955774 0.074541 0.29518923 -0.37236524 0.08013851 -0.17841351 -0.38530976
-0.11408033 0.026200783 0.50489205 0.10574144 -0.18197092 0.5569749 0.22511071 0.22605048
-0.013500139 0.20756635 0.21507584 -0.23795907 -0.9861563 -0.41354007 0.20829171 0.3305418
-0.16848858 -0.39708975 -0.03528198 -0.04072444 0.26750088 0.10912557 -0.20260468 0.122318506
0.26726878 0.11981027 0.35210362 0.0038740195 0.058451623 -0.56814283 -0.04051869 0.32793796
0.41921824 -0.095272854 -0.24374343 -0.10808656 0.147177 0.048745353 -0.030157493 0.084750466
-0.004573733 -0.15048856 -0.059134945 0.03090643 -0.7271693 -0.9183221 -0.06045291 0.74720526
-0.1727111 0.40669802 -0.84246534 0.29626393 0.1533485 0.2563515 -0.04746966 -0.08391243
-0.04659888 -0.090418264 0.14114936 -0.023746789 0.20798503 0.011146225 0.24736796 -1.3784932
0.19438559 0.8894759 0.020288587 -0.12545991 0.09435382 0.3775047 -0.27614516 0.07358703
0.12533219 -0.28438592 -0.1999502 -0.18814878 -0.21163541 -0.2732479 -0.004997493 0.26171145
-0.353695 -0.13328718 0.12157553 -0.29515886 -0.43109885 -0.09831478 0.15765782 0.35866937
0.17495698 0.41207683 0.1773361 -0.21234828 0.18797415 -0.25320533 -0.28915986 0.6398649
0.010142125 0.22298506 -0.43637803 -0.20787479 0.26210663 -0.35066712 -0.24314234 -0.27659377
0.027648807 0.014236595 0.17236665 -0.2926995 -0.13651544 0.12287374 0.4449276 0.11368038
00000000: 7e7e 3abc 1383 953d cae2 c1bd 3bce e73e
00000010: e607 e3bd 9ae0 6bbd e535 dcbb ca33 35bf
00000020: d494 24be fce3 863e ec1d 233e 8361 8dbe
00000030: 1383 883c 8fbc a1be 0191 2b3d 3085 cc3e
00000040: a02b f8bd e1dd d23e 1892 1bbc 5c97 203d
00000050: 05fa 083e a59c 343e ae8c 6cbe b406 593f
00000060: 14c9 533e d756 b6be d33f ce3b 49f1 5d3c
00000070: ac72 89bd 4838 bebe 672b 893d 9aaa 383e
00000080: 0f37 f43d 13a6 c03e bca0 8fbd 80e2 7ebe
00000090: 5e86 d73d 0e8b cebd 4819 d43e f02c 1dbe
000000a0: d8a7 553e db95 fd3e de85 15bf 9a9e b8be
000000b0: 98de a5be 80c3 ac3e cc79 3dbe def9 e8be
000000c0: fba2 283e e611 09be f0e6 113e 4df1 87bb
000000d0: 3095 a1bc acef 943e 8086 f0bd 11a3 bbbe
000000e0: fcbe b9be f6c3 b03e f842 833e f7a2 103f
000000f0: 8ebb 633e 4d54 163e 5e58 9d3e 2f6c b7bd
00000100: c5b7 82be 9141 22bf 6ca7 ce3d b7e8 30be
00000110: da9f 023f ba5d 093e 16a0 82bd 6918 e53d
00000120: 4d71 96bd 274c f93d 349d c93e e554 1dbe
00000130: be7d bfbd 62de d23e 7f81 25bd 691f 4bbe
00000140: f731 de3e be3e be3e 7580 f43d 62d2 243f
00000150: ff71 36bd 88a3 3a3e 958f af3e cee5 c5bf
00000160: 08a5 3fbe 87e3 753f ffdf 32be 7800 3c3c
00000170: 955a ee3e 8fed 953d f545 c7bd 7c0c 0b3f
00000180: c41f 493e 2c8e 73bd c22b 613e 467c 73bf
00000190: 80ca c0bc 86d6 063f f4f0 503e 2f46 713e
000001a0: 9a8d c2be 9ee8 91be 1b43 60be a591 f83d
000001b0: e775 03bf e498 dfbd 3037 51bd 4df7 063f
000001c0: 7a58 95be 7e6b 303f 3620 9b3d b662 5dbd
000001d0: c6bf 6f3e d907 5dbf 14b1 3fbe 7484 f63e
000001e0: 6314 5b3e 122b 293b 6971 433e 458b e0bc
000001f0: e072 29be bab2 303e 24ec e13d 0d3d f7bd
00000200: 03eb af3e 9533 aabf 4e30 a63d 8f01 4e3f
00000210: 938d 2ebf 12e8 923e f682 24be 0d0f 60bf
00000220: a92b 193e 2d3f 4f3f f4a8 983d 0b23 973e
00000230: a8a6 bebe a91f a43d 08b2 36be 5247 c5be
00000240: f3a2 e9bd 06a3 d63c 9b40 013f f88e d83d
00000250: 9656 3abe e895 0e3f 6c83 663e c779 673e
00000260: b02f 5dbc 468c 543e d73c 5c3e 8bab 73be
00000270: bd74 7cbf 86bb d3be 6c4a 553e c63c a93e
00000280: 4588 2cbe 594f cbbe d683 10bd acce 26bd
00000290: e0f5 883e 3a7d df3d 9a77 4fbe 2082 fa3d
000002a0: 74d7 883e 165f f53d ed46 b43e 43e3 7d3b
000002b0: f86a 6f3d cf71 11bf edf6 25bd 7ce7 a73e
000002c0: c6a3 d63e 6a1e c3bd e197 79be 7d5c ddbd
000002d0: 91b5 163e 35a9 473d d90c f7bc a791 ad3d
000002e0: 41df 95bb ac19 1abe 7c37 72bd 7b2f fd3c
000002f0: c427 3abf 2817 6bbf 789d 77bd d848 3f3f
00000300: 2edb 30be b93a d03e cfab 57bf e8af 973e
00000310: 6407 1d3e 8140 833e 8c6f 42bd 48da abbd
00000320: 78de 3ebd 362d b9bd 7589 103e a088 c2bc
00000330: 07fa 543e a89e 363c 074e 7d3e 7772 b0bf
00000340: 040d 473e b1b4 633f 4034 a63c 9078 00be
00000350: 933c c13d 4c48 c13e e662 8dbe ccb4 963d
00000360: 1557 003e 089b 91be bfbf 4cbe 13aa 40be
00000370: f4b6 58be 26e7 8bbe 02c2 a3bb 0bff 853e
00000380: 8317 b5be 6f7c 08be 97fc f83d 101f 97be
00000390: fdb8 dcbe 4259 c9bd 0d71 213e 83a3 b73e
000003a0: ec27 333e bcfb d23e 9897 353e d471 59be
000003b0: 4c7c 403e 21a4 81be c30c 94be 30ce 233f
000003c0: 282b 263c 3256 643e f16c dfbe 21dd 54be
000003d0: d732 863e a48a b3be 4efa 78be b39d 8dbe
000003e0: c07f e23c 9b40 693c e280 303e b5dc 95be
000003f0: b4ca 0bbe 3aa5 fb3d 8dcd e33e 42d1 e83d

conv2.bias f4 [64]
0.0073465277 -0.0078144865 -0.039013665 0.0049294615 0.014510693 -0.03778399 0.014633556 -0.052164666
0.032108072 -0.0038126304 -0.07698085 -0.025629127 -0.0053146207 -0.0247786 -0.029855415 -0.035637684
0.015441594 -0.019254714 -0.07038358 -0.0073099495 -0.021716738 0.024259401 0.009174512 -0.016024478
0.009842625 -0.023313556 0.0051073167 0.020805625 -0.016573353 0.018297536 -0.026416175 -0.006598384
-0.003941018 -0.0885636 -0.056684714 -0.029338254 -0.03181321 -0.012336423 -0.010019277 -0.032011505
-0.029605264 -0.011423463 -0.002214788 -0.03400652 0.01758054 -0.03626897 0.013130905 0.011340363
0.0106956335 -0.019935878 -0.031676337 0.025219299 0.0026217282 -0.012664597 -0.015943771 -0.009016643
0.0009450362 0.0066681853 -0.0059017595 -0.00060044235 0.0055902433 0.007936694 0.010420815 0.0064458186
00000000: 24bb f03b 5508 00bc cbcc 1fbd 5287 a13b
00000010: 42be 6d3c 63c3 1abd 95c1 6f3c 9eaa 55bd
00000020: c183 033d 53dd 79bb 23a8 9dbd 2df4 d1bc
00000030: 4526 aebb 7efc cabc 5893 f4bc d2f8 11bd
00000040: bdfe 7c3c 10bc 9dbc 4425 90bd 4d88 efbb
00000050: 4de7 b1bc a7bb c63c b150 163c c445 83bc
00000060: f642 213c 12fc bebc 475b a73b 8f70 aa3c
00000070: d7c4 87bc b7e4 953c bc66 d8bc 4237 d8bb
00000080: a823 81bb d560 b5bd 3b2e 68bd c756 f0bc
00000090: 924e 02bd b51e 4abc e527 24bc 7f1e 03bd
000000a0: bd86 f2bc 7a29 3bbc fa25 11bb 6c4a 0bbd
000000b0: 1105 903c c68e 14bd 0223 573c eecc 393c
000000c0: bd3c 2f3c 9150 a3bc 0cbf 01bd b498 ce3c
000000d0: 4dd1 2b3b 2b7f 4fbc 839c 82bc 8bba 13bc
000000e0: 4ebc 773a cb80 da3b 8c63 c1bb 0167 1dba
000000f0: 5c2e b73b e808 023c 11bc 2a3c 7237 d33b

conv2.lin.weight f4 [64, 64]
0.33716738 -0.09482661 0.043398038 0.38202715 0.010693716 0.05642936 -0.16889586 -0.35492465
-0.15629941 0.095445424 -0.21657147 0.2783796 -0.14139941 0.19030574 -0.192658 0.12947972
-0.3084317 -0.45188445 0.3818214 -0.075845055 -0.18975876 0.050899167 0.14699046 -0.37246788
0.38865623 0.008483162 0.38419876 0.035974707 0.17252983 0.068639114 0.01969153 -0.28916305
-0.8258849 0.15416713 0.08200825 0.103669025 -0.35315663 -0.05551269 -0.033423252 -0.07744357
-0.13395749 0.028737413 0.009069947 -0.23398478 -0.48294675 0.12038275 -0.07984365 -0.6800348
-0.055619664 -0.17349383 0.13490076 -0.023351412 0.095305055 -0.2594668 -0.3650494 0.21063642
-0.13028987 0.0070234956 0.39055064 0.03419512 0.08064401 -0.0003246531 -0.11050748 -0.27617076
0.25440255 0.046287186 -0.13101013 -0.12197463 0.10210015 -0.12656665 -0.047608882 -0.25333807
-0.076460585 0.16239908 -0.1886858 -0.08371607 0.16992304 0.26752323 -0.2452604 0.31804627
0.12044281 0.14643839 0.17877312 0.05285665 -0.04513723 -0.029255956 0.6454209 -0.24475628
-0.015233881 -0.14433156 -0.06036596 0.19233027 -0.05562422 -0.03580989 -0.008735793 -1.161818
-0.31265754 -0.18266074 0.00860137 0.042862967 -0.039920416 0.12893708 -0.14912443 0.0150938295
-0.10299645 -0.0816074 0.32764244 0.0038633689 -0.05411813 0.21608406 -0.0641061 -0.6224957
-0.14038597 0.1493888 0.13440198 0.018346723 0.10065259 0.17205368 -0.25087407 0.02262765
0.09080064 -0.033038177 0.60501295 0.18797596 -0.081552476 0.21391203 -0.4703908 -0.12272692
0.03582419 0.005021199 0.08345857 -0.12144557 0.10575166 0.15794727 0.084357224 0.5967775
0.1354109 -0.04374665 0.054671858 -0.0058026672 0.19197866 0.10676817 -0.1318878 0.1930332
-0.053394273 0.09275597 0.15253203 -0.02108234 -0.19950353 0.0465704 0.14019744 0.15763871
0.07331599 0.124523394 -0.1566445 0.056886178 0.06516913 0.043531235 0.08850843 0.18687685
-0.06599653 0.051368754 0.035191074 -0.19641252 -0.08156054 -0.14014469 -0.18590872 -0.16379692
0.10993884 0.095379405 -0.15693316 0.20307133 0.05401334 0.035260987 0.0141914515 -0.10691224
-0.052207764 -0.24522208 -0.16414024 0.14924285 0.049622264 -0.029039348 0.06366814 -0.12555249
-0.056355786 -0.22834772 0.00904805 -0.060780417 -0.06901104 0.25878587 0.13333254 0.05786843
0.039838694 -0.10019387 0.1917881 0.027339404 -0.05843869 -0.0625431 -0.20824955 -0.40086156
0.10195954 -0.20560487 0.026171625 0.13290866 -0.14337628 0.018441092 0.042609144 0.20854238
0.1956798 -0.099133745 -1.687584 -0.13993931 0.10036495 -0.13840422 0.41562608 -0.13104704
-0.045973964 0.16569704 -0.3462488 0.112023376 -0.06776549 -0.23381248 0.084497035 0.023122458
-0.072920606 -0.10837768 -0.04663621 0.08871827 -0.013726077 -0.09901549 -0.61504364 0.026198698
-0.14169537 -0.17890057 0.23182136 0.46969786 0.16964939 0.0771642 -0.016505752 -0.14596526
-0.0008619625 -0.10828936 -0.051648457 -0.040190466 0.09512715 0.12807931 -0.22667252 0.20549023
0.16956721 0.24867342 0.07479741 -0.1619506 0.12398651 -0.08620095 -0.06490926 0.19885612
00000000: 34a1 ac3e 7434 c2bd 24c2 313d 1099 c33e
00000010: b234 2f3c 7922 673d 09f3 2cbe afb8 b5be
00000020: f40c 20be e478 c33d e9c4 5dbe c587 8e3e
00000030: 02cb 10be 82df 423e 2448 45be 5596 043e
00000040: c3ea 9dbe 665d e7be 187e c33e a754 9bbd
00000050: 1f50 42be a57b 503d ab84 163e 1cb4 bebe
00000060: f3fd c63e f6fc 0a3c b3b5 c43e 375a 133d
00000070: a9ab 303e aa92 8c3d 2250 a13c 2e0d 94be
00000080: 316d 53bf fddd 1d3e f1f3 a73d 6d50 d43d
00000090: f2d0 b4be 4661 63bd d2e6 08bd bc9a 9ebd
000000a0: 272c 09be b96a eb3c 1d9a 143c b599 6fbe
000000b0: cc44 f7be 3b8b f63d 1185 a3bd c316 2ebf
000000c0: 72d1 63bd 5ea8 31be 6d23 0a3e 764b bfbc
000000d0: 4c2f c33d d5d8 84be c1e7 babe 13b1 573e
000000e0: b56a 05be 5a25 e63b 41f6 c73e 2f10 0c3d
000000f0: b028 a53d 3436 aab9 bf51 e2bd 4166 8dbe
00000100: 0d41 823e a297 3d3d 8527 06be d6cd f9bd
00000110: e219 d13d b09a 01be 8801 43bd 87b5 81be
00000120: 5e97 9cbd f24b 263e da36 41be 5573 abbd
00000130: 4e00 2e3e cef8 883e 8b25 7bbe f6d6 a23e
00000140: b8aa f63d f2f3 153e 4d10 373e 3780 583d
00000150: d1e1 38bd 30aa efbc 4e3a 253f 64a1 7abe
00000160: 8797 79bc a7cb 13be 4c42 77bd 3af2 443e
00000170: 39d6 63bd 64ad 12bd 9220 0fbc 74b6 94bf
00000180: a614 a0be 6b0b 3bbe c3ec 0c3c 1491 2f3d
00000190: 9783 23bd 1508 043e 13b4 18be 1c4c 773c
000001a0: ceef d2bd c821 a7bd c0c0 a73e 9330 7d3b
000001b0: f9aa 5dbd 2445 5d3e 0f4a 83bd e15b 1fbf
000001c0: 57c1 0fbe 61f9 183e aca0 093e de4b 963c
000001d0: f222 ce3d d72e 303e 9172 80be 9f5d b93c
000001e0: b0f5 b93d 0a53 07bd 21e2 1a3f c57c 403e
000001f0: fc04 a7bd c10b 5b3e 10d7 f0be 4058 fbbd
00000200: 63bc 123d df88 a43b 54ec aa3d 74b8 f8bd
00000210: 5494 d83d eebc 213e 7bc3 ac3d 69c6 183f
00000220: 28a9 0a3e b02f 33bd 99ef 5f3d 4d24 bebb
00000230: 0e96 443e 45a9 da3d 980d 07be 7faa 453e
00000240: f4b3 5abd d8f6 bd3d 5b31 1c3e dfb4 acbc
00000250: a74a 4cbe 9bc0 3e3d eb8f 0f3e 0b6c 213e
00000260: b226 963d 1f06 ff3d 6a67 20be 7b01 693d
00000270: 6577 853d cf4d 323d e843 b53d a55c 3f3e
00000280: 3029 87bd 0b68 523d 8424 103d 5d20 49be
00000290: 3609 a7bd 1782 0fbe db5e 3ebe 61ba 27be
000002a0: 9d27 e13d 4756 c33d 16b3 20be eef1 4f3e
000002b0: 183d 5d3d d36d 103d 4383 683c cef4 dabd
000002c0: cfd7 55bd 7f1b 7bbe 6114 28be 1ed3 183e
000002d0: b740 4b3d ede3 edbc 7164 823d d590 00be
000002e0: 53d5 66bd fcd3 69be 463e 143c e3f4 78bd
000002f0: a955 8dbd 957f 843e 5388 083e 7207 6d3d
00000300: e62d 233d 7232 cdbd 1a64 443e e3f6 df3c
00000310: 685d 6fbd 9916 80bd 5f3f 55be ba3d cdbe
00000320: 2ad0 d03d 158a 52be e065 d63c 3519 083e
00000330: 3bd1 12be c611 973c ed86 2e3d 228c 553e
00000340: 4960 483e a206 cbbd c102 d8bf 404c 0fbe
00000350: 248c cd3d d6b9 0dbe f1cc d43e 3231 06be
00000360: 324f 3cbd 7cac 293e 8647 b1be 836c e53d
00000370: a2c8 8abd 8a6c 6fbe c80c ad3d 4f6b bd3c
00000380: 6657 95bd 1ef5 ddbd 9c05 3fbd edb1 b53d
00000390: 57e3 60bc a2c8 cabd 8073 1dbf a79e d63c
000003a0: 9718 11be b631 37be 9462 6d3e 3d7c f03e
000003b0: 92b8 2d3e 4408 9e3d 1237 87bc eb77 15be
000003c0: 53f5 61ba d0c6 ddbd 558d 53bd c29e 24bd
000003d0: 06d2 c23d 3927 033e d71c 68be 086c 523e
000003e0: 07a3 2d3e 3fa4 7e3e 622f 993d 61d6 25be
000003f0: a4ec fd3d 208a b0bd 25ef 84bd f0a0 4b3e

conv3.bias f4 [64]
0.027281653 0.0013094532 -0.011812572 0.0036521663 -0.00791028 -0.00867401 0.0056062345 0.0118080685
0.0058027087 0.009981752 -0.024495197 0.0050092735 -0.016337117 0.016315522 -0.0048808483 0.03028296
-0.014352043 0.040841527 -0.0063702697 -0.032843266 0.017683078 0.041368287 0.032106802 -0.024606103
0.017701274 0.024774672 0.0062208893 0.015940137 0.031933386 -0.0049750814 -0.0149798915 -0.023530941
0.014029402 0.004630373 0.036858436 -0.026475286 0.030333908 0.00072474347 0.009861282 -0.0050278553
-0.01205259 -0.031944335 0.00075059896 -0.01762103 -0.019793022 0.030921746 0.03853396 0.015855957
0.027520541 -0.011294346 -0.010738071 -0.045116104 -0.012512971 0.026459457 -0.033571925 -0.019957026
-0.0008155328 0.018319206 0.020494465 0.044161897 0.00073894666 -0.01163283 -0.0045539555 -0.020431973
00000000: c67d df3c f5a1 ab3a 8589 41bc 2f59 6f3b
00000010: 1e9a 01bc 6f1d 0ebc 81b4 b73b a176 413c
00000020: a624 be3b 818a 233c 27aa c8bc d524 a43b
00000030: 6bd5 85bc 21a8 853c 86ef 9fbb f813 f83c
00000040: d524 6bbc 7249 273d b2bd d0bb a986 06bd
00000050: 1adc 903c cb71 293d 6c82 033d bd92 c9bc
00000060: 4302 913c 41f4 ca3c 9ad8 cb3b e494 823c
00000070: 95cc 023d 0206 a3bb 386e 75bc f6c3 c0bc
00000080: 94db 653c 62ba 973b dff8 163d b3e2 d8bc
00000090: d17e f83c b6fc 3d3a 3791 213c b5c0 a4bb
000000a0: 3a78 45bc 10d8 02bd d8c3 443a fa59 90bc
000000b0: fa24 a2bc 9a4f fd3c c9d5 1d3d 5ae4 813c
000000c0: c272 e13c ec0b 39bc bcee 2fbc aacb 38bd
000000d0: 3403 4dbc 81c1 d83c b782 09bd eb7c a3bc
000000e0: 7bc9 55ba 2912 963c 02e4 a73c 1be3 343d
000000f0: dfb5 413a a097 3ebc 5939 95bb f460 a7bc

conv3.lin.weight f4 [64, 64]
0.081958115 0.030475298 0.13267748 0.014482291 -0.021279452 -0.017940775 -0.004609332 0.194387
-0.00449322 0.12024022 -0.45612308 0.02700739 0.15376113 -0.28859898 -0.07544415 -0.14546126
-0.05772814 -0.07979549 -0.20598686 0.11475263 0.11941658 -0.014404052 0.2406436 0.08635533
0.123469695 -0.065948695 -0.011718076 -0.026545752 0.19494669 -0.22640155 -0.20894693 0.15935993
-0.15574501 0.3379925 0.13658102 0.1576937 -0.13881655 0.16027276 0.03917989 -0.06742616
0.007170799 -0.1540255 -0.18696424 0.012855556 0.2542133 0.107354395 0.047871433 -0.12578784
-0.23414291 0.056898 -0.053031076 -0.24486496 -0.16464473 0.19580264 0.19200109 0.07531806
0.0006997415 -0.16136064 0.18285562 0.22768074 -0.25484988 -0.2168412 0.3180657 -0.15915197
0.14086854 -0.062518835 -0.12522884 -0.1841366 -0.14015943 -0.17795746 0.095754065 0.072800495
0.01575737 -0.17102052 0.28719333 0.17500433 -0.14758275 0.17352593 0.16549891 -0.14718394
0.22150172 0.15378605 0.27082855 -0.06733203 0.08097561 -0.25540534 -0.2484603 -0.13553117
0.10550501 0.06461338 0.035959594 0.030937055 -0.20154181 0.032102305 -0.06558965 0.16887203
-0.058315344 0.42692143 0.16087249 -0.039385222 -0.16395701 0.1614847 0.02835747 -0.11770894
0.16750397 0.21694584 0.14482073 0.20764245 -0.18578483 0.15234375 -0.007815262 -0.09684141
0.2710125 -0.08531535 -0.1288815 -0.055727616 0.06645269 0.012377993 -0.17957984 -0.04482491
0.06039429 0.061551556 -0.036755785 -0.18719967 0.12644503 0.04963967 -0.17184334 0.011344786
-0.33227527 -0.115183145 -0.17670779 0.14934179 0.18653804 -0.118006684 -0.16785954 0.12911798
-0.19571906 0.050278526 0.105708964 0.09131239 -0.18323423 -0.4328351 0.1242298 -0.084253214
-0.17779832 -0.08221765 0.7109941 -0.21897188 0.081075035 -0.13257486 0.11170105 0.018949902
-0.08862904 0.027159635 0.16598053 0.16262527 -0.18777116 0.02756655 0.16733652 -0.12626371
-0.0687629 0.36184707 0.23814595 -0.17687652 -0.019699903 0.15704624 0.006295225 -0.1233971
-0.041685946 -0.08621694 0.1590665 0.16404212 0.18088745 0.06259479 -0.16354501 0.10241808
0.035521388 -0.1569471 -0.10868644 0.005359091 0.10327962 -0.2435061 0.12171133 0.12113764
-0.003927019 0.12429837 0.14589043 -0.25190848 0.13678347 0.087397404 -0.21987356 -0.16000904
-0.14624998 -0.17022213 -0.10030818 -0.149036 0.030573316 -0.019715788 0.09697857 0.065701954
0.09261397 -0.06507114 0.26733333 -0.0034763436 0.10568375 -0.10483665 -0.19054915 -0.22388522
0.14576325 -0.14008029 0.2919167 0.13830683 0.0945385 -0.04784414 -0.24124049 0.23383316
-0.23804578 0.039361298 -0.07438699 0.06368675 -0.0777495 0.22513846 0.1935578 -0.23636948
0.090122186 0.4420015 0.019409996 -0.18432708 -0.17895025 -0.088025935 -0.12953065 -0.083119884
0.15361533 0.118817665 0.31290472 0.12788971 0.18459602 -0.17250232 -0.124620534 0.12827946
0.07096069 -0.16223766 0.19007257 -0.032974325 0.07368239 -0.20184362 -0.08188322 -0.060970083
0.1341186 0.011236845 -0.17344478 -0.111588806 0.2186363 -0.14774479 -0.32308403 -0.12241046
00000000: a8d9 a73d 55a7 f93c 9bdc 073e 2247 6d3c
00000010: 3f52 aebc 88f8 92bc e109 97bb 630d 473e
00000020: dc3b 93bb 8140 f63d f788 e9be 9a3e dd3c
00000030: 8f73 1d3e 3fc3 93be 7682 9abd ccf3 14be
00000040: 5874 6cbd d16b a3bd 38ee 52be 6d03 eb3d
00000050: ae90 f43d f9fe 6bbc 476b 763e 10db b03d
00000060: aedd fc3d 1c10 87bd 2cfd 3fbc 7a76 d9bc
00000070: 1ba0 473e cfd5 67be 2ff6 55be 402f 233e
00000080: 9f7b 1fbe 5a0d ad3e e5db 0b3e 757a 213e
00000090: ed25 0ebe 8b1e 243e 187b 203d ba16 8abd
000000a0: 06f9 ea3b dcb8 1dbe 8e73 3fbe 1ca0 523c
000000b0: 3f28 823e 9fdc db3d d614 443d 87ce 00be
000000c0: 29c3 6fbe e10d 693d 1d37 59bd e1bd 7abe
000000d0: a198 28be 7d80 483e ef9b 443e 5b40 9a3d
000000e0: db6e 373a b93b 25be 813e 3b3e 2425 693e
000000f0: af7b 82be 9f0b 5ebe 82d9 a23e bcf8 22be
00000100: d83f 103e e009 80bd fd3b 00be 4e8e 3cbe
00000110: f485 0fbe 7b3a 36be b51a c43d 6d18 953d
00000120: 9a15 813c 0120 2fbe 010b 933e 5634 333e
00000130: ef1f 17be c8b0 313e 8c78 293e 63b7 16be
00000140: 59d1 623e 177a 1d3e 0aaa 8a3e 60e5 89bd
00000150: 8ad6 a53d 7dc4 82be 606c 7ebe afc8 0abe
00000160: 0313 d83d 0554 843d 5e4a 133d b56f fd3c
00000170: fa60 4ebe b57d 033d de53 86bd caec 2c3e
00000180: 12dc 6ebd 7295 da3e c2bb 243e 6652 21bd
00000190: 59e4 27be 3f5c 253e ed4d e83c 6211 f1bd
000001a0: 2986 2b3e 0d27 5e3e e34b 143e 39a0 543e
000001b0: 613e 3ebe 0000 1c3e 960b 00bc ca54 c6bd
000001c0: 27c2 8a3e d0b9 aebd 83f9 03be a442 64bd
000001d0: 5918 883d 11cd 4a3c c7e3 37be 539a 37bd
000001e0: 0160 773d 7c1d 7c3d 3c8d 16bd 45b1 3fbe
000001f0: ce7a 013e f752 4b3d b3f7 2fbe 7bdf 393c
00000200: fc1f aabe 24e5 ebbd e3f2 34be 0eed 183e
00000210: d403 3f3e 7dad f1bd 5fe3 2bbe 8137 043e
00000220: 946a 48be dbf0 4d3d f17d d83d fe01 bb3d
00000230: c1a1 3bbe 909c ddbe 326c fe3d f38c acbd
00000240: c310 36be ba61 a8bd b603 363f 2a3a 60be
00000250: ab0a a63d b4c1 07be 85c3 e43d d33c 9b3c
00000260: 2483 b5bd e27d de3c cdf6 293e 3d87 263e
00000270: 1547 40be 3fd3 e13c 445a 2b3e 464b 01be
00000280: 90d3 8cbd 0544 b93e 88dc 733e 1e1f 35be
00000290: b161 a1bc bbd0 203e 2d48 ce3b 9eb7 fcbd
000002a0: e2be 2abd 8292 b0bd 54e2 223e a8fa 273e
000002b0: 8f3a 393e b231 803d 5878 27be 92c0 d13d
000002c0: e07e 113d beb6 20be ff96 debd 509b af3b
000002d0: 4484 d33d aa59 79be ca43 f93d 0317 f83d
000002e0: 39ae 80bb 2590 fe3d 4d64 153e 26fa 80be
000002f0: f710 0c3e 69fd b23d 8926 61be 69d9 23be
00000300: 8ec2 15be b64e 2ebe 606e cdbd e59c 18be
00000310: e474 fa3c 0183 a1bc b39c c63d bf8e 863d
00000320: 65ac bd3d 0544 85bd eadf 883e 5ed3 63bb
00000330: b970 d83d 99b4 d6bd 511f 43be 2b42 65be
00000340: f642 153e 3571 0fbe 1b76 953e 4ea0 0d3e
00000350: 679d c13d 38f8 43bd bf07 77be f671 6f3e
00000360: 46c2 73be 5039 213d 3558 98bd 336e 823d
00000370: 213b 9fbd b28a 663e 0434 463e d70a 72be
00000380: fb91 b83d 054e e23e b601 9f3c 3dc0 3cbe
00000390: bc3e 37be f146 b4bd afa3 04be c23a aabd
000003a0: 564d 1d3e ad56 f33d 0c35 a03e 85f5 023e
000003b0: bd06 3d3e 73a4 30be 0d39 ffbd b15b 033e
000003c0: d753 913d a121 26be 62a2 423e 1610 07bd
000003d0: cbe6 963d 18b0 4ebe 64b2 a7bd c4bb 79bd
000003e0: 6356 093e be1a 383c 829b 31be ac88 e4bd
000003f0: 32e2 5f3e 694a 17be 456b a5be 56b2 fabd

fc1.weight f4 [512, 64]
-0.10131988 0.072568655 0.0619781 0.08246352 -0.112538815 0.029078051 0.05322194 -0.037430644
0.05258508 0.096419364 -0.037102118 0.09050208 -0.0769161 0.034827888 -0.07103737 0.00081039965
-0.034298718 -0.08601256 0.010079145 0.001683712 0.119630516 0.065998286 0.0021292567 0.05758892
0.08193651 0.0072318166 -0.010065153 -0.073843524 0.1129317 -0.014943808 -0.029758915 0.07876113
0.0428444 -0.008780003 -0.016135812 0.05685003 -0.07902093 -0.029347867 -0.06376116 0.09430069
-0.10293789 0.069480985 0.028574884 -0.09119135 0.06644681 0.061705068 0.013182938 0.039093733
0.028337806 -0.037396878 0.095836505 0.10550317 -0.09377241 -0.074214086 0.11467682 0.09062335
0.050286084 0.067711756 -0.071960166 -0.05823165 -0.07401098 0.065933675 0.0014965385 -0.029581517
-0.06450851 0.13728827 -0.14313106 0.049829733 0.13451436 0.18342105 0.05872849 -0.11778691
0.02051227 0.004673507 -0.06303303 -0.07218148 0.1809915 -0.23575482 -0.17713334 0.012011155
-0.03087252 -0.101470865 -0.09933203 0.040361032 -0.14603464 -0.2265737 0.00085684314 0.037963834
-0.101563856 -0.09040856 -0.18637122 -0.3746883 -0.1271951 -0.18316656 -0.1400849 0.08040666
-0.14379546 0.0022113859 0.011444118 -0.007663837 -0.1423194 0.015018469 0.06753568 -0.12978075
-0.22732864 0.118934155 -0.096562244 0.20674919 -0.18400453 -0.0026182055 0.16484144 -0.19517964
-0.1334226 0.017283658 -0.053409807 -0.08074 -0.04560269 -0.1133668 0.1754543 0.002799631
-0.05273046 0.109871306 -0.039250426 -0.32722315 0.14406073 0.029917914 -0.12809095 0.034329616
-0.019163841 0.17140803 -0.13196006 0.21557935 0.172085 0.12565471 0.042489413 -0.18723409
0.1666065 -0.10370881 -0.26404724 -0.038531728 0.08721985 -0.1062229 0.007588681 0.038192526
0.054374993 -0.0817637 0.035540592 0.1875827 -0.04430864 -0.18563658 -0.1850391 -0.0105300555
0.06220437 -0.09209933 0.037483748 -0.044291317 -0.21214302 -0.087811574 0.12069336 0.17601229
-0.009301466 0.15649325 -0.06507608 0.118982926 0.060306925 0.10378822 -0.015932007 -0.15154785
-0.094532415 0.11344352 -0.15952305 0.050669886 -0.23247424 -0.12519057 0.03723869 -0.03715262
-0.008022651 0.19466262 0.1245784 0.13407019 -0.100228556 -0.20760365 0.0039024933 0.08733761
0.04886926 0.27808604 0.012498193 -0.35027063 0.17397684 0.043711286 -0.4543465 -0.04270264
-0.0942483 0.012857249 0.020056864 -0.025052737 0.10899824 0.040597174 0.11513867 -0.1778262
-0.06777359 0.0362822 0.04159553 -0.14699431 -0.012974211 0.00586592 -0.10499116 -0.069586545
0.1974497 -0.42887217 0.15650928 0.22976716 -0.10614598 -0.22511478 -0.07688217 0.02381699
0.017797455 0.09386775 -0.10444121 -0.077179916 -0.1516438 -0.15521483 0.22326413 0.051396284
-0.032671288 -0.06753345 0.059855282 -0.0056679007 -0.16298245 0.008481322 0.09034299 0.104760736
-0.0050257295 0.09354877 -0.11758027 -0.03721307 -0.029340079 0.08991392 -0.061263848 0.017884813
-0.097330965 0.15133995 -0.05329136 -0.025129674 0.22999012 -0.033476762 0.14293641 -0.060786217
0.058978572 -0.008909364 -0.193827 -0.2820335 -0.09291027 -0.11415927 0.09283754 0.03132163
00000000: cc80 cfbd e09e 943d c0dc 7d3d a2e2 a83d
00000010: c07a e6bd 1835 ee3c 40ff 593d e050 19bd
00000020: 7463 573d 8477 c53d 64f8 17bd 2859 b93d
00000030: 3086 9dbd b0a7 0e3d 0a7c 91bd 0071 543a
00000040: d07c 0cbd 5a27 b0bd 0023 253c 00b0 dc3a
00000050: d800 f53d 1c2a 873d 008b 0b3b 5ce2 6b3d
00000060: 54ce a73d e0f8 ec3b 50e8 24bc 463b 97bd
00000070: bc48 e73d e0d6 74bc f8c8 f3bc 844d a13d
00000080: 9c7d 2f3d 00da 0fbc 402f 84bc 94db 683d
00000090: bad5 a1bd f06a f0bc 3695 82bd b820 c13d
000000a0: 1ad1 d2bd 0c4c 8e3d e015 ea3c 88c2 babd
000000b0: 4415 883d 74be 7c3d 40fd 573c c020 203d
000000c0: b024 e83c 782d 19bd ee45 c43d 0c12 d83d
000000d0: c00b c0bd 8efd 97bd aedb ea3d bc98 b93d
000000e0: c8f8 4d3d 76ac 8a3d da5f 93bd 5084 6ebd
000000f0: 1293 97bd 3c08 873d 8027 c43a f054 f2bc
00000100: 0a1d 84bd 4c95 0c3e f390 12be 431a 4c3d
00000110: 22be 093e bad2 3b3e 498d 703d 433a f1bd
00000120: 5909 a83c 3824 993b 7617 81bd e2d3 93bd
00000130: d655 393e b669 71be 7162 35be 6fca 443c
00000140: 5ee8 fcbc f5cf cfbd 976e cbbd 9c51 253d
00000150: 1b8a 15be f002 68be c59d 603a f77f 1b3d
00000160: b600 d0bd 2028 b9bd 19d8 3ebe 25d7 bfbe
00000170: 6f3f 02be 0490 3bbe 6b72 0fbe 3fac a43d
00000180: 1e3f 13be e6ec 103b 1c80 3b3c ed20 fbbb
00000190: 2dbc 11be 0610 763c 2650 8a3d 3fe5 04be
000001a0: d7c8 68be c093 f33d 6dc2 c5bd 0fb6 533e
000001b0: af6b 3cbe 3396 2bbb 32cc 283e 2cdd 47be
000001c0: ef9f 08be 7596 8d3c 3ec4 5abd 035b a5bd
000001d0: e3c9 3abd da2c e8bd 4baa 333e 047a 373b
000001e0: e5fb 57bd 3504 e13d 0ec5 20bd cb89 a7be
000001f0: a884 133e 6a16 f53c 462a 03be 369d 0c3d
00000200: 7dfd 9cbc 9685 2f3e 8a20 07be d5c0 5c3e
00000210: 0d37 303e a1ab 003e 6109 2e3d 4bba 3fbe
00000220: e59a 2a3e 4965 d4bd 3331 87be 72d3 1dbd
00000230: 52a0 b23d 648b d9bd 78aa f83b c46f 1c3d
00000240: 50b8 5e3d ba73 a7bd 0393 113d ae15 403e
00000250: fa7c 35bd 8417 3ebe e47a 3dbe 4186 2cbc
00000260: 02ca 7e3d 939e bcbd 8f88 193d d06a 35bd
00000270: 053c 59be 8ed6 b3bd 152e f73d 913c 343e
00000280: 2d65 18bc c43f 203e 9c46 85bd 52ad f33d
00000290: 6504 773d eb8e d43d d783 82bc 5c2f 1bbe
000002a0: 369a c1bd 1455 e83d 035a 23be 3a8b 4f3d
000002b0: ba0d 6ebe f531 00be 9987 183d 582d 18bd
000002c0: 7071 03bc a355 473e f622 ff3d b249 093e
000002d0: a144 cdbd 0d96 54be f9c0 7f3b 10de b23d
000002e0: 222b 483d 4b61 8e3e 39c5 4c3c ac56 b3be
000002f0: fc26 323e 9b0a 333d 1ba0 e8be f7e8 2ebd
00000300: 4105 c1bd 36a7 523c 4b4e a43c 663b cdbc
00000310: 783a df3d 3949 263d d3cd eb3d 1218 36be
00000320: e1cc 8abd a59c 143d 1360 2a3d ad85 16be
00000330: c991 54bc e736 c03b 9b05 d7bd 6483 8ebd
00000340: 4130 4a3e 2295 dbbe f843 203e 1548 6b3e
00000350: 1063 d9bd 7d84 66be 6674 9dbd d91b c33c
00000360: f8cb 913c bc3d c03d 46e5 d5bd 8110 9ebd
00000370: 8348 1bbe a3f0 1ebe 5a9f 643e e984 523d
00000380: 54d2 05bd fa4e 8abd d02a 753d ccb9 b9bb
00000390: dfe4 26be 3ef5 0a3c bf05 b93d cc8c d63d
000003a0: e0ae a4bb 7f96 bf3d edcd f0bd bb6c 18bd
000003b0: 9b5a f0bc ca24 b83d cdef 7abd 2c83 923c
000003c0: 7555 c7bd dcf8 1a3e 0b48 5abd bfdc cdbc
000003d0: 8882 6b3e ee1e 09bd ec5d 123e f8fa 78bd
000003e0: 8493 713d 95f8 11bc 967a 46be b266 90be
000003f0: bd47 bebd 56cc e9bd 9c21 be3d 1c4b 003d

fc1.bias f4 [512]
-0.07768053 -0.1778112 -0.066274196 0.15422249 0.035881847 -0.13955209 -0.053358223 0.1044604
-0.10774949 0.032212973 0.035243902 -0.03856446 0.058083404 0.18106575 0.12848367 0.10475611
0.030006004 0.097283155 0.10053159 0.13422327 -0.118251085 0.09992827 0.1376702 0.24043202
-0.19343372 -0.10834739 -0.09932811 0.036518574 -0.10613919 0.039522976 0.22331926 0.16080494
0.071085066 0.2327223 -0.109939605 0.112622865 0.040918548 -0.020329496 -0.14675786 -0.10805174
-0.05764799 -0.06275089 0.13650212 0.111943685 0.028628157 0.15760814 -0.13982986 -0.11779828
0.105906256 0.1223434 -0.106365964 0.029310685 0.08320049 -0.09734072 0.06684252 0.2073542
0.13254175 0.14877102 0.0289844 -0.15103939 0.15737554 0.11651406 0.08169962 0.031299938
0.14351104 -0.097411245 0.08671332 0.036763117 0.039105352 -0.10767195 -0.14152569 0.097153634
0.09535878 -0.11039909 0.08132423 -0.05208076 -0.07325474 -0.045913555 0.13290842 -0.03868255
0.14588682 0.026174234 -0.16080762 -0.05974685 0.109771475 0.07704624 -0.11600954 0.009017935
-0.056743428 -0.08929105 0.0329433 0.076604724 -0.088152744 0.10649159 -0.11999847 -0.11347772
-0.19881617 0.12979673 0.03300685 0.23036385 0.10900499 0.19097154 0.18012254 -0.10427758
0.17983434 0.035277486 0.090684175 0.06411788 0.057007324 -0.0010344414 0.15360054 -0.060851336
-0.11300651 0.13435708 0.15734544 0.04040082 -0.20527764 -0.12701288 0.221814 0.0801
0.04268238 -0.12408634 0.0991454 -0.08974004 0.11447841 0.07181223 -0.09303381 0.15955862
0.17163123 0.105570935 0.16763137 0.13572808 -0.04168384 0.12440707 -0.05226807 0.06397255
-0.07644801 0.030188246 -0.06563884 0.07157284 -0.098833844 -0.06639375 0.08463577 0.081621215
-0.23242892 0.11795209 0.12155451 0.14499083 0.12649815 -0.095062934 0.14893869 -0.19186538
-0.0674147 0.12669066 0.13250567 0.04879084 -0.11875588 -0.1690783 -0.14260828 0.09230935
-0.17386553 0.17117666 0.1667852 0.23587023 -0.10056335 -0.1743259 -0.19132487 -0.017116655
0.16561832 0.13792105 0.16990441 0.2014897 0.17884386 0.09051936 0.13472822 0.139353
-0.09741028 0.04429703 0.098665126 0.04544839 0.107445925 -0.11900442 0.031443126 0.11535974
-0.19724457 0.11209323 -0.10135134 0.090508 0.033798974 0.029915893 0.11845068 0.08736337
0.12178358 -0.1750999 0.06737216 0.06789602 0.13409528 0.07044393 -0.066674545 0.0745954
0.11545617 0.028689351 -0.094142646 0.095634036 -0.20813902 -0.11341672 0.13867132 0.13443203
0.07731667 -0.101903595 0.17745025 -0.00869944 -0.07462549 0.16125272 0.16669245 -0.11457123
0.088135034 0.09876512 -0.11934967 0.12464697 -0.1297285 0.018236523 -0.19773519 0.13663651
-0.06574553 0.12187518 0.0881418 -0.054070145 0.11533111 0.17114279 0.020296084 0.0323116
0.16382328 0.057220027 0.110290416 -0.20659047 -0.18616268 -0.07170826 0.079199195 0.06706955
-0.0875057 0.016660938 0.09124802 0.07823799 0.097391926 0.1688956 0.21918084 -0.024649939
-0.072481215 0.070804045 0.091421254 -0.10038724 0.0012500025 0.022921124 -0.09028929 0.14083982
00000000: f816 9fbd 2414 36be c4ba 87bd 80ec 1d3e
00000010: d8f8 123d bee6 0ebe 278e 5abd 56ef d53d
00000020: c4ab dcbd c0f1 033d e95b 103d c4f5 1dbd
00000030: dde8 6d3d 4d69 393e 3991 033e 5f8a d63d
00000040: 27cf f53c 643c c73d 82e3 cd3d d371 093e
00000050: a02d f2bd 31a7 cc3d 6bf9 0c3e d033 763e
00000060: 7d13 46be 3de5 ddbd 896c cbbd 8094 153d
00000070: 815f d9bd d8e2 213d cead 643e 0daa 243e
00000080: 0c95 913d c14e 6e3e 0428 e1bd d1a6 e63d
00000090: 359a 273d 0b8a a6bc b147 16be 3b4a ddbd
000000a0: 4c20 6cbd 8a83 80bd 36c7 0b3e bb42 e53d
000000b0: 9985 ea3c 0764 213e 8f2f 0fbe 3a40 f1bd
000000c0: 61e5 d83d 2d8f fa3d 66d6 d9bd f61c f03c
000000d0: 0565 aa3d 925a c7bd bbe4 883d a954 543e
000000e0: 06b9 073e 6e57 183e b170 ed3c 12aa 1abe
000000f0: 0e27 213e ec9e ee3d 2152 a73d 5d34 003d
00000100: 8ff4 123e 8c7f c7bd c196 b13d ec94 163d
00000110: ef2c 203d 1c83 dcbd 1cec 10be 7cf8 c63d
00000120: 774b c33d eb18 e2bd 518d a63d a352 55bd
00000130: 9506 96bd da0f 3cbd 2519 083e 9871 1ebd
00000140: 5b63 153e 596b d63c c1aa 24be 1db9 74bd
00000150: decf e03d 6bca 9d3d 6996 edbd f6bf 133c
00000160: cc6b 68bd 3ade b6bd 8eef 063d f0e2 9c3d
00000170: 6d89 b4bd 4318 da3d c2c1 f5bd 0267 e8bd
00000180: 7796 4bbe 6fe9 043e 3132 073d 80e4 6b3e
00000190: 023e df3d 0b8e 433e 0b72 383e 7c8f d5bd
000001a0: 7e26 383e 207f 103d a0b8 b93d 3c50 833d
000001b0: 8380 693d 1896 87ba 7649 1d3e 403f 79bd
000001c0: f56f e7bd e794 093e 2a1f 213e 557b 253d
000001d0: 4d34 52be aa0f 02be 3623 633e 780b a43d
000001e0: b8d3 2e3d fb20 febd be0c cb3d a0c9 b7bd
000001f0: a873 ea3d 4a12 933d 8388 bebd 5663 233e
00000200: 19c0 2f3e 9335 d83d 8fa7 2b3e 4dfc 0a3e
00000210: adbc 2abd 22c9 fe3d 0b17 56bd 0a04 833d
00000220: c690 9cbd 574d f73c a86d 86bd c894 923d
00000230: 6669 cabd 72f9 87bd 8555 ad3d 0629 a73d
00000240: d901 6ebe de90 f13d 92f1 f83d 7a78 143e
00000250: bb88 013e 5bb0 c2bd 6283 183e 5c78 44be
00000260: b810 8abd 32bb 013e 91af 073e e7d8 473d
00000270: 4836 f3bd dd22 2dbe e807 12be af0c bd3d
00000280: ce09 32be ef48 2f3e bdc9 2a3e f787 713e
00000290: 28f4 cdbd 7d82 32be abea 43be 3a38 8cbc
000002a0: d997 293e 2d3b 0d3e 6cfb 2d3e 5153 4e3e
000002b0: d822 373e 3762 b93d 32f6 093e 8eb2 0e3e
000002c0: 0a7f c7bd cd70 353d f110 ca3d 1728 3a3d
000002d0: 9c0c dc3d 97b8 f3bd 82ca 003d ba41 ec3d
000002e0: 7bfa 49be 2391 e53d 4b91 cfbd 425c b93d
000002f0: cb70 0a3d 2d12 f53c 4596 f23d 91eb b23d
00000300: ab69 f93d 634d 33be 6afa 893d 120d 8b3d
00000310: 4650 093e e844 903d aa8c 88bd 79c5 983d
00000320: 4974 ec3d ee05 eb3c dccd c0bd c7db c33d
00000330: 6522 55be 0647 e8bd dbff 0d3e 8da8 093e
00000340: 3458 9e3d d5b2 d0bd 85b5 353e 1988 0ebc
00000350: 40d5 98bd 6f1f 253e 6db1 2a3e 52a4 eabd
00000360: 2480 b43d 5e45 ca3d 9a6d f4bd e946 ff3d
00000370: 8cd7 04be c364 953c 187b 4abe 71ea 0b3e
00000380: 98a5 86bd b299 f93d b083 b43d a878 5dbd
00000390: b832 ec3d 0e40 2f3e f943 a63c 2b59 043d
000003a0: 4ac1 273e 8c5f 6a3d f1df e13d 748c 53be
000003b0: 6ea1 3ebe c8db 92bd 3033 a23d c35b 893d
000003c0: 3036 b3bd 857c 883c 3ee0 ba3d 3d3b a03d
000003d0: 6b75 c73d f8f2 2c3e f170 603e abee c9bc
000003e0: 0871 94bd b601 913d 113b bb3d d397 cdbd
000003f0: 20d7 a33a 15c5 bb3c 97e9 b8bd 5038 103e

fc2.weight f4 [256, 512]
-0.041233394 -0.051585384 -0.024552215 -0.06715814 -0.017183628 -0.011221498 0.031728398 -0.0043120882
-0.009766404 -0.004230665 0.032581855 0.017939154 0.025964305 -0.021697307 0.03658427 0.00626354
-0.02960977 -0.07808854 -0.0011647713 -0.06750959 0.0011247247 0.011575554 -0.02754792 -0.023252558
-0.06272072 -0.023370907 0.032934632 -0.018151589 0.04215705 0.032172058 -0.042467482 -0.049930487
-0.058739576 -0.062464636 -0.005455252 -0.037928395 -0.038124934 -0.07480961 -0.03196704 0.022047471
-0.009298842 -0.025638707 -0.04269625 -0.079001814 0.034992654 -0.026826141 -0.026456434 -0.026878187
-0.03617535 -0.060436115 0.02667087 -0.011102577 0.00069871766 8.834526e-05 -0.0712738 -0.048237428
-0.017550318 -0.03727953 -0.082920946 -0.0049870536 -0.0640055 0.035802256 0.045303788 -0.04944884
-0.044434253 -0.0043468624 -0.0023005125 -0.06179623 -0.01613416 0.040458765 0.034789447 0.027477216
-0.023354787 -0.026143532 0.0031152635 0.04097156 0.0069865733 -0.034333307 -0.073457405 0.025948752
-0.043710783 -0.05359224 -0.008555591 -0.025802469 -0.05940474 0.04171399 -0.028129939 -0.032223146
-0.030765746 0.007313501 0.00860186 0.05617063 0.02380297 0.013745556 0.015431035 0.007910773
-0.001033024 0.010674448 -0.01649426 -0.03284894 -0.038528495 0.057895973 -0.0060943915 -0.00013938546
-0.017777808 0.016194474 -0.047796033 -0.020517198 0.026023887 -0.03969231 0.012009928 0.03149726
-0.021777792 -0.030528981 -0.08455071 -0.027219016 0.00923161 0.032175597 -0.08021269 -0.00068366225
-0.066350214 -0.034003317 -0.059317287 0.0046458207 -0.014454525 -0.05776028 0.015280902 -0.05954082
-0.0389271 -0.0595675 -0.016207848 -0.04532598 -0.01322175 -0.04807416 0.03910215 -0.052307155
-0.07273419 -0.009248687 -0.036497273 -0.07611959 -0.039955705 0.0005155876 0.0072249067 -0.028892906
-0.045457494 -0.03584644 -0.047866028 0.017793294 -0.06436272 0.034769755 -0.014857497 -0.07616466
-0.014082095 -0.07216736 -0.027395673 -0.038180895 0.023466062 -0.021640908 -0.0063734986 -0.035129875
-0.04470657 -0.09935453 -0.021135595 -0.06009373 -0.03562842 -0.046716608 -0.01761843 -0.07945431
-0.070350625 -0.009954395 -0.032048028 -0.04310102 -0.0750443 0.005019504 -0.053174417 -0.02857111
-0.009378966 -0.060331956 -0.048289046 0.023850324 -0.07067303 -0.020924224 0.017570706 -0.04719636
-0.05252185 -0.02145887 0.03278699 -0.052846543 0.011338547 -0.016464682 0.013920649 -0.033796847
-0.07402265 -0.02194337 -0.038423434 0.009811713 -0.02534746 -0.06293699 -0.039326612 0.0545934
-0.049387358 -0.029397316 0.0063392334 -0.007634227 -0.013458413 -0.03951474 -0.050283972 -0.055865817
0.040062267 0.03680024 -0.0841494 -0.008318911 -0.036799625 -0.04665596 0.03207711 0.013741501
0.00087244227 -0.0009880309 -0.017317913 -0.012498831 0.03888979 -0.033152275 -0.026414905 -0.08531049
-0.004751157 -0.045841552 -0.08483746 -0.041806296 -0.07663449 -0.058672763 -0.031842984 0.003537634
-0.013134945 -0.074934155 -0.022851331 -0.064845294 -0.044128764 -0.04784427 -0.09291875 -0.035610385
0.018610444 0.07812305 -0.012980777 -0.05439735 -0.0952094 0.0041325144 -0.018013464 -0.014600031
0.034287047 0.01567721 -0.00631487 -0.02000782 0.019289147 -0.066294536 0.0062222965 -0.0478057
00000000: 59e4 28bd 324b 53bd ba21 c9bc 358a 89bd
00000010: aec4 8cbc 60da 37bc a3f5 013d 6b4c 8dbb
00000020: 4403 20bc 64a1 8abb 8d74 053d 22f5 923c
00000030: 18b3 d43c 8dbe b1bc 63d9 153d 623e cd3b
00000040: 3090 f2bc e2ec 9fbd 3dab 98ba 7842 8abd
00000050: 806b 933a 64a7 3d3c 2dac e1bc 267c bebc
00000060: b973 80bd 5874 bfbc 77e6 063d a4b2 94bc
00000070: dfac 2c3d d9c6 033d 62f2 2dbd e983 4cbd
00000080: e998 70bd ebda 7fbd f8c1 b2bb ce5a 1bbd
00000090: e428 1cbd c835 99bd dfef 02bd e69c b43c
000000a0: 2c5a 18bc 4408 d2bc 43e2 2ebd b4cb a1bd
000000b0: 7554 0f3d 7fc2 dbbc 2abb d8bc a52f dcbc
000000c0: 9b2c 14bd dc8b 77bd de7c da3c 95e7 35bc
000000d0: 262a 373a 0046 b938 00f8 91bd 9c94 45bd
000000e0: afc5 8fbc 6cb2 18bd 75d2 a9bd 706a a3bb
000000f0: 5115 83bd 63a5 123d 7790 393d de8a 4abd
00000100: b100 36bd 2070 8ebb 32c4 16bb 0b1e 7dbd
00000110: c92b 84bc 17b8 253d 617f 0e3d e617 e13c
00000120: 8a52 bfbc f62a d6bc 7329 4c3b cbd1 273d
00000130: a0ef e43b 15a1 0cbd d670 96bd 7a92 d43c
00000140: 140a 33bd 8983 5bbd c02c 0cbc b35f d3bc
00000150: 6252 73bd 4adc 2a3d c270 e6bc 6bfc 03bd
00000160: 7208 fcbc 18a6 ef3b d1ee 0c3c 2d13 663d
00000170: 72fe c23c 0a35 613c 74d2 7c3c 309c 013c
00000180: 8966 87ba e1e3 2e3c f81e 87bc 9c8c 06bd
00000190: 0ed0 1dbd 5424 6d3d 76b3 c7bb 0028 12b9
000001a0: c4a2 91bc 46aa 843c c6c5 43bd af13 a8bc
000001b0: 0c30 d53c 6794 22bd 4ac5 443c 4503 013d
000001c0: 5767 b2bc ea17 fabc ec28 adbd 6afa debc
000001d0: 2e40 173c 8fca 033d 8d46 a4bd cc37 33ba
000001e0: 9fe2 87bd 1047 0bbd aff6 72bd f83b 983b
000001f0: acd2 6cbc 0b96 6cbd c05c 7a3c 13e1 73bd
00000200: 0672 1fbd 0dfd 73bd 52c6 84bc bca7 39bd
00000210: 0aa0 58bc 69e9 44bd 9329 203d 0740 56bd
00000220: aaf5 94bd ce87 17bc 2a7e 15bd 96e4 9bbd
00000230: 98a8 23bd 8028 073a e9be ec3b d1b0 ecbc
00000240: a331 3abd b7d3 12bd 2b0f 44bd 3ec3 913c
00000250: 9ad0 83bd bb6a 0e3d dc6c 73bc 38fc 9bbd
00000260: 96b8 66bc 7bcc 93bd e46c e0bc 9263 1cbd
00000270: e63b c03c 4648 b1bc c8d8 d0bb 58e4 0fbd
00000280: 3d1e 37bd 637a cbbd 8e24 adbc d824 76bd
00000290: 1bef 11bd ea59 3fbd 8754 90bc f1b8 a2bd
000002a0: fd13 90bd c217 23bc cb44 03bd b28a 30bd
000002b0: d3b0 99bd a77a a43b 6bcd 59bd f60d eabc
000002c0: 3caa 19bc a41e 77bd bcca 45bd c161 c33c
000002d0: 06bd 90bd 4769 abbc 71f0 8f3c f850 41bd
000002e0: 2721 57bd 83ca afbc a74b 063d 9e75 58bd
000002f0: 50c5 393c f1e0 86bc 6f13 643c 906e 0abd
00000300: 3099 97bd 95c2 b3bc e461 1dbd 4fc1 203c
00000310: 7aa5 cfbc 1ce5 80bd f114 21bd 549d 5f3d
00000320: 664a 4abd a4d2 f0bc 58b9 cf3b 8a28 fabb
00000330: ad80 5cbc 35da 21bd 91f6 4dbd 8ed3 64bd
00000340: 5518 243d d9bb 163d 8556 acbd 0b4c 08bc
00000350: 34bb 16bd 521a 3fbd 4a63 033d 0824 613c
00000360: 9cb4 643a d180 81ba 4cde 8dbc e6c7 4cbc
00000370: e74a 1f3d aeca 07bd 1264 d8bc 44b7 aebd
00000380: 98af 9bbb 5ac4 3bbd 43bf adbd 143d 2bbd
00000390: 8bf2 9cbd da52 70bd ca6d 02bd a6d7 673b
000003a0: f433 57bc 1477 99bd b732 bbbc 9ccd 84bd
000003b0: 5dc0 34bd 5af8 43bd 304c bebd 32dc 11bd
000003c0: ee74 983c fafe 9f3d 53ad 54bc c1cf 5ebd
000003d0: 25fd c2bd 0b6a 873b f990 93bc f834 6fbc
000003e0: 9370 0c3d 7e6d 803c f8ec cebb 71e7 a3bc
000003f0: 4604 9e3c 6ec5 87bd 68e4 cb3b e9cf 43bd

fc2.bias f4 [256]
-0.07996961 0.07470613 -0.027060023 -0.00882297 -0.026092838 0.017219739 -0.021279264 0.008631987
0.08463419 -0.0026104813 0.0030561425 0.10657748 0.17246068 0.020962764 0.01776417 -0.028850194
0.07241645 0.1142775 -0.017757617 0.12922028 0.026309414 -0.038354598 0.0995279 0.17158122
-0.04038743 0.00089485507 -0.058212318 -0.058128312 0.02856751 -0.05714904 0.044293277 0.030401926
0.07340151 -0.03210698 -0.033455934 0.114002034 0.15434049 -0.01689449 -0.060356215 -0.015588229
-0.011876223 -0.018988885 0.026417436 0.18680952 0.05993927 -0.07133527 -0.019242581 -0.06293139
-0.0007870523 0.007325566 -0.046029765 -0.047824167 -0.03414464 -0.019064505 -0.022511475 -0.05896377
-0.050852098 -0.004266518 -0.024875943 -0.01698849 -0.011816273 0.11466514 -0.042906303 -0.051343005
-0.061770782 0.08973061 0.021903113 -0.023930933 -0.041314162 0.035374116 0.031522453 -0.049055375
-0.040392905 -0.052691717 -0.08508764 -0.07432046 -0.039587695 -0.014027079 0.10195373 -0.0132722175
-0.012529136 -0.05622893 -0.06095688 0.092943124 0.07766545 0.06170923 -0.0131331645 -0.016604483
-0.028216172 -0.035753004 -0.057471808 0.056499686 0.08574413 -0.006905629 0.014197482 0.005195862
0.050324168 -0.006350492 -0.08432256 0.03719285 -0.020893347 0.07149576 -0.016585303 -0.019540505
0.123341195 -0.04103366 -0.08892748 0.0003836691 -0.013118882 -0.0023218014 0.053886104 0.084350154
-0.0064872648 0.033931997 0.09435426 -0.042844344 0.045776315 0.07620243 -0.047403023 -0.049906347
0.13666552 -0.12900847 -0.036378972 0.004911332 -0.06751425 -0.011856879 0.13937223 0.030859007
0.010906466 0.0043186285 0.025815733 0.0528796 -0.02252223 0.030082721 -0.09315485 -0.03898934
0.12456636 -0.013889464 -0.015470216 -0.036212508 0.0020045391 0.024277003 0.06569845 0.01003068
-0.025889318 0.036419455 0.018997524 0.0013622821 0.032223612 -0.107849896 -0.05421358 -0.039402515
-0.0057986826 -0.025841106 -0.023592196 -0.0006529726 0.038364273 -0.03570902 0.020495294 -0.02618727
0.033080008 0.012211927 -0.03797921 0.15006281 0.018146744 -0.04381085 0.01974708 0.01944807
-0.0473665 0.0959764 -0.010193905 0.01897669 -0.045904856 -0.006277106 -0.08807234 0.030935597
0.05305304 0.030118175 -0.030637193 -0.028789885 -0.009527696 0.09154907 0.061700013 0.03996496
0.023209905 -6.7910376e-05 0.1300821 0.025774727 0.010464068 -0.018425941 0.06368273 -0.032112353
-0.047723256 -0.026112024 0.039150096 0.07534978 -0.028434988 0.16169068 -0.029624455 0.0224445
-0.028103149 -0.0054224622 0.11860621 0.015328358 -0.024457445 -0.03496349 -0.002038202 0.12725925
-0.035708334 0.048585083 -0.036741626 0.086319625 -0.0379472 0.09751735 0.1072807 -0.030848572
-0.00685208 -0.022561196 -0.011333514 -0.031568706 -0.04196637 -0.012283539 -0.038578853 -0.007927148
-0.05414114 0.082957305 -0.03301538 0.008467909 -0.02491636 0.058604453 0.06972251 -0.025777387
-0.044317458 -0.02630551 0.04994359 -0.035626557 0.10014657 0.013927989 -0.015384837 -0.029965555
0.11043904 -0.0736185 0.12939109 0.08413819 -0.044089653 0.022256324 0.00047371996 -0.058017947
0.0748117 0.009787854 -0.028566463 0.0022044752 0.02740443 -0.032897018 -0.020275027 0.07870455
00000000: 1bc7 a3bd 87ff 983d fbac ddbc 388e 10bc
00000010: a6c0 d5bc 6910 8d3c da51 aebc 2d6d 0d3c
00000020: b154 ad3d 9c14 2bbb 9049 483b 4b45 da3d
00000030: 8899 303e 1aba ab3c 2a86 913c 3e57 ecbc
00000040: 134f 943d 520a ea3d 6c78 91bc 5252 043e
00000050: d786 d73c b619 1dbd 49d5 cb3d fdb2 2f3e
00000060: 4a6d 25bd b594 6a3a 0a70 6ebd f417 6ebd
00000070: 6906 ea3c 1d15 6abd de6c 353d 760d f93c
00000080: 8853 963d 9c82 03bd 1709 09bd e679 e93d
00000090: 6f0b 1e3e 5066 8abc 1438 77bd c565 7fbc
000000a0: 7d94 42bc 948e 9bbc 6169 d83c ff4a 3f3e
000000b0: e182 753d 3a18 92bd 9ea2 9dbc 2ce2 80bd
000000c0: 3052 4eba 4d0b f03b b589 3cbd 46e3 43bd
000000d0: 40db 0bbd 2a2d 9cbc fc69 b8bc fe83 71bd
000000e0: 4a4a 50bd 26ce 8bbb a2c8 cbbc 722b 8bbc
000000f0: 0b99 41bc 8fd5 ea3d 85be 2fbd 0b4d 52bd
00000100: 5c03 7dbd afc4 b73d 286e b33c ce0a c4bc
00000110: 0a39 29bd 73e4 103d b01d 013d 4aee 48bd
00000120: 0873 25bd 45d3 57bd 6e42 aebd 5335 98bd
00000130: b526 22bd d5d1 65bc 1ecd d03d b773 59bc
00000140: 0147 4dbc 4e50 66bd ecad 79bd f758 be3d
00000150: 100f 9f3d d1c2 7c3d 7c2c 57bc 2006 88bc
00000160: 9a25 e7bc be71 12bd 8f67 6bbd 376c 673d
00000170: 9e9a af3d 9d48 e2bb 8e9c 683c 0d42 aa3b
00000180: b720 4e3d ca17 d0bb 4eb1 acbd 8857 183d
00000190: 8628 abbc 5e6c 923d e7dd 87bc 6913 a0bc
000001a0: 4f9a fc3d e912 28bd 9c1f b6bd 3227 c939
000001b0: 94f0 56bc 5d29 18bb adb7 5c3d c6bf ac3d
000001c0: 1f93 d4bb 47fc 0a3d ce3c c13d 8d7d 2fbd
000001d0: f27f 3b3d 0510 9c3d ac29 42bd 996a 4cbd
000001e0: 0cf2 0b3e cc1a 04be 1e02 15bd 3def a03b
000001f0: e944 8abd 5b43 42bc 98b7 0e3e 07cc fc3c
00000200: 09b1 323c 4883 8d3b 847b d33c 4898 583d
00000210: 8a80 b8bc 0a70 f63c f8c7 bebd 49b3 1fbd
00000220: a61c ff3d a290 63bc ca76 7dbc 9153 14bd
00000230: 965e 033b 91e0 c63c e98c 863d b957 243c
00000240: d615 d4bc 912c 153d b2a0 9b3c 9a8e b23a
00000250: e8fc 033d 68e0 dcbd 0f0f 5ebd 8864 21bd
00000260: e002 bebb bab0 d3bc 6c44 c1bc 402c 2bba
00000270: db23 1d3d 9f43 12bd bfe5 a73c b086 d6bc
00000280: e77e 073d 8914 483c 1790 1bbd 11aa 193e
00000290: 7ba8 943c 0173 33bd a1c4 a13c 8f51 9f3c
000002a0: 6003 42bd 468f c43d 5604 27bc 0175 9b3c
000002b0: bb06 3cbd 2eb0 cdbb 455f b4bd a66c fd3c
000002c0: 254e 593d 64ba f63c dafa fabc c4d8 ebbc
000002d0: 0e1a 1cbc 147e bb3d 27b9 7c3d 4cb2 233d
000002e0: b322 be3c 1b6b 8eb8 3e34 053e 8525 d33c
000002f0: 7b71 2b3c 00f2 96bc 176c 823d 3e88 03bd
00000300: 7679 43bd e2e8 d5bc da5b 203d fc50 9a3d
00000310: 7ef0 e8bc 3e92 253e fcae f2bc 87dd b73c
00000320: 9338 e6bc e9ae b1bb d0e7 f23d cb23 7b3c
00000330: fb5a c8bc e035 0fbd 5b93 05bb 4050 023e
00000340: e742 12bd 2701 473d 637e 16bd 58c8 b03d
00000350: 866e 1bbd 2db7 c73d fcb5 db3d 25b6 fcbc
00000360: 6a87 e0bb 42d2 b8bc 34b0 39bc 304e 01bd
00000370: eee4 2bbd e640 49bc dc04 1ebd dee0 01bc
00000380: 1ac3 5dbd 85e5 a93d 233b 07bd fcbc 0a3c
00000390: 651d ccbc 390b 703d adca 8e3d 192b d3bc
000003a0: 3986 35bd a77e d7bc a691 4c3d 27ed 11bd
000003b0: a519 cd3d 3832 643c af10 7cbc 537a f5bc
000003c0: dd2d e23d 4cc5 96bd 197f 043e a550 ac3d
000003d0: 5a97 34bd e552 b63c 9e5d f839 3aa4 6dbd
000003e0: e036 993d 3c5d 203c 3704 eabc f578 103b
000003f0: 417f e03c 06bf 06bd d017 a6bc da2f a13d
