data/predictor/Ablation/8_TNetwork-F_2024-06-30_13-50-20.pt (torch, 865911 bytes, 16 tensors)

conv1.bias f4 [64]
00000000: 67d2 82bc 8c80 dabc 3048 843c a814 bebc
00000010: 0000 0000 18bb 66bd 023e 913d f29f 1bbd
00000020: 9514 903b 05e6 083c bdef e5bc b5e4 913a
00000030: 1e55 3abd 330a 03bb 1e39 2ebd 9615 8bba
00000040: 9036 923c 3de3 cf3d a941 513d 33ed 59bc
00000050: 6298 6abd c1ed 1abd 3b32 82bd 9fcf 9b3d
00000060: ff43 6e3d fb11 1b3c 13cf 87bd 93d4 dd3d
00000070: 3c64 45bd 6915 8bbd de9f 27bd 67b7 6fbc
00000080: 0de1 ac3c 2081 b1bb a445 0b3d 638a 093d
00000090: 5d31 dcb9 3fb3 f5bc 1616 c2bc de3c 5cbd
000000a0: 4550 79bc e9c5 223d ace2 8e3d 8bfe 033c
000000b0: b192 60bd 7f08 823d 2596 a4bd 1123 46bd
000000c0: a56f 47bd 1a40 2ebd 9477 443a 8f57 943c
000000d0: a73f b1bc d8a1 c93b fc45 7cbc 37da 00bd
000000e0: 20a0 7e3c 73b7 c63b 0000 0000 02b7 bfbc
000000f0: 9cf0 7abc facc 7cbb faf0 ecbc dc9f 85bd
-0.015969468 -0.026672624 0.016147703 -0.023203209 0.0 -0.05633077 0.07091905 -0.037994333
0.004396985 0.008355622 -0.028068418 0.0011130782 -0.04549133 -0.0019995093 -0.04253494 -0.0010611292
0.017848283 0.10150764 0.05108801 -0.013301182 -0.05727423 -0.037824396 -0.06357237 0.0760796
0.058170315 0.009464736 -0.06631293 0.10831561 -0.048191294 -0.06791193 -0.040923946 -0.014631129
0.021103406 -0.005417004 0.03400196 0.03357924 -0.00041998448 -0.029992698 -0.023692172 -0.053768985
-0.015216892 0.039739523 0.06976828 0.008056293 -0.054827396 0.06349277 -0.0803645 -0.048373286
-0.048690457 -0.0425416 0.0007494625 0.018108157 -0.021636797 0.0061533265 -0.015397545 -0.031458106
0.015541106 0.0060643493 0.0 -0.023402695 -0.015316155 -0.0038574324 -0.0289235 -0.065246314

conv1.lin.weight f4 [64, 6]
00000000: b82b ab3d 45a9 043d 1cff 973e 6d23 08be
00000010: 0cac 87bc b097 31be 818e 3dbe 21b1 a2be
00000020: 4e61 a1be 76c1 9b3e c982 083e 14e8 3f3f
00000030: 70af b8be def5 773e a869 51be eda4 0abf
00000040: 26f3 e6bd 0c7d 983e 1752 a83c 3c8f 8b3e
00000050: 251f 76be 2ea9 b03c a3fa e43d 68a2 483f
00000060: c64a 63be befd b7bd 2a57 8abe baa0 74be
00000070: 7001 a1bc d05c f8bc 58c9 91be 0ec9 30bd
00000080: 1763 4fbe 8963 a2bd 770e 623d 41aa 2d3d
00000090: 5f5c 34be 3f49 8c3e 9d73 033f dfac f0bd
000000a0: bcf6 89be 8119 ea3d bc04 6a3d 94c5 2d3d
000000b0: 5959 543e 8f9f 6fbf c4c9 96bd 8410 263f
000000c0: 65e9 94bc a054 b53d a4de 20bf 643e 623e
000000d0: d299 7bbe 3266 573f 822f a43d 0058 3fbe
000000e0: f3f4 db3e de49 17be 88d5 39be f344 7b3e
000000f0: 9354 efbd 8481 cb3c 85dc 543e b8e8 0b3e
00000100: eeb9 be3d 7fb5 10bf 52e0 063e 6440 54bf
00000110: eb7a 89bd 08cd 4d3e ee5b 46be 072d 31be
00000120: 647a 933d d9ca febd 5cf5 23be 0b07 1dbe
00000130: d84d f73d eea2 e1bd dbe0 13bf a6b7 b4be
00000140: d22c 3e3e d3bd 39be b131 ab3c a50f 193f
00000150: f1ed b1bc 3900 9ebd 7e97 8b3c afbc e2bd
00000160: b903 1c3e 04ec 8bbd 01a2 b3bd ad9c a73e
00000170: 3558 ebbd f89a 6b3e 0895 ebbd 298e b43e
00000180: 58f7 2dbd a143 14be 1430 80bd fa1b 9dbd
00000190: 2420 df3d f868 02be d7d6 08bf ac08 29be
000001a0: 6860 f43d d876 993e a3f7 e1bd c3ce fa3e
000001b0: a702 a8bd 443e 6dbd fd59 29bd 9a84 b3bf
000001c0: d0de 87be 31bf 893f 648a 6abc d64a 8f3d
000001d0: 186f 973e 357a 143e 1810 07be 8dda 4b3d
000001e0: 62e4 fd3d 7656 f43d c2e6 8dbe 2d8e 4ebe
000001f0: 8565 9a3c b689 593e 5dd1 723e 56f6 7bbd
00000200: 64e4 883d 78d4 64be 5022 64be aa99 0d3f
00000210: 0889 8b3d 89dd 063d ea9b 2ebf 374e d63e
00000220: d4bd 153d c4eb 2f3f cbc0 9dbe 32f8 8a3e
00000230: 073e 343e 6a44 99bd 3873 8abe c8f9 eabd
00000240: 8655 1fbe bc71 643e da8b 52be 53c8 b83d
00000250: d072 9ebd e9ab 843f 8bf3 45bf 19f4 67bf
00000260: b718 a13e 4ecb 163f a415 803e c422 97be
00000270: 2007 3a3d 90ca 7fbe 546d efbd 8dc9 c6bd
00000280: 507a 5e3e d63a 27be e7ca f9bd 2a08 bc3d
00000290: 96b0 fe3e 143d 04be 2612 53be 8048 6a3d
000002a0: 168b 723e 5d75 06bc 1281 003e 05b6 a63e
000002b0: a2dd 5cbe 771d 963e 8897 403e 5037 b53d
000002c0: 0201 e43e 5a60 743e 87ca 7cbe 3c15 923e
000002d0: c699 493e 54f0 59be d0a0 803e cc4a e5be
000002e0: d7e2 5b3e c629 6cbd 2bcb 883e 7e4a 4b3d
000002f0: 391f 13be 1e2a c43e 22b5 0fbe 2420 033d
00000300: 8112 90bd cc48 c5bc a038 063f f1ab c73c
00000310: 0ab3 86bd 68de 513e fc06 3bbc f454 26be
00000320: ae33 983d a32c ebbf a7ea b63d df64 c13f
00000330: 3a2e 02be 8952 233e 65c5 e63e eaa8 89bd
00000340: aa46 e3bd 2f16 86bd bf8c b4bd 1f38 ac3e
00000350: 8634 cebe 689c eebd b8a5 87be 9aa1 643e
00000360: 49d9 41bf 2272 10bf 4cdd 913e e2f1 92be
00000370: 4c3d df3d 315d 263f 203d afbe 7a1c 9b3e
00000380: d336 85be d1af 7bbc eaa2 18bb d90b 373f
00000390: 95d1 6c3e 81aa debd 1259 e0be 2028 8bbc
000003a0: 6f84 203e 2587 1f3e a182 463d 453e 783e
000003b0: 5f77 debe a3e6 813d c973 eb3c 6b3a 833c
000003c0: 762a 913d 518d 7f3e e20f 0bbe cce1 6fbf
000003d0: 0172 45be 92dc 393f e0cb 3fbd 42f1 a7be
000003e0: 8539 9a3d 1b40 5b3e 0a59 83be 9673 733f
000003f0: c48b 2abe d7cd 783e 0fe3 77be 8ff7 c23d
0.08357948 0.03238799 0.2968682 -0.13294764 -0.01656153 -0.1734302 -0.18511392 -0.31775764
-0.3151955 0.30421036 0.1333114 0.749635 -0.36071348 0.24214885 -0.20450461 -0.54157907
-0.11276846 0.29782903 0.020546956 0.27257717 -0.24035318 0.021565046 0.11180618 0.7837281
-0.22196493 -0.08983944 -0.27019626 -0.23889437 -0.019654006 -0.030317694 -0.28473926 -0.04316049
-0.20252644 -0.07929141 0.055189576 0.042398695 -0.17613362 0.27399632 0.51348287 -0.117517225
-0.26946056 0.11430646 0.05713342 0.042424753 0.20737208 -0.9360284 -0.073627025 0.6486895
-0.018177697 0.088540316 -0.6283972 0.22094113 -0.24570397 0.8414031 0.08016874 -0.18685913
0.4296032 -0.14774272 -0.18147862 0.24538021 -0.11686053 0.024842031 0.20787247 0.13662994
0.09312807 -0.5652694 0.13171509 -0.8291075 -0.06712898 0.20097744 -0.19371006 -0.17302333
0.072010785 -0.12441034 -0.16011566 -0.15334718 0.120753944 -0.110174045 -0.5776498 -0.35296363
0.18571785 -0.18138818 0.020897718 0.59789497 -0.021719905 -0.07714886 0.01704001 -0.11071145
0.15235795 -0.06832126 -0.08771134 0.32736722 -0.114914335 0.23008335 -0.11503035 0.3526471
-0.042472214 -0.14478923 -0.0625917 -0.07671352 0.10894802 -0.12735355 -0.5345282 -0.16507214
0.119324505 0.29973483 -0.11033561 0.48985872 -0.08203631 -0.05792071 -0.041345585 -1.4024842
-0.2653718 1.0761472 -0.014315221 0.06996696 0.29576945 0.14499743 -0.13189733 0.049768973
0.12397076 0.119305536 -0.27715117 -0.20171423 0.018847236 0.21243939 0.23712678 -0.06151422
0.06684187 -0.22346675 -0.22278714 0.553126 0.06813246 0.032926116 -0.68206656 0.41856548
0.036557987 0.68719125 -0.30811152 0.27142483 0.17601787 -0.07483752 -0.2704103 -0.11473423
-0.15559968 0.22309011 -0.20561162 0.09022584 -0.077367425 1.0364963 -0.7732474 -0.9060684
0.31464168 0.5890397 0.2501651 -0.29518712 0.04541695 -0.24979615 -0.116907746 -0.097064115
0.21726346 -0.16331038 -0.12196904 0.09181245 0.497441 -0.12913924 -0.20612392 0.057198048
0.2368587 -0.0082066925 0.12549236 0.32560745 -0.21568921 0.29319355 0.18807805 0.08848441
0.4453202 0.2386488 -0.24686633 0.28531826 0.19687566 -0.21283084 0.2512269 -0.44783628
0.21473251 -0.057657026 0.26717505 0.04963159 -0.14367379 0.38313383 -0.1403394 0.032013074
-0.07034779 -0.024082564 0.5243015 0.02437398 -0.06577118 0.20494998 -0.011415239 -0.16243345
0.07431732 -1.8372997 0.08931475 1.5108908 -0.12712947 0.15949453 0.45072475 -0.06721671
-0.110974625 -0.065472 -0.08815908 0.33636567 -0.40274447 -0.11650926 -0.2649362 0.22327271
-0.75722176 -0.5642415 0.2848915 -0.28700167 0.10900363 0.6498595 -0.34226322 0.30295163
-0.2601839 -0.015361742 -0.0023290464 0.71502453 0.23126824 -0.10872365 -0.43817955 -0.016986907
0.1567552 0.15578897 0.04846442 0.24242504 -0.43450448 0.063428186 0.028741734 0.016019067
0.07088177 0.24956252 -0.13580278 -0.93703914 -0.1928177 0.7260219 -0.04682529 -0.32801253
0.07530502 0.21411173 -0.2565387 0.95098245 -0.16654879 0.24297272 -0.2420771 0.09519874

conv2.bias f4 [64]
00000000: 8349 463c 0000 0000 443b 09bd f9f4 8abc
00000010: 8e83 e7bc d674 d9ba 290d c2bc ee88 c3bb
00000020: c8dc 10bc e105 6bbb 36a9 b2bc e624 d53c
00000030: e116 05bc c8a2 a6bb 140f 22bd b7a3 8cbd
00000040: f46e 22bd 5208 b8bc 03aa 89bd 91a5 08bd
00000050: e816 19bd a5e8 383d 48db 60bc e74b 29bc
00000060: 7bee 00bd 27b7 febc 29d1 d7bb 5403 9c3b
00000070: 69d6 9dbb b5e6 233c ed8a d83c b504 f53a
00000080: 7959 43bd f9fd fcbc 0a4d 6cbc 3601 1bbd
00000090: d42b 03bc 76ff f03b 71d4 ffbb f04a 24bd
000000a0: fc37 4abb 2d6f 9fbc 2e44 33bc 3878 08bd
000000b0: 8ab5 75bc 74d8 15bc e9df d4bb 6194 093c
000000c0: 4d0f 89bc 4704 cdbc 3917 83bc ae1a 06bd
000000d0: 8ba4 c2bc 7083 0abd 785b 9a3b ba93 8fbc
000000e0: 5262 8ebb 32b1 9fba c37b 233c f9b7 d43b
000000f0: e10b b5bb 25d7 21ba b791 4bbc 7b13 633c
0.0121024875 0.0 -0.033503786 -0.016962515 -0.028260972 -0.0016590606 -0.023687916 -0.005967251
-0.008841701 -0.0035861658 -0.021809202 0.026018571 -0.008123131 -0.005085323 -0.03956516 -0.06867164
-0.039656594 -0.022464905 -0.0672188 -0.03336102 -0.03737536 0.045143742 -0.013724156 -0.010333038
-0.031477433 -0.031093193 -0.006586213 0.004761139 -0.0048168194 0.010003735 0.026433432 0.0018693419
-0.04769275 -0.030882822 -0.014422664 -0.03784295 -0.008006055 0.007354672 -0.0078073074 -0.04011053
-0.0030856123 -0.019462192 -0.010941548 -0.033317775 -0.014996896 -0.009145845 -0.0064964187 0.008397193
-0.016730929 -0.025026454 -0.016002284 -0.032740287 -0.0237601 -0.033816755 0.004710611 -0.017526496
-0.004345217 -0.0012183546 0.009978238 0.006491658 -0.0055250977 -0.00061737216 -0.012424878 0.013859625

conv2.lin.weight f4 [64, 64]
00000000: a74e 713e 3ba2 7ebf 760b ccbd a409 273e
00000010: fd8f 533e 5581 dc3d 96bb 89bd ebd4 f73b
00000020: 74ef 01bd 5a6e dc3d 37a3 a83d 0ce9 513d
00000030: 7148 253e e00d 5cbe f768 843d cc1c 29be
00000040: b5e8 8abd 83af 83be b79e 483f 0e12 f23a
00000050: 7452 f5bd 77fb 473d 3315 a93d 564f a1bd
00000060: 4bb0 8dbd d693 87bc 7685 cb3d 89ac fe3c
00000070: 7530 183e 02a3 f03d 1bd3 d3bd 02a1 1c3b
00000080: 152a c33e 69e9 883f 0479 2f3d 6563 b3bd
00000090: f197 b7be dfb7 17be 3050 d63d 7c5b 83bd
000000a0: 83af 843c 8b70 163e 9f7d 7bbd 4f24 9d3e
000000b0: 20cd 523e 8690 c9bd 270f 30be a7a1 8b3d
000000c0: d52a abbd 85af 2abe 67f3 763e c20b 63bf
000000d0: e375 90bd 6da3 313e f89b edbc f28d c63e
000000e0: 7aa9 a93d 19c9 d6be 7816 dcbc c1a2 8dbe
000000f0: d542 f4be 6c7f 48be cc51 c63c 5bf1 db3d
00000100: 8ee8 c2bd 5441 5ebd a81f c1bc 999f 563e
00000110: b683 ec3d 3eee 8cbd f28d da3d 864f fbbd
00000120: 18e2 ae3c 9457 07be 8984 c9bd 856e 1fbe
00000130: 077d 0a3e 74e4 403d 961d d13d c258 06be
00000140: 12e8 f9bd a024 02bd d805 e4bc 134f 163e
00000150: 487d 2fbe d837 fbbc d9bc 3dbe 23b1 cebd
00000160: a698 91bd 007b 83bc 6f96 113e c013 12be
00000170: ae44 9f3d 6dcf 52be 963e 2dbe 3830 e1bc
00000180: 9f94 5a3e 8039 fa3a a012 e23c f41d 41be
00000190: 3159 d0bd 8c98 1f3d bff5 223e 88bd 1fbd
000001a0: 3ce6 713d eeff c6bd f942 c6bd 35c6 2c3e
000001b0: fde0 403e 70c4 3abe cf95 523e f48d 7a3d
000001c0: 00dc 25bb 409a 69bd c089 853c 43d7 dabd
000001d0: 804a b1ba bc91 24be 04a8 26be f4a0 45bd
000001e0: ff5f 463e 84ac febd c70d 303e e5c9 5c3e
000001f0: a087 48bd d0f2 09bc 92e1 1fbe 5881 a1bc
00000200: 2ee8 78bd 77e3 5e3f 3324 fcbc d0a4 b5bd
00000210: 1b06 463e 8f52 53be b6f5 4d3e 09a2 9fbc
00000220: 2e66 78be ca1c 0f3d bfb8 f73d 0fae 84bd
00000230: 3bf7 d33d 9324 933e 763d eb3d 7d99 a8bd
00000240: 048a 5abe 3eab be3d a2d1 1bbf 6e9e f5bd
00000250: ed19 79be adde af3d 7a6c 09bc 0f21 a63e
00000260: 2289 383e 69ce b8be 7d73 d53d 4e64 a03e
00000270: 96b6 a53d 2bf0 373e 8cef 36be 1796 003e
00000280: 9446 8a3e 9a9c ebbe f80e cb3c 34a0 81bd
00000290: bad3 c33e 921f d6be 3a8e 1dbe 410e 84be
000002a0: 55e8 b63d fa62 80bc 7281 e53d cbb3 be3d
000002b0: d922 04ba 2df1 eabd 3163 2d3b 9066 d0bd
000002c0: 332b 8e3c a5e0 70bd bf13 e93c 8a84 acbd
000002d0: 4861 d73d ef49 a0bd cacd 8dbd 1c30 babe
000002e0: 863c edbd 5d68 233e c181 1fbe 8ef7 02be
000002f0: d76a c9bd e4bc 2cbd 0a05 2cbe abf6 f33a
00000300: 0160 9abd c017 793b 6232 cc3e abce f83c
00000310: fa09 af3d 6789 ac3c 0bbc 58be c338 303e
00000320: 22c9 1cbe bc82 2bbe 46dd f2bc 8604 043e
00000330: 7376 4fbe fb9f a63c 1789 883d 8d5d 97be
00000340: 0538 33be 8ec2 f9be 9d68 3e3e 8d66 48bd
00000350: 98a8 983d 685b 423e 9464 ba3c 3b99 023f
00000360: 031d 49be 8544 e83d 9a38 973c b67c f2bd
00000370: 0338 483e 1387 3abe 5769 273e 6765 1bbe
00000380: 6dbe 91bb 2550 073e f58c 9d3d 2c2e a53d
00000390: fc4e 483e 3c0a bdbc 1d65 2abe ad3b 69bd
000003a0: 4bb4 483e 2b4d 4a3d 5ccb 01be 674d a9bd
000003b0: ee7f 653e 6255 49be 90c7 263e a134 8e3d
000003c0: ba62 fdbd c54b 573e cab3 19be 4a57 423e
000003d0: e51c 253e 0969 ae3d 1f6c 393d 1e18 283f
000003e0: 7ead b83d 6f17 0d3e 4e2e f63d 30e7 4d3e
000003f0: f41c 493e 68e1 bdbd e759 c2bd 498a 0dbe
0.2356516 -0.99466294 -0.099631235 0.16312271 0.20660396 0.107668556 -0.06725232 0.0075632236
-0.0317225 0.107632354 0.08234256 0.05124764 0.16140915 -0.21489668 0.06465333 -0.16514891
-0.067826666 -0.25719842 0.7836718 0.0018468515 -0.11978617 0.0488238 0.082559966 -0.0787646
-0.06918391 -0.016549986 0.09937565 0.03108813 0.14862235 0.11749841 -0.103429995 0.002389968
0.38118044 1.0696231 0.04284002 -0.087591924 -0.3585811 -0.14816235 0.10464513 -0.06413934
0.016196972 0.14691369 -0.0613991 0.30691764 0.20586061 -0.09842019 -0.1719328 0.06817942
-0.08357779 -0.16668518 0.24116288 -0.88689816 -0.07053735 0.17347498 -0.029005036 0.3878017
0.08284278 -0.419503 -0.026866183 -0.27663234 -0.4770724 -0.19579858 0.024208926 0.10739394
-0.095170125 -0.05426152 -0.023574665 0.20959319 0.11548559 -0.068813786 0.10671605 -0.12271027
0.021348044 -0.13217002 -0.09839732 -0.15569504 0.13524257 0.04709287 0.10210721 -0.13119796
-0.12202467 -0.03177321 -0.027834818 0.14678602 -0.17137635 -0.030666277 -0.18529071 -0.1009238
-0.071091935 -0.016049862 0.14217542 -0.14265347 0.077767715 -0.20586939 -0.16918406 -0.027488813
0.21345757 0.0019090623 0.027596772 -0.18859082 -0.10173262 0.03896384 0.15914057 -0.03899911
0.05905746 -0.097167835 -0.09680743 0.16872485 0.18835826 -0.18238997 0.2056496 0.061170533
-0.0025308132 -0.05703187 0.016301036 -0.10685589 -0.0013526231 -0.16071218 -0.1627503 -0.0482492
0.19372557 -0.124352485 0.17192756 0.21561392 -0.048957467 -0.008419707 -0.15613392 -0.019714996
-0.0607683 0.87065834 -0.03077898 -0.08869326 0.19338267 -0.20636962 0.20113263 -0.019486444
-0.24257728 0.034939565 0.120957844 -0.064785115 0.1034989 0.2873884 0.11486332 -0.082324006
-0.21341711 0.093100056 -0.6086675 -0.11993109 -0.24326296 0.08587394 -0.008387679 0.32447097
0.18021062 -0.36094978 0.10422418 0.31326526 0.08091466 0.1796271 -0.17864817 0.12557255
0.27006972 -0.46017915 0.024787411 -0.063293844 0.38247472 -0.4182096 -0.15386286 -0.25792125
0.089310326 -0.015672196 0.1120633 0.093116365 -0.0005040593 -0.11471782 0.0026456828 -0.10175812
0.017354583 -0.058807988 0.028451798 -0.08423717 0.10516602 -0.07826602 -0.06924017 -0.3636483
-0.115838096 0.1595778 -0.15576841 -0.12789747 -0.09834831 -0.042172328 -0.16798797 0.0018612941
-0.075378425 0.003800854 0.3988219 0.030371984 0.08546825 0.021061612 -0.21165483 0.17209153
-0.15311101 -0.1674909 -0.029646527 0.1289235 -0.20260029 0.020339957 0.06666773 -0.2956356
-0.17501839 -0.48781246 0.18594594 -0.048925925 0.07454032 0.18980181 0.022753038 0.5101506
-0.19639973 0.11341194 0.018459607 -0.11840193 0.19552617 -0.18215589 0.16348778 -0.151754
-0.0044477494 0.13214166 0.07692901 0.08065447 0.1956138 -0.02307617 -0.16640134 -0.056941677
0.19600026 0.04939 -0.12675232 -0.082667165 0.22412083 -0.19661477 0.16287065 0.06943632
-0.12372346 0.21024998 -0.1500999 0.1897861 0.16124304 0.085161276 0.045269128 0.656618
0.09017466 0.1377847 0.12020551 0.20107722 0.19639951 -0.092715085 -0.09489804 -0.13822283

conv3.bias f4 [64]
00000000: 1600 453b ffc3 373c c03e e4bc b97f 853c
00000010: 3449 84bc cf85 9fbb 138c 573b bb82 913c
00000020: 8504 5abc 226b 333c 06b8 f4bb 7f0f c03b
00000030: 673b 823c 78e6 39bc f456 1ebc dd01 47bd
00000040: d518 033c acce 553b 985e a43b 3f4f 08bc
00000050: b268 f9bc b140 0e3c b6cf 34bc 5f58 ff3c
00000060: 9c51 8ebc 5fac c63a 70cb c63c c8e9 aebc
00000070: af47 74bb ac11 a9bc 394c 6d3c 7535 d3bc
00000080: b051 363b 1960 f0bc bd0e 993c 3d5b 123c
00000090: 0b78 893b 8e1d 3fbc 1105 8abc 5d5d a33b
000000a0: eca4 7f3c 942d 2fbb 57d8 34bb 2c96 8bbc
000000b0: 7e80 873a f08b 92bc 2db2 dfbb a91c 95bc
000000c0: 9a6e 61bc 2939 2ab9 e15d 91ba 4377 bbbb
000000d0: 84b7 65bc 90a2 733c 1462 68bb 1ae6 273c
000000e0: 1a4a 943c ea05 46bc ed40 9a3c 00c0 6abb
000000f0: a1e5 47bc c12e 6f3b e62a 90bc 5029 ff3c
0.0030059866 0.011216163 -0.027861953 0.016296254 -0.016148187 -0.004868246 0.0032889887 0.017762532
-0.013306742 0.010950835 -0.0074682264 0.0058612223 0.015897466 -0.011346452 -0.009664286 -0.04858576
0.008001526 0.0032624407 0.0050161593 -0.008319675 -0.03044543 0.008682416 -0.01103585 0.031170068
-0.017372899 0.0015157572 0.024266928 -0.02135171 -0.0037274172 -0.02063831 0.014483505 -0.025782326
0.0027819686 -0.029342698 0.018683786 0.008932886 0.0041952184 -0.011664761 -0.016848119 0.004985495
0.015603285 -0.0026730048 -0.002759477 -0.017039381 0.0010337976 -0.017888993 -0.00682666 -0.018202143
-0.01375928 -0.00016233757 -0.00110906 -0.005721004 -0.014020804 0.014870301 -0.003545885 0.010247732
0.01810174 -0.012086371 0.018829787 -0.0035820007 -0.012200744 0.0036496373 -0.01759858 0.031147629

conv3.lin.weight f4 [64, 64]
00000000: d9f1 5e3e da37 ae3d 52a9 3fbe 617b f7bd
00000010: 93ce 06be 253a a33e 7c5c a93e bea4 41be
00000020: 71a7 873d 4afd c4b9 80cd 94bd cf8e 62be
00000030: 6013 d63d 7837 3ebe 775f 36be 17ad 953e
00000040: 8e02 e83d a993 483c c11a 21be fab7 68bd
00000050: 7412 31bd 26be 0fbd 0ad0 4ebc 2376 643d
00000060: cc43 57bd a457 83bd 41a3 693d 71c6 ac3d
00000070: 088c 27be e882 463e a3f8 4abc 7c90 c4bd
00000080: 4995 a13d 1219 51bd b08b 3f3e 1586 21be
00000090: 4819 1a3d 6e9c 983d b512 a23d 7574 2abd
000000a0: a7db 15be 8e65 2c3d 3aa0 4f3d c365 093d
000000b0: 8038 803d a7bb 3c3e 2f1f 2fbe b246 f33d
000000c0: b3f7 d3bd ac71 afbd b440 1d3c f683 1cbf
000000d0: d2cf abbe f3bc 803e 5b9f c1bd 5dcd 943d
000000e0: 71d9 9cbd d413 5a3b f24f 6dbe 4adf 453e
000000f0: 5eaf f4bd ce33 34be 8d33 5b3e f1ca ddbd
00000100: f357 e8bd 456e 1f3e 850b 873e ee12 3bbe
00000110: fee5 803d c0e2 e7bd ea5b d8be 8fbc 5e3e
00000120: 2189 27bd ea1c 0abe e03c c43d 32f5 1c3e
00000130: efab 68bd dac2 c73d a790 cebc 2efa e4be
00000140: 6c1c e43d 0abc 8fbd 43ae 88bb 12e5 b53d
00000150: 3e55 d33c b10d 8ebd 0a82 a6bc 1764 46bd
00000160: 5e8d b9bd 1147 063d 6e29 8bbd 393d 9f3d
00000170: 19ba 213e 8d40 4ebd 1eb7 08bd b442 283e
00000180: eb1a 243e 9e96 bd3c 5670 2b3e 2c0e 653e
00000190: afc8 3fbd 17d4 b3bc 9185 edbc 39a6 24be
000001a0: 1ee3 0ebe 48de d1bc 248c 64bd 3d5a cbbd
000001b0: 281a 223e 3eac a4bd 1fcd e1bc 93b0 45bd
000001c0: 3fc3 2bbe 57e8 673d 8414 adbd c5d7 9d3e
000001d0: 204c d9bd df03 d7bd c7c4 07be e4f1 d0bd
000001e0: 8a73 1cbe dc99 3a3e e13d 8c3d 1123 79be
000001f0: f810 b4bd d0f2 323d 0421 193e e00c 0e3e
00000200: bb06 70bd bba2 0c3e 9bc4 9cbe 24e3 63be
00000210: 675e 34bd 7a63 bdbd 234c 163f 82d9 f6bc
00000220: dae4 7c3d cefb ea3c c039 e33d 492e 20be
00000230: 0e64 3abe 1eea 6abe 1801 723e c450 973e
00000240: 9893 3cbd dea3 dc3c 738c 1fbd 784e 72be
00000250: 2d0c 6d3d a145 5a3e c1c8 713e 6d59 63bd
00000260: da8e 073e bcf5 6d3d f9e3 84bd fa0a a73d
00000270: 7dd4 003e 15dc 143e fe96 d63d 55a5 ae3d
00000280: 2e1d d53d b650 80bc 233f 6c3e 639a c13d
00000290: ae77 e1bd a803 de3d d74d 7b3d 317b 90bd
000002a0: a0e0 93bc f29c ac3d 85bd 5c3e 3880 c03d
000002b0: 8812 a0bc 4b95 ea3d d2a1 6e3d 36fe 4e3e
000002c0: ce07 473e 9dab ca3d 74de 9dbd a643 ffbe
000002d0: d153 92be ab02 fcbd 2a03 3dbe 939e 443e
000002e0: 4b50 983d fcb8 f8bd c005 28bd 5d3c 59bd
000002f0: 1966 febe ccad 27be 5cf9 213d c305 10be
00000300: 05d5 40be d044 e8bc 1cab 44be 6fef 533e
00000310: 033e 3fbe 5c24 8fbd d8e9 b73d 29ab a5bd
00000320: ce7d 86be fe7f 693d 1f87 07be 08cc cabc
00000330: 47e1 1abe 90a0 c7bc 75b3 2c3e 454d 2f3e
00000340: b2ef c53d 0266 073e 5c2e b53d bde0 093e
00000350: 116b 6ebe 9351 31be 565e 19be a622 08be
00000360: 963a 863d 359d ad3b 4a27 e4bb e14d e43d
00000370: 7f76 a13c 1d14 2f3e fe21 8ebc 97bf 9f3d
00000380: 298e bbbd 9f5f c23d fb9f 91bd 966d 073e
00000390: 0e3a 183e 01b5 35be 0e0a f8bd 7ee4 46be
000003a0: b205 213e 888f ac3d b765 32bd a4d9 e83c
000003b0: 163d 633e 8611 c33d e73a babd 1f22 3fbe
000003c0: 5bef bd3d 5f1d 9abc c3a1 153e 4df5 313c
000003d0: 6ee8 5e3e 999f 3ebe c6b8 09be 6f08 1cbe
000003e0: 8500 cc3d dc9f b13c cb0e 2e3e 3577 63bd
000003f0: 1370 dd3d 35ed a0bd ff9a e53c 5cc0 c8bc
0.21771945 0.085067466 -0.18716934 -0.120840795 -0.1316474 0.31880298 0.33078372 -0.189105
0.06623734 -0.00037572748 -0.072657585 -0.2212479 0.10452914 -0.18575847 -0.17809854 0.2923362
0.11328612 0.012242236 -0.15732862 -0.05681608 -0.04323049 -0.03509345 -0.012622843 0.055776726
-0.05255489 -0.064132005 0.057040457 0.08436287 -0.16362011 0.19385874 -0.012388381 -0.09597871
0.07889802 -0.0510493 0.1870563 -0.15773804 0.037621766 0.074517116 0.07913724 -0.04161497
-0.14634572 0.042089038 0.050689913 0.033544313 0.062607765 0.18430959 -0.1710174 0.118787184
-0.10349979 -0.08566603 0.009597946 -0.61138856 -0.33556992 0.25144157 -0.09454223 0.072657324
-0.07658661 0.0033275979 -0.23175028 0.1932346 -0.11947511 -0.17597887 0.21406384 -0.108297236
-0.113449 0.15569408 0.26375976 -0.1826894 0.062938675 -0.11322546 -0.42257625 0.21751617
-0.04090226 -0.13487592 0.095819235 0.1532791 -0.056804594 0.09753962 -0.02521546 -0.44722122
0.111382335 -0.070182875 -0.0041711642 0.08881582 0.025797483 -0.06936205 -0.02032568 -0.048435297
-0.09060167 0.032782618 -0.067950115 0.07775349 0.15793647 -0.05035453 -0.03337776 0.16431695
0.16025893 0.023143109 0.16742072 0.22368687 -0.046822246 -0.021951718 -0.028994353 -0.16079034
-0.13953826 -0.025618687 -0.05579771 -0.09929321 0.1583029 -0.08040665 -0.02756363 -0.048264097
-0.16773699 0.05661806 -0.08451179 0.30828682 -0.10610223 -0.10498785 -0.13258658 -0.10202387
-0.1527845 0.18222755 0.0684774 -0.24329783 -0.08792299 0.043688595 0.14954 0.13872099
-0.05860017 0.13733952 -0.30618748 -0.22254616 -0.04403534 -0.09247489 0.58709925 -0.030133013
0.061741687 0.028684523 0.11094999 -0.15642656 -0.1820223 -0.22940871 0.2363323 0.29553807
-0.046039194 0.026933607 -0.038952302 -0.23662746 0.05787294 0.21315624 0.23611738 -0.055505205
0.13238087 0.05809568 -0.06488795 0.081563905 0.12581058 0.1453708 0.10478018 0.08527628
0.10405956 -0.015663486 0.2307096 0.09453275 -0.11009155 0.10840541 0.06135353 -0.07054747
-0.018051445 0.084283724 0.21556671 0.09399456 -0.019540086 0.114542566 0.058259793 0.20214161
0.19436571 0.09896014 -0.07708445 -0.498563 -0.28579572 -0.123051964 -0.18458238 0.19201116
0.0743719 -0.12144658 -0.04102111 -0.053036083 -0.4968727 -0.16374892 0.03954445 -0.14064698
-0.1883126 -0.028353125 -0.19205898 0.20696805 -0.18676 -0.06989357 0.08980149 -0.08089287
-0.26267856 0.05700683 -0.13235138 -0.024755493 -0.15124999 -0.024368554 0.16865332 0.1711932
0.09664859 0.13222507 0.08846733 0.13464637 -0.2328303 -0.17316274 -0.14977393 -0.13294467
0.06554143 0.0052982816 -0.0069626914 0.11147667 0.019709824 0.17097516 -0.017350193 0.07800215
-0.09157974 0.094908945 -0.07110592 0.13225397 0.14865896 -0.17744829 -0.12111293 -0.194231
0.15724829 0.08425814 -0.043554034 0.028424092 0.22191271 0.09524827 -0.09093266 -0.1866536
0.09274169 -0.018812833 0.14612488 0.010861707 0.21768352 -0.18615569 -0.13449392 -0.15237592
0.099610366 0.021682672 0.1699783 -0.055533607 0.10812392 -0.07857744 0.02802801 -0.024505787

fc1.weight f4 [512, 64]
00000000: c51e 843c 7411 153d bbf4 09be cc84 6ebd
00000010: b462 39bd bb78 56bd 5ec9 533d f9b7 4b3d
00000020: 20e6 87bc fa9f 1fbd 89be 4ebd b2c0 de3d
00000030: ce30 043e 58df 363e 53c2 37be 5a14 dc3e
00000040: c6a1 183e 7119 fd3e 3d75 8cbd d4db 323e
00000050: 8fe6 f23d 1014 34be 97ea 86bd f443 023e
00000060: 4690 523d 819d b5be 78ee 9dbb 9e0c be3d
00000070: bfc5 643e a288 95be ca7b eebd bc57 31bc
00000080: 305d ba3d 5478 e43d 6882 5e3d 4b85 08be
00000090: cc1d cf3c 7da0 75bd 83f8 d7bd bc77 c6bd
000000a0: e62b 85bd 49a7 da3d e111 f83c 780d 823d
000000b0: f377 0ebe 855d 1e3e 6f92 17be 4bb7 b7be
000000c0: 7c2f 9bbd 541e 1cbd 0aff 773f 3c2b f93d
000000d0: 4d03 2cbe f889 65bd 4318 0c3e 401d 273e
000000e0: 8a47 883d 2898 48bd f38d ffbd f1c3 883c
000000f0: df75 193e ba69 21bd 25b3 043e b29a d1bd
00000100: c7da 46be 1045 5ebd 03f3 30be 076f ddbc
00000110: 59cc e43d c3db 633d ee2b 86bc 00f4 a03d
00000120: 8425 c23c d266 e03d 515f 8ebd 3ad2 b93d
00000130: 2b76 5d3d f27a 21be b810 22be eeb0 6dbf
00000140: 997b a8bd 02a9 3bbe 7b79 173a 3080 fa3c
00000150: 4eb8 e23b 94b4 52bd ddc0 b1bd 1438 473e
00000160: 1d5d 27bd 1202 0d3e 7eac 0a3e d385 4b3a
00000170: 95b6 36bd f2df 383d e0a7 153e 5a7c 5c3d
00000180: 05b5 f1bd f306 4abd 34f6 873d 26a4 603c
00000190: 5819 803d a053 38bd 1aed 9e3d 91a9 233e
000001a0: 0cff c03d f77c 1abe 3083 d7bc a46e 82bb
000001b0: 3540 93bd 7917 9d3d eca2 dcbd 1858 b63d
000001c0: 59ec 353a be64 12be da13 80be 47d3 b0bd
000001d0: e2b4 c8bb 3157 d13d d1df cabd 0e8b e9bc
000001e0: 8276 bebd 95fe 09be 362e 993c 47b2 713c
000001f0: 79e9 113d e0d5 fb3d 3006 843d ab3a 5d3d
00000200: c60b 30be b210 b33d 11c5 1a3e 3adb 763e
00000210: 22d1 b43d 8434 6e3a 892d f83d c491 533d
00000220: c69a ebbc cc43 66be 5c63 303e c42f 5cbc
00000230: 08a8 9abe 7c91 18be 2570 c93e 3e4c 8fbc
00000240: d411 d5be 7dab dcbd 161f c3bd 066f 02be
00000250: 3cf2 503c 894a e03c 4013 833e c8ea 5fbe
00000260: 79a7 f0be b3af aebd 0453 653d 5bcf 123e
00000270: 89fa 87be 952a 483f 663b 8bbd bdb7 8fbe
00000280: 15c1 2abc b9e3 903d f875 233d 3865 e83d
00000290: aed2 76be 15d7 873d 9f47 21bf ed4f b7bd
000002a0: 6e1a 99bd 65d9 00bd 82b1 2cbe 8659 1cbd
000002b0: 5018 e53d 3646 17be dc70 7f3e 7038 103f
000002c0: 8ec1 3b3e 0d60 1abe fa2c bebe 05a2 3dbe
000002d0: 8c0b 143e 7591 4bbd 7673 e9bd c621 8cbd
000002e0: f9ca ddbb b9eb 083f 70e3 f03e ba40 93be
000002f0: 9166 29be 0ab5 d63d 04db 3ebe 32ca 523d
00000300: e6e2 c3be db32 88bb 46a6 913d 3afc 64bd
00000310: dddc 9ebd 3361 193e 5799 2fbc 2040 203d
00000320: e428 31bc 5d57 f0bd de7d a2bc be0d 0b3d
00000330: 9e8c 383d 2dc4 9abd afbe 88bd 4f75 4ebe
00000340: f780 a7bc 6a1b 8bbc 9cc7 f6bc 669b 5b3c
00000350: d913 cdbd 0756 37bd 1893 90bd 7c70 d7bd
00000360: eff6 a63d 5c8d 97bd 3592 2c3e 22c3 d53c
00000370: ac7b 753e 9133 813d f235 b83c 0793 d03d
00000380: 1a0a b2bb f6e1 283e 6afa 263e d69e d2bd
00000390: c60d 3b3e a328 3a3c 11ac 593e 47d5 9dbd
000003a0: d011 f2bd 0f7d a5bd 2544 84bc 878f 703e
000003b0: c985 f7bd 0aef 283b 2f07 043e b725 2d3d
000003c0: 867d f63c b61e 033e 2a1b f7be fb28 e8bd
000003d0: 7db2 07bd 33a3 bc3d c448 babd 250d 003e
000003e0: ff6b fdbd e4df 6bbe 13d9 683d da88 183d
000003f0: 2db5 08be fc7a 9e3d 24b9 043e 8ac4 b5bd
0.016127953 0.036393598 -0.13472264 -0.058232114 -0.045260146 -0.05236123 0.05170571 0.049735997
-0.016589224 -0.038970925 -0.050474677 0.108765975 0.12909243 0.17858636 -0.17945223 0.42984277
0.14905462 0.49433473 -0.06858299 0.1746667 0.11860382 -0.17585778 -0.06587713 0.12721235
0.05140712 -0.35471728 -0.0048196875 0.0927975 0.22341059 -0.29205805 -0.11644705 -0.01082414
0.09099805 0.11155763 0.054323584 -0.13332097 0.025282763 -0.059967507 -0.10545447 -0.09690806
-0.065025136 0.10676438 0.030281963 0.06350225 -0.13912944 0.15465362 -0.14801954 -0.3588203
-0.07577416 -0.03811486 0.96873534 0.121664494 -0.16798134 -0.05603978 0.1368113 0.16319752
0.0665427 -0.048973233 -0.124782465 0.016694995 0.1498637 -0.03940747 0.12958963 -0.10234584
-0.19419394 -0.054265082 -0.17280202 -0.027030481 0.11171789 0.055629503 -0.01637837 0.07859039
0.02369953 0.109571114 -0.06951774 0.09073301 0.054067772 -0.15769556 -0.1582669 -0.928481
-0.082266994 -0.1832619 0.0005778295 0.030578703 0.0069189435 -0.051441744 -0.08679364 0.19454986
-0.040860284 0.13770321 0.13542363 0.0007763777 -0.044607718 0.045135446 0.1461482 0.05382953
-0.11802105 -0.049323034 0.066387564 0.013711011 0.06254834 -0.045001626 0.07760067 0.15982653
0.09423646 -0.15086733 -0.026307672 -0.0039804745 -0.07189981 0.07670493 -0.107732624 0.08903521
0.00069398206 -0.14296243 -0.25015146 -0.08634048 -0.0061250785 0.102217086 -0.09905971 -0.02850869
-0.09299947 -0.13476022 0.018698793 0.014751977 0.035623048 0.12296653 0.06446493 0.05401103
-0.17191991 0.08743419 0.15114237 0.24107066 0.088289514 0.0009086805 0.1211806 0.051652685
-0.028760325 -0.224868 0.17225403 -0.013439123 -0.30206323 -0.14899248 0.39343372 -0.01749241
-0.41615164 -0.10774896 -0.095274135 -0.12737665 0.012753066 0.027379291 0.25600624 -0.21866906
-0.47002771 -0.08529606 0.055987373 0.14336912 -0.2655833 0.78189975 -0.06798439 -0.2806987
-0.010422011 0.07074685 0.039907426 0.11347431 -0.24103805 0.066328205 -0.6299991 -0.089507915
-0.07475744 -0.031457324 -0.16864589 -0.038171314 0.11186278 -0.14772877 0.24945396 0.56336117
0.18335554 -0.15075703 -0.3714369 -0.18518837 0.1445753 -0.049699266 -0.113989756 -0.06842379
-0.006768581 0.53484684 0.4704852 -0.2876032 -0.16543032 0.10483749 -0.18638235 0.05146236
-0.38259047 -0.004156453 0.07111792 -0.055904604 -0.0775697 0.14978485 -0.010717711 0.039123654
-0.010812972 -0.11735413 -0.019835409 0.033948652 0.045055978 -0.07556949 -0.06676995 -0.20161937
-0.020447237 -0.016980845 -0.030124478 0.013403749 -0.10013551 -0.044759776 -0.07059306 -0.105195016
0.081525676 -0.07400009 0.16852649 0.026094023 0.23972958 0.06308664 0.02248666 0.10184293
-0.005433333 0.16492447 0.16306463 -0.10284202 0.18266973 0.011362228 0.21257044 -0.07706695
-0.11819804 -0.08080494 -0.016145775 0.23492251 -0.12086064 0.0025777244 0.12893365 0.042272296
0.030089151 0.12804684 -0.48262912 -0.113359414 -0.033129204 0.09210815 -0.0909591 0.12505014
-0.12374114 -0.23034626 0.056847643 0.037239887 -0.13350363 0.07738301 0.1296125 -0.088753775

fc1.bias f4 [512]
00000000: 1655 c8bd d2b4 863c 9c27 42bd 45ab d63d
00000010: 8fd6 1a3e b7e9 9a3d 52cd 223d 8eb2 92bd
00000020: 2e37 0c3e cb91 443d d321 2dbd fa2c 133d
00000030: bc3d 5d3e a42f 3a3d a0a4 333e 73d5 1bbd
00000040: b6ef e0bd 7b88 49bd 95e1 52bd eea8 983d
00000050: b376 0f3e a04b 123e dc7b 3a3d 9e96 05be
00000060: 2f9c 0ebe 7d01 9c3d b73c 063e bd72 4e3d
00000070: d6f2 90bd 38b5 e43d c4b1 b0bd aa54 76bd
00000080: 01a5 e3bd 2a3a 283e 9f14 a9bd 1bb5 8fbd
00000090: d845 0e3e 4875 8ebd eee3 033e edf4 e1bd
000000a0: 546c ddbd ca04 b6bd da5b c7bd 7b76 9abc
000000b0: a44a df3c 74ef 9b3d 82d6 cbbd 40a9 2abd
000000c0: a5b5 dabd 2bcb 243e dce8 cbbd 71cd d6bd
000000d0: 60a5 72bd 576e c9bd 0053 afbd 5605 903d
000000e0: 3a4e c4bd fee3 2a3d 4946 243e 2237 973d
000000f0: 066c 86bd 8540 f6bd 5f31 f1bd 87b6 c23d
00000100: a01d 043e 6476 653e 5c39 303e 5e2d a5bd
00000110: c4c4 d83d e0cd a8bd 2486 b4bd a776 a13d
00000120: 8bf8 043d a12f fcbd 40ac 313e a0ff b23c
00000130: 290b 0fbe 8242 afbd 9e66 d3bd 0423 053e
00000140: 79c1 f6bd 7d5f a23d f2da 8cbd 119c 8e3d
00000150: 67cf e53d 8510 8abd 8202 353d 37af e3be
00000160: f23d d43d 3a3f 0f3e 015f 91bd e7fc ed3d
00000170: 9f66 493c b257 a83d 2efb 023e 63f0 133e
00000180: be72 1f3e b06d 70bd a964 233d 7290 e4bd
00000190: f0ab 813d 2c43 e7bd ba82 e0bd 596e 363d
000001a0: 293e 2c3e f31f 9fbd 7e03 e6bd fc47 3e3e
000001b0: ac0e d2bd 640f f2bd e1bc a03d 37db 203e
000001c0: 764a eebd ff0d 1f3b 9140 cf3d 07f6 593d
000001d0: 9ca4 463e aae8 e8bd 74bc 053e 7f45 493d
000001e0: deb9 283e 450d 15be a841 8abd e08a fb3d
000001f0: 4b42 b83c fb72 343e d7d1 9a3d 4df6 b63d
00000200: 18c0 ff3c 2e47 57bd 5adb 69bd fe05 cebd
00000210: 6ab2 333e 69b3 fdbd 44d8 83bd 171e 893d
00000220: 88cf 8f3d a6a0 153d 4e7e afbe e6f2 643c
00000230: fd97 dabd 1212 6ebd d132 253e a4c1 ac3d
00000240: ea57 84bd 38b3 403d 139a fa3d 00a7 04be
00000250: d504 6c3d 7601 2c3e 4c40 dcbd 36f2 893c
00000260: 6919 aa3d c13d b33d e0f5 f7bd 8344 373d
00000270: e77c ec3d d858 ee3c c882 e4bd 74f1 8d3d
00000280: 3a0f 013e fc3d 2b3e 4439 0fbe 0fc6 f0bd
00000290: b92c 123d 716d 47bc 28b1 8d3d ef6f a8bd
000002a0: e3d6 0bbe f683 1ebe a72a 8d3d 68be 5d3c
000002b0: 46b7 583e 77c9 7ebd 68ea 283e dd50 0c3e
000002c0: 864d 8f3d 7f65 9ebc e62f f53d 7a1b f3bd
000002d0: e25d 933d cbda 233e 63c8 a6bd 28c0 58bd
000002e0: 5f86 13be 0658 a1bd 2f92 313e cc6f 953d
000002f0: 1f57 2a3d 6d96 353e 6125 cd3d abb1 29bd
00000300: 315f 913d 5aed 2b3d 6cbd 003e 4a22 623d
00000310: e7dd 063e 0492 d2bd 1cb8 a6bd 6630 073e
00000320: ca4f babd aa23 103d 3316 23be be6f 71bd
00000330: e64f 093e c226 e6bb d4ed 48bd ce4a b63d
00000340: a45e 793d 296e dfbd 50e5 5c3d c3fc a5bd
00000350: dda3 fb3d 1a99 673d 9c05 65bd d73e fb3c
00000360: e57f 113e 8c1b 71bd c0bb 93bd a21c e33d
00000370: 7a72 2b3e 08e1 79bd f25e 453e d200 5e3e
00000380: 0585 953d b1fa 663d 42e4 b4bd 4fd3 5b3d
00000390: b259 b8bd 91f3 533e eac1 15be 1761 203e
000003a0: 6c46 5b3d 98c6 523e 32ec 953d 316a 0dbe
000003b0: 765f a33d 8c1e 18be a5c7 9a3e 2746 51bd
000003c0: c448 c83d 3fa0 1f3e bc2e afbd 343a e5bc
000003d0: 294b bdbd ce85 f0bd 6e00 48bd dfdb 553d
000003e0: 7d14 f0bb be6e 5e3e 668b 913d e783 11be
000003f0: 15eb 1b3e ca79 8dbb a846 413d 1ad1 c6bd
-0.09781854 0.016443644 -0.047401056 0.10481886 0.1512091 0.07564109 0.03974659 -0.07162963
0.13692924 0.0479906 -0.042268585 0.035931565 0.21605581 0.04545559 0.17543268 -0.038045358
-0.10983221 -0.049202424 -0.051484663 0.07454096 0.14010124 0.14286661 0.045528278 -0.13045737
-0.13926767 0.07617471 0.13109098 0.05040239 -0.07077567 0.11167377 -0.08627656 -0.060139336
-0.11115456 0.16428438 -0.08255886 -0.07016965 0.13893831 -0.069559634 0.12879917 -0.11033044
-0.108116776 -0.08887632 -0.09734316 -0.018855324 0.027257271 0.076140314 -0.099530235 -0.041665316
-0.10679177 0.16093127 -0.09956524 -0.104884036 -0.059239745 -0.09835499 -0.08560753 0.07032268
-0.09585233 0.041721337 0.16042437 0.073835626 -0.065635726 -0.12024025 -0.11776995 0.095074706
0.12901926 0.22408444 0.17209381 -0.08065294 0.10584405 -0.082423925 -0.08814648 0.07883959
0.03246359 -0.12313772 0.17350864 0.021850407 -0.13969101 -0.08557607 -0.10322307 0.13001639
-0.12048621 0.07928369 -0.06877698 0.06963361 0.112211995 -0.06741432 0.044191845 -0.44469616
0.10363378 0.13988963 -0.07098199 0.11620503 0.012292533 0.082198516 0.1279113 0.14447169
0.15571114 -0.058698356 0.03989092 -0.11160363 0.063316226 -0.11292109 -0.10962434 0.04453883
0.16820587 -0.07769766 -0.11231135 0.18582147 -0.10256705 -0.11819342 0.07848526 0.15708624
-0.11635296 0.0024269817 0.10119737 0.053213146 0.19398731 -0.11372502 0.1306017 0.049138542
0.16477153 -0.14555843 -0.06750804 0.12282348 0.022492548 0.17621987 0.07559555 0.08933697
0.031219527 -0.052558117 -0.057093956 -0.10059737 0.17548528 -0.123877354 -0.06437734 0.06695192
0.07022005 0.03653016 -0.3427605 0.013973927 -0.10673521 -0.058122702 0.16132666 0.084353715
-0.06462081 0.047045916 0.122364186 -0.1295433 0.057621796 0.16797432 -0.10754451 0.016839128
0.08305628 0.08752013 -0.12107444 0.044743072 0.11547261 0.029095098 -0.11157757 0.06930819
0.12603465 0.16722864 -0.13986689 -0.11756527 0.035687182 -0.012172089 0.069185555 -0.08224475
-0.13656192 -0.15480027 0.06892901 0.013534166 0.21163663 -0.06220385 0.16495669 0.13702722
0.06997208 -0.019335506 0.119720265 -0.11870475 0.07195641 0.16001432 -0.081436895 -0.05291763
-0.14406727 -0.07878117 0.17340921 0.07296714 0.04158699 0.17733164 0.10016895 -0.041429203
0.070982344 0.041974403 0.12572259 0.05520848 0.13170587 -0.102817565 -0.08140585 0.13202056
-0.0909725 0.035190262 -0.15926437 -0.058944456 0.13409385 -0.0070236633 -0.049054936 0.089009866
0.060881272 -0.10909683 0.053929627 -0.08104851 0.12287114 0.056542493 -0.055913553 0.030669613
0.14208944 -0.05886416 -0.07213545 0.11089446 0.16742888 -0.061005622 0.192745 0.2168
0.07300762 0.05639142 -0.08832599 0.053668316 -0.09001483 0.20698382 -0.14624754 0.15662037
0.053533956 0.2058357 0.07320441 -0.1381004 0.07977192 -0.14855403 0.30230442 -0.051092293
0.09779504 0.15588473 -0.08553836 -0.027981855 -0.09242851 -0.11744271 -0.048828535 0.05221164
-0.007326661 0.21721932 0.07106666 -0.14210473 0.15226395 -0.004317497 0.047186524 -0.09707852

fc2.weight f4 [256, 512]
00000000: db1a 8b3a c504 e73c 629e bb3d 5ec0 503d
00000010: 6943 fa3d 5289 86bd 1d85 b93d ad8e 043d
00000020: d7ee 853c 4554 d93c ec63 f83d cf57 283d
00000030: e364 503d db6a bbbb af3c 06bd 70f1 02bd
00000040: 6bdc 253d f7f1 913d 451d 143d de0a 63bd
00000050: bc15 6dbe 82a7 6f3b 1e05 64bc 7c59 87bc
00000060: 7b2d 333d f6c8 bebd aeb4 b53b 171c bd3c
00000070: f04e f3bc a751 d9bd 1e62 b8bc db76 383e
00000080: 7c9f cfbb 6de7 7d3d 44f1 143d 4e60 d83c
00000090: ad48 20bb 9ed6 423d 14ed 27be 17d8 cdbc
000000a0: c6de e03c a247 f63c fd7d 8fbc 2d09 a6bd
000000b0: e2d2 ca3b 530a 48bc 3046 fd3c d1ef 05bd
000000c0: 3727 043c 3ed9 95bc 3946 05bd 7758 80bd
000000d0: 00a1 9eba 4506 af3d d2cc a03d 026e 56bd
000000e0: 1262 0bbd d61e a73c 4354 713d a7dc 33bc
000000f0: 6af0 b03c f910 2dbd 89ea 21be e3b5 d03b
00000100: c70a 393e 6250 babc dbcf b93d 9138 cc3c
00000110: 4d44 6a3e a0f3 babc 37f7 233d 1980 183d
00000120: cc33 653d d22e 17bd fa85 b039 4fe6 aa3d
00000130: 2cc7 203d 599a 2d3d 5343 203d 9efa e53d
00000140: c96e a03d 32bb 973d b2f1 513e abac 90bd
00000150: b164 003e 81bb ff3d a5db eabc eb8f b33e
00000160: 8a86 c23d 7479 0a3d 7903 ee3c 38ec 2f3e
00000170: 19ca d53d c807 abbd 3d3c 123e 991f af3d
00000180: e6ed bb3d 8054 2bbc eeb2 babc f4e2 903c
00000190: 2af3 0dbd d2bd 813c 3aa7 f83c 413b f33d
000001a0: 1285 83bd d0da cfbb bdad 91bc c370 fe3b
000001b0: 7656 60bc 7053 a53b 84a2 e63b a695 de3d
000001c0: 8a55 b83c 4d88 3ebd ffa5 b53d 6b55 b3bd
000001d0: f516 033e ac8a 95bc 51c1 a73b c0f5 0d3c
000001e0: b304 b93d 082b b83c e8fd 033e 820c bd3c
000001f0: e695 b13d a999 b63d bc83 f9bc 78f1 c0bb
00000200: 7b04 073e 67e7 c43d ce92 233e e194 f6bc
00000210: 6de3 033e 8753 d63c a822 a7bc bf5f acbd
00000220: 1d6a 623d 5acf 70bd 39b0 b43e c9a7 6e3d
00000230: 59ff 3d3c 4280 6c3e d765 de3d a4bc 6c3d
00000240: 914b 97be 3393 2bbd ab9c 963d 122f 8ebd
00000250: 4d9b 91bd 7d5f bb3d ba6c 02bd 3320 31bd
00000260: dc83 08bb 4e45 aa3d 01e3 073d f3f5 abbc
00000270: d135 cf3d d219 803e f7cb ba3b 752b 333d
00000280: 325b fe3d 1a7a 563d d86e 9b3c 614f e03c
00000290: 46b5 223d 2e6f ae3c 4bdf c4bc 44f3 a03a
000002a0: b1be 13bc e29e 62bc 5e57 303e 8888 4c3d
000002b0: 0cd1 f2bd 6196 423e 5c9f 0a3e d1dc 543d
000002c0: c89a 9ebc b9d8 00bd b5db 0e3d 404a cdba
000002d0: f2d3 9dbc 443e ca3d 6c80 babb c828 72bc
000002e0: 8c10 c23d 0bf5 7cbc 0ee1 613d 3140 1e3d
000002f0: 0074 de3c 0ce3 9b3d 3501 393d 1ff4 143e
00000300: ebed f33c 48c7 d8bb 0300 a63c 19d7 ac3d
00000310: d36b 6a3d a2e0 b23d 3c09 83bc 9734 0c3d
00000320: b25e 2e3d d423 bbbb 6cb7 153d 594d 0c3e
00000330: 5efe f83d 8554 f3bc bc4d 3bbc f734 cbbc
00000340: 96c0 a63a a00c a23d a9be 023e 5f69 d83c
00000350: 2fcf cd3c 07af 773d b289 ed3c ef26 7bba
00000360: 1fbc b0bd 5e2e 463c 60e3 e0ba d653 a73d
00000370: 7acb 873d 4aa4 7abd b843 e43d 5443 aa3c
00000380: f922 343e 75f4 80bd b379 20bd d430 f5bc
00000390: b86d e2bc a5e8 e23c c7c0 e93b 4834 e83d
000003a0: 2708 ea3a 69f7 7dbc af6e 10bd 637e 553d
000003b0: 8cf8 3cbd 3c37 2c3d 2de8 d73d 7e6b 8cbc
000003c0: 1da3 333e 7788 533d 42e0 00bc 38c3 cd3c
000003d0: 6c62 69bc 12a9 dc3c a46e 373d 9d84 73bd
000003e0: 2653 003c c10d 5e3c 9075 efbc 6229 063d
000003f0: 1f0c 883d 79c8 08be 7309 c53b 520c 76bc
0.0010612862 0.028200516 0.091610685 0.050964706 0.12219889 -0.065691605 0.090585925 0.03236263
0.01634924 0.02652944 0.121284336 0.041099366 0.050877463 -0.0057195253 -0.032772716 -0.031968534
0.04049341 0.07126229 0.036160726 -0.055430286 -0.23152822 0.0036568348 -0.013917236 -0.016522162
0.043744545 -0.09315674 0.0055452203 0.023084683 -0.029700726 -0.10611277 -0.022507723 0.1801409
-0.0063361507 0.061988283 0.0363629 0.02641311 -0.002445738 0.047567956 -0.16399032 -0.025127454
0.027449977 0.030063454 -0.01751613 -0.08107219 0.00618969 -0.012209493 0.030917257 -0.03269941
0.00806599 -0.018292066 -0.032537673 -0.06266873 -0.0012102425 0.08546118 0.078515664 -0.052351005
-0.034029074 0.020400446 0.05891825 -0.010977901 0.021599013 -0.042252515 -0.15812124 0.006369339
0.18070517 -0.022743408 0.090728484 0.024929317 0.22877617 -0.022821248 0.040030684 0.03723154
0.0559576 -0.036909886 0.00033669156 0.08344709 0.039252445 0.042383526 0.039126705 0.11229442
0.078336306 0.074087515 0.20502356 -0.07064184 0.1253841 0.124869354 -0.028669188 0.35070738
0.094983175 0.033807233 0.02905439 0.17179954 0.10438938 -0.083510935 0.14280792 0.08550949
0.09176235 -0.010457158 -0.022790398 0.017686345 -0.034655727 0.015837584 0.030353177 0.11876536
-0.064218655 -0.006343223 -0.01778304 0.007764907 -0.013692489 0.005045347 0.0070384163 0.10868387
0.022501726 -0.046516705 0.08869552 -0.087565266 0.12801726 -0.0182546 0.0051194807 0.008664548
0.090340994 0.022481456 0.12889826 0.023077253 0.08671169 0.08916027 -0.030458324 -0.0058881603
0.13185303 0.09614449 0.1597397 -0.030100288 0.12879725 0.026162876 -0.020402268 -0.084166996
0.05527698 -0.058791496 0.35290697 0.05826548 0.011596524 0.23095801 0.10859268 0.05779709
-0.2954984 -0.041888427 0.07354101 -0.06942572 -0.071096994 0.09149072 -0.03184197 -0.0432436
-0.0020830547 0.08314 0.033175472 -0.020991301 0.101176865 0.250197 0.005700584 0.043742616
0.12419738 0.05236254 0.018973753 0.0273816 0.039723657 0.021293249 -0.024032256 0.001227953
-0.009017632 -0.013831826 0.17220828 0.049934894 -0.11856279 0.19002678 0.13537353 0.0519684
-0.019360915 -0.031456683 0.034877498 -0.0015662387 -0.019266102 0.098751575 -0.0056915786 -0.014780231
0.09475812 -0.015439282 0.05514627 0.038635436 0.027154922 0.07611665 0.045167167 0.1454625
0.029776534 -0.006615553 0.020263677 0.08439464 0.057231735 0.087342516 -0.015995614 0.03422984
0.042570777 -0.005711058 0.036551878 0.13701381 0.12157892 -0.029703388 -0.011432108 -0.024805529
0.001272219 0.07912564 0.12768044 0.026417432 0.025123207 0.060469653 0.028996322 -0.00095806917
-0.08629631 0.012096016 -0.0017157607 0.08170287 0.06630607 -0.061191835 0.11145729 0.020784058
0.17591466 -0.062966265 -0.03917856 -0.02993051 -0.027640209 0.027698824 0.0071335766 0.11338097
0.0017855213 -0.015500882 -0.035261806 0.052122485 -0.04613547 0.042044863 0.10542331 -0.0171411
0.17542692 0.051643815 -0.007865967 0.025117502 -0.014244657 0.026936088 0.04478325 -0.05945264
0.007832324 0.013553084 -0.029230863 0.03275431 0.06642937 -0.13357724 0.0060130893 -0.015017586

fc2.bias f4 [256]
00000000: 6f25 3cbc 5892 6bbb a2d4 873d 49bc 8c3c
00000010: 61f9 5dbb f9b9 f4bc 1338 b93d 5562 603d
00000020: aa01 ad3d f1e2 3f3e c1fa d23d 6277 36bd
00000030: acea 853b 8b56 20bd c49a 3abd f27c 4ebd
00000040: 56bf b73c 77f0 b1bc cc32 18bd 9f9a f63d
00000050: 22fa fabc 038f 8abc d46d b03a 8a47 25bc
00000060: f37c 5dbd fa77 36bd 039c 10bd 141e 30bd
00000070: 1844 b8bc 3b8e dabc 1eec 053c 714a ce3d
00000080: ba12 3c3d 9ebb a7bb 0b94 083d ca40 e63c
00000090: 8014 073d 102b 833d 90da afbc f224 413d
000000a0: 0cdb 92bd c4cc 80bc 9106 193e ef86 9b3d
000000b0: 9d62 d83c 0876 8abb ec26 b23d 5959 81bc
000000c0: b9c3 3abc bd70 813c 9901 57bc e9a3 a03b
000000d0: a279 123d 9cbc 1e3e f7ee 51bc eec1 57bd
000000e0: cc59 d53d ca1a e2bc 3f01 e23c 36b7 f73b
000000f0: f502 ec3c 3df8 20bd b814 e53b 71b2 1fbd
00000100: 4a76 373d 62b5 cbbc c147 3abc 1074 03bd
00000110: a8e3 20bd 5420 c9bc ce87 8f3c adb4 493d
00000120: 56a9 fcbc 4753 7dbc 45c1 50bc 6786 c63c
00000130: 7992 47bc 4fc6 f4bc e432 a3bc 7c65 7dbc
00000140: 6313 43bd 733c f6bc d171 4bbd b215 0ebd
00000150: 4ae2 a73d 6ffc ab3d 5e82 063d 935d 5abd
00000160: 05f1 2b3d abf1 8dbd 7d8c 6dbd 9ffd 3dbc
00000170: 1903 c53d 9efe 32bc 935c 76bd 6054 aa3d
00000180: 10e5 923b 5bb5 253e 25b1 f9bc 5db8 7b3c
00000190: d533 363d 954d 7b3c 35ad fe3a 6b50 b33d
000001a0: 2d97 4f3d e795 e13c 0bc8 903c a580 efbc
000001b0: 829d c43c 4088 b83c 82e8 e43c db69 d8bc
000001c0: 1f61 45bd 3a39 623d 1fa3 20bd b892 4abd
000001d0: da5d f2bc fdb1 3abc 8406 b2bc 7a97 bd3d
000001e0: 16cc 5a3c 6896 043d 2e6d c23c c203 53bd
000001f0: b003 16bd 4642 27bb b164 8ebc 55da 55bd
00000200: 810a cfbc 0ccc c53c 879e ac3c 6ec9 13bb
00000210: 56e8 0abd 15a9 fcbc 1f89 313c cc4f ad3c
00000220: e47e 383d 9199 ffbc c71d 5abd dbea a2bc
00000230: ff0e 48bc dfe4 a8bc f986 0dbd 7c55 b33c
00000240: b308 fa3d c0ec d13c aaed 853c 9eb4 c23d
00000250: 60af 45bd c815 0abd 4c7a d93d 0429 d23c
00000260: f7ee bbbb f4d4 d1bc d2fe c03d 6dcc 64bd
00000270: f4c2 85bd 9dcc 7d3d 4d1e ae3c e465 a63c
00000280: 2952 d73c b9d4 bf3c 5873 17bd 58f8 0b3e
00000290: 5aa9 12bc 60d2 1abd a38e 72ba 381b b6bc
000002a0: 737f 09bd 4e1b e3bb d8bc a8bc 9241 ecbc
000002b0: 3ddf ccbb bd79 29bd c5cb b33d 2145 47bd
000002c0: 8e15 e8bc e64a 10bc 6c38 983a eaf0 b0bc
000002d0: c470 cb3d 7613 a4bc d402 1d3c 721a 5a3b
000002e0: f1d8 34bd 06a3 fa3a 441c 54bd 45f1 32bc
000002f0: a213 c53d 5bd3 2cbc c576 023e 0c0c 26bd
00000300: 9bf4 11bd b6e2 a73d c58b f33c 1248 23bd
00000310: f70c 5e3c de0a d73d cce9 88bc b7b0 b4bc
00000320: 3bda 7e3d 8570 493d 82c7 083d 1413 363e
00000330: 39f5 c5bc 3a5c d03b f7e2 1e3d 7d09 d8bc
00000340: 8950 87bb d2b4 883d 1a3f 463d f0d5 013d
00000350: 2a64 ea3c 4888 243d 2b7f 2d3d 520f 6abc
00000360: 3213 dfbb 1154 34bd c71e 4bbd 65e4 2abd
00000370: 29a1 783d c21d 04bd a667 1a3e 1273 ac3d
00000380: 3842 303d 0219 febc eee0 823a 124c 203e
00000390: 7377 883d 45a7 9bbc 9c5d a93d 735e 943d
000003a0: bbb7 ed3c 4f89 41bc 73d7 5bbd 086d 4cbd
000003b0: 14a1 4ebc cd0f 93bc 574e 0a3e e621 713d
000003c0: 2367 f6bc 194a b13d 95d6 dd3b 1e36 bcbc
000003d0: 47fc 8dbd cb4b 953d ad21 12bd 9562 ca39
000003e0: 59e0 43bd e24b 273c 10ff fabc 8cc6 56bd
000003f0: b4d6 283d 7a45 4fbd d123 f73d c787 11bd
-0.011483534 -0.0035945382 0.06632353 0.017179625 -0.0033870565 -0.029873835 0.090438984 0.054781277
0.08447583 0.18738915 0.10301734 -0.044547446 0.004086813 -0.039145034 -0.045557752 -0.050412126
0.022430103 -0.021721108 -0.03715782 0.120412104 -0.03063685 -0.016913896 0.0013460466 -0.010087857
-0.05407424 -0.044548012 -0.035305034 -0.042997435 -0.022493407 -0.026679149 0.0081739705 0.10072792
0.045916297 -0.0051188013 0.03334431 0.028107066 0.032978535 0.06404698 -0.021466523 0.047154374
-0.07170686 -0.01572264 0.14943911 0.07594096 0.02641421 -0.004225496 0.0869883 -0.015789675
-0.011399203 0.015800828 -0.0131229395 0.004902352 0.03576053 0.15501636 -0.012813321 -0.05267518
0.10417518 -0.027600665 0.027588485 0.0075596822 0.028810004 -0.03929924 0.0069909953 -0.038988534
0.044790544 -0.024866764 -0.0113696465 -0.032093108 -0.03927961 -0.024551548 0.017520811 0.04924457
-0.030842464 -0.015461749 -0.012741392 0.02423401 -0.012180918 -0.029879717 -0.019921727 -0.01546609
-0.04762591 -0.030058121 -0.04966909 -0.03468866 0.08197458 0.08397757 0.03283917 -0.053311896
0.0419779 -0.0693086 -0.05799531 -0.0115961125 0.096197315 -0.010924963 -0.06014688 0.083168745
0.004482873 0.16182463 -0.030479977 0.01536378 0.044483025 0.015338321 0.0019430282 0.08755573
0.05068128 0.0275373 0.017673513 -0.029236147 0.024000887 0.022525907 0.0279429 -0.026417663
-0.048188325 0.055230357 -0.039218064 -0.04945633 -0.029585768 -0.011394975 -0.021731623 0.092574075
0.013354322 0.03237 0.023733702 -0.051517256 -0.03662461 -0.002552168 -0.017381998 -0.05221017
-0.025273563 0.024145149 0.021071685 -0.0022550481 -0.03391298 -0.030842343 0.010835915 0.021156214
0.045042887 -0.031201156 -0.053251054 -0.019887378 -0.012210607 -0.020616947 -0.034552548 0.021891348
0.122086905 0.025625587 0.016348679 0.09507106 -0.048262954 -0.03371218 0.106190294 0.025654323
-0.005735274 -0.02561424 0.09423603 -0.055859018 -0.06531325 0.061962713 0.021254683 0.020312257
0.026284294 0.023416864 -0.036975235 0.13668954 -0.008951509 -0.037798285 -0.0009252822 -0.022229776
-0.03356881 -0.006930745 -0.02059786 -0.02883986 -0.006252198 -0.041375864 0.087791 -0.04864991
-0.02833059 -0.00880692 0.0011613495 -0.021599252 0.09933618 -0.020028811 0.009583194 0.0033279923
-0.044152204 0.0019122071 -0.05178477 -0.010921781 0.09622885 -0.010548438 0.1274062 -0.040538833
-0.035633665 0.081975386 0.029729733 -0.039863653 0.013552896 0.105001196 -0.016713046 -0.02205692
0.06221984 0.049179573 0.03339339 0.17780715 -0.024164783 0.0063586505 0.03879067 -0.026371712
-0.0041294736 0.06675114 0.048400022 0.031698167 0.028612215 0.04016903 0.042357605 -0.014285879
-0.006807708 -0.044025484 -0.0495899 -0.04172172 0.06070057 -0.03225494 0.15078601 0.084203854
0.0430319 -0.031017784 0.0009985247 0.15654019 0.06663408 -0.019000659 0.08269808 0.07244577
0.029018274 -0.011812522 -0.053672265 -0.049908668 -0.012611646 -0.01795187 0.13506447 0.05887022
-0.030078476 0.08656711 0.006769965 -0.022975024 -0.06932884 0.07289847 -0.035676647 0.00038601892
-0.047821376 0.010210963 -0.030639201 -0.052435443 0.04122038 -0.050603367 0.12067378 -0.035529878
