data/predictor/Ablation/9_TNetwork-F_2024-06-30_14-04-27.pt (torch, 866167 bytes, 16 tensors)

conv1.bias f4 [64]
00000000: 547a 50bd c70e 9f3c 0a6c 98bd e728 5dbc
00000010: 531c 58bd d09b 14bd b3f9 d6bc de76 d2bc
00000020: 1b98 8dbb 5284 ecbc 69e8 873c 0000 0000
00000030: 8bf6 5fbd 1b10 7ebd 6ea8 64bd c069 fd3c
00000040: d142 e4bc e248 d2b9 faa2 e7bc fa89 883d
00000050: b0dd 49bd a73a 043d 9edb 683c bda2 a3bd
00000060: 05db 9fbd 37d3 003c 220c 173c 8fbd a1bb
00000070: 0f20 17bd bfab 07bd a62a 73b9 99b0 b63d
00000080: 4cb2 4b3c 42bc aabc a88c b5bc 8e37 4a3c
00000090: 06c2 ffbc fa1c 463d 3970 7cbd 88c9 c4bb
000000a0: 7615 0abd 12b3 1cbd 46f5 1ebb d3c9 133d
000000b0: 2aa7 b4bc a1ad fabc 31de a93c d869 33bc
000000c0: 1a57 c8bc 59ec cbbc 0000 0000 c652 f0bc
000000d0: 2399 0fbd 30d4 8ebc 499d bd3d 32fb 30ba
000000e0: e485 e03b 2de2 86bb ed90 093d b001 683d
000000f0: 0000 0000 048b 8d3d 8216 c73d 964f a7bc
-0.05089791 0.019416226 -0.07442482 -0.013498521 -0.052761387 -0.036281407 -0.026242113 -0.025691446
-0.004321111 -0.028871689 0.016590314 0.0 -0.05467848 -0.062027078 -0.05582469 0.030934215
-0.027863892 -0.00040108623 -0.028275955 0.06666942 -0.049283683 0.032282498 0.014212517 -0.07990024
-0.078054465 0.007862858 0.009219201 -0.004935927 -0.036895808 -0.033122774 -0.00023190174 0.08920402
0.012432646 -0.020841721 -0.022161797 0.012342347 -0.031220447 0.048367478 -0.06163046 -0.0060054697
-0.033711873 -0.038256712 -0.002425508 0.036081146 -0.022052366 -0.03060037 0.020735832 -0.010950528
-0.024455596 -0.024892973 0.0 -0.029336344 -0.035058152 -0.017435163 0.092585154 -0.0006751298
0.0068518985 -0.0041163177 0.033585478 0.056642234 0.0 0.06911281 0.0972109 -0.020423692

conv1.lin.weight f4 [64, 6]
00000000: 3ae2 bd3d bb98 e83d 4b43 20bd 4298 17bd
00000010: 6865 acbc 59fc b73f b2d4 58be e75f e0bd
00000020: 0fa0 833d d671 8d3e 8268 4cbe d993 633e
00000030: 34bd e63d 3b61 eebc a51b 1e3e 7570 e13e
00000040: 1676 a6bd 794c 873f c8c9 d03b d3b0 6c3e
00000050: 0223 16bf d0e3 a3be e634 ca3c cac2 d0bd
00000060: 3c61 7fbd 732a 3dbe 662d cdbd 27fc 87be
00000070: 39f3 5a3e 3f69 7fbe df0f af3d 0b77 b4bc
00000080: 8efc e63e 691c 30bf e762 203e 2467 dd3e
00000090: 2e71 c1bd c64e d73d 22c1 5d3e d5ca edbe
000000a0: 34c1 933c b31d 203e 1a61 e5bd c6f6 ecbd
000000b0: d2e3 8e3c 26e0 35be 64b0 e9bd 5884 9ebd
000000c0: 3bbc 873e 7d5d 5dbe f3a4 3cbd 3a64 063f
000000d0: 7226 10be a26a e3be 3b4d 61bd 1e3a a73d
000000e0: 10e6 c93e 44ee ee3d c1b8 bd3d 8498 0f3f
000000f0: c065 c0bc fe96 adbc 0509 093f 0b15 7b3d
00000100: e21a b2bc 1d1d 393f 2c4b 62be 806b 79bd
00000110: a84c 0dbd 7ff0 7fbe cae9 aabd 197c 25be
00000120: 20fa ddbd b701 253e b550 5d3e 85fa afbf
00000130: ae60 0b3d aea3 c43f cec9 e43d 5f16 cebb
00000140: 76b4 093e c6d3 3fbf 2097 0dbe 8a82 103f
00000150: a375 d23d 0824 e2bd fb3c b3be 362f 453d
00000160: 42d3 6bbe 9fbe d63e d393 5e3e 3c55 9ebe
00000170: 669f 1b3e 2044 713e 5829 64bd 108b a8bf
00000180: 88e2 c03d e3ff 93bd 0772 923d 93be e6bd
00000190: 606d 12bd b521 a0be b08c 7abc d312 ad3e
000001a0: 1163 91be b679 7fbe c002 ebbb 49ae 7abc
000001b0: 0ed9 033e ac4c fdbb e892 353d 1b86 183e
000001c0: 5537 8e3d e81a 3ebe e79e e4bd 0db9 e63e
000001d0: 14c2 12bf 0960 c3be f970 9cbd dd1b ce3d
000001e0: 58d4 f63d 7c0d 8e3d 42e8 de3e 4fe2 c23e
000001f0: 75b3 4fbe b628 c03d 76d4 85bd aab9 0dbd
00000200: bad2 df3e ef35 553e 1b2c 3bbe c4cf e93d
00000210: 5cfc a5bc 9c47 c23d 494a 493e d060 0b3f
00000220: 7ab6 b4bd a331 d7bd 2dbc cd3d 6077 623d
00000230: db6a c53e 7c2e 9e3d b206 59be 1469 543f
00000240: 9c2a 4b3e c76a 673e b910 1bbf 87d0 973e
00000250: 65b1 e63b f2b1 8dbe ca35 eb3d d080 8fbe
00000260: 7d82 4e3e cc97 4abe 7ca9 87be 8509 763f
00000270: 7657 07be bac5 903e 20b4 1bbf 1ca1 993e
00000280: f7d3 663e e15b bd3e f0a7 173c d702 3a3e
00000290: 3325 75bf 9366 863e 4cf8 4cbd 1c93 2b3f
000002a0: 703a 0c3e 6f9c e5bd 5be1 c43e 46d8 b13d
000002b0: a992 19be e290 dd3e 9226 c9be 0a07 8d3e
000002c0: d7ee 55bf 183c b63e 23ea e23d d8c6 0b3f
000002d0: 5658 03be 9ad2 d63d 2657 d33e 4643 2b3e
000002e0: 534f 60bc b92a 723f 6e6a bcbe 78fd 1a3c
000002f0: ac9a 14bf 79d8 803e 6bed 17be 241d 753f
00000300: 5328 56be d284 99be 8c4e a2be 6685 ef3e
00000310: d708 653d 60a3 203f 76fc b03d a239 aebd
00000320: a632 b43e 1f87 893e 010d 1e3e 1da9 50be
00000330: a0ca 9b3c fae4 11bf 2319 84bf c6c5 fb3e
00000340: 3498 0f3e 68a7 c2be e8f5 9fbe 00a2 97bd
00000350: 0e85 f93e 0040 a7bf bd9e f53c 217c 04bf
00000360: d4e3 103e b5eb 553e 3c62 073f e6fa e5be
00000370: 4416 39bd 4cb1 b8bd 84b0 69bd c166 b03d
00000380: 50de d5be e813 9c3e 54c2 00be 147f 553f
00000390: 703a 123d 6929 0b3e 513c 893d 2759 bdbe
000003a0: 90da 5c3e d37c c13e 92de 31be aa7b 40be
000003b0: 3bda 3dbe ded9 82bd ca93 85bb e631 38be
000003c0: a343 153e b3ee 76bd 04c1 8e3e 3af6 f2be
000003d0: ce59 2bbe 6b0b 773e ff4c 2c3e 5b19 7a3d
000003e0: 8655 4e3e 99da f9be 1268 2e3d 88b9 27bf
000003f0: 0b64 14be fe0b 8fbe 2b10 56be 1f57 b63e
0.09271665 0.11357256 -0.039126676 -0.03701044 -0.021044448 1.4373885 -0.21174887 -0.10955792
0.06427013 0.27625912 -0.19961742 0.22224368 0.112665564 -0.029099097 0.15440233 0.4403111
-0.08127992 1.0570213 0.0063717104 0.23114328 -0.5864717 -0.32009745 0.024683427 -0.10193403
-0.06234859 -0.18473224 -0.10018425 -0.26559564 0.21381845 -0.24942492 0.08547949 -0.02202942
0.4511456 -0.6879335 0.15662728 0.43242753 -0.094454154 0.10513072 0.21655706 -0.4644381
0.018036462 0.1563633 -0.11200161 -0.11570506 0.017442618 -0.17761287 -0.11410597 -0.07740086
0.26510796 -0.21617694 -0.046055745 0.52496684 -0.14077166 -0.44417292 -0.055005293 0.08165382
0.39433336 0.11666539 0.09263755 0.56092095 -0.023486018 -0.021190163 0.5352939 0.061299365
-0.021741334 0.7231005 -0.22098988 -0.060893536 -0.034496933 -0.24994086 -0.08345373 -0.16160621
-0.10838723 0.16113935 0.21612819 -1.3748327 0.034027748 1.5362451 0.11171304 -0.006289288
0.13447747 -0.74932516 -0.13827181 0.56449187 0.10276344 -0.11042029 -0.35007462 0.048140727
-0.23029807 0.41942307 0.21736078 -0.30924404 0.15197524 0.23561144 -0.05570349 -1.3167439
0.094182074 -0.07226541 0.07150655 -0.11266818 -0.03574884 -0.31275716 -0.015292332 0.33803424
-0.28395894 -0.24948773 -0.0071719587 -0.015300342 0.12875769 -0.0077300873 0.044329554 0.14894907
0.069441475 -0.18564951 -0.11163121 0.45063058 -0.5732739 -0.38159207 -0.07638735 0.10063908
0.1205222 0.06936166 0.43536574 0.38063285 -0.20283301 0.09382765 -0.06534664 -0.03460089
0.4371546 0.20821355 -0.18278544 0.11416581 -0.020261936 0.09486315 0.19657244 0.544446
-0.08823867 -0.10507514 0.10045657 0.055289626 0.38558087 0.0772371 -0.2119396 0.82972836
0.19840473 0.22599326 -0.6057239 0.2965128 0.00704019 -0.27674824 0.11484869 -0.28027964
0.20166965 -0.19784468 -0.26496494 0.96108276 -0.13216957 0.28275853 -0.60821724 0.3000573
0.22541796 0.3698416 0.009256348 0.18165146 -0.95759887 0.26250133 -0.05004148 0.67021346
0.13694167 -0.11211478 0.38453183 0.08683829 -0.14997353 0.432746 -0.3928724 0.27544433
-0.83567566 0.35592723 0.11079814 0.54600286 -0.12826666 0.10489388 0.41277426 0.16724882
-0.013690787 0.9459644 -0.3679995 0.009459846 -0.5804851 0.25165156 -0.14836662 0.9574759
-0.2091382 -0.29984146 -0.31700552 0.46781462 0.055916633 0.6274929 0.08641903 -0.08507086
0.35194892 0.26860902 0.15434648 -0.20377012 0.019017518 -0.56990016 -1.0320171 0.49174327
0.14022905 -0.38018346 -0.312423 -0.07403946 0.48734325 -1.3066406 0.029982919 -0.51751906
0.1414941 0.20890696 0.5288427 -0.44917983 -0.04518725 -0.09018192 -0.057053104 0.08613349
-0.41771173 0.30483937 -0.1257413 0.8339703 0.03570026 0.13590015 0.067009576 -0.3698208
0.2156775 0.37790546 -0.1737006 -0.18797174 -0.1854028 -0.06389211 -0.0040764557 -0.17987785
0.14576583 -0.060286235 0.27881634 -0.4745348 -0.16733477 0.2412545 0.16826247 0.061059337
0.20149812 -0.4879959 0.042579718 -0.65517473 -0.14491288 -0.27938837 -0.20904605 0.35613343

conv2.bias f4 [64]
00000000: dfca 873b 16ca 743c 886b 28bd 0b23 93bd
00000010: 813d d8bb b9c7 d039 e213 24bd 7a15 c3ba
00000020: 2021 44bd 22a4 91bc fcea eb3b 754f 8fbc
00000030: 8c26 5bbb 9173 86bc 6bfc f83c 0000 0000
00000040: d66f 4abd e15c df3c 0ec5 21bd 3f1e a7bc
00000050: a7a3 abbc 57af ff3b 01fe 40be 86b5 3ebb
00000060: 773f b8bb a703 dfbb c3ed 3dbb 5175 d53c
00000070: cd1a 97bc 5237 52bd 3247 f13b 0b37 10bd
00000080: abff 19bc 8db5 2dbd dead 9dbc 1e34 9bbc
00000090: 92dd 20bd 7c4a ac3b 40d3 da3c c295 ae3c
000000a0: 3ec0 18bd 5f3f eabc 2d4c c23b aab2 8cbc
000000b0: 523d a8bc 423b 823c 4d33 d2bc 3ca1 09bb
000000c0: b384 32bb 5fd4 38bd 0000 0000 e849 1dbc
000000d0: 5e9c c5bc 1904 55bd 3c3e b4bc a972 c5bc
000000e0: 7da8 c1bc 2015 40bc 635d 943c 5099 243c
000000f0: 762b 393c 8626 ffbc ddb4 943b 4450 ed3c
0.004144057 0.014940759 -0.041118175 -0.07184418 -0.0065991287 0.00039821657 -0.040058024 -0.001488372
-0.047883153 -0.01777846 0.007199643 -0.017493943 -0.0033439724 -0.016412528 0.0303938 0.0
-0.04942306 0.027265968 -0.039494567 -0.020400165 -0.020952059 0.0078028846 -0.18846895 -0.0029099896
-0.0056228 -0.0068058553 -0.0028980828 0.026056917 -0.018445397 -0.05132229 0.0073632235 -0.035208743
-0.009399335 -0.04240947 -0.019247945 -0.01894575 -0.039273806 0.0052579027 0.02671206 0.021311644
-0.03729271 -0.02859467 0.005929491 -0.017175037 -0.020537052 0.015897397 -0.025659228 -0.0021000644
-0.002723974 -0.045124408 0.0 -0.00960014 -0.024122413 -0.05200586 -0.022002332 -0.024102526
-0.023639912 -0.011723787 0.018110937 0.010046318 0.011301866 -0.0311463 0.004538162 0.028968938

conv2.lin.weight f4 [64, 64]
00000000: fe0f 733e 646c 293e 048a 3abc e91b 413e
00000010: 8f51 7f3b 3000 18be 68fb 773d 891d f43d
00000020: 8398 6fbe 603a f33d 6635 83be 5b5f 103e
00000030: 32c7 9cbe 0b27 e7bd a01b 713d 83a0 e0bd
00000040: 3e90 e23d 341e 6f3d 158b 28bd 1594 703e
00000050: 0c2e 5b3d 64a9 f3bc 57a4 673d 4e7e 3e3d
00000060: 64c1 783c 9589 41be 6e2d 433d 83d8 be3d
00000070: 3b95 debc 418c 16be 815e ce3a b37e 233f
00000080: 9615 fe3d 40d2 2b3d 20ba 16be 1df1 d83c
00000090: bb70 873d 3565 573e 1bb6 0fbd afef 463e
000000a0: 8d64 cd3a 3bff 05be 9c3d 2d3e 8570 573e
000000b0: 62f2 303e f3f1 efbd e36a 183e 7b08 8abe
000000c0: b69f cebd a8f5 4d3e d0e8 a0bd 6291 e2bd
000000d0: d441 653e c4c3 373d 0132 9a3d 8f97 173e
000000e0: 1444 fe3d 3881 c8bd 1223 e73c 9833 f83d
000000f0: b6fd 923d 39aa ab3e 2eed 3dbe 25a4 9bbc
00000100: 42bb 063e 0311 dbbd 934a d1bd 49c2 cdbd
00000110: 2df5 66be a1cb acbc a39d 103e ca71 003d
00000120: 34b6 70bd 1d39 003e cec8 e83e f5e9 4e3e
00000130: b822 0d3f 145b 933d be7a cabd 50f5 bfbd
00000140: 8ce6 093e fbaa e23d 37c9 2fbe f7f3 343e
00000150: b87d 1abd d328 433e e642 733e 512a 803e
00000160: 8256 0dbe 4ed0 a83d 763b 2bbd 142d 14be
00000170: ffc0 7e3e aa98 96be 88df a83e 2c20 39bf
00000180: 5853 07bf 55c1 e5bc 0029 0b3e 3e99 b83e
00000190: 23aa 973d 7695 93be e77e b93d 8363 2f3e
000001a0: 3747 2bbe a119 17be 7483 0dbf fb67 03bf
000001b0: e82c 553e 0bd4 593e b534 38be dd49 8c3d
000001c0: da39 2d3e 0557 34be 2803 8cbd 5ea8 953e
000001d0: 9f79 f33d 0499 903c a4a6 a73d 62d1 9f3d
000001e0: 72b2 37be 7683 023e 4aff 41bd 29e3 3ebf
000001f0: 9e26 eebd c1d1 87be 5f05 413e 16a4 463d
00000200: 16ad ae3d 106b e6bd fe4c e53d 9161 cf3d
00000210: 2251 c43d acf8 023e 30d0 89bc d478 2bbe
00000220: 05f7 60be a4cb 72be 998f 333d dcbd 1d3d
00000230: 6da9 1dbe 4df4 d03d 37e1 ca3d 376f 45be
00000240: 2499 ce3d d9ca 753d 44e0 f53b 3500 41be
00000250: 1bef 6bbe 3548 f6bd 4ed9 aebd d2b3 c6bd
00000260: bd28 2bbe 0016 5e3d f41d 153e ab29 d6bd
00000270: fac0 c93c c944 1abd 376b 52bd b2f9 b93d
00000280: 6cad acbd fb96 323e 1d07 51be 8071 35be
00000290: 8731 073e 0a81 203b 940e 813d 0ed0 f23d
000002a0: bdd7 37bd dfcb 40be bb7e 33be 42ac 70bd
000002b0: 1c59 203d 3a3d 1dbd 4e0a f6bb bb4f b53d
000002c0: 4df0 de3d 50d2 053e 3cc1 153d a7d6 7ebe
000002d0: 9bbc 1d3e 2cf1 41be 55d8 b93d 1a7c 053e
000002e0: ab79 c63d ce3e 3a3c 5073 073c 0ef3 3fbb
000002f0: 4515 033e e9f2 073e c619 c7bd 16ae 2dbe
00000300: f51a fd3e 8513 7abf 3a7d 6c3e ac19 bdbc
00000310: 18eb 063e 29d0 02bd 16bd 7ebc 0193 84bd
00000320: 9f52 85bd 380c 4e3e de2f 6c3e 8f70 2d3e
00000330: ac1e 023f edc3 5bbc dd71 ebbc edfa 9bbe
00000340: 4761 86be 0a08 0c3e 6fbd 23be 5be7 06be
00000350: 3fca 403e 52a9 eb3c 5e8b 0cbe 6982 b53d
00000360: 793e b33d 143a 663e a8eb 9dbd bc8f de3c
00000370: d281 4d3e 4d25 d9be 63e2 503d cdc8 83bf
00000380: 3cc6 fabe c040 1b3e ab18 5cbd b22e 30be
00000390: 5e0c 3dbe 6543 eb3e 9111 083e 3b41 98bd
000003a0: 6735 043e 7766 8ebe e59a b13c 9c2f a5bf
000003b0: 59f7 b43e 196d 263e 7dc8 2ebe fe36 2dbe
000003c0: 277f aa3e 2211 953c 9996 3f3e 7bcb f13d
000003d0: d7fc 063e 47f6 aabc 7aea d6be 742b b6bd
000003e0: 2fda d8be 49c3 63bc b881 633e e8f4 72bf
000003f0: 0927 50be 482f f8bd d9d0 543d 362a c3bd
0.2373657 0.16545254 -0.011385445 0.18858303 0.0038958525 -0.14843822 0.060542494 0.11919696
-0.23398022 0.118763685 -0.25626677 0.14098875 -0.30620724 -0.11286744 0.058864236 -0.10968115
0.11062668 0.058378413 -0.041148264 0.23493989 0.05351071 -0.029743858 0.05655321 0.046507172
0.015182827 -0.1890014 0.047650747 0.0931864 -0.027170768 -0.1470194 0.0015744717 0.638652
0.12406461 0.041948557 -0.14719439 0.02648216 0.066132985 0.21034701 -0.03508578 0.1942737
0.0015670225 -0.13085644 0.16918033 0.21039017 0.17279962 -0.1171607 0.14884524 -0.26959595
-0.10089056 0.20113242 -0.078569055 -0.11062886 0.22388393 0.04486443 0.07529069 0.14803909
0.124153286 -0.097902715 0.028214965 0.12119216 0.07177298 0.33528307 -0.18547508 -0.018999169
0.1315737 -0.10696604 -0.10219302 -0.100468226 -0.22554465 -0.021093192 0.14122634 0.031358518
-0.058767512 0.12521787 0.45465702 0.20206435 0.551311 0.07195106 -0.098866925 -0.093729615
0.13466853 0.11067768 -0.17166601 0.1767119 -0.03771755 0.19058542 0.23755988 0.25032285
-0.13802531 0.08242856 -0.041804753 -0.14470321 0.2487831 -0.29413348 0.3298304 -0.72314715
-0.5286155 -0.02804629 0.13589859 0.36054415 0.07405498 -0.28824967 0.09057408 0.17127804
-0.16726385 -0.1475587 -0.55278707 -0.51330537 0.20817912 0.21272294 -0.17988856 0.06850026
0.169166 -0.1761132 -0.068365395 0.29230016 0.11888432 0.017651089 0.08186081 0.078036085
-0.17939165 0.12745461 -0.047362603 -0.7456537 -0.116284594 -0.26527217 0.18849705 0.04849633
0.08529107 -0.11250889 0.11196326 0.10126031 0.09585787 0.12790173 -0.016822904 -0.16745311
-0.2196923 -0.23710495 0.043838117 0.038511142 -0.15396662 0.10202847 0.099062376 -0.19280706
0.10087803 0.060007904 0.007503541 -0.18847735 -0.2304043 -0.12025491 -0.08537541 -0.09702267
-0.16714759 0.0542202 0.14562207 -0.10457166 0.024628151 -0.037663255 -0.05137178 0.09080829
-0.08431515 0.17440407 -0.2041287 -0.17719078 0.13202487 0.0024490976 0.06301609 0.118560895
-0.04488348 -0.1882777 -0.17528813 -0.058758028 0.03914748 -0.03838847 -0.0075085526 0.08853098
0.108856775 0.13068509 0.036561236 -0.24886571 0.15403979 -0.18939656 0.09074465 0.13035622
0.09691175 0.011367513 0.008267239 -0.002928916 0.12801082 0.13276257 -0.09721713 -0.1696094
0.4943463 -0.97686034 0.23094645 -0.02308353 0.13175619 -0.0319368 -0.015548011 -0.06473351
-0.06509899 0.20121849 0.23065135 0.16937469 0.5082805 -0.013413412 -0.028740818 -0.3046488
-0.26246092 0.13674942 -0.15990232 -0.13174193 0.18827151 0.028767262 -0.1372504 0.088627644
0.0875215 0.22483093 -0.077109635 0.027168147 0.20069054 -0.4241127 0.05099715 -1.0295655
-0.48979366 0.15161419 -0.053734463 -0.17205313 -0.18461749 0.45949855 0.13287951 -0.07434317
0.12910996 -0.2781255 0.021680305 -1.2905154 0.3534496 0.16252555 -0.17068668 -0.16915509
0.33300135 0.018196646 0.18709792 0.11806389 0.13182388 -0.020869387 -0.41975766 -0.08895007
-0.4235396 -0.01390154 0.22217453 -0.9490495 -0.2032739 -0.12118393 0.051956985 -0.095295355

conv3.bias f4 [64]
00000000: 95b5 5e3b f586 86bc 8022 bdbb 920c 073d
00000010: 4424 3b3b a6b7 95bc 9670 9c3c 8447 a53c
00000020: 1356 30bc cd25 33bc 84a1 1bbb 4011 64bb
00000030: 3dbd 11bc 5594 d13b c4f1 8fbb a1e5 013c
00000040: 5936 6fbc d56b 873c 3a01 2f3c ca2f 513c
00000050: fd15 9ebc f6ac 1b3a e664 9ebc 86fb 9bb7
00000060: 603b f2bb 82f6 ab3c 278e 48bc 1e7a 23bc
00000070: 3256 5cbb 564c d13a acf3 03bc 0094 2c3c
00000080: d923 e5bc c4d3 f5bc 4618 d93b 0361 cdbc
00000090: 2bba fcbc 3fbf 45bc 14e7 303b 137b af3b
000000a0: bdf7 653b 81e6 7dbc 6d5f ae3c 6332 b43b
000000b0: 0a39 a5bc 95c0 813b 0613 a83a 1ca4 ca3c
000000c0: ac31 9cbc 8db4 0dbd e6f3 c0bc 8b2f 42bc
000000d0: cbb0 c7bc d0dc 8d3b 8ece 6e3b c8f6 b43c
000000e0: 4dbe 803c 1f54 4dbb eda7 343b 731b 5abc
000000f0: 20f0 183c 6bc6 3b3c be6f 25bc 8a40 c53c
0.0033982743 -0.016421774 -0.005771935 0.032970972 0.0028555552 -0.018276047 0.019096654 0.020175703
-0.010762709 -0.010934305 -0.0023747394 -0.003480032 -0.008895216 0.0063958564 -0.0043928344 0.007928283
-0.01460036 0.01653091 0.010681445 0.012767741 -0.019297594 0.0005938554 -0.019335221 -1.8594565e-05
-0.007392332 0.020991568 -0.012240923 -0.0099778455 -0.0033620712 0.0015968184 -0.008053701 0.010533333
-0.027971195 -0.030008204 0.006625208 -0.025070673 -0.03085049 -0.012069522 0.0026993202 0.0053552478
0.003509029 -0.015496851 0.021285737 0.0054991706 -0.0201688 0.003959725 0.0012823052 0.024736457
-0.019066654 -0.034596015 -0.0235538 -0.011852155 -0.024376294 0.0043293014 0.0036439034 0.02209033
0.015715742 -0.0031330658 0.0027565912 -0.0133122085 0.009334594 0.011460881 -0.010097442 0.024078626

conv3.lin.weight f4 [64, 64]
00000000: 226f cebc def2 813d 755e 383e 9f74 f73e
00000010: ad27 e0bd 35ac ef3d b129 0dbe 132c e63b
00000020: a850 2ebe 44a4 d7bd ebac 46bd d2b0 423e
00000030: 66d4 1e3c 6411 42be f8e5 63be b89a 6bbd
00000040: 1f95 2d3d 6c86 0c3d 93ff 16be de9c 22be
00000050: 3678 9d3d 2d08 90bd ba13 203f 6a6a 56be
00000060: 2af8 233e c0f8 88bd 8f53 44be 96d2 9f3d
00000070: 629b ca3d d6d5 d2bd 8cfd 273d a4c0 143d
00000080: 6a44 013e 35aa 253e c02b 09be 9ed6 fd3d
00000090: 44d2 ccbe e257 6ebe 082c da3d 12ef 48bf
000000a0: a828 2fbe 00ae 343d 4bde acbd e8e3 19be
000000b0: 92e6 08be 27f2 533e 21b7 43bd 9eb4 d03d
000000c0: 230b fc3e 9770 3e3e b0c0 b33c dc50 7c3d
000000d0: 8161 80bd cfa3 bb3d a7fb c13d 73af 10be
000000e0: 62ec 0ebe 09cf 13be 3af4 67be 6165 493e
000000f0: 8fc6 27be 20d4 b2bd 20b3 3e3e 66e6 6f3e
00000100: a4b2 c3bd f5b4 53be 0bc9 c63d ea67 3fbf
00000110: 311d e83d 4a5e 3cbd 7fc5 5fbd e010 393e
00000120: 08d2 07bf 8491 403e 0c65 c4bd c612 0a3c
00000130: d42f 743e 7f13 c3bd 3d48 013e 1669 f23d
00000140: bee1 293e b9c5 7e3e 51c2 853e 8653 e7bd
00000150: 52be b13d 7234 353d 7970 38bf 8ded 5fbe
00000160: 3953 35be 0036 793e 8fbd d23d a83b d03c
00000170: dc76 a6be 2044 fd3d 861b 15be 38d4 c53d
00000180: 420d 0ebe 7b80 403e 7c07 a8be 702c f1bc
00000190: 994d 2f3e 0342 efb9 2066 9c3e 9d8e 8a3f
000001a0: 70b7 d43d bacc 66bd 34d2 11be 8e4c a03d
000001b0: 1816 dabd ec4c 87bd bc45 18be 1355 c33d
000001c0: f918 cebe 9489 a13c c93b 0f3e 723a 033e
000001d0: 8913 3e3e 1681 1abe f858 cbbd e6d9 753d
000001e0: 0879 f43c e212 0e3e fbf0 793e 226d 24bd
000001f0: 5533 353e 55a0 983d cb8c 0d3d 678b 983d
00000200: c1bf 163e b200 05bd f329 483d 8654 fd3d
00000210: 133d 4a3e 54b2 483d 9feb 7cbc cbba 8e3d
00000220: 32db 14bd a885 bcbd b3e4 61bd e7be b4bc
00000230: 8e87 b23d 7178 763d 67d5 03be 8a3c f73d
00000240: 715f 13be a78b 47bd 9423 eebc 9edd 4d3e
00000250: 65b6 39be 504a 6e3e 206c ae3e f3e1 30be
00000260: 3d67 46be 113f 00be f268 aa3d 38b5 213e
00000270: 425c 7b3d 514c d4bd 4838 633e acfe e1bd
00000280: 62dc adbd c735 213d c8c0 763e fdde 403e
00000290: 0fc5 cebd e627 adbd b735 523d 6cf2 adbe
000002a0: 900f 57be 943b 433e 44f7 743c 01d3 1ebd
000002b0: 1151 18be a3be 30be 2034 5f3d 201e 0a3e
000002c0: 82a7 b83c 4eab 8d3d 1648 0ebe f672 2f3e
000002d0: 1251 293e 4945 4ebe a303 f33d d14b 1ebd
000002e0: 68b9 2e3e 8952 83bd 7db8 dd3d 2de7 64be
000002f0: 5186 ddbd bf38 1dbe 8d8d 1fbe 61ce 163d
00000300: 5e36 d4bd 70ed 57bd cee9 5d3e 9230 313e
00000310: 6388 3d3d ea7c b7bc 23fb 8abd 7c4f 453d
00000320: e814 a73e 04c1 d5bd 1a6f 0d3d ad02 083e
00000330: 4bdb 393c 9df7 5fbd 6c50 e2bb ddbf bfbd
00000340: 3e29 8a3e c3cd 3d3d a461 46be 8d98 07be
00000350: bfd4 323e 3c75 20bd 1bc7 c53e 1fd6 f2bd
00000360: 2a1d 80bd c348 953c 84fe 1fbd 6d8d 67be
00000370: 187a dabd 6ed2 62bd eba6 1fbe 8f2f 503c
00000380: 3972 1e3e c7a0 86bc e5ee 11be 55bb 843e
00000390: 3a05 70bd 2cfd 323e 0b16 16be c2f0 b3be
000003a0: c25c a3bb eb98 453e 0589 cfbc 989b 63bd
000003b0: 5320 cb3b 2bb2 09be 78db 48bd 43ca 01be
000003c0: b4e1 153e 9c4e 84bc 346a 093d 4196 f53c
000003d0: f3b8 05be 3bf2 1fbd c129 1d3e cabe f8ba
000003e0: c82a a73d 26ba 16be c591 76bc dc00 88bd
000003f0: 2a47 b3bd 0c4a 523e 6e40 953c 5903 22be
-0.025199477 0.06345151 0.18004782 0.48331162 -0.109450676 0.11702768 -0.13785435 0.007024297
-0.17022955 -0.10529378 -0.04850475 0.19012764 0.009694194 -0.18951946 -0.22255695 -0.0575206
0.04237854 0.034307882 -0.14745931 -0.15880153 0.07688944 -0.070328094 0.625301 -0.20939031
0.16012636 -0.0668807 -0.191725 0.07803838 0.09892918 -0.10294692 0.041013286 0.03631653
0.12623754 0.1617821 -0.13395596 0.123944506 -0.4000417 -0.23275712 0.106529295 -0.7848979
-0.17105353 0.04411125 -0.084408365 -0.15028346 -0.13369206 0.20697843 -0.047782067 0.101907
0.49227247 0.18597637 0.021942466 0.06160055 -0.062685974 0.091621034 0.09471827 -0.14129429
-0.1395736 -0.14434446 -0.22651759 0.19667579 -0.16384338 -0.08731866 0.18623018 0.23427734
-0.09555557 -0.20674498 0.09706315 -0.74767935 0.11333693 -0.04598836 -0.054631706 0.18072844
-0.5305486 0.1880551 -0.09589586 0.0084273275 0.2384637 -0.09525203 0.12625213 0.1183645
0.1659002 0.24880113 0.26124814 -0.11295228 0.08678879 0.04423947 -0.7204662 -0.21867962
-0.17707528 0.24337006 0.10290062 0.025419071 -0.32512558 0.123665094 -0.1456128 0.09659618
-0.13872245 0.18799011 -0.3281821 -0.029440135 0.17119445 -0.00045634815 0.30546665 1.0824772
0.103865504 -0.056347586 -0.14240342 0.07827102 -0.10648745 -0.066064686 -0.14870352 0.09537711
-0.40253428 0.019718923 0.1398765 0.12815264 0.1856214 -0.15088305 -0.09929079 0.060022257
0.029842868 0.1387439 0.24408333 -0.04014314 0.17695363 0.07452456 0.0345581 0.07448464
0.14721586 -0.032471366 0.04886813 0.12369637 0.1974986 0.048998192 -0.015437036 0.06969222
-0.036341853 -0.092051804 -0.055149745 -0.022063686 0.08717261 0.060173456 -0.12874375 0.12072094
-0.14391877 -0.048717167 -0.0290697 0.20104071 -0.18135984 0.23270535 0.34066868 -0.17273693
-0.1937532 -0.12524058 0.08320798 0.15791786 0.06136728 -0.10366119 0.22189438 -0.11034903
-0.084893 0.039357927 0.24096978 0.18835063 -0.1009618 -0.08454876 0.051320758 -0.33974016
-0.2100203 0.19065696 0.014951531 -0.038775448 -0.14874674 -0.17260222 0.05449307 0.13488054
0.022540811 0.069174394 -0.13894686 0.17133698 0.16534832 -0.20143618 0.11865928 -0.038646523
0.17062914 -0.06412227 0.10826204 -0.22353812 -0.108166344 -0.15353678 -0.15581341 0.036817912
-0.10361932 -0.052716672 0.2167122 0.17303684 0.046272647 -0.02239843 -0.06786182 0.048171505
0.32633138 -0.104372054 0.034529783 0.1328227 0.011343787 -0.0546795 -0.0069065597 -0.09362767
0.2698459 0.046338808 -0.19373184 -0.13241787 0.17463969 -0.039174303 0.38628468 -0.118572466
-0.062555626 0.018223172 -0.039061084 -0.22612543 -0.10667819 -0.055376463 -0.15591018 0.012706651
0.1547326 -0.016434086 -0.14251287 0.25924173 -0.058598734 0.1747939 -0.14656846 -0.3514462
-0.004985423 0.19296615 -0.02533389 -0.055568308 0.0061989217 -0.13446872 -0.049037427 -0.12674813
0.1463688 -0.016150765 0.03354855 0.029978873 -0.13058834 -0.03904937 0.15347959 -0.0018977758
0.08162457 -0.14719447 -0.015049403 -0.06640789 -0.08753808 0.20536059 0.018219199 -0.1582159

fc1.weight f4 [512, 64]
00000000: 72e8 b4bd 00e8 93bc 3215 d13d f0f9 ff3d
00000010: 66ee bc3d 70f0 24bc 7ed9 edbd 00a5 433a
00000020: 8e6c f4bd 06bb e23d f825 043d 28d7 b43c
00000030: 90d1 d03c 2618 c73d 50b8 ea3d e4ff 763d
00000040: b069 c5bc 48e6 52bd 7a4b c33d 186f e4bd
00000050: 6869 20bd d0c4 5cbc 48ed df3d a0ff a6bd
00000060: a0c3 5bbc 409b 50bc 409f 29bd e6b5 e0bd
00000070: faa3 b13d e454 afbd 90af e13c 5819 ecbd
00000080: e8af ec3d 7a10 8fbd ea66 97bd 780a e73d
00000090: 64e1 b73d b01c 113c e81a a0bc 6675 ee3d
000000a0: 48d9 743d 6632 c83d c0d0 0abb 9aad 803d
000000b0: c2e5 da3d a08b 983d bcd1 81bd 74eb bfbd
000000c0: 008a d539 f253 8bbd 56ce ea3d ac87 0d3d
000000d0: b4a9 babd 4885 e43c e8ca 353d 8839 94bd
000000e0: 200a 22bd e0ab 83bb 50de 043d ac0b 273d
000000f0: d8da f03d 80c6 d4ba 30fd 48bd c82a 88bc
00000100: 70d2 083c da55 debd 8602 a3bd 2402 203d
00000110: 70e0 f6bd fa26 af3d 9694 d93d 6090 edbb
00000120: 805b 1e3c daba a63d 92d9 a53d 702d 243d
00000130: d4c2 163d a0a8 9c3b f858 c83c c0dd 0dbd
00000140: 30bf 7cbc 0026 4bbb d029 29bd 6871 e1bd
00000150: c8e2 a63c 0cd9 42bd 1c7b 7dbd 60a2 943c
00000160: 16dc 85bd 801d 17bd e633 adbd 885f 2bbd
00000170: eac7 863d 6079 adbd e0e0 65bc c0e0 103c
00000180: 1e98 c53d 36c8 b5bd f2dc b53d a67c c23d
00000190: 40b1 efbc e0be 5c3c 205e 16bc aa7b ffbd
000001a0: a06c 883c 548c dbbd 902b ec3c 9c4a 88bd
000001b0: c8e5 a9bd c0ee fc3d 6496 3a3d a074 9cbc
000001c0: 0885 e43c bc00 74bd f0e5 0d3d 48eb aa3d
000001d0: 88e4 f13d a0d8 55bc b446 38bd 5096 dbbc
000001e0: 40dd bc3b 24ca 3dbd 7a1a bcbd 1289 f1bd
000001f0: a8f4 c9bd fa36 e2bd 704c 2cbd e0c8 9e3c
00000200: 2217 78bd 7738 19bf e283 35be 8285 733d
00000210: bfc9 f93a 90c9 203d 2fb2 dabd 633a fabd
00000220: a659 793d 0069 ed3c 112c d03d 4964 ca3c
00000230: f0a3 01bf 1542 a33d 64b4 8ebc 622b 58bd
00000240: 285c c63d cde5 f13d 38b7 4a3d 4c25 e2bd
00000250: d5dd 57be 693c 103c 552f 9e3e 06cb f23d
00000260: b009 e33c e1bc 4e3d c54f 5fbe 0a38 72bd
00000270: fae6 ca3d fa4e 543d c24b c0bd 465b 4ebc
00000280: 07d2 613d c2be d5be d98d 80be e27d 37be
00000290: db54 3e3c 56ae 003e 1430 b03d 4ed9 fc3d
000002a0: 1446 e3bd 598e 833e 9df5 8fb8 d117 343d
000002b0: afcf 2fbe 9878 b6bc 0ad1 873d 8ecb 093e
000002c0: 8272 813d 6883 493d 3c41 4dbd caf8 21be
000002d0: 3e5e 7f3d 8a69 f0bd 5667 5dbc 2ca2 70bd
000002e0: d26e 583d 4833 22be 174b 9f3d ca5a c1bd
000002f0: 1429 413d 024c 70be 0a97 6dbc ca6d f43d
00000300: a310 703e 1857 44bf 26ee 8a3d 98a2 043d
00000310: 1a9f 463e 4c4f 5ebd 2e47 52bc f340 aebc
00000320: e830 533d 7276 56be 4613 93be d11b 31bd
00000330: 36cc b8be bd66 073d 6e64 d43c ae8e 723e
00000340: dc2b bb3d 9e4a af3d 306f d43c cbe4 3bbe
00000350: a556 6d3d f36e 7e3e a14c e63e e202 d13d
00000360: cdaa 993d 8b1d 70bd 2286 743c 540f 3e3e
00000370: 0f57 513e ab46 33bd 6e0d b1be 8348 0b3e
00000380: 4c86 aa3d b704 4fbf 0f95 173e 9a83 8abe
00000390: 4d51 abbe 841c 0e3e 1606 43be a135 6d3e
000003a0: ad3a 68bd 4176 453f 6b05 d5be 2f7f 433e
000003b0: a03c a0be 8ced dcbd 771b 113e 56ea 693e
000003c0: 9777 3e3d f2ee 1cbd 2e45 953d 1252 e6be
000003d0: a618 c63d 17fb e6bc e020 b1be e093 83be
000003e0: 108e 06be 44ec debd 0222 19be 0e37 71be
000003f0: 2407 00bf 7de6 06bf 365f af3c e048 093f
-0.08833398 -0.018054962 0.10209121 0.12498844 0.092251584 -0.01006709 -0.11613749 0.00074632466
-0.11934768 0.11070828 0.032262772 0.02207525 0.025490552 0.09721403 0.11460936 0.06030263
-0.024098247 -0.051489145 0.095358804 -0.11154002 -0.039163023 -0.013474658 0.1093393 -0.08154225
-0.01341334 -0.012732327 -0.04141164 -0.109721944 0.08673854 -0.085611135 0.027549535 -0.115282714
0.11556989 -0.069855645 -0.07392676 0.11281294 0.08978537 0.008856937 -0.01954408 0.11643486
0.059777528 0.09775238 -0.0021181554 0.06283112 0.10688354 0.07448506 -0.06338832 -0.09371081
0.00040729344 -0.06803121 0.11465137 0.034553215 -0.091143996 0.027895585 0.04438296 -0.07237536
-0.039560437 -0.004018292 0.032438576 0.040782616 0.11760491 -0.0016233474 -0.049069583 -0.016621962
0.008350953 -0.10856219 -0.07959466 0.03906454 -0.12054527 0.08552356 0.10624044 -0.007249877
0.00966537 0.08141108 0.08098139 0.040082395 0.036806896 0.004780844 0.024456486 -0.034635305
-0.015426442 -0.0030997992 -0.04129964 -0.11007959 0.02037181 -0.047570273 -0.061884984 0.018143833
-0.06536119 -0.036893368 -0.084571645 -0.041839153 0.06581099 -0.08470416 -0.014030665 0.008842647
0.09648155 -0.08876078 0.088800326 0.09496431 -0.029259324 0.0134732425 -0.009177715 -0.12474759
0.016653359 -0.10720125 0.028829366 -0.066548556 -0.082957804 0.123502254 0.04555358 -0.01909858
0.027895465 -0.059571013 0.034643114 0.083456576 0.11811167 -0.013052136 -0.044989303 -0.026805073
0.0057636797 -0.046335354 -0.091847375 -0.11793722 -0.098611176 -0.11045642 -0.042065084 0.019382894
-0.060568936 -0.59851784 -0.1772609 0.059453495 0.0019057317 0.039254725 -0.10678517 -0.12218168
0.06087651 0.028980732 0.10164655 0.024706023 -0.50640774 0.079715885 -0.017420001 -0.052775748
0.09685546 0.11811409 0.049491137 -0.1104227 -0.21080716 0.008803465 0.30895486 0.1185513
0.02771458 0.050473098 -0.21807773 -0.059135474 0.099073365 0.05183313 -0.0938945 -0.0125950035
0.05513194 -0.417471 -0.2510822 -0.17919114 0.011616911 0.12566504 0.0860292 0.12346135
-0.11097351 0.2569454 -6.8645204e-05 0.043968026 -0.17169069 -0.0222743 0.06631668 0.13456556
0.06320669 0.049197584 -0.05011104 -0.15817562 0.062345736 -0.1173888 -0.013513407 -0.05874841
0.05284006 -0.15839875 0.07777994 -0.09441145 0.047158316 -0.23466495 -0.014501343 0.11935003
0.23443846 -0.76695395 0.067837045 0.032381624 0.1939663 -0.054274842 -0.012834353 -0.021271205
0.051560313 -0.20943621 -0.28725642 -0.04323942 -0.360933 0.033056963 0.025926795 0.2368724
0.09139225 0.08559154 0.025931925 -0.18348996 0.05794396 0.24847011 0.44980338 0.10205628
0.07503281 -0.058621924 0.014924558 0.18560535 0.20443366 -0.043768566 -0.3458056 0.1360188
0.08326396 -0.8086657 0.14802955 -0.2705353 -0.33460465 0.13878065 -0.1904529 0.23164989
-0.056696583 0.77133566 -0.41605696 0.19091485 -0.31296253 -0.10787496 0.14170633 0.22843298
0.04650077 -0.038313814 0.072885856 -0.4498449 0.0967267 -0.0281959 -0.34595394 -0.25698757
-0.1314013 -0.10884908 -0.14954379 -0.23556158 -0.50010896 -0.5269545 0.021407705 0.53626823

fc1.bias f4 [512]
00000000: 28e6 febd 20d5 9fbd 7588 883d 0d93 3cbc
00000010: ed0e 503e 942e 10bc 249d f1bd 6b61 583e
00000020: ac72 423e 9d02 693c d7d0 09be 10a3 08be
00000030: c214 823e 0368 e9bd ba44 543d ccca eb3d
00000040: 0275 c43d c187 0abe 992d 5d3e 425f 003e
00000050: 4440 e4bd 6470 483e 098d dc3d 7e40 7b3e
00000060: 96e1 973c 042e fe3c c3c4 463e e526 2dbe
00000070: 5074 88bd 6e95 10bc 1208 653d 98c2 893e
00000080: 93f3 49be 26e6 1fbe ff72 403e 348d b03c
00000090: 47e8 a13d 6feb 03be 040c 2dbe 9a08 8e3d
000000a0: 3e3e 2f3e 63ff 1ebe 4728 5fbd a424 5a3e
000000b0: c8ba 13bb 9e7c f1bd 8ee2 4dbe 6892 acbd
000000c0: 8a5a 403d fc8e eb3d 715d 4e3e bcba ca3d
000000d0: fd0a 783e 5ea0 cebd e1c0 b8bb 066e 933d
000000e0: bac7 cd3d dbbd f63a 3234 9abd dc0b 403e
000000f0: 7637 c1bd 4918 5c3e 028c a4bc 471a fdbd
00000100: 0395 31be 085e f13d be91 cb3d 8a6c fcbd
00000110: 40f0 fd3d 2745 193e dc5f 303e feef 903e
00000120: 1a91 4c3e 1aab 983e ad81 b13d ed54 1b3d
00000130: b192 3ebe 3e84 27be 6f9e 3cbe 1763 663e
00000140: db40 01be 12db 91bd 5975 053e cda0 bd3d
00000150: 6b1d 9c3d 2751 1b3d d09e 33bc 48c8 37be
00000160: 5c45 ddbd 335c 813d e86f 793e 30cc a6bb
00000170: 8c47 4abe 688c 01bb dc89 50bd 5ce8 ff3d
00000180: a365 bf3d 71d1 983d f683 803e 3002 d93d
00000190: 2295 8dbd 896b c93d 0f7e cc3d 4f8f 10bc
000001a0: 0f65 ee3d b353 a4bd 70eb b93d dca3 e63d
000001b0: 9d7f 34be fc1c de3d 7d21 d23d 5040 c3bd
000001c0: a3b7 1d3d f26a 923a 8f2c d7bd 04b8 a73c
000001d0: aefb 953e 5f7d 54be 9672 78bd 7818 f2bd
000001e0: 3348 563e 2b6f c2bd 3973 043d d0f2 ccbd
000001f0: 0733 7a3e 66a8 763e e2c8 e03c c498 1fbd
00000200: 20da 29be d7f8 b93d 1a5e 3d3e 26b8 b8bd
00000210: 2529 5a3e 2ab6 853d 2828 e83d f232 41bd
00000220: 896c ab3c 1604 f73d 1012 ecbd 3472 c73d
00000230: f617 2a3d 6432 c33b aa65 b8bd 9272 debd
00000240: f188 143e b764 7b3e 0a28 b53d fe9a 21bd
00000250: 090f 273e 9af4 d03d f51f 2bbe b59d e4bd
00000260: 4878 0bbe 566c dbbd ba97 e03d 46a3 eabd
00000270: 9e1c c7bd d9bd fabd 78c1 04be 0d7d f93d
00000280: b3cc 8f3d 82d3 dbbd 46bb 1d3e 965f 333e
00000290: be4c 1f3d a2d9 09bc ec1c b3bd 0a36 85bd
000002a0: 49af 91bd 2aab 9d3d f199 26be 80c1 c8bb
000002b0: a395 c3bd fd47 2dbe 625e 4fbc 491f b4bd
000002c0: 9ceb 28bd 87bf ce3d 1ef6 c23d 1b71 a5bc
000002d0: 24d2 1d3e f3ed a4bd 492c f8bc 84bb 8dbd
000002e0: a73b 963d 9e5c 823e bcff dc3d 5db7 2dbd
000002f0: 5faf 473e 0fe8 883e 60b7 813d 9869 fb3d
00000300: acb8 98bd cdbe 1b3d 22d2 14be 6bcf 043d
00000310: 60a3 55bd eb62 093e 460a 3c3e 5f90 2e3e
00000320: a20b 4bbd a689 ad3d 2548 3fbe c3a0 08be
00000330: 87a0 cfbd 0f2f 2e3d eee1 143e d599 e13d
00000340: 5c32 65bd 123d a8bd 618c 0bbe da21 103e
00000350: 87fd c13d 8a8a a23d b799 1abe 101e 433e
00000360: bfbd 33bd af98 6ebd 93df 34be 2a1e 13be
00000370: b27e e23c a3c9 f73d daa7 4dbd 088c 3cbd
00000380: e3c9 9d3c 05df 26be 2301 433e bf6b 083e
00000390: c4ce 8bbd 14c3 f23d bc46 723e 3fb0 20be
000003a0: 940f 003e 06a1 ba3c bf30 5c3e 4494 2abe
000003b0: 29d7 80bd 50fc b7bd e27e 4f3e fd4e 863e
000003c0: 2d2f 623e a699 a1bd a46b 0f3e 3491 a9bd
000003d0: f806 36be d7ba ff3d 429c 983e 5ffb 543e
000003e0: fcb8 aa3d 004b 513e b610 b73d 4a79 543e
000003f0: 074c 08be 78d2 073e 8a27 313e e655 fd3d
-0.124462426 -0.07804322 0.06666652 -0.011509669 0.20318194 -0.008800168 -0.1179755 0.21130912
0.18989056 0.014221814 -0.13458572 -0.13343453 0.25406462 -0.11396792 0.051823355 0.1151329
0.0959263 -0.13528349 0.21599425 0.12536338 -0.1114507 0.19574124 0.10769088 0.2453632
0.018540185 0.031027801 0.19410996 -0.16909368 -0.0666281 -0.008824689 0.0559159 0.26906276
-0.19721822 -0.15615138 0.18793868 0.021551706 0.079056315 -0.1288278 -0.16899115 0.06935234
0.17113587 -0.1552711 -0.05448177 0.2130304 -0.002254175 -0.11791347 -0.20105955 -0.08426362
0.046961345 0.115018815 0.20152833 0.09898898 0.24222942 -0.10089181 -0.0056382273 0.0719872
0.100478604 0.0018824892 -0.07529487 0.18754524 -0.094344065 0.21493639 -0.020086292 -0.12358528
-0.17342 0.11785513 0.099399075 -0.1232539 0.1239934 0.14967786 0.17224067 0.283081
0.19977227 0.2981804 0.08667312 0.03792279 -0.18610646 -0.1635904 -0.18419813 0.22498737
-0.12622397 -0.071218625 0.13033046 0.09259186 0.076227985 0.03791919 -0.010963157 -0.17947495
-0.10804245 0.06316414 0.24359095 -0.005090259 -0.19753855 -0.0019767527 -0.050912723 0.12495491
0.093455575 0.07461823 0.25100678 0.1059612 -0.069132105 0.09834964 0.09984981 -0.00882323
0.11640369 -0.08023777 0.09078109 0.112617224 -0.17626806 0.10845372 0.10260294 -0.09533751
0.038505208 0.0011170788 -0.10506546 0.020473488 0.2929358 -0.2075095 -0.060656153 -0.11821073
0.2092598 -0.0949386 0.032336447 -0.1000725 0.24433528 0.24087676 0.027439538 -0.038964048
-0.16587114 0.090806656 0.18492928 -0.090194985 0.21304758 0.06528886 0.11335784 -0.047167726
0.020925777 0.12061326 -0.11526883 0.097385794 0.041526757 0.0059569348 -0.09003766 -0.10861696
0.14505364 0.24550138 0.088455275 -0.039454453 0.16314329 0.10202904 -0.1671141 -0.11162893
-0.13620102 -0.10714023 0.109664395 -0.11456923 -0.09722255 -0.12243242 -0.12964427 0.12182055
0.07021465 -0.10733701 0.1540347 0.17516932 0.038891546 -0.008413704 -0.08745751 -0.06504448
-0.07113511 0.076986626 -0.16269661 -0.0061265826 -0.09550025 -0.16921993 -0.01265678 -0.0879503
-0.04124032 0.10095125 0.095195994 -0.020195534 0.15412194 -0.08053198 -0.030294554 -0.069205314
0.073355965 0.25461286 0.10790965 -0.042411197 0.19500493 0.26739547 0.06333804 0.12276
-0.07457098 0.03802376 -0.14533284 0.03242437 -0.05215776 0.1341664 0.18363294 0.1704726
-0.04957164 0.0847352 -0.18679865 -0.13342576 -0.1013804 0.042525347 0.1453931 0.11015669
-0.05595623 -0.08214773 -0.13627769 0.14075413 0.09472185 0.079365805 -0.150977 0.19054437
-0.043882128 -0.05825108 -0.17663412 -0.14366975 0.027648304 0.12099006 -0.050208904 -0.04603198
0.019261306 -0.16296013 0.19043402 0.13322352 -0.06826547 0.118536144 0.23659796 -0.15692233
0.12505943 0.02278186 0.2150297 -0.16658121 -0.062910385 -0.08983672 0.20263246 0.26232138
0.22088309 -0.07890634 0.14005905 -0.082796484 -0.17776096 0.12486809 0.29806715 0.20799015
0.08336064 0.20438766 0.08938734 0.20749393 -0.13310252 0.13263881 0.17300239 0.123698995

fc2.weight f4 [256, 512]
00000000: 609d 32bc 6511 1bbd 7fd8 033d 8eb0 f13c
00000010: 885f 1dbd bad3 b73c df13 1fbd 95be adbc
00000020: 6cc5 80bc cf2d e939 fe77 973c a6c3 b3bc
00000030: 0358 f73c 44f4 173c 2058 26bd 8005 54bc
00000040: aeb4 70b9 522a c43c 8084 53bc 0407 09bd
00000050: d7c3 aebc c0f4 38bb f560 d1bc da53 47bd
00000060: afe1 dbbb dcb7 b93c 1202 f5bc 8256 bb3c
00000070: 988b 013c 43be 8cbc 9a36 923c 34e8 5ebc
00000080: 4c9f 27bc 9ebb d8bc 5f48 0d3c 5ad2 653c
00000090: 8266 053c 709c bf3b 758a babc 6292 2abd
000000a0: 7c16 0a3d ea73 b2bc 40e9 f33b 247d 32bd
000000b0: 4ae8 b73c 70ce 08bb beec dd3c 5013 d9bb
000000c0: aa1f 513c a02c 55bb 3bdc 27bc 8b69 a8bc
000000d0: c1a9 c13b bb47 113d 1d86 53bd 7852 ba3c
000000e0: add9 be3c bc4e 133b 0f58 2a3d 0798 c7bc
000000f0: 1a55 c83c 0b5d 8e3c 5284 df3c fc56 15bc
00000100: aa25 a93c b2f0 833b 4467 15bd e245 fabc
00000110: a223 9a3c 5e08 83bc d163 0aba c3a7 14bd
00000120: 51a5 dbbc 846d 803b a2b5 c43c 3687 cf3c
00000130: 5139 103d 1699 63bc d0d4 093b 6e41 a8bc
00000140: 6e07 ef3c f068 02bc cb94 e1bb fc27 4fbd
00000150: 99ec 2a3b 2e4a e5bc 3ce3 8d3c 7061 2ebc
00000160: f444 1ebc 4f7d ad3b 82d9 e03c e323 7cbc
00000170: 104d 2bbb efc1 263d 961c 8e3c f7dd e63b
00000180: b520 21bd 1d28 05bd b7d2 4dbc 60bb 7ebc
00000190: 56b8 ff3c ab9a a03b 33dc 90bc 2de1 a23c
000001a0: d84b 06bc f4eb aabc d7ae f4bc 064c a63a
000001b0: 7797 07bd 2531 cfbc 0c3d f2bc 0090 0838
000001c0: 770a 1d3c bbb2 0f3c d000 58bc fee7 963c
000001d0: ab56 f9ba daf6 f43c 8707 b0bc be37 d53c
000001e0: a98f 983c e2f9 06bd f0a8 c9bb d855 413c
000001f0: 3981 3cbd 7139 0dbd a071 a83c 1817 fabc
00000200: b6e2 8cbc 5de9 923a 0cd0 c13c cf9e d3bc
00000210: f381 0ebd 6a62 17bd 8168 f03c 4a47 55bd
00000220: bf64 a83c 4be7 aebc b8bb 0dbd 6c6c 003c
00000230: 2093 9ebc 8178 c43c 6a1f d73c 56ed d13c
00000240: 1f96 433c c4d5 653a edbd 0bbd 50a4 05bd
00000250: 179e 66bc 7240 2abd 22a6 fe3c 9bf4 093d
00000260: ea76 f2bc c67d c63c 473c cf3c d8e0 dbbb
00000270: cd69 2a3d 3197 0e3d c385 033d 1255 da3c
00000280: 64e9 80bc a4a2 04bc 9e73 92bc 7be7 3dbd
00000290: 8955 1cbd d4fa 0a3d 7fd1 163d a14e 1d3d
000002a0: c270 c53c 53ce 053d 6e38 c33c 3641 1cbd
000002b0: fbcc 2dbd 864b fe3c 00dc 98b9 f998 053d
000002c0: 52b6 cf3c 36fc 02bd c19b 13bd dd23 2b3d
000002d0: 6f08 963c c1bc 293d c0e6 403c 8804 8c3b
000002e0: 0ebb bd3c 98c9 21bd bfb9 003d a04a 86ba
000002f0: 98ab 093d 42b8 49bc 830e 40ba 09fb 0ebd
00000300: 0636 e8bc 6ad9 acbc 00d3 21bd 6a5d 19bd
00000310: 879d 293d 7444 08bd 7cb9 c83c 6ae2 613a
00000320: 1097 22bd fbb7 ef3c 0063 043a fc13 3bbc
00000330: fc80 09bd 3820 3d3c ce1b a83c 386b 943c
00000340: 1252 e3bc 63c9 a3bc b15a 133d 3eae f4bc
00000350: 6050 0ebd f916 193d d4c3 303c d143 f9bc
00000360: 6801 3abc d23c d23c 20fa a1ba 8050 383a
00000370: cc8c 34bd e606 ed3c dcfd 2b3c e030 d5bb
00000380: a3df ce3b c31a 1f3d 3ca5 fd3c f989 c9bc
00000390: a677 edbc 43cf 9d3c 0eb9 5cbc a262 e13c
000003a0: 002f febb f964 eabc 2396 803b 8e7a a53c
000003b0: 0ccc e7bc 3c44 903c 1a31 04bd c5c0 87bc
000003c0: 2bb3 733c 0821 793c 131a 23bd ec7f 38bc
000003d0: 18cd 8bbc 7ca8 3abc a87d 0b3d cc15 2b3c
000003e0: 891b 9ebc b22d 353c ee91 6bbc f856 f6bc
000003f0: 68f0 00bc 1858 e3bb 20c0 29bd b792 edbc
-0.010901779 -0.037858386 0.03218889 0.029503133 -0.038421184 0.022439826 -0.03883731 -0.02120904
-0.015719138 0.00044475353 0.018489834 -0.021943878 0.030193334 0.009274546 -0.040611386 -0.012940764
-0.00022955492 0.023945961 -0.012910008 -0.033453956 -0.021333618 -0.0028222054 -0.025558928 -0.04866395
-0.006710253 0.022670679 -0.029908214 0.022868399 0.007906817 -0.017180568 0.017848302 -0.013605166
-0.01023085 -0.02645665 0.008623212 0.0140272025 0.008142116 0.005847506 -0.0227711 -0.041643508
0.03371285 -0.021783788 0.007443577 -0.043576375 0.022449631 -0.0020875 0.027090427 -0.0066246167
0.012763897 -0.003252782 -0.010245378 -0.02055814 0.005910129 0.035468798 -0.051641572 0.022744402
0.023297155 0.002247735 0.041587885 -0.024364484 0.024454642 0.01737835 0.027284775 -0.009114977
0.020647842 0.004026496 -0.036475435 -0.0305509 0.01881582 -0.0159952 -0.0005279156 -0.036292803
-0.026812227 0.0039193053 0.02401239 0.025333028 0.03521091 -0.013891479 0.0021031387 -0.020539012
0.029178347 -0.007959589 -0.0068841926 -0.05057524 0.0026080965 -0.027989473 0.017320268 -0.010643348
-0.009659994 0.005294479 0.027447466 -0.015389415 -0.0026138462 0.040712293 0.017347615 0.0070455032
-0.039337832 -0.032508958 -0.012562445 -0.015547603 0.031215828 0.0049012504 -0.017683124 0.019882763
-0.0081967935 -0.020864464 -0.029868526 0.0012687452 -0.033103433 -0.025291989 -0.029570125 3.2559037e-05
0.009585015 0.00877064 -0.013183787 0.01842117 -0.0019023021 0.029902864 -0.021487964 0.026027557
0.01862319 -0.03295315 -0.006154172 0.011800252 -0.046021674 -0.03447861 0.020561993 -0.03052859
-0.017197948 0.0011208464 0.023658775 -0.025832562 -0.034791898 -0.03695909 0.029346706 -0.05206994
0.020555852 -0.021350523 -0.03460285 0.00783835 -0.019357264 0.023983242 0.026260097 0.025625866
0.011937647 0.00087675103 -0.034116674 -0.032627404 -0.0140757775 -0.041565366 0.031085078 0.03368054
-0.029597718 0.024229895 0.025297297 -0.006710153 0.041604806 0.034812156 0.032109987 0.026651893
-0.01573629 -0.008095417 -0.017877396 -0.046363335 -0.03816751 0.033930615 0.036820885 0.038405064
0.024101619 0.03266747 0.023830619 -0.038148127 -0.042431813 0.031041872 -0.00029155612 0.03261659
0.025355492 -0.03197881 -0.03603721 0.04178225 0.018314568 0.041439775 0.011773765 0.004273001
0.023160484 -0.039498895 0.03142714 -0.0010245629 0.03361091 -0.012311997 -0.0007326381 -0.034907375
-0.028346073 -0.021099765 -0.039507866 -0.037442602 0.041409995 -0.033268407 0.024502508 0.0008616807
-0.039694846 0.029262533 0.00050501525 -0.011418339 -0.033570275 0.011543326 0.02052107 0.018117532
-0.027749095 -0.01999349 0.035975162 -0.029868241 -0.03474462 0.037375424 0.010788877 -0.030427845
-0.011352874 0.025663767 -0.0012357868 0.00070310384 -0.044079587 0.028933953 0.0104975365 -0.0065060705
0.0063132807 0.03884388 0.030962579 -0.024601923 -0.028987717 0.01926387 -0.013471855 0.027512852
-0.0077570677 -0.0286126 0.0039241477 0.02020004 -0.02829554 0.017610662 -0.03227339 -0.016571412
0.01487426 0.015205629 -0.03981979 -0.011260968 -0.01706557 -0.011392709 0.034055382 0.0104422085
-0.01930024 0.011058258 -0.014378054 -0.030070767 -0.007869817 -0.006937992 -0.04144299 -0.029000623

fc2.bias f4 [256]
00000000: e213 cebc 1003 f33d d264 053e 76c7 87bc
00000010: dc61 42bd 3ddd 633d 14fd 0c3d b1e0 b9bc
00000020: 16d6 c83c 793c 6bbd 87a6 97bb c44f a13d
00000030: ecab 43bd 056f 063d 0b02 a43d 94eb 1dbd
00000040: d466 c3bb c59d fa3c d4df 0fbd dc1b 003c
00000050: 6e04 f3bc 4204 77bd 93eb 84bd 9453 5e3b
00000060: 9e99 073e 6e5f 0e3e 2e00 8fbd 0d94 a0bc
00000070: 441f efbc b299 473b aeb5 803d 07b9 233e
00000080: 0d27 663d a017 3a3d 691f d03d 868d bf3d
00000090: 9d51 9cbc a80f 013c 6d55 45bd 1216 c6bc
000000a0: 7afd 173e 0c38 9fbc 0c7b 8bbd e0a9 f33b
000000b0: 3bfd f93c 5f78 33bd e737 e4bc 41ee 64bd
000000c0: 62e1 2f3e 8135 9ebc d26a 88bb 863a 80bc
000000d0: 9fe5 55bc d8ce 2ebc 1a2d 0fbd 16bc 0bbd
000000e0: 5fc0 243d 518b 45bd c0c9 29bd 4f63 f43d
000000f0: 6398 3b3c 8073 17bc 7858 233e 531b 93bc
00000100: 43df 9a3d 512d 4abd d7f8 273c 7d59 0a3b
00000110: 7f04 6dbc a4b1 42bd 846d 05bd 1001 54bc
00000120: f4fe 053e 7f82 843d 3d35 393d 917d f13d
00000130: fa0b 3dbb 175c d23c d03a c43c e47a 3e3c
00000140: 9ec3 0e3d 4533 dc3c 2551 033e 60a0 0e3e
00000150: 5579 063d 59bb bebc ffeb 003e 4124 53bd
00000160: 5f25 f73d ef4a a8bd 6b15 0abd 95b9 303d
00000170: c48e d2bc 97b2 94bd bd4b 353d 41a2 a03c
00000180: ce9f 413d 321f dd3d d446 b83d fbef dd3d
00000190: 103c a83c 70e4 5dbd 06c9 edbc 2188 0bbc
000001a0: e503 6cbb 7aad 10bd abe3 09b9 42b1 4dbd
000001b0: 92ae 47bd 7d11 da3d 9fe0 a93d edba 12bc
000001c0: 1f50 38bd 9893 8bbd 0467 26bd 870f 9dbc
000001d0: ec45 e73c c035 393d acc6 62bd 75ee 4b3e
000001e0: 32b1 58bc f919 f3bc 70d9 8dbc 332a 57bd
000001f0: 3c6d 08bd 990a c23a 2522 0fbd add4 0b3b
00000200: 2a12 af3d ce1b 033e 23f3 e53c b1a1 af3c
00000210: e5e8 3bbd 6775 883d fcc8 4d3c 3c0a 243d
00000220: e059 43bd c465 9c3d 928a c03d fe1a e03d
00000230: 7c46 c53d a9e6 7a3d ee3d ab3d 7667 213d
00000240: b888 ffbc acfa f63c 863b d23d 81da a03c
00000250: 0944 773d fb53 e93d 59db c4bb 5a9e 7bbc
00000260: f40d 58bc 4955 3fbd 3f76 3cbd 003e 563a
00000270: 4bdc e3bc 2886 92bd c88d 5bbc 7609 0dbd
00000280: 6e29 bc3d df28 80bd d308 74bc e136 d63d
00000290: f37f d7bc 19f3 89bc 27f9 533c 54de 2abd
000002a0: 0720 d53d 28da b33d f354 d73d 0c8a b7bc
000002b0: b2cf 12bd fdf4 2cbd 7fb2 e0bc 20af 0b3e
000002c0: 7e48 f13d 4d08 56bd 4658 26bd 7d75 b73c
000002d0: 3b1e 173e 1467 08bd 735d 1e3e 6a03 87bc
000002e0: 0f64 933c 590b 41bc a92f 85bd 6fb2 42bd
000002f0: 5c4c 1cbd 4f2e 8f3c 98c3 f03d f07e 3e3d
00000300: 8afc ecbc c77c 003a 12e7 0f3b 295b 0b3e
00000310: 800a 383b 538e b43c ec83 0fbd 263b 00bd
00000320: aa7c 1fbd c3f7 8e3d 5596 bbbc 0f9f 113e
00000330: 6623 d53d b5aa bb3d 48f1 acba 2f3d e3bb
00000340: 148c cfbc 970d 20bd 3f59 523c 24e9 003d
00000350: 9550 d0bc 9935 7e3d d5ee 0b3c 68fc 933d
00000360: 6158 df3c 9ed3 f13c 2584 7d3c 4a60 0ebc
00000370: 115f 19bd 82c3 19bd 53c4 6cbd bfcb 65bc
00000380: 6722 ca3d 4b0e 06bc f9ea 60bc db32 be3c
00000390: d52b 4dbd 3b35 49bd 26ce a23d 11ba 073d
000003a0: d4cf 07bc b725 6d3d 0741 5b3c 0ed4 9a3d
000003b0: 74b2 023e b086 ee3d 301e 3cbd de9f 873d
000003c0: 5bfa 413d 2b7b eebc 7afe 273e 81e7 3e3c
000003d0: afa6 46bd cca1 1ebe a603 c63d 56d7 02bd
000003e0: b37e 09bd 2a9c 6bbd 8943 f23c 0c30 d43d
000003f0: ea75 ac3d dd3f 0cbd d6fb 4b3c 6418 c13d
-0.025155965 0.118658185 0.13026741 -0.016574603 -0.047456607 0.05563091 0.03442104 -0.022690149
0.024516147 -0.057430718 -0.004628006 0.07876542 -0.04777138 0.03282072 0.08008202 -0.038554743
-0.005963186 0.030592808 -0.03512557 0.007819142 -0.029665198 -0.060306795 -0.06490245 0.0033924328
0.13242194 0.13903591 -0.06982456 -0.019601846 -0.029189713 0.00304566 0.06284653 0.15988551
0.056189585 0.045432687 0.10162241 0.09353165 -0.019081885 0.007877268 -0.04817717 -0.024180446
0.14842787 -0.019435905 -0.06810579 0.007436022 0.030516258 -0.043815967 -0.027858688 -0.05589128
0.1717582 -0.019312622 -0.0041631246 -0.015652906 -0.013055234 -0.010669433 -0.03495512 -0.03411492
0.040222522 -0.048228566 -0.04145217 0.11933004 0.011449906 -0.009243846 0.15951717 -0.017957365
0.07562115 -0.049359623 0.010252199 0.0021110468 -0.014466404 -0.047532693 -0.032575145 -0.012939706
0.13085538 0.06470203 0.045216788 0.11791528 -0.002884625 0.025678677 0.023953825 0.011625979
0.034854524 0.026879916 0.12823923 0.13928366 0.032830555 -0.023282694 0.12590025 -0.051548246
0.12067675 -0.082174174 -0.033711832 0.043145735 -0.025702842 -0.07260626 0.044261683 0.019608619
0.047271542 0.10796966 0.089978844 0.10836788 0.020536453 -0.054172933 -0.02902652 -0.008516342
-0.0036013064 -0.03532169 -0.00013150151 -0.050217874 -0.048750468 0.10647867 0.08294796 -0.008955699
-0.044998284 -0.06815261 -0.040625587 -0.019172443 0.028231584 0.045217276 -0.05536525 0.19915183
-0.01322584 -0.02967547 -0.017315596 -0.05253048 -0.0333073 0.0014804184 -0.034944672 0.0021336481
0.085483864 0.12803575 0.028070038 0.021439405 -0.045876402 0.06663018 0.012560125 0.040048823
-0.047693133 0.07636598 0.0940143 0.10942648 0.096325845 0.06125513 0.083614215 0.03940531
-0.031193122 0.030148827 0.102652594 0.01963544 0.060367618 0.11392971 -0.0060075936 -0.015357578
-0.01318692 -0.046712194 -0.046011206 0.0008172691 -0.027815005 -0.071544945 -0.0134005025 -0.03443285
0.091875896 -0.062577955 -0.014894682 0.10459686 -0.026306128 -0.01683955 0.0129378205 -0.041715935
0.10406499 0.087818444 0.1051425 -0.022404693 -0.035842605 -0.042225827 -0.027428864 0.13641024
0.11781405 -0.05225401 -0.040611528 0.02239489 0.14757626 -0.033301428 0.15465336 -0.01648112
0.017992048 -0.011782491 -0.06503231 -0.04753345 -0.03815876 0.017478136 0.117560565 0.046507776
-0.028929014 0.0004901406 0.0021957797 0.13608994 0.002808243 0.022040522 -0.03503792 -0.03130641
-0.03893725 0.069808505 -0.022898832 0.14220832 0.10407142 0.09163419 -0.0013194466 -0.006934784
-0.02533535 -0.03907546 0.012838661 0.03147234 -0.02542905 0.062062833 0.008540829 0.07225877
0.027263822 0.029519852 0.0154734 -0.008689949 -0.037444178 -0.037539966 -0.057804417 -0.014025628
0.09869843 -0.008182119 -0.013727897 0.02321761 -0.05009063 -0.04912303 0.07949476 0.03313643
-0.008289296 0.057897296 0.013382203 0.075599775 0.12763387 0.11646783 -0.045927227 0.06622289
0.0473579 -0.029111465 0.16405669 0.0116518745 -0.048498806 -0.15491408 0.09668665 -0.03194364
-0.033568095 -0.057521977 0.029573219 0.10360727 0.08420928 -0.034240592 0.012450179 0.0942848
