data/predictor/PT/201_TNetwork-F_2024-05-15_10-47-29.pt (torch, 238779 bytes, 12 tensors)

conv1.bias f4 [64]
000000 f1 4f a6 3c 91 ae a3 ba ef 64 43 3d 08 25 79 3b
       0.02030179 -0.0012487938 0.04770368 0.0038016457
000010 5b b0 38 bd df 43 31 bd 74 ac b4 bc 6b 44 08 3d
       -0.04509006 -0.043277618 -0.022054888 0.033268373
000020 0b f9 cc 3b f0 94 a8 bb 7d 65 52 bb ec 9a 8f 3c
       0.006255274 -0.005144708 -0.0032103949 0.017529927
000030 e9 3a 8a bc 7f b0 2e 3c 46 3c 90 3d b0 1a 3d 3d
       -0.016873794 0.010662197 0.07042746 0.04616803
000040 fd d9 b7 bb 98 7f 42 3c c3 24 18 3d b2 f6 64 3d
       -0.005610703 0.011871241 0.037144434 0.05589933
000050 dc b1 73 3d 84 d5 3a bd 5f 9f b3 bc e7 1d d0 3b
       0.05949579 -0.04561378 -0.02192658 0.006351221
000060 3e e8 4b bd 79 8e 02 bd 72 ea 40 bc 0a 66 18 bd
       -0.04978203 -0.031874154 -0.011774646 -0.037206687
000070 72 f9 fc bc 66 03 f1 bc bd 1e b6 bc 96 32 8c 3c
       -0.030880664 -0.029420566 -0.022231454 0.017113965
000080 50 40 88 bc d6 e8 96 bc 92 84 a7 3b 9f 65 c2 3c
       -0.01663223 -0.018421572 0.005112239 0.023730097
000090 77 5e 11 3d 0b 59 57 bc a6 62 96 bc 46 1a 16 3c
       0.03549048 -0.013143788 -0.018357586 0.0091615375
0000a0 91 33 04 3b c1 3a 62 3c 05 55 ed bc 73 f2 18 3b
       0.0020172338 0.013807953 -0.028971205 0.002333787
0000b0 ca 71 7e bc b3 32 4e 3b b3 ee ef 3c 49 13 38 bc
       -0.015530059 0.0031463325 0.029288625 -0.011235067
0000c0 aa 92 65 3c 5d 85 04 3d 8e f8 e9 3c 21 e5 fe 3c
       0.014012018 0.032353748 0.028560903 0.031115117
0000d0 2f 3b b2 3c bb 3b 08 3d 8e 54 74 3c f5 55 87 3c
       0.021756737 0.03326009 0.0149127375 0.01652048
0000e0 43 f7 9e 3b 9a c1 0e 3c 10 38 52 bd 9c 71 8f bb
       0.0048512532 0.00871315 -0.051322997 -0.004377557
0000f0 52 28 fc 3b 0f 0d 55 bc 34 92 fa bc 65 19 dc bb
       0.0076952362 -0.013003602 -0.030587293 -0.0067168945

conv1.lin.weight f4 [64, 4]
000000 48 94 b4 3e 6f 80 2c 3e d8 47 7e bc a1 13 15 be
       0.3526938 0.16845869 -0.015520059 -0.14558269
000010 c4 9b 0f be 86 c2 14 bf 03 7c b8 3d 04 d3 87 bc
       -0.14024264 -0.5810932 0.09008028 -0.016580112
000020 9c a6 83 be 2f 4d 59 3e dc 7d e6 bd cc d6 6a 3e
       -0.2571305 0.2122085 -0.112544745 0.22933501
000030 d2 cc 1d be 94 bd 5d 3e b3 e2 83 3e 1b b3 ac 3b
       -0.15410164 0.2165435 0.25758895 0.0052703745
000040 76 40 81 be e4 55 8b be be bc 3c 3e 8d 8a 44 3e
       -0.25244492 -0.27213967 0.18431374 0.19193478
000050 5e 31 1b be fd 2f d5 be 10 80 7e 3e cc 4a 25 3d
       -0.15155551 -0.41638175 0.2485354 0.040354535
000060 68 45 39 bd 94 2c 15 bf 06 90 be 3d dc 3d d3 3d
       -0.045232207 -0.58271146 0.09304814 0.10314533
000070 f4 bb 6d be a1 37 1f bd 1f 81 6c 3c ca 1b c6 3e
       -0.2321623 -0.03887141 0.014435082 0.38693076
000080 9c 9d b6 be 1b ef 8d be 48 6c b3 3d de 62 85 3e
       -0.3566712 -0.27721485 0.087608874 0.26051992
000090 5a 6d f9 3d 31 b1 e4 3c ac c3 2f be 56 e7 e3 3d
       0.1217906 0.027916523 -0.17164487 0.11128108
0000a0 21 8d 01 be 05 f4 6c bc 28 56 2b be 34 25 c4 3d
       -0.12651493 -0.014462476 -0.16732085 0.095774084
0000b0 53 e1 22 3d 60 0b a0 bc da 4c 4b be 4f a5 5c 3e
       0.039765667 -0.019536674 -0.19853535 0.21547435
0000c0 24 48 8c be 66 fe 6f 3e 02 6b 21 3e 94 c8 1e be
       -0.2739879 0.23436889 0.15763476 -0.15506202
0000d0 ab 15 29 be 87 2c 21 bf 20 01 b3 3d 8e 58 c6 3d
       -0.16512172 -0.6295857 0.08740449 0.09684859
0000e0 fd 11 b1 3e 1e 93 ba be dd 96 3a be ce c8 11 3e
       0.34584036 -0.36440367 -0.18221612 0.14236757
0000f0 e8 a4 e6 3d 2b 25 45 3c 8c bc 17 be 56 e1 6a 3e
       0.11261922 0.012032787 -0.14818019 0.22937521
000100 35 af d6 bd 30 1f 9c 3e 4e 52 de 3d 90 26 69 3d
       -0.10482637 0.30492544 0.10855542 0.05692154
000110 67 49 af be 78 fa 1e 3e 3c c7 55 3c a4 3c c2 3d
       -0.3423569 0.15525234 0.013047989 0.094842225
000120 b6 40 39 be e8 29 98 3e 30 39 50 be 26 ca 0d bd
       -0.18091092 0.29719472 -0.20334315 -0.034616612
000130 6f 65 6f 3e 11 39 6c 3e 25 98 ec bd 6f 8c c3 3e
       0.23378538 0.23068644 -0.11552457 0.3819308
000140 61 7d b4 3d a5 6c 55 be 78 22 70 be 13 e3 99 3e
       0.08812977 -0.20842226 -0.23450649 0.30056056
000150 87 ac ec 3d 48 a3 0b 3e b0 0a 8b be 57 fd 6f 3e
       0.115563445 0.13636506 -0.2715659 0.23436485
000160 c2 a9 79 3e 69 f2 34 3e 30 ae 87 3c 75 8f ef bc
       0.24381164 0.17670597 0.016562551 -0.02924321
000170 d4 e3 e4 3d 84 af c4 bd 19 7e 26 bd 63 f5 98 bd
       0.11176267 -0.096037894 -0.0406476 -0.07468679
000180 4f 6e e6 bd fc 29 15 be 04 09 ef 3d db ca 8c 3e
       -0.112515084 -0.14566797 0.116716415 0.27498516
000190 1f e2 8d be ae 7c 03 bf d0 d7 40 3e a0 e1 63 3e
       -0.2771158 -0.5136212 0.18832326 0.22254038
0001a0 b0 6c 41 3e f0 e0 fb bd b7 68 85 3e 27 40 96 3e
       0.18889117 -0.12298763 0.26056454 0.2934582
0001b0 db 1c 7c 3d 7a 33 8d 3e 94 40 2f 3e 78 ea a7 3d
       0.061550956 0.27578336 0.17114478 0.08199018
0001c0 5e 77 0b be 3b db 09 be 8c 6f 6d 3e 1d d8 2b be
       -0.13619754 -0.13462536 0.23187083 -0.1678166
0001d0 c8 84 c8 3d d3 ea 3e 3e 3c a7 99 be 65 f4 f4 bd
       0.09790951 0.18644266 -0.30010402 -0.11960677
0001e0 43 bb 91 be 7f ab a5 be 4a 50 6f 3e a0 b1 a2 be
       -0.28463182 -0.32357404 0.23370472 -0.31776142
0001f0 4d 8a c4 3d e8 fb 8e bb 07 b3 18 be 10 a1 05 3e
       0.09596691 -0.0043635257 -0.14912044 0.13049722
000200 22 9a 59 3e b2 91 1c bd ce ec 64 3e d2 83 20 be
       0.21250203 -0.038224883 0.22355959 -0.15675285
000210 51 60 8e 3d 37 2a a3 3e 94 60 31 3d 61 76 0c bf
       0.06951965 0.31868145 0.043304995 -0.5486813
000220 65 bb ce 3d e7 55 08 bd d2 5d 72 3d 4c 3b 12 bf
       0.100943364 -0.033285048 0.059171505 -0.5712173
000230 b0 8f e2 3c 0b 8d 8f 3d a7 aa 72 be d5 f4 3d 3b
       0.027656406 0.07009324 -0.23697911 0.0028985043
000240 60 5e aa 3e e4 b5 7f 3e fe 7b f2 bd 93 60 b5 3e
       0.33275127 0.2497173 -0.11840056 0.35425243
000250 90 35 5e be 56 f9 6f be 72 d8 73 3e 6a 78 e1 ba
       -0.2170012 -0.23434958 0.23813036 -0.0017202024
000260 41 26 54 3e d7 a5 df 3d 1c 38 93 be 54 05 cf 3c
       0.20717718 0.10920303 -0.28753746 0.025271095
000270 dc ea 26 be b5 3c e7 be f6 5a 90 3c 32 34 55 3e
       -0.16300529 -0.45163503 0.017621499 0.20820692
000280 ae 96 2c 3e 7c 7e 3d 3e ee be ce bc f6 23 9d 3c
       0.16854355 0.18505281 -0.025237527 0.019182187
000290 d5 40 99 be 94 66 82 be 0c ca 5d 3d 0e a5 20 3e
       -0.29932275 -0.25468886 0.054147765 0.15687963
0002a0 40 64 8c 3d 5e 3b 04 3e 48 ff 6d 3e 8c 7b 07 be
       0.06855059 0.12913272 0.23241913 -0.13230723
0002b0 bb b7 13 3e cb f8 03 be ea 4b 8f be ff f8 87 be
       0.14425556 -0.12887876 -0.27987605 -0.26557156
0002c0 b6 e2 65 3d 73 53 3a be 78 24 69 3d 4b d5 3b be
       0.05612441 -0.18195896 0.056919545 -0.18343084
0002d0 67 28 fa 3d d8 1a ce bd 4d 8c 1b bd b6 23 cc 3d
       0.122147374 -0.10063714 -0.037975598 0.09967749
0002e0 68 eb 88 3e 77 46 9f bd b2 26 c4 bd f5 4d 31 3e
       0.267421 -0.07777112 -0.09577693 0.17314894
0002f0 20 ff 80 3c b5 0d 0c 3e d3 36 3c be fb 48 9c 3e
       0.015746653 0.13677104 -0.18380289 0.3052443
000300 31 5d b7 be 0a e0 83 3e f8 d4 5a 3c ed ef 11 3d
       -0.35813287 0.25756866 0.01335644 0.0356292
000310 51 c3 bc be e6 25 98 3e 3e 40 07 3e d0 23 b2 bd
       -0.36867765 0.29716414 0.132081 -0.08698237
000320 8c 6a f9 bd 0e 0e 35 3e 2c ef 62 be dd 2a ec 3e
       -0.12178525 0.17681143 -0.2216155 0.46126452
000330 79 c6 85 be 40 73 47 3e e5 02 98 bd 60 ef 58 3e
       -0.26127985 0.19477558 -0.07422427 0.21185064
000340 6c 3a 86 3e af 33 fe 3d 68 f8 2b be 72 ed 77 3d
       0.26216447 0.124122016 -0.16793978 0.06052918
000350 72 82 94 3e a4 f2 53 3d 53 49 c0 bd 2a a2 59 bc
       0.29005772 0.051745072 -0.093889855 -0.013283292
000360 b7 69 09 3d fd 44 f3 be f5 42 ee 3c 53 6e 34 3e
       0.033548083 -0.4751357 0.029084662 0.1762021
000370 9e c6 63 be 63 f6 04 bf 3a 96 8e 3d f8 30 57 3e
       -0.22243735 -0.51938456 0.06962247 0.21014774
000380 d6 6e 88 3d 89 1b 9c 3e c4 7a 94 bd df 8a 4e be
       0.06661765 0.30489758 -0.07249978 -0.20170163
000390 26 d1 4c 3e 73 fc 13 be 3c 91 19 be 77 10 36 3d
       0.20001659 -0.1445177 -0.14996809 0.044449296
0003a0 a7 e3 8b bd 74 70 39 bb 9e 54 4e 3e 13 f9 51 3e
       -0.068305306 -0.0028295787 0.20149466 0.2050517
0003b0 0b cd 41 3e 92 96 96 bd 00 0e 92 be 8b 1b d1 3d
       0.18925874 -0.07352938 -0.28526306 0.102103315
0003c0 0c 19 d0 3d 54 3d b6 3b 42 33 08 3d ec 66 07 3d
       0.10161027 0.00556151 0.03325201 0.03305714
0003d0 bd 54 b9 be a1 73 29 3b cf d5 33 3e 48 c4 41 bc
       -0.36197463 0.0025856274 0.1756203 -0.011826582
0003e0 70 bf 55 be 4a 60 3c 3e e5 05 97 be 7e 83 f4 bd
       -0.20873809 0.18396106 -0.29496685 -0.11939143
0003f0 d4 a9 db bd 26 50 84 be 49 10 03 3d f2 4f d0 3e
       -0.107257515 -0.25842398 0.031997953 0.40685993

conv2.bias f4 [64]
000000 1b 3e 28 bc 86 f5 58 bc 4d 10 0e bc 97 dd 10 bd
       -0.010268713 -0.013242131 -0.008670879 -0.035367575
000010 ae bd b6 bb 06 47 96 bc e8 a2 85 bc 96 40 9e bc
       -0.005576811 -0.018344413 -0.016313031 -0.019317906
000020 7f 6a b3 3c 97 14 fb bc 38 8f 04 3c 9c b6 c1 bc
       0.021901367 -0.030649466 0.008090787 -0.023646645
000030 28 61 7f bc 9a 5f a1 bc 4c a6 5f 3c b4 d5 b0 bc
       -0.015587129 -0.019698907 0.013650488 -0.021586277
000040 f7 25 60 bc 95 35 38 bd 90 b2 d4 bc 77 8b 31 bc
       -0.0136809265 -0.044972975 -0.025964051 -0.010836474
000050 33 72 2e bc ef 47 b3 bc cc de 6d bc d8 84 45 bc
       -0.010647344 -0.021884887 -0.014518451 -0.012055598
000060 eb 8a 81 bc f0 eb 89 3c 48 2d 97 bc c7 d0 1b bc
       -0.015813312 0.016836137 -0.018454209 -0.009510226
000070 e9 4d 8c bc 87 38 e8 bc e4 3b 62 bc 9f 00 34 bb
       -0.017126994 -0.028347267 -0.013808224 -0.002746619
000080 19 a0 45 3c 22 38 17 bc 61 01 06 bd 39 77 b2 bc
       0.012062096 -0.009229692 -0.03271616 -0.021785365
000090 24 24 83 bc c3 ed 5b bd 6a d6 d1 3b 13 1f f1 3b
       -0.016008444 -0.053693544 0.006403734 0.0073584407
0000a0 8b b7 2d bd e4 f9 a7 bb 9e e1 ce bc 6c 70 cb 3c
       -0.04241137 -0.005126225 -0.025254067 0.02483388
0000b0 b0 fa 6a 3c c4 a3 a6 bc 81 e8 ae bc da 35 8d bc
       0.014341995 -0.020341761 -0.0213511 -0.017237592
0000c0 b4 a1 09 b9 0f a3 16 3b 01 dc 4c bc 3f df 0b bc
       -0.00013125577 0.0022985374 -0.012503625 -0.008537113
0000d0 8c ea 45 bc 0e ab aa bc f1 e7 b2 3a b8 7e b0 3b
       -0.012079846 -0.020833518 0.0013649446 0.0053862
0000e0 57 28 cb bc 90 93 a8 bc 0d 56 86 bc a6 3b c0 bb
       -0.024799509 -0.020578176 -0.016398454 -0.0058664856
0000f0 e9 47 cd 3c 39 56 56 3a 27 13 d0 bc d3 36 5e bc
       0.025058703 0.00081763003 -0.025399758 -0.013562876

conv2.lin.weight f4 [64, 64]
000000 ee 07 09 be 1f ea b1 bd 35 e2 26 3d e1 0b b3 3d
       -0.13381931 -0.08687233 0.04074307 0.087425
000010 f2 d9 87 3c 27 83 16 3e 4d de 46 3e 53 ef b8 bd
       0.016583417 0.14698468 0.19420739 -0.090300225
000020 1a c9 f3 3d fe 41 a0 bd f1 63 0d 3e 08 c0 95 3c
       0.119035915 -0.07825087 0.13807656 0.018280044
000030 be 0b 7e 3c 20 2b a5 bc 1a 46 53 be e8 cb 85 3d
       0.015505729 -0.020162165 -0.2063221 0.06533033
000040 92 11 85 3d 7f 68 2e 3e 65 96 d0 3d 38 5c f8 bc
       0.06497492 0.1703205 0.101849355 -0.03031741
000050 02 32 06 be 61 cd 45 3d 77 45 75 3d 4c b2 df bd
       -0.13105014 0.048291568 0.0598807 -0.10922679
000060 3e 3b 28 3e 81 d6 cd 3d ea 89 98 bc a1 ef 7b bb
       0.16428849 0.10050679 -0.01862045 -0.003844239
000070 09 ca 58 3e 9e 07 07 bd 29 2e 47 be b8 6a 04 be
       0.2117082 -0.03296625 -0.19451202 -0.12931335
000080 e7 5d e3 3d 6c 72 d1 bc c9 fb da bd cc 1d ef 3d
       0.11101895 -0.025567256 -0.106925555 0.11675605
000090 e4 d5 28 bd 26 99 59 3e 7a 40 12 be 4e 03 c2 3d
       -0.041219607 0.21249828 -0.14282408 0.094732866
0000a0 49 04 59 be a9 40 a6 be 81 15 3f 3e 86 71 ea bd
       -0.21193041 -0.32471207 0.18660547 -0.11447434
0000b0 94 32 64 3e b2 5b 8a 3d 76 ff 17 be 95 15 84 3e
       0.22284919 0.06755771 -0.14843544 0.25797716
0000c0 a0 a8 14 3e 93 93 04 be 7c 6d 31 3c 3d 92 cc 3b
       0.1451745 -0.1294692 0.010829326 0.006243019
0000d0 3b 0d 19 3e 25 fb 37 be 5f e2 24 3e 2f 44 1b be
       0.14946453 -0.17966898 0.16101979 -0.15162729
0000e0 71 d3 50 3e 6e e2 57 3e fb 54 46 3e d1 87 a4 bd
       0.20393158 0.2108247 0.19368355 -0.080337174
0000f0 f8 2c 98 bd 40 e0 83 bc c5 7e 3e be d1 5a 69 be
       -0.07430452 -0.016098142 -0.18603046 -0.2278855
000100 de 68 a4 bd ae 5f 9b be 74 6f 01 be e3 3c 00 3e
       -0.08027814 -0.30346435 -0.12640172 0.12523226
000110 9e f3 f8 bd 54 53 48 be 94 50 56 be 61 a0 34 3e
       -0.12155841 -0.19563037 -0.20929176 0.17639305
000120 01 71 97 bd a1 0e 94 3c 51 be 54 be 54 1a 1d 3e
       -0.07394601 0.018073382 -0.20775725 0.15342075
000130 7a e1 52 be 1f 73 3c be 7e 48 2a 3e ba 43 4b be
       -0.20593825 -0.1840329 0.16629216 -0.19850054
000140 c7 86 13 be 7e 7f 33 3d 16 e7 d5 bc 18 4f df 3d
       -0.14406882 0.043822758 -0.026111167 0.10903758
000150 34 26 7e bd 09 65 1b bd d6 a3 5f 3d fe 03 f5 bc
       -0.062048152 -0.03793815 0.054599606 -0.02990913
000160 ed f6 16 3d 05 33 63 be 45 56 ad 3d 95 fb 31 3e
       0.03685658 -0.22187431 0.0846372 0.17381127
000170 c8 39 a4 bd 72 81 73 bd ff ba e0 3c 87 b5 f2 3d
       -0.080188334 -0.05944962 0.027432917 0.1185103
000180 37 3f 15 3e e9 f8 bb bd f6 89 43 3e 75 81 4f 3e
       0.14574896 -0.09178335 0.19095597 0.20264228
000190 ec 30 51 3e 13 ed 49 be a2 3e 7a 3e ba 12 82 bd
       0.20428818 -0.19719343 0.24437955 -0.06351228
0001a0 7c 5d 07 3e 9a d0 82 be 22 ea 9b bd 6e f5 a8 3d
       0.13219255 -0.25549775 -0.07613017 0.08249937
0001b0 9f ca 29 be 20 44 85 3c 33 2e 46 3c 1a 2d 6c bd
       -0.165812 0.016267836 0.012095976 -0.0576602
0001c0 61 71 7b 3b 9b 8c 64 be 05 77 bc 3c 41 8a 3b bd
       0.003836714 -0.22319262 0.023005972 -0.045786146
0001d0 9a 07 19 be 0c 07 f4 3d 5d 79 5a bd fe 2e f0 bd
       -0.14944306 0.119154066 -0.053338397 -0.11727713
0001e0 0d c0 e9 3d 5f 04 90 3d 9a 01 05 3e e2 e5 e2 bd
       0.11413584 0.07032084 0.12988892 -0.11079003
0001f0 50 9e da 3d 87 22 78 be 56 e2 0d be 09 67 16 bb
       0.10674727 -0.24231921 -0.13855872 -0.0022949597
000200 17 64 8e 3d 63 07 89 be 3a 76 2e 3e 31 fa 1f be
       0.069526844 -0.26763448 0.17037287 -0.15622784
000210 e6 ab 13 3d 91 54 c7 bd 59 22 42 be b0 a4 88 bd
       0.036052607 -0.09732927 -0.18958415 -0.06672037
000220 6a 8d 0e 3e 15 53 0b 3e 3c 46 ae 3d 2b 24 9b 3d
       0.13921133 0.13605912 0.0850949 0.07575258
000230 25 78 53 be 04 ca fa bc 27 96 32 3e 46 2c 13 be
       -0.206513 -0.030613907 0.17440091 -0.14372358
000240 4c 03 70 3d 02 60 1a 3e ce 25 00 3e 32 53 57 3e
       0.058596894 0.15075687 0.12514421 0.2102783
000250 db ec 85 3e 75 e3 0c bd c5 0d 0b bd 48 24 05 be
       0.2615727 -0.034396607 -0.03394868 -0.13002121
000260 49 60 18 be 02 6c 68 be e2 52 90 bd cc 23 9f 3d
       -0.1488048 -0.22697452 -0.07047059 0.077704996
000270 c8 9b 35 3e e1 82 89 bd f9 d7 7c 3d 11 46 2c be
       0.17735207 -0.06714416 0.061729405 -0.16823603
000280 65 98 a3 3d a2 25 2d be 8b 2f ce bc 1a f9 e3 3d
       0.07988051 -0.16908887 -0.025169155 0.11131497
000290 86 59 14 3c 0e e8 be 3d 9b 0c 82 3e 91 52 83 3d
       0.009054547 0.09321605 0.25400242 0.06412233
0002a0 ff 35 6f 3e ec 65 8d bd c1 79 59 3d a1 27 4f 3e
       0.23360442 -0.06904206 0.05309463 0.20229961
0002b0 9a b6 0e 3c bb b7 c9 3d c8 aa 9d 3d 05 09 2e be
       0.008710528 0.09849497 0.076985896 -0.16995628
0002c0 8b 01 82 3e a3 95 63 be 82 11 61 3e 7a 34 35 3e
       0.25391802 -0.2222505 0.21979335 0.176958
0002d0 7f 81 b2 bd 3d b9 1e bd c3 80 bc bc 8b f3 25 3e
       -0.08716106 -0.038750876 -0.023010617 0.16206186
0002e0 29 db 6b bd d3 26 38 be 0f e0 80 bd b2 85 73 3e
       -0.057582054 -0.1798356 -0.06292736 0.2378147
0002f0 5a 7d e2 3d a0 ee 21 bb 75 3f 4e bd 6a d4 d6 3d
       0.11059065 -0.0024708882 -0.050353486 0.104897335
000300 a7 d7 70 be b6 2e b4 3e 18 64 b1 3d d5 df f7 3b
       -0.23519765 0.35191888 0.086616695 0.0075645247
000310 9b 9c 98 bd 5d 40 3d 3e 20 a7 69 3e 08 5c 83 3e
       -0.07451745 0.18481584 0.2281766 0.25656152
000320 77 8b 8e 3e 6c 1b 50 bd 36 ea a3 bb f1 00 3d be
       0.27840778 -0.0508074 -0.0050022854 -0.1845739
000330 cf 22 28 bd 80 63 a2 3e 41 94 c5 bd 2e 0f c1 bc
       -0.04104882 0.31716537 -0.09647418 -0.023566809
000340 a4 0f e0 3d b6 ea dc 3e 4a 51 b5 3e d3 c5 4b be
       0.10940483 0.4314782 0.3541358 -0.19899683
000350 98 78 b2 bc 6d 9f 0c bd 0f 4c 45 bd c7 78 a8 3d
       -0.02178602 -0.034331728 -0.04816824 0.082261615
000360 c3 aa ce 3d 67 68 b2 bc 82 33 21 3e 82 bb a0 3d
       0.10091164 -0.021778299 0.15742305 0.07848264
000370 46 78 cd bd d1 11 68 3e 83 56 2d 3e 1c 9b c2 bd
       -0.10032706 0.22663046 0.16927533 -0.09502241
000380 49 e5 5a be e8 d6 87 be 35 1a d9 3d 19 d2 79 3e
       -0.21376528 -0.26531148 0.10600702 0.24396552
000390 cf 5d 94 bd 8b 3e 2e 3e c1 1d 14 3e 0b 17 9e 3c
       -0.07244455 0.17016046 0.14464475 0.019298097
0003a0 ff 70 41 be 65 16 bf 3e f1 37 5c 3d b0 92 3f be
       -0.18890761 0.37321773 0.053764287 -0.187083
0003b0 90 e2 3b bd f5 88 97 3d 7e 84 1a be 33 d7 95 bc
       -0.045870364 0.07399169 -0.15089604 -0.018291092
0003c0 56 94 cb 3e 90 50 6d bc a9 1d a9 bd bd 6a 96 3d
       0.3976161 -0.01448454 -0.0825761 0.073445775
0003d0 25 73 55 3e 1f df a1 3c 60 f9 47 3e 8d 64 79 3e
       0.20844705 0.019759713 0.19528723 0.24354763
0003e0 67 ca ce 3e 1f 25 20 bd 47 65 0a be 48 bb bc bd
       0.40388796 -0.0390979 -0.13515197 -0.092154086
0003f0 2e 3d 02 be 31 46 38 3e bb 77 3f 3e 41 a9 62 3e
       -0.1271865 0.17995526 0.18698017 0.22134878

conv3.bias f4 [64]
000000 1a 39 cd bc f8 e8 cc 3b 90 2b 6d 3c fb fd 1e 3c
       -0.025051642 0.006253358 0.014475718 0.009704108
000010 b3 b0 33 bc 7e 95 72 3c 5c a9 61 3b 35 eb 04 39
       -0.010967421 0.0148061495 0.0034433221 0.00012676122
000020 82 b9 8c 3a 45 7f 8e 3b 31 09 d9 3b 1a 6e 20 3c
       0.0010736438 0.004348668 0.00662341 0.009791875
000030 77 d5 95 3a 22 0d ad 3c 97 74 74 3c 38 88 01 3c
       0.0011431415 0.021124426 0.014920375 0.007906012
000040 6e 11 56 bc a6 bb 6a 3b 02 98 d6 b9 14 6b ea 3c
       -0.013065679 0.0035817414 -0.00040930515 0.028615512
000050 5c e7 9e 3c 7a d4 9f 3c f4 45 a7 bc ae 88 47 bb
       0.01939743 0.019510496 -0.020419098 -0.0030446458
000060 8c 06 4f ba b3 04 8b bc 3f 0e 24 bd 08 f5 f0 3c
       -0.0007897399 -0.016970014 -0.04005265 0.029413715
000070 d5 9b 05 bd 6d 8c 4b 3c 0f b0 b0 3a 69 a4 9e 3c
       -0.032619316 0.012423617 0.0013480204 0.019365506
000080 57 c8 d3 bc 22 00 70 3b 09 dd 5b 3c 0b 99 54 3c
       -0.025852365 0.0036621173 0.013419398 0.012975941
000090 bd d9 99 3a b5 d1 72 bc 71 43 77 bc 6d 26 8f 3c
       0.0011737865 -0.014820506 -0.015091763 0.017474378
0000a0 6f 73 e0 3c b2 67 f6 bb 1d 86 9b bc ed 50 58 bc
       0.027398793 -0.0075196857 -0.018984849 -0.013202888
0000b0 d3 7e ed 3c dd 42 c7 3b a0 48 f0 ba c3 3c 5a 3c
       0.028991139 0.006080969 -0.0018332191 0.013320151
0000c0 38 3a 24 bc b7 65 b6 bb 98 99 83 3c 2b a9 cc bc
       -0.010023646 -0.0055663246 0.01606445 -0.02498301
0000d0 f4 e9 89 ba 74 78 87 3b 13 c8 05 3d 76 59 f7 39
       -0.0010521994 0.004134232 0.03266151 0.00047178165
0000e0 88 f7 43 bb a6 ab 1a 3c 85 13 c3 3c d1 a9 51 bc
       -0.0029902179 0.009440338 0.023813019 -0.012796835
0000f0 ec 50 a0 3a dc 3b ac 3a 00 28 72 ba 4a 0e 3f bc
       0.0012231148 0.0013140398 -0.0009237528 -0.011661122

conv3.lin.weight f4 [64, 64]
000000 37 a6 00 be 2a be 94 3b be 1d 3b be 38 e4 ce 3d
       -0.12563406 0.004539271 -0.18273064 0.10102123
000010 fc df e0 3d eb 94 6d 3e af 2c 88 3d fa e5 e3 bd
       0.10980222 0.23201339 0.06649148 -0.11127849
000020 6f 3c c7 3d af cc 21 3e 19 fa c0 bd 3d e5 1b 3e
       0.09728324 0.15800737 -0.09422702 0.15224166
000030 b4 b3 4c be 32 1f 92 3d 94 05 0c 3d 3f 4f 2b bd
       -0.19990426 0.07134856 0.034185007 -0.04182362
000040 e5 d6 54 3e b9 cd af 3d 51 5e 44 be 8f 08 7f 3e
       0.20785101 0.0858416 -0.19176604 0.24905609
000050 38 44 25 3e 65 f2 36 bd a8 bb d4 bd ac 7c a8 3d
       0.16139305 -0.04466476 -0.10387355 0.08226904
000060 a9 2e 19 be 79 37 d9 3d a9 a8 31 3e 11 ff 01 be
       -0.14959206 0.10606284 0.17349495 -0.12694956
000070 c0 88 d5 3b 06 86 98 bc 18 80 62 bd e6 1b ec bb
       0.006516546 -0.018618595 -0.05529794 -0.007205474
000080 b2 89 47 bc 6c 5c cf 3d 72 14 91 3d c5 e6 ef bd
       -0.012178825 0.1012505 0.07083978 -0.11713938
000090 ac 8a ae 3c ce 99 5b 3d 2a dc 17 bc 03 6d b6 bc
       0.021306358 0.053613476 -0.0092688 -0.022268778
0000a0 65 94 2a be 32 71 0e 3e c0 e8 22 be d1 f7 a6 3d
       -0.1665817 0.13910368 -0.159091 0.08152736
0000b0 1a 4e 7c bc 28 fc 23 3d 67 2f a7 3d ed ef 56 3e
       -0.01539948 0.040035397 0.08163338 0.20989962
0000c0 2a 6c 40 3e 5c 77 0b 3e d4 6b 05 be 01 99 d2 3d
       0.18791261 0.1361975 -0.13029414 0.102830894
0000d0 36 7d 47 be 28 7e 04 be 24 65 2b 3e cb 82 1c 3c
       -0.19481358 -0.1293875 0.16737801 0.009552668
0000e0 b4 ee bb 3c e4 0e 19 3d a8 88 f6 3c f4 1c 56 3e
       0.022940971 0.037367716 0.03009446 0.20909482
0000f0 eb 37 f5 bd c1 2d 34 3d b9 30 de 3d 05 c7 95 3d
       -0.11973556 0.043988947 0.10849137 0.073133506
000100 e6 7d 06 3e 6d ec e2 3d a8 1b 79 3d 51 39 ab 3e
       0.13133964 0.11080251 0.06081739 0.33442166
000110 94 a5 da 3d 54 f8 fa bd f7 be b7 bd 06 51 fc bd
       0.10676113 -0.12254396 -0.089719705 -0.123201415
000120 2a 3b 0d 3e b6 0e d4 3d 3d 82 77 be 26 24 fe bd
       0.137921 0.103543684 -0.24170776 -0.124092385
000130 6f a6 bc 3d d6 52 87 bc 3d f0 09 3c fa 9c 69 bc
       0.09211432 -0.016518991 0.008419094 -0.014258618
000140 87 1f 48 3e d1 1c aa 3d b7 9c 22 be 5f 2e ec bc
       0.19543277 0.083062775 -0.15880094 -0.028830705
000150 d1 44 86 be c9 f2 39 bd 5a d0 68 3e 12 92 2f bd
       -0.26224378 -0.045397554 0.2273573 -0.042863913
000160 a2 8b 1f be 8a a1 3d 3e 40 74 20 be 55 69 4b be
       -0.1558061 0.18518654 -0.15669346 -0.198644
000170 74 81 63 bd d5 22 80 3b 1b 86 74 3d d2 ba 8a 3e
       -0.055543378 0.0039104023 0.059698205 0.27095658
000180 0a 01 3d bd 53 0f 2a 3e a5 29 5c 3e 20 78 66 bd
       -0.04614357 0.16607408 0.21500261 -0.056266904
000190 28 31 21 be 3b 1b 76 be 31 c8 e8 bc b5 3c 43 3e
       -0.15741408 -0.24033825 -0.028415771 0.19066127
0001a0 d9 c1 d0 3e 91 5a e4 bd e8 3d 19 3e 15 d7 31 3d
       0.40772894 -0.11150087 0.14965022 0.04341801
0001b0 b0 e8 b9 bd 1f d4 e1 3e b6 b6 23 be 29 b8 b3 bd
       -0.09077585 0.44107148 -0.15987667 -0.0877536
0001c0 1c 0b 22 be 0d f3 3f be a5 80 fc bd c4 e2 34 3e
       -0.1582455 -0.1874506 -0.123292245 0.17664629
0001d0 90 b6 0c be f8 b0 7f 3d 49 0f 4b bc 87 dc ec 3d
       -0.13741517 0.06242463 -0.012393781 0.115655
0001e0 8b e7 ae 3e aa 6c 06 3d bb f7 a8 3b 90 51 6e 3d
       0.34161028 0.032818474 0.005156485 0.058183253
0001f0 b8 39 51 be 26 a6 47 bc 0a d2 17 3e ae 6f 20 be
       -0.20432174 -0.012185609 0.14826217 -0.15667602
000200 f4 01 f5 bd 71 64 59 3e f4 e9 00 be db 41 37 3e
       -0.11963263 0.21229722 -0.12589246 0.17896216
000210 c2 4b 10 3e b3 26 84 be 4e e6 b5 bd e3 68 e9 bd
       0.140914 -0.25810775 -0.08881818 -0.11396959
000220 10 2c 01 be 5a 17 40 3d 7e 79 52 bc d8 56 1f bd
       -0.12614465 0.04689727 -0.012846349 -0.03890118
000230 ed a6 3f be 4c 8b b2 bd 25 d6 8c bd 08 5a c0 3d
       -0.18716021 -0.08717975 -0.06876782 0.09392172
000240 70 c4 af 3d 62 b9 e9 bd c7 64 39 bd 8a 5c 17 be
       0.08582389 -0.11412312 -0.045262124 -0.14781395
000250 22 73 97 3c b4 45 20 be 9b 40 29 3e a4 a3 5e be
       0.018487517 -0.1565159 0.16528551 -0.21742111
000260 05 34 f1 bc 12 5d 17 3e 37 09 5d be 1b a2 39 3e
       -0.02944375 0.14781597 -0.21585546 0.18128245
000270 96 fb 55 3e 2d 5c 4e 3e ae b7 50 3d 85 ee 90 3d
       0.20896754 0.2015235 0.05095642 0.07076744
000280 4e d0 f4 bd 69 31 8b 3d 23 8e 1d 3e 78 a9 1d be
       -0.119537935 0.067965336 0.15386252 -0.15396678
000290 8c 08 86 3d 7d e7 75 be d9 a4 14 be 83 fa fe 3d
       0.06544599 -0.24014087 -0.1451601 0.12450125
0002a0 34 70 37 3e b8 a5 a3 3d 81 77 99 3e bf cd 96 bd
       0.17913896 0.07990593 0.29973987 -0.07363462
0002b0 35 07 4a 3e 81 db 1b 3e 06 a9 b6 be 32 e6 5e be
       0.19729312 0.15220453 -0.3567583 -0.217675
0002c0 f0 9a 24 3e 7d a7 de bd 81 69 de 3c 2d 3b 2a be
       0.16074729 -0.108717896 0.027149918 -0.16624136
0002d0 88 7b 12 be 6a f7 e9 bd a2 d1 09 3e 3a ca 26 3e
       -0.14304936 -0.114241436 0.13458875 0.16288081
0002e0 56 de d6 3e d3 96 c3 bd 09 c1 28 3e 32 bf 41 be
       0.41966504 -0.09550252 0.16479887 -0.18920591
0002f0 bf c4 25 be 7a 75 4a 3e 4b 06 3a 3d d5 36 9a bd
       -0.16188334 0.19771376 0.045416158 -0.0752999
000300 d5 82 50 be f5 7c d5 3d 92 bd 0e bc 61 9c f6 3d
       -0.20362408 0.10424224 -0.008712189 0.12041546
000310 de 33 6c bd f7 95 7d 3e ca ef 20 be 45 05 34 3e
       -0.057666652 0.24764238 -0.15716472 0.17580135
000320 60 33 ba bd 8c a1 11 3e 1c 9b 50 3e 2d fe f2 3d
       -0.0909183 0.14221781 0.2037167 0.118648864
000330 f4 e7 ed bc 5c 02 8a 3c c7 db 94 3d b6 5e 3c 3b
       -0.029041268 0.016846828 0.07268482 0.0028742976
000340 ed 48 b2 3c 89 56 2a 3e 34 42 2a 3e 2b 2a 49 bd
       0.02176329 0.16634573 0.16626817 -0.04911248
000350 2d d8 be 3d 9e 2b 49 3e 42 59 44 be 19 49 34 3e
       0.09318576 0.19645545 -0.19174674 0.1760601
000360 c2 26 23 3e f6 ab f7 3d 56 df 49 3d 67 78 28 be
       0.15932754 0.12093346 0.049285255 -0.1645218
000370 aa d7 1c bc cb 1d e6 bd d8 9d 30 3e e7 8f 9e 3e
       -0.009572903 -0.11236151 0.17247713 0.30969164
000380 80 1d 11 3e f9 4f 4e bd f9 1c 58 3e 49 5a a7 bd
       0.1417141 -0.050369237 0.21104802 -0.081715174
000390 f4 42 0a be 47 a4 3f be 22 37 c3 bd 28 94 83 3e
       -0.13502103 -0.1871501 -0.09532 0.25698972
0003a0 e4 d9 9b 3e 50 00 a6 bd 8d e8 86 3e 56 3d 97 be
       0.30439675 -0.08105528 0.26349297 -0.29538983
0003b0 6b 27 10 be 2b 90 2a 3e 73 20 33 be 9f a2 c0 bd
       -0.14077537 0.16656558 -0.17492847 -0.094060175
0003c0 0b 8e b5 bd 46 a8 6e bd c0 93 2d be f2 d3 17 3d
       -0.08864983 -0.058265947 -0.16950893 0.03706736
0003d0 80 50 01 3d 79 b6 34 3e a9 32 97 bd 83 94 83 bc
       0.03157091 0.17647733 -0.073827095 -0.016062027
0003e0 67 d8 8c 3b 4a f6 c8 3d 77 78 79 bd 24 4c c2 3d
       0.004298258 0.09812601 -0.0609059 0.09487179
0003f0 1a 5f cb bd 0c c1 a4 3b c4 fe 7b 3c 17 e1 08 3e
       -0.099302486 0.005027896 0.015380565 0.13367115

fc1.weight f4 [256, 64]
000000 90 42 40 3d 29 1c da b9 8f f7 5c 3d eb 7c a4 3d
       0.04693848 -0.0004160118 0.053947028 0.08031639
000010 1c d3 ca 3a d1 d7 d0 3d 48 9e 91 3d c5 77 09 3e
       0.0015474292 0.10197414 0.07110268 0.13424595
000020 8f 57 82 3d bf 51 02 3e 86 97 ae 3c fc 59 8f bd
       0.06364357 0.12726496 0.021312486 -0.06999585
000030 31 ca 0f bc 13 10 29 3e 31 51 69 bd 83 3d 0c 3d
       -0.0087762335 0.16510038 -0.056962196 0.03423835
000040 b7 fa 01 bd 66 fe 04 3e 6f a5 5e bd 4e 98 56 bd
       -0.03173324 0.1298767 -0.05435699 -0.052391343
000050 2c 50 f3 3d e0 8e bb 3d cd 10 fa bd 72 44 83 bc
       0.11880526 0.091581106 -0.12210236 -0.016023848
000060 26 7c ac bd 7c f4 e1 bd 63 11 d7 bd 63 e0 ac 3c
       -0.08422117 -0.1103296 -0.10501363 0.02110309
000070 96 da 1a be 19 fc 9b bd cf 1c e2 bd 22 2a aa bc
       -0.15122446 -0.07616443 -0.11040651 -0.020772044
000080 0e 27 70 3d d0 ba 93 bd d7 99 d3 3c ca cd de 3d
       0.058630995 -0.07213366 0.025830192 0.10879095
000090 4e 80 21 3d 14 00 ec bd 52 b2 9f 3d 56 b7 5f bd
       0.039429 -0.115234524 0.07797684 -0.054618202
0000a0 cc 88 dc bd fd 80 79 3b c3 a4 e2 3c 87 49 f1 3b
       -0.107682794 0.0038071268 0.027666455 0.0073635015
0000b0 32 bf 55 3d 82 e1 8b bd d8 ea eb bc 7a 86 24 3e
       0.05218429 -0.068301216 -0.028798506 0.16066924
0000c0 8f c7 7e 3d dd 64 11 3e e9 08 07 3d 69 06 e5 3d
       0.062202033 0.14198633 0.03296748 0.11182863
0000d0 ed 40 dd bd 54 a6 de 3d f5 aa e5 3d 9b 57 d4 bd
       -0.10803399 0.10871568 0.11214248 -0.10368272
0000e0 90 0e 9c bd 5a 97 9a bd 6c 5c 1a 3d d2 fb f9 bd
       -0.07619965 -0.07548399 0.037685797 -0.12206234
0000f0 8a 39 a6 3c 46 87 b6 bd cd 61 91 bd ac 73 49 3d
       0.020291109 -0.0891252 -0.07098732 0.04918258
000100 2a c8 ef 3d 69 f8 06 3e 18 d7 24 bc f5 18 3c bd
       0.117081 0.13180698 -0.010061048 -0.04592224
000110 bb cb da 3d cc a6 81 3c af 68 78 3d c1 f3 50 bc
       0.1068339 0.015826605 0.06064671 -0.012753428
000120 60 9d 14 be d8 0c ee bd 34 ed 2d 3e 33 b9 4a be
       -0.14513159 -0.116235435 0.16985017 -0.1979721
000130 39 e4 ad bd 8c 09 3d be bf 78 12 3d a0 ed e7 3d
       -0.08490796 -0.18460673 0.035759684 0.1132462
000140 34 03 25 be cd 38 7c bc 4c a7 fa 3c 7d 74 cf bd
       -0.16114503 -0.015394402 0.030597351 -0.1012964
000150 53 9a 46 3c 55 66 90 bc 26 44 8b bc 89 e7 06 bd
       0.012121755 -0.01762692 -0.01700027 -0.032935653
000160 c7 be 50 3e 38 5f 1c 3e 63 1a c0 3d 16 16 91 bd
       0.20385276 0.15270698 0.09380033 -0.07084291
000170 45 be f2 3d 8a df f3 bd ea f0 25 3d 67 d0 e0 bd
       0.11852697 -0.11907871 0.040512957 -0.109772496
000180 91 8b 55 bc d9 9b f7 3c 15 59 c1 bd b3 a5 5c be
       -0.0130337635 0.030225681 -0.09440819 -0.21547584
000190 16 dc 43 3e 20 76 59 3d 3a 6b 19 bd 79 c1 a0 bd
       0.19126925 0.05309117 -0.037455775 -0.07849402
0001a0 3f 31 2c 3e eb 25 5a bb 8f 8b 66 3a d8 9c 6d 3d
       0.16815661 -0.003328676 0.00087945996 0.058010906
0001b0 e4 cf 49 3c 79 01 29 3e e5 e6 74 3d 25 aa 81 3c
       0.012317631 0.16504468 0.05979051 0.015828202
0001c0 33 50 c3 bd ba 1f 58 bd 82 29 1b 3d b9 b8 b7 3d
       -0.09536781 -0.05276463 0.03788138 0.0897078
0001d0 92 2b e2 bd 17 11 a6 bd 1b 0f 0c be 79 21 44 bc
       -0.11043467 -0.081087284 -0.13677637 -0.011970871
0001e0 2d df 04 be 0e b6 85 bd 42 cd 15 bd 9d 00 57 3e
       -0.1297576 -0.06528865 -0.036572702 0.20996328
0001f0 55 e8 9f 3d f8 b6 17 3e 4e ae 1f be 86 25 78 3d
       0.07807986 0.14815891 -0.15593836 0.06058266
000200 53 0e ca bd f3 50 aa bd 01 89 ed bd b0 76 99 3c
       -0.098660134 -0.08316221 -0.11598397 0.018733352
000210 ed a0 2a 3d b0 d9 f8 3d 8d 8b 28 bd a2 51 cf 3d
       0.041657377 0.121508956 -0.04114871 0.10122992
000220 02 d4 66 3b 06 b5 af 3d e6 ba a1 3c 82 7e 8b bd
       0.0035221581 0.08579449 0.01974244 -0.06811239
000230 a5 df da 3d 4b 63 be 3d 51 57 bd 3d 3c fd 23 3d
       0.10687188 0.092962824 0.0924517 0.040036425
000240 2e e6 4c 3d a6 41 c1 bd da 14 7c 3d ca 7b a8 bb
       0.050024204 -0.094363496 0.061543323 -0.00514171
000250 96 ba f8 3c af d2 c5 3d b9 5f 16 bc ca 46 14 3b
       0.030362409 0.09659325 -0.0091780955 0.0022625201
000260 32 5c 81 bd 6d af bc 3d 59 7e b2 bd 0b a4 92 bd
       -0.06316413 0.09213147 -0.08715505 -0.07160195
000270 42 15 fa 3d be aa 2d bd fc 0b d4 bd 25 cf e1 bd
       0.12211086 -0.04239916 -0.10353848 -0.11025838
000280 04 88 b6 3d d0 b8 cf bd 37 c5 ca 3d f5 50 b6 3d
       0.08912662 -0.10142672 0.09900897 0.0890216
000290 23 5f dc bb 9e e2 19 3d 7d d3 94 3d 82 32 a1 3d
       -0.0067252084 0.037569635 0.07266901 0.07870962
0002a0 c2 d0 25 3d 2a 90 0b 3d 2f ff 9f 3d 86 2d f3 3d
       0.04048229 0.034073032 0.07812344 0.11873917
0002b0 fc 8b ac 3b 7a eb e1 bd 2e 78 05 bb 41 e3 23 3d
       0.005265711 -0.11031242 -0.0020365822 0.040011648
0002c0 83 81 b7 3d 78 12 85 bc 22 29 67 bd 0f c4 ce 3d
       0.08960249 -0.016244158 -0.05643571 0.10095989
0002d0 48 47 8f bd c9 02 83 bd ad 39 e2 bd 9d 66 f7 3d
       -0.06996018 -0.063970156 -0.11046157 0.12080119
0002e0 a1 29 44 3d f1 5a 80 3b 1b d1 c6 bd f6 40 10 bd
       0.047891263 0.003917091 -0.097078525 -0.0352182
0002f0 7b 65 f0 bd c6 98 80 bd d9 58 be 3b 22 28 65 bd
       -0.11738106 -0.06279139 0.0058089313 -0.055946477
000300 15 55 a9 3d c9 25 0a 3e 92 51 e7 3c c7 57 66 bd
       0.08268181 0.13490976 0.028237138 -0.056236055
000310 1c 6e 95 bd 9d 4b 89 bc e0 34 76 3d 71 6c dd bd
       -0.07296392 -0.016759688 0.06010902 -0.10811699
000320 05 c1 0a be 01 14 29 3d 70 e7 1c bb 12 be 11 be
       -0.13550194 0.041278843 -0.0023941658 -0.14232662
000330 ff de 9b bd 7d ef 68 3c 39 f5 db bd 47 52 d9 bd
       -0.076108925 0.014217255 -0.10740132 -0.10611396
000340 51 4e 15 bc 1e 83 aa bd f1 c7 09 3e 88 6d bf bc
       -0.00911291 -0.0832579 0.13455178 -0.023367658
000350 03 55 12 be 79 6e 73 3b 24 ed fe bc 71 6f 50 bc
       -0.14290242 0.0037144704 -0.031118937 -0.012721882
000360 1f 87 27 3e 05 41 85 bd e9 89 fd 3c f6 c5 c2 bd
       0.16360138 -0.06506542 0.03094955 -0.09510414
000370 7b 96 b2 3d df e4 ad bc 64 57 38 3d 70 21 c2 bd
       0.08720108 -0.021227298 0.045005217 -0.09479034
000380 5c 08 21 bd 91 b0 35 bc d6 90 67 3c 72 66 1b be
       -0.039314613 -0.01108946 0.014133653 -0.15175799
000390 f9 7f 1b bc 99 0e e6 bc 29 aa 8f 3d f3 66 0a be
       -0.00949096 -0.028083133 0.07014877 -0.13515835
0003a0 60 ef e3 3d 36 3e 26 3e 32 8b 18 ba 66 fe 0e 3d
       0.111296415 0.16234669 -0.00058190816 0.034910582
0003b0 3d c2 24 bd a8 d8 02 3e 4a fc 16 3e 61 33 df bc
       -0.040224303 0.1277796 0.14744678 -0.027246179
0003c0 c6 fa 5f 3d ff 46 51 3d 52 f2 f4 3c 42 e3 2d 3e
       0.054682516 0.051093098 0.029900704 0.16981223
0003d0 13 53 a1 bd b3 1d 89 bd 04 46 10 3d df 42 03 be
       -0.07877173 -0.06695118 0.035223022 -0.12818478
0003e0 f7 85 c3 bd c7 ba fa bd 9d 07 08 3d d1 d9 99 3c
       -0.09547036 -0.12242656 0.033210386 0.01878062
0003f0 56 0c bb 3d ae 96 ee bc a8 35 01 3d 36 4a 5f bb
       0.09133212 -0.029124584 0.03154531 -0.0034071333

fc1.bias f4 [256]
000000 45 87 14 3e 13 ea f1 bd bf a3 91 bd 09 63 ac bd
       0.14504726 -0.11812224 -0.0711131 -0.08417327
000010 a8 17 bc 3d 38 a5 67 3d ba c0 e2 3d 8e 39 35 3d
       0.091841996 0.05655405 0.11071916 0.04424434
000020 f5 16 9c 3d 20 89 1f 3d 94 75 c0 bd 70 cd 67 3d
       0.07621566 0.038949132 -0.09397426 0.056592405
000030 6d f2 09 3e 70 1f 37 bd f4 7c a3 3d c4 d8 d2 3d
       0.13471384 -0.044707716 0.07982817 0.10295251
000040 16 56 df bd 58 60 8b bc e5 67 01 3e 9d 45 54 3d
       -0.109050915 -0.017013714 0.12637289 0.0518242
000050 94 d2 1e bd 96 f1 b8 bd 75 e1 a9 3d 0c ef 2a 3d
       -0.03877504 -0.09030454 0.08294956 0.04173188
000060 59 06 07 bc 9a 80 b3 bd 36 7f c9 3d b0 4d cc bc
       -0.0082412595 -0.08764763 0.09838717 -0.024939388
000070 e5 f6 38 3d ba ba 38 3d e0 fd 51 3d be 3b c9 bd
       0.045157332 0.04509995 0.051267505 -0.09825848
000080 05 2b ce 3d b2 29 16 3d 29 be 23 3e 75 bc 08 3c
       0.10066799 0.036660857 0.15990509 0.008345713
000090 ee e5 b4 bd ba 06 fd 3d 17 9f 17 be 73 43 93 3d
       -0.08832918 0.123547986 -0.14806782 0.07190599
0000a0 e7 97 0f bd ce 1c 18 bd aa a0 17 3e d8 ce 04 3e
       -0.035056975 -0.037136845 0.14807382 0.1296953
0000b0 06 9c 9d bd 20 b4 08 3e ca c1 bb bd d3 ca 44 3d
       -0.07695775 0.13349962 -0.09167822 0.04804499
0000c0 49 d6 89 3d ce f3 dc bd 1f 20 f5 3d ae 4d a9 bd
       0.06730325 -0.107886896 0.11969017 -0.08266769
0000d0 34 0b 38 3d f5 9e cd bc 8c 37 83 3d 4f 08 be 3d
       0.04493256 -0.02510021 0.06407079 0.092789285
0000e0 44 cb b1 3d 6d 3c a7 bd e0 5d f3 bd af 15 ab 3d
       0.08681348 -0.08165822 -0.118831396 0.08353745
0000f0 54 e5 41 3d 95 61 02 be bc f3 cd bc 3f 0b ae 3d
       0.047337845 -0.12732537 -0.025140636 0.08498239
000100 9c de 8c bd a7 ac 02 3e 0a d9 84 3d 7a 61 72 3d
       -0.06878397 0.12761174 0.064867094 0.059174992
000110 70 b9 a5 3d 31 40 b6 bd a1 a7 42 3d 43 3a 99 bd
       0.0809201 -0.08898962 0.047523145 -0.07481816
000120 50 b8 e5 bd 36 4c ff bd 31 5e 81 3c 12 42 3f 3d
       -0.112167954 -0.12465708 0.015791984 0.04669387
000130 a5 75 04 bc 63 6c 83 3d f2 5f 2c 3d 37 97 00 bd
       -0.008084689 0.064171575 0.042083688 -0.03139421
000140 87 9b 2a 3d fc 15 94 bc 2b 0e 6a 3d d2 b7 25 3d
       0.04165223 -0.01807689 0.057142418 0.040458508
000150 86 64 af bd eb b0 05 be 3f d5 c6 bd b6 e0 c4 3d
       -0.08564095 -0.1305577 -0.09708642 0.09613173
000160 ca 87 96 bd 86 5a a6 bc e0 0a 04 3c ca 2d f4 bd
       -0.073501185 -0.020306837 0.008059233 -0.11922796
000170 f4 3a 78 3d cb c8 82 3d 1f 4a 37 3d 99 57 eb bd
       0.060603097 0.063859545 0.04474842 -0.11491317
000180 40 86 ee bd b4 55 77 3d 15 9e 80 3d d0 0e bf bd
       -0.116467 0.060384467 0.06280152 -0.09328997
000190 73 a5 c0 3d f7 78 f7 bc 2a cc 9a 3d b5 97 fc 3d
       0.09406557 -0.030209048 0.075584725 0.12333623
0001a0 6e b8 c4 3d e0 e5 c9 bd de e5 80 3d da 6b 4e 3d
       0.0960549 -0.09858298 0.06293844 0.050395824
0001b0 8c 82 94 bd a3 d0 91 3d 90 5a ae bd 40 a6 b8 bd
       -0.07251462 0.071198724 -0.08513367 -0.09016085
0001c0 37 4e cc 3c 91 39 7c 3d 67 53 00 3e 8d 42 82 3d
       0.02493964 0.061578337 0.12531815 0.0636035
0001d0 ec b7 8c 3d 94 ee 9d 3d 3a 79 c5 bd 35 9c 09 3e
       0.06871018 0.07711521 -0.09642263 0.13438495
0001e0 a8 e0 de 3d e3 34 0a bd 25 f8 81 3d 8f af 80 3d
       0.108826935 -0.033741843 0.06346158 0.06283485
0001f0 5a 9b 4e 3d 5f 55 38 3d 6d dc 94 3d d9 37 50 3d
       0.050441124 0.04500329 0.072686054 0.05083451
000200 44 ef 82 3d 8f 23 6a 3d 4b b8 54 3d 08 ba 23 3d
       0.063932925 0.057162818 0.051933568 0.039972335
000210 7f b2 10 3e c1 e4 ec 3c f6 90 e6 3d d4 b5 34 3d
       0.14130591 0.028917672 0.11258118 0.044118717
000220 f7 fc be 3d 13 a8 ba 3d 0c 85 69 3d 5e 3e 4c 3d
       0.09325593 0.09114089 0.05701165 0.049864165
000230 de c2 ef 3d 78 d1 5d 3d dd cc ba bd 3a c1 e0 3d
       0.1170709 0.054154843 -0.09121106 0.10974355
000240 92 c4 c0 bd 27 3c 7f bd f4 f6 b5 3d 5f db e5 3d
       -0.09412493 -0.062313225 0.08884993 0.11223482
000250 ed 81 ba 3d 05 65 53 bc f0 42 3f 3d a8 7d bd 3d
       0.091068126 -0.012902503 0.046694696 0.09252483
000260 a0 1a 24 3d 0c 2c b5 3d 4f 8c ad 3d 38 07 a9 bc
       0.040064454 0.08846292 0.08474027 -0.020633325
000270 25 76 cf bc 52 81 d1 bd 9d b2 33 3d 2d 80 a1 3d
       -0.02532489 -0.10229744 0.04387151 0.07885776
000280 81 8a b2 3d f6 4b 2e 3d 01 78 9c 3d 47 6b 90 3d
       0.08717824 0.04255291 0.076400764 0.070517115
000290 10 bc 77 bd 9f ce 38 3d c6 88 d8 3d 49 56 06 be
       -0.060482085 0.045118924 0.105729625 -0.13118853
0002a0 a1 67 72 3d 57 da 25 3e 77 a4 4c 3d 44 15 f7 bd
       0.05918086 0.16196571 0.049961533 -0.12064603
0002b0 30 57 04 be 6b d2 68 3d 47 f8 39 3d 58 0a 72 bd
       -0.12923884 0.056841295 0.04540279 -0.059091896
0002c0 ec 27 eb bd 13 8d b7 bd 2e 10 7a bd 93 30 46 bd
       -0.11482224 -0.08962455 -0.061050586 -0.048386168
0002d0 2e f2 ad bd 0c d7 85 bd 94 8e 52 3d c4 4c 01 be
       -0.08493458 -0.065351576 0.051405504 -0.1262694
0002e0 c9 f2 0d 3e 72 3b 88 bd 9f 09 8d 3d 0a 3f 56 bd
       0.13862146 -0.06651963 0.06886601 -0.052306212
0002f0 9f 6d b5 bd 45 8f cb 3d c2 cd 72 3d 8c b9 8f 3d
       -0.08858799 0.09939436 0.059278257 0.07017812
000300 d0 96 4b 3d d5 24 85 3d 0d e5 be bd 0f 33 dd bd
       0.049704373 0.06501166 -0.09321032 -0.10800754
000310 e2 89 bc bc b9 ec 60 3d f4 ba a6 3d 76 f2 c8 bd
       -0.023014966 0.054913256 0.08141127 -0.09811871
000320 7d 7e 8b 3d 3d 83 e5 bd 78 ae d1 3d f1 a2 cf 3d
       0.06811235 -0.11206672 0.102383554 0.101385005
000330 45 3b e2 3d 4a 51 76 3d 0b e1 25 3d 6f d2 fa bd
       0.11046461 0.060136117 0.04049782 -0.12247168
000340 36 fa df 3b bb 8f f8 3d 28 62 9b bc 4d 29 98 3d
       0.0068352474 0.121367894 -0.018967703 0.074297525
000350 29 d5 a1 3d 2b 0f 33 bd 88 6f 0c 3d 73 21 d5 3d
       0.07901985 -0.043715637 0.034286052 0.104067706
000360 68 c0 1d 3e 29 26 01 3e 5b c5 e8 bd 86 ca dc bd
       0.15405428 0.12612213 -0.113657676 -0.10780816
000370 ed 48 1f 3e 88 71 97 3d 22 44 cf bd 35 33 da 3d
       0.15555163 0.07394701 -0.10120417 0.10654298
000380 f4 99 30 3d 05 4c cf bc 00 1d 93 3d 56 9f 1d 3e
       0.04311557 -0.025304804 0.07183266 0.15392813
000390 51 7a 69 3d 6b 4f 18 3e 03 b7 a9 3d ca 2b 8b 3d
       0.057001416 0.14874046 0.0828686 0.067954615
0003a0 5d 0e e6 bd f8 6d bd 3d a5 b1 49 3d c1 01 59 3d
       -0.11233208 0.092494905 0.04924168 0.05298019
0003b0 70 b6 c7 bd 46 f3 30 3e a1 ca 99 3d 93 69 31 3d
       -0.09751594 0.17280301 0.075093515 0.043313574
0003c0 e9 cb 6a 3d 83 e0 fc 3c af ab f8 3d 21 5e 08 3e
       0.05732337 0.030868774 0.12142121 0.13317157
0003d0 04 cc 87 3d 0e b9 f7 bd 86 76 d2 bc d0 f4 86 3d
       0.0663071 -0.12095843 -0.025691282 0.06589663
0003e0 b7 3d 08 bd 0c 6b 91 bc 00 da 40 3d 56 23 c2 3d
       -0.03326198 -0.01775124 0.0470829 0.09479396
0003f0 6f 53 ed bd 7c f1 bc bd 6e 0e 97 bd cd 13 82 3d
       -0.11588179 -0.09225747 -0.07375799 0.06351433

fc2.weight f4 [128, 256]
000000 3a c7 96 3d d7 99 35 bc 31 cb d4 3c 5c 68 bc 3c
       0.07362218 -0.011084042 0.025975795 0.022998981
000010 d1 13 a3 3d 55 33 8b 3d 1e 8f e4 3d 02 ef 00 bd
       0.07962764 0.067969 0.1116011 -0.031477936
000020 9b 25 11 be bf 3f 27 3c 0c 80 8d bc 56 26 12 3b
       -0.14174502 0.010208069 -0.017272972 0.0022300682
000030 25 6a 8f 3d 10 ad c0 bc e0 36 6f 3d 69 70 3a 3d
       0.07002667 -0.023520023 0.058401942 0.04551736
000040 00 f3 76 bb 5d 53 80 bd 97 54 54 3d 13 1a 76 3c
       -0.003768146 -0.062659 0.051838484 0.015020865
000050 85 18 89 be 48 dd 15 3d b1 59 a2 3d 44 89 f0 bc
       -0.2677652 0.036587983 0.079272635 -0.029362328
000060 41 0c 15 bd 1c 1d 0b 3d d1 b4 61 3d 79 21 09 be
       -0.03638864 0.033963308 0.05510408 -0.13391675
000070 d6 a4 12 bb 7b ee c3 bc dc a6 82 bc 20 61 1a bc
       -0.0022376082 -0.023917427 -0.015948705 -0.0094225705
000080 6a a1 48 3c d4 36 ce bc 7c df fa 3d 66 4d 76 bd
       0.012245515 -0.025172628 0.122496575 -0.060132407
000090 d2 32 18 3d 6a d4 f2 3d 38 dd 81 bc 7a f8 d1 3c
       0.03715784 0.11856921 -0.015852556 0.025631178
0000a0 43 02 ad 3c 96 cf ac bd e6 4c 88 3d 22 39 dd 3d
       0.021119243 -0.084380314 0.06655292 0.10801913
0000b0 14 d4 16 bd ad 74 e9 3d 8e c5 a7 bd 12 f4 47 bd
       -0.036823347 0.11399207 -0.081919774 -0.048816748
0000c0 c9 49 33 3d 28 0d 2f bd b0 de e5 3d 54 6c 1f bd
       0.04377154 -0.042737156 0.11224115 -0.03892167
0000d0 9e cc 44 bb e3 8f 2a bd b0 59 70 3d 48 ba d1 3d
       -0.0030029188 -0.041641127 0.058679283 0.102406085
0000e0 6c a7 c0 3c 5f 35 50 be b8 a0 44 bc 9a b3 b5 3d
       0.023517333 -0.2033286 -0.012001209 0.08872147
0000f0 3c 90 bb 3d 53 86 93 3d e1 7b 19 bc 37 9d d4 3d
       0.0915837 0.07203355 -0.009367914 0.10381549
000100 66 f2 09 3d 6c 80 78 3d 6c f7 32 bd 92 71 43 3d
       0.033678435 0.060669348 -0.04369299 0.04771573
000110 89 00 d9 3d 64 22 68 be 15 3e fb bd 4b 78 23 bd
       0.10595805 -0.22669369 -0.122677006 -0.039909642
000120 10 90 22 be 3c d4 94 bc 6e 82 bf 3d 3b 10 ad bc
       -0.15875268 -0.018167607 0.09351049 -0.021125903
000130 46 08 9e 3c 34 15 77 3d 92 90 01 bd 19 27 11 be
       0.019291054 0.060322955 -0.031632014 -0.14175071
000140 cc de 21 3d 13 88 0c be c7 e0 ae bb dc 60 53 3b
       0.039519116 -0.13723783 -0.005336854 0.0032253778
000150 36 f4 62 3d a8 35 de 3c da c6 d8 3b 52 f4 cf 3d
       0.05540868 0.027125195 0.006615502 0.10154022
000160 20 fc 10 3b b4 0d 4c bd 7f 15 ab 3c 34 d6 67 3d
       0.0022122934 -0.049817756 0.020884274 0.056600764
000170 cf d0 8a bd 9b 4d 38 3c ea a8 ae 3d 3d 6d 2f 3d
       -0.06778108 0.011248971 0.085283116 0.042828787
000180 62 74 23 3d b6 de 0f 3c dd 52 39 3d 6e 3e 73 bd
       0.039905913 0.008781126 0.04524504 -0.05938571
000190 0a 0c d5 3d 42 d0 92 3a ad 3e 8a 3d 7f 09 c3 3d
       0.10402687 0.0011200982 0.06750236 0.095232956
0001a0 9f 4b 5e 3d 80 47 21 bc f1 78 e1 3d 3b d5 2a 3d
       0.054271337 -0.009843707 0.11009396 0.04170726
0001b0 c0 88 f7 3a b9 70 a2 3d 09 2e 2a bc c4 85 d4 bc
       0.0018885359 0.079316564 -0.010386952 -0.02594269
0001c0 05 a1 de bb 31 26 30 3c 34 74 cc 3d 79 7e cb 3d
       -0.0067940974 0.010751293 0.099831015 0.09936232
0001d0 53 2a f2 3c 1d e7 53 bd 98 4c 2c bc 8b 82 79 3d
       0.029561197 -0.05173408 -0.010516308 0.06091551
0001e0 b2 b0 ca 3c 20 e5 ef 3c 40 e0 67 3d 82 b2 4d 3d
       0.024742458 0.02928406 0.056610346 0.050219066
0001f0 aa 5a e0 bc b0 b3 0f bc 19 ff df 3d b5 34 99 3c
       -0.027386982 -0.008770868 0.10937328 0.01870189
000200 cc 42 1b 3c b4 d0 68 bc d4 1d c5 3b 4d 3a 90 3b
       0.009476375 -0.014209915 0.0060155187 0.0044014812
000210 46 ee 2f 3d e7 5e 42 3d e5 fc 04 3e c9 22 b8 bc
       0.042951845 0.047453787 0.12987097 -0.022477524
000220 b1 9c 94 3d c7 6d 72 3d c1 51 a4 3d 0d 6d 3f 3d
       0.07256449 0.059186723 0.08023406 0.04673486
000230 fe 5e 9e 3d b5 a2 a3 3b c1 95 e1 3d eb 23 10 3e
       0.07732962 0.0049937614 0.110148914 0.14076202
000240 e8 2b a6 bc d2 6d 35 3d 78 17 41 3d db d2 0d 3d
       -0.020284608 0.044294186 0.047141522 0.034624916
000250 58 7c 3e 3c 97 ca 8e 3d c0 b3 17 bc 27 9e 36 3d
       0.011626326 0.06972235 -0.009259164 0.04458442
000260 a7 bf 95 3d 4c 8a 36 3b aa a4 30 3d 4c 91 a9 bc
       0.073119454 0.0027853427 0.043125786 -0.020699166
000270 05 f1 bb bd b0 19 b5 3c 2a ab a4 3d 89 65 7a 3d
       -0.0917683 0.022106975 0.080404595 0.061131988
000280 1d 0a e9 3d 5f b4 12 3d 6a bf a0 3d 59 8f 65 3d
       0.11378882 0.035816547 0.07849009 0.05604491
000290 2c aa 59 3d 89 b3 de bc 59 2d 83 3c 88 af 14 bc
       0.053140804 -0.027185218 0.016012834 -0.009075053
0002a0 71 d7 d9 3d 11 27 db 3d d2 19 64 bd c4 2e 61 be
       0.10636795 0.10700811 -0.055688687 -0.21990496
0002b0 1c d6 86 bc d3 5a 03 3c 78 b3 58 bc e6 d0 52 bd
       -0.016459517 0.00801726 -0.013226382 -0.051468752
0002c0 f4 38 20 be 90 94 aa bc 0a 04 6a bd a6 9f 52 3d
       -0.15646726 -0.020822793 -0.05713276 0.051421784
0002d0 5c 5e bc bc 59 2a 9b bc a8 b4 7c 3d 84 8b 19 bd
       -0.022994213 -0.018941091 0.061695725 -0.037486568
0002e0 7d f8 e9 3d d0 12 e5 bc 68 33 eb 39 38 28 71 bd
       0.114243485 -0.027963072 0.00044860994 -0.058876246
0002f0 db 94 3f be 7a d6 9f 3c 2f 09 60 3d 30 d6 2b 3d
       -0.18709128 0.01951145 0.05469626 0.041952312
000300 fe ed 47 bd 13 2d cf 3d 46 08 c0 3b 8e 09 2c be
       -0.04881095 0.10116019 0.0058603613 -0.1680052
000310 85 47 a3 bd 4c ae 06 bd 00 ba 66 3d de a3 f1 3c
       -0.07972626 -0.032881066 0.056329727 0.029497083
000320 fe 0c 01 3e 65 69 89 be 9e 44 c8 3d 03 d2 c4 3c
       0.12602612 -0.26838222 0.09778713 0.024025923
000330 23 0e b0 3d 48 b4 f5 3d 62 84 f6 3d d4 c7 a5 bc
       0.08596446 0.119972765 0.12036969 -0.020236887
000340 25 67 1e bd 45 e3 b1 3d f2 04 06 bd 24 5a db 3c
       -0.038672585 0.08685926 -0.03271956 0.02677638
000350 73 c5 1e 3d e3 e0 46 be 7d 85 10 bd d2 fa 1b 3d
       0.03876252 -0.19421725 -0.035283554 0.038080998
000360 25 68 ad 3d 5a ce 2f 3d b0 f4 be 3b 24 8f 18 3d
       0.084671296 0.0429214 0.005827509 0.037245885
000370 37 d9 22 3d 47 0c af 3d c6 63 a3 bd b4 a9 ae 3d
       0.039757933 0.085472636 -0.07978015 0.08528462
000380 55 39 ac 3d b1 10 2b bd be 7d b9 3c ea c8 e2 3d
       0.08409373 -0.041763965 0.022642966 0.110734776
000390 05 8f 61 bc 14 6a e4 3d 02 2c d4 3c b8 38 3a 3c
       -0.013767009 0.11153045 0.02589989 0.011366062
0003a0 e9 b8 2b be d7 7e 2e 3d 84 1a 65 3d 9a 0c 80 3d
       -0.16769756 0.042601433 0.05593349 0.062524036
0003b0 dc 33 de bc 1c fb dc 3d 0b c3 9f 3c de 17 ec bb
       -0.027124338 0.10790083 0.019502183 -0.0072049936
0003c0 03 f1 9d 3d ae 7e 2a 3d 32 f0 fb 3d 40 fe a0 3d
       0.07711985 0.041624717 0.12301673 0.07860994
0003d0 a5 cb ca 3d e2 c0 17 3d a9 fc 5a bd 2c 8b f0 bc
       0.09902123 0.03704918 -0.05346361 -0.029363237
0003e0 ee dc 69 bd 7a 03 da bd 8c 03 67 3d 83 19 c9 3d
       -0.05709546 -0.10645194 0.056399867 0.09819319
0003f0 f6 90 a7 3d 44 0f 2c 3d 7a c8 b3 3d f5 02 90 3d
       0.08181946 0.042006746 0.08778472 0.07031814
