data/predictor/PT/201_SiameseNetwork_2024-05-16_10-07-28.pt (torch, 303923 bytes, 12 tensors)

conv1.bias f4 [64]
0	0xbd309559	-0.04311118
1	0xbd731ac3	-0.059351694
2	0xbc9876e6	-0.018611383
3	0xbdd8d22d	-0.10586963
4	0x3d85519b	0.06509706
5	0xbd26831d	-0.040652383
6	0x00000000	0.0
7	0x00000000	0.0
8	0x3cfe90d2	0.031074915
9	0x3caf0629	0.021365242
10	0x00000000	0.0
11	0x3c948cec	0.018133603
12	0xbc280d87	-0.010257131
13	0xbd3cd061	-0.046097163
14	0x3d6ce6a8	0.05783716
15	0xbd1e1216	-0.038591467
16	0x3cb1231d	0.021623189
17	0xbdd1f2b6	-0.102513716
18	0x3c9ec697	0.019381804
19	0xbd2a6d29	-0.04160801
20	0xbe202c0c	-0.15641803
21	0xbd6c1bda	-0.05764375
22	0x3d628ce8	0.05531016
23	0x3cf81eea	0.030288178
24	0x3dd3e674	0.1034669
25	0xbca49557	-0.020090742
26	0x3d4368ac	0.047707245
27	0x3c9b73bd	0.018976087
28	0xbcc2c094	-0.023773469
29	0xbdfc3835	-0.12315408
30	0x3dde8b63	0.1086643
31	0xbdfcd704	-0.123456985
32	0x3ca04ff7	0.01956938
33	0xbd23cca5	-0.039990086
34	0xbdf74151	-0.12073005
35	0xbcbb6e0a	-0.02287962
36	0xbd5c2fe7	-0.05375662
37	0x00000000	0.0
38	0xbd475b17	-0.048670854
39	0x3dc6e4ee	0.097116336
40	0xbbdf5b48	-0.0068163015
41	0xbd6eead0	-0.058329403
42	0xbd1d46cb	-0.03839759
43	0x3d2edaa1	0.04268897
44	0xbe02ea9f	-0.12784813
45	0xbdc644a2	-0.096810594
46	0xbcaa8d03	-0.020819193
47	0xbe03be39	-0.12865533
48	0x00000000	0.0
49	0x00000000	0.0
50	0xbda115c8	-0.078654826
51	0x3cee671a	0.029101897
52	0xbc327896	-0.010893008
53	0xbd015f2f	-0.031584915
54	0x3c37cba2	0.011217983
55	0x3d65095e	0.055917136
56	0x3d0ed294	0.03486879
57	0x00000000	0.0
58	0xbd8982ac	-0.06714377
59	0x3db8a943	0.09016659
60	0xbe16ab6a	-0.14713827
61	0x3b1a89b5	0.0023580615
62	0xbd22e65f	-0.03977048
63	0x3d762f3a	0.060103633

conv1.lin.weight f4 [64, 4]
0	0xbf26752a	-0.6502253
1	0x3e6c3ea4	0.2307077
2	0x3e74e053	0.23913698
3	0x3d8f7ef3	0.070066355
4	0xbea815f2	-0.32829243
5	0x3e4009e9	0.1875378
6	0x3e6766ed	0.22597857
7	0x3dfd4cac	0.123681396
8	0xbe5c0887	-0.21487628
9	0xbe8e8d45	-0.27842155
10	0xbd061040	-0.03273034
11	0x3e803ae8	0.25044942
12	0xbe58ca8d	-0.21171017
13	0x3d9d00cd	0.07666168
14	0x3e940e4e	0.28917164
15	0xbfb9dcbe	-1.452049
16	0xbe74ac00	-0.23893738
17	0x3e6f4ffc	0.23370355
18	0xbe8d228d	-0.27565423
19	0x3e5be7cf	0.21475147
20	0x3e808762	0.2510329
21	0x3e16659c	0.14687198
22	0xbe6be7be	-0.23037621
23	0xbe001c5d	-0.1251082
24	0xbe26fc2c	-0.16307133
25	0xbe0bb90b	-0.13644807
26	0xbe06842b	-0.13136356
27	0xbe446b50	-0.19181561
28	0xbe93abb0	-0.28841925
29	0xbe91bb30	-0.28463125
30	0xbe91b340	-0.2845707
31	0xbe6edbb5	-0.23325999
32	0x3e0ebe4a	0.13939777
33	0xbd9bb670	-0.076031566
34	0xbd8a312f	-0.06747662
35	0xbd9bbbd6	-0.07604186
36	0x3dd860d4	0.105653435
37	0x3ec2226b	0.37916884
38	0xbf6fda55	-0.93692523
39	0xbdfa2624	-0.12214306
40	0xbe653cf6	-0.22386536
41	0xbe32ec16	-0.17472872
42	0xbe8e8b86	-0.27840823
43	0xbdd8c9fe	-0.10585402
44	0xbd20b2cf	-0.039233025
45	0x3e9577ee	0.29193062
46	0xbedada05	-0.4274446
47	0x3e958d17	0.29209206
48	0xbee75139	-0.45179155
49	0xbe57e76e	-0.21084377
50	0x3ac1506e	0.0014748701
51	0x3eaeb6dd	0.3412389
52	0x3e5b76d4	0.21432048
53	0x3e5d449a	0.216082
54	0xbe6e5431	-0.23274304
55	0xbd636c04	-0.055522934
56	0x3ea1a89f	0.3157396
57	0xbe2b55bb	-0.16731922
58	0xbe183060	-0.14862204
59	0xbdcdd174	-0.10049716
60	0xbe291c53	-0.16514711
61	0xbe30095d	-0.17191072
62	0x3ea34250	0.3188653
63	0xbf01c78a	-0.506951
64	0xbe5edc32	-0.21763685
65	0x3eb63ff2	0.3559566
66	0xbda4caba	-0.080464795
67	0xbe469fb0	-0.19396853
68	0xbe89ff32	-0.2695251
69	0x3f2817de	0.6566142
70	0xbe31a952	-0.17349747
71	0x3e91e97b	0.28498444
72	0x3ebb519f	0.3658571
73	0x3d7e3ed5	0.06207164
74	0xbddcf7e7	-0.10789471
75	0x3ec774f3	0.38956413
76	0x3e95748b	0.29190478
77	0x3d73fbe9	0.059566412
78	0x396e45bc	0.00022723427
79	0xbddbe154	-0.10736337
80	0x39b8c4e5	0.00035241913
81	0xbdd645b0	-0.104625106
82	0x3e7b812c	0.24560994
83	0x3da0025f	0.07812952
84	0xbd2f8c29	-0.042858277
85	0xbeaa4f66	-0.332637
86	0x3e4597ad	0.19296141
87	0xbf9ae453	-1.2100929
88	0xbeba1628	-0.3634503
89	0xbeb5d527	-0.35514185
90	0x3db4b93f	0.088243954
91	0x3e8efd92	0.27927834
92	0xbda1a322	-0.07892443
93	0xbd4e4915	-0.050362665
94	0xbe968c8f	-0.29404113
95	0x3e0a8d8d	0.1353056
96	0x3d77036a	0.06030599
97	0x3e2cb217	0.16864811
98	0xbe61e08b	-0.22058313
99	0x3ede5901	0.4342728
100	0xbe361c04	-0.17784125
101	0xbde7f3ac	-0.113257736
102	0xbca95cec	-0.020674191
103	0x3bb3f266	0.0054915426
104	0x3e0533d8	0.13008058
105	0x3e093120	0.13397646
106	0xbe9b2645	-0.30302635
107	0xbe50dff8	-0.20397937
108	0x3ea41294	0.32045424
109	0x3c9dbc09	0.019254701
110	0x3dfdecf3	0.1239871
111	0x3e951122	0.29114634
112	0x3d2bc797	0.04193839
113	0xbe3eb6f2	-0.18624476
114	0x3e100947	0.14066039
115	0x3e2db096	0.16961893
116	0x3dd140a0	0.10217404
117	0x3e066c8d	0.13127346
118	0x3dfc8857	0.12330692
119	0x3e0ff82f	0.14059518
120	0x3eb81d40	0.35959816
121	0xbe57472f	-0.21023248
122	0xbe5b9663	-0.21444087
123	0x3e75cf93	0.24004965
124	0x3e222a39	0.15836419
125	0x3deedd0a	0.116632536
126	0x3dca8d08	0.09890181
127	0x3e608b75	0.21928199
128	0xbf1736ec	-0.5906818
129	0x3e31ced4	0.17364055
130	0x3e28de01	0.16490938
131	0xbf386af5	-0.72038203
132	0xbec134b4	-0.37735522
133	0x3e303c8a	0.17210594
134	0x3e1c0620	0.15236712
135	0xbf00bab1	-0.5028487
136	0xbdc5d0c1	-0.09658957
137	0x3e58d917	0.21176563
138	0x3e79c50d	0.24391575
139	0xbf8a055c	-1.0782886
140	0x3c4f00c5	0.012634461
141	0x3d17db91	0.03707463
142	0xbd262f83	-0.040572654
143	0xbe92abb6	-0.2864663
144	0x3e07eb2d	0.13273306
145	0x3daa2ff9	0.08309931
146	0x3ead5af9	0.3385847
147	0x3e691cc4	0.2276488
148	0xbdbe70ac	-0.09298834
149	0xbd3184c8	-0.04333952
150	0xbc8492a0	-0.016183197
151	0xbd853366	-0.06503944
152	0x3e2614d0	0.16218877
153	0x3e92c5c0	0.28666496
154	0x3e61a0c3	0.22033982
155	0xbe8badc5	-0.27281013
156	0x3e152e29	0.1456839
157	0xbe716f33	-0.23577575
158	0xbe6dc3ae	-0.23219177
159	0x3ea15146	0.3150732
160	0x3ebdd3f3	0.37075767
161	0x3dae329d	0.085057475
162	0xbda73608	-0.081646025
163	0x3e8a14be	0.2696895
164	0xbe7ae4f8	-0.24501407
165	0x3e4b01f7	0.19824968
166	0xbea2eb19	-0.3181999
167	0x3d662666	0.056188963
168	0xbe31ad2d	-0.17351218
169	0x3db7ad0b	0.08968552
170	0xbdbfc26c	-0.09363255
171	0x3d19b59f	0.037526723
172	0x3e974294	0.29542983
173	0x3d264e35	0.040601928
174	0xbea6d693	-0.32585582
175	0xbd972253	-0.07379594
176	0x3d2bdbc4	0.04195763
177	0x3c1d506b	0.009601693
178	0x3e50e521	0.20399906
179	0x3dd9c650	0.10633528
180	0x3d8ca429	0.068672486
181	0x3e03743f	0.12837313
182	0x3e4b3d46	0.19847593
183	0x3e4435f0	0.191612
184	0xbd9abb1a	-0.07555218
185	0x3d666195	0.056245405
186	0xbe4b11f4	-0.19831067
187	0x3e42240e	0.18959066
188	0xbe8e0aad	-0.2774252
189	0xbe99cc96	-0.300389
190	0x3ebd67bc	0.36993206
191	0xbfcc550e	-1.5963457
192	0xbe93c1a2	-0.28858668
193	0xbc8e2750	-0.01735273
194	0xbdacb5b4	-0.084330946
195	0xbb27b400	-0.0025589466
196	0xbe91b17f	-0.2845573
197	0xbe21861f	-0.1577382
198	0xbe076063	-0.13220362
199	0xbe10fa99	-0.14158095
200	0x3dc20909	0.094743796
201	0x3dbee2a3	0.09320571
202	0x3db8ead3	0.09029164
203	0x3d8fe1b7	0.070254736
204	0xbe728765	-0.23684461
205	0x3e74ba47	0.23899184
206	0x3e7952c2	0.24347976
207	0x3e1ea56d	0.15492792
208	0x3dbd47e4	0.09242228
209	0x3eab1a84	0.33418667
210	0x3e3f8888	0.18704426
211	0x3e329607	0.17440043
212	0xbf06fb6c	-0.5272739
213	0x3e75043c	0.23927397
214	0x3e96c438	0.29446578
215	0x3db3c84b	0.08778437
216	0x3ec2ea32	0.38069302
217	0x3a84fe4f	0.0010146591
218	0xbb83cfe3	-0.0040225848
219	0xbd2a664d	-0.041601468
220	0x3ea9d43b	0.33169731
221	0xbf60ba9c	-0.87784743
222	0xbc8bcb60	-0.01706475
223	0xbdf5100d	-0.11965952
224	0x3e9e7406	0.30947894
225	0x3e53099b	0.20609133
226	0xbdb81404	-0.08988193
227	0x3e92eac2	0.2869473
228	0xbe484e2b	-0.19561069
229	0xbd00c490	-0.031437457
230	0xbe52c863	-0.20584254
231	0xbe254898	-0.16140974
232	0xbec0ed4b	-0.3768104
233	0x3e3e6521	0.18593265
234	0x3e371206	0.17877969
235	0xbee211db	-0.44154248
236	0x3e2c1de7	0.16808282
237	0xbd377c3c	-0.044796214
238	0xbe89b18f	-0.2689328
239	0xbe18afcf	-0.14910816
240	0xbee485a7	-0.4463322
241	0x3e9c5281	0.30531695
242	0x3edcda83	0.4313546
243	0xbff09822	-1.8796427
244	0xbf03de7d	-0.51511365
245	0xbdea15aa	-0.11429913
246	0x3c228cb6	0.009921243
247	0x3ec47e46	0.3837759
248	0x3e67ff87	0.2265607
249	0x3e543ab1	0.20725514
250	0x3c34dab2	0.011038469
251	0xbe0148a5	-0.12625368
252	0x3eae27c2	0.34014708
253	0xbd484910	-0.048897803
254	0xbdfd3972	-0.123644724
255	0x3d82213c	0.06353995

conv2.bias f4 [64]
0	0xbe0da819	-0.13833655
1	0xbd601fb3	-0.05471773
2	0x3d4196e6	0.04726305
3	0xbdbb10c6	-0.09134059
4	0xbd6cc174	-0.05780168
5	0xbdcbc5cb	-0.099498354
6	0xbd4b6864	-0.0496601
7	0xbd1c69ba	-0.038186766
8	0xbc259ff1	-0.010108934
9	0x3da751cc	0.081698984
10	0xbdcb5f05	-0.09930233
11	0xbdcd1f2c	-0.10015711
12	0xbd3b2167	-0.04568615
13	0xbd48ba96	-0.049006067
14	0xbd63002c	-0.055420086
15	0xbdd0bc70	-0.101921916
16	0x3c2f3019	0.01069262
17	0xbc3b22d0	-0.011421874
18	0x00000000	0.0
19	0xbde5abdf	-0.112144224
20	0x3d1523b9	0.03641102
21	0xbc1e7934	-0.009672452
22	0xbd825c35	-0.06365243
23	0xbc281017	-0.010257742
24	0xbe883005	-0.26599136
25	0x3d184aee	0.037180834
26	0xbd3a1be8	-0.04543677
27	0xbc8cc078	-0.01718162
28	0xbdca1f71	-0.09869278
29	0xbd789340	-0.060687304
30	0x3ca232a4	0.019799538
31	0x3d439273	0.047747087
32	0xbc2533d1	-0.010083155
33	0x00000000	0.0
34	0xbe5d116e	-0.2158868
35	0xbc4288f2	-0.011873471
36	0xbd0512e4	-0.03248872
37	0xbddeecdd	-0.10885022
38	0x3bf6c1e1	0.0075304364
39	0x3b51edaf	0.003203254
40	0x3ccf0bfd	0.025274271
41	0xbcebd9ba	-0.028790344
42	0xbd6c34a6	-0.057667397
43	0x3cdcb5a5	0.026942084
44	0xbbfadd16	-0.00765575
45	0xbcb3e22b	-0.021958431
46	0xbd76c961	-0.060250644
47	0xbb880e2a	-0.004152079
48	0xbcfec803	-0.031101232
49	0x3bb56600	0.005535841
50	0xbe2041e6	-0.15650138
51	0x3d962804	0.07331851
52	0xbce7c6af	-0.028292982
53	0xbdc16c58	-0.09444493
54	0xbd021b84	-0.031764522
55	0xbdfad789	-0.12248141
56	0x00000000	0.0
57	0x3b9ac56b	0.004723241
58	0xbbef1377	-0.0072960216
59	0x3e150cdd	0.14555688
60	0x3d3e3bc2	0.04644371
61	0xbcce03db	-0.025148323
62	0xbcbe041e	-0.023195323
63	0xbdfbe04e	-0.12298642

conv2.lin.weight f4 [64, 64]
0	0x3e84d948	0.25947022
1	0x3e02959e	0.12752387
2	0xbd8c01d8	-0.06836289
3	0xbcf251ab	-0.029579958
4	0x3dbdf104	0.09274486
5	0xbd1fef26	-0.03904643
6	0xbe142f04	-0.1447106
7	0x3df58a82	0.11989309
8	0xbf14afb0	-0.5808058
9	0x3e23f4e7	0.16011392
10	0x3cab6738	0.020923242
11	0xbe1de5f0	-0.15419745
12	0xbee1c010	-0.44091845
13	0xbe830543	-0.25589952
14	0xbdcb0e05	-0.099147834
15	0x3d8a03d5	0.06739012
16	0xbe9d96a3	-0.3077899
17	0xbdccda0c	-0.10002527
18	0xbe8dc4b7	-0.27689144
19	0xbef68bab	-0.48153433
20	0xbc015b30	-0.007895276
21	0x3e8bc41e	0.27298063
22	0x3e892c35	0.2679154
23	0xbe550850	-0.20803952
24	0xbeb66bc5	-0.35629097
25	0x3de13f0a	0.10998352
26	0xbebe77be	-0.3720073
27	0xbce00ddb	-0.027350357
28	0x3d93bd30	0.07213819
29	0xba665d81	-0.0008787737
30	0xbebcf3f4	-0.3690487
31	0xbcb218f4	-0.021740414
32	0x3deeb8ef	0.11656367
33	0xbd47b398	-0.04875526
34	0x3e48a3cd	0.19593735
35	0x3e32d590	0.1746428
36	0x3e33ad8d	0.17546673
37	0x3ddbddbe	0.10735653
38	0xbd8ba896	-0.068192646
39	0xbebb86ab	-0.3662618
40	0xbe37089c	-0.17874378
41	0x3e1136bd	0.14181037
42	0xbdc21df3	-0.094783686
43	0xbdb055e7	-0.086101346
44	0x3de072b5	0.10959379
45	0x3df8cb0a	0.12148102
46	0x3d0db86f	0.034599718
47	0x3ea14aca	0.31502372
48	0xbd4a1dcc	-0.049344823
49	0x3e2a9ecb	0.16662137
50	0x3d575cde	0.0525788
51	0xbc9c6ac7	-0.019093884
52	0xbe59c4dc	-0.21266502
53	0x3e0f2fcd	0.13983078
54	0xbedfb654	-0.43693793
55	0x3cfe9944	0.031078942
56	0xbeab89ca	-0.33503562
57	0xbca1f3e0	-0.019769609
58	0xbd90a7b4	-0.07063237
59	0xbe074e27	-0.13213407
60	0x3e945f63	0.28979024
61	0xbe99d3fe	-0.3004455
62	0xbf4cff27	-0.8007683
63	0xbf7e4b7a	-0.9933392
64	0x3e1d395a	0.15353909
65	0x3e1a5a9f	0.15073632
66	0x3c227dd4	0.009917695
67	0xbe0b5561	-0.13606788
68	0xbdecf729	-0.115705796
69	0x3c3a230b	0.011360894
70	0x3e207559	0.15669765
71	0x3db896ba	0.09013124
72	0x3c6ef8e8	0.014585711
73	0xbd4d748c	-0.050159976
74	0x3df0d932	0.11760177
75	0x3d613941	0.054986242
76	0xbe179bc7	-0.14805518
77	0x3cd40651	0.025881918
78	0xbda81b17	-0.08208292
79	0x3e19c280	0.15015602
80	0xbd86e8eb	-0.06587394
81	0x3cc71482	0.024301771
82	0xbcc12b5b	-0.023580244
83	0xbe477075	-0.19476493
84	0x3d49b13a	0.049241282
85	0xbdaa3456	-0.083107635
86	0x3e8dd3f2	0.27700764
87	0x3d86b30a	0.06577118
88	0xbde47534	-0.11155167
89	0x3d913506	0.070901915
90	0x3e6e16be	0.23250863
91	0xbdb23679	-0.08701796
92	0xbd2f6cb1	-0.042828266
93	0x3c6d00b0	0.014465496
94	0x3d272c0a	0.040813483
95	0x3e2a0d74	0.16606694
96	0x3d846b1f	0.06465744
97	0xbc8b3e6b	-0.016997537
98	0x3e5f82df	0.21827267
99	0xbde5c95a	-0.112200454
100	0xbe435d26	-0.19078502
101	0xbd780b40	-0.060557604
102	0xbd152f2a	-0.036421932
103	0xbda4a41e	-0.08039115
104	0xbd31f19d	-0.04344331
105	0xbe7dfa26	-0.24802455
106	0xbbb1f021	-0.005430237
107	0x3d08a5e1	0.03336132
108	0xbe4bad73	-0.19890384
109	0x3d47d1a9	0.048783932
110	0x3d95f727	0.07322531
111	0xbd5c05bc	-0.053716406
112	0xbcd9cd68	-0.026587203
113	0xbdce919f	-0.10086369
114	0xbe609e4f	-0.2193539
115	0x3db14e88	0.08657557
116	0xbdbc8407	-0.0920487
117	0xbe3ab244	-0.18232065
118	0xbcfa10cd	-0.03052559
119	0xbe25b519	-0.16182365
120	0x3de08a07	0.109638266
121	0xbe4fe4c0	-0.20302105
122	0x3e28da71	0.16489579
123	0xbe21859e	-0.15773627
124	0xbd6285a3	-0.055303227
125	0xbd527070	-0.05137676
126	0x3e3cec12	0.18449429
127	0x3d7d2d13	0.061810564
128	0xbf0982d2	-0.5371524
129	0x3d1a4589	0.03766397
130	0xbef0687d	-0.46954718
131	0xbe495284	-0.19660383
132	0xbdbc5bdf	-0.091972105
133	0xbf12e4c2	-0.57380307
134	0xbdd0e102	-0.10199167
135	0x3dad9f42	0.08477642
136	0x3e21521a	0.15753976
137	0x3f2dd58e	0.67903984
138	0x3e34b8ff	0.17648695
139	0x3e1a5f53	0.15075426
140	0xbe9898dd	-0.29804125
141	0xbefe876c	-0.49712694
142	0xbe59e1f2	-0.21277598
143	0x3c780bac	0.015139502
144	0x3e689e3e	0.22716615
145	0x3f1672b6	0.58768785
146	0xbdd2008c	-0.102540106
147	0xbcdbcdda	-0.026831556
148	0xbe4948e1	-0.19656707
149	0xbd9cdb30	-0.07658994
150	0xbebf39a3	-0.3734866
151	0xbd20642d	-0.039158035
152	0xbe07be97	-0.13256298
153	0x3e3e67c3	0.1859427
154	0xbe91e8d0	-0.28497934
155	0x3dcbf6dd	0.09959195
156	0xbd7ccc66	-0.061718367
157	0x3e3c0b56	0.183637
158	0xbec2c8c2	-0.3804379
159	0x3dc83f0c	0.0977765
160	0xbf245379	-0.6418987
161	0xbea9ef05	-0.3319017
162	0x3c0ee990	0.008722678
163	0xbcc4247c	-0.023943178
164	0x3d5cf72f	0.05394667
165	0x3de6700e	0.112518415
166	0x3e8460f2	0.25855213
167	0xbf708d5d	-0.93965703
168	0xbd9aecaa	-0.07564671
169	0x3d545e82	0.051847942
170	0xbcd6f8da	-0.026241709
171	0xbe62bd6a	-0.22142568
172	0xbddf8d2b	-0.109155975
173	0xbd2b2493	-0.041782927
174	0x3e1caf6b	0.15301292
175	0xbec42576	-0.3830983
176	0xbd785e04	-0.060636535
177	0x3e54dfa7	0.20788442
178	0x3e237b3f	0.15964983
179	0x3e91eea8	0.28502393
180	0x3e29dfa7	0.16589223
181	0xbcdd0ba8	-0.026983097
182	0x3dd8e1da	0.10589953
183	0xbd5fb32b	-0.054614227
184	0x3e513c21	0.20433094
185	0xbe03eaf4	-0.12882596
186	0xbf166cd5	-0.58759815
187	0xbec78e2f	-0.38975665
188	0xbe5adc5d	-0.21373124
189	0xbd93a862	-0.07209851
190	0x3e0e5164	0.13898236
191	0x3de8fc4b	0.11376246
192	0x3e75bddc	0.23998207
193	0x3d41efdc	0.04734789
194	0xbd5dfa99	-0.054194067
195	0x3e176d39	0.14787759
196	0xbe11cbf1	-0.14237954
197	0x3dc6bd8f	0.09704124
198	0xbd8ca440	-0.06867266
199	0x3c0e9350	0.008702114
200	0xbcbcf329	-0.023065167
201	0x3d86518b	0.06558522
202	0xbdf686fe	-0.120374665
203	0xbe914e0c	-0.28379858
204	0x3ba63e61	0.005073354
205	0x3cf89439	0.030344116
206	0xbe1adb2e	-0.15122673
207	0x3e6f45f9	0.23366536
208	0xbe6e4a39	-0.23270501
209	0xbdd8cc45	-0.10585836
210	0xbd24347c	-0.040089116
211	0x3dd2c785	0.102919616
212	0x3d42f362	0.04759539
213	0x3dd6490c	0.10463151
214	0xbed78d3e	-0.42099947
215	0x3c91a965	0.017780969
216	0x3e175d45	0.14781673
217	0xbe13d121	-0.14435245
218	0xbcf2e8f8	-0.029652104
219	0x3d0df31e	0.034655683
220	0xbd3e9131	-0.046525184
221	0x3e8323de	0.25613302
222	0xbc647f33	-0.013946342
223	0x3e0b7040	0.13617039
224	0x3e5b6c6c	0.21428078
225	0x3ea0f671	0.3143802
226	0x3e4b631f	0.1986203
227	0xbcf0539d	-0.029336745
228	0x3e59697b	0.21231644
229	0xbe189c02	-0.14903262
230	0xbd13f638	-0.036123484
231	0x3d17dde4	0.037076846
232	0xbe40dd57	-0.18834434
233	0xbe58f913	-0.21188764
234	0x3e344cd3	0.17607431
235	0xbd552899	-0.05204067
236	0xbc24ed1d	-0.010066298
237	0x3e079605	0.13240822
238	0x3e1034a0	0.14082575
239	0x3d9433df	0.07236456
240	0x3e0fad43	0.14030938
241	0x3e4b2d13	0.19841413
242	0x3d091b26	0.033473156
243	0xbd0a71cb	-0.033799928
244	0x3e1513ae	0.14558288
245	0xbe57efb4	-0.21087533
246	0x3de762d9	0.112981506
247	0xbe31cff8	-0.1736449
248	0x3d75619a	0.059907533
249	0xbe4d13fd	-0.20027156
250	0x3d647d34	0.055783466
251	0x3e37dd81	0.17955591
252	0xbe1aa097	-0.15100323
253	0xbdc6807e	-0.09692477
254	0xbe2257d7	-0.1585382
255	0xbc32eac2	-0.010920228

conv3.bias f4 [64]
0	0xbe53c4e6	-0.2068058
1	0xbdbcf032	-0.09225501
2	0x3e70da6b	0.2352082
3	0xbd03111a	-0.03199873
4	0xbe38f5e4	-0.1806255
5	0xbe2d2b7d	-0.1691112
6	0x3d2ea5ec	0.042638704
7	0xbedd5a84	-0.4323312
8	0x3ec3501f	0.38147065
9	0xbeca9a2a	-0.39570743
10	0x3ee12553	0.4397379
11	0xbee5b424	-0.44864
12	0xbe078654	-0.13234836
13	0xbe9bec9a	-0.3045395
14	0x3e014fee	0.12628147
15	0xbedb9bd7	-0.42892334
16	0xbd95e2f4	-0.073186785
17	0xbe17b7db	-0.14816229
18	0x3e728d71	0.23686768
19	0x3e7df6fc	0.24801248
20	0x3ea0b362	0.31386858
21	0x3d8a0ea9	0.067410775
22	0xbeb1228d	-0.34596673
23	0xbe4e73c6	-0.20161352
24	0x3d2ba76c	0.041907713
25	0x3c122bc0	0.008921564
26	0xbe3e98a5	-0.18612917
27	0x3bce2913	0.0062915175
28	0x3dac586e	0.08415304
29	0xbe3c52da	-0.1839098
30	0xbd78b41e	-0.060718648
31	0x3e38822e	0.1801841
32	0xbdd5bc7c	-0.10436341
33	0x3e58e406	0.21180734
34	0x3e3423ce	0.17591783
35	0xbe8a8a52	-0.27058655
36	0x381acb42	3.690576e-05
37	0xbdc9d484	-0.09854987
38	0x3e356290	0.1771338
39	0xbdf59e8b	-0.1199313
40	0xbd31afca	-0.043380536
41	0x3e8c3147	0.27381346
42	0x3e10cc85	0.14140518
43	0xbbbebe41	-0.00582102
44	0x3e828015	0.25488344
45	0xbe7996b2	-0.24373892
46	0xbd148608	-0.036260635
47	0x3e66d04d	0.22540398
48	0x3cac5a0f	0.021039037
49	0xbcead057	-0.028663797
50	0xbe429976	-0.19003853
51	0xbdabc1d7	-0.083865814
52	0x3d24f99c	0.04027711
53	0xbe25666f	-0.16152357
54	0xbe39adaa	-0.18132654
55	0x3da2903a	0.07937665
56	0x3d650f98	0.055923074
57	0x3e03529e	0.12824485
58	0x3da5580d	0.08073435
59	0xbda66e8c	-0.08126554
60	0x3c87541f	0.016519604
61	0x3ed75471	0.4205661
62	0x3df19686	0.11796288
63	0xbde6e786	-0.11274628

conv3.lin.weight f4 [64, 64]
0	0xbd11c95c	-0.035592422
1	0xbe09569b	-0.13411944
2	0xbdf5cb21	-0.120016344
3	0xbc9fe51a	-0.019518424
4	0xbe13703c	-0.14398283
5	0xbd65d54c	-0.05611162
6	0xbded4425	-0.11585263
7	0xbe074a20	-0.1321187
8	0xbe2ec325	-0.17066629
9	0x3e98a74e	0.29815143
10	0x3d0ca9c0	0.034341574
11	0xbe9685e0	-0.29399014
12	0xbdd29c75	-0.10283748
13	0xbee30f93	-0.4434782
14	0xbd624539	-0.055241797
15	0xbe23da01	-0.1600113
16	0xbdd1343c	-0.10215041
17	0x3c8b9130	0.017037004
18	0xbd83e592	-0.064402714
19	0x3e5da5da	0.21645299
20	0x3e7fba9d	0.24973531
21	0x3dc219b7	0.09477561
22	0xbd5626d3	-0.05228312
23	0x3e3a2cf2	0.18181208
24	0x3edcaac1	0.43099025
25	0xbdb8f385	-0.09030823
26	0xbcea3e25	-0.028594086
27	0xbd85be12	-0.06530394
28	0x3d51dfbd	0.051238764
29	0xbe5a3e0c	-0.21312732
30	0x3daac91c	0.0833914
31	0xbda44c85	-0.080224074
32	0xbd03cafd	-0.032176007
33	0xbdcc7513	-0.09983268
34	0x3f0c604b	0.5483443
35	0xbe08fc36	-0.13377461
36	0x3e434774	0.19070226
37	0x3ce01a3c	0.02735626
38	0xbebf129e	-0.3731889
39	0xbed6182a	-0.4181531
40	0xbf04e6c8	-0.51914644
41	0xbd608523	-0.05481447
42	0xbde8cbd8	-0.11367005
43	0x3e1c66d6	0.15273604
44	0xbe1fc432	-0.15602186
45	0x3e524ee7	0.20537911
46	0xbbf3ad7a	-0.0074364515
47	0x3debb922	0.11509921
48	0x3e976e69	0.29576424
49	0xbdedcb9e	-0.116111025
50	0x3ea2c050	0.31787348
51	0x3e0cf016	0.1376346
52	0x3bfcec45	0.007718595
53	0xbc70f05d	-0.014705745
54	0xbde82be2	-0.11336495
55	0xbda200fd	-0.07910345
56	0xbace5f00	-0.0015744865
57	0xbdc50752	-0.09620537
58	0x3cbcb93f	0.023037551
59	0xbd383d31	-0.04498023
60	0x3dcf4a87	0.10121637
61	0x3c78176f	0.015142306
62	0xbe923576	-0.28556412
63	0x3d5fbb33	0.054621886
64	0xbe9521bf	-0.2912731
65	0x3cb755d7	0.022379799
66	0xbcf75873	-0.030193543
67	0xbd170249	-0.036867414
68	0xbcc35b34	-0.0238472
69	0xbe2ad092	-0.16681126
70	0xbdefbc17	-0.11705797
71	0xbe36d9f0	-0.17856574
72	0xbcaef03b	-0.021354785
73	0x3e91641e	0.28396696
74	0x3ca51b8c	0.020154737
75	0xbeb7a7f2	-0.3587032
76	0xbe3dc697	-0.18532787
77	0xbefdfbfa	-0.49606305
78	0x3cce42ca	0.025178332
79	0x3e74c96f	0.23904966
80	0xbe760986	-0.2402707
81	0xbc152320	-0.009102613
82	0x3e17b003	0.14813237
83	0x3e20a30d	0.15687199
84	0x3dddcfd5	0.108306564
85	0x3ddc9df4	0.10772315
86	0xbc43437a	-0.011917943
87	0x3e2279e0	0.15866804
88	0x3f581997	0.84414047
89	0xbe192f93	-0.14959554
90	0x3d8f11b3	0.06985798
91	0xbe79a52b	-0.24379413
92	0x3e3d43c9	0.18482889
93	0xbdea1e04	-0.11431506
94	0x3d7c2d26	0.061566494
95	0xbe544166	-0.20728073
96	0x3daf7115	0.085664906
97	0x3e4bd9d9	0.19907321
98	0x3ef68f2d	0.4815611
99	0x3d5e84d6	0.0543259
100	0xbe489002	-0.19586185
101	0xbe97abd4	-0.29623282
102	0xbeefdff8	-0.46850562
103	0xbee13634	-0.43986666
104	0xbe123a23	-0.1427999
105	0xbe17d552	-0.14827469
106	0xbd24a744	-0.04019858
107	0xbddb0700	-0.106946945
108	0xbe03939b	-0.12849276
109	0x3b336bbb	0.0027377445
110	0xbb0c5b13	-0.002141659
111	0xbe8ca131	-0.2746673
112	0x3c95f662	0.018305961
113	0x3e69af36	0.22820744
114	0x3eddd2b3	0.43324813
115	0x3e2c7dc7	0.16844855
116	0xbd079a8b	-0.033106368
117	0x3d0f2e89	0.03495649
118	0xbd8aa83e	-0.06770371
119	0xbdf5dd53	-0.12005105
120	0xbe20b04a	-0.15692249
121	0xbe4869be	-0.19571587
122	0xbc94cf92	-0.018165383
123	0x3e886aad	0.26643887
124	0x3c403281	0.011730791
125	0xbd84c7a6	-0.064833924
126	0xbeed7a07	-0.46382162
127	0xbdbc60f0	-0.09198177
128	0x3da4c92c	0.08046183
129	0x3de8962a	0.113567665
130	0x3ead492b	0.33844885
131	0x3cfae64c	0.030627392
132	0x3ddaeee2	0.106900945
133	0x3d80018c	0.06250295
134	0xbdff618e	-0.12469779
135	0x3e267c84	0.16258436
136	0xbcadeda1	-0.021231474
137	0xbbef5d5b	-0.00730483
138	0xbe54b3f3	-0.2077177
139	0x3d035188	0.032060176
140	0x3eb11025	0.3458263
141	0xbd7b8600	-0.06140709
142	0x3dfa4ea2	0.12222029
143	0xbe88fddb	-0.26756176
144	0xbbdc4b99	-0.006722879
145	0xbe9a7c5c	-0.30173004
146	0x3e21e803	0.15811162
147	0xbe05fc99	-0.1308464
148	0xbce0cba8	-0.02744086
149	0xbe2780ec	-0.16357774
150	0xbe038c7f	-0.12846564
151	0xbe5b73b6	-0.21430859
152	0xbe80391f	-0.2504358
153	0x3e078832	0.13235548
154	0xbc876283	-0.016526466
155	0x3e47b309	0.1950189
156	0x3dba34b3	0.09092083
157	0xbe14aa8f	-0.14518188
158	0x3ea7d659	0.32780722
159	0x3e48d493	0.1961234
160	0x3e16fd89	0.14745153
161	0xbe559b23	-0.20859961
162	0xbe78caa9	-0.24296059
163	0xbe6ed295	-0.23322518
164	0x3e70ca3a	0.23514643
165	0xbe306bfc	-0.17228693
166	0x3e4ae53c	0.19814008
167	0x3ec19d74	0.3781544
168	0x3ecbc884	0.3980142
169	0xbe5429fb	-0.2071914
170	0xbe144b83	-0.1448193
171	0xbe826928	-0.25470853
172	0xbe421aa9	-0.18955483
173	0xbe40e2e0	-0.18836546
174	0x3cacf390	0.021112233
175	0x3e711912	0.2354472
176	0xbd26cc96	-0.040722452
177	0x3e658bfa	0.22416678
178	0x3c87e56d	0.01658889
179	0xbeb56bbd	-0.3543376
180	0x3ca8c570	0.020601958
181	0x3e0914dc	0.13386863
182	0xbd49f53d	-0.049306143
183	0xbe25552c	-0.16145772
184	0x3d83a8ce	0.06428681
185	0x3eb60b6e	0.35555595
186	0xbdcbafad	-0.09945617
187	0x3a67a8be	0.0008837095
188	0xbd7bb30d	-0.061450053
189	0xbd9aaaeb	-0.07552131
190	0x3e496ce9	0.19670452
191	0xbd7afe30	-0.06127757
192	0x3d60528e	0.05476623
193	0x3dbe78ca	0.093003824
194	0x3ed70519	0.41996077
195	0x3e268c12	0.1626437
196	0xbdaded86	-0.084925696
197	0x3db29173	0.087191485
198	0xbc4ed3e2	-0.012623759
199	0x3ea791fc	0.32728565
200	0x3e05c59c	0.13063663
201	0x3dd53081	0.10409642
202	0xbe193e3b	-0.14965145
203	0x3ce1d7fa	0.027568806
204	0x3f4e5ede	0.80613506
205	0xbd8e5149	-0.06949098
206	0x3df246ae	0.11829887
207	0x3ecf5742	0.4049626
208	0xbe5c02c0	-0.21485424
209	0xbe828e7c	-0.25499332
210	0xbe3c5638	-0.18392265
211	0x3de90aa0	0.1137898
212	0x3da61c68	0.08110887
213	0xbc84fcf5	-0.0162339
214	0x3e41e64a	0.18935505
215	0xbe1940d3	-0.14966135
216	0xbe775ffe	-0.24157712
217	0x3e0f1472	0.13972643
218	0x3d85bd4f	0.065302484
219	0x3e2a60e5	0.16638525
220	0x3e134fe5	0.14385946
221	0x3e3f074e	0.1865513
222	0x3eb041c5	0.34425178
223	0x3d98a05c	0.07452461
224	0xbe3ef42c	-0.18647832
225	0xbd7a45d4	-0.06110175
226	0xbe327e87	-0.17431079
227	0x3e107f86	0.14111146
228	0x3e3cac5a	0.18425122
229	0xbcfedc05	-0.031110773
230	0xbe831531	-0.25602105
231	0xbe3036b4	-0.17208368
232	0xbe301b24	-0.17197853
233	0x3de9f066	0.114228055
234	0x3ccbe2c1	0.024888398
235	0x3ab41c71	0.0013741386
236	0x3e039ba8	0.12852347
237	0xbe7cf557	-0.24702965
238	0xbd700752	-0.05860073
239	0x3e595cb6	0.21226773
240	0x3d79c7f8	0.06098172
241	0xbed34c2c	-0.41269052
242	0x3df27058	0.11837834
243	0x3dbc86f6	0.09205429
244	0xbdffdd0d	-0.12493334
245	0x3e8cb977	0.27485248
246	0x3de7eda9	0.11324627
247	0xbe69de14	-0.22838622
248	0xbe29b02e	-0.16571113
249	0xbe2a60ac	-0.1663844
250	0xbe051e80	-0.12999916
251	0xbeead236	-0.45863503
252	0x3d285ef5	0.041106183
253	0xbd9a9b0b	-0.07549103
254	0xbd332568	-0.043736845
255	0x3e5075a7	0.20357381

fc_cls1.weight f4 [256, 128]
0	0xbdc81824	-0.097702295
1	0xbd20e961	-0.039285067
2	0x3e8b2d3b	0.27182946
3	0x3c1c6217	0.009544871
4	0xbeb1a666	-0.34697264
5	0xbe3fe82f	-0.18740915
6	0x3e23effa	0.16009513
7	0xbd84f297	-0.06491583
8	0x3dcfb732	0.101423636
9	0xbe01506d	-0.12628336
10	0x3cfeacea	0.031088311
11	0x3c4619c7	0.012091107
12	0xbd8bdd1a	-0.06829281
13	0xbe9095da	-0.28239328
14	0x3e4e3aae	0.20139572
15	0xbd97eefb	-0.07418629
16	0xbe1462eb	-0.14490859
17	0xbdcfe72e	-0.10151516
18	0x3e7cfbd2	0.24705437
19	0x3e43f66e	0.19136974
20	0x3d9c1dc9	0.076228686
21	0x3dc9995b	0.09843703
22	0xbb4b4d99	-0.0031021594
23	0xbe02f9a3	-0.12790541
24	0x3d0c37e3	0.034232985
25	0xbcbb1e77	-0.022841675
26	0xbe99f6e7	-0.30071184
27	0xbc6117a4	-0.0137385465
28	0x3e404ba8	0.1877886
29	0xbe93bb02	-0.28853613
30	0xbe0c3caa	-0.13695017
31	0x3d01fc55	0.031734783
32	0x3d357031	0.044296447
33	0x3de72345	0.11286024
34	0x3e3099b4	0.17246133
35	0xbe2f0a38	-0.17093742
36	0xbd874fa0	-0.06606984
37	0x3d97a5f0	0.07404697
38	0x3e0e58b3	0.13901024
39	0x3dc7d7d2	0.09757961
40	0x3e0d58c5	0.13803394
41	0x3e8ffa4d	0.28120652
42	0x3e9c63ff	0.3054504
43	0xbdb8f393	-0.09030833
44	0x3e7a78dd	0.24460168
45	0xbe172b94	-0.14762717
46	0xbd514769	-0.051093493
47	0x3e427369	0.18989338
48	0x3da58981	0.080828674
49	0x3d95689d	0.07295344
50	0xbced4d4e	-0.028967526
51	0xbe2e8663	-0.17043452
52	0x3d809961	0.06279255
53	0xbe4755f1	-0.19466378
54	0xbd7eb5f8	-0.062185258
55	0x3cf68c41	0.030096175
56	0x3e02c061	0.12768699
57	0x3e8d65fc	0.2761687
58	0x3d84d9e8	0.06486875
59	0x3e3a682a	0.18203798
60	0x3d28e868	0.041237265
61	0x3e96b614	0.2943579
62	0x3de1e262	0.11029507
63	0x3c07a97f	0.008280157
64	0xbd70affb	-0.058761578
65	0x3e2a09e2	0.16605332
66	0x3ea849b1	0.32868722
67	0x3e1879b7	0.1489018
68	0x3d59fd7d	0.05322026
69	0xbdabeac7	-0.083943896
70	0x3da11450	0.078652024
71	0x3c74d2a4	0.014942799
72	0x3c8a880f	0.01691058
73	0x3e03bc28	0.12864745
74	0x3d01fee2	0.031737216
75	0xbcccacbb	-0.024984708
76	0xbe1aff5a	-0.15136471
77	0xbe580bdb	-0.21098273
78	0xbe31c583	-0.17360501
79	0xbe3af0d0	-0.18255925
80	0x3b35e55c	0.0027755117
81	0xbdd8ae0c	-0.10580072
82	0x3eaf07ba	0.34185582
83	0x3ebc87a2	0.3682223
84	0x3bab74ed	0.0052324445
85	0x3e31d59c	0.17366642
86	0x3e2a8652	0.16652802
87	0xbe135ca2	-0.14390805
88	0xbd0d0858	-0.034431785
89	0xbd960d29	-0.07326729
90	0xbe5b0f71	-0.21392609
91	0xbe28452c	-0.16432637
92	0x3d780f8a	0.060561694
93	0xbe2c0879	-0.16800107
94	0xbe53754a	-0.20650211
95	0x3d5199ce	0.05117207
96	0xbddbc7ba	-0.10731454
97	0x3da192d2	0.07889332
98	0x3e1eab68	0.15495074
99	0x3d8674a3	0.065652154
100	0xbe0a4687	-0.13503467
101	0xbd2b6648	-0.04184559
102	0x3d005dd2	0.031339474
103	0x3c017bdd	0.007903066
104	0xbc9657bf	-0.018352387
105	0x3e78220d	0.2423174
106	0x3ecfbe8b	0.4057506
107	0x3db0e858	0.08638066
108	0x3e957b6a	0.2919572
109	0xbebb9d32	-0.36643368
110	0xbe3437d4	-0.17599422
111	0x3a149aeb	0.00056688365
112	0x3de5830e	0.11206637
113	0x3d7948fc	0.06086062
114	0xbd9f2fc6	-0.07772784
115	0xbdb46bd0	-0.08809626
116	0x3d42d3a8	0.047565132
117	0xbdc192f2	-0.09451856
118	0xbdd12ced	-0.10213647
119	0x3e8b4734	0.2720276
120	0x3c7f0f87	0.015567667
121	0x3e2766b4	0.16347772
122	0x3d7488bd	0.059700716
123	0x3e3180b0	0.17334247
124	0x3deba764	0.115065366
125	0x3e8c1b85	0.27364746
126	0x3e4112b9	0.18854798
127	0x3e0e6c78	0.13908565
128	0x3e703865	0.23459013
129	0x3ee0f026	0.4393322
130	0x3f11470c	0.56749034
131	0xbc3674d9	-0.011136257
132	0xbd9a9f17	-0.07549875
133	0x3e30bbc0	0.17259121
134	0xbe2295c6	-0.15877447
135	0x3d916d7f	0.07100963
136	0x3eb738f7	0.35785648
137	0x3e83879c	0.256894
138	0xbd1a2210	-0.03763014
139	0xbb7152cb	-0.003682303
140	0x3e26ad4d	0.16277047
141	0xbe900411	-0.28128102
142	0x3cca30a0	0.02468139
143	0x3dada2bb	0.08478304
144	0x3d1160a7	0.035492565
145	0x3e4198f3	0.18906002
146	0x3d4dc2e2	0.050234683
147	0x3ec77c85	0.38962188
148	0x3d65e8b7	0.056130137
149	0xbe004b08	-0.12528622
150	0x3ee7b23a	0.45253164
151	0x3e38f330	0.18061519
152	0xbe1fc062	-0.15600732
153	0x3ea32473	0.31863746
154	0xbe01bce4	-0.12669712
155	0xbe4e7fc0	-0.2016592
156	0x3e74b374	0.23896581
157	0xbe5dab6d	-0.21647425
158	0xbe13c86c	-0.14431924
159	0x3da83423	0.08213069
160	0x3ea38327	0.31936
161	0xbd4db0ac	-0.050217316
162	0xbd4b6374	-0.049655393
163	0x3e802b12	0.2503286
164	0xbc331499	-0.010930204
165	0xbcae33d6	-0.021264952
166	0x3dd51e82	0.104062095
167	0x3e156cc6	0.14592275
168	0x3e31aca1	0.17351009
169	0xbd4ef808	-0.05052951
170	0x3e8eb6bf	0.278738
171	0xbe6ac16a	-0.22925344
172	0x3d4bba1d	0.04973804
173	0xbcb17a81	-0.02166486
174	0xbe911633	-0.2833725
175	0xbe063b52	-0.13108566
176	0xbd8180cb	-0.063233934
177	0x3ec72ed4	0.38902915
178	0xbd9766e9	-0.073926754
179	0xbdb06f02	-0.08614923
180	0xbe888f12	-0.26671654
181	0xbe69ce24	-0.22832543
182	0x3e9fe277	0.31227466
183	0xbe3199f3	-0.17343883
184	0x3d65d531	0.05611152
185	0x3e38e184	0.18054777
186	0x3d144716	0.036200605
187	0xbcd76e2f	-0.026297657
188	0x3e7a452b	0.24440448
189	0x3e626de7	0.22112237
190	0xbe9ad56a	-0.30240947
191	0x3e06df7f	0.13171194
192	0xbdce707c	-0.100800484
193	0xbe1e7376	-0.15473732
194	0xbdc9e22d	-0.09857593
195	0x3baa6a07	0.0052006277
196	0xbd77c1d0	-0.06048757
197	0x3b4017ae	0.002931099
198	0xbe4d6cfa	-0.20061103
199	0xbf01d472	-0.5071479
200	0x3da4d938	0.08049244
201	0xbec4060e	-0.3828587
202	0x3e7280f9	0.23682012
203	0xbe0708e2	-0.13186982
204	0xbdf12832	-0.11775245
205	0xbe1b5ea1	-0.15172817
206	0x3d7ed0c1	0.062210802
207	0xbf04f359	-0.5193382
208	0x3e984195	0.29737535
209	0xbdd4e1c1	-0.10394622
210	0x3e1db546	0.15401182
211	0x3df5639a	0.11981888
212	0x3d012223	0.031526696
213	0x3d3d192f	0.046166595
214	0xbecd0f45	-0.40050712
215	0xbdb138ca	-0.0865341
216	0x3e63072b	0.22170703
217	0x3daa2478	0.08307737
218	0xbafb42af	-0.0019169654
219	0xbdfde78f	-0.12397682
220	0xbe253705	-0.1613427
221	0x3d4195a8	0.047261864
222	0x3d3e5411	0.04646689
223	0xbd62dc2e	-0.05538576
224	0xbce5c6fc	-0.028048985
225	0x3e817f70	0.2529254
226	0x3c75518c	0.014973056
227	0xbed5234e	-0.41628498
228	0xbe13bc9e	-0.1442742
229	0xbd8ca971	-0.06868256
230	0x3d936184	0.07196334
231	0xbdea473a	-0.11439367
232	0xbe8bd1b5	-0.2730843
233	0x3e0f10b4	0.13971215
234	0xbd837fcd	-0.064208604
235	0xbcedd224	-0.029030867
236	0x3e51867c	0.20461458
237	0xbcbafbf6	-0.022825222
238	0x3ea961cf	0.33082435
239	0x3df34023	0.118774675
240	0x3e0628b9	0.13101472
241	0xbe5d7c19	-0.21629371
242	0x3d4dffd8	0.05029282
243	0x3e2502a4	0.16114289
244	0xbdb88297	-0.09009283
245	0xbc2d84d0	-0.010590747
246	0xbdbd7cbc	-0.09252307
247	0x3e1bcbfa	0.1521453
248	0x3d896a36	0.06709711
249	0xbdd7cd15	-0.10537163
250	0x3d0921a3	0.033479344
251	0x3d31c74c	0.043402955
252	0x3e275311	0.16340281
253	0x3e3930d3	0.18085031
254	0x3c02c9c3	0.007982674
255	0xbe7936f6	-0.24337372

fc_cls1.bias f4 [256]
0	0xbe743f6d	-0.2385232
1	0xbdd7c5dd	-0.10535786
2	0xb9deca34	-0.00042493793
3	0xbe6c10d0	-0.23053288
4	0xbd8b137b	-0.06790825
5	0xbdad2402	-0.084541336
6	0x3cb2e503	0.021837717
7	0xbd1ef89c	-0.03881131
8	0x3d53bfb8	0.05169651
9	0xbe0a7d71	-0.13524415
10	0xbcca67a2	-0.02470762
11	0xbcdc5134	-0.02689419
12	0xbeda492a	-0.42633945
13	0xbe335bde	-0.17515513
14	0xbdf91c21	-0.12163568
15	0xbd1958d1	-0.037438218
16	0xbe0b0d4e	-0.13579294
17	0xbcc96e68	-0.024588779
18	0x3d149f41	0.03628469
19	0xbe9fd84d	-0.31219712
20	0xbd656be4	-0.056011096
21	0xbc0cb45c	-0.008587923
22	0xbd1fc933	-0.039010238
23	0xbe0326c1	-0.12807752
24	0xbc8084c7	-0.015688313
25	0xbe11b9e8	-0.14231074
26	0x3d3416a2	0.043966897
27	0x3dc4e971	0.09614838
28	0xbdab8c01	-0.08376313
29	0x3d926119	0.07147426
30	0xbde7207d	-0.112854935
31	0xbdccaf20	-0.0999434
32	0x3df86d7c	0.121302575
33	0xbd17762a	-0.036977924
34	0xbd93166c	-0.07182011
35	0xbd92f365	-0.0717533
36	0x3d6c5430	0.057697475
37	0xbd856a47	-0.065144114
38	0x3b1b5d8e	0.0023706886
39	0xbe11db8f	-0.14243911
40	0xbbf5b175	-0.007497961
41	0xbe3399bf	-0.17539118
42	0xbde386d5	-0.111097015
43	0x3c92e112	0.017929588
44	0xbdf90b02	-0.12160303
45	0xbd1d6320	-0.03842461
46	0xbd4f166e	-0.0505585
47	0xbd8d1382	-0.068884864
48	0xbdac8a66	-0.08424835
49	0xbd6ee4c8	-0.05832365
50	0xbd7cc21e	-0.061708562
51	0xbe0a4a62	-0.13504937
52	0x3d8d10c0	0.068879604
53	0xbd33c0a6	-0.043884896
54	0xbe53443d	-0.206315
55	0xbe3ca71a	-0.18423119
56	0xbe3ac900	-0.18240738
57	0x3dbf3fd4	0.09338346
58	0xbda826ff	-0.08210563
59	0xbdfd1c43	-0.12358906
60	0xbee6b37c	-0.4505881
61	0xbd0cc291	-0.03436524
62	0xbd804fe2	-0.062652364
63	0xbdb1f276	-0.08688824
64	0xbe24fd1e	-0.16112182
65	0xbe0285de	-0.12746379
66	0xbc8489dc	-0.016179018
67	0xbc90738c	-0.017633222
68	0xbe96dba6	-0.29464453
69	0xbe052e1d	-0.13005872
70	0x3d73bf39	0.059508536
71	0xbe93c0e7	-0.2885811
72	0x3d1e3d54	0.038632706
73	0xbe94c7a5	-0.29058567
74	0xbcc6994c	-0.02424302
75	0xbe73f143	-0.23822503
76	0xbdf0aa28	-0.11751205
77	0xbdd48716	-0.10377328
78	0xbe05740b	-0.13032548
79	0xbca4b331	-0.020104976
80	0x3daef5aa	0.085429505
81	0xbe05a673	-0.13051777
82	0xbe41d1d9	-0.18927707
83	0xb9e97bbc	-0.00044533412
84	0x3e00a13b	0.12561505
85	0x3d9b2035	0.075745024
86	0x3dcb68a8	0.09932071
87	0x3dd41de7	0.10357266
88	0xbe249797	-0.16073452
89	0x3da5f008	0.08102423
90	0xbe65041a	-0.22364846
91	0xbe2b31c5	-0.16718204
92	0xbdfef541	-0.12449122
93	0x3d40c85c	0.047066078
94	0xbd9ac392	-0.07556833
95	0xbdbeadf3	-0.09310522
96	0xbe07418a	-0.13208595
97	0xbd6f8573	-0.058476876
98	0xbd9845be	-0.07435177
99	0x3d34b0f5	0.044114072
100	0xbd4666d9	-0.048437927
101	0xbe00a38e	-0.12562391
102	0xbe095b26	-0.13413677
103	0xbda5e452	-0.08100189
104	0xbe2ae998	-0.16690671
105	0xbdec41ca	-0.11535986
106	0x3d8e94e5	0.06961993
107	0xbda6f6f6	-0.08152573
108	0xbd82c608	-0.06385428
109	0xbe1a5994	-0.15073234
110	0xbdc9e737	-0.09858554
111	0xbda37716	-0.07981698
112	0xbe9f432c	-0.31105936
113	0xbd9cf33b	-0.0766358
114	0x3d172438	0.036899775
115	0xbdec6c3e	-0.11544083
116	0xbde4cbe2	-0.111717
117	0xbc891c9a	-0.016737271
118	0x3c3e6a7a	0.011622066
119	0xbcbd51b4	-0.023110248
120	0xbdcccd14	-0.10000053
121	0xbd2a45e8	-0.041570574
122	0xbe1fbb79	-0.15598859
123	0xbcc761d3	-0.024338638
124	0xbcbe0200	-0.023194313
125	0x3daf727b	0.08566757
126	0xbde91768	-0.113814175
127	0xbde8c1d9	-0.113650985
128	0xbe26e1ef	-0.16297124
129	0xbde01de5	-0.10943202
130	0xbc885723	-0.016643113
131	0xbe2f86bb	-0.1714124
132	0x3de453bc	0.111487836
133	0xbdd9df68	-0.106383145
134	0xbd07a0ac	-0.033112213
135	0xbc39529b	-0.011311199
136	0x3b9d9c84	0.004809918
137	0xbdbba020	-0.09161401
138	0xbe09a8af	-0.13443254
139	0xbe8f5ad0	-0.27998972
140	0xbe588497	-0.21144329
141	0x3d4ea876	0.050453626
142	0xbe354be4	-0.17704731
143	0xbd93a9f0	-0.072101474
144	0xbd9e4b35	-0.07729188
145	0xbdcb64a0	-0.09931302
146	0xbd667caf	-0.05627125
147	0xbdde457b	-0.10853096
148	0xbe0f91b6	-0.14020428
149	0xbe3270dd	-0.17425866
150	0xbdb64d94	-0.089015156
151	0xbc9e8bec	-0.01935383
152	0xbdd62b82	-0.10457517
153	0xbe0f0500	-0.13966751
154	0xbe23f637	-0.16011892
155	0xbe41daa1	-0.18931057
156	0xbe4dc10c	-0.20093173
157	0xbe350225	-0.176766
158	0xbe7e9dfc	-0.24864954
159	0xbdff4bde	-0.124656424
160	0xbe82a878	-0.25519156
161	0xbde5b6cd	-0.11216507
162	0xbe348b49	-0.17631258
163	0xbe80ec64	-0.25180352
164	0xbdee17ac	-0.11625609
165	0xbd753b5b	-0.05987106
166	0xbdd68740	-0.10475016
167	0xbda9708b	-0.08273419
168	0xbe1ae920	-0.15127993
169	0xbd9f2c41	-0.07772113
170	0xbd16916e	-0.036759786
171	0xbe4fde94	-0.2029975
172	0xbe1034e3	-0.14082675
173	0xbd01ff8f	-0.03173786
174	0xbe0e5aea	-0.13901868
175	0xbe33a4ea	-0.17543378
176	0xbdde2ba3	-0.10848167
177	0xbe32fdf7	-0.17479692
178	0xbd356108	-0.04428199
179	0xbc349e68	-0.011024095
180	0xbdddd1a7	-0.10831004
181	0xbcddf1bd	-0.027092809
182	0xba905a81	-0.00110133
183	0xbdec8ebc	-0.11550662
184	0xbb8dec20	-0.004331127
185	0x3db05623	0.08610179
186	0xbe11f810	-0.14254785
187	0x3d1cb72f	0.038260635
188	0xbe84c288	-0.25929666
189	0xbde0e22f	-0.10980641
190	0xbdbd4131	-0.0924095
191	0xbe39bcc4	-0.18138415
192	0xbe7b2fd2	-0.24529961
193	0xbd3d8d47	-0.04627731
194	0xbd9955c9	-0.07487065
195	0xbb643e95	-0.003482734
196	0xbcf09539	-0.02936803
197	0xbe156634	-0.14589769
198	0xbe31ad45	-0.17351253
199	0xbde37389	-0.11106021
200	0xbd26071e	-0.04053413
201	0xbd9e42bd	-0.07727573
202	0xbe0968b9	-0.13418855
203	0xbdbaed37	-0.091272764
204	0xbe09c499	-0.13453902
205	0xbe3a98b5	-0.18222316
206	0xbe8539d6	-0.26020688
207	0x3c5f9db6	0.013648441
208	0xbd9e4d0e	-0.07729541
209	0x3b46a83a	0.0030312673
210	0xbd5ac147	-0.05340698
211	0xbe3fdbe6	-0.18736228
212	0xbc60a320	-0.013710767
213	0xbda37b89	-0.07982547
214	0x3d966eec	0.073453754
215	0xbe3d25c1	-0.18471433
216	0xbe208c06	-0.15678415
217	0xbdbb727e	-0.09152697
218	0x3cc48778	0.023990378
219	0xbde52eea	-0.11190589
220	0xbdc46f50	-0.09591544
221	0xbd4cedc0	-0.050031424
222	0xbd05f29d	-0.032702077
223	0xbd5406f3	-0.05176444
224	0xbd2861e5	-0.041108985
225	0xbe0795a1	-0.13240673
226	0xbe34ef31	-0.1766937
227	0xbd2d6dd6	-0.042341076
228	0xbde1428a	-0.109990194
229	0x3d6d116d	0.057877947
230	0xbd8e9ef7	-0.06963914
231	0x3d03ce66	0.03217926
232	0xbdc67ffb	-0.09692379
233	0xbe308698	-0.17238843
234	0xbe55d08b	-0.20880334
235	0xbdf3f314	-0.11911598
236	0xbe90b300	-0.28261566
237	0x3ceb2443	0.028703814
238	0xbdd86114	-0.10565391
239	0xbe8617a6	-0.26189917
240	0xbe40d22e	-0.18830177
241	0xbbdf31dc	-0.0068113636
242	0xbddfe703	-0.10932734
243	0x3bd5ca2f	0.0065243463
244	0xbd4263bc	-0.047458395
245	0xbe39e833	-0.18154983
246	0xbde68a74	-0.112568766
247	0x3c1806f2	0.009279
248	0xbcf51467	-0.029916955
249	0xbdd99a01	-0.10625077
250	0x3ca9f2e0	0.020745695
251	0x3d824210	0.06360257
252	0xbdc13a03	-0.09434893
253	0x3c0eaf27	0.008708752
254	0x3c7baefc	0.015361544
255	0x3cc0eb45	0.023549685

fc_cls2.weight f4 [128, 256]
0	0xbe01c439	-0.12672509
1	0x3e49a0c3	0.19690232
2	0x3c50024f	0.012695863
3	0x3dafc777	0.08582967
4	0x3c30fa37	0.010801843
5	0x3e73cbf0	0.23808265
6	0xbe853fd0	-0.26025248
7	0x3ddbc7a7	0.1073144
8	0x3dcdd404	0.100502044
9	0x3d835a16	0.06413667
10	0x3e5e20ec	0.21692246
11	0x3e7cd652	0.24691132
12	0xbe0eb79c	-0.13937229
13	0x3d909ad5	0.07060782
14	0x3e898456	0.26858777
15	0xbd4e307b	-0.050339203
16	0x3e0c1998	0.13681638
17	0x3e244091	0.16040255
18	0x3dbdfac0	0.092763424
19	0x3de10fa7	0.109893136
20	0x3dfaa17f	0.12237834
21	0x3c29fb03	0.010374787
22	0xbca2d437	-0.019876583
23	0xbbff3056	-0.0077877445
24	0xbdb0686b	-0.08613666
25	0xbd014746	-0.031562112
26	0x3d0fc6bc	0.035101637
27	0xbdfeb379	-0.124365754
28	0x3c59beaf	0.013290091
29	0xbcaed295	-0.021340648
30	0xbce0279b	-0.027362635
31	0xbcf0bf11	-0.029387983
32	0xbe218583	-0.15773587
33	0xbcdee16f	-0.027207104
34	0x3d78e60b	0.06076626
35	0xbe330c0e	-0.17485067
36	0x3e030e87	0.1279851
37	0x3e533b47	0.20628081
38	0xbe64619b	-0.22302859
39	0x3da045f9	0.07825846
40	0xbdcc3430	-0.099708915
41	0x3e647dd5	0.22313626
42	0x3cb9281c	0.022602133
43	0x3cc26748	0.023730889
44	0x3d265d4d	0.040616322
45	0x3e2ff14c	0.17181891
46	0xbe962500	-0.29325104
47	0xbca03ffd	-0.019561762
48	0x3dc59a48	0.096485674
49	0xbed7d8c7	-0.42157575
50	0x3d1c28e1	0.038124923
51	0xbd6cd4a1	-0.057819966
52	0xbdffab0e	-0.12483798
53	0x3d0586b4	0.032599166
54	0xbea53688	-0.32268167
55	0xbda54b3c	-0.080709904
56	0x3d793e15	0.06085022
57	0xbe040cf2	-0.12895563
58	0xbdee3db2	-0.11632861
59	0xbd5c9fc1	-0.05386329
60	0xbe96a659	-0.29423788
61	0xbd98332d	-0.07431636
62	0xba89e3e9	-0.0010520193
63	0x3c6ef012	0.014583604
64	0xbc0561f7	-0.008141032
65	0xbc327ebd	-0.010894475
66	0xbe04827f	-0.12940405
67	0xbdd1be1b	-0.10241338
68	0x3eb49e9c	0.3527726
69	0x3e1dcc6f	0.15410016
70	0x3df453b0	0.119300246
71	0xbdc68038	-0.096924245
72	0x3e519b1a	0.20469323
73	0x3da82f8d	0.082121946
74	0x3d00ce02	0.031446464
75	0xbcc8bb18	-0.024503276
76	0x3d1c5218	0.03816423
77	0x3d613736	0.054984294
78	0xbcfc4d17	-0.030798478
79	0x3d30fbac	0.043208763
80	0x3c156c38	0.00912004
81	0xbd3f91d2	-0.046769924
82	0x3e0bb8c2	0.13644698
83	0xbe3d0535	-0.18459018
84	0x3e4b1153	0.19830827
85	0xbde31dc0	-0.11089659
86	0x3d1f3a3b	0.038873892
87	0x3d85bc1d	0.065300204
88	0xbd0e3e1b	-0.034727197
89	0xbe0d16e3	-0.13778262
90	0xbe0cd9e3	-0.13754992
91	0x3e359c52	0.17735413
92	0xbd110aa6	-0.035410546
93	0x3d8736bc	0.06602237
94	0xbdf36ba0	-0.11885762
95	0xbcd0c67d	-0.025485272
96	0xbe519834	-0.20468217
97	0xbd21699a	-0.03940735
98	0x3e01ce43	0.12676339
99	0x3d11654a	0.035496987
100	0xbe26f9ec	-0.16306275
101	0x3c359c6c	0.011084657
102	0xbe9a499a	-0.3013428
103	0xbe3fa58b	-0.18715493
104	0xbd4035bf	-0.046926256
105	0xbd017601	-0.031606678
106	0xbe523d89	-0.20531286
107	0xbdf7d7d2	-0.12101711
108	0x3e245ee9	0.1605183
109	0xbe5e30c3	-0.21698289
110	0xbd0a28d0	-0.033730328
111	0x3c1fe718	0.009759687
112	0x3d49c220	0.049257398
113	0xbc483336	-0.012219241
114	0xbcf4148a	-0.02979495
115	0x3e5be2be	0.21473214
116	0x3dc8b016	0.09799211
117	0x3e5d1957	0.21591698
118	0xbe90d69e	-0.2828874
119	0xbde0fdf5	-0.109859385
120	0x3e311453	0.1729291
121	0x3cb55856	0.022136848
122	0x3e6ab96a	0.22922292
123	0xbc905f1d	-0.017623479
124	0xbe252660	-0.1612792
125	0xbcdbce2f	-0.026831714
126	0xbe7451b8	-0.23859298
127	0x3cc31c72	0.023817275
128	0xbe74b4ec	-0.23897141
129	0x3c617ccc	0.013762664
130	0xbd15438a	-0.036441363
131	0xbe3434f3	-0.17598324
132	0x3e1c684a	0.15274158
133	0xbd479edd	-0.04873549
134	0xbddc0399	-0.10742874
135	0x3df72758	0.12068051
136	0xbda56589	-0.08076007
137	0x3db8fc6e	0.09032522
138	0x3c7be158	0.01537355
139	0x3bad8757	0.005295675
140	0x3e841554	0.25797522
141	0xbe96b637	-0.29435894
142	0xbe83bdbe	-0.257307
143	0xbc7d66d9	-0.015466415
144	0x3df69a94	0.12041202
145	0x3da44da2	0.0802262
146	0x3e20a64c	0.15688437
147	0x3a822fa2	0.0009932409
148	0xbd956d36	-0.07296221
149	0x3e2298f6	0.15878662
150	0x3d8e725d	0.06955407
151	0x3df60e5f	0.1201446
152	0x3d23f329	0.040026817
153	0x3cd92da0	0.026511014
154	0x3ec30b41	0.38094524
155	0xbd7c85cb	-0.061651032
156	0x3d139e86	0.03603985
157	0x3eaa95d2	0.3331743
158	0xbd03e03c	-0.03219627
159	0x3e568743	0.20950036
160	0x3e7e6364	0.24842602
161	0x3d6bad2c	0.057538196
162	0xbd835955	-0.06413523
163	0x3e025c8d	0.12730618
164	0xbd4bc092	-0.049744196
165	0x3dd97bc0	0.106193066
166	0xbcc08667	-0.023501588
167	0xbe107ae8	-0.14109385
168	0xbdf95b76	-0.12175648
169	0x3e951a8e	0.29121822
170	0x3ca69108	0.020332828
171	0xbdd04938	-0.10170215
172	0x3a44913f	0.000749845
173	0x3cbbd714	0.022929706
174	0xbbf605e3	-0.007508026
175	0xbe0a69bf	-0.13516901
176	0xbd24baf4	-0.040217355
177	0x3eb5994a	0.35468513
178	0xbeb09eea	-0.34496242
179	0xbe227d7d	-0.15868182
180	0x3cbe23d4	0.023210444
181	0xbc92af6f	-0.017905919
182	0xbeb6913b	-0.35657677
183	0x3d1ecccd	0.038769532
184	0xbc806ba5	-0.015676329
185	0xbce7e704	-0.028308399
186	0x3e53bc41	0.20677282
187	0x3d203ac2	0.039118536
188	0x3da2ea2e	0.079548225
189	0x3d84755c	0.06467697
190	0x3d40b58e	0.047048144
191	0x3e67f5bd	0.22652335
192	0x3dd8378d	0.105574705
193	0xbeee78bf	-0.46576497
194	0xbd3ed8f2	-0.046593614
195	0x3bbc891c	0.0057536494
196	0xbe4d6fe8	-0.2006222
197	0x3dbbfdf6	0.091792986
198	0x3e5fa2b3	0.21839409
199	0x3e38b0d2	0.18036202
200	0xbd6b0009	-0.05737308
201	0xbe344284	-0.17603499
202	0x3db74f24	0.08950642
203	0x3d9586f0	0.07301128
204	0xbabbec58	-0.0014337404
205	0x3e06e4bf	0.13173197
206	0x3df9c0a5	0.12194947
207	0xbe237ece	-0.15966341
208	0xbdea5556	-0.11442058
209	0x3e68e740	0.22744465
210	0xbc72a768	-0.014810421
211	0xbd62990f	-0.05532175
212	0x3d2e3450	0.042530358
213	0xbcfcaf8f	-0.030845432
214	0xbea68271	-0.32521394
215	0xbc50318e	-0.012707127
216	0x3e23a899	0.15982284
217	0xbd36a799	-0.044593427
218	0x3e4fa020	0.20275927
219	0x3d351ccc	0.044216916
220	0x3e74bd1c	0.23900265
221	0xbd8b9fa2	-0.06817557
222	0xbd963ac8	-0.073354304
223	0xbed035e3	-0.40666112
224	0xb91be9e6	-0.00014869086
225	0x3e16f742	0.14742759
226	0x3e9802a8	0.29689527
227	0x3db73a29	0.0894664
228	0xbe0515ed	-0.12996645
229	0xbe321eca	-0.17394558
230	0x3e6461f6	0.22302994
231	0x3d2b1862	0.0417713
232	0xbe167bc1	-0.14695646
233	0x3e950645	0.29106346
234	0x3cec8a31	0.028874489
235	0x3c7ca460	0.015420049
236	0xbe561d0e	-0.20909521
237	0x3db59c64	0.0886772
238	0xbe0ab2c4	-0.13544756
239	0xbec1c5e9	-0.37846306
240	0xbd962bf1	-0.073326
241	0xbd988971	-0.0744809
242	0x3e09888c	0.13430995
243	0x3e0e3bb8	0.13889968
244	0x3dec7bf9	0.115470834
245	0x3e0f87b4	0.1401661
246	0x3dc61368	0.0967167
247	0xbd0f10ec	-0.034928247
248	0xbebfbe89	-0.37450054
249	0xbcf3abcd	-0.029745007
250	0x3a6a6758	0.0008941791
251	0xbe3b48f7	-0.18289553
252	0x3e637be3	0.22215228
253	0x3df9654b	0.12177523
254	0x3dbb1b4d	0.091360666
255	0xbd8c9a69	-0.06865389

fc_cls2.bias f4 [128]
0	0x3e1da9d1	0.15396811
1	0x3e3dfdbc	0.18553823
2	0x3df3d9fb	0.11906811
3	0xbdce6af4	-0.100789934
4	0x3dbf58e4	0.093431264
5	0x3e20114b	0.15631597
6	0x3dabdf66	0.08392219
7	0x3dd33444	0.10312703
8	0x3d65fd9f	0.056150075
9	0x3de3325c	0.1109359
10	0x3d945df3	0.07244482
11	0x3dfaa2ef	0.12238108
12	0x3e2119d8	0.15732515
13	0xbd233381	-0.03984404
14	0x3cf54311	0.029939206
15	0xbdbd1cab	-0.092339836
16	0x3da534f8	0.080667436
17	0x3e54c441	0.2077799
18	0x3d01db6c	0.031703398
19	0x3de9f91f	0.11424469
20	0xbd5d8718	-0.054083914
21	0x3d8bd945	0.0682855
22	0x3ddf7e88	0.10912806
23	0xbdb4c78a	-0.088271216
24	0xbc7575fa	-0.014981741
25	0x3e0a5030	0.13507152
26	0x3dd38fee	0.10330187
27	0x3da09906	0.07841687
28	0xbd90b0f3	-0.070650004
29	0x3e1c19b0	0.15244174
30	0xbd933733	-0.07188263
31	0x3d2886ef	0.041144308
32	0xbd57cd3e	-0.05268597
33	0x3e00ba72	0.12571123
34	0xbdcd7831	-0.1003269
35	0x3e0dc941	0.13846304
36	0x3da14b7f	0.07875728
37	0x3dcd963a	0.10038419
38	0x3e1765fa	0.14784995
39	0x3e225983	0.15854459
40	0x3c838b6e	0.016057696
41	0x3df9e11f	0.122011416
42	0x3e0cb32a	0.1374022
43	0xbd7f53b8	-0.0623357
44	0x3e0dcbe6	0.13847312
45	0x3e105254	0.14093906
46	0xbdebf105	-0.1152058
47	0x3e270ba7	0.16313039
48	0x3e029963	0.12753825
49	0x3c88e96c	0.016712867
50	0xbd75a0ec	-0.05996792
51	0x3e0dbb72	0.13841036
52	0x3e2c5cb7	0.16832243
53	0xbd3a24a3	-0.045445096
54	0x3e05610e	0.13025305
55	0x3cea2944	0.02858413
56	0x3df58dfc	0.11989972
57	0x3dec45e5	0.11536769
58	0xbdcfcd88	-0.10146624
59	0x3db0bd11	0.086298116
60	0x3bdf48af	0.0068140845
61	0xbd0b9022	-0.034073003
62	0xbd8e4212	-0.06946196
63	0x3df17d54	0.117914826
64	0xbdcf6973	-0.10127535
65	0xbc83e724	-0.016101427
66	0x3e06a627	0.1314932
67	0x3d9ce191	0.07660211
68	0x3e2b1a2f	0.16709207
69	0x3ddbeee1	0.10738922
70	0x3e1148ce	0.14187929
71	0x3d870c05	0.065940894
72	0xbd86f444	-0.06589559
73	0x3e21ad8e	0.15788862
74	0x3d834f3f	0.06411599
75	0x3dbb6bf1	0.091514476
76	0xbdaa6ad3	-0.08321156
77	0x3df30411	0.1186601
78	0x3dd484a0	0.10376859
79	0x3dbb8da5	0.09157876
80	0xbd26fd92	-0.040769167
81	0x3d9765b4	0.07392445
82	0x3acf475c	0.0015814113
83	0xbdedffee	-0.1162108
84	0xbd9f7e29	-0.07787735
85	0xbca13e97	-0.019683165
86	0x3d7df36e	0.06199973
87	0x3dca3e32	0.09875144
88	0xbdd90310	-0.10596287
89	0x3e25343a	0.16133204
90	0x3e20366a	0.15645757
91	0xbdf439d4	-0.11925092
92	0xbd976743	-0.073927425
93	0xbdb0c639	-0.08631558
94	0x3d922294	0.071355015
95	0x3e1b026b	0.15137641
96	0x3e168d3b	0.14702313
97	0x3d984b76	0.07436268
98	0xbd3103e5	-0.043216605
99	0xbd9e0c4a	-0.07717188
100	0x3e0f25b5	0.13979228
101	0x3dd4c183	0.10388472
102	0x3e22e2ab	0.1590678
103	0x3db8ecbb	0.09029528
104	0x3e12c4f1	0.1433294
105	0x3dad84a7	0.08472567
106	0xbdcc5937	-0.09977954
107	0x3d983ee9	0.07433874
108	0xbd3582ff	-0.04431438
109	0x3de49246	0.11160712
110	0x3e1a20ad	0.15051527
111	0x3d9ccd1d	0.0765631
112	0x3e08724b	0.1332485
113	0x3d868b5e	0.06569551
114	0x3de21bb8	0.11040443
115	0x3de0ab98	0.10970229
116	0x3dab51ef	0.08365237
117	0x3dda5599	0.10660858
118	0x3d888eec	0.06667885
119	0x3e1583d4	0.1460107
120	0x3dac0edf	0.08401274
121	0xbd793983	-0.060845863
122	0xbdb86a88	-0.09004694
123	0x3d3b3f2b	0.04571454
124	0x3de17920	0.11009431
125	0x3d2e59d9	0.042566154
126	0x3e309f0d	0.17248173
127	0x3e14099f	0.14456795
