data/predictor/PT/201_TNetwork-F_2024-05-15_14-41-52.pt (torch, 271659 bytes, 14 tensors)

conv1.bias f4 [64]
00000000: 9c28 5bbd dcb3 543d 7e5d 61bd afb5 9e3d
00000010: 4e7b 97bb 1da0 0d3d 8d1b 2cbb 3700 9ebc
00000020: 8c25 b2bc 1911 993c dcc8 c3bc 9f32 b6bc
00000030: b1c1 41bd 622e e03c da39 1fbd 5bdb 06bc
00000040: ae06 39bc 09fb 42bd f258 6cbc 93b6 e4bc
00000050: 6238 cc3c 2310 37bc 25c2 803b d039 c0bc
00000060: 4077 353c 8c7a a3bc 0000 0000 592b 3fbd
00000070: c77f 113b cee3 b9bc c6e0 073d ee49 d9bb
00000080: 5ceb 013d 7f53 79bc b2b3 25bd 208e e9bc
00000090: 7232 dfbc 037e 70bd 0d5c 783c 3df8 0bbc
000000a0: b271 a9bc a5c4 363d b5ea d73a 0000 0000
000000b0: 87ac e9bc 802b 833c 8e15 093c ed8b bfbb
000000c0: 6c6a b43c 5044 2d3c eb45 893b d6b3 343d
000000d0: 92d8 abbc 3749 84bc d141 5cbd 92c4 39bc
000000e0: 365f 39bd dcef 27bd 090c 893c 63de e63b
000000f0: 1472 43bc 2389 0fbd 21cd 8d3c d540 e8bb
-0.053505525 0.05192934 -0.0550208 0.07749497 -0.0046228534 0.034576524 -0.0026261539 -0.019287212
-0.02174642 0.01868491 -0.023899488 -0.022240935 -0.04730386 0.027365867 -0.03887353 -0.008231009
-0.0112930965 -0.047602687 -0.014425503 -0.02791909 0.02492923 -0.011173281 0.003929394 -0.023465067
0.011075795 -0.019955896 0.0 -0.0466722 0.0022201405 -0.022691634 0.033173345 -0.0066311276
0.031718597 -0.015217661 -0.040454574 -0.028510153 -0.027245734 -0.058713924 0.015158665 -0.008543071
-0.020684097 0.04462113 0.0016473146 0.0 -0.02852465 0.016011953 0.008366955 -0.005845538
0.022023402 0.010575369 0.004189243 0.044116817 -0.020977292 -0.016148193 -0.053773705 -0.01133837
-0.045256816 -0.041000232 0.016729372 0.0070455535 -0.011929054 -0.035042893 0.017309727 -0.0070878067

conv1.lin.weight f4 [64, 4]
00000000: c4d9 88bc 3c12 2c3e eef7 0b3e ed50 00bf
00000010: c65e f2be 4407 e8be df5f 31bf 9c29 713e
00000020: ce7f 90bb 5e40 cd3d 408e 4d3e 0ca7 08bd
00000030: cbf3 bcbe 3152 08bf 4034 7d3d b8c8 3b3d
00000040: 85a2 883e 9194 a23e ddc1 aabe fa71 243a
00000050: 1386 b93d 1e13 f4be 4a04 dabd 3b6a 94be
00000060: 1a42 ec3d ea76 babd caa7 a53d 9a4e 6c3e
00000070: 6ce5 123e 0e75 13be c110 3cbd c713 973c
00000080: c94f ea3d 824a 44be 270e a93c 2251 2cbe
00000090: 48ec 113e 6cae a53d 2d35 5fbe b575 9fbe
000000a0: 382a afbd 3f64 233e 8931 733d b322 ef3d
000000b0: 3c60 e23c cf6e 8cbd b102 473e 0f0c 343e
000000c0: 1e01 543e 84cf 043d 9972 193e 6d37 703e
000000d0: 6016 f73d f6b7 e23d beea 03be 1247 d3be
000000e0: d484 133d 8dd4 71be acd6 84be 153a abbd
000000f0: eb9d 7e3e c1e0 01be 2061 4a3e 3ec3 edbe
00000100: 6993 9dbc 2163 a33e d65e 6abe 4db2 80bd
00000110: 4d0c c8bd 61a9 c2bd 0447 773e 11b4 2abe
00000120: c487 6a3c b4bd 0abd a3c8 583d 0b3a 173d
00000130: 027c 87be 4226 4e3e f695 133e cc4d cd3e
00000140: 1cb0 033d 9bbb 183d f4df 1dbe 23f4 273e
00000150: ccde b2bc 6cc2 8d3e 7413 84be 30b1 52be
00000160: c974 c33d 0535 953d 172f fcbd dd53 88be
00000170: 96ca 883e bb31 5a3e 2cbc 813e daad 70be
00000180: fc14 e5bd f9fa 893d 7387 073c 570c c13e
00000190: 925f 25be 59a9 073d bf4b 873e bf67 a5bd
000001a0: 52d2 febd 0adc 7ebe 958a 00be eee1 acbd
000001b0: 4c3d 9fbe ea4b cb3d f2d9 8a3e c3f9 803e
000001c0: 813d 70bd 2a2e 96bd 85b0 7b3e 8ed5 763e
000001d0: 049f 11bd aa80 803d b4d4 7f3e eaf6 b0be
000001e0: 5519 1b3e b2a8 5fbc 064e 1bbe f335 26be
000001f0: 7aaa 213e f03b c8bd cb45 8abc fb7f c43e
00000200: 8d82 633e 873a 50be bc12 73be a7f0 a8be
00000210: 28cd 273c d676 f5bd 631e 313e 3120 ed3e
00000220: 954b 71be d25d 4ebb ff81 463e 8b88 85be
00000230: 2dcd 28be aa27 153e b523 203e aa69 753e
00000240: a514 713c 90dd 6cbe 0a70 e3bd 9143 bbbd
00000250: 6d37 d73d 6548 babd c4e7 503e 8080 7f3d
00000260: f81d 4bbe e9a1 a63e 180d 2fbe cc5a a33e
00000270: e345 b73d af3a aebd 8a42 3d3c 896b 9c3d
00000280: aab2 d9bb f51c a33d 598c 523e 4f5f fcbe
00000290: 34a8 d9bd f670 1dbe b8d6 113c 45c5 c03e
000002a0: 23b2 873e fca7 e9bd 432c 3cbe 4745 773e
000002b0: 764b c4bd 38d1 86be 0031 87bd fec0 8cbd
000002c0: 066c 013e 771b 7c3e 30f0 02be 34ec 7abe
000002d0: d9c2 743c 0786 993d 0353 50be ffee 9a3e
000002e0: 5bd5 b43d abb6 283e 0cb3 9d3d d15d a03e
000002f0: 19f9 3b3e 727e 32bd 1330 833e 3d33 a8bd
00000300: c9d6 6abd ee93 053e a79d afbd e3af d43d
00000310: 0e17 7e3d 27ae d7bc 0d5d 87be 7c5f 3b3e
00000320: 4af3 cebe fb40 cfbd 6448 3d3e 62ba f1be
00000330: 4931 0fbe 1a0e 6c3b 9f48 a5be b75b a93e
00000340: acd2 733e e73b 77be e92d a13d 0ed4 45bd
00000350: f38a 9a3e 196d f53d af05 1b3c b0ce 1abf
00000360: 262b 4cbe 2e0d 6d3e 4668 5f3e 73e4 c4be
00000370: 65f3 fb3c 79b0 0a3d 262a f93c 48b5 4fbe
00000380: be3f 2d3e e068 38be 518c 16be b355 9bbe
00000390: fafe 733e b512 ba3d b5cf b6be 51ee 703e
000003a0: 3f4a 6b3d 11e5 b63c 754e 83be 9e5f 193e
000003b0: 7802 eebd 351f 623e d973 ebbd faab 4b3e
000003c0: 4229 683e e71a c63a 21c1 563e 1f50 c7be
000003d0: 95e7 893e 6d46 3fbe c5b7 6c3e 22f5 0d3e
000003e0: 9fc6 983e ce8d dcbd 7a97 02bd 9d8c ffbd
000003f0: 05f0 10bd dc00 bf3d fa1a ec3b 87fe a83e
-0.016705401 0.16803831 0.13668796 -0.5012348 -0.4733793 -0.45318043 -0.6928691 0.23551029
-0.0044097668 0.10022043 0.20073795 -0.033362433 -0.3690475 -0.53250414 0.061817408 0.045845717
0.26686493 0.31753972 -0.3335103 0.00062730873 0.09058776 -0.47670835 -0.10645349 -0.28987297
0.11536045 -0.09104712 0.08088644 0.23076859 0.1434533 -0.14400122 -0.045914415 0.018442048
0.11440999 -0.19169047 0.020636631 -0.16827825 0.1425029 0.08089909 -0.21797629 -0.3114449
-0.085529745 0.1595621 0.059373412 0.1167654 0.027633779 -0.068570726 0.1943462 0.17582725
0.20703551 0.032424465 0.14985122 0.23458643 0.120648146 0.11070244 -0.12882516 -0.4126516
0.036015347 -0.23616238 -0.25945032 -0.08360688 0.24864928 -0.12683393 0.19763613 -0.4643802
-0.01923533 0.31911567 -0.2288774 -0.06284008 -0.09767971 -0.09504963 0.24148184 -0.16670252
0.014314596 -0.03387232 0.052925717 0.03692059 -0.26461798 0.20131782 0.14412674 0.40098417
0.032150373 0.03728829 -0.15417463 0.16401725 -0.021834753 0.27687395 -0.25796092 -0.20575404
0.095437594 0.07285503 -0.12313669 -0.26626483 0.2671706 0.21308033 0.25338876 -0.23503819
-0.11185643 0.06737322 0.00827204 0.37704727 -0.16149738 0.033120487 0.26424977 -0.080764286
-0.12442459 -0.24888626 -0.12552865 -0.0844153 -0.31101453 0.09926589 0.27119404 0.25190553
-0.058652405 -0.07333024 0.24579056 0.24104902 -0.03555204 0.06274541 0.24983484 -0.3456338
0.15146382 -0.01365106 -0.15166482 -0.16231517 0.15787688 -0.09777057 -0.016878983 0.3837889
0.2221777 -0.20334826 -0.23737615 -0.32996103 0.010241784 -0.11985557 0.17296748 0.46313623
-0.23563989 -0.0031489027 0.19385527 -0.26080737 -0.16484518 0.14565912 0.15638621 0.23966089
0.014714395 -0.23131394 -0.11105354 -0.09143747 0.105086185 -0.090958394 0.20400912 0.062378407
-0.19835651 0.32545403 -0.17094839 0.3190521 0.08948877 -0.08507287 0.011551509 0.07637698
-0.006643613 0.079645075 0.20561351 -0.49291465 -0.10627785 -0.15375122 0.008901291 0.37650505
0.26503095 -0.114089936 -0.1837626 0.24147521 -0.095847055 -0.26331496 -0.06601143 -0.06872748
0.12638864 0.24619852 -0.12786937 -0.24504167 0.014939033 0.07496267 -0.20344166 0.30260465
0.08829757 0.16475932 0.07700166 0.31321576 0.18356742 -0.04357762 0.25622615 -0.08212898
-0.05733374 0.13044712 -0.08574992 0.1038511 0.062033705 -0.02632816 -0.2643818 0.18298143
-0.4041999 -0.10119816 0.18484646 -0.4721251 -0.13983645 0.0036019147 -0.32281968 0.33077785
0.23810834 -0.24143945 0.07870085 -0.048297934 0.30184135 0.11983699 0.009461804 -0.6047163
-0.19938335 0.23149559 0.21817121 -0.38455543 0.030755708 0.033859704 0.030415606 -0.20283997
0.16918847 -0.18008757 -0.14701964 -0.3033882 0.23827735 0.09085599 -0.35705343 0.2352841
0.057443853 0.022326024 -0.25645795 0.14977881 -0.116215646 0.22082217 -0.114967056 0.19889823
0.22671989 0.0015114219 0.2097211 -0.38928315 0.26934496 -0.18679209 0.23116978 0.13863042
0.29839036 -0.107692346 -0.03188274 -0.12477992 -0.03538515 0.09326336 0.0072053643 0.3300669

conv2.bias f4 [64]
00000000: 6b65 16bd 4011 5a3c 7108 01bc 56b4 e5b9
00000010: d760 3c3c ca87 51bc 8cbe 4dbc 47cb 1abc
00000020: 0916 c3bc a9e7 eb3c 63a1 6fbc 668c dabc
00000030: aa58 bdbc 6471 873d c6fe 77bc 939e f6bc
00000040: 9aea 04bc c133 ec3c c66c ba3b 6dbc ddbb
00000050: 0000 0000 db99 00bc f3cf 2fbc fe5d 8b3c
00000060: fdd6 eb3c c7eb 4cbd 226f fdbc 566e 9ebc
00000070: 270a 89bc cfca c53c fa26 7bbc 0ebb 673b
00000080: 079f d8bc a4f5 c93b 050d 2b3b 4213 03bd
00000090: 68a0 14bd a53c 18bd f2f3 da3c 8398 413c
000000a0: 5709 01bd 515d 87bc 3680 8fbb f68f a4b4
000000b0: 9f62 133d 13bf dbbc 8036 b6bb 1e36 85bc
000000c0: 4272 e1bb 5152 05bd a5ce b33c 06b5 26bd
000000d0: 4a24 b6bb fd3b 6fbc ae32 91bb ab3f 13bc
000000e0: 00c1 bb3c 9cbd cd3c 8bde d43c cc8d 003d
000000f0: 44c3 8abc 0000 0000 61fc 00bd a361 bbbc
-0.036717813 0.013309777 -0.007875548 -0.00043812644 0.011497698 -0.012788722 -0.012557637 -0.009447879
-0.023814218 0.028796988 -0.01462588 -0.026678275 -0.023113567 0.066134244 -0.015136426 -0.030104911
-0.008112574 0.028833272 0.0056892363 -0.006766847 0.0 -0.007849182 -0.010730731 0.017012592
0.028789038 -0.050029542 -0.030936781 -0.019339722 -0.016728474 0.024144558 -0.015329117 0.0035359296
-0.026443018 0.006163316 0.002610029 -0.032000788 -0.036285788 -0.03716721 0.02672765 0.011816147
-0.031503048 -0.016523989 -0.0043792976 -3.0652126e-07 0.035982724 -0.02682451 -0.005560696 -0.016261157
-0.0068800757 -0.032549206 0.021949122 -0.04069998 -0.005558525 -0.014601705 -0.0044310903 -0.008987348
0.022919178 0.025114827 0.025985023 0.031385228 -0.016938813 0.0 -0.031490687 -0.022873705

conv2.lin.weight f4 [64, 64]
00000000: c9ae 883e 1d43 5d3b 5f06 42be bf6c 04be
00000010: 1b13 f63c 47b6 e8bd 86ec 223d a92e 98bd
00000020: 9343 33bd 959d b03d 5a19 603e 8c78 e0bc
00000030: 00d4 3ebe d4bd 5a3d 5b96 9a3d fc9a 97be
00000040: 408f 833e 786c 16be fd9c 1cbe 9e07 e2bc
00000050: 5e89 d73d 02bc 913e 6b8f 14be c6b6 f4bc
00000060: 2791 fbbc e97b 0a3e 805a 73bc 1926 5a3e
00000070: 4c8b aabd 02c8 d3bd 34b3 c7be 7975 c2bd
00000080: 14e3 6b3d ad41 a73d 1edd 83bd cd3e 163e
00000090: f757 2d3e 64cc 81bd bcc6 a63c 839a 173e
000000a0: 4c57 1e3d 7df6 eebd 53b3 a8be 172e 283e
000000b0: b305 b3bd e590 08be eab0 a1bc 563e 83be
000000c0: a68a 5fbd e100 063e 101d e3bd be57 753e
000000d0: c764 513d 8acc bebb cd0a ee3d 49ed 103e
000000e0: cfdb 49bc 859d 4bbe 2b39 29bd df77 43bb
000000f0: c586 8bbe 2a9a 02bd 77bb 1ebd bdd8 1abd
00000100: a81f 79bc 6a7e a4bd 4d5a 2bbe 3ba4 093e
00000110: c6e4 223e 2bb5 6f3e f0a0 693e fd71 73bd
00000120: 5d00 b13d 5ce1 a93b 8fb8 f5bd 4fcb 46bd
00000130: 70fb e33d 4ac6 3cbe ee31 19be 6904 d5bc
00000140: f535 ccbd 9da7 f6bb 64e6 b3bd dc6c cd3d
00000150: b064 003e 5d7a e03b f7d8 63be baa0 1dbe
00000160: 919b 2ebe 6707 243e 3645 c23d 0637 bb3b
00000170: 6afe 37be 002f 97be 213a 233d e783 433d
00000180: 48ca 9dbc 01db aa3c c65d 70be ec08 acbd
00000190: 05de 8bbd b819 ea3c 1278 2f3e 39ad 09be
000001a0: d7f3 7fbd 0e99 a03d 159f 2d3e cee0 e43d
000001b0: a88e c6bc 658d 7c3e 1248 5c3e dd27 05be
000001c0: 8998 903d c439 993e ff3f 54be 57d9 1ebd
000001d0: c891 36be c6c9 24be 4dc2 1abe e9a5 4dbe
000001e0: 4dcd 0cbe 67a0 593d ccfd 203e 0deb 503e
000001f0: c525 1bbd 7166 4b3d 1f26 f8bd 63e6 9dbd
00000200: 57fb 2f3e c50d 493e 6a51 7f3d 3a15 65be
00000210: 0fbd 413b 2033 3ebe 0b07 0a3d a1b0 55be
00000220: 9caa 013e 0dfd 58bc 22a8 64bc 7d39 37bd
00000230: 9f6b a8bc 1a4d 963c 6ffa 12be 626c 403e
00000240: 3ef1 d5bd 7d11 683c 2a07 143e 57d3 2ebe
00000250: eaaf 1dbe 5837 b2bd 6f1b 5e3e 6ac7 36be
00000260: fb52 61bd e922 23be 372e 223e f9d1 21be
00000270: f917 c1bb 30f2 9b3d 83ce 15be 0348 48be
00000280: 1f8d 1f3e cac5 213c 0823 a73e ff0c ad3d
00000290: e835 cb3d 27d0 ac3d 5ed1 95bd 19b0 9a3c
000002a0: edd4 303e 1284 45be ce2b 453d 5ee8 8cbd
000002b0: 6bfd 523e 67ac 3bbd 25e3 27be edf4 323e
000002c0: e416 643e 5ff8 4bbe a987 aa3c c5d2 0a3d
000002d0: 0d3d 473e fde5 d93d 7de6 ac3d e329 6bbb
000002e0: 265d 983d ddbe 263e 17b0 f63d c540 1fbd
000002f0: 318c 35be 5cb4 313e d0ba a5bd 4799 0fbe
00000300: b200 363e 9834 8bbe 2454 16be 0401 4d3e
00000310: a79e 5b3e 9b71 933d e4e6 94bd a6ad b43d
00000320: 12bd 0cbe 896d 21be 20fc 183d 1be3 43be
00000330: 858c c4bd 3f6e f3bd 23b8 a43c 55e9 7fbd
00000340: b102 3a3e 8bb1 813c a1ba 1ebd d0ff d1bd
00000350: bd5e 663e dad5 e43c bcf9 e23d 9835 67be
00000360: d419 35bd 4257 6dbd c0e5 9abd 9075 553e
00000370: 5169 343e a143 ee3a 9c3f f43d 4da0 83bd
00000380: ffae fcbd 6e84 1bbe 3aca 153e 7bf5 2f3e
00000390: 5eec 4b3e bd7e 1a3e fef3 643e dd0d 3d3e
000003a0: f39d ccbd 0dd3 583e 2233 113e d4ae a8bd
000003b0: 32d2 573e 6cd3 4e3e ed5d b9bd 0d64 ccbc
000003c0: e2da 1d3e 73e2 403e fd92 323d 0c1a 823a
000003d0: cec0 f13c 01ec 14bd adf6 753e 5a4d 4f3e
000003e0: ba4e 2abd 49b3 4e3e 4b1b eb3d 3ec5 8d3e
000003f0: d37b 253e 6751 7ebd 482b 8cbd bf6f 6a3e
0.2669585 0.0033761926 -0.18947743 -0.12932108 0.030038407 -0.11362892 0.039776348 -0.07430775
-0.043765616 0.086238064 0.21884671 -0.027401231 -0.18635559 0.05340369 0.07548209 -0.2961043
0.2569523 -0.14689815 -0.15294261 -0.027591523 0.105242476 0.2846375 -0.14507835 -0.02987231
-0.030708862 0.1352383 -0.01485312 0.21303596 -0.0832735 -0.10340883 -0.3900391 -0.094950624
0.057589605 0.081668235 -0.06438659 0.14672394 0.16928087 -0.063378125 0.020358436 0.14805035
0.03865747 -0.11668108 -0.32949314 0.16423832 -0.087413214 -0.13336523 -0.01973768 -0.25633496
-0.054575585 0.13086273 -0.110895276 0.23959252 0.0511215 -0.005822723 0.11623154 0.14153017
-0.012320473 -0.19884308 -0.041314285 -0.0029826087 -0.27251258 -0.031885304 -0.038753 -0.037804354
-0.015205301 -0.08031924 -0.16733666 0.13441555 0.15907583 0.23408954 0.22815299 -0.05943488
0.086426474 0.0051843356 -0.119980924 -0.048533734 0.11131942 -0.18435016 -0.14960453 -0.02600308
-0.09971229 -0.0075273053 -0.08784178 0.10030529 0.12538409 0.0068505243 -0.22250734 -0.15393344
-0.17051531 0.16018449 0.09485857 0.0057133464 -0.17968145 -0.29528046 0.039850358 0.047733214
-0.019261494 0.020856382 -0.23473272 -0.08400139 -0.06829456 0.028576717 0.17135647 -0.13444985
-0.062488403 0.07841693 0.16955216 0.111756906 -0.024237946 0.24663313 0.21511868 -0.13003488
0.07060344 0.29926884 -0.20727538 -0.03878149 -0.17829049 -0.16092595 -0.15113182 -0.20082821
-0.13750191 0.053131487 0.15721816 0.20402165 -0.037877817 0.049658243 -0.12116646 -0.077099584
0.17185722 0.19634159 0.062333502 -0.22371379 0.002956215 -0.1857419 0.033698123 -0.2086816
0.12662739 -0.013243926 -0.013956102 -0.04473256 -0.02055913 0.018347312 -0.14353345 0.18791345
-0.10446404 0.014164326 0.14455858 -0.17072807 -0.15399137 -0.08701962 0.21690153 -0.17849508
-0.055010777 -0.15931286 0.15837942 -0.15802754 -0.0058927503 0.07614553 -0.14629559 -0.1955872
0.15581177 0.009873817 0.32643914 0.084497444 0.09922391 0.084381394 -0.07315324 0.018882798
0.17268725 -0.19288662 0.04813748 -0.06880258 0.20604484 -0.045818713 -0.16395243 0.17476244
0.22274357 -0.19918965 0.02081664 0.03389241 0.19456883 0.1063957 0.084424 -0.003588312
0.07439642 0.16283746 0.12045305 -0.03888013 -0.1772926 0.17353958 -0.08092272 -0.14023314
0.17773703 -0.27188563 -0.14680535 0.20019919 0.2144724 0.07199403 -0.072706014 0.08822183
-0.13744 -0.1576444 0.03734982 -0.19129603 -0.095971145 -0.11886262 0.020107334 -0.062478382
0.18165089 0.01583173 -0.038752202 -0.102538705 0.22497077 0.027934004 0.11082789 -0.22579038
-0.044214085 -0.057944544 -0.075633526 0.20845628 0.176183 0.0018178114 0.11926195 -0.06427059
-0.12338065 -0.15187237 0.14627925 0.17183487 0.19914386 0.1508741 0.223587 0.1846232
-0.09991064 0.2117426 0.14179662 -0.08236471 0.21076277 0.20197839 -0.09051118 -0.024950052
0.15415528 0.18836384 0.04359721 0.0009925975 0.029510882 -0.036357883 0.2401988 0.20244351
-0.041578986 0.2018558 0.11479815 0.27689546 0.16160516 -0.06208935 -0.06844193 0.2289419

conv3.bias f4 [64]
00000000: 2c23 9e3c 7b83 163d 7a30 40bc 6462 48bc
00000010: 63bf d93b 9c1a 033c d674 41bd c345 0dbd
00000020: de2c be3c 5003 1e3d 4a4c e0bc 28c5 bb3c
00000030: dff0 bcbc 5006 36bc e8fd ec3c 4163 09bd
00000040: 79f3 36bd 1681 71bc 5b23 ffbc f726 e23c
00000050: 993e 1ebc 05b7 36bc 72b8 653c a9bb 7abb
00000060: 75e3 e83c e273 9abc b08c b93c 5c86 0abd
00000070: 0fa9 95bc 1a22 f03b ab4f 103d ce0d 10bd
00000080: 6391 13bc aae2 1fbd af0b 0ebd 51df 90bc
00000090: 82a6 c23c 7a94 613c 31a3 3f3b f6f7 a539
000000a0: 1f2c f83c c59d 63bc bb86 f43c e7a0 e93c
000000b0: 222c 8e3c c508 003d 3141 303b a14c 0bbd
000000c0: eac4 50bc 298b c1bc 4413 0dbd 2321 273c
000000d0: 7e91 9abb f8f0 22bc 56e0 033d aac1 17bd
000000e0: 9798 d43c eedf 9e3b 4a29 64bc dce0 063c
000000f0: feef 2b3d 658d a9bc f738 b93c d761 46bd
0.01930388 0.036746483 -0.011730308 -0.012230489 0.0066451295 0.00800195 -0.047230564 -0.034490358
0.023214754 0.038577378 -0.027380127 0.02292116 -0.023064075 -0.011109903 0.028929666 -0.03354192
-0.044665787 -0.014740249 -0.031144788 0.02760647 -0.009658479 -0.011152034 0.014021026 -0.0038258827
0.028428772 -0.018854085 0.022650093 -0.03381954 -0.01826909 0.007328284 0.035232227 -0.035169415
-0.009006831 -0.039034523 -0.03467911 -0.01768461 0.023761038 0.01376831 0.0029241557 0.00031655998
0.030294476 -0.013892596 0.0298494 0.028519107 0.017355029 0.031258363 0.0026894326 -0.034008626
-0.0127422605 -0.023625927 -0.0344422 0.0102007715 -0.004717051 -0.009945147 0.032196365 -0.037049927
0.025951667 0.004848472 -0.01392586 0.008232322 0.04197692 -0.020697305 0.02261017 -0.04843315

conv3.lin.weight f4 [64, 64]
00000000: 428f 12be 0426 94be c676 1dbe 6410 eb3d
00000010: b3f7 11be 13b1 88bb e9f9 ffbd 1007 f0bc
00000020: 73ee a03d 52ae e7bd 30ef 633c 3f2a f9bc
00000030: 80d0 8abd a197 2d3d 1080 64bc c2d8 f4bd
00000040: 3ae3 d1bc 62fd 4dbd aed4 a1ba 9c89 c83c
00000050: 66b1 bb3d 4c24 72bd a8e0 51be 7be4 503e
00000060: a662 193e 9a06 67be fafd c2bd 5a20 e53c
00000070: c9b0 573b fc79 27bd 5652 623b eb5b 9abd
00000080: cc82 88bd ae50 063e c5df 5f3d 3440 923d
00000090: 4244 1ebe dbf6 103d 560f d1bd 08b0 473e
000000a0: 2e9a 48be 1485 753e 8adb 4a3e 87c7 2dbd
000000b0: bd89 9abd 4c0a e5bd 5f58 933d 5408 d43d
000000c0: 1cb4 f3bd d407 6d3d fa32 7d3d 6e21 ed3d
000000d0: 8933 bfbd 3df9 c33d a5a9 5cbd ceb8 9b3d
000000e0: 7f3a e93c e54d 073e 4f8f 8fbd ea7a 71be
000000f0: 7944 133e 2c20 333d b8ad 303d 88e7 0fbe
00000100: c1b0 033e d088 8d3e c365 203e e82f f03c
00000110: 0d80 4e3e 4ec1 3cbc 95b1 273e 7a50 4f3e
00000120: 5921 333e b0c5 013e 6733 913d b58f 8c3e
00000130: 6d60 1abe 65ca d6bd 1809 033c b58c 2dbe
00000140: f7ca a3bd 1e18 0ebe 5258 16be 2c89 2bbd
00000150: 8320 403e 02f0 db3d a062 2cbe 05db 373e
00000160: b244 373e 7fcc 053e 1333 20be 00c3 0fbc
00000170: f44c 2ebe 77d7 403e 6740 a13d 51b8 1b3e
00000180: d37c 4cbe 7cbc 933e 3066 42be d2bd 19be
00000190: 7000 a13d 999d 193d 06ad 4dbc 95f7 db3d
000001a0: 1557 0d3e ffa1 84be 852f 243e e894 12bd
000001b0: 2a3d df3d a4b0 133c 47f8 5c3e 207a 0ebe
000001c0: 61fd 52be 3417 b63c 9259 5d3e 3ad4 1f3e
000001d0: 4050 e63c fb8f a23d 20dc f3bd 512d 4abe
000001e0: 17e6 e73c c35e c03e 0283 98bd 22b1 fa3d
000001f0: ba57 be3e f8ce a13c e209 823e 72f4 f13d
00000200: 9cab a7bd 7ee5 583e 6a11 c93d 5bc0 8bbd
00000210: 7139 2f3e d3fb 5c3d e2e6 cd3a 4404 1cbe
00000220: 2c16 0f3e 891f 393d ffce 5ebd c54e cbbd
00000230: 434a 6c3b 978b 373c c318 40bd 2f00 28bd
00000240: c07f 6c3e a1d8 a23e ec60 5bbe 942c 0a3e
00000250: ed12 1e3e d6b5 dabd c17c 433e 531d 63bb
00000260: 93bc 163e a11d 0fbe 4402 603e ddd5 de3c
00000270: 6e7e 07be 95ff 163e 53f4 1fbc d2ee 5a3e
00000280: de9f 3f3e 9094 3bbe 0ba9 193e 25b1 1d3e
00000290: 5f05 f43d 043a bcbd 11a0 f13d 9dff 893d
000002a0: 9bf8 e5bd a0d5 b63e c124 69be 3dd6 c13d
000002b0: 706e 6cbd 6015 adbc f7fd 133d dae4 f13d
000002c0: fe1f ab3d c76f 873d d4d0 72be fb3c 433e
000002d0: b793 33be 9aea 4fbd d5eb 31be 92de 9d3d
000002e0: 1231 76be fb48 91bc e45a d3bd 571f f23d
000002f0: a6de 71bd c88e 25be 8b3e c83d 0014 b13d
00000300: 4cbc 12bf 99de eebd 961c b3bc 00d9 4cbe
00000310: a683 563b 2e5b dbbc 2508 ac3d a74a f13d
00000320: 0ad9 8d3c 8dcb 11bc 6dc6 953d e2c9 57be
00000330: 9e9e 233d ac13 053e ff19 0f3e 2211 6cbb
00000340: 5058 833c c53b 953e a625 5cbc 00c4 1abe
00000350: 3343 4a3e cbfa cabd d9d4 973c f883 043e
00000360: 4ac1 57be 5a1c 27be bac8 4dbe de90 b53d
00000370: fcc6 bcbc 6337 03be 1708 d6bd 748e 77bd
00000380: 4618 48bd 16a6 6f3d ca8d 7d3c 160d 2c3b
00000390: e41b b33d 90b6 37be f4dc 9bbe e260 89ba
000003a0: 7c6f 2f3e 12e8 b23e 2e0c 06bd 69a6 3fbe
000003b0: 5457 c63d 280d cd3d 76ef 2bbc dbd7 423e
000003c0: 22ee 38bd 0f12 c0bd f10b 0cbd e143 e8bd
000003d0: 8fb7 3d3e a353 473c 84d3 bd3d 232f 533e
000003e0: 3257 b13d 8530 a0bd e31c 9fbd 53de bbbe
000003f0: d14d 5fbe 7012 a3bc c88e 0d3e 0f0c 19be
-0.14312461 -0.28935254 -0.1537734 0.11477736 -0.14254646 -0.0041714995 -0.124988385 -0.029300243
0.078579806 -0.11312546 0.013912007 -0.030415652 -0.067780495 0.042380933 -0.013946548 -0.11955406
-0.025621045 -0.050290473 -0.0012346709 0.02447968 0.091646954 -0.059116647 -0.20495856 0.20399658
0.14979038 -0.22561112 -0.095210984 0.027969528 0.0032911769 -0.040887818 0.003453394 -0.07537063
-0.066655725 0.13116714 0.054656763 0.07141152 -0.15455726 0.03539167 -0.10208003 0.19500744
-0.19590065 0.23976547 0.1981031 -0.042426612 -0.07545803 -0.111836046 0.0719459 0.10353151
-0.118995875 0.057868794 0.061816193 0.11578642 -0.093360014 0.09569023 -0.053872723 0.07603608
0.028470276 0.13213308 -0.07009756 -0.23582044 0.14381589 0.043731853 0.04313442 -0.14053166
0.12860395 0.27643442 0.15663819 0.029319718 0.20166035 -0.011520697 0.16376336 0.20245543
0.1749319 0.12673068 0.07089882 0.2745339 -0.15075846 -0.104878224 0.007997774 -0.16948207
-0.07997697 -0.13876387 -0.14682129 -0.041878864 0.18762402 0.10739137 -0.16834497 0.17954643
0.17897299 0.1306629 -0.15644483 -0.008774519 -0.17021543 0.18832193 0.07873612 0.1520703
-0.19969492 0.2885474 -0.18984294 -0.15013817 0.078614116 0.037503812 -0.012553459 0.10740582
0.1380275 -0.25904843 0.16033752 -0.03578654 0.10900338 0.009014282 0.21579085 -0.13913774
-0.20604469 0.022227861 0.216162 0.15608302 0.028114438 0.07937618 -0.1190722 -0.1974385
0.028307958 0.37572297 -0.07446863 0.12240817 0.37176305 0.01975201 0.25398165 0.11814202
-0.08187029 0.21181294 0.098177746 -0.06823798 0.17111756 0.053951096 0.0015709067 -0.15236002
0.13973302 0.04519609 -0.054396626 -0.099271335 0.0036055006 0.011202714 -0.046898615 -0.0410158
0.23095608 0.318059 -0.21423692 0.13493568 0.15436907 -0.10679214 0.19090559 -0.003465493
0.14720373 -0.13976146 0.21875864 0.027201587 -0.13231823 0.14745934 -0.009762841 0.21380165
0.18713328 -0.18318391 0.15005891 0.15399607 0.11915087 -0.09190753 0.11798108 0.067382075
-0.11229058 0.35709858 -0.22767927 0.09464691 -0.05772251 -0.021128356 0.03613087 0.11811228
0.083557114 0.06613117 -0.23712474 0.19066231 -0.17536817 -0.050760843 -0.17375119 0.077084675
-0.24042156 -0.017734995 -0.103200704 0.11822384 -0.059050225 -0.16167748 0.09777554 0.08646393
-0.5731857 -0.11663551 -0.021864217 -0.20004654 0.0032732277 -0.026776876 0.08399991 0.11781817
0.017315406 -0.008898628 0.07313237 -0.21073106 0.03994619 0.12995785 0.1397476 -0.0036020954
0.016033322 0.29147163 -0.01343671 -0.1511383 0.19752197 -0.09911116 0.01853411 0.12940967
-0.21069828 -0.16319409 -0.20096102 0.08865522 -0.023044102 -0.12814097 -0.10450762 -0.06043859
-0.048851274 0.058508 0.0154757 0.0026252917 0.08745554 -0.17940736 -0.3044201 -0.0010481144
0.17132372 0.3494268 -0.03272646 -0.18715824 0.09684625 0.10012275 -0.010494104 0.19027655
-0.045148976 -0.093784444 -0.034191076 -0.11341072 0.18527053 0.012165937 0.09268859 0.2062345
0.08659209 -0.07821754 -0.077691816 -0.36693057 -0.21807028 -0.019906253 0.13823998 -0.14946006

fc1.weight f4 [256, 64]
00000000: 18aa e7bc b980 a5bd 05c4 eb3c 01bf 3dbb
00000010: 56a8 873d 0064 fc3c d87b d8bd c597 1fbe
00000020: 42db 9ebd 9abb 00bb a818 7bbd 7866 193e
00000030: 2407 3c3c 9a08 77bd 8fd2 cbbc f9cd 3abe
00000040: ec8f 90bc 7cde 8dbd 7500 b8bd 6a7c 46bc
00000050: 35c6 a33d c402 c7bc 18f9 f43b e23e f1bd
00000060: e96e fcbc ab92 33be dbb8 07bd dee1 12be
00000070: 39f9 37be e8a8 7b3c e064 d9bd 61a4 d13d
00000080: 0208 8abd e28e 43bd 9ec8 cdbb c544 f23d
00000090: 0131 d63d dc5e 70bd 71d4 573d 96a2 e0bd
000000a0: 2ff9 c73d f4ba 353d 84a5 1dbd 8844 003c
000000b0: 971f 19be f0ca 173e 92e3 abbe 5ada adbd
000000c0: f271 6abd d9ab 2dbd 05b5 e6bd 90a1 c03d
000000d0: a421 ddbd 6587 993c 8b81 4fbd 93f9 173d
000000e0: c5c3 6d3d 2a6f f13d 9eda 49be 034b 8cbd
000000f0: 139c 2c3e 0f0c 7abd 37e7 23bc b043 abbd
00000100: 97f4 eb3d 4f28 f93d d626 fcbc 46d4 473a
00000110: c449 fc3d a743 b9bd 14e5 c23c e4eb 08be
00000120: bda6 973c cbdb 913d 9e0f e3bd 1fe5 60bd
00000130: 587d 15be c4fb e33d 5c06 ef3d 8607 743d
00000140: c7ad 1abe edcb e1bc ea52 6ebd 6942 d63d
00000150: ff69 a73d 2377 45bd 6ff4 93bd 8bd7 983d
00000160: fa93 9dbc 05e4 c93d 6bd8 233e dfbc 3ebd
00000170: 3244 dabd e3b8 85bc 1fdb 953d 4490 d43d
00000180: 16e5 81bd e995 f4bd 3202 f3bd 47be a83b
00000190: 5a1b 063e 8794 cd3d 5177 103e 712e 053d
000001a0: 2168 823d 653e 203d 7451 543d f026 c73d
000001b0: aec5 c9bd 6cf0 9fbb bd3d d23d 1be8 40bc
000001c0: 3774 07bd 69c8 08be 7131 be3c 959d f33c
000001d0: 3d00 803d de62 e2bd 74a0 02bd 151e d9bc
000001e0: 76d9 993d 392c 1c3d 387a 4fbd f16a 1dbd
000001f0: 523e 10bd 8f3f ddbd 22ef 9fbb 5275 843d
00000200: 4936 8cbd cc70 f43d b377 efbd 5ca7 d83a
00000210: 1ee6 203e 7337 343e 7ac5 e83c f701 48be
00000220: 138d c23d d6de fd3d 0806 22be 2a52 a0bd
00000230: 3142 92bd 5561 c8ba 176f 2b3e 9f1a 473d
00000240: 7866 503d 5911 173d 98f7 00bc 54b3 153e
00000250: 6980 9a3d 4ea0 90bd e87e be3d e0c6 06be
00000260: abc6 193e 2ee8 88bd 8d48 463d f815 01be
00000270: 7bee 21be 213a 103e 5adc acbd 3d26 683d
00000280: f849 cb3c a5ce db3b d173 fbbd 7f2e 133e
00000290: 9c85 af3d 2f15 2dbd 7821 ba3a d135 e4bd
000002a0: 6d69 3f3d bfc5 12be 0223 c43b d264 0b3e
000002b0: 9772 973d 2ea8 0c3e 123d 13be 2f58 813d
000002c0: 4f62 263d d2d0 a63d 4784 2fbd 96b7 d53c
000002d0: ef9a bfbd 6cb5 863d 5753 ff3d 771f 37bc
000002e0: 2c33 a33d c850 f93c 07bf a6bb 64cd 0bbd
000002f0: e293 a73d ab68 0d3c 901c 763d 6050 debd
00000300: d1d0 ef3d 49c9 41bc 13b8 2fbe 5ff7 b53d
00000310: ff69 aa3d 5671 683d cf22 193c 3297 15be
00000320: 0d64 f13c c9e7 4c3d 4407 993d dd81 ff3d
00000330: 7665 9cbd 283e b93d fff8 793d d7c2 933e
00000340: 74dd 27bd 7bf0 55bd 596a 1cbe b70f a03d
00000350: b439 063e 3af7 0d3d 18a0 293c 9e8e 8e3d
00000360: 09ab 893d f218 c73c 5b67 343e 4491 13be
00000370: ff85 953d 89f1 6b3d a358 2f3a d7c6 16be
00000380: 0dd3 bbb8 fff2 d5bd 5292 da3c 3176 603d
00000390: 820d 883d e683 18bd a820 dc3c 08b0 aa3d
000003a0: 31da 29bc 76fb 95bd 572c f53c 8ab3 e83d
000003b0: 8e40 be3d 32aa a03d bd78 623e a22c 61be
000003c0: d961 e2bd cb17 a23d 411c ab3d 88c6 aa3d
000003d0: e173 553d 762f 6cbd 11c1 42bd 68ea e5bd
000003e0: 8f43 4f3d 87b0 233e 1ece 3ebd aaec 80be
000003f0: f7dd 0cbd f805 bfbd f121 ea3d b2bf afbd
-0.02827935 -0.080811925 0.028779993 -0.0028952959 0.066239044 0.030809402 -0.10570496 -0.15585239
-0.07756664 -0.001964307 -0.06130281 0.14980495 0.011476312 -0.060310937 -0.024880676 -0.18242635
-0.017646752 -0.06927201 -0.08984462 -0.012114624 0.07996789 -0.024293311 0.0074759834 -0.11779572
-0.030814605 -0.17536418 -0.033135276 -0.14343974 -0.17966165 0.015360095 -0.106149435 0.10236431
-0.067398086 -0.047743686 -0.006280019 0.11829523 0.104585655 -0.058684215 0.052692834 -0.10968511
0.09764325 0.044367746 -0.038487926 0.007828839 -0.14953457 0.14823508 -0.3357206 -0.08488913
-0.057237573 -0.042400215 -0.112649955 0.094058156 -0.10797432 0.018741319 -0.05066065 0.037103247
0.05804803 0.11788781 -0.19712302 -0.06850245 0.16856413 -0.061046656 -0.010003856 -0.0836252
0.11521261 0.121658914 -0.030780237 0.0007622879 0.12318757 -0.09046107 0.023790874 -0.13371235
0.018512124 0.07122 -0.11086963 -0.054906007 -0.14598596 0.11132005 0.11671135 0.059577487
-0.15105353 -0.02756306 -0.05818454 0.104618855 0.08174514 -0.04820932 -0.072243564 0.074629866
-0.0192356 0.098579444 0.16000526 -0.04656684 -0.106575385 -0.016323512 0.07317185 0.10379079
-0.06342523 -0.119426556 -0.11865653 0.005149636 0.13096371 0.10038095 0.14108016 0.032514993
0.06367517 0.039122004 0.051835492 0.097242236 -0.098521575 -0.0048809554 0.10265682 -0.011774088
-0.033069815 -0.133577 0.023216935 0.029738227 0.062500454 -0.11054014 -0.0318913 -0.026503602
0.075121805 0.03812811 -0.050653666 -0.038432065 -0.035215683 -0.108031385 -0.004880802 0.064676896
-0.068462916 0.11935577 -0.11692753 0.0016529369 0.15712783 0.17599277 0.028414477 -0.19532
0.09499564 0.12396018 -0.15822613 -0.078281716 -0.07141531 -0.0015287796 0.16741596 0.048609372
0.05087897 0.03688178 -0.007871531 0.1461919 0.075440235 -0.07061826 0.09301549 -0.13161802
0.15017192 -0.0668491 0.048409034 -0.12606037 -0.1581363 0.14084674 -0.08440466 0.056677092
0.024815544 0.0067079836 -0.122779496 0.14373206 0.08570406 -0.04225653 0.0014200648 -0.11143077
0.0467314 -0.14333247 0.0059856186 0.13612679 0.07394903 0.1373603 -0.14378765 0.06315648
0.040621098 0.08145298 -0.04285076 0.026088517 -0.09355723 0.06577572 0.12467068 -0.011176935
0.07968745 0.030434027 -0.00508869 -0.034131423 0.08182503 0.008630912 0.060085833 -0.10855174
0.117097504 -0.011827775 -0.17160062 0.08885073 0.083209984 0.05674871 0.009346678 -0.14608458
0.029466653 0.050025735 0.07472089 0.12475941 -0.0763654 0.090450585 0.061028477 0.28859589
-0.04098268 -0.052231293 -0.15274943 0.07815497 0.1310795 0.0346596 0.010353111 0.06960796
0.067220755 0.024303887 0.17617552 -0.14410883 0.07300948 0.057603393 0.0006688928 -0.14724289
-8.956166e-05 -0.104467385 0.0266811 0.054800216 0.066432014 -0.037235163 0.02687104 0.083343565
-0.010366962 -0.07323353 0.02992837 0.11362369 0.092896566 0.07844962 0.2211637 -0.21989682
-0.11053819 0.079146944 0.083549984 0.08338648 0.052112464 -0.05766245 -0.047547404 -0.1122635
0.05060154 0.15985309 -0.046583287 -0.2518056 -0.03439137 -0.0932731 0.11432255 -0.08581485

fc1.bias f4 [256]
00000000: 29bb 98bd 354d 933d 7aad 6c3c 882b 7e3b
00000010: 10d3 ce3d 4a81 b43d de9c 5f3d 66de c5bd
00000020: 538c c43d 0a8b 6dbd f093 d3bd 1a18 94bd
00000030: a2fd dbbd a85a 1abd a01c 7f3d 7997 27be
00000040: 237d c3bd 31de 013e 4590 083d 5deb e93d
00000050: b881 c63d 04e4 d63d 9e1e a23d a0d2 053d
00000060: 3343 63bd e81b c13b 6dc8 c8bc 63ee d53d
00000070: 17f4 523d 6832 dabc 0fe2 b73d 8440 7cbd
00000080: 6738 cebd 58ef c6bd 1455 c63d 84f1 bdbd
00000090: a002 21bd 5d28 1e3d c3e3 ca3d 7e90 ba3d
000000a0: a29c b83b 1fdc 50bd a83a 453b 3186 e33d
000000b0: 794f 4d3d a42e 7cbd 007f e1bd fc0a c23c
000000c0: a71e 103d d583 b23c a602 31bc a9a3 553d
000000d0: d0fe 853d fc19 b33d 1af4 ee3d bb5a c63d
000000e0: 5831 b6bd 2044 c93d 1cbc b2bd d192 ecbd
000000f0: 9c93 e53c 51b2 983c c270 b73d 4e80 f7bd
00000100: dac7 dd3c 0762 3d3d 74d4 993c c840 6c3c
00000110: e465 193e 59a1 953d 8c42 abbd 8406 07be
00000120: a011 c6bd 0c4c 6a3c 96a7 5d3d 21b2 ec3d
00000130: e87b fdbc 07b7 503d 5e6c bd3c 36d4 9e3c
00000140: 1674 07bd 5be4 a73c eed9 13be a689 a43c
00000150: 82f8 0b3d 65e4 8a3d f2eb 6e3d 154d 723d
00000160: a310 3fb8 fc07 4abd 8b88 e23d ecb9 babd
00000170: 3bcc c1bd 6e06 a13d 411d f53d 8ae3 c33d
00000180: 510c 733d e840 ad3d e762 093d e868 83bd
00000190: e90a 693d 0e34 99bd 21d2 17be 06e4 dcbd
000001a0: ee95 33be 9bb6 123d 5c49 873c 61f4 84bb
000001b0: f1a7 0f3d f151 ca3d 4019 f03c ad94 b83d
000001c0: 475a 763d f5e6 143d 89f0 663d 349f 8dbd
000001d0: 78ed eb3d 9f3f 8c3b 358f 6c3d d880 d43d
000001e0: 735c 803c 492b 1d3d edb6 193c 6524 f5bd
000001f0: 5aa0 7cbd df9a 42ba 8796 0a3d 8ebb f3bd
00000200: 694d 043d c894 8f3d 0a9d 923d 1c2d cdbd
00000210: efc1 b33d 6da8 98bd e333 9b3d a112 d3bd
00000220: 1588 2b3c dd1b c0bd 61ae ecbd 3bf2 9b3c
00000230: 7530 e73d c064 d73c 9435 1abe 3306 32be
00000240: 9ffe 81bd c5da e93c c4cd efbd 39c0 67bd
00000250: d369 a83d d14d 923d 1320 d2bd 966d 9b3d
00000260: ba0d e53d 2599 113d 92ff e33d 0c19 3dbd
00000270: e3f1 993d 6807 733d d268 bf3d 5a71 db3c
00000280: 599c 1e3d 2bca 263d 172d c93d 482f 88bd
00000290: 79d8 08be 6f8e 963c 261b b13c b686 8b3d
000002a0: 58d6 08bd 2227 fbbd 7c57 02be 2642 ddbd
000002b0: 2e97 b93d acd0 9a3d 4a1b abbc b426 d5bd
000002c0: bec4 0ebe a97a 9f3d 4029 003e c39b 633d
000002d0: fba9 61bd 42c3 dbbd 7da2 c73d e012 93bd
000002e0: 754c bc3b 07af f23d 0b30 c0bd 2c46 bb3d
000002f0: c5bb b7bd e5be d33c ec7b 27be 4ad6 de3d
00000300: a05f 1bbe b172 1f3d fd57 683d eaa8 89bd
00000310: 2b5e 9fbd 9dfa f63d eedc 033e 9817 cbbd
00000320: 3d49 cf3d aea9 693c 9f42 973d d5e2 b13d
00000330: 4121 e33c 691c 483d 1014 d13c e696 1abd
00000340: 4301 413d 5a53 c6bd 3cc1 bcbd e515 903d
00000350: f554 a5bd d168 ae3d d51b 183e f700 723d
00000360: 1049 57bd 6486 f13d b111 f33d 879d ef3c
00000370: d03c 7a3d 7cfa bd3c 7b1a 523d 1761 e13d
00000380: 7568 ca3c 4004 26be 21e4 a03d fa55 a7bd
00000390: 34ec c53d d3fc c9bd 9322 aa3d ed3e 8d3d
000003a0: fe15 e53d 319b cabd 23ba 753d 11a2 d5bd
000003b0: 1624 f43c 56ca dbbd 3de4 a03d c4e8 403d
000003c0: 590f 2c3d 12b2 9d3c 0294 d9bd 02bd 873c
000003d0: 4445 8d3d 20c7 7f3d bedd b1bd 6e46 cd3c
000003e0: bcc6 d0bd 88c9 973d a4c9 2e3d eace b3bd
000003f0: 840b bb3d 566b 8fbc 3a9d f1bd 9879 dd3d
-0.07457573 0.071924604 0.014445657 0.003878327 0.10098851 0.088137224 0.05459296 -0.0966156
0.09597077 -0.057993926 -0.10330951 -0.072311595 -0.10741736 -0.037684113 0.06228316 -0.16366376
-0.09545352 0.12682416 0.03334071 0.11421845 0.09692711 0.10492709 0.07915996 0.03267157
-0.055484008 0.0058932193 -0.024509633 0.10445859 0.051502313 -0.026635364 0.08978664 -0.061584964
-0.10069352 -0.0971362 0.09684196 -0.09274581 -0.039309144 0.038612712 0.09906723 0.09109591
0.0056339065 -0.050991174 0.0030094776 0.11109579 0.05012462 -0.061567917 -0.110105515 0.023686878
0.035185482 0.021791378 -0.010803854 0.05215803 0.06542742 0.087451905 0.116676524 0.09685274
-0.0889613 0.09827447 -0.08727285 -0.115514405 0.028024487 0.018639715 0.08957054 -0.12085019
0.027072836 0.046236064 0.018778063 0.014419742 0.14980274 0.07306165 -0.08362302 -0.1318608
-0.096713305 0.014300358 0.0541149 0.11557413 -0.030942872 0.0509558 0.023122963 0.0193883
-0.033069693 0.02049463 -0.14438602 0.020085167 0.034172542 0.06781844 0.058330484 0.059155542
-4.5553443e-05 -0.04932402 0.110612 -0.09117493 -0.09462782 0.078625545 0.1196847 0.09564884
0.059337918 0.084596455 0.033541586 -0.06416494 0.05689517 -0.07480632 -0.14826252 -0.107856795
-0.17537662 0.035818677 0.016514473 -0.0040574525 0.03507227 0.0987891 0.029308915 0.09012733
0.06014469 0.03635307 0.056381736 -0.06915131 0.11519903 0.004280045 0.05775376 0.103761375
0.015669083 0.038371358 0.009381992 -0.11969832 -0.06167636 -0.000742359 0.03383496 -0.119010076
0.032300387 0.070108 0.07158859 -0.100183696 0.08777224 -0.07454 0.07578256 -0.103062876
0.010469456 -0.093803145 -0.11556698 0.019036403 0.11288539 0.026293159 -0.15059501 -0.17385177
-0.06347393 0.0285467 -0.117091686 -0.056579802 0.08223309 0.071437486 -0.10260024 0.07589261
0.11184259 0.03554644 0.111327305 -0.046166465 0.07516839 0.059333235 0.09346165 0.026787449
0.038723323 0.040720146 0.09823053 -0.06649643 -0.13363828 0.018378465 0.02161939 0.068128034
-0.03340754 -0.12263323 -0.12728685 -0.108036324 0.09062038 0.07559332 -0.020887036 -0.10407773
-0.13942239 0.077870674 0.12515736 0.055568468 -0.055093747 -0.10730602 0.09747789 -0.071813345
0.005746419 0.1184979 -0.093841635 0.091442436 -0.08971361 0.025847862 -0.16355866 0.10880716
-0.15173197 0.038927738 0.056724537 -0.06721671 -0.07781633 0.120595194 0.12877247 -0.099166095
0.10121391 0.014261646 0.07385754 0.08685843 0.027725818 0.04885522 0.025522262 -0.037741564
0.047120344 -0.09683867 -0.09216544 0.07035426 -0.08072845 0.08516086 0.14854367 0.05908295
-0.052559912 0.11793211 0.11868609 0.02924992 0.06109315 0.02319073 0.051294785 0.110048465
0.024708012 -0.16212559 0.07856012 -0.081706956 0.09664193 -0.098626755 0.08307376 0.06896768
0.11185835 -0.09892882 0.059991967 -0.10431302 0.029802363 -0.10731952 0.07856033 0.047096983
0.042006824 0.01924995 -0.106239334 0.016569618 0.06897977 0.06244576 -0.08684872 0.025057998
-0.101941556 0.07411486 0.04267277 -0.087797 0.09133056 -0.017507236 -0.11797567 0.10814208

fc2.weight f4 [128, 256]
00000000: 3217 c13c 7b38 8abd 5ff0 4b3d 835d 273d
00000010: 587b 5f3d b96c 81bb 97ba f1bc a00a 70bd
00000020: d30e c0bc 78bd 953c 4cba 603d f669 733d
00000030: 40b7 42bb 5c97 17bd 5ce7 1c3d 34fa 5d3d
00000040: 80aa 923a d914 f0bb b872 7a3c 409c 073c
00000050: 69af 5c3d 3aa2 663d 2c30 413d 6f6c 88bd
00000060: 60af dd3b 748f 32bc 4a1f 683d 2d4b b9bc
00000070: 60f3 253c c8d4 14bd 53ce 37bd fe6f 4cbd
00000080: f83f 82bd b468 babc 8202 cdba 6031 343c
00000090: b843 dd3c 84ef 6abd 4633 dbbc aa4f fe3c
000000a0: 121f 4ebd 00c8 7bba c1aa dd3c 0070 a3b9
000000b0: 741f 66bd c6c5 013d 84d5 693d d01c 42bc
000000c0: 38b5 6d3c d008 30bd 16a9 7dbd 400e 323d
000000d0: f601 5bbd 8e6e 6d3d bd5e a83c d5ae 32bd
000000e0: 26c5 5d3d 6862 fcbb 1407 1bbd f2e8 f3bc
000000f0: 18c8 3abd 5373 cabc b692 55bd 3e60 203d
00000100: 9c5d 363d 07c5 a93c e89b c1bc 5349 223d
00000110: 7abd 83bd a826 7d3b eacd 693d 1222 543d
00000120: d296 473d 3844 7dbd 9c32 483d 73f5 26bb
00000130: 7499 2fbd f4b0 83bd ec9d 913c 2351 d4bc
00000140: 9b69 adb8 d995 2dbc 2e08 043d fa3d 01bd
00000150: 38bc c03c 9266 66bd 55b5 893b 5791 e33c
00000160: 285d 9dbc 38f6 79bd cdd1 343d f0d3 3e3c
00000170: 2aa9 663d bf97 3b3d f6a1 1d3d f67d 0abc
00000180: c0bc 32bc 7e34 06bd 97f8 c93b 2098 0c3c
00000190: fe57 abbc 448e 43bd c00f 2ebc f4c3 0e3d
000001a0: 9641 77bd b98c 0b3d a9c8 3fbd abe5 c2bc
000001b0: 0c53 423c ce20 58bc 2033 1dbd a959 2cbd
000001c0: 16b6 0a3d c689 4abd 0839 7dbd 603a 453d
000001d0: 7aca 6fbd 7d04 70bd e292 653c d474 d8bc
000001e0: 18a4 64bd 90e0 fd3c 8eee 203d 9c23 b53c
000001f0: b8d4 543c 84ff 323d 1292 053d f64e 22bd
00000200: 02b2 d63c e830 603d c04c b3bc 082c 32bc
00000210: 0063 c5bc 9e61 28bd 96af 4e3d c906 80bd
00000220: da8c 3ebd ac17 933c d87a 94bc 6cba c43c
00000230: a29b be3c fea3 013c 8f6e 1c3d cf3a b33c
00000240: 3c4b 51bd a344 6dbd 00fe f93b b0fd 74bd
00000250: ca54 7bbd 57ac 1abd 1880 973c 0537 3f3b
00000260: c02b b0bb e75f 0abd a681 683d 5842 8f3c
00000270: 7892 d33c db4d 7abc 58ae 493d 3e85 2c3d
00000280: a934 243c 4032 4e3c e571 3bbd 241f ecbc
00000290: 3c3a 6fbd 6e72 35bc 1a3f 393d ca3c 3d3d
000002a0: f0af 1a3c a6e4 2bbd 449c e7bc f0b4 023d
000002b0: 4236 1ebd 34c4 29bd 58ba 2abc e405 44bd
000002c0: 7cdd 10bd 10cf 7c3c 9abf 73bd 85e5 033d
000002d0: ed62 643d e391 18bc fcd7 613d 20aa d8bc
000002e0: e061 e5bb 03d2 613b e4f8 7dbd 704c 39bd
000002f0: c0f8 1d3c 968a 403d 73a4 ddbc 12c8 063c
00000300: a818 2d3d a774 b3bb b6cf 1e3d 60da 453d
00000310: 704e d63c 5450 6bbd 04e2 fdbc 9a08 233d
00000320: 2e4d 6dbc 67ef 7abd 268b d53b 9d97 85bd
00000330: 8292 543d 87fa 74bc 07c9 83bd 5049 6cbc
00000340: c046 043c 44f9 ec3c 9058 723c 1830 fe3c
00000350: 18ee ea3c adbb d3bc 76da 64bd c096 cfba
00000360: 58c5 b4bc 991c 523d 1bf2 61bd 8539 5a3c
00000370: 6674 1abd 6a30 623d 90a9 9bbb 4a30 4e3d
00000380: 78bf 71bd 5c83 b0bc 84a7 723d c2dd 213d
00000390: 74cc d0bc 2aaa 273d 7446 a6bc c87b ea3c
000003a0: 3b75 54bc 6047 42bc 1d33 debc bedf 683d
000003b0: 221c 3e3d 4ae2 64bd 49fe c33b 187d d63c
000003c0: c3d0 58bc 14e9 0bbd a42f d63c f45d f23c
000003d0: 90e0 42bd c642 2ebd 7014 2dbc 6247 8abb
000003e0: 7efb 3cbd b99a 83bd d0c0 2e3c b003 60bc
000003f0: ec54 263d 8c65 b5bc 587e 20bc 8dad 1ebc
0.02357063 -0.06749054 0.049789783 0.040860664 0.05456099 -0.0039497283 -0.029507918 -0.058603883
-0.023444569 0.018278822 0.054865167 0.059427224 -0.0029711276 -0.037009582 0.03830658 0.05419369
0.0011189729 -0.007326704 0.01528614 0.008276999 0.05387822 0.056307055 0.04716508 -0.06661307
0.006765291 -0.01089846 0.056670465 -0.022618854 0.010128826 -0.036335737 -0.0448745 -0.04991149
-0.06359857 -0.022755004 -0.0015641006 0.0109981 0.02700983 -0.057357326 -0.026757848 0.031043846
-0.0503226 -0.00096046925 0.02705896 -0.0003117323 -0.05618234 0.031682752 0.05708839 -0.01184769
0.014508538 -0.042977154 -0.06192883 0.04347062 -0.053468667 0.05796676 0.020552987 -0.043623764
0.054143094 -0.0077021606 -0.037848547 -0.029774163 -0.04560098 -0.024713194 -0.052141868 0.039154284
0.044522867 0.020723833 -0.023633912 0.03962071 -0.06432624 0.0038627777 0.05708114 0.051790304
0.048727818 -0.061832637 0.04887639 -0.002547589 -0.042870954 -0.064302355 0.017775498 -0.025917595
-8.2689534e-05 -0.0105948085 0.032234363 -0.031553246 0.02352725 -0.056250162 0.0042025247 0.027779264
-0.01920946 -0.061025828 0.044145394 0.0116472095 0.05631367 0.045799013 0.038484536 -0.008452883
-0.010909259 -0.032764904 0.0061636674 0.008581191 -0.020915981 -0.047743097 -0.010623872 0.034854844
-0.060365282 0.03406975 -0.046822224 -0.023791155 0.01186062 -0.013191415 -0.038378835 -0.042077694
0.033865057 -0.049447797 -0.061821967 0.048151374 -0.058542706 -0.05859803 0.01401207 -0.026422895
-0.055820554 0.030990869 0.039290003 0.022111706 0.012990169 0.04370071 0.032610007 -0.039626084
0.026207928 0.05473414 -0.021887183 -0.010874756 -0.024095058 -0.04110872 0.05046042 -0.06251294
-0.046521045 0.017955624 -0.018124983 0.024014674 0.02326757 0.007912634 0.038191374 0.021878628
-0.05109714 -0.057926785 0.007629156 -0.059812248 -0.061360158 -0.037762012 0.018493697 0.0029177081
-0.005376309 -0.033782866 0.056764267 0.01748769 0.025826678 -0.015277351 0.049238533 0.042119257
0.010022321 0.012585223 -0.045762915 -0.028823443 -0.058405146 -0.011074645 0.045226194 0.04620055
0.009441361 -0.041966103 -0.028272755 0.031910837 -0.038625963 -0.04144688 -0.010420404 -0.04785718
-0.035367474 0.015430227 -0.059508897 0.03220131 0.055758405 -0.009312126 0.05513762 -0.02644831
-0.007000193 0.0034457452 -0.06200494 -0.045238912 0.009641826 0.047007166 -0.027055955 0.008226411
0.042259842 -0.0054765525 0.038772307 0.04830396 0.026160449 -0.057449654 -0.030991562 0.039803125
-0.014483733 -0.061263468 0.006516832 -0.065230586 0.051897533 -0.0149523085 -0.06434827 -0.014421776
0.008073509 0.028927453 0.014791623 0.031028792 0.028677985 -0.025846327 -0.055872403 -0.0015837774
-0.022066757 0.051296804 -0.05516253 0.013319378 -0.037708662 0.055221952 -0.004750438 0.05033902
-0.05902049 -0.021547012 0.059241787 0.039518125 -0.025488116 0.040933765 -0.020297267 0.028623477
-0.012967403 -0.011857837 -0.027123982 0.056854002 0.04641355 -0.05587987 0.005981241 0.026182696
-0.013233366 -0.034157827 0.026145764 0.029585816 -0.04757744 -0.04254415 -0.010563955 -0.0042199353
-0.04613828 -0.064259954 0.010666087 -0.013672754 0.04060833 -0.022143148 -0.009795748 -0.009684932

fc2.bias f4 [128]
00000000: 8df6 15bd eaf6 82bd 7f13 ccbc 29b3 833d
00000010: b5af a23d f8c0 25bd bce6 603d 83b2 0e3d
00000020: 30e7 c73d ce3b 61bd a029 2cbb 7a37 0dbd
00000030: d799 2fbd 9340 ee3c 9b8c 223d 637a bfbb
00000040: 632e babc fb9a 8c3d 2317 73bd ef10 2e3b
00000050: d263 98bd 28d7 9b3d e2c0 5b3d ef56 e03b
00000060: d9e8 093d 9a35 00bd fb39 8b3c 8ad2 b83c
00000070: 7fc7 cdbc 3148 14bd ab35 a33b dd2f 38bd
00000080: 239b 2fbd 195c b63d 0696 47bd 61fe 173d
00000090: f71e bcbd 5250 bd3d 20ec 843d c8af eb3d
000000a0: 8dbf 1c3d 931f 0e3b 340d 7c3d 3ca7 0abd
000000b0: ef82 8b3d 05af 813d ab2d 7b3d a8d6 1cbd
000000c0: ce92 a7bd 8824 19bd cf93 ec3c e038 77bd
000000d0: e9cd a93d c7d5 05bd eb74 913d ef70 ea3c
000000e0: 600b 5cbd 5079 27bd 1f00 8b3d c9e1 bf3d
000000f0: d43f 8c3d 2451 abbd 42cc 5ebc ee99 543d
00000100: 6930 843b 7e6c 8d3d c566 5f3b 6ec5 e73c
00000110: 9663 d33a 708b 09bc e9af 8fbd f5b7 8a3b
00000120: 5fd8 81bc e7ee 43bd 85cd dcbc 8501 883d
00000130: 74be a43b d0f2 89bd d660 3dbd fcfa e33c
00000140: 993b e83c fcca 8e3d d616 3c3d 9d19 303d
00000150: 9121 97bb 02a8 45bd dc84 a93d e96d a83d
00000160: 226c 853d 71a7 ccbc c8dc 2bbd dc1c 8dbd
00000170: e02a 15bd 241c 443c 8ce9 ec3c ae9a 59bc
00000180: ad74 e9bc 85ac 963d 8b9b 83bd 90a3 893d
00000190: 4a92 bd3c 357e 88bd a1a3 9d3d fe8c 8a3d
000001a0: ad6a 893d 83fa d53c d126 543d 9cad 15bd
000001b0: b44f 84bb dcdd 1b3c 4fde 013c 5c76 3fbd
000001c0: 40f5 d6ba 2275 62bc cfa8 74bd 4230 5bbd
000001d0: d04c 78bd 7683 7b3c 205c d0bc 02af 9c3d
000001e0: e55c 5abd 5dea a53c ad36 47bd d8cb 73bd
000001f0: b1d3 d93c a0ed 76bc 95ff 043d 2ca4 54bd
-0.036612082 -0.06394751 -0.02491164 0.064306565 0.0794367 -0.040467232 0.054907545 0.03483821
0.097608924 -0.054988675 -0.0026269928 -0.034476735 -0.042871322 0.029083526 0.039684873 -0.005843447
-0.022727197 0.06865498 -0.059348237 0.0026560386 -0.07440914 0.07609397 0.053650744 0.006846301
0.033669326 -0.03130112 0.01699542 0.02256133 -0.025119541 -0.03620166 0.004980763 -0.04496752
-0.04287256 0.08904285 -0.048727058 0.03710783 -0.091855936 0.092438355 0.0649035 0.11508137
0.038268615 0.00216863 0.06153603 -0.033850893 0.06812083 0.063322105 0.06132285 -0.03829065
-0.08182298 -0.037388355 0.028879074 -0.060356975 0.08291227 -0.032674577 0.071023785 0.028618304
-0.053721786 -0.040887177 0.067871325 0.09369237 0.06848112 -0.08365086 -0.013598504 0.05190461
0.0040340913 0.06905459 0.0034088355 0.028292384 0.0016127701 -0.008395061 -0.07015974 0.004233355
-0.015850244 -0.047835257 -0.026953468 0.06640915 0.0050275866 -0.06735766 -0.046234928 0.02782964
0.02834873 0.0697231 0.045920216 0.042993177 -0.0046121557 -0.048255928 0.08277294 0.08224089
0.06514765 -0.024982186 -0.0419586 -0.0689027 -0.036417842 0.0119696 0.028919958 -0.013281507
-0.028498018 0.07357124 -0.06426152 0.0672065 0.023141045 -0.06664697 0.07697225 0.067651734
0.067098 0.02612043 0.05179483 -0.03654252 -0.0040378217 0.009513345 0.007926538 -0.046743736
-0.0016399994 -0.013821872 -0.0597313 -0.05351282 -0.06062013 0.015351167 -0.025434554 0.076505676
-0.053311247 0.020253355 -0.048636127 -0.059520572 0.0265902 -0.015071303 0.032470305 -0.05191438
