data/predictor/PT/201_TNetwork-F_2024-05-15_11-14-29.pt (torch, 271659 bytes, 14 tensors)

conv1.bias f4 [64]
0	0x00000000	0.0
1	0x3cbc3a66	0.022977065
2	0x3c507340	0.01272279
3	0xbbeb5b80	-0.0071825385
4	0x3d9a9953	0.075487755
5	0x3bff0815	0.007782946
6	0xbc9e3be0	-0.01931566
7	0x3b817386	0.003950539
8	0xbcd645ba	-0.026156295
9	0x3ad61531	0.001633322
10	0xbd24d03b	-0.040237647
11	0xbd229c51	-0.039699856
12	0xba6d387c	-0.00090492493
13	0xbc15d7c0	-0.009145677
14	0xbc82b01c	-0.015953116
15	0x3cc12f7c	0.023582213
16	0xbaef6b0f	-0.0018266159
17	0xbc931482	-0.017954115
18	0xbcab01b0	-0.020874828
19	0x3c908c21	0.017644944
20	0xbd1b67b5	-0.0379407
21	0x3d175182	0.036942966
22	0xbd434dc9	-0.047681604
23	0xbc12d847	-0.008962697
24	0x3ca5bddb	0.020232132
25	0xbc9d9d6a	-0.0192401
26	0x3a7d8b19	0.0009671911
27	0xbd1ce935	-0.03830834
28	0x00000000	0.0
29	0xbbf06e9d	-0.007337405
30	0xbc885479	-0.016641842
31	0xbacc383e	-0.0015580726
32	0x3cc887ce	0.02447882
33	0x3cbd2510	0.023088962
34	0xbb609b14	-0.0034272121
35	0x3cc6842f	0.024232952
36	0x3da82e42	0.08211948
37	0x3ca3ef16	0.020011466
38	0xbcf67608	-0.030085579
39	0xbd02ea69	-0.031961832
40	0xbd2357be	-0.0398786
41	0xbb509b3e	-0.0031830813
42	0xbd427ee0	-0.04748428
43	0xbc81ef29	-0.01586111
44	0x39d9360d	0.00041429736
45	0x3ce3a4ed	0.027788604
46	0xbab060e9	-0.0013456616
47	0x3d51d936	0.05123254
48	0x3b2e0714	0.0026554512
49	0xbbb89149	-0.0056325537
50	0x00000000	0.0
51	0xbc522373	-0.012825835
52	0xbc8c09b7	-0.017094476
53	0xbd0215bd	-0.031759012
54	0x3c8b788d	0.017025257
55	0x3d14abaa	0.036296524
56	0x3d450063	0.048096072
57	0xbc995169	-0.018715577
58	0xbd217294	-0.03941591
59	0x3bdd885d	0.0067606405
60	0x3d17249f	0.03690016
61	0xba73ea3c	-0.0009304618
62	0xbbf2d613	-0.0074107735
63	0xbd4d038a	-0.050052203

conv1.lin.weight f4 [64, 4]
0	0xbe4688bb	-0.19388096
1	0xbe0ae99f	-0.13565682
2	0xbe34e2ca	-0.17664638
3	0xbdd3750e	-0.10325061
4	0xbe625259	-0.22101726
5	0xbd89b3ca	-0.06723745
6	0xbe842064	-0.25805962
7	0x3d199da9	0.037503872
8	0x3d7d04b9	0.061772082
9	0xbf1902a4	-0.59769654
10	0x3d2654ae	0.0406081
11	0x3eef3ba1	0.4672518
12	0x3e088a1c	0.13333935
13	0xbe218ad6	-0.15775618
14	0x3e01c01f	0.12670945
15	0xbf0d8d90	-0.5529413
16	0x3e3a9abd	0.1822309
17	0xbe875444	-0.26431477
18	0xbe1e28f3	-0.15445308
19	0x3ef55833	0.47918853
20	0x3e9ac2e6	0.3022682
21	0xbe610c6b	-0.21977393
22	0xbd27b470	-0.040943563
23	0x3ecda3dc	0.40164077
24	0xbea015e2	-0.31266695
25	0x3e87458e	0.26420254
26	0x3e82fa49	0.25581577
27	0xbd33a67a	-0.043859936
28	0xbe2403ea	-0.16017118
29	0xbd0d9624	-0.034567013
30	0x3dce4f7d	0.10073755
31	0xbedafe4c	-0.42772138
32	0x3e7b790e	0.24557897
33	0x3dcb1e43	0.09917881
34	0x3e3d1ddf	0.18468426
35	0xbf0e096f	-0.55483145
36	0x3e8b4a37	0.2720506
37	0x3d13e5c5	0.036107797
38	0xbd6b98c1	-0.057518724
39	0x3f267feb	0.6503894
40	0xbb7106ff	-0.0036777852
41	0xbf20c3ac	-0.6279857
42	0x3dfefc3a	0.12450452
43	0x3f03192a	0.5121027
44	0xbe8ccafa	-0.2749861
45	0x3da9d695	0.082928814
46	0x3e5cbe70	0.21557021
47	0x3ec1ee92	0.37877327
48	0x3e8cec4f	0.2752404
49	0xbba58a00	-0.0050518513
50	0xbe90de08	-0.28294396
51	0xbe46f8a8	-0.19430792
52	0xbe1d9880	-0.15390205
53	0x3e1b9e90	0.15197206
54	0xbd0c70dd	-0.034287322
55	0xbd88ddeb	-0.066829525
56	0x3dc8a730	0.097975135
57	0x3ddbf2ef	0.10739695
58	0x3d55ae9b	0.05216847
59	0xbf130f76	-0.57445467
60	0x3d2c7f84	0.042113796
61	0xbe1e5b1b	-0.15464441
62	0xbe3dee19	-0.18547858
63	0x3e6ea915	0.23306687
64	0xbe97ccd5	-0.29648462
65	0x3a6109c2	0.0008584523
66	0x3e5f2013	0.21789579
67	0xbd5e4381	-0.054263595
68	0x3e7ad972	0.24497011
69	0x3dba48a6	0.09095888
70	0x3c8f50c1	0.017494561
71	0x3e9f0837	0.31060955
72	0x3e203b9a	0.15647736
73	0x3e332b79	0.17497052
74	0x3e7846b5	0.24245723
75	0xbee81f1a	-0.4533623
76	0xbe6e4b2d	-0.23270865
77	0xbd15c7ea	-0.036567606
78	0xbe4f9c0e	-0.20274374
79	0x3d47c127	0.04876819
80	0x3bce7a8d	0.0063012303
81	0xbe9fe4e7	-0.31229326
82	0x3e30a25b	0.17249434
83	0x3d851d4d	0.06499729
84	0x3eaccb55	0.3374888
85	0xbe0f40a9	-0.1398951
86	0xbe01e93a	-0.12686625
87	0x3e56675d	0.20937867
88	0xbe133da0	-0.14378977
89	0xbe07a579	-0.13246717
90	0x3e78dc62	0.2430282
91	0x3e8dfd33	0.27732238
92	0xbe39d786	-0.18148622
93	0xbe6f878f	-0.23391555
94	0xbe11e8cb	-0.1424896
95	0x3e6aa81e	0.22915694
96	0x3eacaf66	0.33727568
97	0x3d96260f	0.07331478
98	0xbe5668d1	-0.20938422
99	0x3e920430	0.2851882
100	0xbe4a6280	-0.19764137
101	0xbda0b763	-0.07847478
102	0xbe6d532e	-0.23176262
103	0x3e5f93b1	0.21833684
104	0x3e14b3f4	0.14521772
105	0x3d59e21f	0.05319416
106	0x3c527711	0.01284577
107	0xbed24aef	-0.41072795
108	0xbccfdc0f	-0.025373487
109	0x3e650beb	0.22367828
110	0x3d736d23	0.059430253
111	0xbdfb0541	-0.122568615
112	0xbe1752e4	-0.14777714
113	0xbe15db64	-0.14634472
114	0xbe0f744a	-0.14009205
115	0xbe817aff	-0.2528915
116	0x3e56efa0	0.20989847
117	0xbd1e2a2d	-0.03861444
118	0x3e463a48	0.1935817
119	0xbefea3ab	-0.49734244
120	0xbe29555d	-0.1653647
121	0x3c92c7e7	0.017917586
122	0x3e4fb0ad	0.2028224
123	0x3ec5ceea	0.38634425
124	0xbe301f17	-0.1719936
125	0xbd552c17	-0.052044
126	0x3da8cf85	0.08242706
127	0x3f1bc1e3	0.6084272
128	0x3e7b505b	0.24542372
129	0x3dd90dc5	0.105983295
130	0xbda82d16	-0.082117245
131	0x3ea77294	0.32704604
132	0xbe9e847a	-0.30960447
133	0xbe2fc67f	-0.17165564
134	0x3d841201	0.064487465
135	0x3f16babd	0.5887869
136	0x3e349603	0.1763535
137	0xbe03bd0a	-0.12865081
138	0xbd2248cd	-0.03962021
139	0xbd5e7285	-0.054308433
140	0xbc45fdba	-0.012084419
141	0x3e3b7528	0.1830641
142	0xbd8274b1	-0.06369913
143	0x3de8a676	0.11359875
144	0xbe712193	-0.23547964
145	0x3e8b61ad	0.27222958
146	0xbd86239d	-0.065497614
147	0x3ddce498	0.10785788
148	0xbeaf0ea2	-0.3419085
149	0xbd40e8ce	-0.04709702
150	0x3d666744	0.056250826
151	0x3ed769d7	0.42072937
152	0xbea42d7d	-0.32065955
153	0xbe867d4a	-0.26267463
154	0x3e6987a3	0.22805648
155	0x3ee0ad5c	0.43882263
156	0xbe14b816	-0.14523348
157	0xbee8950b	-0.4542621
158	0x3e48c3b3	0.19605903
159	0x3ea96102	0.33081824
160	0x3d1ba115	0.037995417
161	0xbdd556fe	-0.10416983
162	0xbe5a35c6	-0.21309575
163	0xbe9e89ff	-0.30964658
164	0xbe7627a4	-0.24038559
165	0xbe197ca1	-0.14988948
166	0x3d1226a4	0.03568138
167	0xbe7d6015	-0.24743684
168	0xbc1da8ac	-0.009622734
169	0x3e72167d	0.23641391
170	0x3e6b81db	0.22998755
171	0xbe1dc650	-0.15407681
172	0x3dec8daf	0.115504615
173	0xbeccbb11	-0.3998647
174	0x3dfe199b	0.124072276
175	0x3ed7caab	0.4214681
176	0xbe8ba7f7	-0.27276585
177	0xbd4a640f	-0.04941183
178	0xbc45f109	-0.012081393
179	0x3e6187b6	0.22024426
180	0x3e8a935b	0.27065548
181	0xbd8fd68c	-0.070233434
182	0xbdd4f2d7	-0.103978805
183	0xbd4ffe2b	-0.050779503
184	0xbe555eae	-0.20836899
185	0x3e3f7677	0.18697535
186	0xbb93ecfd	-0.004514335
187	0x3e799d30	0.24376369
188	0x3e5c5ad9	0.2151903
189	0xbdd2b405	-0.10288242
190	0xbe3ef611	-0.18648554
191	0x3e6d8812	0.23196438
192	0x3e646b6c	0.22306603
193	0xbeacd18f	-0.3375363
194	0x3e0d3891	0.1379111
195	0x3eb2d193	0.34925517
196	0x3e7b84b4	0.24562341
197	0x3def2e9b	0.11678811
198	0x3b08f12d	0.0020895705
199	0xbeb9210c	-0.36158025
200	0xbe5d4bd9	-0.21610965
201	0xbe97e3c0	-0.29665947
202	0xbe4cdd14	-0.2000621
203	0xbe3659d1	-0.178077
204	0xbe1f855f	-0.15578221
205	0x3df21def	0.11822116
206	0x3e53b35c	0.20673889
207	0xbe7a5b7e	-0.24448964
208	0xbe772e96	-0.24138865
209	0x3da7b9a2	0.081897035
210	0x3e730e86	0.23736009
211	0xbedf8544	-0.4365636
212	0xbe4833ec	-0.19551057
213	0x3e3d68a5	0.1849695
214	0x3e134fa8	0.14385855
215	0x3ea57476	0.32315415
216	0xbd5bd9da	-0.053674556
217	0x3d1bdee8	0.038054377
218	0x3d8bf605	0.06834034
219	0xbf32c1ff	-0.69827265
220	0x3eb21e21	0.34788612
221	0x3c0a7c17	0.008452437
222	0xbe23180e	-0.15927145
223	0x3eac6ad9	0.33675268
224	0x3e7ae3fa	0.24501029
225	0xbe1f668a	-0.1556646
226	0xbe580497	-0.21095501
227	0xbddfcff1	-0.109283336
228	0x3dd4257c	0.10358712
229	0x3cc63761	0.024196329
230	0x3e713314	0.23554641
231	0xbedaa060	-0.4270048
232	0xbe695d6d	-0.22789545
233	0x3df1e7d7	0.11811798
234	0xbe4f8c6c	-0.2026841
235	0xbe787b2e	-0.2426574
236	0x3e8391c6	0.25697154
237	0xbe642912	-0.22281292
238	0x3deec822	0.11659266
239	0x3ed96ccb	0.42465815
240	0x3e5d1496	0.21589884
241	0xbe4c5be2	-0.19956926
242	0xbe0b609d	-0.13611074
243	0x3e026c6f	0.12736677
244	0xbe6b23bc	-0.2296285
245	0xbe53a50a	-0.20668426
246	0x3de22faf	0.11044251
247	0xbe6d5a68	-0.23179018
248	0x3ccd4931	0.025059314
249	0xbde31e34	-0.11089745
250	0x3e81e1cb	0.2536758
251	0x3e8969eb	0.26838621
252	0xbde0d75b	-0.10978576
253	0x3e74e68d	0.23916073
254	0x3e139dfb	0.14415734
255	0x3eb51864	0.3537017

conv2.bias f4 [64]
0	0xbd2d0b8c	-0.04224734
1	0xbcac454d	-0.021029139
2	0xbcadafc0	-0.021201968
3	0xbb2da511	-0.0026496092
4	0xbc8e106c	-0.017341815
5	0xb9a824da	-0.00032070914
6	0xbc4a9466	-0.0123644825
7	0x3bb631d4	0.005560139
8	0xbc83a159	-0.016068147
9	0xbcca82b6	-0.024720531
10	0xbc57b9b8	-0.013166837
11	0xbca4af8d	-0.02010324
12	0xbd21b223	-0.039476525
13	0xbcb9a066	-0.022659492
14	0x3ce7515a	0.028237034
15	0x00000000	0.0
16	0xbc8941f0	-0.016755074
17	0xbbecba3a	-0.0072243484
18	0xbc2df553	-0.010617572
19	0x3b96c527	0.004601139
20	0xbc22968a	-0.009923587
21	0x00000000	0.0
22	0x3c431427	0.01190666
23	0x00000000	0.0
24	0xbc710408	-0.014710434
25	0xbb8a2364	-0.0042156447
26	0xbca1a04a	-0.019729752
27	0xbc939161	-0.018013658
28	0xbba2e72e	-0.0049714064
29	0xbcdc7bdb	-0.026914528
30	0x3ba0388c	0.0048895534
31	0xbc3a04d4	-0.01135369
32	0xbc97d1e5	-0.018532703
33	0x3aad59dd	0.0013225634
34	0x3cf7db3f	0.030255912
35	0x3c670249	0.014099666
36	0xbba4ac55	-0.0050254264
37	0xbc60b5c3	-0.01371521
38	0x3a199c7c	0.0005859805
39	0xbd3d875c	-0.046271667
40	0x3b3bbf74	0.002864805
41	0x3d0445e9	0.032293234
42	0xbcacc09b	-0.021087935
43	0x3c2b0956	0.010439238
44	0xbc37d7ee	-0.011220915
45	0x3b3a2e0b	0.0028408791
46	0x3c3a088d	0.011354578
47	0x3c4f0291	0.012634889
48	0xbc5b1d01	-0.013373614
49	0x3c3bd15e	0.011463491
50	0x3b80f0e1	0.003934965
51	0xbc044d1c	-0.008075025
52	0xb95b9bc8	-0.000209435
53	0xbc8f77a2	-0.0175131
54	0xbc887e28	-0.016661718
55	0x3bb14f7e	0.0054110875
56	0xba94b960	-0.001134675
57	0xbc9e5a59	-0.01933019
58	0xbcb72351	-0.022355707
59	0xbd3679f1	-0.044549886
60	0xbd0478b3	-0.03234167
61	0x3c24bcb7	0.010054759
62	0xbc34dda2	-0.0110391695
63	0xbc663a39	-0.014051967

conv2.lin.weight f4 [64, 64]
0	0x3e1b6c07	0.15177928
1	0x3d854f22	0.06509234
2	0x3ca75c4b	0.02042975
3	0xbe12fe6f	-0.14354871
4	0x3e6924c1	0.22767927
5	0xbdb72ecf	-0.08944475
6	0x3e20d108	0.15704739
7	0xbd8ff7df	-0.070296995
8	0xbe4ceb1a	-0.20011559
9	0x3acf6aa4	0.0015824628
10	0x3d0652c2	0.032793768
11	0x3e0f88d7	0.14017044
12	0x3e2d4553	0.16920976
13	0xbbbdf961	-0.0057975505
14	0x3dc9e148	0.09857422
15	0x3da3d0bd	0.07998798
16	0x3e587725	0.211392
17	0xbb68304a	-0.0035429173
18	0x3d9cb42d	0.07651553
19	0x3dcec686	0.10096459
20	0x3d553692	0.052053995
21	0x3d2b88c1	0.041878466
22	0x3d3159d9	0.043298576
23	0x3dcce0ff	0.10003852
24	0x3e29cacc	0.16581267
25	0xbe079e22	-0.13243917
26	0x3dc3c07d	0.095581986
27	0xbdfb7f9d	-0.122802
28	0xbe482e48	-0.19548905
29	0x3de73d2e	0.11290966
30	0x3e0a6bc8	0.13517678
31	0x3e714542	0.23561576
32	0xbe02e9a8	-0.12784445
33	0xbd273605	-0.040823
34	0x3e66f41a	0.22554055
35	0xbcf07d68	-0.029356673
36	0x3e09ed5f	0.13469456
37	0x3e41364c	0.18868369
38	0xbde97378	-0.11398977
39	0xbd7bdc36	-0.061489306
40	0x3df29a80	0.11845875
41	0x3e9ed71d	0.31023493
42	0x3dbdddad	0.09270797
43	0x3c674db7	0.01411765
44	0x3dbdbc55	0.09264437
45	0x3e3f0002	0.18652347
46	0xbb8927f1	-0.0041856696
47	0x3e8c3445	0.27383628
48	0xbd6dacf8	-0.058026284
49	0x3dd15b96	0.10222547
50	0x3e2ed575	0.17073615
51	0xbb9a961a	-0.0047176005
52	0xbe3558ad	-0.17709608
53	0xbe448948	-0.19192994
54	0xbce2c98c	-0.027683996
55	0xbcf8ef21	-0.030387463
56	0x3e74927c	0.23884004
57	0x3db260fb	0.08709904
58	0x3bb37225	0.0054762536
59	0xbe3e4ed3	-0.18584757
60	0x3e94d7f5	0.29071012
61	0x3d306461	0.04306448
62	0xbe4efaa2	-0.20212796
63	0xbd88f1ea	-0.066867664
64	0x3e03a019	0.12854041
65	0x3e58da37	0.21176992
66	0xbe53f9c5	-0.20700748
67	0x3d8de11b	0.06927701
68	0x3d348752	0.044074364
69	0xbdcefc6c	-0.101067394
70	0x3df38282	0.11890127
71	0xbe273baf	-0.16331361
72	0x3df577b8	0.11985725
73	0x3e4a98d3	0.1978486
74	0xbe5d4e87	-0.21611987
75	0xbdac687d	-0.08418367
76	0xbdf9312c	-0.12167582
77	0x3e1e5e6d	0.15465708
78	0x3b0ef837	0.0021815428
79	0x3d30a731	0.043128196
80	0x3c8246ef	0.015902964
81	0xbc842001	-0.016128542
82	0x3de46ff6	0.11154167
83	0x3e4b4fcf	0.19854663
84	0xbd07b7fd	-0.03313445
85	0x3e0cc419	0.1374668
86	0xbe1b7580	-0.15181541
87	0xbda62337	-0.081121854
88	0x3e1caf23	0.15301184
89	0x3e5ae175	0.21375068
90	0x3c9eb185	0.019371757
91	0x3e1b3170	0.15155578
92	0xbdd50181	-0.104006775
93	0xbd18b5ab	-0.037282627
94	0xbd63f10d	-0.055649806
95	0xbd706161	-0.058686618
96	0xbd2925dc	-0.04129587
97	0xbdccbb00	-0.09996605
98	0xbdf1976a	-0.11796458
99	0x3b65b60b	0.0035051133
100	0x3cf89308	0.030343547
101	0xbdb1a319	-0.086736865
102	0xbe157336	-0.1459473
103	0xbe01e1ab	-0.12683742
104	0xbd491d67	-0.049100306
105	0xbc41a679	-0.011819475
106	0x3cc95541	0.024576785
107	0x3debf1da	0.11520739
108	0x3e66dd3e	0.22545335
109	0x3d78ecbd	0.060772646
110	0xbd2ba050	-0.041900933
111	0x3d78833d	0.060672034
112	0x3e171f5d	0.14758058
113	0x3db53672	0.08848275
114	0x3cafa068	0.021438792
115	0xbe51aa11	-0.20475031
116	0xbd58eb35	-0.052958686
117	0x3d85c55a	0.065317824
118	0xbe183338	-0.14863288
119	0x3dd5188d	0.10405073
120	0x3e695629	0.22786774
121	0x3cc01c58	0.023451015
122	0xbd45f40a	-0.048328437
123	0x3e3565dc	0.17714638
124	0x3d86ee1e	0.06588386
125	0x3ad1a6aa	0.0015995104
126	0xbd5ce339	-0.053927634
127	0xbe4b6f31	-0.19866635
128	0xbc503a20	-0.012709171
129	0x3db11396	0.08646314
130	0x3dd79a2f	0.10527455
131	0xbdc78fd7	-0.09744232
132	0xbe49f7e9	-0.19723476
133	0x3d125c51	0.03573257
134	0xbdd8f20f	-0.10593044
135	0x3e4e3cd3	0.2014039
136	0xbe41fa21	-0.18943073
137	0xbc900167	-0.017578794
138	0xbe0bd14f	-0.13654064
139	0x3e2f1afe	0.1710014
140	0x3d3af878	0.045647115
141	0x3e2f34da	0.17110005
142	0xbd7af430	-0.06126803
143	0xbd15678d	-0.036475707
144	0x3cf003cf	0.029298691
145	0x3e2637f8	0.16232288
146	0xbe2b8752	-0.1675084
147	0xbdab1c94	-0.0835506
148	0xbe4b752f	-0.1986892
149	0xbe70537c	-0.23469347
150	0x3e13b0e2	0.14422944
151	0x3e2f19fb	0.17099755
152	0x3e2231e2	0.15839341
153	0xbdf39f48	-0.11895615
154	0x3e3adb63	0.18247752
155	0xbd150e14	-0.03639038
156	0x3ddc6122	0.10760714
157	0xbdc23d43	-0.09484341
158	0x3e0976ff	0.134243
159	0xbe3ad317	-0.18244587
160	0x3c2d829b	0.010590221
161	0xbd21a431	-0.039463226
162	0x3e11ee13	0.14250974
163	0xbe0a23e6	-0.13490257
164	0xbe451269	-0.19245304
165	0xbd2899b6	-0.041162215
166	0xbd53eb71	-0.051738206
167	0xbd834a95	-0.0641071
168	0x3e4a9491	0.19783236
169	0x3cbff9f8	0.023434624
170	0x3e3d4dc4	0.18486696
171	0xbe249576	-0.1607264
172	0xbde4eabb	-0.11177584
173	0x3e08df9e	0.13366553
174	0x3e1b143e	0.1514444
175	0x3e22e8bd	0.15909095
176	0x3e27cf72	0.16387728
177	0xbe1b5210	-0.15168023
178	0xbe1e04b2	-0.15431479
179	0x3c8b5d5f	0.017012296
180	0xbcc563cf	-0.024095444
181	0xbe24efbf	-0.16107081
182	0xbc1d6990	-0.009607688
183	0x3d703c78	0.058651417
184	0xbe511856	-0.2041944
185	0x3cfcb0c0	0.030846
186	0x3dc5e2df	0.09662413
187	0xbe2c52d4	-0.16828471
188	0xbe54aaac	-0.20768231
189	0xb945a400	-0.00018848479
190	0xbd97de63	-0.07415464
191	0xbe50fb60	-0.20408392
192	0x3e1cfe75	0.15331443
193	0xbc5297c1	-0.012853564
194	0xbdb104f4	-0.08643523
195	0x3e53422b	0.2063071
196	0xbe2a4fa3	-0.16631941
197	0x3dcf8178	0.10132116
198	0xbe2dbc94	-0.16966468
199	0xbda9d658	-0.08292836
200	0x3e560b58	0.20902765
201	0xbd8c646c	-0.068550915
202	0xbe496509	-0.19667448
203	0xbd12fd45	-0.035886068
204	0x3e55aaa3	0.20865874
205	0xbe326ab1	-0.17423512
206	0x3e217a32	0.1576927
207	0x3e54c674	0.20778829
208	0xbe0bc024	-0.13647515
209	0x3dbd082d	0.09230075
210	0xbb4a7263	-0.0030890934
211	0x3e2573cc	0.16157454
212	0x3da38ea3	0.0798619
213	0xbe31a644	-0.17348582
214	0xbca111a1	-0.019661726
215	0xbcd1ad0d	-0.025595212
216	0xbcb9242c	-0.022600256
217	0x3d8b1123	0.06790378
218	0xbe4ca89e	-0.19986197
219	0x3e0b4335	0.13599856
220	0x3a397500	0.00070746243
221	0xbdc0bd28	-0.09411079
222	0xbcd4e39f	-0.025987444
223	0xbcdea36d	-0.027177537
224	0x3ddf503d	0.10903976
225	0x3e53d78c	0.20687693
226	0x3e4f0ae4	0.20218998
227	0xbd3ed121	-0.04658616
228	0x3e2daac9	0.1695968
229	0x3e30d5be	0.17269036
230	0xbde2d7b5	-0.11076299
231	0xbc888db3	-0.01666913
232	0xbd6e9be5	-0.05825414
233	0x3dc3707b	0.09542938
234	0xbc6eb908	-0.014570482
235	0xbdd455e7	-0.10367947
236	0x3d010ed1	0.03150827
237	0x3d4fcb84	0.050731197
238	0xbd554f5e	-0.052077644
239	0x3dc7ec49	0.09761865
240	0x3d7d23b0	0.061801612
241	0xbd0e8fec	-0.034805223
242	0x3d72a8e4	0.059243098
243	0x3e3eebda	0.18644658
244	0xbe25839e	-0.16163489
245	0xbd6823bc	-0.056674704
246	0xbbbebcc0	-0.0058208406
247	0x3e5979a9	0.21237816
248	0x3d63baa6	0.055597924
249	0xbda94b4b	-0.08266314
250	0x3cb211d5	0.021737019
251	0x3e20cdb1	0.15703465
252	0x3d1c1483	0.0381055
253	0x3d3f228c	0.046663806
254	0xbd0d8ab5	-0.03455611
255	0x3d0ae810	0.03391272

conv3.bias f4 [64]
0	0xbbedb0d2	-0.0072537446
1	0xbbd2a49b	-0.006428314
2	0xbc13c873	-0.009019959
3	0x3d03f125	0.032212395
4	0xbb8650c8	-0.0040989853
5	0xbc18d42a	-0.009327928
6	0xbb3dd38e	-0.0028965208
7	0x3be91a4f	0.007113732
8	0x3cd0719c	0.025444798
9	0x3be31db8	0.006931033
10	0xba55a00d	-0.00081491546
11	0xbcc58c92	-0.02411488
12	0xbcea733c	-0.028619401
13	0x3c9a440a	0.018831272
14	0x3bdf3a4c	0.0068123695
15	0x3b38821b	0.002815372
16	0x3cfcad6a	0.030844409
17	0x3bad1ce8	0.005282987
18	0x3c94a97b	0.01814722
19	0xbd012657	-0.031530704
20	0x3ca69aa9	0.02033742
21	0xbc14933d	-0.0090683075
22	0xbcfac942	-0.030613545
23	0x3b925810	0.0044660643
24	0xbc1726a0	-0.0092255175
25	0x3cc80fcf	0.0244216
26	0xbc431a40	-0.011908114
27	0xbb82f02a	-0.003995915
28	0xbc20e12b	-0.009819309
29	0xbcc1f440	-0.023676038
30	0x3c38eb7f	0.011286615
31	0xbc833d63	-0.016020482
32	0xbbe7c6d0	-0.007073261
33	0x3c4a6d94	0.012355227
34	0xbcf96c5b	-0.030447176
35	0xbc1c69d2	-0.009546714
36	0x3cc00af6	0.023442727
37	0x3b8f1660	0.004366681
38	0x3c7cdc74	0.0154334195
39	0xbc4b44a8	-0.012406506
40	0xbc1324df	-0.008980959
41	0xbc42f4e0	-0.011899203
42	0xbb9e8db9	-0.004838672
43	0xbc955b61	-0.01823205
44	0x3ae2d33c	0.0017305384
45	0xbcf2f1f7	-0.029656393
46	0xbcca7c19	-0.024717377
47	0x38a4d108	7.8590645e-05
48	0xbc66c619	-0.014085316
49	0xbbb70ac8	-0.005586002
50	0xbca3206b	-0.019912919
51	0xbbdcd14f	-0.0067388187
52	0x3a510edf	0.0007974933
53	0xbc83be49	-0.016081946
54	0xbbe63db1	-0.007026397
55	0xbc1a5ded	-0.009421808
56	0x3a9c1960	0.0011909418
57	0x3c5d017a	0.013489122
58	0xbb5c8bc8	-0.0033652652
59	0xbbb5bece	-0.0055464273
60	0x3c63f88c	0.013914239
61	0x3cdfea69	0.027333455
62	0x3be53598	0.0069949143
63	0xbc92f389	-0.017938392

conv3.lin.weight f4 [64, 64]
0	0x3dcbbfb6	0.09948675
1	0xbe0200bf	-0.12695597
2	0x3db32ab4	0.08748379
3	0xbdf00207	-0.11719137
4	0xbe9996ce	-0.29997867
5	0xbed333d2	-0.41250473
6	0xbd08e176	-0.03341814
7	0x3d113b4d	0.035456944
8	0xbe590283	-0.21192364
9	0xbe7a6a8c	-0.24454707
10	0x39a76a03	0.00031931707
11	0x3b3ae0d6	0.002851536
12	0xbc81b40e	-0.015832927
13	0xbd7cae44	-0.06168963
14	0x3d72711f	0.059189912
15	0x3d949d56	0.07256572
16	0xbe08cd2f	-0.13359521
17	0xbdcaea08	-0.09907919
18	0xbc9db9d5	-0.01925365
19	0xbe421cab	-0.18956248
20	0x3e2ad73b	0.16683666
21	0xbdd1006a	-0.10205157
22	0x3d04640e	0.032321982
23	0xbe1f8b90	-0.15580583
24	0x3d912741	0.07087565
25	0xbdf5c1ee	-0.1199988
26	0xbdc44056	-0.095825836
27	0x3e3cbfb5	0.18432505
28	0xbd445152	-0.047929116
29	0xbdd686a2	-0.10474898
30	0x3e184203	0.14868931
31	0x3d9bf538	0.07615131
32	0x3da1d624	0.07902172
33	0xbde733c4	-0.112891704
34	0xbde204f8	-0.11036104
35	0x3dc15484	0.09439948
36	0xbe2898f2	-0.16464594
37	0xbd427228	-0.04747215
38	0xbe1b8826	-0.15188655
39	0xbe1a13d2	-0.15046623
40	0xbe0446d0	-0.12917638
41	0xbe5f28eb	-0.21792953
42	0x3d733a41	0.059381727
43	0xbd5e00bb	-0.054199915
44	0xbd9112db	-0.070836745
45	0xbe349f05	-0.17638786
46	0x3e0e67c7	0.13906775
47	0x3d1656d0	0.036703885
48	0xbe371947	-0.17880736
49	0xbd7e879a	-0.06214104
50	0xbbdeaa58	-0.006795209
51	0xbc14d5c3	-0.009084168
52	0xbe6e72de	-0.23286006
53	0x3dae3f0f	0.08508121
54	0xbe4fc261	-0.20288993
55	0x3e4eecd7	0.20207535
56	0xbe4c6a66	-0.19962463
57	0xbdb86ae1	-0.090047605
58	0xbdd77a7d	-0.1052141
59	0xbda9bab2	-0.082875624
60	0xbd66261c	-0.056188688
61	0xbd8b5c5b	-0.06804725
62	0xbd992be0	-0.074790716
63	0xbd8e930d	-0.069616415
64	0xbe5242b9	-0.20533265
65	0xbe584a3c	-0.21122068
66	0x3df2db0e	0.118581876
67	0x3cc0c7a3	0.023532694
68	0xbe910427	-0.2832348
69	0xbeae4e3c	-0.34044063
70	0xbc1725e2	-0.009225341
71	0x3ca7867e	0.020449873
72	0xbd6531ec	-0.055955812
73	0x3c855258	0.016274616
74	0x3d456264	0.048189536
75	0xbc823539	-0.01589452
76	0x3db53bd2	0.088493004
77	0xbe485e2a	-0.1956717
78	0xbe5030e4	-0.2033115
79	0xbd426ff4	-0.047470048
80	0xbd828444	-0.06372884
81	0x3e2c520b	0.16828172
82	0xbe184d05	-0.1487313
83	0xbe6d0292	-0.23145512
84	0xbe5146ec	-0.20437211
85	0x3dd1c73e	0.102430806
86	0xbdde8b7f	-0.108664505
87	0xbb7e6ec0	-0.0038823336
88	0x3e4c2ea1	0.19939663
89	0xbd9bc73e	-0.07606362
90	0xbe2fa06c	-0.1715104
91	0x3e12657e	0.14296529
92	0xbceff68a	-0.029292364
93	0x3d7c686c	0.061623022
94	0x3e282ead	0.16424055
95	0x3d911fa3	0.07086112
96	0x3c61dde1	0.01378581
97	0x3e88d8d8	0.2672794
98	0x3c2dcdcf	0.010608151
99	0x3d6ee085	0.058319587
100	0x3c7e15aa	0.015508095
101	0xbe05377e	-0.1300945
102	0x3d2055d2	0.039144345
103	0x3bb3370d	0.005469209
104	0xbeb88400	-0.36038208
105	0xbe92233b	-0.28542504
106	0x3df9ce17	0.12197512
107	0xbe57c736	-0.21072087
108	0xbd8896eb	-0.0666941
109	0xbdb34695	-0.08753697
110	0x3d539e0c	0.051664397
111	0xbea887f6	-0.3291623
112	0xbe3963fa	-0.18104544
113	0xbdadb798	-0.08482283
114	0xbd381428	-0.044941097
115	0xbc3c9f8e	-0.01151265
116	0xbe9f2dd3	-0.3108965
117	0x3df1652b	0.117868744
118	0xbd96c6d7	-0.073621444
119	0x3e2a99aa	0.1666018
120	0xbe213a95	-0.15745004
121	0xbe498dc1	-0.19682981
122	0x3d89bbbc	0.067252606
123	0x3ccf439b	0.025300791
124	0x3e37454c	0.17897528
125	0x3ddd0b40	0.107931614
126	0xbe00cfb0	-0.12579226
127	0x3e1c8370	0.15284514
128	0x3e3ea33f	0.18616961
129	0x3def6b86	0.1169043
130	0x3abe7902	0.0014531913
131	0x3e41ab89	0.18913092
132	0x3d019842	0.031639345
133	0x3e457d2e	0.19286034
134	0x3dfa9cc7	0.12236934
135	0x3e1eab0f	0.15494941
136	0x3ca8bb3d	0.020597095
137	0xbdbe007e	-0.092774376
138	0xbe35a55c	-0.17738861
139	0xbdecaf23	-0.11556842
140	0x3d70fb8f	0.058833655
141	0xbd656036	-0.055999957
142	0x3ec93ab1	0.3930259
143	0x3e5657e1	0.2093196
144	0x3e3b7d82	0.18309596
145	0xbcaeaf32	-0.021323774
146	0xbdb6fc7a	-0.08934875
147	0x3e3e5485	0.18586929
148	0x3e33f112	0.1757243
149	0xbe58395c	-0.21115631
150	0xbe7b934f	-0.24567913
151	0x3cca6a18	0.024708793
152	0xbe23fe05	-0.1601487
153	0xbc0c8382	-0.008576276
154	0xbd38fcaa	-0.045162834
155	0x3d00b90d	0.03142648
156	0xbe1e0ad6	-0.15433821
157	0x3dba572a	0.090986565
158	0xbe436db9	-0.19084825
159	0xbe303092	-0.17206028
160	0xbe07813a	-0.1323289
161	0xbdeeb690	-0.11655915
162	0x3ea83437	0.32852337
163	0xbe0bdf03	-0.13659291
164	0xbd43de75	-0.047819573
165	0x3e47453e	0.19460008
166	0x3e1432df	0.14472531
167	0x3cd920a4	0.026504822
168	0x3ee26f5e	0.4422559
169	0x3e9d2b2e	0.30697006
170	0x3dcdf8f2	0.10057248
171	0x3e6db5f9	0.23213948
172	0x3eb6a864	0.35675347
173	0xbddf1e56	-0.10894458
174	0xbb395697	-0.0028280371
175	0x3e0b3ddb	0.13597815
176	0x3e84bdcc	0.25926054
177	0x3dc6a5de	0.096996054
178	0x3db1b09f	0.08676266
179	0x3e172627	0.14760648
180	0x3ec22340	0.3791752
181	0x3c3b0e90	0.011417046
182	0xbc851fa8	-0.016250446
183	0x3ca709fd	0.020390505
184	0xbde8d968	-0.11369592
185	0x3e6b62a7	0.22986852
186	0x3ea9ec65	0.33188167
187	0xbc205395	-0.0097855525
188	0xbe3a8320	-0.18214083
189	0xbdaec444	-0.085335284
190	0x3e2274ed	0.15864916
191	0xbe18fb22	-0.1493955
192	0x3b6b7312	0.0035926742
193	0x3d6d8880	0.057991505
194	0x3ccfd78c	0.025371335
195	0x3d89dad4	0.06731191
196	0xbe106734	-0.14101869
197	0x3d57e1b0	0.052705467
198	0xbe0071a6	-0.12543353
199	0x3c20f2c3	0.009823504
200	0xbdbeddde	-0.093196616
201	0x3df4cd9c	0.119532794
202	0x3e017dac	0.12645596
203	0xbd068351	-0.032840077
204	0x3d1ccb63	0.038279902
205	0xbe5ac3e7	-0.21363793
206	0x3b7e3d3b	0.003879382
207	0xbe5c7ab8	-0.21531188
208	0xbdbec3e0	-0.09314704
209	0x3d29c771	0.041449968
210	0x3e59486c	0.21219033
211	0xbcdc996b	-0.026928624
212	0x3e6ce3b0	0.23133731
213	0x3da23c66	0.07921676
214	0x3be8eaf4	0.0071080867
215	0x3d7c3a4c	0.061579034
216	0x3d4143f1	0.047183935
217	0x3e3bd1b0	0.18341708
218	0xbdc56ddd	-0.096400954
219	0xbdc64fe3	-0.09683206
220	0xbe2993cb	-0.16560285
221	0xbd474214	-0.048647
222	0xbb67ab22	-0.0035349806
223	0x3e30925b	0.1724333
224	0xbe16557f	-0.14681052
225	0xbc7ff39d	-0.015622047
226	0xbe0aaee7	-0.13543282
227	0x3cd20151	0.025635393
228	0xbd10884e	-0.03528624
229	0xbe293bab	-0.16526668
230	0x3e35ddb2	0.17760351
231	0x3db98e9d	0.090604044
232	0xbe6f4925	-0.23367746
233	0xbe25f5aa	-0.16206995
234	0xbdfc288b	-0.123124205
235	0xbe1c54e0	-0.15266752
236	0x3e43b1b9	0.19110765
237	0xbd90ed95	-0.07076565
238	0xbe4752a1	-0.19465114
239	0xbda98830	-0.08277929
240	0x3e05f731	0.13082577
241	0xbd4b8a86	-0.049692653
242	0x3dabe1e1	0.08392692
243	0x3e4c2397	0.19935451
244	0xbe17e6d7	-0.14834152
245	0x3df16c3c	0.11788222
246	0xbe419392	-0.1890395
247	0x3d88a9ac	0.06672987
248	0x3da7f3a3	0.08200767
249	0xbe2440f3	-0.16040401
250	0xbc94fdb3	-0.01818738
251	0xbe575a3a	-0.21030512
252	0xbdc3ca8e	-0.095601186
253	0xbe4e2472	-0.2013109
254	0xbe00e7a1	-0.1258836
255	0x3dd62b6f	0.10457503

fc1.weight f4 [256, 64]
0	0x3dfc6149	0.12323243
1	0x3e08c510	0.13356423
2	0xbe2e0e56	-0.16997656
3	0x3c7db3ad	0.015484733
4	0x3cda10cd	0.02661934
5	0xbd7aa6b0	-0.06119412
6	0x3de5fb37	0.11229556
7	0x3e2ab3bc	0.16670126
8	0x3dd84c9a	0.105614856
9	0x3da5d481	0.080971725
10	0x3dfa15f2	0.12211217
11	0x3dccaa24	0.09993389
12	0xbcc18d1c	-0.023626857
13	0x3e08bac5	0.13352497
14	0x3e0b07f1	0.13577248
15	0x3dfd630a	0.12372406
16	0xbde718c7	-0.11284023
17	0xbc76f176	-0.015072217
18	0x3e009dec	0.12560242
19	0x3cdd3f7c	0.02700781
20	0x3da0dcc7	0.0785461
21	0x3d6c52c3	0.057696115
22	0x3d4dee83	0.05027629
23	0x3d155cc7	0.036465432
24	0x3b24acde	0.002512745
25	0xbced6867	-0.028980447
26	0x3e12a2bc	0.1431989
27	0x3e1cb3b3	0.15302925
28	0x3e2bf5aa	0.16792932
29	0x3e107bad	0.14109679
30	0xbde968cf	-0.11396944
31	0xbdc101a8	-0.09424144
32	0xbd703c24	-0.058651105
33	0xbd8726ff	-0.06599235
34	0xbdbd7ff1	-0.092529185
35	0xbc79d3f8	-0.015248291
36	0xbcebbe0a	-0.028777141
37	0x39877f04	0.0002584384
38	0x3d8ad8f1	0.067796595
39	0xbdb86d20	-0.09005189
40	0xbca05975	-0.019573906
41	0xbdb6af1d	-0.08920119
42	0x3e080910	0.13284707
43	0x3dc10a81	0.094258316
44	0xbdad679d	-0.08467028
45	0x3db5bf48	0.08874375
46	0x3dacd5c5	0.08439211
47	0xbc840b70	-0.016118735
48	0xbc3f5091	-0.011676923
49	0xbd0b1eb7	-0.03396484
50	0xbbc177f9	-0.0059041944
51	0xbd72c068	-0.059265524
52	0xbe1908f2	-0.14944819
53	0xbd6a2bef	-0.057170805
54	0xbe1881e1	-0.14893295
55	0xbdff3976	-0.12462132
56	0xbdf20c73	-0.11818781
57	0xbcc40791	-0.02392939
58	0xbcc5f4bc	-0.02416455
59	0x3dafc48f	0.085824125
60	0xbd1f3ac4	-0.038874403
61	0xbd6f9b51	-0.05849773
62	0xbd29af7f	-0.04142713
63	0x3e1515dc	0.1455912
64	0x3d79ee12	0.061018057
65	0x3e440083	0.1914082
66	0xbd954ff1	-0.07290638
67	0x3cb04989	0.02151944
68	0x3e45ccab	0.19316356
69	0xbd2fee47	-0.04295185
70	0x3db209f4	0.08693305
71	0x3d8eba04	0.069690734
72	0x3db59910	0.08867085
73	0x3d0dc2cb	0.034609597
74	0xbcef4c9f	-0.02921134
75	0x3be80cf2	0.0070816213
76	0x3cced6e1	0.025248947
77	0xbc833829	-0.01601799
78	0xbcf146aa	-0.02945264
79	0x3e2192f1	0.1577871
80	0x3d9839c8	0.07432896
81	0x3e229973	0.15878849
82	0x3de15d63	0.1100414
83	0xbdd1561c	-0.10221502
84	0xbdcb4428	-0.09925109
85	0x3e13b09e	0.14422843
86	0xbd6a43ff	-0.057193752
87	0xbd594933	-0.053048324
88	0x3dfcddf1	0.123470195
89	0xbc454cb2	-0.012042211
90	0x3e1b407d	0.15161319
91	0x3dcd60f2	0.100282565
92	0x3daac011	0.08337415
93	0xbb82d609	-0.0039928
94	0xbe13e821	-0.14444019
95	0xbcb3bc95	-0.021940509
96	0x3e29f301	0.16596605
97	0xbcf6a9d1	-0.030110272
98	0xbc29f0c4	-0.010372344
99	0xbddb1e2b	-0.106991135
100	0xbd0a43e3	-0.033756148
101	0xbca694f6	-0.020334702
102	0xbc3f7eed	-0.011687976
103	0x3cb254bf	0.021768926
104	0x3c463ba5	0.012099181
105	0x3a0a9e6b	0.00052878883
106	0x3dd4db3f	0.103933804
107	0x3e189ab4	0.14902765
108	0x3d820845	0.063492335
109	0x3b5c1c1a	0.0033586086
110	0xbd667104	-0.056260124
111	0x3d69e486	0.057102703
112	0xbcd1609e	-0.025558766
113	0x3a48c092	0.000765809
114	0x3dd98bce	0.10622369
115	0x3cf7084a	0.03015532
116	0xbe09d992	-0.13461903
117	0xbcff6e01	-0.031180384
118	0x3d66cbc5	0.056346674
119	0xbc1e5689	-0.009664186
120	0xbd9dcf52	-0.07705559
121	0x3ce12cee	0.027487244
122	0x3e4c9acc	0.19980925
123	0x3c8706fe	0.016482826
124	0x3e3a81c7	0.18213569
125	0xbd84b356	-0.06479518
126	0xbd9f748f	-0.07785904
127	0x3dda094a	0.10646303
128	0xbd19087f	-0.037361618
129	0x3dad9402	0.08475496
130	0x3cf58c30	0.029974073
131	0x3d900ca1	0.07033659
132	0xbe38f1b4	-0.18060952
133	0xbdfee5ef	-0.124462
134	0xbe12198b	-0.14267556
135	0x3c311d23	0.010810169
136	0xbd11297d	-0.035439957
137	0x3d142e56	0.036177002
138	0xbe387bb0	-0.18015933
139	0x3d8ab420	0.06772637
140	0xbb93022f	-0.0044863443
141	0xbe0b0aff	-0.13578413
142	0xbdb47f2a	-0.08813317
143	0x3d315fb5	0.043304164
144	0xbc727873	-0.014799225
145	0x3d1d28e4	0.038369074
146	0x3c2e0842	0.010622086
147	0x3c1b690a	0.0094854925
148	0x3d90247b	0.07038208
149	0x3c829d4f	0.015944151
150	0xbdb4ba37	-0.0882458
151	0xbdd2daaa	-0.10295613
152	0x3c7a87b3	0.015291142
153	0x3d60f1bf	0.054918047
154	0xbdd7c6c0	-0.105359554
155	0xbd05c7dc	-0.032661304
156	0xbd82b41f	-0.063820116
157	0x3d836a83	0.064168
158	0x3e12d420	0.14338732
159	0x3db83806	0.089950606
160	0x3d1a56e0	0.037680507
161	0x3d5de92a	0.05417744
162	0x3cab7195	0.020928184
163	0xbd8b2815	-0.067947544
164	0xbe03ded7	-0.12877975
165	0xbdfbc8aa	-0.12294133
166	0xbd00594a	-0.031335153
167	0x3d9bd443	0.07608845
168	0xbe44f428	-0.19233763
169	0x3d720eeb	0.059096258
170	0xbdc2beb4	-0.0950903
171	0xbe007968	-0.12546313
172	0xbe10464f	-0.1408932
173	0xbdf0ed3d	-0.117639996
174	0x3ca309e3	0.019902175
175	0xbcece9ae	-0.02892002
176	0xbdeaad97	-0.11458891
177	0x3d2a24c3	0.041538965
178	0x3da7bfbd	0.08190868
179	0x3db5c149	0.08874757
180	0xbdacc6da	-0.084363654
181	0xbd84ea0c	-0.064899534
182	0x3d84ffd0	0.06494105
183	0x3e0d4181	0.13794519
184	0xbc59aff9	-0.013286584
185	0x3deadffc	0.11468503
186	0xbe3c78c6	-0.18405446
187	0xbe0b23d2	-0.13587883
188	0x3dea5312	0.11441626
189	0xbd0f7c24	-0.0350305
190	0x3ddee573	0.10883608
191	0xbe0e6e8b	-0.13909356
192	0xbe4629b9	-0.19351853
193	0xbe08bc9b	-0.13353197
194	0x3e10b98c	0.1413328
195	0xbdb5fa98	-0.088856876
196	0xbe4adf81	-0.19811822
197	0xbe5a2a1a	-0.21305123
198	0xbd8ec46f	-0.069710605
199	0xbd97b038	-0.07406658
200	0xbcd86e34	-0.026419736
201	0xbc9136f4	-0.017726399
202	0xbe48ed47	-0.19621764
203	0x3e20954e	0.15681955
204	0xba460f97	-0.00075554237
205	0xbcf935d2	-0.030421171
206	0xbe19f027	-0.15033017
207	0xbca2366c	-0.019801341
208	0x3df6da3e	0.12053345
209	0xbe399cdc	-0.18126243
210	0xbe82dd0a	-0.25559264
211	0x3d1424ba	0.036167838
212	0xbe63b8ab	-0.22238414
213	0xbe2d0d9f	-0.16899727
214	0xbe04b4c9	-0.12959589
215	0x3dce397a	0.100695565
216	0xbc021773	-0.007940161
217	0x3c40b3ee	0.011761649
218	0xbb35476b	-0.0027660977
219	0xbe1d1faa	-0.1534411
220	0xbe0c2855	-0.1368726
221	0x3c6c1eff	0.014411687
222	0x3e72a28a	0.23694816
223	0xbdfee49b	-0.12445947
224	0xbd6cb852	-0.05779297
225	0xbc1de188	-0.00963629
226	0x3d04864b	0.032354634
227	0x3b900b60	0.0043958873
228	0xbdd30cec	-0.10305199
229	0xbe60a886	-0.21939287
230	0xbcab72e4	-0.020928808
231	0x3e3d82f2	0.18506983
232	0xbd91e9b0	-0.071246505
233	0xbd8ab4ad	-0.067727424
234	0xbd58229d	-0.052767385
235	0xbe5e88b7	-0.2173184
236	0x3d4536df	0.048148032
237	0x3e1f1f3f	0.15539263
238	0xbab0f2d3	-0.0013500102
239	0xbe41d5d3	-0.18929224
240	0xbd6dc684	-0.058050647
241	0xbe1e1c87	-0.1544057
242	0x3e0dbd91	0.13841845
243	0xbdcb746c	-0.09934315
244	0x3e705139	0.23468484
245	0x3e0504c9	0.12990107
246	0x3e478d47	0.19487487
247	0x3dd63477	0.104592256
248	0xbb83e0c2	-0.004024596
249	0x3e08cd31	0.13359524
250	0xbdb5cea2	-0.08877303
251	0xbe369117	-0.17828785
252	0xbd4ce927	-0.05002704
253	0xbd6d608d	-0.057953406
254	0x3e305421	0.17219593
255	0xbd6b6d74	-0.05747743

fc1.bias f4 [256]
0	0x3d6643b5	0.056216914
1	0x3d8f78f8	0.07005495
2	0x3c9b71f2	0.018975232
3	0x3e042f69	0.1290871
4	0x3d46b2fe	0.048510544
5	0x3d265728	0.040610462
6	0xbe039e9c	-0.12853473
7	0xbd9f67fe	-0.07783507
8	0x3cf5f521	0.030024113
9	0xbdecc7fd	-0.11561582
10	0x3cfe10d3	0.031013882
11	0xbda4e404	-0.08051303
12	0x3d0a46e2	0.033759005
13	0x3d3a771d	0.04552375
14	0x3e0463b4	0.12928659
15	0xbe258c68	-0.16166842
16	0x3cfb03c9	0.030641453
17	0x3de8f0de	0.11374067
18	0xbdf35ff0	-0.11883533
19	0x3d968885	0.07350258
20	0x3cdb04c1	0.026735665
21	0x3c95e726	0.018298697
22	0x3df75903	0.120775245
23	0x3cb1bc72	0.021696303
24	0x3e0576a3	0.13033538
25	0x3da868cc	0.082231134
26	0x3d0df333	0.03465576
27	0x3d5d3edb	0.05401502
28	0xbd0fd75a	-0.035117485
29	0x3d65fbbf	0.056148287
30	0xbb6603cc	-0.0035097478
31	0x3d128b5f	0.035777446
32	0x3d12f848	0.03588131
33	0x3d88f3bf	0.06687116
34	0xbdc13a84	-0.09434989
35	0x3dd7fd3e	0.10546349
36	0xbd32d2b0	-0.04365796
37	0xbdde315f	-0.108492605
38	0x3d19a3d3	0.03750975
39	0x3dcc23cd	0.09967766
40	0x3dad9e2e	0.08477436
41	0xbe1093a5	-0.14118822
42	0xbde6cc4e	-0.11269437
43	0x3dd85739	0.105635114
44	0x3cca867f	0.024722336
45	0xbbe2d4db	-0.006922347
46	0x3db86472	0.090035334
47	0x3d88799f	0.066638224
48	0x3dbcd475	0.092202105
49	0x3cc9744a	0.024591584
50	0x3d8a1693	0.06742587
51	0x3d5f82de	0.054568164
52	0x3d11d438	0.03560278
53	0x3d87a08f	0.06622421
54	0x3d623b09	0.05523208
55	0x3d031fdb	0.0320128
56	0x3d2164ae	0.039402656
57	0xbdddf72c	-0.1083816
58	0x3ddb546f	0.10709464
59	0x3cc759e0	0.024334848
60	0x3da4d1f5	0.080478586
61	0xbccbed45	-0.024893412
62	0x3dae4b77	0.085104875
63	0x3df30e6f	0.11867987
64	0x3de1e9e1	0.11030937
65	0x3d1aa5a9	0.037755642
66	0x3ad8fb21	0.0016554334
67	0x3d16ec11	0.036846224
68	0xbdc86754	-0.09785333
69	0x3dd603dc	0.10449955
70	0x3d176174	0.036958173
71	0x3e1da7c1	0.15396024
72	0x3d028b53	0.03187115
73	0x3d86d24c	0.0658308
74	0x3dc33e01	0.09533311
75	0xbdef2124	-0.11676243
76	0xbddee838	-0.10884136
77	0x3d2dd7a3	0.042441975
78	0xbd32143c	-0.04347633
79	0xbd9b8c00	-0.07595062
80	0xbd82c015	-0.06384293
81	0xbdc8d310	-0.09805882
82	0x3d25a314	0.040438727
83	0xbdd3b642	-0.10337497
84	0x3d83e87f	0.064408295
85	0xbdcf9bd2	-0.10137142
86	0x3d86e13e	0.0658593
87	0x3d89383d	0.0670018
88	0x3e0532ed	0.13007708
89	0x3dfd85d9	0.12379045
90	0x3d2aa637	0.04166242
91	0x3e077bf4	0.13230878
92	0x3d1c369c	0.038138017
93	0xbd3c3344	-0.04594733
94	0x3d545d15	0.051846582
95	0x3d744683	0.059637558
96	0xbd8fbe76	-0.070187494
97	0x3db49f37	0.0881943
98	0x3d00f7a9	0.031486187
99	0xbdf242aa	-0.118291214
100	0x3d85476e	0.06507765
101	0x3c8815f9	0.01661204
102	0xbdc191ba	-0.09451623
103	0xbdf8a89d	-0.121415354
104	0xbd86c4ef	-0.06580531
105	0xbd31ff28	-0.043456227
106	0x3dca9d84	0.09893325
107	0xbd7618c3	-0.06008221
108	0xbdde8d20	-0.10866761
109	0x3de94319	0.11389751
110	0xbe0a6d2e	-0.13518211
111	0x3d4f719c	0.050645456
112	0x3ded83b8	0.11597389
113	0x3d867340	0.06564951
114	0xbdf89fe8	-0.12139875
115	0x3de40dc9	0.11135442
116	0xbdbf2a24	-0.093342096
117	0x3d0b3bf6	0.03399273
118	0x3db7a81c	0.08967611
119	0x3de1e54c	0.11030063
120	0xbd9f2960	-0.077715635
121	0x3d03004b	0.0319827
122	0x3d6f1da4	0.058377877
123	0xbd872688	-0.06599146
124	0x3df14d52	0.11782326
125	0xbce76317	-0.028245492
126	0x3d079fa6	0.033111237
127	0xbcb3f24a	-0.021966118
128	0x3d6f2a6a	0.05839006
129	0x3dd74804	0.10511783
130	0x3cdf7ac1	0.027280213
131	0x3d1c9a00	0.038232803
132	0xbd870529	-0.06592781
133	0x3cf938eb	0.030422648
134	0x3cec6185	0.028855095
135	0x3dfd4bdf	0.12367987
136	0x3e036b8f	0.12833999
137	0x3d031abb	0.032007914
138	0x3dc362e6	0.09540348
139	0xbde777b8	-0.113021314
140	0x3d6b6d1b	0.057477098
141	0x3dac2248	0.08404976
142	0xbda4d842	-0.080490604
143	0xbe03e3fd	-0.1287994
144	0x3dc960a7	0.09832888
145	0x3db92e46	0.09042029
146	0x3d49a803	0.049232494
147	0x3cdbd6eb	0.02683588
148	0x3d3b0d4a	0.04566697
149	0xbd16a1d0	-0.03677541
150	0x3ce8c70a	0.028415222
151	0x3c55aa70	0.013041124
152	0xbcffdcd6	-0.031233232
153	0x3d4975a8	0.04918447
154	0x3d391cbb	0.045193415
155	0xbd930b46	-0.071798846
156	0xbd991a50	-0.07475722
157	0xbd759c12	-0.059963293
158	0xbe1a16a4	-0.15047699
159	0x3ca38d17	0.019964738
160	0x3d18ad03	0.03727437
161	0xbdecbb33	-0.11559143
162	0x3d0a9023	0.033828866
163	0xbdab98c4	-0.08378747
164	0x3d93b4dc	0.072122306
165	0x3d0348a8	0.032051712
166	0x3dab9233	0.08377495
167	0x3d657588	0.05602029
168	0x3d76e222	0.06027425
169	0x3d9067a7	0.0705102
170	0x3cb4e82d	0.022083366
171	0x3c80c98c	0.015721105
172	0xbd08f31a	-0.033434965
173	0x3d4bfc05	0.04980089
174	0xbde97afe	-0.11400412
175	0xbc8926c5	-0.01674212
176	0x3e12158d	0.14266033
177	0x3d97d9b6	0.07414572
178	0xbddf2822	-0.108963266
179	0x3d1185c4	0.03552796
180	0x3d3ba9a9	0.045816097
181	0x3cf25a12	0.029583964
182	0x3c8c80cd	0.01715126
183	0x3dabd8ee	0.083909854
184	0xbdf52b4a	-0.11971147
185	0xbd914888	-0.07093912
186	0x3d104b02	0.035227783
187	0xbde681d0	-0.112552285
188	0x3d2d2597	0.042272177
189	0x3d898e2f	0.067165725
190	0x3d394f74	0.045241788
191	0xbd0d2293	-0.0344568
192	0x3cf8aa09	0.030354517
193	0xbdf76804	-0.12080386
194	0x3daffab3	0.08592739
195	0xbdcbfca4	-0.09960297
196	0x3cf5f2fb	0.030023089
197	0xbd9e5c22	-0.07732417
198	0xbdb837e5	-0.08995036
199	0xbdfb42f9	-0.122686334
200	0x3d903c98	0.07042807
201	0xbe078b60	-0.13236761
202	0x3dd50a01	0.10402299
203	0x3cc748c8	0.024326697
204	0xbc81f10b	-0.015862009
205	0x3cea96d6	0.028636377
206	0xbdc3883e	-0.095474705
207	0x3d88c8ee	0.06678949
208	0x3d0b8270	0.03405994
209	0x3ca0c404	0.019624718
210	0xbdb6b304	-0.08920863
211	0x3dd2eea7	0.102994256
212	0x3e07ad11	0.13249613
213	0xbe03bf70	-0.12865996
214	0xbd36878a	-0.044562854
215	0x3d10ae0f	0.035322245
216	0x3d11c252	0.03558571
217	0x3d62312b	0.05522267
218	0x3de646bf	0.112439625
219	0xbddb6eb6	-0.10714476
220	0x3d92c2f5	0.07166091
221	0x3cad179e	0.021129426
222	0xbd105e2a	-0.03524605
223	0x3cd6214e	0.026138928
224	0x3d77ff95	0.060546476
225	0xbdd7a560	-0.1052959
226	0x3d76c8b4	0.06025
227	0xbd76dd60	-0.060269713
228	0xbdd464e7	-0.10370808
229	0x3d7d2864	0.061806098
230	0xbd9f57e2	-0.07780434
231	0x3cec8d47	0.02887596
232	0x3dacf945	0.08445982
233	0xbdc67c23	-0.09691646
234	0xbdd282a5	-0.10278825
235	0x3df481be	0.11938809
236	0xbda1f50e	-0.079080686
237	0x3d52d2d0	0.051470578
238	0x3d0f69b2	0.03501291
239	0x3e02d890	0.12777925
240	0x3d9aa029	0.075500794
241	0x3e0c0e4e	0.13677332
242	0x3d900352	0.07031883
243	0x3d132e41	0.035932783
244	0x3ced2ff8	0.028953537
245	0x3dbfae0b	0.09359368
246	0xbdbe6728	-0.09297019
247	0x3e0002f1	0.12501122
248	0x3d7415ec	0.05959122
249	0x3cc06a01	0.023488047
250	0xbd3fc0e9	-0.046814833
251	0xbd918586	-0.07105546
252	0x3cb4f7c7	0.022090806
253	0x3e07ab5f	0.13248967
254	0x3da3cddc	0.07998249
255	0x3db2525a	0.087071136

fc2.weight f4 [128, 256]
0	0xbda7012b	-0.0815452
1	0xbce40276	-0.027833205
2	0x3d461766	0.04836216
3	0x3b97203a	0.004611996
4	0x3dbb5d8f	0.09148704
5	0x3e114be6	0.14189109
6	0x3c906c23	0.017629689
7	0xbc01f0e0	-0.007930964
8	0x3d40f9f9	0.047113393
9	0x3cde910f	0.027168779
10	0x3dbeac59	0.093102165
11	0xbd73b3b8	-0.059497565
12	0x3dca1b77	0.0986852
13	0x3e05e3c2	0.13075164
14	0x3db9bae5	0.090688504
15	0x3db37090	0.08761704
16	0x3e203f26	0.15649089
17	0xbd0c4ef5	-0.034254987
18	0xbd39c79c	-0.045356378
19	0x3dd083b1	0.10181368
20	0x3d2e6e5a	0.04258571
21	0xbd6407da	-0.05567155
22	0x3d13bb93	0.036067557
23	0xbc65053b	-0.013978298
24	0x3da86600	0.0822258
25	0x3aa631ad	0.00126796
26	0x3de02971	0.10945404
27	0xbd5186f5	-0.051154096
28	0x3ab6b43e	0.0013939214
29	0x3d5017a5	0.0508038
30	0x3da6baed	0.08141122
31	0x3da4a2eb	0.08038887
32	0x3dd2dbd8	0.10295838
33	0xbd9dd9cd	-0.07707558
34	0x3b45ae80	0.0030163825
35	0x3d93bb20	0.07213426
36	0x3d44cdac	0.048047706
37	0xbd17fa59	-0.037103985
38	0x3e191c55	0.14952214
39	0x3dc941c6	0.098269984
40	0x3c239525	0.009984289
41	0xbc96ac26	-0.018392634
42	0x3cf017b4	0.029308178
43	0xbd9d0337	-0.07666629
44	0x3ccfacc3	0.025350934
45	0xbd0d14ba	-0.034443595
46	0x3d289012	0.04115302
47	0x3bbc267e	0.0057418933
48	0x3d6cb71e	0.05779182
49	0x3da19320	0.0788939
50	0x3d1b4718	0.037909597
51	0xbd11fb21	-0.035639886
52	0x3d902563	0.07038381
53	0xbb1cba98	-0.002391493
54	0x3dc1925a	0.094517425
55	0x3e165ba3	0.14683394
56	0x3d8ac842	0.067764774
57	0x3cad43ba	0.021150459
58	0x3d135ccd	0.035977174
59	0x3dd3fc03	0.10350802
60	0xbc915ea7	-0.017745329
61	0x3cdf8d6d	0.027289117
62	0xbc760e11	-0.015018002
63	0x3dd103f0	0.10205829
64	0x3b91ddd6	0.0044514937
65	0x3dbc36f7	0.09190171
66	0xbd8742c2	-0.0660453
67	0x3e11273a	0.1417512
68	0xbd2a853e	-0.041630976
69	0x3c3e7f81	0.011627079
70	0x3e0e845b	0.13917677
71	0xbc89bafd	-0.016812796
72	0x3d9f588c	0.07780561
73	0x3de889ce	0.11354409
74	0x3c21b72a	0.00987033
75	0x3d14297e	0.036172383
76	0x3a432000	0.0007443428
77	0x3d4a5100	0.049393654
78	0xbd1a658c	-0.0376945
79	0xbc3f7890	-0.011686459
80	0x3c31c168	0.010849334
81	0x3b37db20	0.0028054193
82	0x3db54b04	0.08852199
83	0xbd09748d	-0.033558417
84	0xbcae48ce	-0.02127495
85	0x3d4d0d48	0.050061494
86	0xbc3bdbc2	-0.011465969
87	0xbd954508	-0.07288557
88	0x3bc6a785	0.0060624504
89	0xbb54c819	-0.00324679
90	0x3df62510	0.12018788
91	0x3c79374e	0.01521094
92	0x3e242bfc	0.16032404
93	0x3d5525aa	0.052037872
94	0xbb8371ec	-0.0040113833
95	0xbce41986	-0.027844202
96	0xbd620cdc	-0.055188045
97	0x3dcd5aa1	0.10027052
98	0x3d9db3a4	0.07700279
99	0x3d71d126	0.05903735
100	0xbd9cb3e5	-0.076515
101	0x3ca417ed	0.02003094
102	0x3d861268	0.065464795
103	0x3db5eaeb	0.08882698
104	0xbd4083a6	-0.04700055
105	0x3c82f384	0.015985258
106	0x3d2eb820	0.042656064
107	0xbd5a7dca	-0.053342618
108	0x3c235498	0.009968899
109	0x3cec20a0	0.02882415
110	0xbcab1c72	-0.020887587
111	0x3d3d2c32	0.046184726
112	0x3cc2efce	0.023795988
113	0x3da06c46	0.078331515
114	0x3d3cc0e9	0.04608241
115	0xbd5c6db0	-0.053815544
116	0x3c3ad788	0.011403926
117	0x3dd134a0	0.102151155
118	0x3d2322b4	0.039828017
119	0x3d653407	0.05595782
120	0x3d3e8286	0.046511196
121	0x3e0cc845	0.13748272
122	0x3c73ad28	0.014872827
123	0x3d6709e6	0.056405924
124	0x3d13921f	0.036028024
125	0x3ccd4118	0.025055453
126	0x3e1eeba4	0.15519577
127	0x3d439890	0.047752917
128	0x3d33c948	0.04389313
129	0xbd363d4d	-0.044492055
130	0x3d55190d	0.052025843
131	0x3dafc4eb	0.08582481
132	0x3d2b337e	0.041797154
133	0x3df60f43	0.1201463
134	0x3e29c92d	0.16580649
135	0xbc10a75c	-0.008828964
136	0x3cc85682	0.024455313
137	0x3d88a448	0.06671959
138	0x3be30ec4	0.0069292504
139	0xbd6a9e14	-0.05727966
140	0x3a070d23	0.0005151799
141	0x3d02f883	0.03197528
142	0x3d301342	0.042987116
143	0x3cde7ad4	0.027158178
144	0x3d10a197	0.035310354
145	0xbd0450de	-0.032303683
146	0xbd519c7b	-0.051174622
147	0x3d4b2d5e	0.049603812
148	0x3bdb669d	0.006695582
149	0xbd2531fc	-0.040330872
150	0x3dff91cd	0.12478981
151	0xbd33e94e	-0.04392367
152	0x3bc9c7b0	0.006157838
153	0x3d382649	0.044958387
154	0x3dbb6b7a	0.09151359
155	0x3d1e83d6	0.038699947
156	0x3d0a836e	0.033816747
157	0x3c0f20a0	0.008735806
158	0x3d64ae5d	0.05583035
159	0x3dba0f5e	0.09084962
160	0x3e21525f	0.15754078
161	0x3d1111b8	0.03541729
162	0x3dfb1e55	0.12261645
163	0xbd32f48a	-0.043690242
164	0x3cf8a16b	0.030350408
165	0x3e2e6296	0.17029795
166	0xbd36788c	-0.044548556
167	0x3d87e406	0.06635289
168	0x3dbd3729	0.092390366
169	0x3dae0a3b	0.08498045
170	0x3e615919	0.22006644
171	0xbcd3d9fc	-0.025860779
172	0x3d26405b	0.040588718
173	0x3e13c78e	0.14431593
174	0xbd6c88a7	-0.05774751
175	0x3d16cf25	0.036818642
176	0x3d113ada	0.035456516
177	0x3daf6881	0.085648544
178	0x3d388af6	0.0450544
179	0x3d9cfc7f	0.07665347
180	0xbd932c9c	-0.07186243
181	0x3d885444	0.066566974
182	0xbccce358	-0.02501075
183	0x3d32c1a1	0.04364169
184	0xbd057fe6	-0.032592677
185	0xbd2863ae	-0.041110687
186	0x3e6a9981	0.2291012
187	0xbc86effc	-0.016471855
188	0x3dc9ca55	0.09853045
189	0xbd615634	-0.05501385
190	0x3db52de4	0.088466436
191	0x3cc5e9b8	0.024159297
192	0x3dfcdc8f	0.12346756
193	0xbc9a4184	-0.018830068
194	0x3d314ef6	0.043288194
195	0xbd2625c6	-0.040563367
196	0x3e00cfe9	0.12579311
197	0xbd70fcd8	-0.05883488
198	0x3c51611b	0.012779499
199	0x3d72c602	0.059270866
200	0x3db7739d	0.08957598
201	0x3c40069c	0.011720326
202	0xbd577416	-0.052600943
203	0x3dbd1d60	0.092341185
204	0xbc16a1bf	-0.009193837
205	0x3d702e0a	0.058637656
206	0x3b67d6e0	0.0035375878
207	0x3a8266db	0.0009948866
208	0x3d87e522	0.066355005
209	0x3dac3d1e	0.08410095
210	0xbe1250fd	-0.14288707
211	0xbd3f3a8c	-0.046686694
212	0x3caf3793	0.021388805
213	0xbcbc8ad3	-0.023015415
214	0xbd27b41e	-0.040943258
215	0xbd5fbd71	-0.054624025
216	0x3de50bcc	0.11183891
217	0xbced80f0	-0.028992146
218	0xbd893b0f	-0.06700718
219	0x3cc1d874	0.023662783
220	0xbcc54018	-0.024078414
221	0xbdbfd9f5	-0.09367744
222	0x3d9e3f4a	0.07726915
223	0xbd83dc17	-0.06438463
224	0x3cd974e9	0.026545005
225	0x3d26f76c	0.040763304
226	0x3d61664b	0.055029195
227	0xbc21de30	-0.009879634
228	0x3d460e36	0.048353396
229	0x3c2b28a3	0.0104467
230	0xbd360ff0	-0.044448793
231	0x3dd4d8f4	0.10392943
232	0xbd6ac7c0	-0.057319403
233	0x3cc5e1a3	0.024155444
234	0xbcf6bf8f	-0.03012064
235	0x3c9ace79	0.018897282
236	0xbcc463cc	-0.023973368
237	0x3dd5f562	0.10447194
238	0x3e42cdc1	0.19023801
239	0x3bfb5b0f	0.007670767
240	0x3ca51b42	0.0201546
241	0x3d98df4f	0.07464468
242	0x3df961aa	0.12176831
243	0xbc9150e0	-0.01773876
244	0xbd547c20	-0.051876187
245	0x3afe2915	0.0019390906
246	0xbd5f077c	-0.054450497
247	0xbcc5abad	-0.024129713
248	0x3dd5b8f0	0.10435665
249	0x3df6252f	0.12018811
250	0xbd3fed5c	-0.046857223
251	0xbc884400	-0.016633987
252	0xbd22664c	-0.03964834
253	0x3cf71d83	0.03016544
254	0x3cf39242	0.029732827
255	0xbd1c3f4d	-0.038146306

fc2.bias f4 [128]
0	0xbd0a8b96	-0.033824526
1	0x3ce7cd91	0.028296264
2	0x3d903b54	0.07042566
3	0x3d036851	0.032081906
4	0x3d2a5306	0.041583084
5	0x3cc9055b	0.024538686
6	0x391ef2e7	0.00015158542
7	0x3bf58648	0.007492814
8	0xbd8a0c57	-0.06740635
9	0x3ca5ed3b	0.020254722
10	0x3db66c1a	0.089073375
11	0xbd3471f4	-0.044053987
12	0xbcb8e532	-0.022570226
13	0x3d266a3e	0.040628664
14	0xbd37b898	-0.044853777
15	0x3cd75c0f	0.026289014
16	0x3db25402	0.087074295
17	0xbd317ca7	-0.04333177
18	0xbc20fe44	-0.009826247
19	0x3d254f51	0.040358845
20	0x3d88100e	0.06643687
21	0xbd1a74ee	-0.03770917
22	0xbd40ed78	-0.047101468
23	0xbd581bed	-0.052761007
24	0x3d5a5ed4	0.05331309
25	0x3de3cf45	0.11123518
26	0x3d4b19fd	0.04958533
27	0x3d5bce44	0.053663507
28	0xbc41d167	-0.011829711
29	0xbd4370cd	-0.047714997
30	0x3d394eb5	0.045241076
31	0x3d8f22e1	0.069890745
32	0xbd895444	-0.067055255
33	0x3d0a93e8	0.03383246
34	0x3c5f3387	0.013623125
35	0x3d078436	0.03308507
36	0xbce5b766	-0.028041553
37	0xbcccf126	-0.025017332
38	0xbcf47124	-0.029839106
39	0x3d8f8d5b	0.07009383
40	0xbd6429ee	-0.05570405
41	0xbc1340e4	-0.008987639
42	0xbc97442f	-0.01846513
43	0x3c12f9bc	0.008970674
44	0x3d3470b3	0.04405279
45	0x3cdced99	0.026968764
46	0xbcc2fcd6	-0.023802202
47	0x3d41b9af	0.047296222
48	0xbcf02030	-0.029312223
49	0xbd16948a	-0.03676275
50	0xbd27b4bf	-0.040943857
51	0xb9a43500	-0.00031320006
52	0x3d97bf34	0.07409516
53	0x3ce15210	0.02750495
54	0x395d627d	0.00021112892
55	0xbca8e310	-0.020616084
56	0xbd0604ad	-0.032719303
57	0xbd72f500	-0.05931568
58	0x3de3d914	0.11125389
59	0x3b95ed84	0.004575433
60	0x3d6ed39c	0.058307275
61	0x3d5b42af	0.05353039
62	0x3d8e3b2c	0.0694488
63	0xbd4f7646	-0.050649904
64	0xbd5eb40e	-0.054370932
65	0xbcd3cfca	-0.025855917
66	0x3c9a0c63	0.018804735
67	0x3c87828b	0.01654174
68	0xbc731a74	-0.01483785
69	0xbd53a507	-0.051671054
70	0xbd4d033a	-0.050051905
71	0x3d102e41	0.03520036
72	0xbda033a8	-0.07822353
73	0xbd0f2d1e	-0.034955136
74	0x3da6e222	0.081486
75	0x3d854f8b	0.06509312
76	0xbd76054e	-0.060063653
77	0xbce60eb6	-0.028083187
78	0x3c8688c9	0.016422646
79	0x3d80b1ff	0.0628395
80	0xbcde9b28	-0.027173594
81	0xbd8fbc17	-0.07018297
82	0xbc3616c5	-0.011113827
83	0xbd8aa766	-0.0677021
84	0x388dfa0f	6.769981e-05
85	0x3d89bb5a	0.067251876
86	0xbd679e67	-0.05654755
87	0xbd86e1c5	-0.06586031
88	0xbd84158b	-0.064494215
89	0x3c425589	0.0118612135
90	0x3d43a11a	0.04776106
91	0xbbc6c140	-0.0060655177
92	0xbbe14046	-0.006874117
93	0x3cbddb55	0.023175875
94	0xbd5918ce	-0.05300217
95	0x3d91360c	0.07090387
96	0x3d3a788e	0.045525126
97	0x3d8fde58	0.070248306
98	0xbca85033	-0.020546054
99	0x3dc0e7c4	0.09419206
100	0x3db90b51	0.090353616
101	0x3dc38f45	0.09548811
102	0x3d472e23	0.048627984
103	0x3cb06e23	0.021536892
104	0x3db892d3	0.090123795
105	0xbcccb524	-0.024988718
106	0xbd0a4d30	-0.033765018
107	0x3d53202d	0.051544357
108	0x3cc64906	0.024204742
109	0x3d40fb0d	0.04711442
110	0xbd474116	-0.048646055
111	0x3da18f42	0.078886524
112	0xbcc6af1a	-0.024253417
113	0x3d91051e	0.07081054
114	0x3d588c8b	0.052868407
115	0x3af7a9bc	0.0018895189
116	0xbd3266eb	-0.04355518
117	0xbc62f55e	-0.013852445
118	0xbcba8942	-0.022770528
119	0x3ccf779e	0.025325593
120	0xbd342a48	-0.043985635
121	0x3bc85d51	0.00611464
122	0x3dc7e837	0.09761088
123	0xbc9c4f6e	-0.019080844
124	0x3da45065	0.080231465
125	0x3c3b5577	0.011433951
126	0x3c1ddeb7	0.009635619
127	0xbd742535	-0.059605796
