data/predictor/PT/201_TNetwork-F_2024-05-10_10-45-25.pt (torch, 238779 bytes, 12 tensors)

conv1.bias f4 [64]
00000000: 0000 0000 80f8 a33c 2cee 813d 0000 0000
00000010: 16f3 79bc ffd9 88bd 5079 35bc cc7c cbbc
00000020: 33d2 13bc 7ee1 613d 6e8d d0bc 026a 7fbd
00000030: 79ce 1abc 0000 0000 d545 01bd af88 963a
00000040: bd10 ad3b 8a48 2dbc 13b5 2c3d aece 163c
00000050: f52b febc 8d5b c0bb a1ec 34bd b90c 36bd
00000060: c10f 3bbd d7ea 213d f8b9 0b3c e1d9 03bd
00000070: 1909 103c c602 eebb 9d53 dc3d 0000 0000
00000080: 053e 3f3d 5844 3bbd 4883 c53d 39b8 cf3d
00000090: 0286 69bd eb32 403c 4c05 ef3c 19d9 8ebc
000000a0: 132d 003d 01ef 1c3c 8eb9 9d3c ea0c 1abc
000000b0: e641 2fbd b576 eabc 93e0 a03b ca2a 8b3c
000000c0: fc0b 6dbd ddb0 6f3d e9b5 e3ba 8823 37bd
000000d0: c793 23bc 5bbe a33d 1942 1a3d 7124 3abd
000000e0: 0000 0000 1156 89bc 3f37 d1bb a8e6 3fbb
000000f0: 6181 c83d d87e f63b 471a 1dbd 9e91 f63d
0.0 0.020015955 0.06344256 0.0 -0.01525571 -0.066822045 -0.011076286 -0.024839781
-0.009022283 0.055146687 -0.025458064 -0.062356956 -0.009448641 0.0 -0.031560738 0.0011484827
0.0052815364 -0.010576377 0.042164873 0.00920455 -0.03102682 -0.0058702887 -0.04417098 -0.044445727
-0.04566932 0.0395306 0.008528225 -0.032190207 0.008791232 -0.007263514 0.107581355 0.0
0.046690006 -0.045719475 0.096441805 0.101425596 -0.057012565 0.01173089 0.02917733 -0.017437505
0.031292986 0.009578467 0.019253518 -0.009402493 -0.042787455 -0.028621057 0.004909584 0.016988177
-0.057872757 0.05851828 -0.0017372939 -0.04471162 -0.009983963 0.07995292 0.037660692 -0.04544491
0.0 -0.016764672 -0.0063847597 -0.002928177 0.09790302 0.007522445 -0.03835514 0.12039493

conv1.lin.weight f4 [64, 4]
00000000: e02b c3bc 8e06 6dbe c3e3 83be 609d 81bc
00000010: 53d3 c6be f2f0 3bbf 3bed 033e 6fd4 913e
00000020: d4df 813e 71c9 9abd 8d49 7dbe 2f9b 823e
00000030: 5217 25be 9840 e6bd c751 21be 3056 0a3d
00000040: eaa7 abbe 0bc8 a7be 25ef 353e 4121 84bb
00000050: 568b 6f3e f75e 92bd 1afb c63c 4a74 023f
00000060: c3c4 0a3e 94cd d9bd c576 7cbb b6f6 bd3e
00000070: fabc 073e 2dda 0d3f 20b6 473e a072 6cbf
00000080: 50e8 0a3e 21bc d43d e0ad 223e a8e9 9abe
00000090: bbbf 98be 9d14 773e 2a02 6fbe f6ef df3e
000000a0: 53d6 fcbc 0a45 083f d05c 023d 9c0a 03be
000000b0: de0b 6b3e 43fb b6bb eb86 9d3b c91d efbd
000000c0: fac9 1d3e c9eb 853d b34c 6ebd 27aa 58bd
000000d0: 23a8 23be 782b 90be fc7a 0ebe 00c6 4f3a
000000e0: c47f 78be 254d 03bf fad5 583e 393c dcbd
000000f0: 1248 943e 6568 63bd f8cd 94bd 312c 8fbd
00000100: cabd 863e bbcd 9f3d e5a6 19be 11a1 103e
00000110: b432 73bd 485a 0cbd 7225 7fbb 464d b6bd
00000120: ae52 c9be 12bf b1bd 07a2 f23c 8ddd 513f
00000130: 04cc f83b 8e8b b03e 5727 95bc 060a c73e
00000140: 5a71 b1bc 97f0 90bd 51f8 83bb 245e af3e
00000150: b12b d13d 1cb7 343e 94f5 bcbe b476 203f
00000160: 1263 023e ce0a b13e ab56 703e d77b bcbe
00000170: d9c5 943e 6c80 8d3d ce80 933c 1246 3e3e
00000180: 1a7d 213e a861 a83e 7af5 863e 861d 33bf
00000190: 7092 b8be eb07 eabe fa7f 9a3d 03f0 5c3e
000001a0: dffc a43e da87 d93d 6adf 88bc 7188 1c3f
000001b0: 81f1 0fbc 637d 13be 885f 2c3e ef4a 11bf
000001c0: 2310 34be 8047 153e acd3 6d3d da54 583e
000001d0: 6ba8 0e3d f5cd 9bbd 8ec0 3a3e 4de8 9fbe
000001e0: a9b9 683e 22a6 84be 42fa 29be 47a6 a03e
000001f0: 4002 bcbd 18d9 92be ba94 e2bd aaa9 0abe
00000200: b13c 3b3e f146 043d d0cd 70be 0eb8 b03e
00000210: ce4f 67be e177 dabe efcd 4f3e 0fd2 fabd
00000220: 12c8 adbe 2bef 59be c611 26be 0076 ed3e
00000230: 0bef 24bf 8022 f83e 11d2 00bd 0a3b cdbd
00000240: 622e 283e 02b1 30be 1c73 313e 7e4f 2c3f
00000250: a3dc ba3e a449 52be 4387 52be da64 bc3e
00000260: 2bf5 ab3e a565 6e3e 65d4 e4bd 6428 f03e
00000270: 7a01 babc 0f17 f9bd 1c59 80be 1566 103e
00000280: c4c9 b1be 76ac 25be d7f6 123d 6fbf 473f
00000290: 57c6 78be d50a bdbe b1aa 573e d9b4 8dbe
000002a0: 0934 1f3e 8a7c db3d 3954 6fbd bd34 1b3f
000002b0: 2a35 59be bf3b 1fbe ba11 853e 1dc2 54be
000002c0: 0e24 9b3e 54c0 0fbe fba2 ca3c 91e3 e33e
000002d0: b0be 20be 1c1f d8bd 6b4e cd3d 6708 b4be
000002e0: 6e2f 5a3e 8265 833e 9de5 043d a8e2 45be
000002f0: 42f8 be3e 83e4 12bd 5d96 a4bd a775 e93e
00000300: 5f4b 653d bdf0 9dbe 82b5 6bbe 1be9 00bd
00000310: 685b a43e bb03 afbd 35c7 e7bd d061 083f
00000320: af84 a93e c4a6 a13e 88f6 083c f0cb 1cbf
00000330: a058 273e c27a bd3e 8cd1 803e 6081 573e
00000340: e227 bcbd 60bd bd3e 1bea cc3d ad22 e7bd
00000350: 6928 abbe 6e15 3c3e 5316 29be 286b d23e
00000360: 43b1 653e 12f1 79bc 890d 99bd 8ab8 1e3f
00000370: 4063 8d3e d59b c3bd fffb e53b 1a2f 6c3e
00000380: 2e42 febd 3213 94be d8ad 81be 3cd6 91bd
00000390: c1bd dfbd b12c abbe f528 bd3d 830c 99be
000003a0: 60bf fabd f092 753e be48 423e 4cd4 fcbe
000003b0: 8881 3e3d 799d 3bbe 5407 76be c397 10be
000003c0: 6c26 bf3e 0c34 22be 7a13 d5bd 3173 e83e
000003d0: 6f21 dc3d 09fb cebd 85b8 0dbd 636c 51bd
000003e0: 5368 a7bd 28cf 93bb 7f9b 403e 35d7 66be
000003f0: 3c76 00be 2789 2bbe 0b90 4fbe 0565 2a3f
-0.023824632 -0.23147032 -0.25759706 -0.015822113 -0.38833103 -0.7341453 0.12883465 0.28482386
0.2536608 -0.07557953 -0.24735089 0.2550902 -0.16122177 -0.11242789 -0.15753852 0.0337736
-0.33526546 -0.32769808 0.17767008 -0.0040322845 0.23392996 -0.07147019 0.024289656 0.50958693
0.13551621 -0.10634914 -0.003852294 0.37102288 0.13255683 0.55411035 0.19503069 -0.92362404
0.13565183 0.10387445 0.1588664 -0.3025639 -0.2983378 0.24128957 -0.2334067 0.43737763
-0.030863917 0.53230345 0.031826794 -0.12797016 0.22953746 -0.005584152 0.0048073432 -0.11675603
0.15409079 0.06539113 -0.058178615 -0.052896645 -0.15982108 -0.28158164 -0.13914102 0.00079259276
-0.24267489 -0.5128959 0.21175376 -0.10753674 0.28961235 -0.05551948 -0.07265848 -0.06990851
0.26316673 0.07802912 -0.15005071 0.14123942 -0.059374526 -0.034265786 -0.0038932231 -0.089014575
-0.39320892 -0.08679022 0.029618276 0.81978685 0.00759268 0.34481472 -0.018207235 0.38874835
-0.021660496 -0.07077139 -0.0040274044 0.3425151 0.102134116 0.17647976 -0.3690611 0.62681127
0.12733105 0.34578556 0.23470561 -0.36813232 0.29057196 0.0690926 0.018005755 0.18581417
0.15770379 0.32887006 0.2635916 -0.69966924 -0.36049223 -0.45709166 0.07543941 0.21575932
0.32224175 0.10621615 -0.016708095 0.61145693 -0.008785606 -0.144033 0.16833317 -0.56754965
-0.1758428 0.14578056 0.058063194 0.21126118 0.034828585 -0.076076426 0.18237516 -0.3123192
0.22727074 -0.25908 -0.16599372 0.3137686 -0.09180117 -0.28681254 -0.110635236 -0.13541284
0.1828487 0.032294217 -0.23516011 0.34515423 -0.22589037 -0.42669585 0.20293401 -0.12247097
-0.33941704 -0.21282642 -0.16217718 0.4637909 -0.6442725 0.4846382 -0.031450335 -0.100210264
0.16423944 -0.17255023 0.17329067 0.67308795 0.36496457 -0.20535904 -0.20559411 0.36795694
0.33585486 0.23280962 -0.111733235 0.46905816 -0.022705782 -0.12162601 -0.25067985 0.14101441
-0.34724247 -0.1617907 0.035879936 0.7802648 -0.2429441 -0.36922327 0.21061207 -0.27677038
0.15547194 0.10717113 -0.05842993 0.6062735 -0.21211687 -0.15550135 0.25990087 -0.20777173
0.30300945 -0.14038211 0.024735918 0.44509557 -0.15697742 -0.10552809 0.10024723 -0.3516266
0.21307155 0.25663382 0.03244554 -0.19324744 0.3729878 -0.035862457 -0.08036492 0.45597574
0.055980083 -0.3084773 -0.23018458 -0.031472307 0.32100987 -0.085456334 -0.113172926 0.5327425
0.33109042 0.31572545 0.008359559 -0.61248684 0.16342402 0.3700772 0.25159872 0.21045446
-0.091872945 0.37058544 0.100055896 -0.11285911 -0.33429268 0.1836755 -0.16512422 0.4109738
0.22430901 -0.01525523 -0.07473285 0.62000334 0.27614784 -0.09551207 0.0070185657 0.23064843
-0.124149665 -0.28920895 -0.25327945 -0.0712094 -0.109248646 -0.33432534 0.092363276 -0.29892358
-0.12243533 0.23981833 0.18973061 -0.4938072 0.04651025 -0.1832179 -0.24026233 -0.14120393
0.37334 -0.15840167 -0.104041055 0.45400384 0.107485645 -0.10106475 -0.0345998 -0.051128756
-0.08174195 -0.004510779 0.18809317 -0.22543032 -0.12545103 -0.16751538 -0.20269792 0.66560394

conv2.bias f4 [64]
00000000: 108d 333d 6409 cb3a dc05 91bc aa1c 593c
00000010: 6eb7 5c3c 0000 0000 0088 f4bc 0164 353c
00000020: 8709 d3bc db43 bdba aa61 3a3c 952d 83bc
00000030: b051 90bc 8835 f6bc fc26 1abd cd91 07bd
00000040: 8272 0cbd 8feb ff3c fefb c5bc 3d54 87bc
00000050: 047d 79bc 6702 3bbd cbb5 1fbb 0000 0000
00000060: 0e97 a4bb 4c88 adbc 665e d1bc 581a 47bc
00000070: da6a 6bbc 89ad c9bb 449d 02bc e993 6abd
00000080: 95d2 f8bc b386 5d3c e9f9 82bc cf2d beb9
00000090: 829f 963b 16c5 1abd 4d3f a7bb 7bb5 9abd
000000a0: 1131 86bc 2bbf 8abb 1909 00bd f58b 68bc
000000b0: 9555 54bc 7e2f f0b9 eb95 7cbc 2647 a7bc
000000c0: 782c 8fbc bc14 693b 1d84 14bd 6871 0abc
000000d0: b8c1 9d3b 646c 113c bab4 1bbd d23b b2bc
000000e0: e0b4 74bb 7d80 2dbd 2ad8 ccbc 9425 c2bc
000000f0: b146 d93b fd5f 5a3c 7409 3fba f076 b8bc
0.0438357 0.001549047 -0.01770299 0.013251463 0.013471467 0.0 -0.029850006 0.011071206
-0.025761379 -0.0014439778 0.011375824 -0.016012946 -0.017617077 -0.030054823 -0.037634835 -0.03309803
-0.03428889 0.031240253 -0.02416801 -0.01651966 -0.01522756 -0.045656588 -0.0024369832 0.0
-0.00502289 -0.021183155 -0.025557708 -0.012152277 -0.014368737 -0.00615472 -0.007972065 -0.057269964
-0.03037385 0.013520884 -0.015988307 -0.00036273754 0.0045966515 -0.037785612 -0.0051039816 -0.07554146
-0.016380819 -0.004234215 -0.031258676 -0.014193525 -0.0129598575 -0.00045811752 -0.015416603 -0.020419668
-0.017477259 0.0035565337 -0.036258806 -0.00844989 0.004814353 0.00887594 -0.03801415 -0.02175704
-0.0037339255 -0.042358864 -0.025005419 -0.02369956 0.0066307415 0.013328549 -0.00072874804 -0.022517651

conv2.lin.weight f4 [64, 64]
00000000: a254 28be 3e1a 8cbe c50d 20bf ddcd 183e
00000010: f001 febe aee5 3fbc 7b54 3a3e 332d 4a3d
00000020: d816 bcbd e99c 44be ec8d 533e 4879 10be
00000030: 8f33 5dbe cd4b 06be a8b4 18be 80fa ef3d
00000040: fc76 27be 20d3 c4bb 36b4 90be d12d 3b3e
00000050: c802 453c a3e1 cdbe ffd7 933d e975 9f3d
00000060: e958 e0bd 085e febd 2dd2 2cbe 1cb8 01be
00000070: 0adf f5bd eb5d 20be 4701 35bd 8e90 c33d
00000080: 8309 0abe d83d 5b3c 9397 443e 46ef c8bd
00000090: 74bb 1ebe 8b80 0abf c9ae 213e 1ec3 14be
000000a0: 97a6 77be 95b4 95be d844 1a3e 355e 63be
000000b0: 37b2 353e c3f5 25be 546d 09bd 2a3e 863e
000000c0: 206e 003e 5154 253e 2015 f6bc 0ecf 53bd
000000d0: b076 1e3e aa0c 3f3b f96b 1a3e 9009 c03d
000000e0: 5ee3 96bd d99a 1dbe 50f9 88bd b429 6abe
000000f0: 4da6 a5bd 6c7b 6cbc 4719 223e 6186 ec3d
00000100: f7e9 1b3e dd0b 743e 1743 b63e 723a bc3d
00000110: 3974 083e be98 133e d0aa a1bd f02d d73d
00000120: d25d 18be 5cbd 8a3d 916f 78bd 67d1 793e
00000130: c76c 3c3e 49ca c5bd f50b 12bc 2ca7 2d3c
00000140: 2695 6c3e 67ce 193e 096d 5b3e d090 1b3e
00000150: e48a 2c3e 07fe 723e 5fbc 973c 20ac b6bd
00000160: 4130 a63c f52e a43e 76e6 a8bd 0cb4 efbd
00000170: f3d5 26bd 91e1 8cbe 16e5 8a3e 8de6 2e3e
00000180: ffed dd3e aa61 6b3e 16e7 053f ebeb 003e
00000190: 3ab8 94bd daf5 273f d09b 803e 1707 97bc
000001a0: 6cb8 c03e 31ca cb3d ff69 913e 24b3 cebd
000001b0: 2de8 19be 8b85 af3e 4846 523e 2bd3 2bbd
000001c0: a9c1 843d ee90 323e 4aa6 d2bc f716 a8bb
000001d0: 5334 16be 0c5f 063e 55e7 893c 1c34 293e
000001e0: cd2f 3c3e bf4b 4c3e 04e5 afbd af8f 22bc
000001f0: 4006 88bc c7d4 7c3e 5128 95be 7641 f03d
00000200: 1562 403e 28fe 013f d677 023f ad96 403e
00000210: 1d11 123e b785 24be ad0f 5bbd 62ed 65bd
00000220: 8546 10be 484e a83e c44b eebd 13b8 413e
00000230: 97cf 43bd 1411 21be 795f 07bd 7ade 58bb
00000240: 1518 e0bd 2fef a2bd 2bcb df3e 3c32 073e
00000250: 951d a5bd 695a 953e 3534 c838 92ff 4f3d
00000260: 2132 1e3e 9cb5 df3e 23b7 c2bd 7f46 01be
00000270: 8d3b 123e a432 51be c62e e03c 0e8f d43d
00000280: e61d e83d 02d2 0fbc 7c33 b43e 537f bd3e
00000290: 1a22 b93d acda d43d cc19 983d c619 ec3c
000002a0: be9f d33e 4de9 17be a9f1 edbd f01a c6bd
000002b0: a30a a33d ba6e bf3c 1a86 35be 86fc 173e
000002c0: 0c07 f43d ca3c 313d b21c f0bd 44cf 203e
000002d0: 8b5b 1c3e a044 813e 34b3 9d3d 7ba7 663e
000002e0: 06d6 2bbe 3989 85be 0101 68be 3c1e 6e3e
000002f0: 9d1e 913e 8dc8 91bc 0094 343e 9d22 833e
00000300: 0026 93bc d752 833f bdf6 953b 0898 1abe
00000310: 4259 5b3e 130b e53d fe36 2e3e c980 2dbe
00000320: e7d5 dc3d dec1 883d 232f 4b3e c57c 38be
00000330: 5a3a f23b c6cb cf3d eb37 973e 331e 0c3e
00000340: b54d f03d dfef d1bd 8c1a fa3e ff85 eb3d
00000350: cf52 17be 1c87 4f3d f971 2bbe 62ed 7ebe
00000360: 24da 3bbe 25d0 843f a249 2fbe 5706 d3bd
00000370: 2cfb a43e b988 623c 62bb 0abe 7edd f7bd
00000380: d867 ebbd 7104 803e 98e8 063f 775a 013f
00000390: 4896 253e e157 72be c0e7 d2bd 327b 5c3e
000003a0: 6d0d 293f 3811 813e e327 41be cf25 b0bd
000003b0: ed4a 4bbe 4e56 f83d 2d42 ca3d bd7d 6dbe
000003c0: ed47 4dbe b032 073e d3a0 90be 16b5 b0bd
000003d0: 6bb8 77bd f612 b43e 2d0c dd3d 10f5 cc3d
000003e0: 5a1c e03d 3bb9 febd 296b 113e 4590 003e
000003f0: 5178 afbe f79b 7ebe 9b45 d13c fc17 283e
-0.16438535 -0.2736377 -0.6252101 0.1492228 -0.49610853 -0.011712475 0.18196289 0.04935951
-0.091840446 -0.19200481 0.20659608 -0.14108765 -0.216017 -0.13114853 -0.14912665 0.11717701
-0.16353983 -0.0060066134 -0.2826249 0.18279196 0.012024589 -0.4021121 0.07218932 0.077861615
-0.10954458 -0.12420279 -0.1687705 -0.12667888 -0.12005432 -0.15660827 -0.04419067 0.09549056
-0.13480191 0.013381444 0.19198446 -0.09811263 -0.15501195 -0.5410239 0.15789331 -0.14527556
-0.24184643 -0.29239336 0.15065324 -0.22203906 0.17743765 -0.16207032 -0.03355153 0.26219302
0.1254201 0.16145445 -0.03003937 -0.051711135 0.15474963 0.0029151835 0.15080251 0.09376824
-0.073675856 -0.15391101 -0.066881776 -0.22867471 -0.0808836 -0.014433723 0.15829955 0.11549068
0.1522597 0.2383265 0.3559806 0.09190835 0.13325585 0.14413735 -0.07893908 0.10506809
-0.1487954 0.06774399 -0.060653273 0.24396287 0.1840087 -0.096577235 -0.008913984 0.010598939
0.2310377 0.15020142 0.21428312 0.1519196 0.16849858 0.23729716 0.01852244 -0.08919549
0.020286681 0.32067075 -0.08247082 -0.11704263 -0.04073138 -0.27515844 0.27127904 0.17080136
0.4334564 0.22986475 0.52305734 0.12589996 -0.07261701 0.65609515 0.25118876 -0.018435998
0.37640703 0.09950674 0.2840118 -0.10092762 -0.15029974 0.34281573 0.20534623 -0.041949432
0.0648225 0.17438099 -0.025714058 -0.0051296907 -0.14668398 0.13122195 0.01683394 0.16523784
0.1837761 0.1995077 -0.08588603 -0.009921952 -0.016604543 0.24690543 -0.2913232 0.11731236
0.18787415 0.50778437 0.50964105 0.18807478 0.1426434 -0.16066633 -0.053481746 -0.05613459
-0.14089401 0.32872224 -0.11635545 0.18917875 -0.047805395 -0.15729171 -0.033050034 -0.003309159
-0.10942093 -0.07955777 0.43709692 0.13202757 -0.08062283 0.2917054 9.5464675e-05 0.05078084
0.1544881 0.43693244 -0.09507587 -0.12624548 0.1428053 -0.20429474 0.027366053 0.10378848
0.11333828 -0.008778097 0.3519553 0.37011203 0.090397075 0.10393271 0.07426795 0.028820883
0.4133281 -0.14835091 -0.11618359 -0.09673107 0.07961013 0.023368228 -0.17726937 0.14842424
0.119154066 0.043270864 -0.11724223 0.15704066 0.15269296 0.2524767 0.07700196 0.22524826
-0.16780862 -0.26081255 -0.22656633 0.23253721 0.2834367 -0.017795825 0.17634583 0.25612345
-0.017962456 1.0259656 0.0045765326 -0.15097058 0.21420768 0.11183753 0.17013165 -0.16943659
0.10782986 0.06677602 0.198422 -0.18016346 0.00739221 0.101462886 0.2953485 0.13683395
0.117335714 -0.1025083 0.4884838 0.11500167 -0.14777683 0.05066596 -0.16742696 -0.24895242
-0.18344933 1.0376021 -0.17117932 -0.103039436 0.3222288 0.0138265425 -0.13548043 -0.12102793
-0.11494416 0.2500339 0.5269866 0.50528663 0.16170609 -0.23666336 -0.10298109 0.2153137
0.6603611 0.2520845 -0.18862872 -0.086009614 -0.198528 0.12125836 0.09875903 -0.23192497
-0.20046969 0.1320293 -0.282477 -0.086282894 -0.06047861 0.35170716 0.10793338 0.100076795
0.10942908 -0.12437674 0.14201035 0.12555034 -0.34271482 -0.24864183 0.025545886 0.164154

conv3.bias f4 [64]
00000000: d8f1 29bc e8a1 183d 696f f6bb d82f b9bc
00000010: 4ba2 a1bb 8f53 613d ae34 50bb bd85 26bc
00000020: 7642 753b b297 283d 5a7c 463c 03a4 02bd
00000030: fa42 87ba a862 713c c1dd 35bd a317 72bc
00000040: 88d2 d5bb 30d7 cf3c ae8a 443a ab61 46bc
00000050: 24ee f0bc 93de 813c e1d3 1c3c 63ff 233d
00000060: d564 3a3c 013c d8ba 2c84 113b 2bf2 173d
00000070: 9f71 11bd 6187 7cbc 8249 193c eedb 28bc
00000080: 6895 b33c 756d a63b 76bb 903c b365 d5bc
00000090: 0fad eebb e8ce 93bc f8aa 593b 48ff 70bc
000000a0: 03a4 3ebd fa36 90bb 14b5 07bd 7c4e 8fbc
000000b0: efdd 0e3c 4c07 fe3c f472 cf3c ac7a e83a
000000c0: b654 9bbc 238f 15bc 25b0 1ebd ce41 723c
000000d0: a3fd d7bc 03a6 8ebc 1dfa eb3c 8b37 9cbc
000000e0: b247 c83c a60e 25bd 665c c83c 0212 14bc
000000f0: 2b49 ef3b 9665 c5bc eef1 bcbc 1e6c 78bc
-0.010372601 0.03726378 -0.0075206053 -0.022605821 -0.004932677 0.05501133 -0.003176968 -0.010163722
0.0037423647 0.041160293 0.012114609 -0.031894695 -0.0010319643 0.014732994 -0.044400934 -0.014776143
-0.0065253414 0.025371164 0.00074974715 -0.012108247 -0.02941043 0.015853202 0.009572 0.040038478
0.011376579 -0.0016497375 0.0022204025 0.037096184 -0.03550875 -0.015413136 0.009355905 -0.010306342
0.021921828 0.0050789663 0.017667513 -0.02604947 -0.007283814 -0.018042997 0.0033213478 -0.014709301
-0.046543133 -0.004401085 -0.033131674 -0.017493479 0.008719905 0.031009339 0.025323369 0.0017736754
-0.018961292 -0.009128365 -0.038742203 0.014786197 -0.02636606 -0.017413145 0.028805787 -0.019069454
0.02444825 -0.040297173 0.024458122 -0.0090374965 0.0073024235 -0.024096292 -0.02306458 -0.015162496

conv3.lin.weight f4 [64, 64]
00000000: 2a0e a13c ce8d 95be 2431 14be ef93 f43d
00000010: fd18 a13d e439 2d3d 6d9a b43d 074a 30be
00000020: 5c62 863d 2c40 04be 0adf 623d 9f02 aebd
00000030: 6b9e 0b3e 0d50 2c3e 935a 813e 533e 5c3e
00000040: 7479 fd3d 6cd4 093e a3c4 a3be 4067 283e
00000050: fc9a 373e 7803 293e 1037 593e 74c7 0abe
00000060: ed0a 3b3f e2c4 ae3d 4772 d23d 518f 06be
00000070: 77fa 183e 0b6d a0be 62dd 2d3e 049d 04be
00000080: 56e2 9d3d 30a2 b63e 6ce6 56be 438a aa3d
00000090: bf86 2ebe 94e0 573e c2de e7be 605e 673e
000000a0: 458f a03e c567 0dbe 6243 513e 35c3 c33c
000000b0: c276 b33d 8b70 3b3e ca9c 62bd 6556 543e
000000c0: 0e47 603d a96c 5ebe 85e2 ed3c eb03 9fbd
000000d0: 5031 88be 408d 713e dcd4 343e 3fdd 223d
000000e0: 03eb 4f3e 4bda 223d f695 b93d 94ee 29be
000000f0: a648 50be f49d 78be e18e 8d3d 8ef7 24bd
00000100: e9e2 d4bd 021f 833e f9c6 c23c 52d8 773e
00000110: 8131 a33d 2a47 d7bd 37fe b43d faf8 97bd
00000120: 2047 c9bd 4033 e93d 7b6e 22bd 6aaf 873c
00000130: eb60 f13d 2239 373e 65a6 5bbe 427d 103e
00000140: cb20 903e 8aeb 313d 9b3d ff3d 3c85 593e
00000150: 9ab6 a9bd b54e a0bd 5d82 c9bd ef70 5a3e
00000160: c04f 5cbf f6b3 173e 4ae9 373e 3816 87bd
00000170: 0d2f 1a3e 5403 b83e d947 57be 6f88 93bd
00000180: 0c7a 3fbe 0dfc 66be 060b 073e 3fb9 f7bd
00000190: 72fd 2f3e caff 023d 5b8f 2f3e 097a 85bd
000001a0: 0a6e d3bb 0216 293e 73ce 1a3e 0ec5 8e3d
000001b0: 3058 5abd a3bd cebd ce3b 383e cc3b 643e
000001c0: b484 60be c781 b63d cde1 0d3c 1cd8 90bc
000001d0: 265c 1bbd 0174 713c e48d d0bd a77b b5bd
000001e0: a56f 0fbe c9ee bc3d f3f0 08be d9dc 33be
000001f0: 96fc 92bd 47ff 563e 001b c4bb f2cf e6bc
00000200: 6ff8 01bd dc67 ec3d 3e34 333e 1f11 513e
00000210: 774e 38be d834 a83c 5c47 c73c 0867 ffbd
00000220: aa52 053e 55c7 113e e60b d23d 2f8c 19be
00000230: ee49 57be 8164 4d3e cdfe 833e eeb9 b73b
00000240: a956 d23d f3ff 8d3e 48fb 5cbe 4be4 853e
00000250: 289e 2d3e 75a2 c03d 0754 843e a3be 32be
00000260: 61a4 a13e 9286 99bd 1dbd 5bbd 2760 0bbd
00000270: c4f9 7bbd 43c3 edbd 912e d53c cc79 c73c
00000280: d6e4 8d3d 9827 ad3e 8edd 9bbd c57f 7dbd
00000290: 04a1 27bc addf 10bd 6db6 d2be a923 ab3d
000002a0: 43a5 403e 2cbf 27be 8552 1f3c c387 e63d
000002b0: 1390 05bd deab 863d 4d2b 36be 39c2 983d
000002c0: 76fc 463e 72bf 19be bced 0e3c 22ef d73a
000002d0: b959 51be f020 a43e 7fa1 043d 51f0 363e
000002e0: 356d b8bd 9a1b cd3b d3c3 e63d 0434 23be
000002f0: a741 4ebd 4b1d c2be 497d 763e fec5 81bc
00000300: 6c95 b1bd 44fe be3e e063 ecbc 03ad 2d3f
00000310: 2791 4d3d e2fe 26be 333a f9bd 69a8 2a3e
00000320: cb55 ce3c 3f42 85bc 591c 15be fa5d fabd
00000330: 6287 25be d546 383d 99ba 093e 49ea d13d
00000340: bbae 6d3d e689 ea3e 0205 cf3d 2cb6 b93d
00000350: a95b 393d c6d2 50bc 73fc a5be 9e8f bebd
00000360: ee44 41bf f223 c73d b653 e93d ee68 2cbe
00000370: 195b 09bd 9fec 943e 94d3 51be 59ff 63b8
00000380: ba4e 5abe 86d6 11bc ec5f e33d a4b0 f3bd
00000390: a7b4 24bd fa11 303c fcc5 b63c 9ae5 6f3e
000003a0: 18bd 23be 0c43 9a3d e33d 653d bd9d 373e
000003b0: e380 b3bc e8bd b3bd efaa a83d 3217 a23e
000003c0: 0947 ebbd 1016 893d 2947 22be 3903 6abd
000003d0: 6dcb a43b 21d8 413f 0a1e 6d3d 9c65 82be
000003e0: a701 9abe 52a2 693d 0476 d4bc 5f40 febd
000003f0: 374c 013e d231 e13d c716 263e c7f4 cb3d
0.019660074 -0.2920975 -0.1447187 0.119422786 0.07866094 0.042291537 0.08818517 -0.17215739
0.06561729 -0.12915105 0.055388488 -0.08496594 0.1363465 0.16827412 0.25264415 0.2150815
0.12376681 0.13459939 -0.3198596 0.16445637 0.17930216 0.1650523 0.21212411 -0.13552648
0.73063546 0.08533646 0.10275703 -0.13140608 0.14939295 -0.31333193 0.16978982 -0.12950522
0.07709186 0.35670614 -0.20986336 0.083271526 -0.17043589 0.21081764 -0.45287138 0.22594595
0.31359306 -0.13809116 0.20435861 0.023896793 0.08762886 0.1830465 -0.055325307 0.20736082
0.054755263 -0.21721138 0.029038677 -0.07764419 -0.26600122 0.23589039 0.17659324 0.039761778
0.20304494 0.03975896 0.09061806 -0.16594917 -0.20340213 -0.24279004 0.069120176 -0.04027515
-0.10394842 0.25609595 0.023776518 0.24203613 0.079684265 -0.1051162 0.0883755 -0.074205354
-0.09828019 0.11386728 -0.039656144 0.016563136 0.11786064 0.17892888 -0.21450193 0.14110282
0.2815002 0.04343752 0.12462922 0.21242231 -0.082867816 -0.07827512 -0.09839318 0.21332143
-0.8605919 0.14814743 0.17960086 -0.06596035 0.15057011 0.3594004 -0.21023501 -0.07203757
-0.18698901 -0.22557087 0.13187799 -0.1209588 0.17186525 0.03198222 0.1714453 -0.06517417
-0.0064523267 0.16512302 0.15117817 0.06971179 -0.05330676 -0.10094764 0.17991564 0.22288436
-0.21925622 0.08911472 0.008659792 -0.017681174 -0.037929676 0.01473713 -0.101833135 -0.088614754
-0.14007433 0.09225232 -0.13373165 -0.17564715 -0.07177083 0.20995818 -0.005984664 -0.028175328
-0.031731065 0.11543247 0.17500398 0.20416687 -0.17998682 0.02053301 0.024326019 -0.124708235
0.13019815 0.14236195 0.10256176 -0.14994882 -0.21024296 0.2005787 0.25780335 0.0056068813
0.10270435 0.27734336 -0.21580231 0.26150736 0.16954863 0.09405986 0.25845358 -0.17455535
0.31570724 -0.074963704 -0.05364715 -0.034027245 -0.061517492 -0.11609509 0.026023181 0.02435007
0.069284126 0.3381927 -0.076106176 -0.06188943 -0.01023126 -0.035369564 -0.41154805 0.08356411
0.18813042 -0.1638152 0.009724264 0.11256363 -0.032608103 0.0657575 -0.17789955 0.0745892
0.19432244 -0.15014437 0.0087236725 0.0016474465 -0.20444383 0.3205638 0.032380577 0.17865111
-0.090052046 0.006259394 0.11267819 -0.15937811 -0.05035558 -0.37912974 0.2407123 -0.01584148
-0.08671078 0.37303364 -0.028856218 0.6784212 0.050187256 -0.16308168 -0.12169304 0.16665806
0.025187394 -0.01626694 -0.14561595 -0.12224956 -0.16164926 0.044989426 0.13450088 0.102497645
0.058027964 0.45808333 0.10108377 0.0906795 0.04525343 -0.012745565 -0.32419166 -0.093047366
-0.75495803 0.09723653 0.1139292 -0.16836902 -0.033534143 0.29086778 -0.20490867 -5.435883e-05
-0.21319094 -0.008901244 0.1110228 -0.11898926 -0.040211346 0.010746473 0.022311203 0.2342743
-0.15990102 0.075323194 0.055967223 0.17931266 -0.021912044 -0.08776456 0.08235728 0.31658322
-0.11488158 0.06693661 -0.15847458 -0.05713198 0.005029133 0.7572041 0.057889976 -0.25468147
-0.30079386 0.057039566 -0.02593518 -0.124146216 0.1262673 0.109958306 0.16219626 0.09958797

fc1.weight f4 [256, 64]
00000000: a2b2 203e 5f25 44bc 9ca1 033d d898 51bc
00000010: 685c 843e b3b9 3abe e58e b3bd bfbd 423c
00000020: 9228 aa3d d635 b83d 4c1e 93bd a81b 263c
00000030: 7029 31bd 9016 ec3c c422 3c3e fe42 0cbd
00000040: 50e0 9e3e 1948 ecbd 0d34 dd3c 5f9e 45bd
00000050: 637e 9b3d f10f a8bc 8a69 0abe 17b8 7d3d
00000060: d774 783d e346 01be af17 9dbd 5735 363d
00000070: 5b44 123d 9368 d33e 4aaf 063e cf43 383e
00000080: 7e46 273d 1ee5 acbd 4e4e a1bd f928 96bd
00000090: 6372 bbbc 5b10 9b3d 504b 083e 43c3 833d
000000a0: 36d0 1d3e 3672 27be df30 e83d edab 003d
000000b0: 4f32 963c 45f8 adbe d879 6fbe 4f72 06be
000000c0: 1ab9 5b3d ecd2 4a3e d65f 8b3d 2bc1 ff3d
000000d0: 20cb fb3c 0bd3 bb3d 363f debd 3ca1 72bc
000000e0: baec 5a3e 7411 143e f0bf 14be 6a7e e53c
000000f0: 7482 2abd cfd1 323d eb63 603e c557 7cbc
00000100: 1cc5 77be 8943 ab3d 4971 bebd e7ea d93d
00000110: 0333 963c d13b 47be 792d 72bd fa0f 483e
00000120: a3c6 53bc 6590 5dbc 510c 003e 3284 63bc
00000130: e83d 5dbd c9e4 773c 7e71 d4bd fdfc 50bd
00000140: 10ff a03d 5cad eb3d 9cd2 d2bd 5c8f 31be
00000150: b088 bcbd 6ff7 7e3d 5979 403d bdfb 123e
00000160: 8fa5 b43c 2861 23be 24e7 6dbd 11f0 403e
00000170: 35a6 a93d cd38 ac3b 1ec2 153e 293f d83c
00000180: 8fa3 843e 9842 7b3c 1c74 c23d 61ee 043d
00000190: 7bb3 bb3d 67dd 9d3d 41a3 80bc de66 82ba
000001a0: d9cb 4dbc a9e0 853c 95c5 d93c 5765 d5bc
000001b0: 893f a43d 6836 903c 8484 513b c800 063e
000001c0: b178 4c3e 4ca9 8e3c 326e f1bd 42b6 7e3d
000001d0: 97b9 6fbe 3ac8 093d 6173 ed3d 5d82 b2bc
000001e0: c203 db3c ffd1 523d 20a6 193d 8a38 57be
000001f0: 46d3 233c 63d1 0cbe 879b fa3d 83c2 363d
00000200: 00bd 86be 7c2d b93c 6767 b7bd a1e3 9fbd
00000210: 3fcc 873d 0ef9 09be dc9d 94be 1cfd 473e
00000220: cf8e 06be 6fbe 433d 2d6b 2f3e aae8 8dbd
00000230: 76da 93bd d08b 453d ac0e 2cbd 8b18 5a3c
00000240: ba93 82bc dcbb 4e3d 43a1 0e3e 075c e5bc
00000250: 4d35 ee3d 7adb 9fbb e48e c13c db26 0b3e
00000260: 0157 383e 8d9c 29be 3b7d 443e aa9e a9bd
00000270: 2164 cbbd c1f2 f23d 4879 3d3e 1339 a23c
00000280: 9010 aa3d d2cf 293d a02f 483e 68e1 adbc
00000290: fde5 84bc 94bd 44bd 45b0 d4bd 0f71 423c
000002a0: 2f00 4fbd eb88 1f3e e834 34be 52a1 6b3d
000002b0: a383 e1bc 0265 d43b 6361 903d 8015 f53c
000002c0: 0b3d 543e ca7f 11be 382b d63d c500 e53c
000002d0: 9ed0 98be 16ce a8bd b81e cbbd a9d2 213e
000002e0: cb37 063c 5d19 90bd 3d50 1bbd 68df 0abc
000002f0: 4650 0ebe d224 07be 674b 99bd 6ca2 cc3d
00000300: 059f 8cbc e739 fbbb d28f b23c fdf1 d3bc
00000310: a8b4 1c3e c064 9dbd ff7f ebbd b308 1ebe
00000320: 9e7f 793d e53b 693d d6f8 ffbd 99e3 15bc
00000330: 8496 0dbd 88b3 cd3d dc94 36bd 1dd5 9dbd
00000340: 7be7 983c 3e18 c93b a256 d83d e735 debd
00000350: 4d5b 663c f61f a43a ac3a 55bd e599 ffbd
00000360: 02b1 8d3c 635d 8fbc 5c35 c93d 4a9a 24bd
00000370: b466 7e3d 6939 b33d daa8 8b3d e73d d73c
00000380: 441f b33d 4c3c 083e 18fb 6f3d 976a 13bc
00000390: 1d26 88bc 217b e03c 1ad0 c33d a0d2 f53b
000003a0: 3b51 ec3d a447 1e3c 26c5 80bc 360b b03d
000003b0: aadf 40bd 4f78 e6bd 4245 53bd 9f19 00bd
000003c0: 5d1f 673c 3368 e8bc 1cf8 7bbd af6f 263d
000003d0: 2802 febd 9f59 173d 9894 0bbd bfef 623d
000003e0: c905 82bd 3e6d 82bd 95bf 49bc 40c3 c13d
000003f0: 3a1f 13bd 53ad 2c3e 9758 5fbd 596a 33bd
0.15693143 -0.011971801 0.032136545 -0.012792788 0.2585175 -0.18234901 -0.08767489 0.011886059
0.083085194 0.089946434 -0.07183513 0.01013843 -0.04325241 0.028819352 0.18372637 -0.034243576
0.31030512 -0.11537189 0.027002359 -0.048246738 0.07592466 -0.020515414 -0.13516822 0.06194314
0.060658302 -0.12624697 -0.07670533 0.044484463 0.03570972 0.4129072 0.13152805 0.17994617
0.04083871 -0.08442138 -0.078762636 -0.07332034 -0.022881692 0.07571479 0.1330998 0.064337276
0.15411457 -0.16352162 0.113374464 0.03141396 0.018334536 -0.33978477 -0.23386323 -0.13129543
0.053643323 0.19807023 0.06805389 0.12488016 0.030736506 0.091711126 -0.108519 -0.014808949
0.21379367 0.14459783 -0.14526343 0.02801438 -0.041628316 0.04365712 0.21913116 -0.015401785
-0.24196285 0.08362491 -0.09298951 0.10640507 0.018334871 -0.19456412 -0.059125397 0.19537345
-0.012925777 -0.013523196 0.12504698 -0.013886498 -0.054014117 0.01513023 -0.103732094 -0.05102252
0.07861149 0.11507675 -0.10294077 -0.17339844 -0.092057586 0.06224769 0.046990726 0.14353843
0.0220516 -0.15955031 -0.05808176 0.18841578 0.082836546 0.0052557946 0.14624831 0.026397305
0.25906035 0.015335701 0.09494802 0.0324539 0.091650926 0.07708245 -0.015702846 -0.000994887
-0.012560808 0.016342478 0.026583472 -0.0260493 0.08019931 0.017604068 0.0031969855 0.13086236
0.19967915 0.017414711 -0.11788596 0.062185533 -0.2341064 0.033638217 0.115942724 -0.021790678
0.02673519 0.0514698 0.037511945 -0.21017662 0.009999102 -0.1375175 0.12236696 0.044619095
-0.2631607 0.022604696 -0.08955269 -0.07807089 0.06630754 -0.13473913 -0.29026687 0.19530147
-0.13140415 0.047789034 0.17130728 -0.06929143 -0.072194025 0.04822904 -0.04200618 0.013311516
-0.015939582 0.050472125 0.13928704 -0.027997984 0.1163126 -0.0048784586 0.023627706 0.13589041
0.1800194 -0.16563626 0.19188397 -0.08282216 -0.099312074 0.11862708 0.18503296 0.019802606
0.0830394 0.04145796 0.19549417 -0.021225646 -0.016222948 -0.04803236 -0.10385183 0.011867776
-0.050537284 0.15579574 -0.17598307 0.057526894 -0.02752859 0.0064817676 0.07049825 0.029917479
0.20726411 -0.14208904 0.10457462 0.027954469 -0.29846662 -0.08242433 -0.099179685 0.15803017
0.008192013 -0.07036088 -0.037918318 -0.008476116 -0.1389781 -0.1319764 -0.07485085 0.09991917
-0.01716567 -0.0076668146 0.021797094 -0.025872225 0.1530329 -0.07685232 -0.11499023 -0.15433006
0.06091272 0.056941886 -0.124986336 -0.009148502 -0.03456737 0.100440085 -0.044575557 -0.07706664
0.018665066 0.006136923 0.10563399 -0.10850125 0.014059854 0.0012521732 -0.052057907 -0.12480525
0.017296318 -0.017500585 0.098246306 -0.040186204 0.062109664 0.087511845 0.06819315 0.026274635
0.08746198 0.13304251 0.05858907 -0.008997581 -0.016619736 0.027402462 0.095611766 0.007501915
0.11538931 0.009660635 -0.015719008 0.08595888 -0.047088303 -0.11253416 -0.05157972 -0.031274434
0.014106599 -0.028369999 -0.061515912 0.040633854 -0.12402755 0.036950704 -0.034077257 0.05540442
-0.0634876 -0.063684925 -0.012313743 0.09461069 -0.03591845 0.16862993 -0.054527845 -0.043802593

fc1.bias f4 [256]
00000000: f621 12be e929 253e f50f 973d 2104 1bbe
00000010: 138c 483d e418 5c3d 727a ddbd 998d bf3d
00000020: 2f26 213e f229 dbbd bc04 12be 1982 0e3d
00000030: b419 573d 4ab5 b9bd b281 073d 351a 8d3d
00000040: 4e9a d03d 4a10 95bd 8fbe ab3d 950a 533d
00000050: 6112 21be 92f3 40bd 0cb7 663d af69 283d
00000060: 6944 aabd 2576 523d 4f8f 003e efa6 12be
00000070: 6c2e e9bd 7840 323d 09bc 44be e082 b8bd
00000080: d23b 8e3d f018 c3bd a3c9 853d 6db5 243d
00000090: 6f5f d7bd 2d3e 343d 247a eebd 562c 6a3d
000000a0: d691 ccbd e0fc 4ebd be7c 193d 8d84 8d3d
000000b0: 089f 9abd 6396 06be da15 9a3d c0d4 ae3d
000000c0: 500a 7abd 12fb 293d 6b18 a73d 7187 4b3d
000000d0: d07e dc3d 1e93 aa3d d1a8 3c3d 06b1 ff3d
000000e0: 06a8 9dbd e848 f03d 06dc eebd bd80 e23d
000000f0: e362 b8bd fa77 263d 1453 adbd e49b 95bd
00000100: 2974 bd3d 9906 a3bc 1a34 663d 35c8 2c3d
00000110: 785e 903d 10a6 8f3d c87e 333d c47d 4e3d
00000120: de88 5e3d d56d 803d ec68 bf3d fc53 803d
00000130: ad1e 033e ea32 193e 17d4 bf3d 340e f53d
00000140: ee44 403d 4ea8 cc3d c023 983d 9cf1 0e3d
00000150: 5dd5 023e 52c1 9fbd a096 c63d 4d74 1d3d
00000160: 53b3 9ebd bea2 0b3d a1c4 f33d f21f 323d
00000170: 1de6 cd3d 1c66 f9bd bbef 463d 4577 b03d
00000180: 66db 8e3d b540 6e3d 5d8f a33d 1254 143e
00000190: c283 5c3d e206 673d 0663 be3d 1d11 113e
000001a0: 1d1e 173d 7a58 ea3d bf25 c33b 15cd e5bd
000001b0: 75d4 e13d d0d9 863d 2570 563d ebfd abbc
000001c0: 2b33 d2bd e92a 06be d080 e4bd 7609 3ebe
000001d0: c631 d73c e2a5 acbd 7bd6 c1bd 9805 853d
000001e0: 8efe 09be fb48 8b3d 46e2 d33c ea24 0bbe
000001f0: 4d3c 713d f6e0 fe3d 5813 b6bd 5b3c 583d
00000200: 4e57 113e 286e 8e3d dbbf 91bc ce8c a33d
00000210: 1007 9c3d 6aa1 213d b39f 993c fc2a 36be
00000220: 560d 863d 3410 4a3d 0943 5a3d 75d7 c5bd
00000230: e008 3bbe 7089 cfbd 10ec 753d 7621 173d
00000240: 3c4a d0bd 0351 a53d ac55 623d 9686 e6bd
00000250: ce81 7b3d 096d 85bd 424f 833d 6326 44be
00000260: 8aff 213d d95d ee3d b77d 81bd b2cf e13d
00000270: fae3 843d d1ad 3ebd 6680 343d a41e bbbd
00000280: e872 283e d332 4d3d 338b 2b3d c1fc 863d
00000290: 2118 863d 9572 04be 1c10 483d 31fa bcbd
000002a0: 92c8 b53d c041 f3bd 8316 533d 2a58 94bd
000002b0: c579 aebc be70 38bb 0069 d3bd 81ef 21be
000002c0: bfeb 27be 7771 293d 0bbb 3dbd 9c4d 193d
000002d0: dd26 5f3d b5ce cd3c 3cd9 c53d 553f 613d
000002e0: 04e0 73bd f20b c93d b6e1 6cbc 3966 203d
000002f0: bd36 143e 721b 0d3e b480 ffbd 3466 0a3d
00000300: 55d7 5c3d f82c c83d 5159 143d e4e4 1a3c
00000310: 02c8 f73d 6a4e e6bd 389c 3d3d 14d1 5c3d
00000320: c94e 2e3e b13b 643d adaa 96bd 661d edbd
00000330: b42c a5bd 2475 153e b9b8 9cbd 86a8 ec3d
00000340: 2466 c23d cb1f 4bbe f61c 3b3d cc3f 05be
00000350: 0044 6b3b 1bb3 8e3d 5540 7e3d c40a d4bd
00000360: c82e f6bd 32a2 aa3d d4e3 583d 3818 2a3d
00000370: 4d67 d33d a62c eebd a1b1 25bd db1e 4fbe
00000380: 134e ee3d 5e4c 963c a404 f3bd ff63 70bd
00000390: fbed a73d d201 01be 6223 353d 068b f83d
000003a0: de6b 163d 027e e73d badf 053d 70a0 2a3d
000003b0: 3293 213d 7bee 2bbe 2ddc e63d 3abb c53d
000003c0: 026a 4a3d 79fa 433d 3770 c73c 60b6 513d
000003d0: a097 ca3c fd1b 8c3d b2ef 773b d6fa 133e
000003e0: 4632 0e3e 827b dc3b 7e28 7cbd eaf2 c33d
000003f0: 4caf f03d fb45 843c 1a19 263b 58e6 f0bd
-0.14270768 0.16129269 0.073760904 -0.15138294 0.04896171 0.053734675 -0.1081437 0.093531795
0.15737222 -0.1070136 -0.14259619 0.03479204 0.052514747 -0.09067781 0.03308267 0.06889764
0.10185681 -0.072784975 0.083859555 0.051523764 -0.15729667 -0.047107287 0.05632691 0.041116413
-0.083138295 0.051382203 0.12554668 -0.14321493 -0.113858074 0.043518513 -0.19212355 -0.090093374
0.069450036 -0.09526241 0.065326 0.040212084 -0.105162494 0.044004608 -0.1164439 0.05717119
-0.099887535 -0.05053413 0.03747248 0.06910048 -0.07549864 -0.13143305 0.07523699 0.085366726
-0.06104499 0.041499205 0.08158954 0.049689714 0.10766375 0.083288416 0.046059433 0.124849364
-0.076980636 0.11732656 -0.1166306 0.11059711 -0.09003236 0.040641762 -0.084631115 -0.073051244
0.092506714 -0.019900607 0.05620203 0.04218312 0.070492685 0.07014096 0.04382208 0.05041291
0.054329745 0.06270949 0.09346184 0.06266019 0.1280467 0.14960828 0.09366625 0.119656
0.046940736 0.09993039 0.07428694 0.034898385 0.12776704 -0.07800545 0.09696698 0.03844099
-0.07749047 0.03409075 0.11902738 0.043487497 0.10053656 -0.12177679 0.04856847 0.08616499
0.06975441 0.05816718 0.07986329 0.14485195 0.05383659 0.05640305 0.09296231 0.14166684
0.036893953 0.11442657 0.0059554274 -0.11220757 0.11026851 0.06584513 0.052353043 -0.020995101
-0.10263666 -0.13102306 -0.111573815 -0.18558297 0.026268851 -0.08430077 -0.09464737 0.064952075
-0.13476011 0.06801029 0.025864732 -0.135883 0.058895398 0.12445252 -0.08890408 0.052791934
0.1419346 0.069546044 -0.01779168 0.07985841 0.076185346 0.039460577 0.018752908 -0.17789835
0.065455124 0.04933186 0.053286586 -0.09660236 -0.18265104 -0.10133636 0.06003958 0.036897145
-0.10170409 0.080720924 0.055257484 -0.11256139 0.06140309 -0.065149374 0.064116016 -0.19155268
0.03955034 0.11638994 -0.06322806 0.11025943 0.064887956 -0.046552483 0.044067763 -0.091367036
0.16450083 0.050097298 0.041880798 0.06591178 0.06547571 -0.12934335 0.048843488 -0.09227408
0.088761464 -0.11877775 0.05153514 -0.072433785 -0.021298299 -0.0028143371 -0.103227615 -0.1581402
-0.16398524 0.041367974 -0.046320956 0.03742753 0.054480422 0.02512298 0.09660575 0.05499204
-0.05953981 0.098167315 -0.014458111 0.039159987 0.14474006 0.13780001 -0.1247572 0.033788875
0.053916294 0.09774202 0.03621799 0.009453986 0.12098695 -0.11245425 0.04629156 0.05391033
0.17022242 0.05572099 -0.073567726 -0.11577873 -0.08065167 0.14595467 -0.076524206 0.11555581
0.09492138 -0.19836347 0.045681916 -0.13012618 0.0035898685 0.069677554 0.06207307 -0.10353616
-0.120206416 0.083317176 0.05295165 0.041527003 0.103224374 -0.1162961 -0.040452603 -0.20226614
0.11635985 0.018346962 -0.118661195 -0.058689114 0.08199688 -0.1259835 0.044223197 0.121358916
0.036723964 0.11303331 0.032684065 0.04165691 0.039447017 -0.16790192 0.11272464 0.09654851
0.049417503 0.04784629 0.0243455 0.051199317 0.024730504 0.06841276 0.0037832079 0.14451155
0.13886365 0.0067285905 -0.061562054 0.095678166 0.11752185 0.01614665 0.0025344552 -0.117626846

fc2.weight f4 [128, 256]
00000000: ff64 a83e 9871 05bd f53c f73c 29a5 e63c
00000010: 5d28 e2bd 4d64 0fbc 58ad 613d c2de f5bd
00000020: 848a 1e3d 205c 58bd 16db dc3e 352f 7a3d
00000030: 1fec f2bc 1c13 483b bd23 47bc ce20 8b3d
00000040: 8f6b 12be aa21 b53b 41fa ab3d 2da5 50bd
00000050: bbfc d33e 422d ee3c 7efc f6bc b994 11be
00000060: e2d9 a33c f665 6bbb d49f 8bbd 6099 323e
00000070: dafd 2ebd 572d 6e3d 128d 3b3e ec0d c83c
00000080: beff b63d 3035 be3c bde4 2cbc 32d7 943d
00000090: 83f5 f03d b2ad 183d dad3 6dbd 0e3a d03c
000000a0: 502e a7bc 8869 a93c 1006 853b cdc3 843d
000000b0: 6303 923c 3e7c 463d 0709 c4bc da66 12bc
000000c0: e8ac 7cbc a02d 9a3c bbfd 95bd 0022 f8bc
000000d0: 8b9a 29be 6e0c 7cbd 789a 8abc e7cc 0b3b
000000e0: a63d 2e3d 4ae7 8cbd 68a8 8c3c 0bea dfbd
000000f0: fc27 783d b1c4 8abd 7c35 d1bc 11b5 173e
00000100: 9dd6 41bd da9a e83d 302e 99bc 65d0 3ebe
00000110: ebbb 083b d3ee 14be 2f7b cebc 6b8c 563d
00000120: 520d 43bd d401 9b3d d259 f8bc b80a 36bd
00000130: eda9 9d3d 6b21 51bc 074a ce3d 5672 39be
00000140: eef3 b2bb 0faf 1fbd 51be 21be b5d6 9d3c
00000150: ea98 023d d174 643e 77e4 53bc ca09 69bd
00000160: 2c1b 9abb d795 c0bc 641e 8abd c404 453c
00000170: e1a6 3bbe 603d babb da8e e0bb da91 02bd
00000180: cbd1 6e3c de31 493c f730 68bd 32a6 a03d
00000190: 811d 6d3d cb09 85bd d971 19be 93f5 8e3c
000001a0: dac1 853d 83cd 403d 71f2 bb3c 5e36 00bd
000001b0: abc1 29be 49cb f0bd 1069 013d 1f5f 9e3d
000001c0: 9c50 6bbd fd7c 5e3d a891 493d 6ed5 313d
000001d0: 13d8 8dbc 5ec4 01bd 3a56 93bc b278 883b
000001e0: c36e ac3e 89cd 80bd 2f0f dabc 73dd 573e
000001f0: 0980 113d a9c7 903d 2730 463c f168 6b3c
00000200: d29d 35bd f001 a9bc 7c7a 9dbd e6f0 b33d
00000210: 9926 2b3d 7983 943d fd74 a63c ab64 a13e
00000220: 86f1 4b3d 8895 583d 1e21 6c3d 28b3 00bd
00000230: f6a7 e13e 64d7 5e3d c959 e5bc 4a0c 673d
00000240: a0db aabc b3d1 5b3d 328f 613c be64 3bbd
00000250: c2fb 873c 6605 7dbd 6324 993d 12a1 82bc
00000260: 50d8 4f3d 2a03 bcbd 0169 c53e a926 643d
00000270: efb1 91bb 00d0 97b9 1bc3 e2bc f17e a7bc
00000280: 6957 9b3c e3d3 19bd 6122 54bd ad09 a63d
00000290: aca7 8b3d 767c fb3d 938e 163d 84f9 49bd
000002a0: f209 b9bb 409a 42bc 4b9c 813d 0208 443d
000002b0: 0414 373e f9b5 26be bcbb c0bc f9c3 1bbe
000002c0: 9ac1 cd3e 9375 12bc bae7 f93d d2d2 db3b
000002d0: c44c f4ba c877 d639 9516 c03b 4c89 fb3c
000002e0: 882f c23c 8752 f6bd 03e6 c53d d6ef aebc
000002f0: 9be1 bc3d 085f 5dbd 3a50 0bbd 7f1a 2fb8
00000300: a0c2 a33b 3df4 9e3d e84c 3b3d fea0 863d
00000310: 91f7 ab3d e6ce 023d f80f edbc 9eec d83d
00000320: cc6f d3bd 6576 adbc 1e99 2a3e 04cd 293d
00000330: 852a 38bd 05ac 1dbd 8006 79bd 0107 2b3d
00000340: a40a 19be cb93 753e ba7d 17bd 2a76 c43e
00000350: 42be a2bc c338 b8bd 16c2 82bc 8c18 bcbc
00000360: d093 75bc eef8 2cbb c43f af3c 2922 223d
00000370: 44c3 2ebd b088 9cbc c42e 62bc 637c d13e
00000380: 75fc 403b e1a2 86bd 7827 dabc f190 38be
00000390: 8aea 3dbe d260 0ebc df14 033d 0e08 563c
000003a0: ff81 573d ef16 cdbd a212 1abe c4f3 18bd
000003b0: 0d01 93bd 8fcb 27be 6bd7 a8bd 2dc8 0fbe
000003c0: 1d6d b03d 30ed 26bc 725d 37bd 0bf2 37be
000003d0: 8a90 b7bc d7d3 1f3d d746 213d 9d84 24bb
000003e0: fb69 10be ba7f 743d 82bf 1ebd a76a f9bb
000003f0: ba4d 3ebd 90dc 53bd 0bfd 8bbd 084d 41bd
0.32889554 -0.032579035 0.030180434 0.028154926 -0.11042855 -0.008751941 0.055096954 -0.12005378
0.038706318 -0.052822232 0.431359 0.061080176 -0.029653607 0.0030528968 -0.012154517 0.067933664
-0.14298843 0.0055276947 0.083973415 -0.050938774 0.41403756 0.029074315 -0.030149695 -0.1421689
0.020001356 -0.0035918928 -0.06817594 0.1744132 -0.04272256 0.05814871 0.18315533 0.024420701
0.08935498 0.023218721 -0.010552582 0.07267608 0.11765578 0.037275024 -0.058063366 0.025418308
-0.020407826 0.020680204 0.0040595606 0.064826585 0.01782388 0.04845833 -0.023930086 -0.008935655
-0.015422083 0.018820584 -0.07323786 -0.03028965 -0.1656286 -0.06153529 -0.01691936 0.0021331848
0.04253926 -0.068800524 0.017170146 -0.10933312 0.060585007 -0.06775797 -0.025538199 0.14815165
-0.04732381 0.113576606 -0.018698782 -0.18634184 0.002086396 -0.14544229 -0.025205223 0.052380007
-0.047620125 0.07568708 -0.030316267 -0.044443816 0.076984264 -0.012764315 0.10072713 -0.18110022
-0.0054612076 -0.03898531 -0.15795256 0.01926742 0.03188411 0.22310187 -0.012932888 -0.0568941
-0.004702946 -0.02350895 -0.06744078 0.012025062 -0.18325378 -0.005683586 -0.0068529667 -0.031877376
0.014576386 0.012279956 -0.05668732 0.07844199 0.057889465 -0.064960085 -0.14984836 0.017451083
0.06531115 0.04707099 0.022942754 -0.03130185 -0.16577785 -0.117575236 0.031594336 0.07732987
-0.057449922 0.054318417 0.049211174 0.043416433 -0.017314946 -0.03168141 -0.017985452 0.0041647786
0.33678254 -0.06289203 -0.026618568 0.2108057 0.035522494 0.07069332 0.012096441 0.014368282
-0.044339962 -0.020630807 -0.07689378 0.08786182 0.041784856 0.07251639 0.020319456 0.31522116
0.04979088 0.05287698 0.05764877 -0.031420857 0.44073457 0.05440463 -0.027996914 0.056408204
-0.020856678 0.05366678 0.013767051 -0.045750372 0.01659954 -0.061772726 0.07477643 -0.015945945
0.0507434 -0.09180291 0.38556674 0.05570093 -0.00444626 -0.00028955936 -0.027680924 -0.020446273
0.018962579 -0.037555587 -0.0517906 0.08107314 0.0681909 0.122795984 0.036757063 -0.049310222
-0.0056469375 -0.011877596 0.06328639 0.0478592 0.17878729 -0.16280355 -0.023527019 -0.15211476
0.4018677 -0.008939165 0.122024015 0.0067084813 -0.0018638601 0.00040906505 0.005862067 0.030705117
0.023704305 -0.120274596 0.09663012 -0.021354597 0.09222718 -0.054045707 -0.034012057 -4.1747928e-05
0.0049975663 0.077614285 0.04572764 0.065736756 0.08396829 0.031935595 -0.028938279 0.10592006
-0.10324058 -0.021174619 0.16659972 0.041455284 -0.044962425 -0.03849413 -0.060797215 0.041754726
-0.14945465 0.2398216 -0.036985137 0.38371402 -0.019866113 -0.089952014 -0.015961688 -0.022960924
-0.0149888545 -0.002639349 0.02139271 0.03958336 -0.04266669 -0.019108146 -0.013805095 0.40915212
0.002944735 -0.065740354 -0.026630148 -0.18024041 -0.18546501 -0.008690076 0.032002326 0.013063444
0.05261421 -0.1001414 -0.1504617 -0.037341848 -0.07177935 -0.16386245 -0.08244213 -0.14041205
0.08614562 -0.010188386 -0.04476685 -0.17963426 -0.022407789 0.039020386 0.0393742 -0.0025103458
-0.14102928 0.059692122 -0.038756855 -0.007611591 -0.046460845 -0.051724017 -0.068353735 -0.047192603

fc2.bias f4 [128]
00000000: 26aa 8fbc bf0b 2ebc 7fd2 293c af4f 44bd
00000010: 2659 913d efac ac3d 754a 00bd 1663 18bd
00000020: 6f6b 243e 1e4c 6d3b cef5 e33d 4925 76bd
00000030: 5354 7c3b 319a d1bd caa2 dbbd 801e 903b
00000040: 1c51 013d 482f d73c e058 11be 354a 0a3e
00000050: fb45 b5bc 392f e23d 775e 9a3c 86a4 003d
00000060: 7d4c 9f3c c786 263d 1279 b03c f034 b43d
00000070: be32 39bd 6e40 72bd a05a 04bd 9cd4 9bbd
00000080: a428 a3bc d09b 14bd e1d6 083e 9d89 70bc
00000090: 342e adbd 0b20 953d ece5 173e b02e 0dbc
000000a0: 210f f7bd 04b8 89bc d3bf 1a3e c773 ce3d
000000b0: 77b7 43bd b57a 68bc 1e1f 8cbb 2f47 c83c
000000c0: 7bdc 7cbd fe39 113d 8c1c 97bb 78fa 203c
000000d0: 6cd4 e63d fb2f ec3c 824c f73c 53d4 633c
000000e0: 0ce0 1c3b e8f5 743c 7c11 04bd 07f4 83bd
000000f0: f54d 90bd 2ea9 1f3e 19d3 a1bc 26f8 8e3d
00000100: 1cba 963b b5d9 423e 4e58 90bd 872e 4c3d
00000110: 1618 29bd f9b9 693c fb38 e4bc 8b39 6bba
00000120: f62d ab3c c09c 163d b985 52bc 1abd 1b3e
00000130: a6e2 543d 70b3 67bd bb59 f93c ade6 a3bc
00000140: 9513 ca3b 02db 703b 21da 9abb fb36 533d
00000150: 5439 4abd 7e3f 91bc 4b28 63bd ceb3 d03c
00000160: 8047 313b c3ec eabc 6d8e c5bd ab50 22bd
00000170: ed04 30bd 5df5 d43d 1d05 453d cfbd c03d
00000180: d548 b63d 6d5d 35bc 7d42 8bbd 2c4e acbc
00000190: aaba 8c3c 118d 0bbd d6e4 173e 18f0 943c
000001a0: 0142 073e bb2d 473d 830c 543d ac43 54bd
000001b0: f1a2 af3c b63a 72bc 2e5c febc bedf 26bd
000001c0: 25ed de3c 6418 2cbd 3697 edbc a871 223c
000001d0: 0f7c 8c3d 0c12 63bd a128 1abd fc16 2cbd
000001e0: 9e50 b03d 057b 24bd 8ef5 0bbd 0b1b 64bd
000001f0: 7de8 b2bd f357 0b3b 92e0 7bbc 9212 723d
-0.017537188 -0.010622918 0.010365128 -0.047927555 0.07097082 0.08431422 -0.031321008 -0.03720387
0.16056608 0.00362087 0.11130868 -0.06009415 0.003850241 -0.10234488 -0.10724409 0.004398167
0.031571493 0.026267663 -0.1419406 0.1350487 -0.022128096 0.11044163 0.018843872 0.0314069
0.019445652 0.040655877 0.021542106 0.087991595 -0.045214407 -0.059143476 -0.03231299 -0.076089114
-0.01991684 -0.036281407 0.1336322 -0.014681247 -0.08456078 0.07281502 0.14833802 -0.008617088
-0.120634325 -0.016811378 0.15112238 0.100806765 -0.047782388 -0.014189412 -0.0042761704 0.024448005
-0.061733704 0.035455696 -0.0046115573 0.009825341 0.11270985 0.028831473 0.030187849 0.0139056025
0.0023937253 0.014951207 -0.032243237 -0.06443029 -0.07046119 0.1559188 -0.01975398 0.06980924
0.0045998227 0.19028361 -0.07048093 0.04984906 -0.041282736 0.014265531 -0.027859202 -0.0008973113
0.02089594 0.036770582 -0.012849265 0.15208855 0.05197396 -0.05656761 0.030438295 -0.020007456
0.006166885 0.0036751633 -0.00472571 0.051566105 -0.04937108 -0.01773047 -0.05545835 0.025476363
0.0027050674 -0.02867735 -0.09646306 -0.039627712 -0.042973448 0.10398362 0.04810058 0.09411203
0.0890061 -0.011069638 -0.06799791 -0.021033369 0.017178852 -0.03407008 0.14833388 0.018180892
0.13208772 0.048627596 0.051769745 -0.05182235 0.021440001 -0.014784506 -0.031049814 -0.04074072
0.027212689 -0.04201545 -0.029002767 0.009914793 0.068596 -0.055437133 -0.037636403 -0.042014107
0.086091265 -0.040156383 -0.034169726 -0.055689853 -0.0873575 0.0021262139 -0.015373366 0.05909974
