data/predictor/PT/201_TNetwork-F_2024-05-15_14-44-31.pt (torch, 271659 bytes, 14 tensors)

conv1.bias f4 [64]
00000000: 2b0d c6bb d358 18bd b7e6 333c 884a cfbb
00000010: 7304 f0bc fb82 023d 748e 70bb edb6 a4bc
00000020: 21e6 17bd ea04 29bd e98f aebc 6157 ebbb
00000030: 5e11 9ebb 5d35 8ebc 0000 0000 2a5b 4bbd
00000040: d50a d1bc 255f 163b 8627 cbbc 9dfc dcbc
00000050: fcdd 7fbc 444a 40bc cba1 bb3b 1891 743d
00000060: 7ded 223c e825 34bb b9b9 0d3d 9887 e9bc
00000070: 2a47 3f3d 74ea 9abc d860 213d 0000 0000
00000080: 950c 103c 9e99 d6bb 21cd 43bd eef3 c83c
00000090: 0000 0000 8ca7 fbbb b958 1a3b 0529 c1bb
000000a0: 0268 253c b2d6 2c39 5c8e 173c 4d7e ce3c
000000b0: 7d44 f93b daea 793c af49 faba 5595 d73b
000000c0: db2e 47bd 2c34 44bc 0000 0000 3698 d03d
000000d0: 0000 0000 c4c0 5f3c 76cf c03b 4cc5 a0bb
000000e0: 8134 3d3d 0a11 c0bc bc3c 6ebd 28a9 a7bc
000000f0: e426 d3bc e831 1f3d a54b afbc 5b6b cc3c
-0.00604405 -0.037194084 0.0109803 -0.0063260235 -0.029298997 0.031863194 -0.0036706002 -0.020106757
-0.037084702 -0.041264452 -0.021308856 -0.0071820472 -0.0048238477 -0.01735943 0.0 -0.049647488
-0.02551786 0.0022944894 -0.02479912 -0.026975924 -0.01561689 -0.011736456 0.0057260743 0.059708685
0.009944317 -0.0027488414 0.034600947 -0.028507039 0.046698727 -0.018910624 0.039398998 0.0
0.008792062 -0.0065490743 -0.047803048 0.024530377 0.0 -0.0076798853 0.0023551418 -0.0058947825
0.010095598 0.00016483178 0.00925025 0.02520671 0.0076070414 0.015253747 -0.0019095446 0.006579081
-0.04862867 -0.011975329 0.0 0.10185282 0.0 0.013656799 0.0058841063 -0.004906332
0.04619265 -0.023445625 -0.05816339 -0.020466402 -0.02577538 0.038865954 -0.021398375 0.024953535

conv1.lin.weight f4 [64, 4]
00000000: e289 363e b9ca 213e 118c 933d bd95 673e
00000010: 2a05 febd a3f4 923e 917d bb3c 8a90 69be
00000020: eb77 0d3c 145f dfbc 4e65 633d b34c 23bf
00000030: f349 af3d 4c2a 1b3e e518 4b3e 52e6 22bf
00000040: 86eb 8ebe 399b 933e 01c0 803e eb1b 8d3e
00000050: 54fc 803e 1a80 4abe 7663 71bd 09f0 013f
00000060: 5b8f 803d 6f9c 75be 12c2 663e edfe 87be
00000070: aa03 9dbd 8261 783e 6c21 4bbc 496d a5be
00000080: 1d43 d23d 106e 2039 ee6d 71bb 58c8 d63e
00000090: 2cc8 83be 3bbc ae3d 4acf 6d3e 13f8 95be
000000a0: 3800 2bbe 99a2 973e 2a97 43bd cfbe 7b3e
000000b0: 4e38 c8bd cceb 5a3e e90b ebbd 117a 513e
000000c0: 491d 23bd 2f4b 23be 9a7c 283e 994e a2be
000000d0: 91c0 32bd 282f 443e 8e92 eabd 9860 0f3e
000000e0: 314f 4abe a606 1bbe dc90 0abe 26e8 65be
000000f0: 3599 023e 29d0 cfbc 5ab3 643d 1a8e 1dbe
00000100: 8a34 8b3e c698 e83d c8fa 533e fd65 30bf
00000110: fffb ca3d 5572 46be 0a81 843d 1e2f 0bbe
00000120: d974 a9be 2ff0 a7be 51ab 833e b416 0d3e
00000130: aaba 523d 1004 933e 3e4f 5abd 79b8 913e
00000140: ab35 393e c5ed 433e 38ef a6be 40a5 3b3e
00000150: 38f7 10bf 091d fcbe b33a 5abf 0a80 3b3e
00000160: e2a4 69bd 79cc 643e 4d83 f8bd 014e 49be
00000170: fd08 3ebf d160 96be ad47 8a3d 2bba 123e
00000180: 11fa 37be 8c57 5c3e 7e3f 41bd 5531 443e
00000190: 140c f83b 5c32 ffbd 0496 e73d dcfb 84bf
000001a0: 81c4 74bf 5447 0d3e bb01 5bbe d260 873e
000001b0: 4f09 8c3c 5fcb 7f3e ff56 4dbe 1290 23bf
000001c0: bc5c 67bf 05a4 38bf 5b94 66bf c348 fe3d
000001d0: 2d3d 083d a676 32be cef2 453e aa90 e63e
000001e0: 8c3f a5bd f59d 6d3e 9da5 39be 8cfd 76be
000001f0: 8e5e aebd 80d7 8bbb 487c 2abd 7b61 4cbe
00000200: 4549 003e 8fc0 e9bd 3759 d03b 7688 4c3c
00000210: 21c9 dc3d 38f5 8a3d 307d 3e3d 1f4e 0ebf
00000220: 8d94 8b3e e8ba 0b3e 8a36 6c3e f907 51bf
00000230: ec6d 4f3e f372 183e 64ec b1be 9fcb eb3c
00000240: 3b94 2abe 260b 16be a0b2 23be 9e96 8abe
00000250: cdf2 133e 071e 91be 33de febb 2a47 913e
00000260: 818b 0b3e 4e52 8dbe caf0 65be 46cb 373e
00000270: b4e1 5fbe 7e5c 1a3e ba95 2e3e a6ad d2be
00000280: 66e8 a73d a204 bc3d fb53 0e3d 2d28 cf3e
00000290: ad22 7c3e cf0f 26bd 04df 113d 6a5a ed3e
000002a0: fe81 563e eb87 3dbc 4c0c 06be 7cba 66bd
000002b0: a211 9a3e 54c1 213d 136d 8dbe 7d96 0ebf
000002c0: 6210 6abd 3c5f f739 2e2d c23d a88f f53e
000002d0: 1622 643e 2cd2 12be 17a9 92bb e048 463e
000002e0: 654a f93d 1181 5abe 6f92 8b3d fdb6 b43e
000002f0: eddf 333e cd8d 293e 8632 cebc de26 bfbe
00000300: 05cf 293e 761c 03be c966 c03b e514 42bd
00000310: 5bf2 86bd 8cb9 1b3e 934f 023e 1ad0 9bbb
00000320: 10e2 eebd d7b5 8fbe 3705 94be 34be 74be
00000330: b4c1 e1bd 1bc0 05be ae6c 52be 2cd1 b53e
00000340: e87a 76be 40c9 04bc 4018 10bd 2ffe 5ebe
00000350: 94ac 7a3d 7c71 433c 2636 df3b 518e c6be
00000360: c3d3 1abe 750f 433e ffbe 063d 5139 a13d
00000370: 88e6 1fbe b30c a93d 8188 dabd cc14 8e3e
00000380: 31b3 11bd 1ce7 3f3e 91d2 05bf c9a3 5fbd
00000390: f68e 39be 835b e73d 1a76 31be 263b 57be
000003a0: 153a 363e 5d11 02bd bd63 213e 4a6e 6ebf
000003b0: 0361 76be 7fff 823e 526c 923c fbbf 6fbe
000003c0: 9fa9 69bc e55e 01be ebe4 293e a9b8 c53c
000003d0: 2d1f fc3d 256d fcbd 28e9 26be 42db 243e
000003e0: 4bab 00be e2df 8cbd 486b 743e 18cc a63d
000003f0: 6640 523e 37e9 303c b116 37be 0f56 a6bc
0.17826036 0.15799989 0.0720445 0.22615714 -0.12403329 0.28702268 0.022887023 -0.22809044
0.008634548 -0.027267016 0.055516534 -0.6378891 0.085590266 0.15152854 0.19833715 -0.6363269
-0.27914065 0.28829363 0.25146487 0.27560362 0.2519251 -0.1977543 -0.058932744 0.5075689
0.06277343 -0.23985456 0.2253497 -0.2656168 -0.076667145 0.24255946 -0.012398105 -0.3230994
0.10266707 0.0001529979 -0.0036839205 0.41949725 -0.25738657 0.08531996 0.23223606 -0.29290828
-0.16699302 0.2961624 -0.047751583 0.24584506 -0.09776364 0.21379012 -0.11476881 0.20456721
-0.03982285 -0.15946649 0.16453782 -0.3170059 -0.043640677 0.19158614 -0.11453734 0.14001691
-0.19756772 -0.15139255 -0.13531822 -0.22451839 0.12753756 -0.025367813 0.055835105 -0.15386239
0.27188522 0.11357264 0.20701134 -0.6890562 0.09911346 -0.19379552 0.06469925 -0.13592193
-0.3309696 -0.32800433 0.25716642 0.13778192 0.051447548 0.28714037 -0.053298227 0.28461054
0.18086879 0.1913367 -0.32604384 0.18324757 -0.56627226 -0.49240902 -0.8524582 0.18310562
-0.05704201 0.22343625 -0.12134419 -0.19658662 -0.74232465 -0.2937074 0.06751952 0.1432883
-0.17966487 0.21517771 -0.04717969 0.19159444 0.007569799 -0.12460777 0.1130791 -1.0389361
-0.9561234 0.13796741 -0.21387379 0.26441056 0.017094282 0.24979924 -0.20052718 -0.6389171
-0.90375876 -0.72125274 -0.9007012 0.12416222 0.033261467 -0.17428073 0.19330904 0.45032245
-0.08068761 0.23204787 -0.18129583 -0.24120158 -0.085141286 -0.004267633 -0.04162243 -0.19959061
0.1252795 -0.11413681 0.0063582915 0.012483707 0.1078055 0.06785053 0.046506107 -0.55587953
0.27261773 0.13645518 0.2306768 -0.8165279 0.20256776 0.148876 -0.34750664 0.028783618
-0.16658108 -0.1465269 -0.15986109 -0.27068037 0.1444809 -0.28343222 -0.007777953 0.28374606
0.13627435 -0.27601856 -0.22455135 0.17948636 -0.21863443 0.15074345 0.17049304 -0.41148108
0.08198623 0.09180571 0.03474806 0.4046034 0.24622603 -0.04054242 0.035613075 0.46358043
0.20948026 -0.01156805 -0.13090628 -0.05633019 0.30091578 0.039491013 -0.2762228 -0.55698377
-0.05714453 0.00047182466 0.094812736 0.47961164 0.22278628 -0.14337987 -0.0044757235 0.19363737
0.12172393 -0.21338297 0.06815039 0.3529586 0.1756589 0.16557999 -0.025170576 -0.3733434
0.16582878 -0.12803826 0.005871628 -0.047383208 -0.065891944 0.152075 0.12725668 -0.0047550322
-0.11664212 -0.2806842 -0.2891023 -0.23900682 -0.11023274 -0.13061564 -0.2054927 0.35511148
-0.24070323 -0.008104622 -0.035179377 -0.21776651 0.06119974 0.011928912 0.006811875 -0.38780454
-0.15119843 0.19048865 0.03289699 0.0787226 -0.15615284 0.08254375 -0.10670567 0.27750242
-0.03557128 0.18740505 -0.52274424 -0.054599557 -0.18120942 0.11296751 -0.17330208 -0.21018657
0.17795594 -0.03175484 0.15760703 -0.9313704 -0.24060445 0.25585553 0.017873917 -0.23413078
-0.014261632 -0.12633856 0.16591232 0.024135904 0.12310634 -0.12325505 -0.1629988 0.16099265
-0.12565343 -0.0687864 0.2386905 0.081443965 0.20532379 0.01079779 -0.1787975 -0.020304708

conv2.bias f4 [64]
00000000: 168d ebbd 0c3f 68bd 927f f2bc 020e 00bd
00000010: 09c1 80bb 7378 aa3a 5932 1abc 62cb 5cbc
00000020: 52b1 83bc 3586 813a af08 d1bc 2352 ddbc
00000030: 6840 fcbc 0000 0000 a12f adbc e6d7 1ebd
00000040: 8984 28bc 6348 94bd 0000 0000 f4ed 3bbc
00000050: c56e cc3c 2100 82bb 77bc a8bc e4d7 82ba
00000060: b339 d9bc a547 1dbc f1b7 63bc d266 6ebc
00000070: 5718 69bc 5a1c 82bc 62b8 e4bc d02f 2bbc
00000080: b58b 73bd cbe2 923c 0917 99bd 80bd d9bc
00000090: 67b5 fdbc 5395 b4bd 83d6 103d 726d d8bb
000000a0: d874 35bd 7508 e2bc 0d9a 42bd affe 213d
000000b0: bca4 32bd ad31 1a3b bf66 15bd bf15 18bd
000000c0: 4cc2 a6bc a6df 3dbd 400b 86bd 4d24 d53c
000000d0: 0000 0000 ffd8 b8bc 7665 84bc f22b d8bc
000000e0: e1cb c4bc f5d5 bcbb f322 a73c eb30 f1bc
000000f0: ba56 b6bd d37a 65bd 995b 07bd 8554 3abd
-0.115015194 -0.05670075 -0.029601846 -0.03126336 -0.0039292616 0.0013005867 -0.009411418 -0.013476225
-0.016075764 0.0009881916 -0.025516836 -0.027016705 -0.03079243 0.0 -0.021140875 -0.038780116
-0.010285505 -0.07240369 0.0 -0.011470307 0.024955163 -0.0039673005 -0.02059768 -0.0009982553
-0.026516771 -0.009599601 -0.0138988355 -0.014550881 -0.0142269945 -0.01588266 -0.027919952 -0.010448411
-0.059459407 0.017930409 -0.07475097 -0.026579618 -0.030970288 -0.08817544 0.035360824 -0.006604844
-0.044300884 -0.027591923 -0.047510196 0.039549526 -0.043614134 0.0023528144 -0.03647494 -0.037130114
-0.02035632 -0.046355866 -0.065451145 0.026018286 0.0 -0.02256441 -0.016161662 -0.026388142
-0.024022998 -0.0057628104 0.020402407 -0.029442271 -0.089032605 -0.056025337 -0.03304634 -0.04549076

conv2.lin.weight f4 [64, 64]
00000000: 1f73 8dbd 90eb b2be 2ee3 71bd e4e9 163e
00000010: dd96 943d 4f30 abbd 1a24 d63d ca1a 34bf
00000020: 6f38 9bbd e762 8a3e 274c b83e 704e 483e
00000030: 1c41 c63d e5ab aa3c f1ab 1b3e 1ace 7a3d
00000040: 2fd7 8f3c 01d1 bfbd 0524 793e 0088 e5be
00000050: 6ce4 32be 5017 8d3e 2361 21be ef9f 173d
00000060: bf85 493d 2069 7f3c dfb3 083e c228 f0bc
00000070: 7c59 283e 467c 2c3e 037c ff3d b4d8 793d
00000080: dcbd 04bd fc81 443d c2dc 3e3e 94de 3cbd
00000090: 1c82 d0bd 48ff c73d b6e5 843e 6268 543e
000000a0: 4977 4cbe e418 d5bd 7713 5c3d 2a75 863d
000000b0: 6645 2c3d a1d5 08be 93df 223c 29e2 a4bd
000000c0: 467c a2bd 9907 37be 07a6 2d3e bb57 973c
000000d0: def0 8b3d 0597 b53d 4ac9 c4bd e46a 8b3e
000000e0: 19fd f9bd e6ca a83d 2de6 0d3e 1154 38be
000000f0: 41d9 613a 4d88 853e 68cb 223e fcd1 583e
00000100: c825 453e b012 0e3e fcfe 2fbe 484c 463e
00000110: c2e9 163e 4014 04be 11aa 4dbe 07b0 383e
00000120: 2b66 b33d c004 3a3e 4654 713d 88ed 56bc
00000130: fb6e a0bd e82f aa3d 8975 2b3e 99af 5abd
00000140: 53a7 d73d 19a5 90be a739 983e 18a9 bebd
00000150: 323e 823e 1231 5dbe f0b8 393e 2626 41be
00000160: 58a0 683d f741 b83d ded7 87be c449 b03e
00000170: 9b4e 26bd fb59 0b3e 8fdb 0d3e 1fa9 14be
00000180: 895e a9bc 6254 85bc 374b 0ebb 9a9d 9e3e
00000190: 4153 4a3e 7c44 c8bd a3d3 26bf b427 883d
000001a0: 7c23 81be 16c3 30be 41ea 13be a0d3 483e
000001b0: ba9d 66be 82ea d5bd ddec 9abe d14d 843c
000001c0: 6116 30be 07b9 b7bd befe 933d 9c50 10bf
000001d0: 1a92 e33d d36a 29be 77c3 0f3e b982 00bf
000001e0: 3c9b 2cbc f2cc edbe 8c0b b23c 6b4a 4bbd
000001f0: d237 1c3e 56ac eebc 5773 64be 8236 b7bb
00000200: 72a3 db3d 6c57 a73d c6c6 6f38 aac9 3fbe
00000210: 5451 623e ca99 0dbe 4a9b 2cbd daa3 1b3e
00000220: 12de 3a3e e20a 333e 6693 593e 8150 d93d
00000230: 4d70 0cbe e253 9b3e a024 8cbb 9608 2cbe
00000240: 55eb 02be 3cdc 1fbd 317d a63e 82c6 fb3d
00000250: e4bd ea3e 3893 50bd 2315 8abd cd60 d33d
00000260: 5a47 103e 3bba 3b3e 7121 91bd 1522 253e
00000270: d277 b73d 8513 85be 526e 823e 2436 3e3d
00000280: 6b0e 81be d883 2a3e ebbc 7c3d 66b3 433d
00000290: ff50 423e eb82 82be 1579 31bd e8ca ea3d
000002a0: f813 8d3d 0536 77be ae6b 04be 28bd 893e
000002b0: 8dac 1a3c f2cb 89be 4c4d a23d 3feb 1a3e
000002c0: b75c 3d3e cab5 c9bc bced 093d 7b3e b4bc
000002d0: 427f 3ebe e9f3 ebbc 579f e2bd 2b45 92be
000002e0: c854 7b3e 6c61 efbe bb39 8f3d 097a 9c3e
000002f0: 0954 fabd 11b0 973e 7698 213e ee54 a7bb
00000300: 9887 fabd b9fe 27be c82e 143e 5ddc 313e
00000310: d111 483e 3673 2c3e 32dc a43d dbdd e43d
00000320: 8877 fe3d f9af 3d3e 69b3 ea3d 2f77 8abe
00000330: 7cae 463b ba0d 62bd 3a9e 4ebe 5904 0b3e
00000340: 5a15 4f3e b2b0 5ebe a2a8 313d ea39 2bbe
00000350: fdc5 5e3c 8bbd 5c3e 8604 673d f3fa 833e
00000360: f64f 68be c2a9 b6bd e6ab 313e c1e0 70be
00000370: 6b9e d0bc 9373 853d 3870 0cbc a492 4fbe
00000380: 6869 c7bd 61ce 093e d0b1 1f3c 2347 6e3e
00000390: 8ff9 473e 7d6c 7bbd 5473 df3c 175d 623e
000003a0: 28f3 ccbd 2b8b ef3d 6913 32be 047c 283e
000003b0: c463 7ebe 2771 693d 4050 1ebd b63b e73d
000003c0: 30cc db3d 3d32 243e 6b8a 273e c47b 1fbe
000003d0: a941 133e cbc9 0c3d cfdd e5bd 232c eb3a
000003e0: 6c8e 8cbd a0cf b03c 20bb edbd dd74 dfbe
000003f0: 75bc 0d3e bc2b 073e fed3 72be cbec 06be
-0.06906723 -0.34945345 -0.059054546 0.1473766 0.072553374 -0.083588235 0.104561046 -0.70353377
-0.07579123 0.27028582 0.359956 0.19561172 0.096803874 0.020833919 0.15202309 0.06123171
0.017558662 -0.09366036 0.24330147 -0.44830322 -0.17469949 0.2755685 -0.15759711 0.03701776
0.049199816 0.015589029 0.13349865 -0.02931631 0.16440386 0.16844282 0.12474825 0.06099768
-0.032407627 0.047975525 0.186389 -0.046110705 -0.101810664 0.09765488 0.25956506 0.20742944
-0.19967379 -0.10405138 0.0537295 0.06565316 0.04205837 -0.13362743 0.009941 -0.08050949
-0.079338595 -0.17873992 0.16957866 0.01847445 0.06833051 0.08866695 -0.09608705 0.2722999
-0.12206478 0.08241825 0.13857336 -0.18000819 0.0008615442 0.26080552 0.15897906 0.21173853
0.19252694 0.13874316 -0.17187113 0.19365036 0.14737609 -0.1289835 -0.20084406 0.18035899
0.08759721 0.18165874 0.05891826 -0.013118155 -0.07833668 0.08309919 0.16744055 -0.05339012
0.105299614 -0.2825096 0.29731485 -0.09309596 0.25438076 -0.2160075 0.18136954 -0.18862209
0.05679354 0.08996957 -0.2653188 0.3443128 -0.040602308 0.13608544 0.13853286 -0.1451764
-0.02067496 -0.016275588 -0.0021712312 0.30979615 0.19758321 -0.09778687 -0.6516668 0.06648198
-0.25222385 -0.1726192 -0.1444483 0.19611979 -0.22521105 -0.104451194 -0.30258837 0.016150387
-0.17196037 -0.08970838 0.072263226 -0.56373 0.11111851 -0.16544656 0.14039408 -0.50199467
-0.010535058 -0.46445423 0.021734022 -0.049631517 0.15255669 -0.02913491 -0.22309624 -0.0055912146
0.10724534 0.08170971 5.7167163e-05 -0.18729272 0.22101337 -0.13828197 -0.042140283 0.15199223
0.18248776 0.1748462 0.21247634 0.10611058 -0.13714714 0.30337435 -0.004276827 -0.1680015
-0.12785085 -0.03902839 0.32517388 0.12293722 0.45848 -0.05092165 -0.06742313 0.10321198
0.14089718 0.1833276 -0.070864566 0.16126283 0.08958401 -0.25991455 0.25474793 0.04643835
-0.25206313 0.16651857 0.061703604 0.04777851 0.1897621 -0.25490507 -0.043328363 0.114644825
0.06888574 -0.241417 -0.12931702 0.26902127 0.009440553 -0.2691341 0.079248995 0.15128802
0.18492399 -0.024622817 0.033673987 -0.02200245 -0.18603233 -0.028802829 -0.11065548 -0.28568396
0.2454406 -0.46754014 0.06993433 0.30561855 -0.1222306 0.29626516 0.15780815 -0.00510656
-0.12232894 -0.16405763 0.1447097 0.17369218 0.19538046 0.16840824 0.080498114 0.11175128
0.124251425 0.1852416 0.11460001 -0.27044055 0.0030316403 -0.055188872 -0.20177546 0.13575877
0.20222989 -0.21747091 0.04337371 -0.16721311 0.013597009 0.2155668 0.0564008 0.25777397
-0.22686753 -0.089190975 0.1735073 -0.23523237 -0.025466165 0.06516185 -0.008571677 -0.20270783
-0.097369015 0.13457634 0.009746984 0.23269324 0.19528793 -0.06138276 0.027276672 0.22105823
-0.10007316 0.11696466 -0.17390217 0.16453558 -0.24842745 0.056992676 -0.03865075 0.11290686
0.10732305 0.1603479 0.16361396 -0.15574557 0.14380516 0.034372132 -0.11223947 0.0017942231
-0.06863102 0.021583378 -0.11607957 -0.43643847 0.13841422 0.13200277 -0.23713681 -0.13176267

conv3.bias f4 [64]
00000000: 4672 a93c 7c35 bbbc 259e a0bc d8a7 a23c
00000010: 80f6 3b3c fa19 d43b d93c e43c 17ef 32bd
00000020: 49c4 ffbc c58f 203c 28ac abba b11f 0ebd
00000030: 6f8f 423c b62a 04bc 30de 8c3c 18d4 83bc
00000040: b837 6e3c 2044 f03c 9adc dbbc f2bb 9dbc
00000050: 4051 1ebd 999b 1c3d 00c1 8b3c 70f9 babc
00000060: ae64 d8ba 14c1 0e3c 6f4f 333d aa33 c2ba
00000070: c86a 70bc 7efc 1ebc 64f6 cb3c d13f 0c3d
00000080: 0dab 613c 83a9 823c 94bc c33c 9432 b6bb
00000090: 9531 c2bb d872 aabc c0e3 743d dfc9 21bd
000000a0: 9ab6 f6bc e158 1ebd 140e eebc adb2 bcbc
000000b0: 31f6 6a3c c9cf 9abb 7f8b 143b 78a2 d2bc
000000c0: 82ac 0fbd d375 053d ccba 1b3d 863f db3c
000000d0: c85f a2bc c963 4abc e6fe 7bbc e13b 00bb
000000e0: bdad 79bc e82e f9bc 6f5a 193d 6f81 b2bc
000000f0: 637a e53c 65a0 fc3b cc37 d4bc cd92 02bd
0.020684373 -0.022852652 -0.01960666 0.019855425 0.011472344 0.006472823 0.027861046 -0.043685045
-0.031221526 0.009799902 -0.0013097571 -0.034698192 0.011875018 -0.008066824 0.017195791 -0.016092345
0.014539652 0.02932936 -0.02683859 -0.019254658 -0.038651705 0.038234327 0.017059803 -0.02282402
-0.0016509497 0.008713026 0.043776926 -0.0014816422 -0.014673896 -0.0097037535 0.024897762 0.034240548
0.013773692 0.01594997 0.023893632 -0.0055602286 -0.005926321 -0.020806715 0.05978751 -0.03949916
-0.030116368 -0.03865898 -0.029059447 -0.023034418 0.014340923 -0.004724477 0.0022666154 -0.025712237
-0.035076626 0.03258307 0.03801994 0.026763689 -0.019821063 -0.012352892 -0.015380597 -0.001956694
-0.015239176 -0.030417874 0.03743976 -0.021790234 0.02801246 0.00770955 -0.025905512 -0.03187828

conv3.lin.weight f4 [64, 64]
00000000: beaa 24be 7ac3 04bd 7fec 983a 95a1 863d
00000010: 70b4 ea3d cc4b 673e 8ee6 893d 5668 8c3e
00000020: 16b7 da3c e142 22be 50cd 573d 4f3b 03be
00000030: 768c 1cbe 2837 52be 308a 943d 61ff bdbd
00000040: 6281 90bc 207c 8abd 9e60 febd f5a0 13be
00000050: d668 3a3e 87e5 df3b d2cd f23d e2d9 35be
00000060: d3c9 aabb e60e ae3d 103d 72bc a037 38bd
00000070: ce6a 19bd 92f0 cd3d 41b3 3ebd 4015 9dbc
00000080: c343 cf3d dcfe 513d df65 433d 5a5d bd3d
00000090: 373b 0abd 9cf7 07be 10be 403d c8c1 c1bd
000000a0: 35f0 53be 079e 1c3d fcae 9e3e 2ea0 2fbe
000000b0: bfec 1f3e 8402 543d 9207 32be 3e47 c73d
000000c0: 13dc 053e 958b 813e 091b ac3e b9fe e83d
000000d0: e461 433d e5fc 42be b618 823e dc45 89bd
000000e0: 529a dfbd 5280 26be b64a 3f3e a979 4a3e
000000f0: 6402 4c3f 9236 503e 1c4b 85bd 5cc6 4b3e
00000100: 0d9a 973e a35e 21be 2a73 54be a031 25bd
00000110: 6a91 aebe 1565 1f3e 8019 d5ba 389b 3fbe
00000120: d82f bbbe 0e4d 3dbe e7bd 5fbe fa49 433e
00000130: 5b9e 1e3e 762e 1ebe e6ba d4bd aa34 b4bd
00000140: 0441 473e 03b6 17bd d35a 463e 758d 283d
00000150: b86a e7bd 02af 063e db2b 423e d82a 963c
00000160: 1718 29be cd60 3dbc b8dd 0a3e 2c13 8ebe
00000170: 31e3 103e 3ef0 f4bd cb19 393e 0504 c8bd
00000180: aaae aabe b44a 39be 0321 c23d 4743 3fbe
00000190: 98a5 96bd 6471 b33e 1678 09be e3c3 2bbe
000001a0: b4bc 0abe bfb1 9ebd 445b afbe c2d9 ddbd
000001b0: 0926 81be 0169 febd b70a 9dbd b3fb 35be
000001c0: 7fc5 88be ac9c a7be 39d7 c53e f936 8e3e
000001d0: 974e 253e 9bff 1e3d f26f 55be b22f 2a3e
000001e0: 1375 8f3d 64c4 74be 021c 60bc 9d55 f43d
000001f0: 271a ff3e 4d19 0d3e 6097 99bd 7275 2ebe
00000200: 1ca9 c43e 9800 b0be 18b3 c1be f384 fc3c
00000210: 35b2 f3be 6ec3 ecbc fe52 ac3c 74f9 aebe
00000220: f484 e0be 8400 083e 0f7b 103b fd50 073e
00000230: 87fc 353d 4116 583e ebb2 b7be 4fa4 09be
00000240: cd48 2b3e 8b2f 2a3e ef7f 013e 044f 02be
00000250: 806f efbd 3714 1b3e da17 f7bd 5a23 96bd
00000260: df5d 453e 549c 7abd f064 bc3d fcd6 bcbe
00000270: 09cf 9cbd 98b6 0ebe 6d10 d73d 1c36 7c3d
00000280: 6098 a4be 58c2 06be 5028 66bc b7b3 3cbe
00000290: 8978 4ebe 7935 6f3e f1ee 47be c0cd c639
000002a0: 1d49 e5bd 8b28 363e 5c64 b0bd e1ee 21be
000002b0: 9294 91be 01f1 1dbe 3a81 f4bc 0a03 c4be
000002c0: 79e3 c5bb 30d2 bebe f7e7 343a 862c c03e
000002d0: ef2d 043e 204e f4bc e7a4 8bbd 220a b23d
000002e0: 0b81 1d3e a03d 2abe 72bc 4bbe 1d46 1dbe
000002f0: bae5 003e 93d3 2d3e 5662 25bd ff05 31be
00000300: d4b5 9ebd 8b60 9d3c 6b2a 10bd db33 09be
00000310: fbc8 84be 74b2 593e 50d6 263e 4242 b7bc
00000320: 4bce 143e 4c32 2d3d a49e ac3d f350 12bc
00000330: d636 9bbd c464 b9bd 511f d9bd ecff 04bd
00000340: eea3 213d c80d dabd 42ae 20be cae7 e9bd
00000350: 751e 053d bf1c 12be 6aa8 873c 0dc0 083e
00000360: f5ce b2bd e460 80bd 203f dd3d c813 b43e
00000370: 84af 6d3e 4901 2c3e 0d9b 183e 7fdc cc3d
00000380: f329 f2bd c600 0c3e 187b dabd f1c8 e33d
00000390: aaf2 abbd 02ec 00bc 4659 523a 048d 77bd
000003a0: 8d5d 6abe 455a 853d d28f 783e 3512 603d
000003b0: 4e09 093d 7e47 053d 67da abbd 901d c5bc
000003c0: ddd1 d53d 485a 29bd 94cb 5b3e 8859 a93e
000003d0: 3818 0ebe d64b 913c 14bc 2d3e 6079 863c
000003e0: 6e19 2d3e 89e8 433e 8de3 0d3e bd6b 7d3e
000003f0: 7541 453f 416c c23d eca8 cbbd c556 c2ba
-0.16080758 -0.032412983 0.0011667161 0.06573788 0.11460197 0.22587508 0.06733428 0.27423352
0.02669863 -0.15845825 0.052686036 -0.12815593 -0.15287957 -0.20528853 0.0725292 -0.09277225
-0.01763982 -0.06761956 -0.12420772 -0.14416869 0.18204054 0.0068327817 0.11855663 -0.17758897
-0.0052120476 0.084989354 -0.014785066 -0.044974923 -0.037455373 0.10055651 -0.04655767 -0.019175172
0.101203464 0.051268443 0.047704574 0.09246321 -0.033747878 -0.13278049 0.047056258 -0.09460789
-0.206971 0.038236644 0.30992877 -0.17150947 0.15617655 0.05176021 -0.173857 0.09730385
0.13072233 0.25301805 0.33614376 0.113767095 0.047700778 -0.19041784 0.25409478 -0.06702778
-0.10918106 -0.16259888 0.18680844 0.19772972 0.7969115 0.20333317 -0.065084666 0.19899887
0.2960972 -0.15758757 -0.20747057 -0.04033053 -0.34095317 0.15565903 -0.001625821 -0.18711555
-0.3655994 -0.18486425 -0.21849786 0.19071189 0.15490095 -0.15447411 -0.103872105 -0.087991074
0.19458395 -0.037038814 0.19370584 0.04115053 -0.11299652 0.13152698 0.18962042 0.018330976
-0.16513096 -0.011558724 0.13561141 -0.27749002 0.14149167 -0.11959885 0.18076245 -0.09766392
-0.33336383 -0.18094903 0.09478953 -0.18678008 -0.07355803 0.35047448 -0.13424715 -0.16773944
-0.13548547 -0.07748746 -0.34249318 -0.1083255 -0.2522433 -0.12422372 -0.07668059 -0.17771797
-0.26713178 -0.3273672 0.38640764 0.27776316 0.16143261 0.038817983 -0.20843485 0.16619757
0.07004752 -0.23903042 -0.013678553 0.11930392 0.4982464 0.13779183 -0.074995756 -0.1703699
0.3841027 -0.34375453 -0.3783195 0.030825114 -0.475969 -0.028901782 0.021035668 -0.34174693
-0.43851435 0.13281447 0.0022046005 0.13214488 0.044430282 0.21102239 -0.3587869 -0.13441585
0.1672699 0.16619699 0.12646459 -0.12725455 -0.11691189 0.1514443 -0.12065096 -0.073309615
0.1927409 -0.061184242 0.0919894 -0.3688277 -0.07656676 -0.13936841 0.1050118 0.06157504
-0.32147503 -0.13160074 -0.014047697 -0.18427931 -0.20163168 0.23360242 -0.19524743 0.000379188
-0.11195586 0.17788903 -0.08612892 -0.15813781 -0.28433663 -0.15423967 -0.029846776 -0.3828357
-0.0060390797 -0.37269735 0.00069010205 0.3753397 0.12908147 -0.02982241 -0.06818562 0.08693339
0.15381257 -0.1662507 -0.19896105 -0.15358777 0.12587634 0.1697524 -0.040376984 -0.17287444
-0.07749525 0.019211074 -0.035196703 -0.13398688 -0.25934586 0.2125948 0.16292691 -0.022370461
0.1453182 0.042284295 0.08428696 -0.008930433 -0.075788185 -0.09052423 -0.10601676 -0.03247063
0.039462976 -0.1064716 -0.15691474 -0.114211634 0.03249975 -0.14268778 0.016559798 0.13354512
-0.0873088 -0.062684804 0.10803056 0.35171342 0.23211485 0.16797365 0.14902897 0.10002994
-0.118244074 0.1367217 -0.106680095 0.11122311 -0.08395894 -0.007868769 0.0008024167 -0.060437217
-0.2288725 0.06511358 0.24273613 0.054704864 0.03345614 0.032538883 -0.08391266 -0.024061948
0.10440419 -0.041345865 0.21464378 0.3307612 -0.13876426 0.017736357 0.16966277 0.016415298
0.16904232 0.19131674 0.13856335 0.2474813 0.77053005 0.09493304 -0.09944329 -0.0014826885

fc1.weight f4 [256, 64]
00000000: 67d0 043e 0aca f8bd 4981 24bd 17ba f4bc
00000010: d844 a3bd cc00 e13c 7d35 8abd 4835 1bbd
00000020: 5eec 173d 9471 14bd e411 083e 4da9 bd3d
00000030: 4d4d 6f3d b937 cd3d 5dd1 89bd 7c57 37be
00000040: ea64 783d 00a8 903d 1a4d 84bc 8bdd 87bd
00000050: 0d61 63bd f1ba df3c 6211 9ebd 7c1e 1ebd
00000060: f5cd e83c 17c7 6cbd 57e6 45bd a23b e33d
00000070: 6683 8a3d 1e8f 5abd fe2b ccbd 6e78 9abc
00000080: 648b c0bd 830f b13d 0b80 da3d 75ba b9bc
00000090: 0deb 993d 488a 0abe 50f9 d1bd 6d91 86bd
000000a0: 1d35 92bd a4b3 39bc b891 8f3b deeb 723d
000000b0: d2b0 e73d 211e ba3d e005 13be c79a 98bd
000000c0: cc8d 9cbc 6b78 d5bc 9f46 95bc 01c0 17be
000000d0: 558e 343d 4e29 d33d bc7d 47be f54b cf3d
000000e0: d943 213c eb89 c3bc 2233 513d 684d dcbc
000000f0: 552a e1bd 33ff 143d f12c c53d 5bca 3bbe
00000100: 4085 043e 923a d83c 8756 c13d a6ad 853d
00000110: 14e4 c83d 6a48 b6bc 1f35 e4bc d0e4 fc3c
00000120: d0dd 3cbd 54e8 ac3d d981 e3bc 3511 d8bc
00000130: d23e 6a3d 5ed7 db3d 78b5 2bbd d0e6 11bd
00000140: b5af 0a3b 894d 33bd 5a68 913d a7a7 6a3d
00000150: 7f66 e03d e5e1 293d 7166 9f3d 507d 0bbd
00000160: 0ab3 4abd 64ca 973d 48fe fd3c cbd4 67bd
00000170: 8e91 bbbd b8a9 8d3d 04a4 88bd b2d1 1c3e
00000180: 3d0e 16be 08cf 9e3d 01be 033e 7359 e2bd
00000190: eaab bbbd d9f5 a33d 3209 63bc 9191 953d
000001a0: 71b3 a7bd 2b45 1dbd 1df1 16bd 3a33 15bd
000001b0: 9404 ff3d 62cf 623c 26b5 11be c83e c93b
000001c0: de42 9cbc ebf8 d1bd 6041 233d 650d cb3d
000001d0: 92c5 2dbc dde2 3cbd 4b82 ddbd 67d2 343e
000001e0: 2a5b 2ebd a3e5 b0bc 3501 abbc ecb5 61bd
000001f0: c85e 6cbb 0ba2 863d 8397 32bc cbd1 07be
00000200: bcb3 01bd 784c edbc 94ac 8b3d 382e fdbc
00000210: da7a bd3d 06e5 f43d 7e25 b43d 40af a33b
00000220: 4485 9fbd 101a f03c e0ec e53c f8a9 213d
00000230: b0d8 413c 2858 bd3c 5c54 99bd 1828 dbbc
00000240: bac3 fe3d 104e 743c e4b8 5b3d 88e2 fb3d
00000250: 8446 ed3d 0c53 28bd a803 4abd 00bc 9a39
00000260: f05b 44bd 60fd eebb 7e06 ffbd 7af3 bf3d
00000270: 0009 353a 7ce1 1fbd eccd 46bd de9b 8a3d
00000280: 603b afbb 3039 213c 24d3 1abd 1611 aabd
00000290: 748b 41bd c0b6 cfbc eacf eabd e841 463d
000002a0: 0836 9a3c 9256 d5bd 38a3 b63d b0c5 023c
000002b0: 4c77 46bd a8bd cd3d 1c46 16bd 9cea d8bd
000002c0: 6026 89bc 4c4d 1e3d ecec fc3d 52dc ae3d
000002d0: 3017 843d c0c9 77bc a82e d93c f0c9 c43c
000002e0: 98e8 e7bd 6092 c13b 0a87 a63d 408e 113b
000002f0: 485a 7e3d 8854 893d 2037 fc3c b451 89bd
00000300: a046 1b3c 1803 63bd dcfa ad3d 8242 ea3d
00000310: 0c3f 03bd 347d 93bd 66fa 99bd a0ac d0bd
00000320: e43b 9f3d f819 01bd 104e 2f3c 0e66 c23d
00000330: 120a d3bd 884a 1ebd 38df d53d 003c fd3d
00000340: 6017 9a3d b8cd 7b3d 26e1 e8bd 2a5a ab3d
00000350: b48c 6fbd 74af 32bd 80e8 92bb 5864 563d
00000360: 3881 d3bc 8c50 23bd f093 253c 4603 d2bd
00000370: c0f3 883c 1875 fb3c a894 a1bc 240f 36bd
00000380: 1010 37bc ec6e 0cbd 706f 7ebc a0ed e23d
00000390: 3852 94bc d876 e1bc ecc3 54bd d406 103d
000003a0: d019 02bd 544c e43d 8000 0d3b 60d8 ba3b
000003b0: 0203 9fbd 78f1 93bd f8c4 743d 76ce a43d
000003c0: fc32 bdbd 60d3 91bb 20c4 ffbc 1440 20bd
000003d0: b64d afbd 028d 8fbd ae67 c2bd 242f 2a3d
000003e0: 240e f93d c829 683d b0da 1cbc f8a6 483d
000003f0: a014 863c 0c11 ae3d 708a cebc 2ca0 c1bd
0.12970124 -0.12147911 -0.04016236 -0.02987389 -0.07972115 0.0274662 -0.06748483 -0.03789261
0.03709065 -0.03624113 0.13288075 0.09260807 0.05842333 0.10020394 -0.06729386 -0.17904466
0.060643114 0.070632935 -0.016150046 -0.06634053 -0.055512477 0.02731082 -0.07718159 -0.03860329
0.02841852 -0.057807054 -0.048315372 0.110953584 0.067633435 -0.053359143 -0.09969328 -0.018856253
-0.09401587 0.08645537 0.106689535 -0.022671917 0.075155355 -0.13529313 -0.10252631 -0.065707065
-0.07139037 -0.011334334 0.0043813847 0.05930697 0.11313023 0.09087778 -0.1435771 -0.074513964
-0.019110583 -0.026058396 -0.018222151 -0.14819337 0.04408105 0.103106126 -0.19481558 0.101219095
0.009842836 -0.023869475 0.051074155 -0.026892379 -0.10994402 0.03637619 0.096277125 -0.18338911
0.12941456 0.026395116 0.09440332 0.065272614 0.098091274 -0.022251327 -0.027857361 0.030870825
-0.046109974 0.084427506 -0.027771877 -0.026375392 0.057188816 0.107344374 -0.04192111 -0.03562051
0.0021161858 -0.043775115 0.070999816 0.057288792 0.109570496 0.041475195 0.07783211 -0.034055054
-0.04948715 0.0741165 0.03100504 -0.05659942 -0.09158622 0.06917137 -0.066719085 0.15314367
-0.14653869 0.07754332 0.1286545 -0.11052217 -0.091636494 0.08005876 -0.013857173 0.07303155
-0.081885226 -0.03839604 -0.036851037 -0.036425807 0.12452045 0.013843389 -0.14229259 0.0061415173
-0.019074854 -0.102525555 0.03985727 0.09914664 -0.010606186 -0.04611479 -0.10815867 0.17658387
-0.04256741 -0.021593874 -0.020874599 -0.055105135 -0.0036067236 0.06573876 -0.010900381 -0.13263623
-0.03166555 -0.028967127 0.06820026 -0.030905828 0.09251948 0.11957745 0.087962136 0.0049952567
-0.0778909 0.029309303 0.028067052 0.039468735 0.0118314475 0.023113325 -0.074867934 -0.026752517
0.12439676 0.01491119 0.053643122 0.12299067 0.115857154 -0.041094825 -0.049319893 0.0002951324
-0.04793924 -0.0072933882 -0.1245241 0.09372611 0.0006905943 -0.039033398 -0.048536226 0.067680106
-0.005347654 0.009840295 -0.037799016 -0.0830404 -0.047252133 -0.025355697 -0.11465438 0.048402697
0.018824592 -0.104169026 0.0891785 0.007981703 -0.048453614 0.1004594 -0.036687955 -0.10591623
-0.016741931 0.038647935 0.12349877 0.085381165 0.06449735 -0.015123785 0.026511505 0.024022073
-0.113236606 0.005907342 0.081312254 0.0022210032 0.062097818 0.06705576 0.030788004 -0.06705037
0.0094772875 -0.055422872 0.08495113 0.114384666 -0.032042548 -0.07201615 -0.07518463 -0.101891756
0.07775095 -0.031518906 0.010699764 0.09492122 -0.10304655 -0.038645297 0.10442966 0.1236496
0.0752399 0.061475486 -0.11371069 0.08366807 -0.058483794 -0.043624356 -0.0044832826 0.05234179
-0.025818452 -0.039871737 0.010106072 -0.102545306 0.016717792 0.030695483 -0.019724205 -0.044448033
-0.011173263 -0.03428547 -0.015529498 0.110804796 -0.018105611 -0.02752249 -0.05194466 0.03516276
-0.031762898 0.11147371 0.002151519 0.0057020634 -0.077642456 -0.07223791 0.059758157 0.08047192
-0.0923824 -0.0044502467 -0.03122145 -0.03912361 -0.08559744 -0.07009317 -0.094924316 0.041548863
0.121609 0.05668047 -0.009573624 0.04898736 0.016367257 0.08499345 -0.025212497 -0.094543785

fc1.bias f4 [256]
00000000: 3545 e43d 5294 b13d a238 b8bd 6a9a 95bd
00000010: 6fcc 293d b52f d2bd 5e98 dcbd 9868 ec3c
00000020: 0644 0fbe f6d8 b43c ae6b cf3d 5aa5 dabd
00000030: 303f e03d 7657 0f3d 20f7 aebd 3061 803d
00000040: 0593 b13d b605 bb3d 3d2e 543d 190f 10be
00000050: 0460 a33a ba2d 27bd b8ac d7bd f6e8 f9bd
00000060: 9cc1 bdbd 6979 363d 6092 bbbd fce8 a6bd
00000070: 5728 22bd fa3c d03b 9e64 01be f908 dd3d
00000080: 0b90 10be 9eb2 cc3d 4f9c 05be 2b9d 283d
00000090: 06f6 b6bd 918b 223d 2609 88bd 7322 453d
000000a0: 8b3c 133e 5ba4 913c 6ff7 1c3d d73e b1bd
000000b0: c0bc babd b52c 503d a0b6 0f3d 27df 323d
000000c0: 4fc8 af3d e080 b33d 5a70 453d a046 853d
000000d0: 6edc d0bd 69e6 043d 3392 2abd 8d15 1bbd
000000e0: 7f71 033e 134b 483d 0270 6f3c a298 a93d
000000f0: 22d9 b93d 6b3a ce3d 8326 3cbd 46ff 933d
00000100: 1c9e 2a3e a32a 8f3d 3f20 e63d e66a e8bd
00000110: 0c98 9fbd 4d5c df3b e2be 6f3d 2ba3 013e
00000120: 0ca2 39be 340d 4c3c c813 edbd 5011 21bd
00000130: 55f6 df3d 9ff1 053e 7013 dd3d 74fc 9cbd
00000140: 4d25 3d3d af71 fbbd 2a06 2b3d 006d 903d
00000150: ff55 ed3d 428b f93c e03f 08be deca 523d
00000160: 7f9f a33d 22c9 793c 6243 363d 0c3b 4f3d
00000170: 7b76 953d eb96 e33c 6709 03be aa09 853d
00000180: 74a2 febd 79a3 fd3d e24c f1bd 485b 13be
00000190: 47d2 5f3d 76ad a53c c4cd 8dbd 0f1f fb3d
000001a0: b3d8 983d 2768 753d dc9a ddbd 1c18 cfbd
000001b0: fbc0 133d 3259 aabd a65b 073d e769 f13d
000001c0: 9803 a1bd 4581 623d 7350 cb3d 1a26 ffbd
000001d0: 8ddc 593d 2d93 af3c 0dd1 193d 05cb 8f3d
000001e0: f6d4 203e 8427 0dbe 5378 913d 6c20 703c
000001f0: 2c68 293d 2167 0d3d 8993 863d cafa 3a3d
00000200: 8bdd 7e3d 4864 6abd c91c 093d fb3c ca3d
00000210: 4943 f53d 367c c9bd f112 8c3d baaa f2bd
00000220: e68a 0a3d c677 e43d 26a9 5e3d 17c0 6b3c
00000230: a64f 05be f7e9 06be 083a 08bd 87df 983d
00000240: c2c2 c5bd c841 483d 96dc de3d da76 69bd
00000250: 7100 f23c c0e0 fbbd 5638 df3d 7597 183c
00000260: 9cc3 e03c 0817 fcbd 83bb 693d 18b8 2dbd
00000270: 8de2 cd3d 4162 dc3d 508f bcbd eef3 f4bd
00000280: 4f35 ea3d 8121 6bbd 5a3c fd3b b64a 223d
00000290: 09cc 843d dd29 0eb9 a08e 5b3b 828c 1a3e
000002a0: 1f2e 073e ab75 06be 00fd 02bd 2734 973d
000002b0: c804 153e 2a2e 923d 0f87 983c cfeb 9fbd
000002c0: 91b9 2f3c e2f9 00be f3ae 9b3d a006 113c
000002d0: 4990 813d 966d 15be 291a b13c c3ca c63c
000002e0: efd0 10be 9872 d83d 9a73 d6bd 1274 923d
000002f0: 3593 4f3c 0608 c8bd 56c1 913d 30e0 ac3d
00000300: 6850 963d 827c 153e d480 bdbd 8159 90bd
00000310: 6863 6b3d bf01 b4bd 76da 123e bca8 9dbd
00000320: 60a9 17be 834c 5cbd 1347 cc3c c583 513d
00000330: 536b d13d be6b d83d 2e3d 363e 79f8 1f3d
00000340: 9787 0a3d 3dfa ef3c eceb e0bc 879a d93c
00000350: e115 433d fdd3 033e 7764 d03d 2fac 46bd
00000360: a565 593d 4334 f73c fb85 b3bd 2599 ba3d
00000370: b876 da3d ba19 d5bd 84b8 c3bd 81fe ed3d
00000380: bda9 dfbd 3574 8cbd f9ca 363d e60e 223d
00000390: a6be 733d 5621 253e af19 6b3d 9c87 bebd
000003a0: 5d36 d8bd c37a d13c c6a3 6c3c 8c1b 823b
000003b0: 00fd 003d 5925 9d3c cb15 d23c ee7a 183d
000003c0: 5257 ba3d 5f50 d23d 5168 323d 16cc cfbd
000003d0: 8400 533d 5a0f 1e3c 7498 e73d d5e3 0b3d
000003e0: 164a da3d ddd0 08bd 4c0c be3c 4fd0 32bd
000003f0: 9245 debd 740f dcbd c489 433d 7d1c c13d
0.11146013 0.08670868 -0.08995177 -0.07304843 0.04145473 -0.10263006 -0.10771249 0.028858468
-0.13990793 0.022076111 0.1012796 -0.106760696 0.10949552 0.03499552 -0.08543229 0.06268537
0.0867062 0.09131949 0.05180191 -0.1406826 0.0012464528 -0.040815093 -0.1053099 -0.12202637
-0.09265444 0.04454938 -0.09158778 -0.08149907 -0.039589252 0.006354925 -0.12636039 0.10792727
-0.14117448 0.09995006 -0.13047908 0.041165512 -0.08933644 0.039683882 -0.0664237 0.048128556
0.14378564 0.017778566 0.03832191 -0.08654564 -0.091180325 0.050823886 0.035086274 0.043669846
0.08583128 0.08764815 0.04820285 0.06507611 -0.101982936 0.0324463 -0.041643333 -0.03786235
0.12836264 0.04889972 0.014614107 0.082810655 0.09074618 0.10069736 -0.045935165 0.07226424
0.16661876 0.06990554 0.11236619 -0.11348514 -0.077926725 0.006816423 0.05853165 0.126599
-0.18128222 0.01245432 -0.115760386 -0.03932315 0.10935656 0.13080452 0.10794723 -0.07665339
0.04617815 -0.12277543 0.041753925 0.0705204 0.11588668 0.030461911 -0.13305616 0.051463
0.07989406 0.015245708 0.044497855 0.05059342 0.07297989 0.027781924 -0.12796555 0.06495984
-0.12433329 0.123846956 -0.11782242 -0.1439029 0.054643895 0.020224314 -0.06924012 0.12261783
0.07463207 0.05991378 -0.10820553 -0.101120204 0.036072712 -0.08317794 0.033046387 0.117877774
-0.078620136 0.055299062 0.09927454 -0.12458439 0.05318885 0.021432484 0.037552882 0.07021145
0.15706238 -0.13784605 0.07103028 0.0146561675 0.04135911 0.03452218 0.06571109 0.045649327
0.062223 -0.057224542 0.033474717 0.09874912 0.11975724 -0.098381445 0.0683955 -0.1184897
0.03382387 0.111556575 0.05436053 0.0143890595 -0.13018665 -0.13175188 -0.033258468 0.074645095
-0.09656288 0.04889086 0.10881917 -0.05699811 0.029541226 -0.12298727 0.10899417 0.009313454
0.027437024 -0.1230908 0.05706359 -0.042411894 0.10052977 0.10760928 -0.09207022 -0.119605884
0.11435949 -0.057405 0.0077281417 0.03962203 0.06484229 -0.0001355777 0.003350176 0.15092662
0.13201188 -0.13130824 -0.03197956 0.07382994 0.14552605 0.07137711 0.018619088 -0.07808649
0.010725395 -0.12595323 0.07601728 0.008851677 0.06326348 -0.14592585 0.02161892 0.024266606
-0.14142202 0.10568732 -0.10471268 0.07151045 0.012669374 -0.09767155 0.07116954 0.08441198
0.07339555 0.14598277 -0.09253088 -0.070483215 0.057467848 -0.087893955 0.14341149 -0.07698199
-0.14810705 -0.053783905 0.024936235 0.051151056 0.102255486 0.10567425 0.17796776 0.03905532
0.033820715 0.029294128 -0.027456246 0.026562942 0.047628287 0.12873836 0.10175412 -0.04850405
0.05307545 0.030176288 -0.08765789 0.09111241 0.10667175 -0.104052976 -0.09556678 0.116208084
-0.10921047 -0.06858102 0.044627164 0.03956499 0.05950799 0.16125998 0.05739754 -0.09303209
-0.10557244 0.025571233 0.0144433435 0.003970569 0.03149128 0.019182848 0.025645157 0.03722661
0.09098686 0.10269236 0.043556515 -0.10146348 0.051514164 0.009647215 0.11308375 0.034152824
0.10658662 -0.033402313 0.023199223 -0.04365569 -0.10853113 -0.10745135 0.047738805 0.09429262

fc2.weight f4 [128, 256]
00000000: 79e2 9abc 3fd7 083d 0095 78ba 80cb c93a
00000010: 765c b8bc 1efe ab3c f01f 94bc a37a bd3d
00000020: 994c c93c 3ef6 8ebd f53f 1a3d 808e 063c
00000030: 2b44 babc 38aa a0bd 70bf 23bc 51b1 e4bb
00000040: 1194 2e3d cc2f 913d c0b2 163d 646f 85bd
00000050: 23dc 343d 1817 0fbd 500b 523c 67a7 273c
00000060: d0f3 b03c 73f3 21bc c887 1e3d 64bd 94bc
00000070: 6b6c 80bd b4a9 943b 6038 88bc d267 5e3d
00000080: 7f77 01be 3882 513d 48f3 9c3d b5dd 16be
00000090: af5b 783d 19f5 f23d d52a 4e3d 51ee 3ebd
000000a0: f77d 053e 618d ba3c dad8 053e e2a0 a13c
000000b0: 6514 903c 8703 86bd 4eea 3dbb 78c8 913d
000000c0: ee96 aa3d cd9a 7a3d 724f 033d 44de 20bd
000000d0: 84a2 02bd 2032 4f3d f470 a2bc a267 6cbd
000000e0: 963c 01bd b583 2d3c fd5c 723d 84da e73c
000000f0: ab05 a13d 612b bd3b 9feb 163c 8119 1bbd
00000100: 9511 c23c c6c4 ba3d dcd5 2d3e c041 92ba
00000110: 5495 343d 7973 083e 57ee 46bd ca57 22bd
00000120: c315 13bd 22d1 b33d 4956 9bbc e540 66bd
00000130: 3765 4b3d aeb3 dcbc 34c3 8c3d 8e72 053d
00000140: b2f6 453d 1c73 143d 28db c5bd 07be b8bc
00000150: 5161 333d acb8 1d3e 9ad2 87bc a4a0 fb3d
00000160: f2fc 943d 5d35 0abd 8ab4 7cbd 8513 b53d
00000170: 90ca e13c a911 773c 0cea 12be 1ad5 f7bc
00000180: 48bb a6bc c5e7 f93c 2215 0ebd 5a5c 7a3b
00000190: c493 103d 2133 8c3d beba 3b3d d270 b9bb
000001a0: a2aa ff3c 88c6 963d 1430 eb3c 8ad4 54bd
000001b0: 8706 e13c 2094 263c a8e9 cbbd ab36 de3d
000001c0: 3903 fbbc bcf6 a23c 696d 2fbd 58a2 223d
000001d0: 5c02 69bd c314 92bb e781 fc3d ee98 9e3d
000001e0: 4bf9 1bbc 4964 cabd 2f8f baba a69a b43d
000001f0: 96d1 dfbc afef 843b 08d7 bfbd d0c2 c6bd
00000200: 2408 2cbd ec1e aa3b 9b9a 67bc e971 05bd
00000210: 71ee 003c def5 403c 0607 48bd 40cf f03b
00000220: c607 6abd d8f2 393e d183 9c3d c03c ffbb
00000230: 0521 0fbc 001e 81bd eb57 d4bc a106 11bd
00000240: 2cf6 6c3d 36dc d9bb 0d14 063d 12c3 253d
00000250: a2db a33d 7e80 45bd da5c 943d 02f4 bc3d
00000260: 23f7 ad3c 8023 393b 9b2a 7b3d 3cc5 1a3d
00000270: 861d 0cbd 6e7d 793d f009 f4bc 917c 3b3d
00000280: dfd1 c33d 2907 9c3d 4b6d 9d3d a5c9 913c
00000290: 493b f3bb 17a4 6d3c 1a97 6b3d 46bc 443d
000002a0: 7b03 36be ea5c 763d 459d 40bc b8b7 0cbb
000002b0: 8f09 223e 517c 27bb 41fb d73c 0b4d 03be
000002c0: c716 f13d 61ef 08bd 7eab ff3d 97bf 243d
000002d0: e87b 673e 82d5 22bc a5fe f73d f3ae adbc
000002e0: d3be 59bc ac46 9f3d 908e 3bbd 2f05 b83d
000002f0: c1bc 373d 808f a13b a370 443e 34bc b13b
00000300: 1ea6 943b c946 473e d01a 10bc 8351 2b3a
00000310: 289b c93d 337f 24bc be32 103d ee5d 6b3d
00000320: 4b3e 0ebe 8b6f 9bbc 1ad9 203d bae1 873d
00000330: 86fb 883b cf79 3abd fbc2 203e a405 4abd
00000340: 4d27 44be 273e 593c 9314 c1bc 03f8 aabc
00000350: 2bc6 e93d 9c18 1b3e 305e 22bd faaf 86bc
00000360: 36d1 a4bc 7911 de3d af4f 193d 0405 0b3d
00000370: ff14 b936 2b9c 283d 4606 79bd 39b1 5fbd
00000380: 2de2 b53b bc54 86bc 2ffd 5e3d f85b 7ebd
00000390: b401 143c 2a8d 9cbd c7e8 bd3b 4245 043d
000003a0: 9a78 bcbc 0f50 8b3c b934 96bd d46c 043d
000003b0: 7408 973c 43f7 9f3d 7e72 21bd 64b7 5abd
000003c0: d251 53bd d5a5 fc3c a01c d13d 13af e4bc
000003d0: c28c 24bd 2e76 4dbd 3e26 243e 405d c23d
000003e0: 0ef6 b7bd e090 c1bb 8a78 83bd 2740 b63c
000003f0: f4c0 113d 94a7 1bbd 2640 4f3d 8810 413d
-0.018906819 0.0334084 -0.0009482652 0.0015395731 -0.022505026 0.020995196 -0.018081635 0.09251907
0.024572657 -0.06980561 0.03765865 0.008212686 -0.022737583 -0.07844967 -0.009994373 -0.0069791456
0.042621676 0.07089195 0.036791563 -0.06515387 0.04415525 -0.034934133 0.01282008 0.010232783
0.021600634 -0.009884703 0.03870371 -0.018156715 -0.06270679 0.0045368318 -0.016628444 0.05429823
-0.1264324 0.051149577 0.0766359 -0.14733012 0.06063431 0.11863155 0.050333817 -0.046613995
0.13036333 0.022772493 0.13071004 0.019730035 0.01758785 -0.065436415 -0.0028978768 0.071183145
0.08329569 0.061182786 0.032058187 -0.03927447 -0.03189327 0.050584912 -0.01982925 -0.05771602
-0.03155192 0.010590483 0.05917071 0.028302439 0.07862409 0.0057729934 0.00921145 -0.03786612
0.023690024 0.09119563 0.16976112 -0.0011158511 0.044087723 0.133253 -0.048567142 -0.039634503
-0.035909425 0.08780123 -0.018962042 -0.056214232 0.049657073 -0.026941147 0.068731695 0.03257995
0.04833097 0.03624259 -0.09660941 -0.02255155 0.04379398 0.15402478 -0.016579915 0.12286499
0.07274808 -0.033742297 -0.061695613 0.08841614 0.02756241 0.015079894 -0.14347094 -0.030252982
-0.020352975 0.030506024 -0.034688123 0.0038202018 0.03529717 0.068456896 0.045832388 -0.005659201
0.031209294 0.073620856 0.028709449 -0.051960506 0.027468933 0.010167152 -0.09956676 0.10850271
-0.030641185 0.019893043 -0.04282895 0.039705604 -0.056887016 -0.0044580414 0.123294644 0.07744013
-0.009519885 -0.09882409 -0.0014233346 0.08818559 -0.027321618 0.004056893 -0.09367186 -0.09705126
-0.04199995 0.0051916745 -0.014135982 -0.032579336 0.007869349 0.011777369 -0.048834823 0.007348925
-0.05713632 0.18159044 0.076423295 -0.0077892244 -0.0087359 -0.0630455 -0.025920829 -0.035406712
0.057851955 -0.0066485656 0.032733966 0.040469237 0.08000876 -0.048218243 0.072442725 0.09226228
0.021236008 0.002824992 0.06131993 0.037785754 -0.034207843 0.060910635 -0.029789895 0.045773093
0.09561514 0.07618553 0.076868616 0.017796347 -0.007422839 0.014504454 0.05751715 0.048031114
-0.17774765 0.060147204 -0.011756246 -0.002147181 0.15823959 -0.0025556276 0.026364924 -0.12822358
0.117719226 -0.033431415 0.124838814 0.040221777 0.2260586 -0.0099386 0.121091165 -0.021201586
-0.013290125 0.077771515 -0.045790255 0.08985364 0.044857744 0.0049304366 0.19183592 0.005424047
0.0045364043 0.19460596 -0.008795455 0.00065352785 0.09844047 -0.010040092 0.03520464 0.057462625
-0.1389095 -0.018974086 0.039269544 0.06634851 0.0041803746 -0.045526322 0.15699379 -0.049321786
-0.19155617 0.013259447 -0.02356938 -0.020870214 0.11414751 0.15146106 -0.039640605 -0.016441334
-0.02011929 0.108431764 0.037429508 0.03394033 5.515874e-06 0.04116456 -0.060797 -0.054612372
0.005550644 -0.016397826 0.054440673 -0.062099427 0.009033609 -0.076441124 0.0057955715 0.032292612
-0.023006726 0.017005948 -0.07334275 0.03233035 0.018436648 0.07810833 -0.03941583 -0.05339755
-0.0515917 0.030840794 0.10210538 -0.027915513 -0.0401733 -0.050161533 0.16030213 0.09490442
-0.08982478 -0.005907163 -0.064194754 0.022247387 0.035584405 -0.03800161 0.050598286 0.047134906

fc2.bias f4 [128]
00000000: 5220 c6bc a6bf 953d 40c4 21bc a0f8 bfbb
00000010: 8ffb 3bbd 7281 193d 3727 29bd 38f2 8f3d
00000020: 2b3c 793c 9a5b 863d 3a48 9b3d 1aab b53d
00000030: 9174 7bbd db01 d63d d362 293b 6869 893d
00000040: 64af 76bc 5288 993d 8023 983b 20ae efbb
00000050: cc18 963d 3581 483d c499 da3b b12a 843d
00000060: 60a3 063d 25d1 193d 6ae4 5cbd 5ba7 e13c
00000070: bb9b 71bd 282b 453a 0dfc 6fbc c870 5b3b
00000080: 4dd9 9e3d 95fe 273c d754 78bc 595b c13a
00000090: a169 1abd 0b01 453d fc64 ca3d 4ee7 0abd
000000a0: 7d2a f7bc a5e4 f23a 1486 083a 2e8a f0ba
000000b0: eace ab3d 30da 933d 6cde 67bd 6538 753d
000000c0: b853 3e3d 9866 f1bc 4199 923d e43d 03bd
000000d0: 3aaa 483d 9ee6 52bc f91b 11bd 04a2 b93d
000000e0: b651 443c 5836 493c c388 ecbc 5d50 f2bc
000000f0: 7217 893d 4ccb 54bd 1120 453d ab4b 4b3d
00000100: 0d4c c03c 6736 90bd c04c c4bc 2804 4dbd
00000110: 5b9c db3d c2fc b43d 9956 113d 6f10 afbc
00000120: a477 44bd c6cc f2bc 9e92 c8bb e5ee 53bd
00000130: b058 58bd 7651 1dbd 114e 823d 8bf0 f4bc
00000140: b227 86bd 2258 373d 0af7 c5bb 92a3 4ebc
00000150: cfa2 e03d 7473 003e 64da d8bc 1f8e b43a
00000160: 089d 68bc 0701 28bd f14c 4ebd 1c76 373b
00000170: 86f7 5cbd 48d6 6fbd abfb 97bd c3e6 c5bc
00000180: 65eb 373d cdb0 cabc e346 69bd 8730 053d
00000190: 502a 7abd 2a8d d03a ebb6 8e3c 5342 ca3d
000001a0: e6b0 a5bd 9595 0fbc d249 a53d 8884 853c
000001b0: 1fab ae3c 8422 8cbd b40e aabc 8ad6 73bd
000001c0: ccdf ba3d 87b0 61bd 8739 46bd bf3a ad3d
000001d0: 264d a73d 44b4 4abd 2f90 67bd 73a8 683d
000001e0: 12eb d03d 4bec 8e3c be6b a53d a71e 573d
000001f0: 0516 45bd b497 8eba ac2f 6a3d e074 173c
-0.024185333 0.07311945 -0.00987345 -0.005858496 -0.0458942 0.037476964 -0.041297164 0.070286214
0.015212099 0.0656044 0.075821355 0.08870526 -0.061390463 0.10449573 0.0025846257 0.06709558
-0.015056465 0.07496704 0.004642904 -0.0073144585 0.073289484 0.048951346 0.0066711623 0.06453455
0.03287065 0.03755297 -0.05392877 0.027545622 -0.058986407 0.00075213844 -0.014647496 0.003348397
0.077562906 0.010253568 -0.015156946 0.0014751955 -0.03769839 0.048096698 0.098825425 -0.033911996
-0.030171627 0.0018531276 0.00052079675 -0.0018351728 0.08389075 0.0721935 -0.056608602 0.059868235
0.04646656 -0.029467866 0.07158137 -0.032041445 0.048990466 -0.012872366 -0.035427067 0.09064105
0.011982372 0.012281023 -0.028873807 -0.029579336 0.06693925 -0.05195169 0.048126284 0.04963271
0.023473764 -0.070416264 -0.023962379 -0.05005279 0.10723182 0.08837272 0.035482977 -0.02137014
-0.04796566 -0.02963866 -0.0061209938 -0.0517415 -0.052818954 -0.038407765 0.06362546 -0.029899856
-0.0655054 0.044761784 -0.0060414122 -0.01261224 0.10968553 0.12544042 -0.026471324 0.0013775266
-0.014197595 -0.041016605 -0.050366346 0.0027993983 -0.053946994 -0.058553964 -0.07421049 -0.024157887
0.044902224 -0.024742508 -0.05695237 0.032516982 -0.06107551 0.0015911211 0.017421206 0.098759316
-0.08090381 -0.0087636905 0.08070721 0.016298547 0.021321831 -0.06842521 -0.020758964 -0.059530772
0.09124717 -0.05509999 -0.048394706 0.084584706 0.08169012 -0.04948832 -0.05653399 0.05680127
0.10201086 0.017446658 0.08077191 0.052519467 -0.048116703 -0.0010878951 0.05717437 0.009244174
