data/predictor/PT/cifar100_201_SiameseNetwork_2024-06-28_21-23-28.pt (torch, 304049 bytes, 12 tensors)

conv1.bias f4 [64]
0.0 -0.13413292 -0.03262287 0.056488834 -0.0020819032 0.0017718278 -0.016566368 -0.039929006
-0.037531313 0.072284 -0.025485875 -0.038054034 0.0 0.024779227 0.04327314 -0.08408702
-0.015163614 0.053095847 -0.022486094 0.0020860746 0.0 -0.020896412 0.10447537 -0.10274309
-0.10788291 0.08408884 -0.037841335 -0.04565382 -0.060010564 0.0025269159 -0.018805848 -0.020326063
0.020052532 -0.08658781 0.027207693 -0.09919136 0.088330984 0.020135915 -0.040500183 0.12525816
0.0 -0.06542312 0.0 -0.14003861 -0.06465449 -0.09486002 0.046165466 0.026898114
-0.06270154 -0.0938284 0.042454407 -0.011289218 0.092333384 0.0 0.03464864 -0.10140314
-0.10638657 0.06808553 -0.03365454 0.057372943 -0.11692087 -0.054943327 0.06512063 0.08703009
00000000: 0000 0000 245a 09be 8f9f 05bd d660 673d
00000010: 8a70 08bb ad3c e83a 31b6 87bc 998c 23bd
00000020: 6fba 19bd a209 943d c1c7 d0bc 8cde 1bbd
00000030: 0000 0000 cefd ca3c 2d3f 313d d135 acbd
00000040: cf70 78bc 087b 593d c234 b8bc 86b6 083b
00000050: 0000 0000 f42e abbc 2ff7 d53d f86a d2bd
00000060: b7f1 dcbd c536 ac3d 84ff 1abd 80ff 3abd
00000070: a3cd 75bd 9d9a 253b b90e 9abc d882 a6bc
00000080: 3545 a43c f354 b1bd abe2 de3c d724 cbbd
00000090: e0e6 b43d 13f4 a43c 85e3 25bd ad43 003e
000000a0: 0000 0000 8ffc 85bd 0000 0000 4866 0fbe
000000b0: 9369 84bd f845 c2bd 0018 3d3d 6f59 dc3c
000000c0: aa69 80bd 1b29 c0bd ace4 2d3d 6af6 38bc
000000d0: 4919 bd3d 0000 0000 bbeb 0d3d 73ac cfbd
000000e0: 34e1 d9bd 6d70 8b3d 58d9 09bd e4ff 6a3d
000000f0: 3674 efbd 410c 61bd f75d 853d d53c b23d

conv1.lin.weight f4 [64, 4]
-0.044396162 0.06312451 -0.22493039 -0.09804937 -0.042546608 -0.6953105 0.2160757 -0.8276399
-0.66905475 0.41295415 0.34824285 0.050351143 -0.8445658 -0.060622964 0.0713778 0.060197264
0.011704408 0.3885635 0.09263554 -0.89123034 0.11046088 -0.4204797 -0.39241716 0.37257108
-0.12536247 -0.2706428 -0.017231423 0.006937407 -0.27716765 0.3669871 0.08573223 0.25905704
-0.48946607 0.305327 0.0881172 0.015328907 -0.106605135 -0.2831316 -0.22758874 0.08150943
-0.005922428 -0.23279352 0.2876862 -0.082489505 -0.34742153 0.21302198 0.1733102 -0.91287696
-0.2121996 -0.044148296 -0.21023956 -0.20507601 0.20933102 -0.114233576 -0.09307642 0.14679208
0.21903044 0.043807674 -0.09722282 -0.43281472 0.04010896 -0.041838035 0.103463314 0.08081206
0.065338515 0.05409666 0.24264513 -2.2658381 0.11839928 -1.2869363 -0.06973997 0.57622844
0.24716297 0.24585885 -0.4880242 -0.07559325 0.25696513 -0.12253538 -0.013364835 -0.5834073
-0.10552402 -0.105261594 -0.0050862134 -0.26897636 0.22669712 0.14732203 -0.04698787 0.20682105
0.35032636 -0.13274209 -0.1579643 0.35715285 -0.2848359 -0.8126045 0.33454275 0.029248647
0.23078223 -0.053784706 0.18865925 0.08906307 0.24543428 0.12350185 -0.32797214 -0.09686245
-0.14442089 0.06366341 -0.04624965 -0.2638463 0.2580469 -0.30412537 0.064010166 0.2995196
-0.1687913 0.49438146 0.22526942 -1.277654 -0.30066624 0.47788134 -0.23088194 -0.0802096
0.3136713 -0.14739244 -0.13564758 -0.0054247016 -0.107920595 -0.17687458 -0.2753229 0.18725084
-0.40074772 0.3980724 -0.26114517 -0.0512381 0.122029565 -0.18540601 0.024777073 0.3937375
0.4070173 -0.061125215 -0.12923782 0.2001418 0.12712078 0.14351434 0.16116722 0.22142932
0.44570574 -0.2875352 -0.17431125 0.26513612 -0.22459644 -0.20085986 -0.365352 0.25974607
-0.29037696 0.20064652 -0.13647507 0.36930585 0.073479615 -1.1171582 -0.21879594 0.72816783
-0.2828318 -0.004611075 -0.25234511 -0.20083755 0.31330812 0.13575019 0.081077814 0.30195534
-0.2785884 -0.0340344 -0.078928694 -0.24494267 -0.088126 0.2824361 0.25833133 0.1508007
-0.44576558 0.32550368 0.21170439 -0.73563874 0.19074628 0.22034685 0.085308716 0.35312203
-0.42340434 0.3958644 0.048845325 0.18298912 0.34875885 -0.4145109 -0.11411282 0.5423872
0.23425871 0.24239612 -0.39850715 -0.039188415 -0.059229318 -0.18173493 0.40021977 -0.40387762
-0.09155326 0.59043777 -0.15542433 0.2544248 -0.1814481 -0.16431962 -0.134167 0.010228363
0.275186 0.105312675 -0.33384606 -0.22064103 -0.0010620058 -0.15810062 -0.14604986 -0.05173345
0.28589895 -0.03923878 -0.106084034 0.18809278 0.14719471 -0.041052796 0.18391313 -1.1117945
-0.017835002 0.459403 0.22323614 0.27071995 -1.4164642 -1.4451905 0.15068293 0.12363605
-0.22485545 0.23995301 -0.025036177 -0.00017709502 0.1799836 -0.17398812 -0.10658904 0.40930933
-0.3879676 -0.69101024 0.3088837 -0.30856103 -0.05924314 0.08834284 0.3231305 -0.29138672
0.23355132 -1.1152184 -0.10582519 0.4209533 0.19323519 0.19645242 -0.29895532 0.097380824
00000000: c0d8 35bd 6c47 813d 2754 66be 1cce c8bd
00000010: 5a45 2ebd deff 31bf f342 5d3e 35e0 53bf
00000020: 2c47 2bbf ba6e d33e e34c b23e 003d 4e3d
00000030: 7735 58bf c94f 78bd 862e 923d 6891 763d
00000040: d8c3 3f3c ccf1 c63e b4b7 bd3d ac27 64bf
00000050: 5039 e23d 1e49 d7be e7ea c8be a3c1 be3e
00000060: 055f 00be b191 8abe ea28 8dbc 3053 e33b
00000070: ebe8 8dbe bce5 bb3e 6194 af3d 20a3 843e
00000080: 4c9b fabe d253 9c3e ca76 b43d 1926 7b3c
00000090: cb53 dabd a0f6 90be 060d 69be 6bee a63d
000000a0: ed10 c2bb 6d61 6ebe 9b4b 933e 42f0 a8bd
000000b0: 3ce1 b1be 6f22 5a3e 3b78 313e 4eb2 69bf
000000c0: da4a 59be d8d4 34bd 0a49 57be 72ff 51be
000000d0: df5a 563e 4bf3 e9bd da9e bebd aa50 163e
000000e0: 8449 603e ad6f 333d c21c c7bd e499 ddbe
000000f0: 4b49 243d 5c5e 2bbd 93e4 d33d cb80 a53d
00000100: 33d0 853d 7694 5d3d f777 783e 7e03 11c0
00000110: 527b f23d 54ba a4bf d4d3 8ebd b583 133f
00000120: 4a18 7d3e 6cc2 7b3e 4fde f9be a2d0 9abd
00000130: ef90 833e d4f3 fabd 2ef8 5abc 2e5a 15bf
00000140: fa1c d8bd 6493 d7bd 40aa a6bb 45b7 89be
00000150: 4a23 683e 96db 163e 5a76 40bd e6c8 533e
00000160: fa5d b33e 8bed 07be 65c1 21be bddc b63e
00000170: 03d6 91be d906 50bf 3049 ab3e dc9a ef3c
00000180: 2d52 6c3e 5a4d 5cbd e42f 413e b366 b63d
00000190: 2053 7b3e 8aee fc3d f7eb a7be d25f c6bd
000001a0: 12e3 13be f661 823d 4670 3dbd dd16 87be
000001b0: b91e 843e 52b6 9bbe c317 833d a25a 993e
000001c0: a0d7 2cbe 911f fd3e 07ad 663e 2b8a a3bf
000001d0: edf0 99be ddac f43e 516c 6cbe ee44 a4bd
000001e0: 8699 a03e 0bee 16be 33e7 0abe b2c1 b1bb
000001f0: 7905 ddbd 9c1e 35be 20f7 8cbe afbe 3f3e
00000200: ce2e cdbe 25d0 cb3e d2b4 85be 0bdf 51bd
00000210: a3ea f93d 13db 3dbe 4af9 ca3c f697 c93e
00000220: 9264 d03e 6f5e 7abd eb56 04be f9f1 4c3e
00000230: f32b 023e 6cf5 123e 0509 253e 5ebe 623e
00000240: 8b33 e43e d037 93be a67e 32be ecbf 873e
00000250: 9cfc 65be 35ae 4dbe 6b0f bbbe 70fd 843e
00000260: 4aac 94be 4876 4d3e 1fc0 0bbe a815 bd3e
00000270: 7b7c 963d 0aff 8ebf 0b0c 60be 3569 3a3f
00000280: 54cf 90be 8018 97bb 6133 81be 5ca8 4dbe
00000290: ec69 a03e 1902 0b3e 200c a63d e499 9a3e
000002a0: 24a3 8ebe a867 0bbd 5ea5 a1bd 40d2 7abe
000002b0: 677b b4bd 779b 903e 0144 843e 806b 1a3e
000002c0: 633b e4be 6ba8 a63e 09c9 583e d252 3cbf
000002d0: fe52 433e 9ba2 613e 56b6 ae3d 69cc b43e
000002e0: 74c8 d8be bdae ca3e 0912 483d 8061 3b3e
000002f0: 8590 b23e c63a d4be fbb3 e9bd e3d9 0a3f
00000300: 84e1 6f3e b036 783e 2109 ccbe 0884 20bd
00000310: 719a 72bd b918 3abe 9be9 cc3e 0cc9 cebe
00000320: 4780 bbbd ee26 173f 8e27 1fbe f843 823e
00000330: 88cd 39be 6743 28be 1363 09be dd94 273c
00000340: 2ee5 8c3e 2cae d73d dfed aabe b9ef 61be
00000350: 0033 8bba 21e5 21be 188e 15be 74e6 53bd
00000360: 5961 923e d8b8 20bd 9642 d9bd 659b 403e
00000370: 36ba 163e fa26 28bd b953 3c3e 484f 8ebf
00000380: b61a 92bc df36 eb3e 0498 643e ce9b 8a3e
00000390: b34e b5bf 01fc b8bf a04c 1a3e e634 fd3d
000003a0: 8240 66be 3eb6 753e ab18 cdbc 95b2 39b9
000003b0: 9f4d 383e f129 32be 5b4b dabd fe90 d13e
000003c0: b0a3 c6be 0ce6 30bf 0126 9e3e b6fb 9dbe
000003d0: efa8 72bd 17ed b43d 5c71 a53e a430 95be
000003e0: 1428 6f3e 7abf 8ebf e1ba d8bd 3187 d73e
000003f0: 72df 453e d32a 493e ac10 99be 996f c73d

conv2.bias f4 [64]
0.0013599311 -0.027129699 -0.0071287295 -0.19136262 -0.031168303 -0.04949808 -0.039202895 -0.01259752
-0.028512122 -0.024358293 -0.021909231 -0.10103492 -0.014384113 0.023606854 -0.06976834 -0.055034146
0.0 -0.023862876 -0.050409738 0.02322119 0.002136085 0.006075752 -0.21931386 -0.020442761
-0.15915133 -0.07607497 -0.13895032 -0.079298764 -0.05181425 -0.032981053 0.05859991 -0.015720526
0.022640677 -0.051658623 -0.022012867 -0.030547235 -0.016427418 -0.05907993 0.010509801 0.0
-0.014146312 -0.04844494 0.05500418 0.06409894 -0.13584487 -0.031768825 -0.037270166 -0.036410317
-0.020916086 0.1184983 -0.008027228 -0.022359306 0.0012056513 -0.027007518 -0.052985944 -0.050957672
-0.21268587 -0.1987595 -0.028809175 -0.17549282 -0.048786707 -0.03795226 -0.052652027 -0.043586366
00000000: b73f b23a 1a3f debc 1e98 e9bb 90f4 43be
00000010: ab54 ffbc 80be 4abd 3793 20bd d465 4ebc
00000020: 4192 e9bc 0b8b c7bc fd7a b3bc 65eb cebd
00000030: 58ab 6bbc 2963 c13c b4e2 8ebd 7c6b 61bd
00000040: 0000 0000 147c c3bc 717a 4ebd 5d3a be3c
00000050: 8ffd 0b3b 1a17 c73b d093 60be 9477 a7bc
00000060: 91f8 22be 32cd 9bbd fe48 0ebe 6467 a2bd
00000070: 2e3b 54bd 2417 07bd 7606 703d 55c8 80bc
00000080: f178 b93c fe97 53bd 5454 b4bc 323e fabc
00000090: cb92 86bc ccfd 71bd 4d31 2c3c 0000 0000
000000a0: efc5 67bc 346e 46bd 104c 613d 4e46 833d
000000b0: eb1a 0bbe 0720 02bd 9aa8 18bd fc22 15bd
000000c0: 3658 abbc 3daf f23d a284 03bc dd2a b7bc
000000d0: f206 9e3a df3e ddbc ca07 59bd feb8 50bd
000000e0: 53ca 59be 9c87 4bbe 3801 ecbc 64b4 33be
000000f0: 92d4 47bd d473 1bbd a7a9 57bd 9e87 32bd

conv2.lin.weight f4 [64, 64]
-0.11705602 -0.06949468 0.034209106 0.043280605 0.15480374 0.12331053 0.14836483 -0.13366443
0.15064888 -0.097900316 0.03877418 0.3119112 -0.20775269 -0.5210077 -0.5014075 -0.119988225
0.049950216 -0.43455502 0.16698937 -0.5720249 0.16499905 -0.21116674 -0.99737537 0.017514482
0.14194629 -0.07012728 -0.04478112 -0.3149501 0.28326732 -0.16516197 -0.059164222 -0.26160136
-0.15957245 -0.11932304 -0.88413304 -0.11429506 -0.90814936 -0.14048213 0.008256485 0.01159283
0.009297788 -0.21344237 -0.008067161 -0.0623183 0.32126418 0.035512097 0.17488012 -0.748256
0.054423522 -0.008957582 0.19305752 0.06609236 0.03938952 -0.122519076 -0.7219775 -0.116452314
0.17948954 0.027988726 0.16804288 -0.8364196 0.26463598 0.10303662 -0.54534984 -0.11649787
0.14826389 -0.053735495 0.12218345 0.15668553 -0.01679569 0.057372034 0.13986738 -0.19466448
0.052036688 -0.00796169 -0.116370656 -0.017419854 -0.18342793 -0.030958973 0.061875768 -0.16708972
-0.02919154 -0.092135765 -0.09015773 0.21048187 0.13036288 -0.16048759 0.16505443 -0.048608083
0.038832568 0.05663665 0.16673155 -0.22684236 0.025518827 -0.09228174 -0.15602314 -0.12719941
0.17728159 -0.0074848495 -0.13814232 -0.1383681 0.11797272 -0.1790195 0.075588755 -0.00912717
0.13199775 -0.088661365 0.07184397 0.16614279 -0.17034802 0.018310945 -0.08496689 -0.02285343
-0.21304704 -0.12571043 -0.13624494 -0.06266734 -0.10110029 -0.08189541 -0.23205191 -0.117189094
-0.024959942 -0.20522122 0.18400027 -0.12760442 0.11756812 -0.090991266 0.08106186 0.09295239
-0.07934795 0.03602201 0.30307555 0.2754647 -0.024127986 -0.104624234 0.15729181 -0.12449641
0.26981282 -0.07200932 -0.23432252 0.1418665 -0.012725979 -0.24771021 -0.13394995 0.16232188
-0.02677865 0.01538452 -0.03257568 -0.5906674 -0.048715636 0.013308795 -0.67873895 0.05907105
-0.1898093 0.070685364 -0.07923906 -0.3440085 0.18113808 0.4618593 -0.03186267 -0.1841993
0.10184039 0.012655844 -0.4814968 -0.011462386 -0.5703897 0.015200655 0.11776949 0.02791624
-0.15995093 -0.19397782 -0.15366271 0.017994776 0.10590834 0.10838386 -0.020741185 -0.39010596
-0.109034516 0.0777016 0.14919847 0.1121702 0.23513907 0.21231444 -0.5849051 -0.09146457
-0.14682049 0.2755282 0.069617294 -0.008496903 0.03806487 0.11630609 -0.20454097 0.4645478
-0.13575374 0.4553254 -0.12845597 0.06485336 -0.11779864 0.28738296 -0.054598726 -0.3519765
-0.17920803 0.048439503 0.15079089 0.2764815 -0.040046826 0.049521644 -0.4129839 0.15435784
0.10059163 -0.035495378 -0.13103966 0.031858005 -0.0632242 -0.07353419 -0.31675026 0.15784726
0.019569606 -0.051580757 -0.16440171 0.044674113 0.11469772 0.026183859 0.13931945 0.20828028
0.35488343 0.2824104 -0.4065693 -0.12369993 -0.27351743 -0.0074304612 0.15251198 -0.04344706
-0.16109863 -0.022648536 0.20470224 0.17982027 0.14970529 0.08199197 -0.2995635 -0.22307746
0.11967007 0.031260077 -1.0440547 -0.10325088 -0.05980973 -0.07835974 -0.27820548 0.22251128
0.22606628 -0.3042288 -0.14725429 -0.11491412 0.3112488 0.284611 -0.15066047 0.16166662
00000000: 11bb efbd 3a53 8ebd d91e 0c3d 0147 313d
00000010: df84 1e3e 3b8a fc3d f3ec 173e 54df 08be
00000020: b343 1a3e f67f c8bd add1 1e3d d3b2 9f3e
00000030: 1fbd 54be c360 05bf 3e5c 00bf 63bc f5bd
00000040: 9998 4c3d ff7d debe 43ff 2a3e 3970 12bf
00000050: 83f5 283e 183c 58be fe53 7fbf 887a 8f3c
00000060: 5e5a 113e e49e 8fbd 686c 37bd 2441 a1be
00000070: 6a08 913e 3820 29be 2f56 72bd 9df0 85be
00000080: f666 23be a35f f4bd 8b56 62bf 8713 eabd
00000090: 7a7c 68bf 8cda 0fbe 3546 073c daef 3d3c
000000a0: c055 183c a390 5abe 202c 04bc 7941 7fbd
000000b0: bd7c a43e 2275 113d c613 333e b58d 3fbf
000000c0: 33eb 5e3d d2c2 12bc dfb0 453e 6e5b 873d
000000d0: e856 213d 48eb fabd 84d3 38bf 8d7e eebd
000000e0: 1bcc 373e 9d48 e53c 6f13 2c3e 981f 56bf
000000f0: 5e7e 873e dd04 d33d 0c9c 0bbf 6f96 eebd
00000100: 7dd2 173e c019 5cbd 513b fa3d 2c72 203e
00000110: 1d97 89bc f0fe 6a3d 6539 0f3e 2056 47be
00000120: 6c24 553d c071 02bc bd53 eebd 15b4 8ebc
00000130: 88d4 3bbe ac9d fdbc 7271 7d3d 9119 2bbe
00000140: 1923 efbc adb1 bcbd 9ea4 b8bd 8f88 573e
00000150: d97d 053e dc56 24be 0704 293e 4519 47bd
00000160: e60e 1f3d d5fb 673d adbb 2a3e 5d49 68be
00000170: dc0c d13c 35fe bcbd 88c4 1fbe 9040 02be
00000180: 4e89 353e 7843 f5bb 2e75 0dbe 5eb0 0dbe
00000190: ae9b f13d e350 37be 47ce 9a3d 208a 15bc
000001a0: 6b2a 073e 1794 b5bd ee22 933d 5621 2a3e
000001b0: b66f 2ebe d600 963c 1f03 aebd 1e37 bbbc
000001c0: 0129 5abe 3cba 00be cb83 0bbe bc57 80bd
000001d0: ab0d cfbd c8b8 a7bd 049f 6dbe d600 f0bd
000001e0: cb78 ccbc 8325 52be 916a 3c3e bcaa 02be
000001f0: 8ec7 f03d a159 babd c303 a63d d35d be3d
00000200: 2e81 a2bd d18b 133d b82c 9b3e b609 8d3e
00000210: 0ea8 c5bc 3b45 d6bd 1b11 213e f9f7 febd
00000220: e824 8a3e 9f79 93bd 3ef2 6fbe 7445 113e
00000230: a080 50bc bfa7 7dbe 2d2a 09be b537 263e
00000240: e65e dbbc 5b0f 7c3c 146e 05bd fb35 17bf
00000250: 0c8a 47bd 220d 5a3c d6c1 2dbf 7cf4 713d
00000260: 5e5d 42be 7dc3 903d 1748 a2bd e221 b0be
00000270: 437c 393e d278 ec3e 6e82 02bd be9e 3cbe
00000280: b291 d03d 755a 4f3c c086 f6be bbcc 3bbc
00000290: 0f05 12bf 2b0c 793c 2131 f13d 99b0 e43c
000002a0: 2dca 23be 1fa2 46be c259 1dbe c869 933c
000002b0: 79e6 d83d 5bf8 dd3d 6be9 a9bc f8bb c7be
000002c0: 7d4d dfbd 0422 9f3d 7cc7 183e 7db9 e53d
000002d0: 4cc8 703e f568 593e 57bc 15bf c751 bbbd
000002e0: 1c58 16be 0812 8d3e 8393 8e3d 9836 0bbc
000002f0: e9e9 1b3d e331 ee3d 3073 51be 36d9 ed3e
00000300: 0703 0bbe 6920 e93e f689 03be d7d1 843d
00000310: 6a40 f1bd dc23 933e eaa2 5fbd 4436 b4be
00000320: 4f82 37be 8068 463d ed68 1a3e fc8e 8d3e
00000330: 2408 24bd 35d7 4a3d a072 d3be fb0f 1e3e
00000340: fc02 ce3d 9a63 11bd 432f 06be 8a7d 023d
00000350: b07b 81bd 1899 96bd 172d a2be b6a2 213e
00000360: 7050 a03c 5846 53bd ec58 28be 34fc 363d
00000370: a3e6 ea3d 887f d63c c2a9 0e3e 6d47 553e
00000380: 48b3 b53e 1998 903e da29 d0be 6456 fdbd
00000390: 7a0a 8cbe 3a7b f3bb 1a2c 1c3e 8bf5 31bd
000003a0: 0af7 24be 6c89 b9bc 779d 513e ce22 383e
000003b0: 584c 193e 68eb a73d 6360 99be 6b6e 64be
000003c0: 9515 f53d 910a 003d 96a3 85bf 3375 d3bd
000003d0: 0cfb 74bd 127b a0bd f370 8ebe ffd9 633e
000003e0: eb7d 673e e1c3 9bbe d4c9 16be 1858 ebbd
000003f0: 015c 9f3e 88b8 913e bd46 1abe ef8b 253e

conv3.bias f4 [64]
0.10513198 -0.025303887 0.02349058 -0.07621835 -0.07197618 0.08895206 0.06615438 0.1123108
-0.027044121 -0.0167982 -0.07727666 -0.029498687 -0.030025598 -0.04190716 -0.06837399 -0.031795286
0.1411343 0.12481134 -0.08005792 0.016654642 -0.09264005 0.047498252 0.019150535 -0.09577466
0.106632724 -0.017407114 0.07798317 -0.10274164 0.043246575 -0.054713674 0.07152388 0.0145347165
-0.11474738 -0.068404436 0.03254126 -0.048989683 -0.10467088 -0.02251067 -0.09131434 -0.017016323
-0.03722558 0.028483173 -0.061217643 -0.10618015 0.08146327 -0.040118173 -0.014414658 0.061087694
0.11275195 -0.15159772 0.0666563 -0.062264238 -0.062110905 -0.07609447 0.103245564 -0.16432907
-0.08231157 0.025018768 -0.04650771 -0.13348547 0.12961313 -0.067854196 0.09889482 -0.01376134
00000000: 6f4f d73d 194a cfbc 516f c03c 5e18 9cbd
00000010: 3f68 93bd 7f2c b63d f37b 873d 3403 e63d
00000020: a28b ddbc 619c 89bc 3a43 9ebd 3ba7 f1bc
00000030: 3ef8 f5bc d8a6 2bbd aa07 8cbd c63b 02bd
00000040: 8385 103e 169d ff3d 68f5 a3bd 516f 883c
00000050: 11ba bdbd 878d 423d 95e1 9c3c 8125 c4bd
00000060: 4262 da3d 5d99 8ebc a4b5 9f3d 356a d2bd
00000070: 5223 313d 721b 60bd 1d7b 923d 0523 6e3c
00000080: ad00 ebbd a017 8cbd fc49 053d 68a9 48bd
00000090: b05d d6bd 4c68 b8bc 0303 bbbd d165 8bbc
000000a0: da79 18bd 8b55 e93c 5abf 7abd fa74 d9bd
000000b0: 37d6 a63d f452 24bd 752b 6cbc 1737 7a3d
000000c0: 7fea e63d 6f3c 1bbe 1983 883d c908 7fbd
000000d0: 0168 7ebd 6bd7 9bbd 6972 d33d e145 28be
000000e0: f892 a8bd 29f4 cc3c de7e 3ebd 6ab0 08be
000000f0: 4eb9 043e 24f7 8abd 5e89 ca3d 3e77 61bc

conv3.lin.weight f4 [64, 64]
0.24891225 -0.18807039 0.22027235 -0.58709925 0.20646949 0.1966865 -0.11283643 -0.09597053
0.25046745 -0.16034181 -0.15919591 -0.22269103 0.019473216 -0.08508404 -0.37031084 0.1285483
0.0019824058 -0.0031909687 0.118061595 -0.070046596 0.009709165 -0.1485064 -0.0035421401 -0.13718723
-0.2981412 -0.23593198 -0.27973437 -0.30665588 0.027482092 0.29632336 0.23904233 0.07275194
0.12698328 -0.0987341 -0.055144295 -0.09826601 0.13094258 0.07744552 -0.00645552 0.109206185
0.21671826 -0.024707796 0.09060734 0.23855464 -0.21222487 0.15773347 0.0066569224 0.10869531
-0.22143784 -0.020446096 0.17885451 -0.06795729 0.39309448 0.1701931 -0.12925789 0.26017874
-0.7814584 -0.5703063 0.08674835 -0.42543417 0.31080717 -0.23287617 -0.2999248 0.20293601
-0.34888276 0.080448955 -0.30129093 0.56035763 0.010133296 0.5261156 -0.090076886 -0.20715758
-0.18363653 -0.104689084 0.21722773 0.19969378 -0.19270764 -0.16142423 0.18118425 -0.09145019
0.014139906 -0.3403347 0.1968074 -0.24875715 -0.39237314 -0.048779037 0.40899053 -0.17425375
0.22470978 0.21200833 -0.09946078 -0.20073657 0.021456214 -0.2049266 -0.20233768 -0.3032453
0.17600632 -0.12150274 -0.16298066 -0.31212226 -0.4409869 -0.08875947 -0.40642145 -0.17512879
-0.20540136 -0.15125386 0.18729787 0.11874961 -0.13456583 0.047246262 0.10487962 -0.15560475
0.14209586 -0.41216668 0.23548342 0.012089305 -0.04168759 0.09683839 -0.23755644 -0.10082517
0.5664078 0.80752826 -0.16906242 0.49630755 -0.103568435 -0.09255891 0.041439638 -0.26396713
-0.33831975 0.022794038 0.10390926 0.23206976 0.14614908 0.41385314 -0.044235308 0.19361165
-0.15921664 0.19732824 0.049730167 -0.0016390776 0.15531088 -0.13148183 -0.34649423 -0.38407612
-0.14465553 -0.31943434 -0.050690945 -0.3454863 -0.052445818 -0.3417592 0.03965136 0.11487601
-0.5065716 0.091264494 -0.41353935 0.10286721 0.08486962 -0.026961995 -0.043162063 -0.41363227
-0.19502206 -0.09385945 -0.014378218 0.13801302 -0.17012614 0.30590996 -0.20923272 -0.088960335
-0.04990158 0.070296 0.04853059 0.037537765 -0.58062905 -0.008082391 -0.06335511 -0.112472825
0.15635473 -0.0006479617 0.1965801 -0.1578912 0.22808133 0.23447461 0.05229755 0.054025076
0.34947047 0.11056399 0.12206904 0.14531186 0.089274354 -0.36746648 -0.13027795 -0.23722552
0.056145623 -0.15266687 -0.3477769 0.4616993 -0.15823738 -0.5766453 0.12936844 0.13197525
-0.14214452 0.07296308 0.24933483 0.20764405 0.002686978 0.21989098 0.32937858 0.08758987
-0.10312644 0.101799 -0.13778973 0.18579511 -0.007869106 0.19116451 0.081575654 0.036280066
0.2169016 0.024111684 0.26548508 -0.013255264 -0.11462375 -0.112313434 -0.0910561 0.07364404
-0.1771442 -0.11775362 -0.264927 -0.37806183 -0.24828291 -0.15212297 0.040510587 0.19534554
0.033247296 -0.2561458 -0.11722279 -0.09215111 0.06993152 -0.019993719 -0.09321859 0.17637345
-0.12952197 -0.4180569 0.08489838 -0.18278903 -0.14192761 -0.13788083 0.061991036 -0.16521795
0.7554412 0.3329171 0.18082885 0.46989948 -0.3013158 0.24090877 0.27691603 0.11561641
00000000: dae2 7e3e 8695 40be 138f 613e 234c 16bf
00000010: bd6c 533e 3068 493e c916 e7bd 328c c4bd
00000020: 453d 803e a530 24be 4104 23be 1e09 64be
00000030: 4b86 9f3c 8b40 aebd 6299 bdbe 2aa2 033e
00000040: 40eb 013b 921f 51bb 47ca f13d 9774 8fbd
00000050: 3113 1f3c 1012 18be 4023 68bb cf7a 0cbe
00000060: f7a5 98be 2798 71be 5839 8fbe 0002 9dbe
00000070: 2022 e13c b2b7 973e 83c7 743e f8fe 943d
00000080: e807 023e 1b35 cabd fcde 61bd b13f c9bd
00000090: d015 063e c29b 9e3d d488 d3bb 7ea7 df3d
000000a0: 64eb 5d3e 0168 cabc 5790 b93d ab47 743e
000000b0: 7a51 59be e284 213e 5022 da3b a69b de3d
000000c0: 9ac0 62be 927e a7bc a325 373e 312d 8bbd
000000d0: ae43 c93e 1a47 2e3e 2e5c 04be 2636 853e
000000e0: a80d 48bf 98ff 11bf 1ea9 b13d 82d2 d9be
000000f0: 1e22 9f3e 1777 6ebe be8f 99be 75ce 4f3e
00000100: c3a0 b2be 6cc2 a43d ce42 9abe 9973 0f3f
00000110: 2006 263c 83af 063f 3b7a b8bd 1e21 54be
00000120: 370b 3cbe 3b67 d6bd f270 5e3e 877c 4c3e
00000130: 2755 45be 654c 25be 5d88 393e 3d4a bbbd
00000140: 10ab 673c 5a40 aebe e187 493e 32ba 7ebe
00000150: 22e5 c8be 87cc 47bd 3567 d13e 936f 32be
00000160: 521a 663e b618 593e 18b2 cbbd e38d 4dbe
00000170: f1c4 af3c 47d8 51be 9c31 4fbe f842 9bbe
00000180: 003b 343e 6ed6 f8bd 67e4 26be 7dce 9fbe
00000190: 09c9 e1be 86c7 b5bd 7916 d0be f654 33be
000001a0: bc54 52be 4be2 1abe 03cb 3f3e ff32 f33d
000001b0: a0cb 09be 4c85 413d 20cb d63d da56 1fbe
000001c0: 9481 113e 8307 d3be 9122 713e 3812 463c
000001d0: 9bc0 2abd 3553 c63d ff41 73be 6d7d cebd
000001e0: 1a00 113f 2cba 4e3f b31e 2dbe 061c fe3e
000001f0: b01b d4bd 878f bdbd 9cbc 293d b326 87be
00000200: 3f38 adbe 90ba ba3c 61ce d43d b2a3 6d3e
00000210: 1ba8 153e 8fe4 d33e 1530 35bd 2242 463e
00000220: b009 23be 6a10 4a3e dcb1 4b3d 51d6 d6ba
00000230: d109 1f3e 2ca3 06be b167 b1be a0a5 c4be
00000240: 9420 14be e68c a3be 4fa1 4fbd 95e3 b0be
00000250: 6dd1 56bd 10fb aebe 7769 223d 1d44 eb3d
00000260: adae 01bf e1e8 ba3d 6ebb d3be 0bac d23d
00000270: 20d0 ad3d 67df dcbc b4ca 30bd 9cc7 d3be
00000280: ddb3 47be 6239 c0bd 9e92 6bbc 4953 0d3e
00000290: 8c35 2ebe 3ba0 9c3e 1a41 56be d630 b6bd
000002a0: 9965 4cbd 59f7 8f3d 03c8 463d 33c1 193d
000002b0: 1ba4 14bf 016c 04bc 53c0 81bd 2758 e6bd
000002c0: 741b 203e f9db 29ba 4b4c 493e 3bae 21be
000002d0: 278e 693e 1d1a 703e f535 563d 6649 5d3d
000002e0: cbed b23e 606f e23d 55ff f93d a2cc 143e
000002f0: 79d5 b63d 9124 bcbe 9567 05be 3feb 72be
00000300: f4f8 653d b454 1cbe d00f b2be da63 ec3e
00000310: fb08 22be 079f 13bf 2979 043e 8524 073e
00000320: 558e 11be ab6d 953d a151 7f3e a4a0 543e
00000330: 0318 303b 1a2b 613e 4fa4 a83e 5162 b33d
00000340: f433 d3bd fe7b d03d c018 0dbe 1341 3e3e
00000350: 6ced 00bc a1c0 433e 2311 a73d 689a 143d
00000360: 741b 5e3e de85 c53c a9ed 873e 9b2c 59bc
00000370: dbbf eabd 9604 e6bd 9f7b babd b0d2 963d
00000380: 4a65 35be cf28 f1bd 83a4 87be 5291 c1be
00000390: e03d 7ebe 20c6 1bbe 6eee 253d a908 483e
000003a0: 512e 083d 8b25 83be 8112 f0bd b9b9 bcbd
000003b0: 4238 8f3d dec9 a3bc 63e9 bebd 3e9b 343e
000003c0: 68a1 04be 8e0b d6be 34df ad3d 0c2d 3bbe
000003d0: 7955 11be a230 0dbe 50ea 7d3d e52e 29be
000003e0: 9864 413f 1c74 aa3e 332b 393e aa96 f03e
000003f0: 1146 9abe cab0 763e f0c7 8d3e 4cc8 ec3d

fc_cls1.weight f4 [256, 128]
-0.043289423 0.10944498 -0.027274542 -0.090545274 -0.0014072057 -0.08616391 0.041165527 -0.037110113
-0.02654916 0.023560777 -0.1224176 0.112903 -0.040374298 -0.012365718 0.057473015 0.0001954593
0.03398738 0.07133861 -0.12549517 0.002698611 0.07381576 -0.06916026 0.1091147 -0.037808444
-0.04971232 -0.11131891 -0.060443323 0.019550849 -0.028956458 -0.060385164 0.019359449 0.036243595
-0.030083392 -0.032024726 -0.016842118 0.025766194 0.023429621 0.072977416 0.023936488 0.08596666
0.13904423 -0.05643584 -0.06256129 -0.043464355 0.08383478 0.060880776 0.1339719 0.05819633
0.01185618 -0.07080892 0.05798785 0.030056883 -0.015278136 -0.0037949912 -0.043889016 -0.08422895
-0.06363896 0.016160227 0.016905049 0.0073892786 0.06849317 0.075866565 -0.084897675 -0.0065431274
0.030582152 0.11045679 0.081606425 0.07641093 -0.069269 0.023248032 0.032099057 -0.00062276726
-0.029919732 -0.11960595 -0.10782971 0.13356519 -0.04702734 0.070777036 -0.022919647 0.08979455
0.081264205 0.09869177 -0.06691724 0.016080353 -0.046542436 0.00085744064 0.030850597 -0.09611116
0.037923634 0.014868972 -0.019186985 0.08747005 0.0012551876 0.059397016 -0.060054094 -0.048305083
0.008194997 0.034245186 0.014582254 -0.09670041 0.040935602 0.066282645 -0.08660187 -0.03780141
-0.022651685 0.053837493 0.031051878 -0.078355886 -0.008085985 -0.012357334 0.07523996 0.07715732
0.06396224 -0.045555063 -0.041087076 0.0892335 0.023431692 0.00087265664 -0.004761685 -0.093657434
-0.078165725 -0.028193016 0.03304103 -0.05942146 0.007241487 -0.040337898 -0.053646535 -0.024115622
0.13425185 0.025657455 0.019924661 -0.103081256 0.052087534 -0.07514424 0.09604894 -0.012836992
0.044087704 -0.1588231 -0.09222926 0.023360165 -0.18365096 0.06283101 -0.059736162 0.008546897
0.019099468 -0.095734015 -0.035090674 0.003945678 -0.0715072 0.07514298 0.018340759 -0.07130259
-0.019292368 -0.10805925 0.026306175 0.04011172 0.083082676 0.095996596 0.03450172 0.082008265
-0.07261581 -0.08982043 -0.015276794 0.09256019 0.0061465306 -0.17071806 -0.025589846 -0.03590335
0.04821684 -0.032401733 0.10804301 0.008700673 -0.035736304 -0.04795803 -0.10298254 0.0020868117
-0.020623395 -0.029877864 -0.008180414 0.07825004 -0.025005676 0.105352275 0.06027013 -0.20124418
-0.08441679 -0.063014366 -0.0017937743 -0.20701945 0.07530676 0.014694491 0.00857052 0.0012602019
-0.11668716 0.16326733 0.12261624 0.09107586 -0.027196897 -0.30264586 -0.055953324 -0.03736486
0.28023237 0.021124285 0.08156408 0.21604402 0.14382204 0.29415253 -0.09884359 0.032386485
0.0514754 -0.038784664 -0.07064341 -0.052781615 0.04067423 -0.2798564 0.16319045 -0.124401234
-0.10365376 0.086055264 -0.024342794 0.007945601 -0.23331551 0.080337435 0.037112076 -0.08658666
-0.046388727 0.21783431 -0.16173834 -0.16552496 -0.059669927 -0.08019485 -0.08269221 -0.0031636264
0.17064834 0.007201386 0.11753576 -0.09591417 0.017637204 0.2701332 0.038710732 0.005601552
-0.002026172 0.0643519 -0.10067855 0.10085892 0.16141 0.08069147 0.03486342 -0.07859733
0.26624444 -0.1250855 0.21140468 0.18126333 -0.15570554 0.0891604 -0.17702042 0.00015159526
00000000: 4050 31bd b124 e03d dc6e dfbc cd6f b9bd
00000010: fd71 b8ba b476 b0bd 2f9d 283d c600 18bd
00000020: a07d d9bc 8802 c13c 14b6 fabd b039 e73d
00000030: 855f 25bd 9599 4abc d368 6b3d 35f4 4c39
00000040: 5a36 0b3d fa19 923d ce81 00be 2edb 303b
00000050: b82c 973d e5a3 8dbd 8777 df3d 07dd 1abd
00000060: 259f 4bbd 2bfb e3bd 6b93 77bd 1a29 a03c
00000070: 1836 edbc 6f56 77bd b597 9e3c 2a74 143d
00000080: 7271 f6bc 5c2c 03bd 7bf8 89bc a013 d33c
00000090: 7aef bf3c 2f75 953d 7416 c43c 4a0f b03d
000000a0: 9c61 0e3e 4429 67bd 2220 80bd ae07 32bd
000000b0: 92b1 ab3d 1f5e 793d ee2f 093e 465f 6e3d
000000c0: 6c40 423c 4404 91bd ab84 6d3d da39 f63c
000000d0: 2651 7abc 63b5 78bb f8c4 33bd 3a80 acbd
000000e0: 2555 82bd 7462 843c 757c 8a3c c321 f23b
000000f0: 2646 8c3d ee5f 9b3d d5de adbd bb67 d6bb
00000100: 6c87 fa3c 2b37 e23d 4521 a73d 557d 9c3d
00000110: e8dc 8dbd a872 be3c 4d7a 033d 3441 23ba
00000120: 3a1a f5bc f7f3 f4bd d3d5 dcbd 50c5 083e
00000130: bd9f 40bd 8df3 903d fcc1 bbbc 34e6 b73d
00000140: d96d a63d e91e ca3d e80b 89bd f2ba 833c
00000150: 48a3 3ebd dec5 603a 64ba fc3c eed5 c4bd
00000160: d055 1b3d fd9c 733c 062e 9dbc 7f23 b33d
00000170: 1b85 a43a 494a 733d 48fb 75bd 8ddb 45bd
00000180: 4f44 063c ae44 0c3d 68ea 6e3c dd0a c6bd
00000190: 17ac 273d 32bf 873d 525c b1bd a7d5 1abd
000001a0: 0790 b9bc b484 5c3d 8260 fe3c 0d79 a0bd
000001b0: 147b 04bc 6a76 4abc 6817 9a3d a804 9e3d
000001c0: a3fe 823d f297 3abd ec4a 28bd 0ec0 b63d
000001d0: d2f3 bf3c ffc2 643a e907 9cbb 78cf bfbd
000001e0: 5a15 a0bd 0af5 e6bc 0856 073d eb63 73bd
000001f0: ff49 ed3b 5a39 25bd 78bc 5bbd 208e c5bc
00000200: 5179 093e 952f d23c 0b39 a33c 441c d3bd
00000210: bd59 553d 39e5 99bd 4fb5 c43d 3f52 52bc
00000220: 4f95 343d 86a2 22be b2e2 bcbd d15d bf3c
00000230: ff0e 3cbe 8bad 803d e8ad 74bd 4908 0c3c
00000240: 7d76 9c3c 3210 c4bd 3dbb 0fbd bf4a 813b
00000250: 5e72 92bd 90e4 993d 5c3f 963c 1807 92bd
00000260: 070b 9ebc 2b4e ddbd 0c80 d73c 304c 243d
00000270: 4027 aa3d dd99 c43d ad51 0d3d f3f3 a73d
00000280: 99b7 94bd c6f3 b7bd 854b 7abc 3290 bd3d
00000290: d668 c93b b7d0 2ebe cca1 d1bc 640f 13bd
000002a0: 057f 453d aeb7 04bd a745 dd3d 448d 0e3c
000002b0: 3b60 12bd a46f 44bd 83e8 d2bd e4c2 083b
000002c0: 65f2 a8bc 6cc2 f4bc 2507 06bc 8f41 a03d
000002d0: b4d8 ccbc efc2 d73d d0dd 763d f412 4ebe
000002e0: b6e2 acbd ad0d 81bd 141d ebba e8fc 53be
000002f0: 6e3a 9a3d 2ac1 703c 5e6b 0c3c 5c2d a53a
00000300: aef9 eebd 8d2f 273e 391e fb3d fb85 ba3d
00000310: 07cc debc 66f4 9abe 502f 65bd e50b 19bd
00000320: 9e7a 8f3e d60c ad3c 120b a73d a53a 5d3e
00000330: 1646 133e 299b 963e 826e cabd b1a7 043d
00000340: ded7 523d abdc 1ebd 7ead 90bd 8931 58bd
00000350: 059a 263d 5749 8fbe 661b 273e 13c6 febd
00000360: 6c48 d4bd be3d b03d 8a6a c7bc 442e 023c
00000370: 43ea 6ebe f487 a43d d502 183d 5954 b1bd
00000380: 1b02 3ebd f50f 5f3e bc9e 25be 607f 29be
00000390: 7468 74bd 333d a4bd 895a a9bd d854 4fbb
000003a0: 70be 2e3e 9bf9 eb3b 97b6 f03d a66e c4bd
000003b0: e67b 903c e64e 8a3e 258f 1e3d 398d b73b
000003c0: 86c9 04bb eeca 833d 8e30 cebd 1f8f ce3d
000003d0: aa48 253e 9241 a53d f2cc 0e3d a3f7 a0bd
000003e0: 3151 883e 6a16 00be 787a 583e 189d 393e
000003f0: 4671 1fbe ba99 b63d d744 35be 8bf5 1e39

fc_cls1.bias f4 [256]
-0.14885238 -0.016788872 -0.17607546 -0.15259817 -0.15197183 0.06962069 -0.16049963 -0.18194264
-0.035798408 -0.02847557 -0.14496198 -0.1217596 0.034681763 -0.12310185 -0.21793933 -0.086384185
-0.062028117 -0.15101752 -0.1242722 -0.08689204 0.09398026 -0.40063775 -0.18408409 -0.14857718
-0.07069632 -0.05107235 -0.18989193 -0.17896089 -0.04718722 0.00842134 -0.007456925 -0.16456006
-0.025765318 -0.108683184 0.10974751 -0.0748607 -0.09658707 -0.011499332 0.0842192 -0.021366205
-0.08176089 -0.03588774 0.011230496 -0.0927415 -0.01942249 0.023963233 -0.17710061 -0.06714554
-0.16639228 -0.13255979 -0.19321562 -0.083145306 0.119149074 -0.12198581 0.0013912538 0.11000578
0.10005442 -0.24934834 -0.10720442 0.02716775 -0.08693282 -0.21596758 -0.08147894 -0.0032236846
-0.09371468 -0.27183622 0.018209863 0.010889898 0.022901965 -0.10714851 -0.07779688 -0.13827334
-0.0045699812 0.055839982 -0.07680626 0.001815743 -0.10006603 -0.17090705 0.10388953 -0.08918411
-0.04055891 -0.10948832 0.05375828 -0.13352165 -0.019842522 -0.12958169 0.09675791 -0.039817482
-0.121687666 -0.08112476 -0.058939323 -0.04359888 0.045876723 -0.15031849 -0.09739943 0.061723527
-0.19476958 0.017378004 -0.12533017 -0.10841643 -0.108395964 -0.069440156 0.017313087 -0.11661206
-0.17104569 -0.19507106 -0.243184 -0.08153613 -0.18021363 -0.148707 -0.19281252 0.05914909
-0.19236131 0.020100359 -0.24656194 -0.11469411 -0.13813403 -0.070040256 -0.060056232 -0.16125354
-0.121474385 -0.10321297 0.009115239 -0.00020037012 0.012489275 -0.0958778 -0.16138144 -0.10360118
-0.112571836 0.027424222 -0.08844896 -0.17668194 0.012910351 0.03504841 0.0053194086 -0.186334
-0.006324607 -0.16222708 -0.0076815807 -0.1081734 -0.0012666404 -0.24096617 -0.0985648 0.04386935
-0.13465737 -0.16157554 -0.19268268 -0.12758553 0.0025974056 -0.15056124 -0.06475027 -0.18307364
0.00331453 0.07744231 -0.17266937 0.0126295695 -0.1628429 -0.08450654 -0.050611712 -0.0006784769
-0.07516257 -0.17272274 0.03322633 -0.21068862 -0.1411078 -0.23170616 -0.09191115 -0.188704
-0.004141945 -0.115008384 -0.16470349 0.046499483 -0.086488605 -0.1646124 -0.10217404 -0.116777115
-0.13556813 -0.1283216 -0.024445143 -0.22261181 -0.20036139 0.07228803 -0.015270058 -0.033917572
-0.01253205 0.08582876 0.06506188 0.08371791 0.06544689 -0.08834507 -0.15032843 0.02733964
-0.048333205 0.06459517 -0.029395273 -0.11604216 -0.059344415 -0.08430534 -0.2368831 -0.047304824
0.03436009 -0.13160162 0.04087327 -0.19811977 -0.008119137 -0.056409113 0.03793624 0.13546556
-0.0046505476 -0.1657946 -0.2821062 0.06513692 -0.06525777 -0.19539571 0.014249311 -0.098242834
-0.05470033 -0.16683248 -0.11688372 -0.010311837 -0.105131 -0.12652935 -0.18136401 -0.10162747
-0.12609327 -0.17980492 -0.20827621 -0.029627163 -0.1562556 0.0041574966 -0.1291741 -0.065097846
-0.036292292 -0.00792593 -0.070391744 -0.18031323 -0.09865385 0.0020234927 -0.15816863 0.02306579
-0.2018036 0.011871085 -0.030002963 -0.12270442 -0.023454314 -0.19942497 -0.08519432 -0.25621936
-0.013869917 -0.032342143 -0.08502094 0.011841976 -0.037801027 0.0040648496 -0.22924654 -0.011469529
00000000: c26c 18be d188 89bc 204d 34be b242 1cbe
00000010: 819e 1bbe 4b95 8e3d 045a 24be 2c4f 3abe
00000020: 5aa1 12bd 9945 e9bc ea70 14be 195d f9bd
00000030: 770e 0e3d d31c fcbd 7d2b 5fbe 31ea b0bd
00000040: 3211 7ebd 56a4 1abe 6c82 febd 74f4 b1bd
00000050: b978 c03d 6420 cdbe 8a80 3cbe 9e24 18be
00000060: 3bc9 90bd 3e31 51bd 0873 42be 8641 37be
00000070: 6347 41bd a9f9 093c 3959 f4bb 6f82 28be
00000080: ca11 d3bc 4a95 debd 4dc3 e03d 9150 99bd
00000090: 71cf c5bd b267 3cbc 1e7b ac3d 2e08 afbc
000000a0: 4172 a7bd 06ff 12bd 1d00 383c 41ef bdbd
000000b0: ea1b 9fbc 8b4e c43c dd59 35be 9a83 89bd
000000c0: bd62 2abe c1bd 07be 51da 45be 1648 aabd
000000d0: 6e04 f43d b2d3 f9bd bb5a b63a b64a e13d
000000e0: 55e9 cc3d 2c55 7fbe fe8d dbbd e78e de3c
000000f0: d609 b2bd 9b26 5dbe 6ede a6bd 7444 53bb
00000100: 7bed bfbd 1e2e 8bbe da2c 953c 8b6b 323c
00000110: e79c bb3c ae70 dbbd f853 9fbd 8797 0dbe
00000120: c8bf 95bb 77b8 643d 9a4c 9dbd 3afe ed3a
00000130: 6bef ccbd 4202 2fbe 09c4 d43d 29a6 b6bd
00000140: 1a21 26bd 6a3b e0bd a431 5c3d e6b9 08be
00000150: c98c a2bc 10b1 04be 0329 c63d a817 23bd
00000160: 6237 f9bd bd24 a6bd 5c6a 71bd bd94 32bd
00000170: 3be9 3b3d 17ed 19be 5a79 c7bd cfd1 7c3d
00000180: ad71 47be 515c 8e3c 8d56 00be 6f09 debd
00000190: b4fe ddbd a436 8ebd 2dd4 8d3c 4ed2 eebd
000001a0: 9a26 2fbe b5c0 47be 3a05 79be 6afc a6bd
000001b0: ec89 38be a646 18be a570 45be 5146 723d
000001c0: 5dfa 44be 82a9 a43c bc7a 7cbe bfe4 eabd
000001d0: 0273 0dbe 4471 8fbd 86fd 75bd a61f 25be
000001e0: 90c7 f8bd 5261 d3bd 1558 153c 721a 52b9
000001f0: d19f 4c3c 945b c4bd 2d41 25be db2c d4bd
00000200: 108c e6bd c3a8 e03c ba24 b5bd 1cec 34be
00000210: f085 533c ec8e 0f3d 6f4e ae3b 57ce 3ebe
00000220: a63e cfbb db1e 26be c5b5 fbbb 048a ddbd
00000230: 6605 a6ba d6bf 76be 58dc c9bd 59b0 333d
00000240: 9fe3 09be 0f74 25be 9c4e 45be c8a5 02be
00000250: 3c39 2a3b ba2c 1abe ca9b 84bd a877 3bbe
00000260: 9638 593b 139a 9e3d 3dd0 30be 41ec 4e3c
00000270: 4ac0 26be c411 adbd 3a4e 4fbd d0db 31ba
00000280: d5ee 99bd 3bde 30be 5518 083d c2be 57be
00000290: 907e 10be 6144 6dbe ea3b bcbd 9f3b 41be
000002a0: 27b9 87bb 8489 ebbd 08a8 28be 3e76 3e3d
000002b0: f020 b1bd 2790 28be a040 d1bd d728 efbd
000002c0: 5fd2 0abe bd66 03be 2e41 c8bc 5af4 63be
000002d0: 892b 4dbe bf0b 943d 442f 7abc 27ed 0abd
000002e0: 3a53 4dbc fdc6 af3d 2a3f 853d 4c74 ab3d
000002f0: 0509 863d 43ee b4bd b2ef 19be 61f7 df3c
00000300: 0af9 45bd 794a 843d 5bce f0bc 83a7 edbd
00000310: 2113 73bd 47a8 acbd 7c91 72be b4c2 41bd
00000320: 2abd 0c3d 93c2 06be bb6a 273d e9df 4abe
00000330: 2106 05bc 3e0d 67bd 0863 1b3d 7cb7 0a3e
00000340: 9f63 98bb 0fc6 29be 3970 90be 8166 853d
00000350: dea5 85bd d015 48be f175 693c 8a33 c9bd
00000360: 740d 60bd 22d6 2abe bb60 efbd fbf2 28bc
00000370: ec4e d7bd e990 01be 7db7 39be 1022 d0bd
00000380: 981e 01be c81e 38be 5c46 55be aab4 f2bc
00000390: 7801 20be 9c3b 883b 3746 04be 0552 85bd
000003a0: 3aa7 14bd c3db 01bc 8c29 90bd 08a4 38be
000003b0: 080b cabd 939c 043b f5f6 21be 78f4 bc3c
000003c0: 9aa5 4ebe f07e 423c c6c8 f5bc 744c fbbd
000003d0: 4323 c0bc 0f36 4cbe 5c7a aebd 2f2f 83be
000003e0: a63e 63bc 3279 04bd 751f aebd d904 423c
000003f0: 40d5 1abd 6e32 853b 9bbf 6abe b1ea 3bbc

fc_cls2.weight f4 [128, 256]
0.08045742 -0.03191729 0.18379663 0.5491244 -0.19463189 0.06846574 -0.003016986 0.2011786
0.20354016 -0.07275818 -0.16451411 -0.10711223 0.028998967 -0.13441287 -0.11469571 -0.02627722
0.13717705 0.29053554 -0.22647253 0.13672735 -0.06540788 -0.15783511 0.15333216 0.2889446
-0.08013351 0.16926746 -0.08096334 -0.14741716 -0.20439717 0.16236961 -0.39609018 0.1881414
0.17227681 0.32010934 0.025775602 0.046551056 0.106162325 0.14078385 -0.026289288 0.11713656
0.09206234 0.21370041 -0.1570751 0.050393432 0.10456865 0.11740494 0.29504272 0.15447253
0.23191679 0.19676033 0.07603883 0.22787923 0.07555063 0.016432028 0.1809576 -0.021639101
-0.020982876 -0.09228938 -0.062034816 0.17297347 -0.0698948 0.19316633 -0.054244187 -0.30260417
-0.017389733 -0.02131801 0.12882477 -0.28172398 0.22335766 0.06065052 0.2643066 0.17454726
-0.025517946 -0.26783133 0.18958443 -0.05275957 0.10194437 0.23710698 -0.12619 0.00028119123
-0.15429145 0.020675952 -0.14410922 0.019182658 -0.17094707 -0.017875789 -0.07561924 -0.3300839
0.21529488 0.08007311 -0.13404605 -0.33545154 -0.11705675 0.14648451 -0.11750004 0.028233487
-0.23660383 -0.013888799 -0.01999651 -0.31081024 -0.023048338 -0.17374252 -0.19737594 -0.0033915564
0.026218126 0.4257502 0.048400313 -0.38525018 -0.076715425 -0.13435376 0.0023241288 -0.103874296
0.3639552 -0.014799713 -0.4011945 0.036510862 0.078404784 0.07852903 0.07942254 0.0345969
0.07075003 -0.2623484 0.10056684 -0.11281164 0.045241203 -0.13603278 -0.0069383285 -0.03947902
0.037180997 -0.23501503 -0.068891585 0.49343827 -0.29970077 0.037274867 -0.01854356 -0.1365663
0.10467299 0.010693524 0.0648652 0.028171416 -0.0009768397 0.058225103 -0.027036272 0.021160433
-0.10165435 -0.14394437 0.058602296 0.14229695 -0.13829903 -0.15456021 -0.02023015 0.16932599
0.1652536 0.09408297 -0.19254813 0.004863923 -0.15166764 0.023799567 -0.08064982 0.061334647
0.113700464 0.06677883 0.12736808 0.16140342 0.06692448 0.12057809 0.14981672 -0.20046192
-0.13953261 -0.236828 0.004553906 -0.106878795 0.067882665 0.29169458 -0.10810114 -0.17408189
0.023171958 -0.015450536 0.042314045 0.04475352 -0.029025735 -0.118508495 -0.02571776 -0.29953906
0.04732233 0.032471202 -0.038389202 0.06676475 0.11671716 0.18084773 -0.0057225567 -0.017786372
0.30767083 -0.080727205 0.29072824 -0.2916429 -0.1638105 0.05299707 0.07212881 0.027399229
-0.19585063 0.019256987 0.019401215 0.0072392547 0.060881108 0.08204167 -0.24716662 -0.16214369
0.017275278 0.2655156 0.25643507 -0.07518828 -0.39109516 0.51574177 0.06339836 0.21107037
-0.017544115 -0.0018935908 0.05950007 -0.18954293 -0.0069210296 0.2693348 0.21153502 -0.11763548
-0.043013185 0.013518772 -0.06776066 -0.08773153 -0.0891647 -0.3163522 0.34461617 -0.080107816
0.0599154 -0.3061444 0.036180526 0.36201218 0.025832636 0.0326043 0.041004602 0.16593166
0.25660408 0.043194838 -0.038820785 0.065661356 0.047749586 0.47035694 0.052291285 0.114866465
-0.066552274 0.1070799 -0.3376827 0.07742758 0.001341399 0.091696635 -0.033555154 -0.21994175
00000000: dcc6 a43d b4bb 02bd 2f35 3c3e 6b93 0c3f
00000010: 954d 47be c437 8c3d a0b8 45bb c301 4e3e
00000020: d56c 503e 3e02 95bd 6376 28be a85d dbbd
00000030: 3e8f ed3c 87a3 09be 96e5 eabd 5343 d7bc
00000040: 2478 0c3e 13c1 943e 6ae8 67be 4102 0c3e
00000050: 91f4 85bd 879f 21be 1b03 1d3e 8cf0 933e
00000060: 0a1d a4bd 7354 2d3e 1cd0 a5bd 86f4 16be
00000070: 7e4d 51be 3844 263e 55cc cabe 24a8 403e
00000080: 5569 303e 5fe5 a33e 5b27 d33c 52ac 3e3d
00000090: a26b d93d a429 103e a25c d7bc 4be5 ef3d
000000a0: 2e8b bc3d 48d4 5a3e 4cd8 20be 5869 4e3d
000000b0: 1728 d63d 0072 f03d d70f 973e 0c2e 1e3e
000000c0: 987b 6d3e 8a7b 493e 3fba 9b3d 2c59 693e
000000d0: 4aba 9a3d 769c 863c f34c 393e 7c44 b1bc
000000e0: 48e4 abbc 3702 bdbd 3818 7ebd f51f 313e
000000f0: 0125 8fbd 65cd 453e 272f 5ebd efee 9abe
00000100: ea74 8ebc 1ba3 aebc a4ea 033e 203e 90be
00000110: dfb7 643e ae6c 783d 3253 873e 84bc 323e
00000120: 030b d1bc 3021 89be 6c22 423e 6b1a 58bd
00000130: 36c8 d03d 2ccc 723e f437 01be d96c 9339
00000140: 94fe 1dbe 9d60 a93c 5e91 13be f324 9d3c
00000150: c00c 2fbe 3f70 92bc 43de 9abd c200 a9be
00000160: 4376 5c3e 5ffd a33d 5e43 09be 4ec0 abbe
00000170: 73bb efbd 0900 163e dca3 f0bd ea49 e73c
00000180: 4648 72be d88d 63bc b9cf a3bc 8522 9fbe
00000190: decf bcbc 8fe9 31be eb1c 4abe e044 5ebb
000001a0: 65c7 d63c eefb d93e 683f 463d 833f c5be
000001b0: fa1c 9dbd 0894 09be 6950 183b 0cbc d4bd
000001c0: 5658 ba3e 7f7a 72bc 5e69 cdbe 6a8c 153d
000001d0: b092 a03d d4d3 a03d 49a8 a23d 7bb5 0d3d
000001e0: 64e5 903d 8852 86be fdf5 cd3d ca09 e7bd
000001f0: d74e 393d 2d4c 0bbe eb5a e3bb c1b4 21bd
00000200: 1a4b 183d c8a7 70be 0817 8dbd f1a3 fc3e
00000210: 6172 99be 88ad 183d aae8 97bc 09d8 0bbe
00000220: cb5e d63d e433 2f3c 0cd8 843d bec7 e63c
00000230: 4d09 80ba 727d 6e3d 2c7b ddbc a558 ad3c
00000240: 2830 d0bd 2766 13be f608 703d 4bb6 113e
00000250: 439e 0dbe 0845 1ebe b3b9 a5bc cb63 2d3e
00000260: 3d38 293e 92ae c03d 562b 45be 8b61 9f3b
00000270: c34e 1bbe 4ff7 c23c bc2b a5bd 0a3a 7b3d
00000280: cadb e83d 57c3 883d c76c 023e f046 253e
00000290: b40f 893d a5f1 f63d 8e69 193e e445 4dbe
000002a0: a3e1 0ebe 0a83 72be ef38 953b 45e3 dabd
000002b0: 1106 8b3d fe58 953e 2164 ddbd 8642 32be
000002c0: 1ed3 bd3c 3f24 7dbc 7e51 2d3d 784f 373d
000002d0: 61c7 edbc 95b4 f2bd 0dae d2bc 2f5d 99be
000002e0: 0fd5 413d 8600 053d ff3d 1dbd f5bb 883d
000002f0: 6809 ef3d 2630 393e 4984 bbbb bab4 91bc
00000300: 0887 9d3e 4e54 a5bd 55da 943e 3852 95be
00000310: f1bd 27be 7513 593d 45b8 933d 5974 e03c
00000320: 118d 48be d4c0 9d3c 4cef 9e3c 4537 ed3b
00000330: 785e 793d 7705 a83d 3f19 7dbe ff08 26be
00000340: e284 8d3c a9f1 873e 754b 833e 50fc 99bd
00000350: a03d c8be a707 043f 00d7 813d d522 583e
00000360: adb8 8fbc 5d32 f8ba 58b6 733d 8b17 42be
00000370: cec9 e2bb 40e6 893e a39c 583e dfea f0bd
00000380: 982e 30bd d77d 5d3c 1ac6 8abd 97ac b3bd
00000390: fb9b b6bd eaf8 a1be 8871 b03e 910f a4bd
000003a0: da69 753d f5be 9cbe 0832 143d a959 b93e
000003b0: f79e d33c 168c 053d 71f4 273d fde9 293e
000003c0: 9c61 833e 12ed 303d 8b02 1fbd 7679 863d
000003d0: 1295 433d a0d2 f03e 632f 563d 1c3f eb3d
000003e0: 8f4c 88bd b54c db3d bfe4 acbe 5a92 9e3d
000003f0: e2d1 af3a 72cb bb3d 2171 09bd 6938 61be

fc_cls2.bias f4 [128]
0.0893673 0.09103843 -0.029606897 0.17377646 0.10138483 0.062967695 0.061999787 0.08655375
0.03602023 0.18503784 0.1282233 0.18073529 0.078634866 -0.0642943 0.13259116 0.057692163
-0.08225983 0.10028142 0.17796285 0.11332684 0.07671191 0.13077973 -0.009438131 0.014143082
-0.08921999 -0.029131884 0.083874896 0.014526593 0.035385873 -0.11476837 0.05510077 0.10408986
0.03636164 0.1101646 0.095264696 0.027485568 -0.04110468 0.15593037 0.11711424 0.076052256
-0.022470662 -0.022333363 -0.065886825 0.08972959 0.1416031 -0.06188353 -0.107651696 -0.0010482643
0.098970845 0.09466465 0.062383197 0.13872382 -0.087398864 -0.06355053 0.07716382 -0.06412495
0.099509165 -0.053881783 0.13745159 0.07037453 0.13746518 0.15223461 0.06388785 -0.09308944
0.072222315 0.18085396 -0.10067546 0.1589135 -0.13897757 0.046824723 0.15277651 0.078171685
0.046404243 0.101618364 -0.04614461 0.0671871 0.10063834 0.08774102 0.12452555 -0.12217908
-0.00018840659 0.0825575 0.08138485 0.1019477 0.13808466 0.14720312 -0.11512344 0.061973542
-0.099941015 0.10238526 0.07625501 -0.008279481 0.1646639 -0.05239021 -0.082990326 0.09548479
-0.0331589 0.14494404 0.11295184 -0.07463888 -0.11613224 0.10980101 0.011527357 -0.008212942
0.084998645 -0.06421154 0.17014702 -0.10804079 -0.08362132 0.11858906 0.06427509 0.105795905
-0.03911406 0.10303271 0.113127686 -0.02633652 -0.065243416 0.048591178 0.10519814 0.13385777
0.099306084 0.10843497 0.08741081 -0.08088768 0.078875504 0.104027115 0.09195632 -0.08440334
00000000: 3406 b73d 5b72 ba3d 2a8a f2bc 75f2 313e
00000010: daa2 cf3d 35f5 803d 7df3 7d3d 1843 b13d
00000020: f389 133d 8f7a 3d3e f84c 033e ac12 393e
00000030: 510b a13d bbac 83bd fac5 073e 9e4e 6c3d
00000040: d777 a8bd 5860 cd3d e53b 363e e717 e83d
00000050: 221b 9d3d 1feb 053e 64a2 1abc 63b8 673c
00000060: f8b8 b6bd fda5 eebc 9ac6 ab3d f200 6e3c
00000070: c7f0 103d ae0b ebbd 58b1 613d 112d d53d
00000080: f1ef 143d fa9d e13d 231a c33d 6a29 e13c
00000090: 625d 28bd 36ac 1f3e 97d9 ef3d 49c1 9b3d
000000a0: 6514 b8bc 75f4 b6bc acef 86bd 26c4 b73d
000000b0: 6700 113e 9679 7dbd 7e78 dcbd ea65 89ba
000000c0: 3ab1 ca3d 8adf c13d 8685 7f3d 9e0d 0e3e
000000d0: 2dfe b2bd c826 82bd 1108 9e3d f153 83bd
000000e0: 76cb cb3d 25b3 5cbd 1cc0 0c3e 8620 903d
000000f0: acc3 0c3e 64e3 1b3e a2d7 823d ada5 bebd
00000100: 4be9 933d c831 393e f02e cebd 38ba 223e
00000110: 2350 0ebe 48cb 3f3d 7271 1c3e 7a18 a03d
00000120: 6012 3e3d 4a1d d03d 2102 3dbd 6499 893d
00000130: 791b ce3d 90b1 b33d 4007 ff3d 0739 fabd
00000140: 028f 45b9 e813 a93d 1aad a63d f5c9 d03d
00000150: 1166 0d3e 6abc 163e d7c5 ebbd f8d7 7d3d
00000160: e0ad ccbd 5daf d13d 962b 9c3d a9a6 07bc
00000170: a79d 283e 1e97 56bd d5f6 a9bd 888d c33d
00000180: a0d1 07bd 366c 143e 4b53 e73d 45dc 98bd
00000190: bdd6 edbd 5adf e03d 3ddd 3c3c 938f 06bc
000001a0: c513 ae3d 5781 83bd 053b 2e3e 7d44 ddbd
000001b0: a841 abbd d2de f23d a9a2 833d 86ab d83d
000001c0: 1136 20bd d002 d33d 7daf e73d b0bf d7bc
000001d0: 579e 85bd 8b07 473d 1f72 d73d 0312 093e
000001e0: fd60 cb3d 2713 de3d 7004 b33d 71a8 a5bd
000001f0: 7b89 a13d 2b0c d53d 9853 bc3d a9db acbd
