data/predictor/PT/ImageNet_201_SiameseNetwork_2024-06-28_21-31-16.pt (torch, 304049 bytes, 12 tensors)

conv1.bias f4 [64]
00000000: 3c43 07be 057c 103d 50dd a83d 9eb9 6f3d
00000010: 5656 cebd a6bf 05bd 87e7 e5bd a538 bfbd
00000020: 4e27 c1bd 6ef6 c0bd 2a8b 42bd b2d5 01be
00000030: 0000 0000 e668 18be 161d 7abd 01aa 5abb
00000040: 0000 0000 0000 0000 b2df e5bc 0000 0000
00000050: eb1b 87bc 0000 0000 30b6 dfbc 0000 0000
00000060: 6007 a6bd acab 563d fee7 f7ba 195f 65bc
00000070: 0000 0000 76ac 41bd c7fb bcbd 805f 86bd
00000080: 0826 2ebd a44a 37bd 580b 12be fa5f d6bc
00000090: 6c31 11be 3436 9bbd bde8 bfbb 581d e1bc
000000a0: 7f79 09bd 1b10 fcbb 3710 8c3d b292 9abc
000000b0: 762d 98bd a505 3b3d 7873 50bc bc10 78bd
000000c0: e3de 243d a9be efbb 3e0c a5bd 7e8f 0abd
000000d0: 4652 8abc 17d6 8bbd ea2c 11bc 6765 a5bc
000000e0: 3f9d b8bd 5485 48bc d993 08bd 83d9 aabd
000000f0: 0000 0000 db09 543d 91c2 46bc ab94 a5bd
-0.13209242 0.035274524 0.08245337 0.058526628 -0.10075061 -0.032653473 -0.11225801 -0.09336976
-0.09431325 -0.09422003 -0.047496 -0.12679175 0.0 -0.14883766 -0.061062895 -0.003336549
0.0 0.0 -0.028060768 0.0 -0.016492805 0.0 -0.027308553 0.0
-0.081068754 0.052409813 -0.0018913744 -0.013999724 0.0 -0.047283612 -0.0922771 -0.06561184
-0.04251674 -0.044748917 -0.1426214 -0.026168812 -0.14179009 -0.07578698 -0.005856602 -0.027479813
-0.033563133 -0.0076923496 0.0683903 -0.018868778 -0.07430546 0.04565968 -0.012722842 -0.060562834
0.040251624 -0.0073164296 -0.08058976 -0.03382825 -0.016884934 -0.06827944 -0.008860806 -0.020189954
-0.09014367 -0.012238819 -0.033344124 -0.08342268 0.0 0.05176721 -0.012131349 -0.08084997

conv1.lin.weight f4 [64, 4]
00000000: 6b03 303e e6fb 453e a77f 033e 5cf3 363e
00000010: e705 80bc ffaa a13e c63b f9bc 50c2 843e
00000020: 12d1 9cbf 33a2 c93d 8296 083e 8ecc a73f
00000030: da0c 3abf 4fc3 0b3d f286 983d 6c03 823f
00000040: 2d2a c43e c20b 1f3e 75f4 703e 7614 73bf
00000050: e367 38bd de2b 8cbd 1310 b13e fe9d 3cbf
00000060: 621f 72be ad90 9ebd 4d59 a53e 7c7b c5bf
00000070: 1e4c adbd 701c 0dbe 6d0a 633e ce8b 91bf
00000080: 6162 4f3d 0fc2 9b3d de6d 823d 8d69 953e
00000090: e364 573e c9e7 90bc ad95 823e 9729 e93d
000000a0: 0d55 343d 2a47 0fbe 7390 0bbe fdb2 93be
000000b0: ef6e da3e a411 fdbe 7660 d33d 8a4b 513d
000000c0: 6836 2bbe ca63 97be 3a7b 0ebe 2cb1 20be
000000d0: 0785 6abe 5645 82bd 36e5 bb3e f85a a8bf
000000e0: 05ca 413d 903f 22bd 4b23 2f3e a688 9cbf
000000f0: d799 06bf a250 023c 829c b3bd f958 1a3f
00000100: 40ea fabb 5633 57be 35fe 71be 703a c5bd
00000110: f0d6 0ebd 489e 59bd dd56 73be 6072 9bbc
00000120: 5e7b 1ebd 4eff 4d3d 7af1 543d d63b 243f
00000130: 100c bfbc cc98 7fbd afb2 20be 1aa6 29be
00000140: 93b5 26be ad3d ac3d db02 4bbe 8c27 813d
00000150: 23cb 05be ccd2 36be 7716 93be 481b f63d
00000160: 6c64 7bbd e3b8 113d eb83 e43c e5cc 083f
00000170: 4499 36be 362f 6fbe 8497 65bd 08a4 2ebe
00000180: 2535 65bd c440 d03d dccb 793c bccf a6be
00000190: 341a f63d 6b3a d2be 8cc7 f9be a801 34bd
000001a0: 265a 533e 505a d9be d444 1dbf f9dd 1c3d
000001b0: 60b7 983e 8a38 3e3e 29f4 f3be 3929 32be
000001c0: 0097 6fbb e054 80be 469c 84be 98ae 713e
000001d0: 0d64 bb3e 4eb6 59be 749f a13c ce5c e2be
000001e0: 2f69 9c3c 4f8a 3c3c 76d4 863d 7c2f 05bf
000001f0: aaf5 383d 36d9 19be 04bd 8d3e 1f42 1fbf
00000200: 99ed 8d3e 8c26 263e 47ba 7a3d 6a5c 213e
00000210: 5e10 16be d009 dfbf be9f 9e3e 7312 a5be
00000220: d7da 42bd f59a 5d3e 12c1 763e b64f 21bf
00000230: 610f 8539 93d9 2fbe b85b 4ebe 62c9 64be
00000240: b905 423e fdb3 963e 1a6a 733e bee7 ddbe
00000250: b708 4abe 4926 be3e e21d 973e 590e bf3e
00000260: e1fd f23e bdf0 923e a755 603d 9e8f 213f
00000270: e4c1 723e 22a3 d73d f09a 96bc 34f7 a93d
00000280: d050 d0be f15f 693e 30f8 7e3e 51e0 c6bd
00000290: d959 09be 00e4 69bc 3a34 3bbe f789 773e
000002a0: 226c bfbe 3e7f e4bc 4a03 173b 8f68 043f
000002b0: 4518 793e 5289 e0be ad03 723d 4815 16bf
000002c0: 5602 613c 34f4 05be ad15 483d 959b 34bf
000002d0: 73b9 9e3e 05cd a9ba cad5 a1be c0b7 f03d
000002e0: c54a 8e3e 2a42 34bc e269 ffba 877d e3bc
000002f0: 6e5a 5e3e 21ae a73d bff0 833d bab6 293f
00000300: ed36 37bf 7d63 a8be c989 a73d f55b 953e
00000310: d45a 16bf 0725 163e 7bb2 4c3e 0bfb 48bf
00000320: 1e8d 8e3d 9b15 33be 417a 44be 40c7 a73d
00000330: 6df7 623e ef4e dcbe 2042 0bbf bcc1 233e
00000340: caf4 30be 5294 59bf ef57 833e b80d 16bf
00000350: 40d2 aa3e 5be1 3abd b80f cc3d 9755 26be
00000360: b4cc 923e f701 f4bb 9d50 52bd 5d90 a53e
00000370: 76ba 023f 758a 94be c1b7 81be beba 153e
00000380: 1f2b b23d db61 0b3d 798a 603d c617 1bbe
00000390: 0a30 34be 609e ad3e 739d 2abe 0074 20be
000003a0: 4d62 fdbd 61af 4ebf 182b 683e 546c 79be
000003b0: 4ee9 c9be 181d 7a3e 064d 9ebd 702c 343f
000003c0: 3792 27be 20ae febc 9f54 97be 00fe b3bb
000003d0: 9e3c 8bbd ca8b 673e cd30 81bd f8f3 313f
000003e0: ba7e 2dbe a754 a13e 84ba 63be f885 4bbe
000003f0: 05e6 673e a084 4a3e 12aa f83c 3e41 15bc
0.17188804 0.19334373 0.12841664 0.17866272 -0.015627814 0.31575772 -0.03042401 0.259295
-1.2251303 0.0984539 0.13338664 1.31093 -0.7267586 0.034121808 0.07447614 1.0157294
0.38313428 0.15531829 0.23530753 -0.94953096 -0.04502095 -0.068443045 0.34582576 -0.73678577
-0.23644784 -0.077424385 0.32294694 -1.542831 -0.08461784 -0.1378038 0.22171946 -1.137079
0.05063093 0.07605373 0.06368612 0.2918209 0.21034579 -0.017688649 0.2550482 0.11384886
0.044026423 -0.1399199 -0.13629322 -0.28847495 0.4266276 -0.4942752 0.10321133 0.05109743
-0.16719973 -0.2956832 -0.13914195 -0.15692586 -0.22902308 -0.06360881 0.36698312 -1.3152761
0.0473118 -0.0396114 0.17103307 -1.2229202 -0.5257849 0.007953795 -0.08770086 0.6029201
-0.0076573193 -0.21015677 -0.23632129 -0.09630287 -0.03487295 -0.053129464 -0.23763604 -0.018975437
-0.03869187 0.050292306 0.051988102 0.641538 -0.023321182 -0.062401578 -0.15693162 -0.16567269
-0.16280203 0.08410201 -0.19825308 0.06306371 -0.13065772 -0.1785385 -0.28728077 0.12016922
-0.061375067 0.035576712 0.027894935 0.53437644 -0.17831904 -0.23357853 -0.0560527 -0.1705476
-0.055958886 0.10168603 0.015246358 -0.32580364 0.120167166 -0.41060194 -0.48785055 -0.043946892
0.20639858 -0.42451715 -0.6143315 0.038297627 0.29827404 0.18576255 -0.47647217 -0.17398538
-0.003655851 -0.25064754 -0.25900477 0.23601758 0.3659977 -0.2126095 0.019729353 -0.4421143
0.019093124 0.011507585 0.065834925 -0.5202558 0.04515616 -0.15024266 0.2768327 -0.6221027
0.27720335 0.16225642 0.061212804 0.1575791 -0.14654681 -1.742487 0.3098125 -0.32240638
-0.047571983 0.21641143 0.24097088 -0.63012254 0.00025379195 -0.17172842 -0.20152175 -0.22342446
0.18947496 0.29434195 0.23770943 -0.43340868 -0.19729887 0.37138584 0.29514986 0.37315634
0.4745932 0.28699294 0.054769184 0.6310977 0.23706776 0.10529162 -0.018384427 0.082991034
-0.40686655 0.22790505 0.24899364 -0.09710754 -0.1341318 -0.014275551 -0.18281642 0.24173723
-0.37387186 -0.027892705 0.0023042732 0.51722044 0.24325664 -0.43854767 0.059085537 -0.5862622
0.013733467 -0.13081437 0.048848797 -0.705499 0.31000862 -0.0012954777 -0.3160842 0.117537975
0.2779142 -0.011002103 -0.0019486512 -0.027769817 0.21714184 0.08187509 0.06442403 0.66294444
-0.71568185 -0.32888404 0.08180577 0.2917172 -0.5873234 0.14662562 0.1998996 -0.7850806
0.0696051 -0.1748871 -0.19187261 0.08192301 0.22164698 -0.43028972 -0.54397774 0.15991873
-0.1728088 -0.84991944 0.25653026 -0.58614683 0.33363533 -0.045625072 0.099639356 -0.16243587
0.286718 -0.0074465233 -0.05134641 0.32336703 0.51065767 -0.29011884 -0.25335506 0.14622018
0.08699631 0.03402887 0.054819558 -0.15145788 -0.1759645 0.33909893 -0.16661625 -0.1566925
-0.12372265 -0.80736357 0.22672689 -0.2435773 -0.3943581 0.24425161 -0.07729535 0.70380306
-0.1636437 -0.031088889 -0.29556748 -0.0054929256 -0.06798671 0.22611919 -0.06308136 0.6951289
-0.16942874 0.31509897 -0.22239119 -0.19875324 0.22646339 0.19777155 0.030354533 -0.009109793

conv2.bias f4 [64]
00000000: 1c66 15be 65aa 31bc 53cb 653d 9f6c f43d
00000010: 0000 0000 b987 13be 0000 0000 6e3b 18bd
00000020: bd60 6dbd 1831 bcbc 3fbe 0abe d4cf c43d
00000030: acdd 0cbd f816 21bc 115c 77be 44bd 783d
00000040: 23c5 6b3d af23 81bd 8b8a 77be 5441 22bd
00000050: f290 62bc 98cf 363d 0678 32bd 970b 9cbd
00000060: 85a7 683d 9750 19bd 8a12 05bd 0a04 e6bc
00000070: 4496 04be 6a82 6b3d d21d 65be c885 c1bc
00000080: 9b2f 04be 3909 f7bb a428 28bd e897 723d
00000090: 4ce8 35be 7cd4 22bd 216d 27be 64ca b5bc
000000a0: 0000 0000 b5b6 01be 62a6 33be 96bb 67bd
000000b0: c26c 53bd be31 9ebd 8009 5e3c 0000 0000
000000c0: 0000 0000 c91d 04be d82e 1fbe c192 02bd
000000d0: 010e 853d 5601 a8bc 0f12 9e3b 8376 1abe
000000e0: 9f28 813d 71c9 bfbd bb17 02bd 0b6f 1cbe
000000f0: ac97 32be 0b24 c13c 0000 0000 e315 74bd
-0.14589733 -0.010843848 0.05610211 0.1193478 0.0 -0.14407243 0.0 -0.03716605
-0.057953585 -0.022972628 -0.13549136 0.096099526 -0.03439109 -0.009832136 -0.24156214 0.060727373
0.05756105 -0.06305634 -0.24173944 -0.039613083 -0.013828503 0.04463157 -0.043571495 -0.07619398
0.056800384 -0.037430372 -0.032488383 -0.028078098 -0.12947947 0.05749742 -0.22374657 -0.023623362
-0.12908785 -0.007538941 -0.041054383 0.0592269 -0.17764395 -0.039753422 -0.16350223 -0.022191234
0.0 -0.12667353 -0.17543939 -0.05657538 -0.05161739 -0.07724331 0.01355207 0.0
0.0 -0.12901987 -0.15545213 -0.031878237 0.06496812 -0.02050845 0.00482393 -0.15084271
0.06306576 -0.09364594 -0.031760912 -0.15276735 -0.1744067 0.023576757 0.0 -0.059591185

conv2.lin.weight f4 [64, 64]
00000000: 8296 1c3d 5bbc 3d3e 596c 933c 0873 83bd
00000010: 2bfd 823e faad 503b a59f 163e bbc6 e93b
00000020: b55f 033e 0b51 5d3d 6f8f 13be fef3 643d
00000030: b2ab e53d 3fdf 313e 669f 513d 9eee ee3e
00000040: a842 d4bc e4ca 023d 9d8c 9a3d 38a9 19be
00000050: 5b6d 353e 8263 a53d 83f8 7abd 40ed 35bd
00000060: 30fb 4dbe 916a 98be 2363 cbbe 0aa3 f03d
00000070: 162b f4bd 4509 563e 1b04 e43d 572b 2d3e
00000080: 2854 b6bb f1de 54bd 4256 463e aaa2 10be
00000090: b2f7 0b3e 6297 f9bc 4bb3 85bc ef20 2bbe
000000a0: 3475 1bbe 4910 543e 8769 1c3e cde3 2fbd
000000b0: 447f 263d 83ee 813e 1e4c 1b3e cdf4 803e
000000c0: d920 1d3f c978 b2bc eccf 7f3c b35c cabe
000000d0: 58d4 ac3d a71f 0bbe aea6 233e 585a 81bd
000000e0: cfa7 a13d 0590 43be 81b0 04be b308 c33e
000000f0: c2a3 9f3d 53d1 083d bf5d 4d3e dd19 6c3e
00000100: 91f6 f5bd 06e2 b83d 2274 e83d b6d5 05be
00000110: 3404 303e b701 493e 704d 64be ed1f 60be
00000120: 7e10 963d ec78 e33c 1cd5 19be 456c 83bc
00000130: 1f55 153e 010b 17be c0c6 09be 00ea f2bb
00000140: c040 d0bb 6821 c7bc f784 103d 414a 253e
00000150: a9bd 373e e0d5 973c 019a 12be cc7a 2e3d
00000160: 5850 18be c870 d13c 30d6 f0bd 79a0 2f3e
00000170: a068 cd3c 2882 babd ec56 2f3e 9c4b 35be
00000180: d43a 5ebe b551 84bc daac 84bd a39d 443e
00000190: 2bab f1bb 000f 49be 5f5c e0bd dfc4 0cbe
000001a0: e0d1 11be cc4a 2d3d 826b 0abe e875 9abc
000001b0: 7e70 2d3e 08e8 a73c 1587 e2bd 1ae0 a9bd
000001c0: aa42 eb3d 4d35 e93d 9483 183d 34b6 213d
000001d0: eb16 2cbe d312 f63d 54b9 d8bd 427c f03d
000001e0: 9595 423e c76b 3fbe a619 183e 40f7 2e3b
000001f0: a6d1 59be 9625 b23d 563e e33d c7ad a6bd
00000200: 20a7 e6bd 70a5 c03d adfd 89bc 3f4d 4f3e
00000210: e2c7 303d efa9 3dbe 4450 d5be e971 04be
00000220: 128c 7ebe 46fe 233d ac8a 2c3e 97dd dcbd
00000230: 7a56 cf3d 7a90 023e f250 3ebe e1a5 453d
00000240: 9070 e0bc 6065 a1bc 5c97 45bc 554e 423e
00000250: 0b89 3e3e 9471 26be 0b50 c1bc 40d0 093c
00000260: 8937 3e3e 869e 73be f3a5 6bbe 3d37 43be
00000270: 70de cfbc 28a0 123e f921 e9bd a21c 3d3e
00000280: 1bba 963e 88c8 89be d2cc 3cbe 5ebc 9c3c
00000290: 5e02 2fbe c4c7 c73d 20ed 723e f476 9c3d
000002a0: 6fae a53a 6305 1bbe 38f0 843e 33e5 0fbe
000002b0: 7f91 3abd 51e1 f13b c204 773e 8681 5c3e
000002c0: 4d45 303f 3e9a 573e f444 2ebe 96d1 833d
000002d0: 0c3d 47bd e95c 0c3e d014 8a3c 23e0 73bd
000002e0: 36de 033e 13ee 003d 27c0 82be 1911 4f3e
000002f0: e06b 7bbc 840e 753c 7c6c 413e 20aa 8a3e
00000300: 53bb 2fbe dc4f fd3d 63fa 793e 099f 0a3e
00000310: 606f 173e f6a5 5d3d 2f4b e3bd 63a3 843b
00000320: 5510 223e dc56 71bc 2651 bf3d 0aa0 e13d
00000330: c844 86bd ce1f 96bd 422d 4ebe 3b60 5abd
00000340: de6e 9abd 5342 c1bd 24bb 07be 8ca5 4c3d
00000350: e28b 0ebe 9c57 47be b0b6 22bd bbbf 2fbe
00000360: dfc9 563e b595 a53d ba9c 3a3e a587 50bd
00000370: e06a 813b 1bec 70be 8ea9 9bbd 0a14 22bb
00000380: 4e1b 02be eb2d 843e 6f79 2dbe 66c5 96bd
00000390: 4f93 453d d522 21be 01d6 44be c2cc 87be
000003a0: 7aca 113c e8ce 4dbe acf0 cabd 739e b73d
000003b0: 61a8 7dbd e665 19be d717 493e 7bf9 cebd
000003c0: c3bc e7be be50 b0be 3116 ad3d d77d 09be
000003d0: d9d0 b13e ba8b 64be d4e6 a1bd 9b20 afbe
000003e0: 2db2 43bd 1385 c23d 206a bb3d 4598 bf3d
000003f0: 9076 69bc 75a2 163e d128 643e 248f c4bc
0.038229473 0.18528883 0.017996 -0.06418425 0.25583777 0.003184198 0.14709337 0.007134286
0.12829478 0.054032367 -0.14410184 0.05589675 0.11214389 0.17370318 0.051177405 0.46666425
-0.02591069 0.031931773 0.07546351 -0.15005958 0.17717497 0.0807562 -0.061272155 -0.044415712
-0.20115352 -0.29768804 -0.39724073 0.11749847 -0.119222805 0.20901974 0.111335956 0.16911064
-0.0055642314 -0.051970426 0.19368842 -0.14124551 0.13668707 -0.030467693 -0.016320845 -0.16711782
-0.15181428 0.20709337 0.1527463 -0.042941857 0.040648714 0.25377283 0.15165755 0.25186768
0.61378247 -0.02178611 0.015613537 -0.3952385 0.08438939 -0.13586293 0.15981552 -0.0631606
0.07893335 -0.19097908 -0.12957956 0.38092574 0.07794906 0.033402752 0.20055293 0.23056741
-0.120099194 0.090274855 0.113502756 -0.13069806 0.17189103 0.1962956 -0.22295165 -0.21887179
0.073273644 0.027767621 -0.15022701 -0.016042838 0.14583252 -0.14750291 -0.13454723 -0.007413149
-0.006355375 -0.024307922 0.035283055 0.16141607 0.17943443 0.0185346 -0.1431656 0.042597577
-0.14874399 0.025566474 -0.11759603 0.17151059 0.025074303 -0.091068566 0.17123002 -0.17704624
-0.21702129 -0.016152242 -0.06478281 0.19200759 -0.007375141 -0.19634628 -0.109551184 -0.13746975
-0.14240217 0.04230766 -0.13517573 -0.01885505 0.16937444 0.020496383 -0.11060921 -0.08294697
0.114873245 0.113871194 0.037234858 0.039480403 -0.16805618 0.12015309 -0.105822235 0.1174245
0.19002374 -0.18693458 0.14853534 0.0026697665 -0.21271381 0.08698575 0.11095874 -0.08138614
-0.11262345 0.09406555 -0.016844595 0.20244311 0.043159373 -0.18521856 -0.416628 -0.12934078
-0.2485812 0.040037416 0.16849774 -0.107844524 0.10123916 0.12750426 -0.18585566 0.048253898
-0.027397424 -0.01970166 -0.012060013 0.18975194 0.18606965 -0.16254264 -0.023597738 0.008411467
0.18575872 -0.2379094 -0.23012523 -0.1906404 -0.025374621 0.14318907 -0.11383433 0.18467954
0.29438862 -0.26910806 -0.18437508 0.01913279 -0.17090747 0.09754899 0.23723269 0.07639876
0.0012640486 -0.15138774 0.25964522 -0.14052276 -0.045548912 0.007381596 0.24122909 0.21533784
0.68855745 0.21054932 -0.17018491 0.0643646 -0.048642203 0.13707317 0.016855627 -0.059539925
0.12877735 0.031477045 -0.25537226 0.20221366 -0.015345544 0.014957074 0.1888904 0.2708292
-0.17161302 0.123687476 0.24411921 0.1353723 0.1478858 0.05411335 -0.110983245 0.0040477975
0.15826543 -0.014730182 0.0934165 0.11016853 -0.06556088 -0.07330285 -0.20134452 -0.05331443
-0.075406775 -0.094364785 -0.13254982 0.049962565 -0.13920549 -0.19467014 -0.039725006 -0.17162983
0.20975445 0.08085195 0.18223849 -0.05091061 0.003949508 -0.23527567 -0.07600699 -0.0024731182
-0.12705728 0.25816283 -0.16940854 -0.073618695 0.048236188 -0.15735944 -0.19222261 -0.26523405
0.008898372 -0.2009846 -0.09909186 0.08965769 -0.061928157 -0.14980277 0.19638 -0.101061784
-0.452612 -0.344366 0.08451498 -0.1342691 0.3472965 -0.22318926 -0.07905355 -0.34204563
-0.047777344 0.09498038 0.09151101 0.09355215 -0.014249459 0.1471041 0.22281195 -0.023994036

conv3.bias f4 [64]
00000000: 5964 d9bd d6a8 94bd 66e6 f53d bcab 1d3e
00000010: 237f 31be 8783 7e3e 57b9 94bd 8457 4b3e
00000020: 3d8f 7d3e eea2 933d a944 753e bb14 103d
00000030: 29f1 36be 88c5 2fbe 9f45 b5bd bc1a 27be
00000040: a688 5a3e ced3 1bbe 189d 5fbe ce05 7dbd
00000050: 26b5 133d fee1 6dbd 517f 3abe a65c 333e
00000060: 684b cfbd 1433 d33d ecc7 2cbe 1eb8 9d3d
00000070: 2556 723e 566b 4dbd 4eb2 8dbd f28b 3d3e
00000080: 0f7d 0f3e bad5 33be 2490 fc3d 1712 21bd
00000090: a51e 623e 34d6 343e 1199 21be edce 043d
000000a0: 7b44 983e d459 ac3d 0c29 fc3c b143 c9bd
000000b0: 2cc1 f13d 1659 51bd 5485 95bd 8838 953d
000000c0: 87a4 c23d e0cc 79bd 3ea3 603d 9021 123e
000000d0: 523d 7b3e 4e10 a73d c845 46be 1dd4 55be
000000e0: 67f1 3ebe f1f8 2f3d e8a2 e03d 2a32 49be
000000f0: 7c4c 9c3d 1a79 193e 9fb4 12be 194f e43d
-0.10614843 -0.072587654 0.12006836 0.15397543 -0.17333655 0.24854861 -0.07261913 0.19857603
0.24761672 0.07208811 0.23951973 0.03517602 -0.17865433 -0.17165196 -0.0885117 -0.16318792
0.2134119 -0.15217516 -0.2183727 -0.061773114 0.03606143 -0.05807685 -0.1821263 0.17515811
-0.101218045 0.10312477 -0.16873139 0.07701133 0.23665674 -0.05015119 -0.069187745 0.18510416
0.1401255 -0.17561999 0.1233218 -0.039323892 0.22082002 0.17659837 -0.15781046 0.032423902
0.29739746 0.08415571 0.030781291 -0.09827364 0.11804423 -0.05111035 -0.07300821 0.07286173
0.09504037 -0.0609864 0.05484318 0.14270616 0.2453511 0.08157407 -0.19362557 -0.20881696
-0.18646775 0.04296202 0.10968572 -0.19648042 0.07631776 0.14987603 -0.14326714 0.11147899

conv3.lin.weight f4 [64, 64]
00000000: 1702 093e 33d6 66be f221 cebc ea96 bcbb
00000010: fce8 e3bd ad61 3abc 6bcb 573e cdcb 18bf
00000020: 8e05 c53d 659e 8c3d 7698 293e dbdd 6abe
00000030: 75be c7bd 40d8 a5bb 84ba 3b3e 324b 553c
00000040: 2c60 0e3d 8ac9 3e3e 675a 4e3f 2bb1 733e
00000050: 6ee5 d0bd 5585 9f3d ee58 4bbe 60f2 893d
00000060: b10f 95bc 8ca9 59bd 84b2 ecbd c924 ccbd
00000070: c0ab 01be 8260 6c3b 756f d23e 5011 abbd
00000080: 0c07 123d c0b4 4c3e 1b87 993d 1da0 78bd
00000090: af79 cf3a 566c 1ebe 87d6 873c 38ea c03d
000000a0: c338 2d3e d3bf 663d 6504 163e 616b 453e
000000b0: 4393 18be 03fe b2bc a4f0 bb3d badb a03d
000000c0: 9ab0 adbd 0084 52bd 4dd9 0d3e 0705 353d
000000d0: 0f83 8d3d ca10 813c 6edd 1dbe 408b d2bd
000000e0: 0539 47be 1ef0 0ebe b756 b43c 66f0 333e
000000f0: 14e2 343e 6483 2c3e 823b bfbd 46c7 7cbc
00000100: 7728 56be 5869 1d3e eaab 783e 3dcc 9a3d
00000110: 5e31 4cbe 6244 fd3d 6ba3 2f3e af0e 88be
00000120: b43a c5bd b79d 223e 1943 823e d64a cdbd
00000130: 572e af3d ad69 933d 037d db3f 07a9 de3d
00000140: b510 1f3d 522e c9bc e31d e43e d784 9fbc
00000150: c4e5 48be 4fcb 8b3e e503 adbc bd9b f7bd
00000160: e478 d2bd 499e 6fbd cf52 0a3e 0eea 35bd
00000170: e195 e73d 72dd 03bd ac95 93be c792 19bd
00000180: 8809 a23d 7909 debd 8df4 cebd f2a8 b23e
00000190: 7660 013e 5a8c 98bd f039 58be 6e44 3e3e
000001a0: 215c 153e adfe 0cbc b9ae c8be 7ef3 253e
000001b0: 8f1d b9bc f139 8e3e 0077 8dbd 3ef8 9a3d
000001c0: 2684 29be de53 303e 0533 103e abad fbbe
000001d0: 02e2 2abe b1b6 85bd b5b6 243e 19a0 2fbe
000001e0: b80d aabc 50cf 8d3d c192 37be 118a 84be
000001f0: 92fc 69be 80e5 7d3e 2eff dd3d 36b1 93be
00000200: 12e9 ae3d 3c28 40be 85e4 773d 0970 123e
00000210: 9a76 3ebe ef88 28be 256b e7bd 56cf ab3e
00000220: e4d5 9f3d 9c8a c0bd 9963 a8bd d94d 10be
00000230: 8556 a33d 6fb6 9abd 8dbd 96bf 6c8c 8d3d
00000240: 89dc 0dbe 49dd 123d 351e fdbe 6fea 12bb
00000250: 8f16 1f3d 2d85 56be d622 b2bd 7809 9bbe
00000260: d53f e73d f881 873e de11 c3bc 114f d73d
00000270: a5bf 36bd 107a c6bd 6556 82bb 8c9a 033e
00000280: 8088 013e ac7c 20be eb4c 35be 1cdb 7fbd
00000290: f6db 2c3e b634 13be 3d5b 87be 0a4b 3cbe
000002a0: ce08 873d 9e4f dcbd 3d08 4ebe 7b5b ce3d
000002b0: 99cf c3bc 3881 3abe b313 29be b6c3 0cbe
000002c0: e298 ea3d b75c c63d 7a9b e03d d04d 093d
000002d0: 059b 8e3d e1d0 12be 0c5a 43be 880f c03d
000002e0: f57d a5bd 8a73 7b3e 483f 353e 16bf 9f3d
000002f0: bca7 903e b06b 94be 8eb3 36be bfa2 573e
00000300: 4b06 e5bc a89f 0b3e 8dfd 29be 811c c0bd
00000310: 4e96 c93d 273e ae3d 8327 083e 6e35 af3e
00000320: c54c 24be fa85 623e faab 73be 24ae 113e
00000330: f192 0c3e efee 273d 837b 35bf 0a2f 223e
00000340: f2c0 9abe fb6b 83be e086 0dbf 0d80 34be
00000350: a92e 2d3e 0191 1abe a58d aebc cbea a1be
00000360: cec4 503e fa3b 53be 39db a73d 9377 3bbd
00000370: 080c 67bb f7d3 3ebd 203c 8abe 3701 d53d
00000380: 30e8 1abd f5b7 343e f6ad 3d3e a7b6 5abe
00000390: 201f 21be efe9 c1bd 7ac3 d9bc 67d9 543e
000003a0: 2749 0b3e 8ef0 98be 9f3f 3abe c5bd 65bd
000003b0: cefd c43d 9368 3bbc c556 f13d a7e5 0cbe
000003c0: d8f0 66bd 5e5e 7abe 132d 29be 3668 1d3e
000003d0: 5f11 4bbd 17ab 50be cab9 cd3d 3fbf 90bd
000003e0: 1817 223e 5897 703e c804 48be b920 fbbc
000003f0: 7ce8 99bd 3ca9 98be 2c8f 233d 1c87 ef3d
0.13379703 -0.22542648 -0.02516267 -0.005755295 -0.111284226 -0.011375827 0.21073692 -0.59685975
0.096202 0.06866149 0.16562065 -0.22936194 -0.09753124 -0.0050611794 0.18332869 0.013018416
0.034759685 0.18631569 0.80606693 0.23798053 -0.1020001 0.07789103 -0.19858143 0.067356825
-0.018195959 -0.053140208 -0.11557487 -0.09967954 -0.12663174 0.0036068265 0.4110066 -0.083529115
0.03565125 0.19990826 0.074964724 -0.06069957 0.0015829111 -0.15471014 0.016581787 0.09419674
0.16916184 0.05633528 0.14650114 0.19279243 -0.14899926 -0.021849638 0.09176758 0.078544095
-0.0848095 -0.051395416 0.13852425 0.044194248 0.06909763 0.015755076 -0.154165 -0.10280466
-0.19455345 -0.13958785 0.022014005 0.17572173 0.17664367 0.16846997 -0.09337522 -0.01542837
-0.20913874 0.15372217 0.2428433 0.075584866 -0.19940707 0.123665586 0.17152183 -0.26573703
-0.09630337 0.15880476 0.25441816 -0.100240394 0.085537605 0.071978904 1.7147526 0.10872083
0.038834292 -0.02455822 0.44554052 -0.019472523 -0.19618899 0.2730355 -0.021120021 -0.120902516
-0.10276964 -0.058500562 0.13508151 -0.044412665 0.11307884 -0.03219361 -0.28825128 -0.037493493
0.07911974 -0.108416505 -0.10105238 0.3489452 0.12634453 -0.07448645 -0.21115851 0.18580791
0.14585926 -0.008605641 -0.39195803 0.16206166 -0.022597102 0.2777858 -0.06907463 0.0756688
-0.16554317 0.17219493 0.14081962 -0.49155936 -0.16687778 -0.06528986 0.16085322 -0.17150916
-0.020758495 0.06924307 -0.17927076 -0.25886586 -0.22850254 0.24794579 0.10839687 -0.2884614
0.085405484 -0.18765348 0.060520668 0.1430055 -0.1859993 -0.16458486 -0.11299733 0.33556622
0.07804468 -0.09401438 -0.08222122 -0.14092197 0.07975487 -0.07554328 -1.1776596 0.06911549
-0.13853659 0.035855565 -0.4943711 -0.0022417565 0.038839873 -0.2094924 -0.08698051 -0.30280662
0.11291472 0.26466346 -0.02381223 0.105131276 -0.04461636 -0.0969125 -0.003977584 0.12851924
0.12649727 -0.15672559 -0.17705123 -0.06246482 0.16880783 -0.14375576 -0.26436797 -0.18388
0.06593476 -0.10757373 -0.2012033 0.10076042 -0.023902701 -0.18213356 -0.16511421 -0.13746533
0.11454941 0.09685653 0.10967155 0.033521473 0.069631614 -0.14337493 -0.19077319 0.09377962
-0.08080665 0.24555793 0.17699921 0.078001186 0.2825297 -0.2898841 -0.17841932 0.21058176
-0.027957102 0.13635123 -0.16600628 -0.09380437 0.098431215 0.08507948 0.13296323 0.3422045
-0.1604491 0.2212142 -0.23796073 0.14226586 0.13727929 0.04099935 -0.7089159 0.15838256
-0.3022533 -0.2566832 -0.5528393 -0.17626972 0.1691233 -0.15094377 -0.021307776 -0.31624445
0.20387575 -0.20628348 0.0819611 -0.04576833 -0.0035254974 -0.046588864 -0.26998997 0.10400622
-0.037819088 0.17648299 0.18523392 -0.21358739 -0.1573453 -0.094684474 -0.026582468 0.20786057
0.13602124 -0.2987103 -0.18188332 -0.05608918 0.09618722 -0.011438507 0.11784128 -0.1375948
-0.05638203 -0.2445006 -0.165211 0.15371785 -0.049577113 -0.20377766 0.10045202 -0.07067727
0.15829122 0.23495233 -0.19533074 -0.030655252 -0.07515046 -0.29816616 0.03993146 0.11695692

fc_cls1.weight f4 [256, 128]
00000000: 87f4 87b8 ab7e 9abd 6bd3 323e 60a2 1b3d
00000010: a85e 303d 5f0a 553e c4c7 01be 4e7d c6bb
00000020: 3cca 6fbe 1aa3 7abe 4aef cebe 8dce 883d
00000030: da52 48be ff4e b73c 7eac 41bd cf73 84bc
00000040: 3547 e53d 48d3 82bd ef24 1dbe 96d2 8ebd
00000050: 5003 5f3d 7193 8abe c344 7e3d a0a7 d83d
00000060: ccff 6dbd cc17 14be f6a4 b3bc a1fe bc3c
00000070: 315c e6bc db88 803d cc32 503e 7e2c 7dbd
00000080: 01e0 053e 6427 ccbd 1d84 0dbd 7442 a43d
00000090: d3d1 883e ab76 323d f014 0c3e 2e1f a2bd
000000a0: 6692 863d 7f22 cf3c 28fc cd3d 5830 85be
000000b0: 3539 94bd 9273 8b3d c378 92be b140 0f3e
000000c0: 8765 f5bd c066 80be cc3e d1be 1b08 d5bd
000000d0: b93f 28bf c64d b73d ccab c43c 9031 553e
000000e0: 17fb 0a3c fe26 90be 8869 973d 2469 5abe
000000f0: a1c7 713e 6948 a5bd 3adc 70be ef4c 333d
00000100: f469 203e c2ea b7be e3f7 94be 0e22 a1bd
00000110: ffda 85be 7820 90be e2dc 90be 3a9e 15be
00000120: 7bba e4bd 749e 193e 4d98 7fbe c92d b4bd
00000130: 6def 15be c74f b4be 9435 3f3e d055 4b3d
00000140: 7c17 7a3d 1122 833d 1ffd 953d 170b d83e
00000150: 381d c7be dbe0 aa3d ce9b d53e 5586 95bd
00000160: 5b6d c33d ee68 c43d 90f5 39be 2d86 2cbb
00000170: f4fb fbbd 7c5c a93d 8329 bd3e e9d5 bf3d
00000180: dc7a 53bd 2f84 843e 8751 41be 57ae 053e
00000190: e8b3 e73c cabe f8bd 549c 50be 9f5a e93d
000001a0: 0987 bebc 823a c9bd 2e4f ef3e 3e97 1f3e
000001b0: 6b94 30be e902 81be f067 893e cf0e 11be
000001c0: 9a12 043d 1b43 e0bd bd36 64bd 185b 62bd
000001d0: ad72 9fbe 0bec 9fbd 6fd7 1fbb 0f5c 21be
000001e0: 21f3 2bbe 2406 ee3d b52c 153e 15ef c3bd
000001f0: a992 86be f2fd 9d3c 3154 65bd 5dc5 a23d
00000200: 1041 13be 5d11 04be 4045 483e 04b5 1e3e
00000210: 80a0 6ebd 0ec9 8a3e b460 713c 9b71 403e
00000220: 4eea 133e 52f0 cd3d 8d54 9f3d 44f9 f33b
00000230: ee52 0dbd 9238 853d 5714 00be 3efa 6abe
00000240: 9a7c 333e 9a75 08be ceff b3bc edc0 d1bd
00000250: 49bf a63c b28d 6dbd b85b 66be 4a31 173e
00000260: a872 5cbd 3b76 d53d 2734 003b 06ef 703e
00000270: a6e6 f83d b730 d03d adf5 92bc 7cfd 5a3d
00000280: 700b 133e 4b64 fbbd cc4b 123e 09db 753d
00000290: 0132 b53d eb90 963d a286 103d 427b 5d3c
000002a0: effe 6a3e b88d 003e cc74 15bc b635 27be
000002b0: cf63 3e3e 671c 08be 0bcd 3abc 4047 bfbd
000002c0: 277f db3d 90cf 093c 1674 ac3d ef2f 35bd
000002d0: fbdc bc3d 9ac1 3fbd 25ce 86bd 1dfb cabd
000002e0: 2628 e2bd 420c 1dbe 9b65 9e3e b5d6 edbc
000002f0: c267 a73d 83ab de3d 9f7c c2bc 94f1 1fbd
00000300: d27c dabd 2aab a33b af49 48be f917 a03d
00000310: aec7 70be 8e56 193e 5ea4 8dbd d5d0 003d
00000320: 4501 d9bd efbb ab3e d984 f9bd a173 103e
00000330: 9626 4abd 198d 6fbd 1cf1 e7bd f5a2 4dbc
00000340: fc32 be3c 3c65 963b 09e9 16be cb75 453e
00000350: 58b0 c1bd 799c 693d f127 293c 4294 a73c
00000360: 4a55 173e b179 e43d 8b4a 093e d85d eabd
00000370: 82ac b53d 59e7 f43d a8bb 843d cec9 343d
00000380: f0a0 dbbd de3f e0bd ef7e 753d aeb3 7d3d
00000390: fde3 c23d 914e 44bd ba8c 08be a927 693e
000003a0: 2d5e 8f3d d3fd 61bd 3cf2 ed3d 3b7d b5bc
000003b0: eb2e a23d f05a 4fbe 5703 b33d 5d5e 9fbe
000003c0: 893c 833e a2a8 a63d 0e6a adbd 4713 963d
000003d0: e8ab b639 cec7 a1bd 4df0 1abe b1d1 75be
000003e0: 5082 ccbd 0023 923c 642c 183e 5187 dd3d
000003f0: 1205 5c3c 9253 0ebe 96a9 1e3e ea15 fa3b
-6.4828484e-05 -0.07543691 0.17463462 0.03799665 0.04305902 0.20804738 -0.12673861 -0.006057418
-0.2341699 -0.24476281 -0.40416938 0.066800214 -0.19562855 0.022376535 -0.047283642 -0.016168503
0.11195222 -0.06387955 -0.1534612 -0.0697376 0.05444652 -0.27065614 0.062077295 0.10578847
-0.058105275 -0.14462203 -0.021929245 0.023070635 -0.028120132 0.06276103 0.20331877 -0.06181001
0.13073732 -0.09968451 -0.03454982 0.080204874 0.26722583 0.0435702 0.13679862 -0.07916103
0.06570892 0.025285004 0.100578606 -0.26013446 -0.07237474 0.06809153 -0.2860776 0.13989522
-0.119822554 -0.25078392 -0.40868223 -0.104019366 -0.65722233 0.08950381 0.0240077 0.20819688
0.008482716 -0.2815475 0.07393175 -0.2132917 0.23611309 -0.08070452 -0.2352151 0.04377454
0.15665418 -0.35921293 -0.29095373 -0.078678235 -0.26143643 -0.28149772 -0.2829352 -0.1461114
-0.11168381 0.15001851 -0.24960442 -0.08797795 -0.14642115 -0.35217115 0.18672782 0.049642384
0.061057553 0.06402982 0.0732367 0.4219596 -0.3888948 0.08343669 0.41720432 -0.073010124
0.09542342 0.09590326 -0.18160081 -0.0026325092 -0.123039156 0.08269593 0.36945733 0.09366972
-0.05163084 0.25882098 -0.18878756 0.13054787 0.028284028 -0.12145765 -0.20372134 0.11394238
-0.02325775 -0.098256126 0.46740097 0.15585038 -0.17244117 -0.25197533 0.2683711 -0.14165805
0.032244302 -0.10950299 -0.055716265 -0.055262655 -0.31142178 -0.078086935 -0.0024389883 -0.15757774
-0.16791965 0.11622265 0.14567836 -0.09567086 -0.26283768 0.01928613 -0.055988494 0.079478
-0.14380288 -0.12897249 0.19557667 0.1549874 -0.058258533 0.27106518 0.0147325285 0.18793337
0.14444849 0.10055603 0.07779799 0.0074454863 -0.034502916 0.065049306 -0.12507759 -0.22947022
0.17528 -0.13326111 -0.021972563 -0.10241876 0.020354884 -0.05799646 -0.22495925 0.14764896
-0.053820282 0.10422941 0.0019562335 0.2352868 0.12153368 0.101655416 -0.017939413 0.053464398
0.14359832 -0.12274989 0.14286727 0.06002334 0.08847428 0.0735186 0.035284646 0.0135181565
0.22948812 0.12554061 -0.009122085 -0.16329083 0.18592761 -0.13292085 -0.011401425 -0.09339762
0.10717612 0.008411303 0.08420579 -0.044235166 0.09221836 -0.046815492 -0.06582288 -0.09911177
-0.11042814 -0.15336707 0.30936894 -0.029033044 0.08174087 0.10872557 -0.023741065 -0.039048746
-0.10668339 0.0049947696 -0.19559358 0.078170724 -0.23513672 0.14974424 -0.06916116 0.031449158
-0.10595945 0.3354182 -0.12183542 0.14106609 -0.049353205 -0.05848417 -0.11325285 -0.012551059
0.02321767 0.004589705 -0.14737333 0.19283216 -0.09457463 0.05703399 0.010324464 0.020456437
0.14778629 0.11156023 0.13407342 -0.114436805 0.08870794 0.119581886 0.06481105 0.04413777
-0.10724056 -0.10949682 0.059935506 0.061938934 0.095161416 -0.04792649 -0.13334933 0.22769035
0.070003845 -0.055173706 0.11618468 -0.022154441 0.07919105 -0.20249534 0.087408714 -0.3112668
0.25632122 0.08137633 -0.08467494 0.073278956 0.00034841825 -0.07899438 -0.1513073 -0.24005772
-0.09985793 0.017838955 0.14860684 0.10816825 0.013428943 -0.13899067 0.1549438 0.007632007

fc_cls1.bias f4 [256]
00000000: 8423 0cbe 3730 debd 8823 d2bd 8bb8 95bd
00000010: d1f8 cdbd c97a 70bd bad5 2abe 7e75 b7bd
00000020: 9747 4fbd 5df8 3e3d b5fd 11be 5af4 d7bd
00000030: ee2d f5bd d5e8 4a3d 6725 163e 6717 7dbe
00000040: 4551 b2bd 7edb dfbc 48f3 1abe fda0 9ebc
00000050: c26f 97bd fde9 7cbd 3846 c83d 4669 d3bd
00000060: b546 de3a 05cd 08be 1966 efbc f647 d7bd
00000070: 3a27 d9bb 7931 b2bc f3d5 e4bc 09d8 cdbc
00000080: 22e4 33bd f904 bebc 0f07 68be 3318 50bd
00000090: 5757 a93c 9ff3 f5bc dc86 5bbc d4f0 063e
000000a0: bf55 e43c c1a7 e3bd e486 01be 3651 b6bc
000000b0: 1c81 eabc 3521 4fbd 4c09 0cbe aa20 04be
000000c0: cc69 04be 8eae e8bd ef86 89bd 1864 2abd
000000d0: f15d bfbd 704f 3abd 5fa9 e8bd 92df 6abe
000000e0: 9fe3 3abd 6c03 54be a6e9 3cbe 4e3e 1dbe
000000f0: a52e ec3b 10f7 12be 4798 4bbe 2fb4 aebd
00000100: 0810 24be c765 72be 6299 96bd 017c 06be
00000110: 9b19 07bc ddc9 abbd 8b90 8abd 8058 4bbd
00000120: 0772 f8bb 84c6 06be 1a40 59be 355e e6bd
00000130: 8a58 23be cf49 10be d116 44be 1c1a 183d
00000140: 184d 2fbe 8f78 00be 2016 e0bd 43de 54bd
00000150: b2e9 64be 0de3 04be 6c9b 0ebd 28c8 c3bd
00000160: b6d1 87bd 4fbe 5fbc 88d3 03be 5b0f 59be
00000170: e4fc 51be 4aff a7bd 80d9 383d ce50 52be
00000180: ba1a f0bd 48ce 0dbe c955 4fbe a263 84ba
00000190: aac7 d0bd b9aa ea3d 1857 e0bc 8731 0cbe
000001a0: f1c7 14be 35b4 843d 161c ddbd f6f1 e5bd
000001b0: b349 46be 88da 14be bad3 14be bdae ffbd
000001c0: 8c9b d13c 3122 f0bd d974 c1bd 8563 2ebe
000001d0: 22f3 e9bd 0a6d 11be 23e9 d6bd 4488 45be
000001e0: cc78 f2bd 407e 50bc 90b4 abbd 9aed 0dbe
000001f0: 5556 72be 7b76 58be 4765 18be 51b2 18bd
00000200: e40d 5339 cbb7 d7bd 4811 8ebd a019 fdbd
00000210: 30be 93bd 951b f7bd a447 77bd 4219 58bd
00000220: 8612 00be 8e6f 0ebe 12f6 e9bd ef74 a53c
00000230: ce6f 15be 034a 40be f745 ccbd 04f3 41be
00000240: 58cc d63d fcef 4abd f5ef 95bd 4533 3abd
00000250: 38ea 013e 9d2b 97b9 6aac 0cbd 1eb2 823c
00000260: 7039 cabd cad4 883d 7929 b1bd 2d0e 15be
00000270: 4ad4 d2bd 895a 30bc 283d d9bd a7d4 8bbd
00000280: 3937 ebbd b577 95bd a22c e5bd 9843 ac3c
00000290: 3476 1f3c 7bc9 f4bc 1b7c 78bd 610f ccbd
000002a0: e9c5 88be 93c2 debd 6b04 13be 9ead 4fbe
000002b0: 81ca a03d 27dd c8bd a24f 44be 4606 a7bd
000002c0: 3184 e6bd fc8e 34bd 0020 81bc 551a 56bd
000002d0: 2c45 77bc 9bc2 b1bd f661 243a c3ec 26be
000002e0: 9e78 8bbe 57a8 e83c f7a9 00bd ac50 05be
000002f0: d0de 6bbd b585 08be fc50 9abc 032c 0abe
00000300: 6285 d0bd d9f4 31be 08c5 99bd 0afa a33b
00000310: 61ba 23be 1f69 9abd 9826 e4bd 8ea3 32be
00000320: 8ef5 acbd fe95 c3bc f04c fabd b047 1ebd
00000330: a081 d1bd 55d9 05be 65d4 6d3b 8bc6 1dbe
00000340: c7a3 f7bc b012 23bd 6f6b ecbd 98a6 8cbd
00000350: 9846 adbe ca8e 78bd 5e2d 76bd 0f4e 92be
00000360: f85a 35be 3535 c4bd 3d9f 91bd e4c2 29bd
00000370: 46ed 3fbe 2ea4 29be 7856 2fbb 54ac 033c
00000380: da30 50be ebaa e7bd df7a d2bd c7bc df3c
00000390: 038d 99bd 5267 96bc 6caa bdbd 4ed5 00be
000003a0: fe5e 0c3c ce7c 0dbe a794 bcbd ac0a d93c
000003b0: 0023 19be 73ba 50be edcd abbc 408d 1ebe
000003c0: 64b6 743c 7cbc a7bd 9fe9 35be 04e1 f4bd
000003d0: 65b1 8abe 3d7a 6dbd 7c47 3abc 32fd 3bbe
000003e0: e6d5 0dbc 3ca7 02be f140 51be cbca d0bc
000003f0: 846b dfbd 2aed cdbd eca7 26be d6f8 c5bd
-0.13685423 -0.1084904 -0.10260683 -0.073105894 -0.100572236 -0.058710847 -0.16683093 -0.08957957
-0.050605383 0.046623576 -0.14256938 -0.10544653 -0.11971651 0.049538452 0.14662705 -0.24715959
-0.08706907 -0.027326342 -0.15131867 -0.019363875 -0.07394363 -0.061746586 0.09779018 -0.10322814
0.0016958328 -0.13359459 -0.029223489 -0.10511772 -0.0066269906 -0.021752106 -0.02793405 -0.025127428
-0.043918736 -0.02319573 -0.22658943 -0.05080433 0.02067153 -0.030023394 -0.013398852 0.13177806
0.027872918 -0.11115981 -0.12649113 -0.022255521 -0.028626017 -0.050568778 -0.13675421 -0.12903085
-0.12930983 -0.11361419 -0.0671519 -0.041599363 -0.0934409 -0.045485914 -0.1136043 -0.22936848
-0.045627233 -0.2070443 -0.18448505 -0.15355799 0.007207709 -0.1435206 -0.19882308 -0.08530461
-0.1602174 -0.23671637 -0.07353474 -0.13133241 -0.008245851 -0.08388112 -0.06765851 -0.049644947
-0.0075819525 -0.13161665 -0.21215859 -0.11248437 -0.15951744 -0.14090656 -0.19149329 0.037134275
-0.17119253 -0.1254599 -0.1094172 -0.051969778 -0.22354773 -0.12977238 -0.03481619 -0.09559661
-0.06631796 -0.013656213 -0.12873662 -0.21197264 -0.20506626 -0.082029894 0.0451293 -0.20538637
-0.11723848 -0.13848221 -0.20247568 -0.0010100494 -0.10194333 0.11458344 -0.02738528 -0.13690768
-0.14529397 0.06479684 -0.107963726 -0.11227791 -0.19364052 -0.14536488 -0.14533892 -0.124845006
0.025586866 -0.117252715 -0.09446115 -0.17030151 -0.11423327 -0.14201751 -0.10493686 -0.19290262
-0.118394464 -0.012725413 -0.08384049 -0.13860169 -0.23665746 -0.21138947 -0.14882384 -0.03727943
0.00020127703 -0.105331026 -0.0693689 -0.12358403 -0.0721401 -0.12065808 -0.060371056 -0.052758463
-0.12507066 -0.13909742 -0.11423887 0.02019736 -0.14593431 -0.18778233 -0.09974282 -0.1894036
0.10488194 -0.049545273 -0.07321159 -0.04545905 0.12687004 -0.0002883346 -0.034344114 0.015954074
-0.098742366 0.06681211 -0.086504884 -0.14556189 -0.10294397 -0.010763773 -0.10607368 -0.068276696
-0.11485142 -0.07298223 -0.11190154 0.021028325 0.009732772 -0.02988123 -0.06066523 -0.09963871
-0.26713493 -0.10876956 -0.14357154 -0.20281073 0.078511246 -0.098078065 -0.19171003 -0.081554934
-0.11255682 -0.044081673 -0.01576233 -0.052271206 -0.015092175 -0.08679696 0.0006270701 -0.16301255
-0.2724046 0.028400583 -0.03141209 -0.13019055 -0.057585537 -0.13332255 -0.018837444 -0.13493352
-0.10181691 -0.17378558 -0.07508284 0.005004172 -0.15989067 -0.075395815 -0.11140174 -0.17445204
-0.08445273 -0.023875233 -0.12221706 -0.038642585 -0.10229802 -0.13071187 0.0036289927 -0.1540777
-0.030229462 -0.039812744 -0.11543929 -0.06867713 -0.3384292 -0.06068305 -0.06010186 -0.2857518
-0.17710483 -0.09580461 -0.071104504 -0.041445628 -0.18742856 -0.16566536 -0.002675442 0.008036692
-0.20331135 -0.11311897 -0.10277342 0.027311696 -0.07497599 -0.018359814 -0.09261021 -0.1258137
0.00856757 -0.1381714 -0.09208041 0.026494347 -0.14954758 -0.20383625 -0.020972217 -0.1548357
0.014936063 -0.081902474 -0.177649 -0.11956981 -0.27088466 -0.057977904 -0.011369582 -0.18358305
-0.008656954 -0.12759107 -0.2043493 -0.025487324 -0.10909179 -0.10055001 -0.16274995 -0.09666602

fc_cls2.weight f4 [128, 256]
00000000: 498f 473e 40e0 d0bd 2ce3 a63c 748c 163d
00000010: caa1 75bd 8986 02bd 0a4b 883e b071 503d
00000020: 1965 dcbd fb34 0a3d 5613 903e eabd 14be
00000030: 590b 4cbc 3a1b dcbd 6cc2 193d 40d3 d43e
00000040: 0839 82bc e268 023e 8745 32be 295f 94be
00000050: 9eb8 49bd 0c3a 8d3c 829f e7be 8f9e 4cbe
00000060: afac d7bc 1a76 72be 4f01 0ebe ee08 0dbe
00000070: 1249 50bd ef54 24bb 84b4 3bbe 4a89 8c3d
00000080: 62f9 26be 4fa7 6fbd bafe 5bbe e035 b8bd
00000090: d744 7ebe f309 a53d 39db 143c 35ea 2e3e
000000a0: 51b5 8dbc e41c e5bc 99c3 383d f80c cb3c
000000b0: 3ae6 2a3d 0013 123d 7108 683e 0a9c 90be
000000c0: 6be4 11bd 582e 493d 690f b2bd 6d93 6ebe
000000d0: aae9 423e d366 cdbd 6e97 553b d71e ca3d
000000e0: 6bfe 42be 5c1b 1c3f b949 793e b56e d6bd
000000f0: 0951 08be 7397 b1bd b4e4 c83e e399 9f3d
00000100: b89b 19bd 7e12 60be e792 933b 2590 3c3e
00000110: 6271 d9be 528a 6bbd c89a 593d e980 e83d
00000120: 2918 953c 2b13 a7be e212 15be 4162 cf3c
00000130: d9b7 2b3e f1af 993d 23d3 5fbd b459 ecbe
00000140: 3043 ff3d cdf4 2e3e a0d1 6e3c c835 883e
00000150: 82df f23d b71e ed3d 49af a7be 2ad6 9ebd
00000160: 7021 b8bc 971c 1ebe 9114 ad3d 3a5b c7bd
00000170: 5db1 afbe 3112 72bc 791b 8f3d 21fa 80bd
00000180: 7096 51be b449 5fbe 9c47 2fbe 0b80 3dbe
00000190: 7f8c 92be f5d8 273e 95a0 723d c68e 35be
000001a0: 32b7 ccbd 7438 69bd b45b c03b d1db 2b3b
000001b0: 3267 73bc a1dc ea3c a691 9ebd ad07 92be
000001c0: 152c a0be c5bf d9bc 2b3d 85bd f9c0 ea3b
000001d0: 112c 2cbd fef3 f3bd bcc3 a33d 7f36 203d
000001e0: e458 67be b785 b33d 6d02 3abd 0970 2c3e
000001f0: fc93 59bd d37b 553e b9e0 62be 1149 173c
00000200: eef1 863e 9c19 7a3e 57fd 153c 7338 48bd
00000210: 3beb 1f3e 3117 4cbd 175d 643d 9e52 f53d
00000220: b606 9abc d858 863c 0f13 e0bc 6291 29be
00000230: 706b 38bd d6de c2be 0558 493e 80e9 383e
00000240: 2584 b13d 2b62 9d3e b0fb 37be 488c dfbc
00000250: c9c3 4cbe 3a80 5fbe 81e7 003e d6f3 d13d
00000260: ced5 253d 59c7 073e 1d3b 383e 1d58 c43d
00000270: bfad c0bc 8a01 27bc 3bb3 2cbd e870 c03e
00000280: e4d5 453e 4c35 9a3d e15b 493e b968 c83d
00000290: 56ef 35be f37e 003b 021a 27be a180 a7bc
000002a0: 0f24 863e e6fb 4f3d 6c50 07be 0689 853e
000002b0: 6e6c 0a3c f51b 80bc a710 98bc f6af 543d
000002c0: 35aa a6bd 33f0 2b3e fc12 81be e9bb 0fbf
000002d0: 0f5a abbe 1d93 ea3e ba3e 01be 73ef 593e
000002e0: fab9 bc3e 01b0 a7bd 5e31 a0bd 3936 1c3f
000002f0: 3b92 083d d314 293c cd07 f3be ca36 b13e
00000300: 26b5 16bc e5b5 58be ca38 eebb 7a74 93be
00000310: 9f06 d73d 369d 503d 55fd e03d dec5 2a3e
00000320: 043c 063e 2a8d c83d ecf9 e0be add0 c0bd
00000330: dd5c a8be 8038 6fbb 4045 053e df15 053e
00000340: b911 a4bd b6fb dabd 009d ccbb 3106 9c3c
00000350: 92ce 963e 5911 74be ac61 fc3c 51bb 663e
00000360: fc2c 023d 8760 ab3d c60d 1a3d bb49 773e
00000370: 2ad4 b53e 34a6 90bd 2cf7 38be 45d4 35bd
00000380: 70e7 803e dfa2 0fbf 3a19 16be 8c35 d33d
00000390: 3f76 56bd 055f 9a3d 98da 773d b0e3 38be
000003a0: deb5 943b 920c 7fbe 4020 e73b 286a f7be
000003b0: 4824 183d a902 bc3d 187a 933d add7 5bbd
000003c0: 2a34 a3be 8399 2ebc a4d1 a93d 287e 90bb
000003d0: bfc7 313e 0c6b 02be 94ae babd bfb1 4ebe
000003e0: 1689 5abe d59b a63d 66a7 12bc c7ac fa3c
000003f0: c485 a9be 0422 0fbd ead6 30be 60ed f1bd
0.19488253 -0.10199022 0.020371996 0.03675504 -0.059968747 -0.031866584 0.2661975 0.05088967
-0.1076147 0.033741932 0.28139752 -0.14525571 -0.012453877 -0.107473806 0.03753893 0.4156742
-0.015896335 0.12735322 -0.17409335 -0.2897885 -0.04924833 0.017239593 -0.45238882 -0.1998236
-0.02632746 -0.23677865 -0.13867687 -0.13772938 -0.050850935 -0.0025075038 -0.1833058 0.06862123
-0.1630607 -0.058509167 -0.21483889 -0.08994651 -0.24830948 0.08058538 0.00908547 0.1708153
-0.017298372 -0.027967878 0.04510841 0.024786457 0.041723467 0.03566265 0.2265947 -0.28244048
-0.035618227 0.049116462 -0.086943455 -0.23298426 0.19034448 -0.10029378 0.003259148 0.098691635
-0.19042365 0.6097925 0.24344529 -0.104703344 -0.13312162 -0.08671465 0.39236987 0.077930234
-0.03750202 -0.21882054 0.004503596 0.18414362 -0.42469317 -0.05750496 0.053126127 0.11352713
0.018199997 -0.32631811 -0.14557984 0.025315406 0.16769351 0.07504261 -0.054644715 -0.46162188
0.12463987 0.17085572 0.014576346 0.26603532 0.11859037 0.11578124 -0.3275092 -0.07755692
-0.022476882 -0.15440594 0.08451188 -0.09734197 -0.34315005 -0.014774845 0.06987662 -0.06297708
-0.20467544 -0.2180546 -0.1711716 -0.18505876 -0.28622815 0.16391356 0.059235174 -0.17730245
-0.09995879 -0.056938604 0.005870307 0.002622355 -0.014856147 0.028669657 -0.07742624 -0.2852148
-0.31283632 -0.0265807 -0.065058075 0.0071641174 -0.042034212 -0.11911772 0.07996318 0.03911447
-0.22592503 0.087657385 -0.04541247 0.16839613 -0.053119645 0.20848016 -0.22156037 0.009233729
0.26356453 0.24423832 0.009154639 -0.04888196 0.15617077 -0.049826805 0.05575284 0.119786486
-0.018802028 0.016399786 -0.027352838 -0.16559365 -0.045024335 -0.38060635 0.19662483 0.18057823
0.08667783 0.3073896 -0.17967105 -0.027288571 -0.19996561 -0.21826258 0.12588312 0.10251586
0.040487103 0.13259639 0.179913 0.09587119 -0.023520349 -0.010193238 -0.042163115 0.3758614
0.19319874 0.07529697 0.19663955 0.09785599 -0.1776708 0.0019606918 -0.16318515 -0.020447077
0.26199386 0.05077734 -0.13214272 0.26081103 0.008448703 -0.015638331 -0.018562628 0.051925622
-0.08137933 0.16790847 -0.25209796 -0.56146103 -0.33467147 0.45815364 -0.12621585 0.21282749
0.3686064 -0.08187867 -0.07821916 0.6102024 0.03334258 0.010319906 -0.4746689 0.34612113
-0.009198463 -0.21163137 -0.0072699534 -0.28799802 0.1049931 0.050931178 0.10985819 0.16677043
0.13108832 0.0979255 -0.43940675 -0.09414802 -0.3288335 -0.0036502182 0.13014698 0.12996624
-0.08011193 -0.10692541 -0.006244302 0.019045921 0.29454476 -0.23834743 0.030808292 0.22532393
0.03178118 0.083680205 0.03761079 0.2414922 0.3551343 -0.07062951 -0.18063039 -0.04439189
0.25176573 -0.56107897 -0.1465806 0.10312948 -0.052358862 0.07537655 0.0605112 -0.18055606
0.004538282 -0.24907139 0.007053405 -0.48323178 0.037143975 0.09180195 0.07201022 -0.05367248
-0.31875736 -0.010656717 0.08291939 -0.0044095702 0.17361353 -0.12736148 -0.091153294 -0.20184992
-0.21341357 0.08135191 -0.008951044 0.030599965 -0.33109868 -0.03494455 -0.17269483 -0.11812854

fc_cls2.bias f4 [128]
00000000: 9a2f d53c 1441 883d 5b05 3ebd 909e 0a3e
00000010: 2b30 463d 1496 9c3d 5f37 0ebd 145c d63d
00000020: 2a91 553d 4b97 1c3e 385d 843d ed35 123e
00000030: 07d8 053e dc95 fe3d b310 7c3d d848 253e
00000040: 59d7 fa3d 1e35 093e 00fe a03d a07f 0c3e
00000050: 1dd5 873d 45f1 fb3d 0cc4 8dbd fcc3 0d3e
00000060: aa1b 93bd 4665 0d3e 5a60 0b3e ca31 a9bd
00000070: 5bf5 45be 6964 c6bd ba78 bb3d 8e0d 6dbd
00000080: 626c b13d 36d2 cc3d 8194 8a3d b202 203e
00000090: 6db0 78bd 0ae5 cf3d 9553 1fbd c16d e93d
000000a0: 2214 7cbd 2667 15bd 524e 943d 2001 923d
000000b0: 77d4 ff3d 452e 983d 19c1 78bd 8b5f 8fbd
000000c0: 992d 163e b0f8 60bd 1527 be3d 2150 a53d
000000d0: f3f1 283e 3364 cb3d 7fc2 123e dd7d 083e
000000e0: 65ff b83c 6c70 973d 3c42 65bd 2824 a5bc
000000f0: bba5 0f3e a2a4 ba3d 2599 b8bd 5d54 fc3d
00000100: 7971 1f3e fd0c 18bd 56df 223e f145 003e
00000110: 2501 82bd 6bcb 123e cde5 8bbd f031 0b3e
00000120: 4954 1e3e db1e 963d 134e 54bb f844 753d
00000130: bc67 c8bd eb64 eb3c 874d 7fbc 4c4b eb3d
00000140: 0cc3 123e e82b 003e 551e a43d 7e2c d23d
00000150: 0fb7 033e 8884 0b3e e18b b9bd f95f e03d
00000160: 6895 52bd 23c6 e73d 6c2a 0d3e f8ee ad3d
00000170: c422 0f3e b9d8 4cbc 0439 173e 4c42 a3bd
00000180: 98e3 91bd b8e5 bdbd 9a4a c73d 07a3 043e
00000190: 11ca e33d 28f9 e8bd 47f4 0c3e c6e8 55bd
000001a0: b604 a23d 976c f4bc a6af c63d a277 0e3e
000001b0: 604b fc3d 0ba4 073e ad04 b63d 6deb b3bd
000001c0: e0a8 55bd 1df2 bc3d acf8 b3bd 6edc 20bc
000001d0: e569 103e 69bb 903d aa95 f03d 017b 8d3d
000001e0: 5fdd 253d fbba 8e3d d121 e23d 63da ab3d
000001f0: a321 febd f587 e63d b818 68bc 4105 3d3d
0.026023675 0.06653038 -0.046391826 0.1353705 0.04838578 0.07645813 -0.034720775 0.10466781
0.052140392 0.15292089 0.064630926 0.14278384 0.13070689 0.12430927 0.061539363 0.16141069
0.122481056 0.13399169 0.07860947 0.1372056 0.06632445 0.12301878 -0.069221586 0.13844293
-0.07183011 0.13808164 0.13610974 -0.0826145 -0.19331877 -0.096871205 0.09153886 -0.057874255
0.086632505 0.10001032 0.06766606 0.15626028 -0.060715128 0.101511076 -0.03889807 0.11397887
-0.061542638 -0.036475323 0.07241501 0.07129121 0.12491696 0.074307 -0.060731027 -0.07000645
0.14665832 -0.054924667 0.09284798 0.08071924 0.16498546 0.09931221 0.14332007 0.13329263
0.02258272 0.0739449 -0.05597137 -0.020158842 0.14028065 0.091134325 -0.09013585 0.123207785
0.1557063 -0.03712176 0.15905508 0.1252668 -0.063478746 0.1433541 -0.068309404 0.13593268
0.1546184 0.07330104 -0.0032395169 0.059880227 -0.09785411 0.028734645 -0.015582449 0.11488971
0.14332217 0.12516749 0.08013598 0.102623925 0.128628 0.13624775 -0.09059883 0.10955805
-0.051412016 0.113170885 0.13785714 0.08492845 0.13978106 -0.012502843 0.14767843 -0.079716295
-0.07123488 -0.09272331 0.09731026 0.12952815 0.111225255 -0.11375648 0.1376506 -0.052223943
0.07911055 -0.029836936 0.09701471 0.13912824 0.12319064 0.13246171 0.088876106 -0.08785138
-0.052163005 0.09225867 -0.08787665 -0.0098181795 0.14102896 0.07066996 0.11747296 0.06908227
0.04049432 0.069692574 0.11041606 0.08391263 -0.124087594 0.112564005 -0.01416605 0.04614759
