data/predictor/PT/ImageNet_201_TNetwork-F_2024-06-28_21-19-38.pt (torch, 271803 bytes, 14 tensors)

conv1.bias f4 [64]
00000000: 3574 f7bc 26cb 003d a73a f83c 7c83 26bb
00000010: a06b 95bd a4e2 bbbc 402d 14bd 71ab 3ebc
00000020: 007e 543d 07ba 563d 56c1 8f3a b4b3 6bbc
00000030: 3eae 5a3c 57d5 e9bc 8df5 62bd 95b6 e7bc
00000040: 9701 4dbc 2f95 bdbd 4455 ffbc 0000 0000
00000050: 1ac2 43bb 3141 6dbc 70aa 7bbd 15a7 0b3d
00000060: 149a 3cbc f722 91bc 62a8 2fbc 95d2 3ebc
00000070: cc83 193c 1f20 333c 0000 0000 0fe1 2abc
00000080: 6fdf 06bd 2bba 42bb 3056 10bd 3b89 dabc
00000090: 9caf 2cbc 1900 80bc f33a f13c 5494 a5bc
000000a0: 88cd 03bc a8ed b03b 0125 5a3d 6a5a e5bc
000000b0: e689 6bbd 5e8b 8d3c fbcb 0cbd 42d0 493d
000000c0: 7e18 823c 10ff babc 2cf7 5fbc ba55 173b
000000d0: dc9b d33c 2f31 603d 92f2 3dbd 3aea df3c
000000e0: 0000 0000 1e6d e9bc 3230 1fbd 27a4 323d
000000f0: 48f1 3e3d ae1c fabc 38ca edbc 0000 0000
-0.030206779 0.031443737 0.030301405 -0.002540796 -0.072959185 -0.02293522 -0.036175966 -0.0116375545
0.051877975 0.052423503 0.0010967653 -0.014386106 0.013347207 -0.028544111 -0.055409957 -0.028285304
-0.012512586 -0.0925697 -0.031168588 0.0 -0.0029870332 -0.014480875 -0.06144184 0.03409489
-0.011511344 -0.017716868 -0.010721298 -0.011646886 0.009369802 0.010932951 0.0 -0.010429635
-0.032927927 -0.0029713016 -0.035238445 -0.026676765 -0.010539915 -0.015625047 0.029447054 -0.02021233
-0.008044608 0.0053994246 0.053257946 -0.027997214 -0.057504557 0.01727837 -0.03437422 0.049270876
0.01588082 -0.022826701 -0.01366977 0.0023091868 0.025831155 0.054734405 -0.04637391 0.027333368
0.0 -0.028494414 -0.038864322 0.04361358 0.046616822 -0.030531254 -0.02902709 0.0

conv1.lin.weight f4 [64, 4]
00000000: 72b2 c83d 89f9 0cbe 32a8 54be f5a7 303e
00000010: a7fc a0bd d332 083d ffb0 583b 7efc b63e
00000020: c389 e7be ebd3 9f3d 104d cf3b 2127 f73d
00000030: c812 a7be 673c 063e 9d07 09be 0ab4 6fbe
00000040: 39dc a2be 36b6 ef3c 4adf 883e 1203 cd3d
00000050: e430 503e 1eb0 d33c 75cc 5d3e fe6e 13be
00000060: 15e1 8fbe ddb9 5fbe 831b 213e 8d25 d03e
00000070: 7cd7 cdbc ecb8 613d 29b7 d3bd 2e8c bc3e
00000080: 945e b1bd 5470 4fbd 3741 afbe 63b2 183e
00000090: c7fa 823d 7f9d c4bd fea3 9fbe a830 853e
000000a0: 4184 a83d 89ad c83d aa53 00be 6bc3 d4be
000000b0: 92b4 eebd cf93 863e 55c1 09be 837c 2abf
000000c0: 6295 97be 4a79 123e 093c 1dbe ec27 b73e
000000d0: 5274 4b3e 0a15 383e 9473 a5be a7d9 043e
000000e0: 32a3 8a3d 2c2c c6bc 5df8 703e 6af5 e43d
000000f0: c0e3 a5be 4d5e bfbe ae91 893e 6e0a 703e
00000100: 0966 d23c 7420 723e 93f9 87be 7d30 ff3c
00000110: 5880 9e3e a590 cebe 83b6 cc3d 079d 123d
00000120: 6284 503e 35dd 993e c438 cc3d 104f 10be
00000130: 980c 6ebd 0017 9fbc 049f f6bd e68f adbd
00000140: 101b 333d 3758 2b3e 5eda 1b3e a763 b93e
00000150: 9b42 663e 7ea4 2ebe e60c f4be 5f77 d1be
00000160: 42c1 583e d60b 0abe 9464 503e 3bde c3bd
00000170: 4c24 3f3e ec55 17bd 5b74 17be 4b66 253d
00000180: b03e 773d 8548 bd3d 9b7e ef3d 0dc4 e63e
00000190: 5cd0 6c3e a684 dfbe d571 863d 1683 9cbe
000001a0: 6f15 24bc d8ed d23d 426d bfbd 06f0 8cbe
000001b0: 7236 123e 3312 87be 0ba3 c7be 76ea 8e3e
000001c0: e4e5 5dbe 461d 6a3e c541 023e 56a5 8b3e
000001d0: d0bc 36be b1bb 393e f83e e3be e7a0 503e
000001e0: c09f 68be 32da 1cbe 143f babd d395 71be
000001f0: 0972 2abd 0e00 4c3c 6146 1c3e bde1 90be
00000200: fefc 47be 1157 713d 13f5 133e 40df a83e
00000210: cf71 dbbd 4216 9ebe 412c ce3d 1cb0 1fbe
00000220: 467e 0dbe 452c 93bd 5858 f33d 866a 51be
00000230: 31b0 303e 934c 91be 4371 91be 8804 853e
00000240: 1c57 76be 9bb6 023e d738 09be c6a1 723e
00000250: 2e7d 793e aa9b e53d f5bc a7be 24e5 0fbf
00000260: 3e2c 83bf 7534 073d 66ee 033e 8821 fa3d
00000270: 33a6 243e 35b7 8abd 4e61 843e 5a9c 85be
00000280: c1ff dfbe e42d 703e dac7 ceba 8503 84be
00000290: 1030 7b3e b76f 843e 906e 0bbc 8ea6 14bd
000002a0: f036 09be 7960 9a3d 3402 acbe 7689 87be
000002b0: 5202 e83d 3174 bbbb 1b3b 4cbe d500 5bbe
000002c0: 74f1 913c 7a68 813e 65f6 383e 75d2 87bd
000002d0: 0c9a 92be bb2c 8b3d 007b 4bbe d69e b03e
000002e0: b61e 813e f11a 4f3e cafa 4a3e fb1f 34be
000002f0: 26f9 4abe 6912 a43e 4ac9 fcbd 1970 6cbc
00000300: 7ace a13e df49 9fbe ab5c 3cbe 920c bd3c
00000310: d6d4 663e bcdb 663e fbe0 02be 51f7 fd3c
00000320: da0a 0c3e 9fc1 103e e90f 8fbe fbda 263e
00000330: 4487 693e e90f e1be 76a5 f0bc d1c3 8bbe
00000340: 3996 0b3e 1ce4 c1be 031b 89bb 6275 543e
00000350: 7163 36be 1b63 88be afea 9fbd d1ac ff3d
00000360: 04da 92bb 4ed6 b83d 5bf5 433e 6df3 373e
00000370: 19ea 2cbf d22f 243e b84e 9a3d f13f a23d
00000380: 4805 96be acf0 a5bd 01b2 8abe 9313 24be
00000390: 22c2 6abe 0c04 4e3e a33b 21be d036 b1be
000003a0: 8f0e 60be 4cdb 9c3e f0ec 853e 317d efbe
000003b0: 1d9d febd 59bd 9f3d 0224 aabe 7360 593e
000003c0: cc24 acbd bda2 4cbd 79f2 83be 48bd e23d
000003d0: b39c eb3c 015c b4be f88c 123a 67ea 9abd
000003e0: b581 943e 3f5c 08be af4d 3d3e b6fb 01bf
000003f0: 8863 49bd 1029 97be 2c56 f4bd dae7 a0bd
0.09799661 -0.13767065 -0.20767286 0.1725157 -0.078606896 0.033251595 0.0033064482 0.3573951
-0.4522229 0.07804092 0.0063263252 0.1206801 -0.32631516 0.13108979 -0.1338181 -0.23408523
-0.31808642 0.02926169 0.26732856 0.10010351 0.2033115 0.025840815 0.21660025 -0.14397809
-0.2810141 -0.21848245 0.15733151 0.4065365 -0.025127165 0.055107996 -0.103376694 0.368257
-0.086606175 -0.050644234 -0.34229442 0.14911799 0.06395488 -0.096003525 -0.31179804 0.26013684
0.082283504 0.09798724 -0.12531915 -0.41555342 -0.11655535 0.26284644 -0.13452657 -0.6659624
-0.29606158 0.1430408 -0.15354933 0.35772645 0.19868591 0.17976776 -0.32314742 0.12973653
0.06769408 -0.024190985 0.23532243 0.111796215 -0.32400322 -0.37376633 0.26868957 0.23441479
0.02568342 0.23645192 -0.26557598 0.03115105 0.30957294 -0.4034473 0.09995749 0.035794284
0.20363 0.3005158 0.09971765 -0.1409266 -0.05811748 -0.019420147 -0.120420486 -0.08474712
0.04372698 0.1673287 0.15220019 0.3620884 0.22486345 -0.17054936 -0.4766609 -0.40911385
0.21167472 -0.13481078 0.20350868 -0.095638715 0.1866619 -0.036947176 -0.1479048 0.040380757
0.060362518 0.09242348 0.1169407 0.4507145 0.23126358 -0.4365589 0.065646805 -0.3056876
-0.010014876 0.10299271 -0.09347011 -0.27526873 0.14278582 -0.26381072 -0.3899158 0.27913254
-0.21669728 0.2286273 0.12720402 0.2727458 -0.17845464 0.18138005 -0.4438398 0.2037388
-0.2271719 -0.1531761 -0.090940624 -0.2359231 -0.04161266 0.012451185 0.15261222 -0.28297225
-0.19530103 0.058920924 0.14448957 0.32982826 -0.10715067 -0.30876356 0.100670345 -0.15594524
-0.138177 -0.07186178 0.118820846 -0.20450792 0.17254712 -0.28378734 -0.28406724 0.2598002
-0.24056667 0.12764971 -0.13400589 0.23694524 0.24364159 0.11211331 -0.3276135 -0.56209016
-1.0247877 0.03300901 0.1288391 0.12213427 0.16079025 -0.06773225 0.25855488 -0.2609585
-0.43749812 0.23455006 -0.0015776113 -0.25783935 0.24530053 0.25866482 -0.008510247 -0.03629165
-0.13399863 0.07537932 -0.3359543 -0.26472062 0.113285676 -0.005720638 -0.19944422 -0.21387036
0.01781533 0.25275022 0.18062742 -0.06631938 -0.28633153 0.06795641 -0.1987114 0.34496182
0.25218743 0.20225121 0.19822231 -0.17590325 -0.19821605 0.32045296 -0.1234308 -0.014431023
0.31602842 -0.31111047 -0.18394725 0.023077283 0.22542128 0.2254476 -0.12781136 0.031001719
0.13676015 0.1413636 -0.27941826 0.16294472 0.22805506 -0.4395745 -0.029375773 -0.27297834
0.13631524 -0.37869346 -0.0041841283 0.20747903 -0.17811371 -0.2663811 -0.07808434 0.12484134
-0.004481556 0.090252504 0.19136564 0.17963953 -0.67544705 0.16033867 0.07534546 0.07922352
-0.29300904 -0.08102545 -0.2708893 -0.16023092 -0.22925618 0.20118731 -0.15745406 -0.3461213
-0.21880554 0.3063606 0.2615733 -0.467752 -0.12432311 0.07799787 -0.33230597 0.21228199
-0.08405456 -0.049959887 -0.2577093 0.11071259 0.028761243 -0.35226443 0.0005590464 -0.0756424
0.2900521 -0.13316439 0.18486665 -0.50774705 -0.049167186 -0.29523516 -0.119304985 -0.07856722

conv2.bias f4 [64]
00000000: cc54 a9bb b0a8 18bc e913 5fbd 5ea4 a7bb
00000010: 6b8c 0fbd 5299 a9bd 4836 7abd b9ba 4fbd
00000020: 66fc 9dbc 91e6 ac3c 1af7 78bd 1b91 bc3c
00000030: 55ca 48bd da73 ab3c fccd 3bbd cfd7 653b
00000040: c7cf 3ebc 8d0f aebc a109 2dbd fe08 4fbd
00000050: 2027 03bd e442 563c ae40 a0bc 105a 6dbd
00000060: bd49 00bb c043 70bc d949 49bd 4c94 26bd
00000070: aaa3 eb3c 7fbf c5bc 5e8b 1ebd 2d92 08bd
00000080: ee68 b7bd 606e 5ebc 88a2 2ebd 0000 0000
00000090: d4d4 58bd cc3d a0bd 5397 a6bd d034 8ebd
000000a0: 104e 1ebd e46f 2ebd e8c6 56bd d5d6 5dbd
000000b0: bda1 69bc 53bf 11bd a4d1 2f3c 10c4 dbbc
000000c0: c9ab 9dbc c576 55bd 0fce e1b9 4c9b 833c
000000d0: 7979 84bb 0891 0ebc 4b88 2dbd 797b 03bd
000000e0: eb8e 1abc f22f 04bc 471a bebc 498b cabb
000000f0: ae6d 47bd 4351 8dbc 414a a13c 01b9 cbbb
-0.0051675793 -0.009317562 -0.054462347 -0.0051160296 -0.035046022 -0.08281197 -0.061086923 -0.050715182
-0.019285392 0.021106036 -0.06078253 0.02301841 -0.049021084 0.020929266 -0.04585074 0.003507126
-0.011646218 -0.02124765 -0.04224551 -0.050545685 -0.032019734 0.013077471 -0.019562092 -0.05794722
-0.0019575201 -0.01466459 -0.049142692 -0.04066877 0.028764565 -0.024139164 -0.03870713 -0.03334253
-0.089555606 -0.01357612 -0.04263547 0.0 -0.052937344 -0.07824287 -0.081343316 -0.06943667
-0.038648665 -0.042587176 -0.052435786 -0.054159958 -0.014259753 -0.03558285 0.010731135 -0.026826888
-0.019246953 -0.05211522 -0.0004306887 0.016065262 -0.004042801 -0.00870157 -0.042366307 -0.032100175
-0.009433488 -0.008068072 -0.02320589 -0.006181155 -0.048688583 -0.017250663 0.019688727 -0.0062171225

conv2.lin.weight f4 [64, 64]
00000000: 9e8a acbc 71e0 28be a1a4 89be e80f ca3d
00000010: 4a91 07be 37b2 c23d 2fb7 eebe dc54 11bd
00000020: 06bd b4be 4469 d03c 6ab8 81bd f5a6 e4bd
00000030: f32c 783d 7d62 18be 066d 0f3d 86cb f2bd
00000040: ab58 4b3e 5775 a5bd 2c0a 253e 48a0 0fbe
00000050: 897d 3dbe ff31 ac3b c1c4 5abe 826d 1ebd
00000060: 17bb c13c 4e4e 493e 02ab 3f3e 2714 353e
00000070: 8754 863c d72f 163e 874a 053e 1bfd 45be
00000080: dd5e 883d e6c9 73be 30b5 41be 7ddc 45bb
00000090: e27d 03bd c4e5 153e ee71 8cbd a363 b9bd
000000a0: a479 21be b6be 5a3e d2bc a43c 599e 82bd
000000b0: 9fc3 31bd 4a27 71be 0a42 3bbe 4bf0 c53d
000000c0: cf6f 643d 0473 84bd 15d6 28be 3dc0 c53a
000000d0: 8279 cfbd c201 96bd 9d65 4a3e c9b9 cd3c
000000e0: 108b a33c c4a0 0b3d 7260 403e d7b1 3cbc
000000f0: c009 e3bd ba33 31bc eb10 4b3e 9491 94bd
00000100: 72aa 383c 31eb a6bd ebc7 aabe 8933 773c
00000110: 945c 2c3e c678 273e 1984 6f3e 1660 3f3d
00000120: d807 b1be 47f2 6c3d d187 293e 7072 a5bc
00000130: 728f 313d 6cc0 5a3d 5372 393e a9c8 343d
00000140: 8f22 23bd e665 2e3e 3ee1 37be 702b 1ebe
00000150: b8b2 523d 8060 383d 0ac9 903d 2580 c2bd
00000160: 0347 1dbe 3a0d 7dbc b324 813d bd96 aebb
00000170: 34c7 733e a230 2abe 4dc0 5a3e 1972 66be
00000180: 436c 4e3e 5f22 0d3e d581 24be 06d3 533a
00000190: fb89 2d3d 7f23 f93d f920 68be 2279 59be
000001a0: d195 5ebe 1b97 f8bc 9333 82bd 41f1 6dbd
000001b0: 1bae 513e 16ea 80bd 999e 033c 95d0 613e
000001c0: 763a dbbd b7d0 f63d b06a 843e b9a7 9abe
000001d0: 2312 0cbd c8a9 76be 93b3 ee3d ff1a 97be
000001e0: 761b c83d ba93 a43d 2899 e6bd 90a2 a63e
000001f0: 89ac 21bd 53b0 9ebd 20c3 03be 567b f83d
00000200: 8456 bdbe e762 28be 0a86 ab3e 1fa2 da3e
00000210: c2f8 9d3e 282a 073d 4641 38be c163 45bc
00000220: a115 793d 5906 563e 8458 b8bd 2764 cdbd
00000230: a1ca 973e d79a e7bd 3205 3fbd d179 103e
00000240: d3cd 81bd 0841 5ebe 7fed 83bd af6f 153e
00000250: 10ff 62be 0734 d93d 559a 393d 4933 803e
00000260: f916 2d3e cafa 0d3e eaf9 50bd a2cb 9abe
00000270: 1506 c83d 8b38 423d 7f65 533e bc35 c23d
00000280: 9f85 353e 8106 113d d8d9 1cbe 6473 c1be
00000290: 09fb 913e cc3e 3a3c 8545 373d 1d83 153e
000002a0: a52f 03bd d26d 563d 78c8 2e3e bc8a 00be
000002b0: 4ba4 ed3d 0f47 863e 7872 563e d22b 173e
000002c0: 9952 8e3c 425f 0c3c 8a41 15bd 8c1b cabd
000002d0: c764 4bbe 01fb 0a3f c03f 313d c941 10be
000002e0: 104e 723c 55ce 3d3e 0dc0 59be 86c0 42be
000002f0: 618d fdbc b2cb 5a3e c228 243d 20cd ad3c
00000300: ac19 513d dec6 bf3d d8b9 45be bc55 74bd
00000310: ac91 40be 609d 1bbe c02c 32be 20d0 cabd
00000320: 3ae1 0ebe 5237 bcbd 3b0e b1bc 83be 08be
00000330: 7150 373e 6e72 1ebe 2af9 8f3d b3f4 08be
00000340: cf63 1ebe 5375 46be d10f 313e 949f 2cbd
00000350: 9a1d 5fbe 9c86 203d 403d 4d3c f055 34be
00000360: 013a 4a3e f3ad 08be a408 e0bd e7ce 7ebd
00000370: 9a4a 41be 7bed 593e 1b3c 253e 5463 71bd
00000380: 4045 86bb 3799 3bbe a442 2bbd a736 563e
00000390: 9761 e5bc 91d4 403e ad29 4c3e f049 e2bd
000003a0: 3ac3 b73d 8c44 01be 5e6d 8f3d 3953 533e
000003b0: 896d 02be 4474 553e 8fd6 27be f064 13be
000003c0: 4457 bfbd 7266 dc3d e7e3 dfbd 56b8 eb3d
000003d0: c6eb 4bbe a9c7 d7bd d43d 48be 7ddc 2e3e
000003e0: 0a2d 8c3d 0210 bd3d 0963 1f3e f360 d4bd
000003f0: 8c23 2fbe 3ecc 113e bf07 fbbd bfe0 253e
-0.021062192 -0.16491868 -0.26883414 0.09866315 -0.13239017 0.09506648 -0.46624133 -0.03548132
-0.35300463 0.02544082 -0.06334002 -0.11164657 0.060589742 -0.1488132 0.035016082 -0.11855225
0.19858043 -0.080790214 0.16117162 -0.14025986 -0.18504919 0.0052549834 -0.21364118 -0.038678654
0.023648782 0.19658777 0.18717578 0.17683469 0.016397728 0.14666687 0.13016711 -0.19334833
0.06658719 -0.23807487 -0.18916774 -0.0030191236 -0.032102473 0.1463843 -0.06857668 -0.09052207
-0.15769058 0.21361813 0.020109568 -0.06377859 -0.04339945 -0.23550144 -0.1828691 0.09664973
0.05577069 -0.0646725 -0.16487916 0.0015087199 -0.10130598 -0.07324554 0.19765325 0.025113003
0.019963771 0.034088865 0.18786791 -0.01151701 -0.11085844 -0.010815555 0.19830672 -0.07254329
0.011271106 -0.08150328 -0.3335565 0.0150879705 0.16832191 0.16354665 0.23390235 0.046722494
-0.34576297 0.05784824 0.16555716 -0.02019617 0.04334969 0.053406164 0.18110017 0.044136677
-0.03982788 0.17031059 -0.17957017 -0.15446258 0.05143997 0.045013905 0.07069595 -0.09497098
-0.1535912 -0.015445048 0.06305828 -0.005328028 0.23806459 -0.16620114 0.2136242 -0.22504462
0.20158486 0.13782643 -0.16065152 0.0008080456 0.042367917 0.121649735 -0.22668828 -0.21237615
-0.21736838 -0.03034549 -0.06357493 -0.058091406 0.20476572 -0.06294648 0.008033418 0.22052224
-0.1070451 0.12051528 0.25862646 -0.30206087 -0.034196984 -0.24088204 0.11655345 -0.29512784
0.09770863 0.08035989 -0.11259681 0.325459 -0.039471183 -0.07748475 -0.12867403 0.121328995
-0.3698007 -0.16443978 0.335007 0.42701814 0.3085385 0.032999188 -0.1799365 -0.012047709
0.060811643 0.20900859 -0.09001258 -0.10028868 0.2964678 -0.1130883 -0.046635814 0.1410897
-0.06338086 -0.21704495 -0.06441783 0.14593385 -0.22167611 0.106056266 0.045313198 0.25039127
0.16903295 0.138652 -0.051019587 -0.30233485 0.09766785 0.047417205 0.20644186 0.09482905
0.17726754 0.035406593 -0.15317476 -0.3778335 0.28511837 0.011367511 0.044744033 0.14600797
-0.03202786 0.052350827 0.1706866 -0.12552923 0.11603602 0.26226088 0.20942104 0.1476281
0.01737337 0.008567633 -0.036439456 -0.098685354 -0.19862662 0.5428925 0.043273687 -0.14087595
0.014789119 0.1853574 -0.21264668 -0.19018754 -0.030951204 0.21366766 0.040077932 0.021215975
0.051049873 0.09364103 -0.19309175 -0.059652075 -0.1880557 -0.15196753 -0.17399883 -0.09902978
-0.13953105 -0.09190239 -0.02161323 -0.13353924 0.1790178 -0.15473339 0.07029946 -0.13374595
-0.15467761 -0.19380693 0.1729119 -0.042144373 -0.21788636 0.039190874 0.01252681 -0.17610908
0.19748689 -0.13347606 -0.10939148 -0.062209036 -0.18876114 0.21281998 0.1613621 -0.058932617
-0.0040976107 -0.18320166 -0.0418116 0.20919286 -0.028000636 0.18831088 0.19937773 -0.11049259
0.089727834 -0.12623805 0.07003282 0.20637216 -0.12737097 0.20845133 -0.16390441 -0.14393973
-0.093428165 0.107617274 -0.10932141 0.11509769 -0.19914159 -0.10536129 -0.19554836 0.17076297
0.06844528 0.09231569 0.15565123 -0.10370054 -0.17103404 0.14238068 -0.12257337 0.16199015

conv3.bias f4 [64]
00000000: 20cf 2bbc c931 a03c 9703 18bd 8f0a 113d
00000010: 7909 1cbd 524a 583d de76 da3c 6a68 edbb
00000020: 784a 6b3c ab06 89bb 0dff 813b 8880 24bc
00000030: 0235 02bd a466 493d b979 41bd e375 0b3d
00000040: fd2e 1a3d fb6a 333d 8fba 3bbd df10 503c
00000050: 3a04 d6bb c1ea b53c 3b6d 15bd d50c 2fbd
00000060: d8ed 673c fb37 95bc 7e0f 7fba 9ad6 083d
00000070: 9564 3c3d 4d62 133c 7100 1fbd 377a 27bd
00000080: ab2c d3bc 491d 07bd d5ee 823c 7a5f 39bd
00000090: 07ea 68bd 9fd0 553d 22d2 bd3c 29f9 0c3d
000000a0: bdc5 2abd a9c4 35bd b21d 2a3d 701c ebbb
000000b0: c549 d43c b234 2d3c 281a 303d ce02 7ebb
000000c0: 4a38 6fbc 95e0 eebc 822e 133d 593c 21bb
000000d0: 65b6 fd3c 0563 2d3d 7a84 293d c4dc 783d
000000e0: 1dfd 313a f296 c8bb 3085 3c3c 3a06 bb3c
000000f0: c94e 0b3d 8885 fcbc 1d52 063d 3efe 0e3d
-0.010486394 0.01955499 -0.0371128 0.03541046 -0.03809497 0.052805252 0.026668008 -0.007245113
0.014361016 -0.004181703 0.003967172 -0.01004041 -0.031788833 0.04917015 -0.047235224 0.034047972
0.037642468 0.043803196 -0.045832213 0.012699335 -0.0065312656 0.022206666 -0.036481123 -0.042736847
0.014155827 -0.01821517 -0.00097297865 0.033407785 0.04599436 0.008995605 -0.03881878 -0.040888038
-0.025778135 -0.032986913 0.015983025 -0.04525707 -0.05686381 0.05220091 0.023171488 0.034417305
-0.041692484 -0.044377003 0.041532226 -0.007175021 0.025914082 0.010571646 0.042993695 -0.0038758996
-0.014600823 -0.029159823 0.035933025 -0.002460262 0.030970762 0.04233076 0.041386105 0.060757414
0.0006789731 -0.0061215097 0.011506364 0.022830117 0.034010682 -0.030825391 0.032793153 0.034910433

conv3.lin.weight f4 [64, 64]
00000000: 75bf 37bd a969 153d ce3e 9f3d 8b48 253e
00000010: c9b6 283e d98c 4bbe d24e 0c3e da0a 123e
00000020: 7443 94bd 5919 b43c f40f e33d 7aa8 923e
00000030: b230 903e 6651 af3d 4211 1ebe 803b d3bd
00000040: 18f4 1e3e 250b eabd 333b ad3d 8bb1 623e
00000050: 9579 7bbd 6c72 2f3e a301 ae3d c077 d2bb
00000060: c1cd 5d3e 9386 02be 2875 f6bd cc74 85be
00000070: f7d3 973e a8c0 e63d c18e 003d 9d14 8bbd
00000080: 9746 383d 4719 45be 76bb d2bd 60c5 ac3c
00000090: 6bed 283c 8c4d 57be 87a3 753d 60be 53bd
000000a0: 8474 263e cdf1 acbd 6199 9d3e 6b10 e13d
000000b0: 6ae5 91bc ef8e e0bd 920b b43d 4a97 0fbe
000000c0: 70c7 31be 4cfd 0b3e d02e c3b9 7cf3 843e
000000d0: 43f6 803d c37d ea3d 0f63 d2bc 4f90 6abd
000000e0: 1187 a43b 20fb 50bc fa6f 613c ec83 543d
000000f0: 3bfb aa3a 69db 183e b225 31be 57d5 8ebd
00000100: 11a3 e5bc bda8 e63d f09a 183e 6467 fe3c
00000110: 0803 2fbe 90bc d43c 4d14 ab3d 4269 6dbd
00000120: 4c13 3fbd 3b7d 993b ae45 b4bd 9a1d 883e
00000130: e477 e1bd 14f4 d0bd e38c 35bc a201 a5bd
00000140: 618e 76bc ef70 433e 8432 2dbe 3ef6 4f3d
00000150: f938 b7bd 74bb 20be 158f a63d b0df b7bd
00000160: 9df6 c4bd 441b 9cbd 97e3 63bd 1f84 1e3d
00000170: 8fed bbbd 81d2 cebd 89df 543d 6066 333e
00000180: b6e2 c5bc e2ba 0a3e 94dc ce3c 50ec 34bd
00000190: b830 083e 855f cfbd 2cbd 50bd 5dcc 2d3e
000001a0: c1da 99bd 44a4 013d 8675 973d f459 d1bd
000001b0: 7567 f53d 41cf 88bd 2729 01be b2fe 90bd
000001c0: aeb2 97bd 0404 7a3b 5e59 64be eaf4 b0be
000001d0: 2705 2ebe ea89 b5bd 1beb e6bd ac8a e0bd
000001e0: f664 8abd c1c9 debd 5a3f e53d cb0e d6bd
000001f0: 7d26 bfbc c348 053d bc69 6b3d ffb5 40be
00000200: 74d4 1b3e 15a7 94bd c6c0 8c3d f05f 62be
00000210: 5f5b 93bd 2679 f3bd 5c18 333e 1b77 2c3e
00000220: 528c ad39 996a d3bb 79aa f63d d8f4 e43c
00000230: 0046 06be 6b59 f13d 5c11 093e cad3 efbd
00000240: 39f2 4d3d 8929 10bd c838 113e cb6a d63d
00000250: 0a07 923e 1613 3bbd 7dc9 0f3e bdb5 9e3c
00000260: 4cc4 5b3e 6a16 93bd d6a9 703d 9be3 373d
00000270: 89f3 b03e b2be 2b3d 77c3 5d3e 0ecb 1c3e
00000280: b1ba adbd 365a 1f3e bb74 4e3d 6adc d1bd
00000290: ebd4 0f3e ba52 98be b075 e13e 8820 be3e
000002a0: a0c8 05be 732d fdbe 9924 0fbc eedc 9f3d
000002b0: 5a68 35be 5fbb 27be 6f6d 56be 094e 75be
000002c0: 6c0f 223e 9c48 073e 270d bebe 0e91 bdbe
000002d0: 2ce6 d53d de72 8c3a aa45 143e 3825 3fbe
000002e0: ab8b 1b3d e70e 423e 27f2 2abe b4af 81bd
000002f0: b620 fd3b d5e6 00be 8519 2abe 94cf 563e
00000300: 6a64 e9bc d09c 60bd 9a00 783c 290d 503e
00000310: 2023 be3e 1fb0 343e 619c 223e b619 8fbb
00000320: 510a 1cbe d13f 853c c027 a43d 6d4e e33d
00000330: 588c 653e ad1a 023e 43a2 b4bd e782 c0bc
00000340: c440 f93d 5667 0e3e 9218 73be 3660 d63c
00000350: 35f1 283d 6da7 1b3e 548c c9bd e8d0 61be
00000360: a38e 0bbe 2301 613e f8dd 8dbd 2462 333e
00000370: 93f5 27be af3d 383e becd 14be 4f28 6ebe
00000380: fea8 bc3d 765b a7b9 2e50 453e a662 f33d
00000390: cc40 c13c c75d ff3d 6ada 94be 6a34 f0bb
000003a0: 055e 64bd a8f9 f33c 5ec6 8c3e e3c4 513d
000003b0: 151a 6d3e beca 50be 1cc4 483e 8208 173e
000003c0: 826e 0abe 130c 44be 87a8 a53e 22e6 053f
000003d0: c214 e6bd 9d92 16bd 9aef 1ebe 577e 29be
000003e0: 70bc 8e3d cc70 2dbe fc4c ea3d cb26 603d
000003f0: b331 6ebd cc8f 153e 9f00 273e dcd6 08bd
-0.044860322 0.03647772 0.07775651 0.16140954 0.16475977 -0.19877948 0.13701943 0.14261952
-0.07239428 0.021984743 0.11087027 0.28644162 0.28162152 0.085604474 -0.15436271 -0.10314083
0.15522802 -0.11427907 0.08458557 0.2213804 -0.061395247 0.17133492 0.08496406 -0.0064229667
0.2166052 -0.12746648 -0.120340645 -0.2606567 0.29653904 0.11267215 0.03138614 -0.06791041
0.044989195 -0.19247924 -0.102896616 0.02109021 0.010310511 -0.21025676 0.059970405 -0.051695228
0.16255385 -0.08444557 0.3078108 0.109894596 -0.017809588 -0.109647624 0.08791269 -0.14022556
-0.17361236 0.13670844 -0.00037228176 0.25967014 0.06296971 0.114497684 -0.025682 -0.05726653
0.005020984 -0.012755185 0.013759607 0.051883623 0.0013044843 0.14927448 -0.17299536 -0.06974285
-0.028031858 0.11262653 0.14902854 0.03105516 -0.17091 0.02596882 0.083534814 -0.05796171
-0.046649262 0.004684118 -0.08802353 0.26585084 -0.110091954 -0.10202804 -0.011080953 -0.08056952
-0.015048594 0.1908605 -0.16913801 0.050771944 -0.089464135 -0.15696508 0.081327595 -0.08978212
-0.0961735 -0.07622388 -0.05563697 0.03870022 -0.0917617 -0.10098744 0.051970992 0.17519522
-0.024155956 0.13547853 0.025251664 -0.044170678 0.13299835 -0.10125641 -0.05096166 0.1697249
-0.07512427 0.031650797 0.07395463 -0.10222235 0.119826235 -0.066801555 -0.12613355 -0.07079829
-0.07407127 0.0038149366 -0.22299716 -0.34561855 -0.16994153 -0.08864196 -0.112753116 -0.109639496
-0.06757538 -0.10878325 0.11193724 -0.1045204 -0.023333782 0.032540094 0.057473883 -0.18819426
0.15217763 -0.07258431 0.06872706 -0.2210691 -0.07195162 -0.118883416 0.17489761 0.1684231
0.00033101678 -0.0064519164 0.12044234 0.027948782 -0.1311264 0.11784633 0.13385528 -0.117103174
0.05027983 -0.03519586 0.14181817 0.10469588 0.28520995 -0.0456725 0.14041705 0.019373769
0.214616 -0.071820095 0.05875572 0.044894796 0.34560803 0.041929908 0.21656595 0.15311834
-0.08482874 0.15561756 0.05040429 -0.10247119 0.14046066 -0.29750615 0.440351 0.37134194
-0.13064814 -0.49448738 -0.008736753 0.07805811 -0.17715588 -0.1638007 -0.20940183 -0.2395555
0.15826195 0.13211292 -0.3711941 -0.3702473 0.104442924 0.0010715385 0.144797 -0.18666542
0.037974995 0.18950997 -0.16693936 -0.06332341 0.0077248467 -0.12588055 -0.16611297 0.20977622
-0.028490264 -0.054837048 0.015136862 0.2031752 0.37136173 0.1764531 0.15879966 -0.0043670787
-0.1523831 0.016265782 0.08015394 0.11098943 0.22416818 0.12705489 -0.088200115 -0.02349992
0.12170556 0.13906607 -0.23739842 0.026168924 0.041245658 0.15200587 -0.098412186 -0.22052348
-0.1362863 0.2197309 -0.06927103 0.17517906 -0.16402273 0.1799228 -0.1453161 -0.23257564
0.0921192 -0.00031920866 0.19268867 0.1188405 0.023590468 0.124690585 -0.29072887 -0.007330467
-0.055753727 0.029782131 0.27495092 0.051213156 0.23154481 -0.2038984 0.1960606 0.14749339
-0.13518718 -0.19145231 0.3235514 0.5230428 -0.11234428 -0.036760915 -0.15521088 -0.16552101
0.06969535 -0.1693756 0.11440465 0.054724496 -0.058152866 0.14605635 0.1630883 -0.03340803

fc1.weight f4 [256, 64]
00000000: 2b4b 0e3e d7ad b23b 7c54 d33d f047 ddbc
00000010: 2b7a eebc 5728 e5bd 0c44 d8bd a563 16be
00000020: ef3e a83d 3e14 3a3d 74bf f43d 5a47 703e
00000030: 8044 cd3d 4b0f 7cbe 3ad0 973d 0dd5 8fbd
00000040: 3f46 42bd ca89 dc3c 38a0 993d 65ad 0ebd
00000050: 4c9b 9abc c651 93bb 23dd 5c3e 3de0 a43d
00000060: 2351 85bc 214e 12be 213e 0abe aaa5 27be
00000070: eb76 d03c fafe ba3c ae29 93bd 6827 033d
00000080: 638e de3a 2282 6d3e 0ed8 50be 6a5a 943d
00000090: 95fe 803d 3fbd 463d b359 e1bc e692 d0bd
000000a0: ed63 843e c679 dc3d 6b4f 393c af08 a3bd
000000b0: 6ba7 0b3d 0a62 05bd 18b4 35bd 9227 4dbe
000000c0: c472 7abd 74b8 9d3d 4f26 263d a305 553d
000000d0: 3a16 db3d 0adb 1fbe 8dbd 15bc 5bab a23c
000000e0: 7dd4 9abb f3be 643e 37f9 3d3c 868c 01be
000000f0: dc9a 243e 9a89 013e 51c7 f3bd a8af 4dbd
00000100: 29a6 c3bd a5c3 8739 ab72 a8bd 3d44 ad3b
00000110: 1c47 ba3c 521f 433e 3c51 343c 2d9e 7bbd
00000120: 9117 323d 2f96 37be 6fe2 0b3e 9440 0b3e
00000130: bba2 36be 24f0 8cbd 890a ebbd b609 97bc
00000140: 0d92 f5bd f508 f6bd 9c23 413a 3a13 903e
00000150: 70bf 4dbc d06f fdbd 5dbb 243e 9fe6 a9bd
00000160: 45b2 4abd 10a6 28be c69f 8739 74eb 273c
00000170: 4e75 513d 3661 813e 9a03 7c3d eb13 2dbc
00000180: 42e9 aabd c624 153e 18f3 14be 0a99 2cbe
00000190: 1fdd e0bd 274c ae3d 5f69 93bd 0377 9d3d
000001a0: 8a89 3f3d 2b1d 28be 8b71 4bbe 8049 73be
000001b0: 39f8 5d3e f49a 55bb 6a47 543d fdbb 0cbe
000001c0: 8dc8 aabc 93aa b03d 9266 573e 418f 0cbe
000001d0: 860f fe3d 1f6f 9f3d c4b6 0d3e 895a 5dbc
000001e0: 4d0c e4bd d8a7 093e 7864 96bc 8b2a b1bd
000001f0: c331 263e 0d0e fa3d dd63 c93c bfa8 1dbc
00000200: d060 27bd 554e 513c f3da 7dbd 7dda 9e3d
00000210: 9e86 fcbd 479d 04be fba4 bc3c 37cf f1bd
00000220: ef99 5a3e 2ae9 d8bc 09ef 433e 64d8 793e
00000230: b070 6fbd c990 eb3b 20c1 283d a8cd 3a3d
00000240: c467 c93d c4c3 a4bd 0439 193e d170 143e
00000250: 22ef 553d 4681 b23d 1d94 243d 3a0e aabd
00000260: 900d c6bd 90b3 91bd 3fbb b7bd ee11 a73d
00000270: 937c e4bc 962b 31bd 6283 efbd 9e80 07bd
00000280: caa9 193d 5ff7 083e cd2a 67be ea79 ebbc
00000290: ce9d 453d 0244 cabd f277 28bb 2ced 623c
000002a0: b6b9 033e 5cd4 0a3d 9f03 dfbb d681 7abe
000002b0: cc43 8bbd 0838 983d e5f3 b63c 9776 cfbe
000002c0: a345 00be 894d 6cba 0a84 833d ac50 a9bc
000002d0: 7a2b 1f3d ba76 1ebe d135 f63b f5ad 283b
000002e0: 8419 9a3c 7f8e 823e 1f57 f73d fd71 58be
000002f0: 46f1 3c3d ee4d b13d 95a6 8f3c 24d1 ab3d
00000300: 5623 c73c 9d41 2a3d 0865 223d a8c1 9fbd
00000310: dcbc 4a3e 9a7f b6bd 4393 42be 6815 223e
00000320: 362d 59be b2c3 87bc 685e 37be 3e1d 2a3b
00000330: 5440 593e 7d79 5e3d 5ec2 6b3d fcbf c9bd
00000340: 423a 73be 04f0 f4bd f818 963d dc6c 6abe
00000350: 1c0c 0cbe 739d cf3d 87be b03d 07b9 573e
00000360: c0ff 143e f69a 833e dd30 3a3d e2bc a2bd
00000370: 3531 ccbd 4306 21be bc60 b43d ddd7 3f3d
00000380: 7a90 48bd e352 193c 9cc6 523c 7144 243e
00000390: e552 3b3e e069 043e 081f 8f3b a226 4dbd
000003a0: adb0 02be ffdb dd3d 41f0 113d 0e09 48bd
000003b0: f555 45be 03a1 103c 60d2 46be 8b75 043e
000003c0: 0f2c 2d3d 9535 113e cf36 763c 3c32 1e3d
000003d0: abb9 fdbd 506e 283d 3b94 92be 1cd5 70be
000003e0: 6874 3c3e d184 a5bd 9db7 0fbe efb9 2ebe
000003f0: f608 8cbe 89d6 ef3d 2b1e 15bd 7742 d7bc
0.13895862 0.005452852 0.103188485 -0.027011842 -0.029110989 -0.11189335 -0.10559854 -0.14686449
0.08215129 0.04542946 0.11950579 0.23464718 0.10022831 -0.24615209 0.07412763 -0.07023058
-0.047430273 0.026921172 0.075012624 -0.03483333 -0.01887288 -0.004495832 0.21568732 0.080505826
-0.01627404 -0.14287616 -0.13500263 -0.1637179 0.02544733 0.02282666 -0.07185684 0.032020003
0.001697969 0.23194173 -0.20394918 0.072438076 0.06298558 0.048520323 -0.027508592 -0.10184269
0.25857487 0.10765414 0.011310439 -0.07960641 0.03409521 -0.0325642 -0.044361204 -0.20034626
-0.061144605 0.07701197 0.040563878 0.05200733 0.10697599 -0.156109 -0.009139431 0.0198571
-0.0047250376 0.22338466 0.011595062 -0.12651262 0.16074699 0.12650147 -0.11903251 -0.050216347
-0.09553177 0.00025894973 -0.08224996 0.0052876757 0.022738986 0.19054917 0.011005696 -0.061430145
0.043479506 -0.17928384 0.13660596 0.13598853 -0.17835514 -0.06881741 -0.11476619 -0.018437248
-0.119907476 -0.12013427 0.0007367672 0.2813967 -0.012557849 -0.12374842 0.16087098 -0.082959406
-0.049486417 -0.16469598 0.00025868247 0.0102490075 0.05113726 0.2526948 0.061526872 -0.010563831
-0.08345272 0.14564809 -0.14545858 -0.16855255 -0.109796755 0.08510619 -0.07197832 0.07688715
0.046762027 -0.16417377 -0.19867532 -0.23758507 0.2167672 -0.003259358 0.05182592 -0.13743587
-0.020847583 0.086262845 0.21035221 -0.13726522 0.124053046 0.077848665 0.13839251 -0.013510355
-0.11135159 0.13442934 -0.018358454 -0.086506926 0.1622992 0.12209711 0.024583751 -0.009622752
-0.040863812 0.0127750235 -0.061976384 0.07756517 -0.12330364 -0.12950622 0.023027888 -0.11807101
0.21347784 -0.026478369 0.19134153 0.24398953 -0.058457077 0.0071888906 0.041199803 0.045606285
0.09834245 -0.08045152 0.14963156 0.14496161 0.052230008 0.08716063 0.040180314 -0.08303495
-0.096705556 -0.07114327 -0.08971261 0.08157717 -0.027891433 -0.043254457 -0.11694981 -0.033081643
0.03751544 0.13375615 -0.22574921 -0.028744657 0.048246197 -0.09876253 -0.0025706259 0.0138504915
0.12863812 0.033893928 -0.0068058516 -0.24463591 -0.068000406 0.07432562 0.022333095 -0.40520164
-0.12526564 -0.0009014239 0.06421669 -0.02066835 0.03885982 -0.15474978 0.0075137396 0.0025738452
0.018810995 0.2549934 0.12077164 -0.21137233 0.046128534 0.08657442 0.017535487 0.083895
0.024308842 0.04156648 0.039647132 -0.07800609 0.19798607 -0.08911057 -0.19001488 0.15828478
-0.21208653 -0.016572807 -0.17907107 0.002595737 0.21215945 0.05431508 0.05755841 -0.09851071
-0.23752692 -0.11959842 0.07328981 -0.22893089 -0.13676494 0.10137453 0.0863009 0.21066676
0.14550686 0.25704163 0.045456756 -0.07946183 -0.09970323 -0.15725045 0.08807513 0.046836723
-0.04896591 0.009358141 0.012864735 0.16041733 0.1829334 0.12931013 0.004367713 -0.05008567
-0.12762709 0.108329765 0.035629515 -0.04883676 -0.19271071 0.008827451 -0.19416189 0.12935464
0.042278346 0.14180596 0.015027716 0.038622126 -0.12388929 0.041120827 -0.28628716 -0.23518795
0.1840378 -0.08081973 -0.14034887 -0.17063116 -0.27350587 0.11710841 -0.036405724 -0.02627681

fc1.bias f4 [256]
00000000: 6540 f73d 508c a13d 65c1 2b3c 965b e93c
00000010: 2c37 e9bd c829 283e e0b1 d9bd 584b b03d
00000020: 64d4 a73d 598c f73d dcb3 523d ac5d b0bd
00000030: ca25 173d 7e2d 153d d1e5 153e 1b7f 813c
00000040: d5e5 8ebd fcc9 3b3d 25fa 3abc 9f6c a43d
00000050: 5aa3 25be 03b3 c03d ef64 d73d b20a aabd
00000060: d7de 023e fc6d 1f3d eae4 823d c173 593c
00000070: b684 f2bd cea8 5b3c 0c83 bdbd 4691 22bd
00000080: 5f5a 173e 859b 48be a540 703d 162c 083d
00000090: 78ca a13d 9a9d 573d 49e1 3cbe ae9c 43bd
000000a0: 8c15 1dbe 22cc 25be f6d6 03be 8e2e c93d
000000b0: 72c6 cbbd 5180 64bd 672b 0d3c 022f cd3d
000000c0: 27ae 723d 6a8e ffbd 8118 cc3d 70ec e13d
000000d0: 05d0 8c3d 1e21 083d c88e 183e 5640 debd
000000e0: 45ac 09be 07f7 673d 70ad 0f3e a103 963d
000000f0: 50e7 93bd 30a8 e7bd 57bc e73d e8ef 9dbd
00000100: 560a a73d c3c5 bb3d c0cf 9e3d 5c0b 7c3d
00000110: b0ec e53c f5d3 b13d f12f f73c a670 303c
00000120: ec0f 35bd 99d4 583d 22be bcbd 2e00 283d
00000130: f906 8a3d 7d81 63bd 5c14 a13d a4db e53c
00000140: 33e6 1c3d 51ba 773d 0ce1 1a3e 070c e73d
00000150: 543d cd3d 57a9 473d 5b14 cf3c 49c2 f73b
00000160: 1667 103d 33e8 8f3c 5897 7cbd ca99 d9bd
00000170: f172 ad3c 55d5 a33d 44a4 bb3d 6d9e ab3b
00000180: d732 dd3d 9d8c d4bd fb74 643c a693 3c3d
00000190: f231 0b3d d820 d2bd c263 ef3c a31a b03d
000001a0: 7832 8e3c fad0 e8bd d8ea e33d 2c21 f03d
000001b0: cb23 6f3c eea9 933d 3556 50bd 5c85 abbd
000001c0: 54cf 893d fc92 cf3b 16c6 5b3d f004 4e3d
000001d0: 22ac 6b3d 131f ad3c 08b9 b5bd 526d c93d
000001e0: 612b 483d 29d7 0c3e f06c 24bd 4667 c93d
000001f0: eef0 483d 0b46 503d 532d 263c 4f96 943d
00000200: 0fb0 af3d fb33 f23b 3234 82bd 6e10 52be
00000210: 16bb 0cbe a45f 203d abff d43c ff02 e23b
00000220: 389f afbd 55b1 35be 73ff 30be 6341 853d
00000230: eb2e e5bc 8a8a 5c3d edb8 a33c dbef 38be
00000240: 60e1 4fbd 2825 3d3c 8a9b be3b ecbe 9a3d
00000250: 7953 513d 4485 f83c b999 9a3c 5bee 1e3d
00000260: d5c7 cbbd b6ed da3d daf5 b03c 8a01 5e3d
00000270: 75fc de3d a4bf 08bd 0e1e 173d 74e7 053c
00000280: 6042 0e3c 0be4 a53d a7f0 2d3d 7057 c83d
00000290: 8a54 643c 805e c33c e026 46be f7f2 bd3d
000002a0: b724 963d 5222 0f3d dee3 b93d cdd9 b03d
000002b0: c589 0bbe 99dd 0a3e 85cd 913c 4ac8 e13d
000002c0: c488 db3c 839b 153c bf67 003e 4ba9 d5bd
000002d0: 2e8a e13c f802 793d aa6b 023e 8c67 d2bd
000002e0: f444 2abd 802c 8b3d 17e5 473d bd8d 8dbd
000002f0: d03c d2bd b622 893d 2ca2 7ebe e9e9 bd3d
00000300: 8925 0b3d af56 81bd 2412 fdbd 3809 38bd
00000310: 8243 c63d 7728 f23b 1915 ccbd 1b36 fabc
00000320: a70c fbbd 2679 bbbd c2ae 223d 9a41 b33d
00000330: e522 783d d653 8d3d 8baa 853d df9d 9a3d
00000340: 93d3 7a3d 8e9d ff3d 2d17 fcbd 38ad 853c
00000350: 2fc9 e33d 1efd 333d 249e 4cbd 5547 5a3d
00000360: 5745 e23c 70d7 18be ac6f 0f3e 6257 aebd
00000370: 082d 843c ab72 dc3c dde0 6a3d c67d 4e3d
00000380: 8405 c8bd 591f 08bd da9e 9cbc ddc2 383d
00000390: feb7 1c3d 14e7 94bd 0082 78bd d893 86bd
000003a0: d5d7 a33b bb84 593d ba2c babd e751 b0bd
000003b0: 7951 a8bd 4cf2 123d fb40 3dbc 8844 fc3d
000003c0: f8fd 573d 42b8 2e3d 3b7f 90bd f5aa 80bd
000003d0: cc0f 973d 525c 26be ac22 aabd ab12 d33d
000003e0: 4ef3 393d 063e 613d e6ec da3c 47a8 bc3d
000003f0: 831a fb3d e3b2 993c 57fa e83d 4884 f53d
0.12072829 0.078880906 0.010483121 0.028486054 -0.11387476 0.16422188 -0.1062963 0.08608121
0.08194807 0.12087316 0.05144106 -0.086116165 0.036901273 0.036420338 0.14638449 0.015807679
-0.06977431 0.045846924 -0.011412178 0.0802853 -0.16175595 0.09409144 0.105172984 -0.08302821
0.12780319 0.03892325 0.06391318 0.013272227 -0.11841719 0.013406945 -0.09253511 -0.039689325
0.14780568 -0.19590576 0.0586554 0.03324517 0.07899946 0.052640535 -0.18445314 -0.047756843
-0.1534025 -0.16191152 -0.1287497 0.09823333 -0.0994996 -0.055786435 0.008616305 0.10018732
0.059248116 -0.12478335 0.09965611 0.11031425 0.06875614 0.033234708 0.14898217 -0.10852115
-0.13444622 0.056632068 0.14031005 0.07324911 -0.07221854 -0.11311376 0.1131522 -0.07711774
0.08156268 0.091685794 0.07754469 0.06153427 0.028066963 0.08683006 0.030174227 0.010769045
-0.044204637 0.052937124 -0.092159525 0.041015796 0.06739611 -0.05554341 0.07865211 0.028058834
0.038305473 0.06048042 0.15124911 0.11281591 0.10021463 0.04874548 0.025278261 0.0075610024
0.03525456 0.017566776 -0.06166777 -0.10625036 0.021172972 0.07999674 0.091621906 0.0052373917
0.108007126 -0.10378382 0.013943906 0.046039246 0.03398318 -0.10260171 0.029222373 0.085988306
0.01735805 -0.11367984 0.11128777 0.11725077 0.014595936 0.07210146 -0.050863463 -0.08375046
0.06728998 0.0063346606 0.053655706 0.050297678 0.057537206 0.021132981 -0.088731825 0.09835304
0.048869494 0.13753952 -0.040142953 0.09834151 0.049057893 0.05084805 0.010142642 0.072552316
0.085785024 0.0073914505 -0.06357612 -0.2051408 -0.13743243 0.03915371 0.026000818 0.00689733
-0.085752904 -0.17743428 -0.17284946 0.06506612 -0.027976474 0.05384306 0.01998564 -0.18060248
-0.050752044 0.011544503 0.0058168815 0.07555947 0.051104996 0.030336984 0.018872129 0.038801532
-0.09950224 0.10689871 0.021601606 0.054200687 0.10887996 -0.033385888 0.036893897 0.0081728585
0.008682817 0.08100136 0.042465832 0.097823024 0.013936171 0.023848772 -0.19350767 0.092748575
0.073312216 0.03494484 0.09076665 0.08635292 -0.13626774 0.13561095 0.017798195 0.1102453
0.026798613 0.009131315 0.12539576 -0.10432681 0.02753171 0.060793847 0.12736383 -0.10273656
-0.041569665 0.06795597 0.04880246 -0.069118 -0.10265505 0.06696074 -0.24866551 0.092731304
0.033971343 -0.06315362 -0.12356976 -0.044930667 0.09680845 0.0073900777 -0.099649616 -0.030543378
-0.122582726 -0.091539666 0.039717443 0.08752747 0.060580153 0.06900756 0.06526669 0.07549643
0.06123693 0.12481223 -0.12309108 0.016317949 0.11122357 0.043942563 -0.049955502 0.053290684
0.027620954 -0.14925933 0.14007443 -0.08512761 0.016134754 0.026910147 0.057343353 0.050412916
-0.09766677 -0.03323302 -0.019118715 0.04510771 0.038261406 -0.07270637 -0.060670853 -0.06571168
0.0050000944 0.053105097 -0.09090562 -0.08609372 -0.08218665 0.035875604 -0.011551137 0.12317759
0.052732438 0.04265619 -0.07055517 -0.062826075 0.0737606 -0.16246155 -0.083073944 0.10306295
0.04539805 0.05499079 0.02672429 0.09211784 0.12260916 0.018762058 0.113758735 0.11988121

fc2.weight f4 [128, 256]
00000000: 5fc9 2dbd 5273 7dbd 7bf3 55bd 009c 05ba
00000010: a09b 35bb 2df6 f23c a088 b9bc 53a8 ef3b
00000020: b6a8 493d 7894 d13c daa4 5fbd c007 4b3b
00000030: 2965 a73c 4077 8bbc 509c d7bc 4540 533d
00000040: 8c99 5bbd abb5 9c3c 3bec c9bc b076 853b
00000050: 7847 7fbd b7f0 a53c c0ec c0bb b6f7 33bd
00000060: 73f4 aebc a8ba f63c f15a 083d 16d8 3d3d
00000070: 9e7a 0ebd f830 a23c a070 60bd 0c17 5e3d
00000080: 74bf ff3b c873 3bbc 6213 0ebb 911b 483a
00000090: 5a06 eebc a604 53bd ca7b 01bd 3a99 42bd
000000a0: 385d febc c0e4 84bc 14db 9dbc 9dfa 1c3c
000000b0: 8e12 3bbd 504f 1cbd 74af 75bd 0775 c7bc
000000c0: 7da1 23bd 5c90 503d fd7c aabc 60cf 3e3d
000000d0: 6edc 373d aa52 52bd 078f 503d 1e84 5ebd
000000e0: 78f6 a73c 8938 aebc a7a2 a5bb 37f7 423d
000000f0: 38b4 10bd 0cb4 613d a77d 08bd d4b5 643d
00000100: 6ee8 013d 9240 77bd f4d1 5abc 6063 573c
00000110: 04e2 4e3d 525c 76bd 80d1 113c b8ce ed3c
00000120: 44d1 683d 840e 043d c21c 48bd 600d 12bc
00000130: a1fb 263d 8e8e 55bd 127c 073c 988a ef3c
00000140: ce4a 513d 0ef1 6e3d c9f4 f83c fc55 c33b
00000150: 5c3b 4abd f604 a53b 5454 f3bc 2ba5 ed3c
00000160: 009a c83a 4d86 e63c 7025 c53c 6816 9f3c
00000170: 74ef a2bc c92c 8b3c f0c9 93bc b8b6 723c
00000180: 5727 21bd 79ee 5f3d 4dad 28bd acdf fe3b
00000190: 90cc 38bc 7c94 a0bc e4ac eebc 7043 0bbd
000001a0: 3e2d c0bb 44b7 1a3d d4ca 25bd e5fc c4bc
000001b0: 02f3 2ebd 9069 5abd 18e8 06bd 280d f3bc
000001c0: d02c 0c3c ae35 0a3d 1331 82bd 61d4 923c
000001d0: 7323 d8bc a45d a93c e8f0 09bd ec1c 70bd
000001e0: 159f 973c fc90 2fbd 54ef dbbc 4da3 053d
000001f0: ac48 2a3d db91 c9bc bc94 6f3d a523 fabc
00000200: efc9 13bd 0821 2dbc 1e08 1dbd b8fd e33c
00000210: 84a9 a43c 2803 1ebd 8845 29bd 5697 17bd
00000220: 6038 3ebd aafe 1bbd 6cfc 75bd 9a24 db3c
00000230: c0de b03b 8d41 ed3a 73a8 03bd 36c1 473d
00000240: 7ce1 0e3d 10d3 38bc b95a bd3c 87f5 f7bc
00000250: 773c 11bc 0a68 673b 92ad 08bd 786c 11bd
00000260: 7ce8 b9bc 5f54 683c 90b4 38bc 603a 00bd
00000270: 9287 643d bc73 953c 7432 89bd 41ae 2e3c
00000280: 1348 d03c 82c9 2fbd 9a4d 4a3d cf8e bfbc
00000290: a467 0d3d b3ab 143d f877 f7bc 724a 80bd
000002a0: 75cd 80bd d0eb 573c 4f6d 9dbb 2519 67bc
000002b0: a499 fc3c 3367 2b3d e1ad 80bc 7392 423c
000002c0: c9e7 0c3d 0d9d 383d 0655 413c 1854 453c
000002d0: 408b 12bb b961 1abb 01a5 833c 70e0 e83c
000002e0: a237 483d 7807 6bbd ad47 d53c 6aea 55bd
000002f0: 207b 17bd a674 1b3d 64d4 7a3d 9e6d 3ebd
00000300: 0d06 b3bc 5048 29bd cc66 94bc 60c7 d63b
00000310: b609 223d f2fd 18bd e072 293d 14b9 e73c
00000320: 0e71 613d c434 f33c ac69 34bd 4a09 a73c
00000330: 3939 e2bc e015 0bbd b7cb 7ebd 3356 543d
00000340: eedf 8f3c 3c91 9cbb 2289 64bc a75c 523d
00000350: 001b 473c b438 d2bc c0ff 37bb eae2 56bd
00000360: 30d9 813b bc18 0b3d e908 b8b9 4c6f 6abd
00000370: 0865 18bc fd72 0abd ad8c 2e3d 3aec 12bd
00000380: b04a 8fbb f849 d5bc 90e9 92bc 8e88 713d
00000390: d8f7 32bd 1c7c 373d 1085 683c 2c0b 9dbc
000003a0: 36b0 35bd b007 583d d012 2abd c021 c7ba
000003b0: fc4d a63c e85c 00bc af0f 8ebb 8c91 813c
000003c0: b4d6 36bd 440a a7bc 5074 f83c 3c90 cbbc
000003d0: e8b0 1d3d a834 4dbd 8c4a 0cbd de83 083d
000003e0: c940 54bd f14c e7bc a15b 273d f84c 54bc
000003f0: 9c53 243d 07ad 753b 8013 21bd 5395 58bd
-0.04242837 -0.061877556 -0.052234154 -0.0005096793 -0.0027711168 0.029658401 -0.022648156 0.007313767
0.04923316 0.02558349 -0.054600574 0.003097996 0.02043398 -0.017024636 -0.026319653 0.051574964
-0.05361323 0.019129595 -0.024648776 0.0040729865 -0.062324017 0.020256383 -0.005887598 -0.043937407
-0.021356797 0.030118302 0.033289853 0.046348654 -0.034784906 0.01979874 -0.054794908 0.054221198
0.0078048054 -0.011441179 -0.0021679034 0.0007633502 -0.029055763 -0.051518105 -0.031612195 -0.04750941
-0.03105031 -0.016222358 -0.019269504 0.009581235 -0.045671992 -0.038161576 -0.05998178 -0.024347795
-0.03994893 0.05091892 -0.020811552 0.046584487 0.044887953 -0.051348366 0.05091765 -0.054325216
0.020503268 -0.021267192 -0.00505479 0.047599044 -0.03532812 0.055103347 -0.033322956 0.055837467
0.031715803 -0.060364313 -0.013355721 0.013146251 0.050508514 -0.060146637 0.008900046 0.029029235
0.056840196 0.032240406 -0.04885555 -0.008914322 0.040767316 -0.052137904 0.008269327 0.029240891
0.05109673 0.058335356 0.03039016 0.005961178 -0.049373016 0.005035992 -0.029703297 0.029009422
0.0015304685 0.028140211 0.024065703 0.019419864 -0.01988957 0.016989129 -0.018040627 0.014814071
-0.039344158 0.054670785 -0.041180898 0.0077781286 -0.01127924 -0.019602053 -0.029135175 -0.03399986
-0.0058647683 0.037772432 -0.040476635 -0.02404637 -0.04271222 -0.05332333 -0.032936186 -0.02966936
0.008555606 0.0337426 -0.063570164 0.017923536 -0.026384091 0.020674534 -0.03367701 -0.058621332
0.018508473 -0.042862877 -0.026847519 0.03262644 0.04157321 -0.024605682 0.058491454 -0.030534575
-0.03608125 -0.010566957 -0.03833782 0.027830943 0.020100363 -0.03857723 -0.041326076 -0.03700956
-0.046440482 -0.038084663 -0.06005518 0.026750851 0.0053976476 0.0018101201 -0.032143068 0.048768245
0.034883007 -0.01128079 0.023114549 -0.030268444 -0.008864514 0.0035309815 -0.033368655 -0.035503834
-0.022693865 0.014180272 -0.011273518 -0.03130567 0.055793352 0.018243663 -0.06699076 0.010661663
0.025424993 -0.042916782 0.049390413 -0.023383526 0.034522668 0.036296558 -0.030208573 -0.06264199
-0.06289188 0.013178781 -0.0048042904 -0.014105116 0.03083498 0.041846465 -0.015707912 0.0118757365
0.034400735 0.04507165 0.011800056 0.012043975 -0.0022360831 -0.0023556782 0.01606989 0.028427333
0.04888118 -0.05738017 0.026035154 -0.052225508 -0.036982656 0.03795304 0.061237708 -0.046491258
-0.021853471 -0.04132873 -0.018115424 0.006554529 0.039560042 -0.037351556 0.04136932 0.028286494
0.055039458 0.029688247 -0.04404609 0.020390172 -0.027615177 -0.03395641 -0.062205996 0.05184002
0.017562833 -0.0047780555 -0.013948711 0.05135789 0.012152433 -0.025661804 -0.0028076023 -0.052462496
0.0039626583 0.033959135 -0.00035101853 -0.057235047 -0.0093014315 -0.033801068 0.042614628 -0.035869814
-0.004372917 -0.026036248 -0.017933637 0.05896812 -0.043693393 0.044796094 0.014191881 -0.019170366
-0.0443575 0.052741706 -0.041521847 -0.0015192553 0.020300858 -0.007834651 -0.0043353657 0.015816472
-0.04463835 -0.020390637 0.0303289 -0.02484905 0.03849879 -0.050099045 -0.03425078 0.033328883
-0.051819596 -0.02823493 0.04085887 -0.012957804 0.0401188 0.0037487166 -0.039325237 -0.05287678

fc2.bias f4 [128]
00000000: 0aa2 debc 2810 3d3d c337 953c c037 a53d
00000010: 4c4d aabd 3d9d 723d 3982 063d 8a67 7abc
00000020: 3700 8cbc aeca a83d aabc a53c d5e8 36ba
00000030: a6d2 f33c 73d0 9c3d 8e30 a4bd 776d 4e3d
00000040: 6c1f adbb cd80 b3bd 4520 82bd 02c8 cd3d
00000050: 5202 08bc 46a7 ac3d 683f 80bd a1ca 59bd
00000060: 75dd b43d 267f e53c c084 6bbb 04fe f3bc
00000070: b112 debd fa7e 63bd 7930 95bd dce5 6cbd
00000080: edfd ed3c 648e 87bd 76db 29bd 94af 973d
00000090: a3d3 2cbd c131 f8bc 4cdb aabc 5f8f 923c
000000a0: 3131 603d de66 63bd 5bdc b43c db48 e0bc
000000b0: eb7f e5bc 68df a83c 0d7e 903c e85c a3bb
000000c0: 86de b43d c99b dd3c 89e0 9dba 933a 243d
000000d0: a69f f03c fc9d a43d fd10 1f3d bff6 153d
000000e0: ecaa 873d f020 b03d 53ac b43c df5a 763b
000000f0: ae78 46bd 628a 92bc daaa 17bd b6bf b1bb
00000100: 013a dfbd dd72 043d e36b b63d fd7f cfbc
00000110: 7e03 80bd 305b 2a3d 52ff 313d d92d 043e
00000120: 0bea 343d c94a 743c 25c0 103d e7ee e03c
00000130: a829 c43d 587e 03bd 8d12 ea3c 9d34 d83c
00000140: 3e0c 953d 5b94 82bd 1a0e 6a3d 6733 c23c
00000150: f881 7dbd 7f35 433d 123f 89bd ff63 22bd
00000160: 908f 91bc 20d5 f83c 1411 873d c8f6 363d
00000170: 0ab1 88bc c0db be3d 66fe 123d 6e8e e23c
00000180: e8f2 97bd e867 1cbd 87ac 633d c87f 78bd
00000190: e90e a73d 0d06 853d c853 1bbd 0bd3 2f3d
000001a0: c6fd 13bd da33 06bb cd4c bfbb 1736 e43c
000001b0: 145c 53bd ba1f ed3c 6eee d8bc 6b8d fb3d
000001c0: 1036 313d d810 723d 5854 923c 3738 4e3d
000001d0: 4510 9e3d bb60 6d3d c489 55bd d2d9 973d
000001e0: b712 62bc 3b4a 663c 914c c53b a62c 633c
000001f0: b86b 8d3d 3ca3 4d3c 3cd7 403d fc39 a7bc
-0.027176876 0.046157986 0.018215066 0.08067274 -0.083155245 0.059231985 0.032839034 -0.015283475
-0.017089946 0.08241783 0.020231564 -0.00069774437 0.029763531 0.07656946 -0.080170736 0.050397363
-0.005283287 -0.08764801 -0.06353811 0.10047914 -0.008301334 0.084303424 -0.06262094 -0.053171758
0.08831302 0.02801473 -0.003593728 -0.02978421 -0.10843409 -0.055541016 -0.07284636 -0.0578364
0.029051745 -0.06618956 -0.04146906 0.07406536 -0.04219402 -0.030297162 -0.020856522 0.01789063
0.054734413 -0.055518024 0.02207773 -0.02737849 -0.028015098 0.02061434 0.01763823 -0.0049854405
0.088315055 0.027051823 -0.0012045066 0.040094923 0.029373001 0.08037946 0.03883456 0.03661227
0.06624398 0.08600032 0.022054827 0.0037590784 -0.048454933 -0.017888252 -0.03702817 -0.005424465
-0.10899735 0.032336105 0.089072965 -0.025329584 -0.06250666 0.04159087 0.043456383 0.12908114
0.044168513 0.014910408 0.035339493 0.027457668 0.09578258 -0.032102913 0.028573299 0.026392275
0.07277726 -0.06375953 0.057142355 0.023706151 -0.061891526 0.04765844 -0.06701483 -0.039646145
-0.017768651 0.030375063 0.06595054 0.044668943 -0.016685981 0.09319258 0.035887145 0.027655806
-0.074193776 -0.03818503 0.055584457 -0.060668737 0.08157141 0.06495295 -0.037921697 0.042925876
-0.03613069 -0.0020477683 -0.005838013 0.027857823 -0.051601484 0.028945792 -0.02648088 0.12282833
0.04326445 0.059098095 0.017862484 0.05034658 0.07717947 0.057953577 -0.052133337 0.07414593
-0.013798407 0.014055784 0.0060210903 0.0138656255 0.06905311 0.012551125 0.047080263 -0.020413391
