data/predictor/PT/SiameseNetwork_2024-05-13_21-00-01.pt (torch, 304379 bytes, 12 tensors)

conv1.bias f4 [64]
00000000: aa64 9a3c 238a 94bb 7827 de3d ed9c de3d
00000010: cfa0 df3c e565 ea3c 12b9 05bd 06ed e5bc
00000020: d099 1bbe a481 91bd a760 26be 55b6 53be
00000030: 8fd4 84bc d7bb 81bd 9756 dfbd 2b61 26bd
00000040: 1c36 1abc a671 4cbe 0e4d afbd 1feb 113e
00000050: 8da2 1b3d 6512 30be ad43 5b3d 209b 423d
00000060: 88ff 9a3d 9bf8 19bd 96f7 a9bd 1184 0dbe
00000070: ce5b 61bd 0000 0000 c67c 87bd 5f6c 313d
00000080: ed20 07be 0f1e 393c 2267 79bd 4191 b0bd
00000090: 2df6 d0bd 87b0 01bd fd30 c9bb 3ed3 463a
000000a0: c408 a53d cc7c 54bd 36b3 83bc a543 ecbd
000000b0: 24b1 873d 7312 35bb d6ec 32bd 1e44 8abd
000000c0: 4bce bc36 e953 0cbe 0dae 1a3d 8d38 1f3e
000000d0: 7758 273d 513c 08be 0000 0000 07e9 26bc
000000e0: 7b27 b53d 3863 f23c 010c 2f3d 3af0 6f3d
000000f0: dad3 68bd 3ccf b13d b110 733d d814 24bd
0.018846828 -0.0045330687 0.10847372 0.10869775 0.02729836 0.02861304 -0.0326472 -0.028067123
-0.15195394 -0.07104805 -0.16247807 -0.20675023 -0.016214637 -0.06334656 -0.109051876 -0.04062001
-0.009412315 -0.19965228 -0.08559619 0.14249848 0.037996817 -0.17194517 0.053531338 0.04751122
0.0756827 -0.037590604 -0.082991764 -0.1381991 -0.055019192 0.0 -0.066155955 0.04331624
-0.13196154 0.01129867 -0.06088937 -0.08621455 -0.10203204 -0.03166249 -0.006139873 0.0007584578
0.080583125 -0.051876828 -0.016076665 -0.1153634 0.06625584 -0.0027629405 -0.043682896 -0.067512736
5.6268523e-06 -0.13703884 0.037763644 0.15548916 0.04085585 -0.13304259 0.0 -0.010187394
0.08845421 0.029588327 0.042736057 0.058578707 -0.056842662 0.08682105 0.05934209 -0.04005894

conv1.lin.weight f4 [64, 6]
00000000: a4c8 55be 78ef a53d 046b 253f cb88 e0bd
00000010: 20ab ddbc c18f d83e 2b6d 77bf 739a 013f
00000020: 7408 64be 1836 1c3e 4da4 47bd 5e39 393f
00000030: bc06 05be 1273 9dbe a83a 9cbe 9732 5fbe
00000040: 5264 a83e a9bb 5dbd b89c a9be 0674 c1be
00000050: 0a14 b9be 88f8 c73e c2fa aa3e 4647 84bd
00000060: ac0d 12be d160 fb3d d6dd 1e3f acd2 bebe
00000070: 19a7 20be 3356 043f d97d 6d3e e83b ea3e
00000080: ae6d 8fbe 6ca9 7bbe 0cbf 6dbd 9354 bd3e
00000090: 57b6 863e cd81 393e 1b25 f5be 8ff2 ec3e
000000a0: 408b 703a d344 9abc d4d3 0bbe 9b17 41be
000000b0: 3646 6c3e 4e14 913c c6fb cfbd 7f8d be3e
000000c0: 487b e43d 261a eebc c85a c0bd 3bf5 8a3d
000000d0: 52c9 053d 25cd 823e 8a01 123d b1f3 09be
000000e0: 1dfb 733c dcd6 253f 8f88 be3d 62a4 a5be
000000f0: f631 9d3d edf0 9e3e 0c67 9dbe deba 913e
00000100: bc28 6d3d de07 a03f 61b2 e43d 3364 44be
00000110: 0b63 1a3b d83c bcbd ca6e 503e 4b28 61be
00000120: a547 f0bd 5ccc 233e 2059 193f c748 abbe
00000130: aa3a 15bd 1bc1 123f 2f32 733e 7c7c 88bd
00000140: 39a7 ed3e 54bf 61be 7fc2 51be 1aec aa3e
00000150: d0a0 0fbd 5185 b3be 66c8 5a3e 41c4 263e
00000160: 60be c9bd cd85 073f 3cda 16bb e0b2 b9be
00000170: a36c dd3c 88ea 92be 030b 843b 55b1 133f
00000180: 8d60 913c 5585 8fbd ddd4 473d 8f6b ed3e
00000190: 4ac7 69bd 08af 3f3e 2acb 10bd 4fa1 eabe
000001a0: 9559 123e 43ce 503c f9db f93d 741a 02bd
000001b0: 5785 093e 78d9 fbbe e364 94be db80 b83e
000001c0: e823 04bd 6417 8bbe 8b88 27bf 8716 42bd
000001d0: 9920 3a3e 0216 cdbe 643c 823e b364 93be
000001e0: 9915 d5bd 834c 31be 65db 033f 86e7 123e
000001f0: 32cd 14be 841f 773e 6d4d 353e c685 463c
00000200: f397 dc3e 793f 8a3c 4478 4539 1cf3 753d
00000210: 3b71 17be 625f 5dbe 06e0 1c3f 5423 7d3e
00000220: fe2a dbbd 3ce7 e63e 5c97 92be 35cb fb3e
00000230: 2538 78be 24d4 723d 23e3 13be 7ba4 633d
00000240: 95f5 713e 2691 30be 9551 1abf 03fb a53d
00000250: 6de6 e3bd 9ac6 a2be d92e 473b 6d0f 7bbe
00000260: be63 67be af50 afbd 1887 993e ffb5 cd3d
00000270: 8c9a b53d 4870 0d3e 82d8 a9be 92e0 353c
00000280: 005a 5f3e 1316 733e 81de 1d3e a748 b6be
00000290: e244 b8be e23c 683e eca8 7ebe 13be d4bc
000002a0: 7906 c33c 3c4b 18bf df16 b33e 8229 a83d
000002b0: 0403 91bc ac7b 223f 2e64 50be f6ff 72be
000002c0: fcb7 78bd 0699 5bbe 0285 1abe 3e4b 89be
000002d0: 3348 d53d 63c2 2abe d725 f3bd 7cd9 1b3f
000002e0: 833e 06bd 65a8 6bbe 2c84 33bd dec8 fe3d
000002f0: 6c7d 9cbe 7286 213f 0cfb 833e 7ecd 543e
00000300: 7976 063e 21f6 34be 03dc 273d 65e3 c03c
00000310: a5fb 93bb 63ed 9d3d b918 11bd e71a 61bc
00000320: 60ca 123f 2c64 9abe 29b5 91be 244a 013f
00000330: 0b1b 36be 1ef2 af3e dcb3 91bd ee75 363e
00000340: 5d0f 94be 1d29 1b3f b2e9 37bf 9658 ad3e
00000350: 5af5 42be c290 563e 33aa fc3b b123 7b3f
00000360: a1d2 68bf 2972 213f 2e56 8cbe 1537 473e
00000370: 95bd b63d 38eb 623f cf7c 653c b3e9 8d3e
00000380: 6232 a0be c40e 023f 1a6d 75ba c283 c13d
00000390: 2491 a33d 6dae 543e 2f5f 5d3d 369e e5be
000003a0: 6885 18bd 0ed6 44bd 9eab 5cbd 0f58 223d
000003b0: 0008 ae3e 50c1 6abe 6e99 93be 0e3b ba3e
000003c0: 8bd2 1abe 991c 97bd 0ab7 ee3e 8ed0 34be
000003d0: aadf 7dbe e46c 653e 071d 933d efd2 d3be
000003e0: 01bf 953d 9691 b53e b02a 34be 40f6 e6bd
000003f0: 7bc6 683c 3e04 5cbe 36d9 db3d db3b 3e3f
-0.2087732 0.08102316 0.6461642 -0.10963591 -0.027059138 0.42297176 -0.9665095 0.50626296
-0.2226885 0.1525501 -0.048740674 0.7235316 -0.1299085 -0.30751854 -0.305135 -0.21796642
0.32889038 -0.054134045 -0.3312738 -0.3778383 -0.361481 0.39056802 0.33394438 -0.06458907
-0.14263028 0.12274326 0.62057245 -0.37270105 -0.15688743 0.5169403 0.23192538 0.4574883
-0.28013366 -0.24576348 -0.058043525 0.36978588 0.2631099 0.18115921 -0.47879872 0.46278808
0.00091760233 -0.018831646 -0.13655025 -0.18856661 0.23073658 0.017709877 -0.10155444 0.37217328
0.111563265 -0.029065203 -0.09392315 0.06785055 0.032662697 0.25547138 0.035646 -0.13471867
0.014891413 0.64780974 0.0930339 -0.32351977 0.07675545 0.31043187 -0.3074268 0.2846288
0.057900175 1.2502401 0.111668356 -0.19178848 0.002355757 -0.091912925 0.20354763 -0.21988027
-0.11732415 0.15995926 0.5990162 -0.33453962 -0.0364329 0.57325906 0.23749612 -0.066643685
0.46416643 -0.22045642 -0.2048435 0.33383256 -0.035065472 -0.3506265 0.21365508 0.16285802
-0.09850764 0.5293854 -0.0023018261 -0.36269283 0.027029341 -0.28694558 0.004029633 0.5769246
0.017746234 -0.07007853 0.048786987 0.46371123 -0.057074822 0.18719113 -0.035350002 -0.45826194
0.14291985 0.012744489 0.122001596 -0.03176351 0.13429771 -0.49189353 -0.2898322 0.3603581
-0.032260805 -0.27166283 -0.65442723 -0.047384765 0.18176498 -0.40055853 0.254367 -0.28787765
-0.1040451 -0.17314343 0.51506644 0.14346132 -0.14531401 0.24133116 0.17705317 0.012116855
0.43084678 0.01687597 0.00018832186 0.0600463 -0.14789288 -0.21618417 0.6127933 0.24720508
-0.107015595 0.45098293 -0.28631103 0.49178472 -0.24240167 0.059284344 -0.14442115 0.055576783
0.23628838 -0.1724287 -0.60280734 0.08104517 -0.111279346 -0.31792146 0.0030392914 -0.24517603
-0.22596642 -0.08560311 0.2998588 0.100444786 0.08867368 0.13812363 -0.33172995 0.011100905
0.21811676 0.2373889 0.1541691 -0.35602304 -0.35990053 0.22679475 -0.24869126 -0.02596954
0.023806797 -0.594898 0.34978387 0.08211042 -0.017701633 0.6346996 -0.20350716 -0.23730454
-0.060722336 -0.21445093 -0.15089801 -0.26815218 0.104141615 -0.16675715 -0.11872452 0.6087873
-0.03277446 -0.23013456 -0.04382722 0.12440656 -0.3056444 0.6309577 0.2577747 0.20781514
0.13131131 -0.17672016 0.040981304 0.02354593 -0.0045160824 0.077112935 -0.035423968 -0.013739324
0.5734005 -0.3015455 -0.28458527 0.50503755 -0.17783754 0.34364408 -0.071143836 0.17818424
-0.2891797 0.6060961 -0.71840966 0.33856648 -0.19038907 0.20953658 0.007710719 0.98101336
-0.90946394 0.6306482 -0.274095 0.19454606 0.08922879 0.88640165 0.0140068075 0.2771736
-0.3128844 0.5080378 -0.00093622657 0.09448959 0.07986668 0.20769663 0.054045852 -0.44847268
-0.0372366 -0.0480557 -0.053874604 0.03963476 0.3399048 -0.22925305 -0.28827995 0.3637318
-0.15119378 -0.073785014 0.46624023 -0.17657682 -0.24792352 0.2240482 0.07183271 -0.41371867
0.07311822 0.35462636 -0.17594409 -0.11277437 0.014207478 -0.21485993 0.10734789 0.7431008

conv2.bias f4 [64]
00000000: edd7 553d 48f8 fcbc e27b eabc f39e 0ebd
00000010: b0a3 baba b911 043e d606 e4bd e9f6 943c
00000020: b864 843c 2392 fe3c 0000 0000 d87c b13b
00000030: d380 58bd b47d e23d d07c 4bbc ad71 e93d
00000040: f2ad 703d 7575 83bd d765 94bc b722 023b
00000050: 6eb7 90bd 13af e4bd aed4 923c 3c8d 17be
00000060: 9213 f83c 91d1 50bb d685 26bd a809 503c
00000070: 36de 82bd 76b5 cdbd 15b5 a4bc bb2d e8bc
00000080: 0000 0000 fdd1 a63b 74f0 1dbe e00d 96bc
00000090: ccee 9abd 1b61 39bd 8453 efbc 6236 54bc
000000a0: 96c0 5cbd d50e f43c cd8d e23d f691 2abe
000000b0: e4b7 03bd b6c1 c43d 3550 86bd e473 b7bc
000000c0: 151b a33d 4f70 27bd 0979 c33d 04ea ffbc
000000d0: 13d9 10bd e529 d6bc fc07 70bd b567 41bd
000000e0: 1681 54bd 4511 bbbc c75f 6e3c 6b1d cb3d
000000f0: 3d00 cd3d 83f1 c5bd 36d5 833c ab5d 9ebd
0.052207876 -0.030880108 -0.028623525 -0.034819555 -0.0014239457 0.12897386 -0.11134116 0.018184142
0.016161308 0.031075543 0.0 0.005416494 -0.05285723 0.11059132 -0.012419894 0.11398635
0.058759637 -0.064188875 -0.018114967 0.0019857117 -0.070662364 -0.11166205 0.01792368 -0.1479997
0.03028277 -0.0031863193 -0.04065498 0.012697615 -0.063900396 -0.100443766 -0.020105878 -0.028342118
0.0 0.0050909505 -0.15423757 -0.018317163 -0.07565078 -0.045258623 -0.029214628 -0.012952419
-0.0538946 0.029792229 0.110622026 -0.16657242 -0.032157794 0.0960726 -0.06558267 -0.022394128
0.0796415 -0.04087859 0.0954457 -0.031239517 -0.035363268 -0.026143024 -0.058601364 -0.047218043
-0.05188092 -0.022835383 0.014549202 0.099177204 0.10009811 -0.09665205 0.016092878 -0.077327095

conv2.lin.weight f4 [64, 64]
00000000: 51b3 85bc 774e a33e 5484 093e a086 febc
00000010: b4ea 7dbd d0ee c8bc 64f3 483e 8ad9 3b3e
00000020: 5358 27be 7297 77be d7e6 dfbe dfbb 543e
00000030: f146 d9bd 6870 e53d 49bb 8cbe 6d48 553b
00000040: 1aef d4bd 5213 2b3e 1a85 083e 2514 a7be
00000050: 0af4 3d3e ccbe dd3d 0eb0 9f3e 4415 6dbe
00000060: 3771 543e 9f06 cb3c 5899 19be afb0 0d3c
00000070: a920 15bd c592 1d3e 8794 cebd 12f2 0cbe
00000080: 030e d53d 5bb8 0abe 197f c4be aef6 dc3d
00000090: ea00 563e caf1 e1bd 304b 1b3e 2e20 863d
000000a0: 2332 b53e 09de df3c c2c7 9c3d 34b6 433c
000000b0: b29d 5f3e c511 db3d 3640 8f3d 6600 2a3d
000000c0: 4f45 03bd d30e dabe 6cc1 debe 1214 453e
000000d0: 8bc0 39bb 87da bdbc d8c0 993c 781b 9ebe
000000e0: 3b6e d0bb 933f 7bbe 619b d13e a0c4 b1bc
000000f0: 0adf e73d 21ae a8bd 8255 a1be 12f9 34be
00000100: 74a1 58be f79d 043e 3cf4 b3bd f8a2 df3d
00000110: b3e9 a5bd 8163 db3d 4137 a3bd 4a57 febd
00000120: e3b6 59be fbf9 6dbe 6aa2 513d ecc7 0bbd
00000130: dc14 ba3d 84b7 19be 137a e3bd 6504 62bc
00000140: 0756 043e 4e09 3dbe f877 bbbd 39b4 54bd
00000150: 3f9a 963d 559b 8ebd cb34 ed3b 8fa5 013e
00000160: dc0f 873d 4373 66be 4168 003e 86b7 dd3b
00000170: 51f4 cf3d 96af c7bd 503d ca3d 9a5b 6ebd
00000180: 36f5 3f3e 1a1f ed3d e91b 963b c7a2 28bd
00000190: 9445 0d3e a379 4cbd bbb7 b73d 77d2 54be
000001a0: 6d8b e83c 6f87 bcbd 8fe1 0fbe 924e c2bd
000001b0: 949d 873d 5626 313d 6e1a 5fbd 96b8 f3bd
000001c0: b891 e83d de55 60bd b815 e1bd 6919 52be
000001d0: b43f 7cbd fa24 b23d 6106 2cbe 12b9 49bd
000001e0: 8799 31be 13c8 d33b 6852 c7bd 2ce9 3dbe
000001f0: a9aa 64bd 5096 44bd 9bcb 4dbe e895 b7bd
00000200: 5d23 fd3c cc6d 553f c858 ac3d b0c9 c2bd
00000210: c814 0b3e 37fc 12bd 1494 acbe c2a7 463e
00000220: dce7 e2bc de7f 55be 19d5 46be 3f13 edbb
00000230: 9397 bb3d 7b1f ad3d a72b 9cbd c1e7 89bd
00000240: 4a5a 95be c78c 5ebb cc19 093e 3a40 85be
00000250: dc29 653e bb67 3ebe 6c80 b53e 7d2a b03d
00000260: ce1b e4bd 04af 1abe ca47 513d fff3 dd3d
00000270: d67f 4abe 90e0 d3bd 2ef1 65be 6727 e6be
00000280: 0025 d83d f59c ec3e 05e7 8cbd 837b 0f3f
00000290: 72ff c23e 05f0 c7be e143 6e3c 9411 8f3d
000002a0: e21e 903e fcba 043d b86b 43be 3da7 cbbd
000002b0: 25e2 623d 1045 373e 416d c6bd 49b3 1bbd
000002c0: e8ac ff3c ed7e c13e a0fe 5abe 44d3 243c
000002d0: fd19 ff3d 086f d13d a87e 0cbe a363 dabe
000002e0: ce4e 99be 177d 843e 396b b93e ee77 903e
000002f0: 9695 fbbd 05a3 263e c5b4 be3d 90b5 303e
00000300: 37e8 37bf 6f7b 8c3f 4dfd a73c a2b5 0abe
00000310: 6d67 0cbe ad90 4c3e 836f e53d 7809 d73e
00000320: b7db 59bd 47f6 623e d93c edbd c5a3 113e
00000330: d9c6 edbd 5b38 ce3d 8088 5c3e cb3f 893d
00000340: 5749 163d f4e5 053e 106c a13c bf00 20bf
00000350: bd92 ab3e 8a6a 6bbd 360a 873e 8eae 3c3f
00000360: 2afb 2e3c d018 edbd 113f aabd 88cd 943d
00000370: 715c 2a3e 5f48 4e3e 2701 573e e3ea 193e
00000380: 38c7 dcbd 4166 5dbe 0401 c93e 0856 543f
00000390: ac20 9e3f faa4 07bd d1ef fabd a235 133e
000003a0: 1416 12be 4842 013e 927d 7f3e a794 44bd
000003b0: 538d 73bd 35ce a1be 5f80 a13d ebb6 78bd
000003c0: fd48 b2be ac75 003f 104b 443e 61f2 9cbe
000003d0: 1053 03be 113f b23d be00 b03d a95f 893e
000003e0: f8cc 43be 22c0 55be d16d 573f c37c 2a3e
000003f0: 7f94 023e 3373 adbe 74cc 0c3e 8710 8d3e
-0.016320856 0.318958 0.13429385 -0.031070054 -0.06199141 -0.024527937 0.19624096 0.18344703
-0.16342287 -0.24178866 -0.43730804 0.20774792 -0.10609234 0.112030804 -0.27486637 0.003254439
-0.103971675 0.16706589 0.13332024 -0.32632557 0.18550125 0.10827407 0.31189007 -0.23152643
0.20746313 0.02478343 -0.14999902 0.008648082 -0.0364081 0.1538802 -0.10086923 -0.13764217
0.10403063 -0.13546889 -0.38378218 0.10789238 0.20898786 -0.11032446 0.151654 0.065491065
0.35389814 0.027327554 0.07655288 0.011945296 0.218375 0.10696749 0.06994669 0.041504286
-0.03204852 -0.42589435 -0.43506944 0.19245937 -0.0028343524 -0.023175491 0.018768713 -0.30880332
-0.0063607967 -0.2453597 0.40938857 -0.021700203 0.11321838 -0.082363375 -0.3151055 -0.17673138
-0.2115534 0.12950884 -0.087868184 0.10919756 -0.08101215 0.10712338 -0.07969523 -0.12418993
-0.21261172 -0.23239891 0.05118028 -0.034126207 0.0908601 -0.15011412 -0.11107268 -0.013794993
0.12923442 -0.1846058 -0.091537416 -0.051929686 0.07353639 -0.06963221 0.0072389594 0.12660812
0.06594822 -0.22504906 0.1253977 0.0067662625 0.101540215 -0.09750287 0.09874976 -0.058192827
0.18745884 0.11578198 0.004580964 -0.04117086 0.13796073 -0.04992069 0.08970591 -0.20783411
0.028386796 -0.092055194 -0.14050888 -0.09487642 0.066218525 0.04324945 -0.054468565 -0.11900441
0.11355919 -0.05476939 -0.10990471 -0.20517506 -0.06158419 0.08698459 -0.16799308 -0.049248762
-0.17343722 0.0064630597 -0.097325146 -0.1854598 -0.055826817 -0.04799491 -0.200972 -0.08964139
0.030900652 0.8337066 0.08415371 -0.09511125 0.13582146 -0.035885062 -0.33706725 0.19399932
-0.02769845 -0.20849559 -0.19417228 -0.0072349603 0.0915977 0.0845327 -0.076255135 -0.06733657
-0.29170448 -0.0033958422 0.13388747 -0.26025563 0.2237925 -0.18594258 0.3544954 0.08601854
-0.11138116 -0.15105826 0.051093854 0.10837554 -0.19775328 -0.10345566 -0.22455284 -0.44951937
0.10553932 0.462135 -0.06880001 0.5604784 0.38085514 -0.39050308 0.014542551 0.06985775
0.28148562 0.032404885 -0.1908406 -0.099440075 0.05539145 0.17897439 -0.09688807 -0.038012777
0.031210378 0.3779215 -0.21386194 0.010060135 0.12456129 0.10226256 -0.1372019 -0.42654142
-0.29942936 0.25876686 0.36214617 0.282165 -0.12284391 0.16273125 0.09311823 0.1725676
-0.71838707 1.0975169 0.020506525 -0.1354585 -0.13711329 0.19977064 0.1120291 0.41999412
-0.053188052 0.2216426 -0.115838714 0.1422263 -0.11610193 0.10069343 0.21536446 0.06701621
0.036691036 0.13076001 0.019704849 -0.6250114 0.3351039 -0.05747465 0.26374978 0.7370385
0.010679999 -0.11576998 -0.0831281 0.072657645 0.16636826 0.20144795 0.20996533 0.15031008
-0.107801855 -0.21621038 0.39258587 0.82943773 1.2353721 -0.03311632 -0.122527726 0.14375928
-0.14266235 0.1262294 0.24950245 -0.04799333 -0.05946095 -0.31602636 0.07885813 -0.06072132
-0.3482131 0.50179553 0.19169259 -0.3065367 -0.12824655 0.08703435 0.085938916 0.26830795
-0.19121158 -0.20874074 0.8415194 0.16649155 0.1275196 -0.33876953 0.13749868 0.27551672

conv3.bias f4 [64]
00000000: 2070 9abd 0a5a b0bc 5e7d f1bd 0728 c9bc
00000010: 6c59 95bd b421 363d eead 4fbd 2785 003e
00000020: ab14 48bd 8aec e63b 62f5 3bbb c06d 463d
00000030: 28ac d6bc d8de 8e3d e119 b8bc 50c0 07bd
00000040: 9fbe 3bbc 04b7 59bd 5b24 7c3c 551c 903d
00000050: cfba b23d e9e7 653b 863b a23d 1c16 32ba
00000060: cdb6 33bc 19e2 62bc dc29 81bc c68e a53c
00000070: 846c eebc 17a1 4ebe d08e d9bd df7c a0bd
00000080: 4031 8d3d 3c74 9fbc 7ece 13be d3a3 b1bc
00000090: 2676 ca3c 8a4f d33d 2ce2 2cbd 4bda 49bd
000000a0: 881d 1e3c 0e67 113c a6dc d1bd ae45 81bd
000000b0: bb44 96bd abaa dc3c 268e 8ebd d143 98bd
000000c0: f30b 4abd 7dcc e4bd fce9 d8bc 3304 4dbc
000000d0: 0367 5fbd f858 58bd ba7b d6bd 94b6 9cbd
000000e0: 1b36 d03c edbb a2bd ac6a 53bd 90a3 963b
000000f0: ab8f f83d e831 a8bd dee8 983c 4c24 413e
-0.075409174 -0.021527309 -0.1179149 -0.02455522 -0.072924465 0.044465736 -0.05070298 0.12550794
-0.048847836 0.0070472406 -0.0028680195 0.04844451 -0.026205137 0.06976098 -0.022473278 -0.033142388
-0.011459022 -0.053153053 0.015389527 0.07036654 0.08727037 0.0035080856 0.079215094 -0.00067934557
-0.010968876 -0.013847851 -0.01576703 0.020209681 -0.029104479 -0.20178638 -0.106229424 -0.07836317
0.06894159 -0.019464605 -0.1443424 -0.021684563 0.02471454 0.10317905 -0.04220788 -0.049280446
0.0096505955 0.008874668 -0.102471635 -0.063121185 -0.07337328 0.02693685 -0.069607064 -0.0743481
-0.049327802 -0.111718155 -0.02647876 -0.012513208 -0.0545416 -0.052819222 -0.10472818 -0.076520115
0.025416424 -0.07946 -0.051615402 0.004597135 0.121367775 -0.08212644 0.018665727 0.18861502

conv3.lin.weight f4 [64, 64]
00000000: b1d9 373e 3701 e9bd 9573 8cbd 59c5 d23e
00000010: 42a9 5f3e 2405 96bd f042 073e 675e ce3e
00000020: dd51 483e 20e6 a4be 6283 c93d 58f4 b63d
00000030: 166c b1bd 38c3 913e 1987 94bd 851f ad3e
00000040: f440 563e 445c 653e 38f1 ba3d 3252 d63e
00000050: 8af1 fa3e e13e a7bd 3272 e6be c47c 793d
00000060: 8997 48be a354 a93e 35a6 5c3e a798 bfbd
00000070: 41e2 633e 82d1 923e 19b8 1a3c bd6a 87bc
00000080: 6ef7 ae3d 0cb5 a23e 12ea 08bf af3b 8b3c
00000090: 0c61 1b3d efb4 8b3e a7bd a03e 080c ac3e
000000a0: ce46 833d 9c54 c2be 2fd8 b9be a8c5 65be
000000b0: e854 28be 911a 6dbd 03df 80be 623c 34bd
000000c0: c6af 563d 16c7 ac3e 992d 4cbe b424 4abe
000000d0: 5518 2a3d 9cfd 303c b060 3dbd 39d9 17bd
000000e0: 7086 b3bc 4e02 573c 578e b1bd 5917 243e
000000f0: 8ed8 b0be dfd6 633e 378e 3f3e 325f 8c3e
00000100: 9a4e 0c3c b26e 6fbd 9005 fbbd 1d0d 453e
00000110: eda0 2a3e 4b26 91bd ad2c f63d 86b3 01be
00000120: 9309 793d cc17 8cbd d165 573e 7f32 663e
00000130: 742b 35be 94e2 963e fc24 653a bfc5 77bd
00000140: 8199 62bd d1f2 b7be 6695 233e ec76 563d
00000150: 7551 0c3e 887c c23e 6cb3 b5be 946c 8dbe
00000160: d286 2dbc 3f42 c93e b613 98bd 4fc6 453e
00000170: b941 643e af46 363f cdd6 6b3e 6dbf 1c3d
00000180: fdac 0d3e c06c 833d 63ee cabe 680d 35bd
00000190: 9daa 8fbe 74ae 95bd 68dc 3b3e 7147 8e3c
000001a0: 58e2 c03d 53e4 5e3e aa74 f9bd 4329 b8bd
000001b0: f160 36be afed 0bbe c8da 0e3d 10e9 ce3d
000001c0: 5dca 173e 0aea 93be 98de 9ebe ff6c b1bd
000001d0: eee9 51bd 1790 7dbd 744f 16bd 4e43 6a3e
000001e0: 3196 d63d 9d98 52be 314d 69ba 53cb 513d
000001f0: 8c8d 24bd 2d7e 4abe ad42 9a3e 28b6 6ebd
00000200: 4fd3 aabe 4219 6abd 1cdb f63d 5140 2abe
00000210: 399c 033f f72a b33e d68a b8bd b9b3 e23e
00000220: 60d3 49be a3bd a53e d089 21bc ffe9 1a3f
00000230: 806a 023e ea37 4dbe c387 2d3f a5e0 b2be
00000240: acb2 77bd 7e10 673c d34c 87be ecb4 40be
00000250: fa69 563e 4837 6a3f 338b 283e cabb 42be
00000260: a09f fc3e 4b54 c53e 6634 0d3e 6bf0 963e
00000270: a16c 8dbc 63b3 6d3f 6377 253e 9489 f23d
00000280: 1950 4b3e 01ed adba c6b6 dd3c daf5 ffbc
00000290: 1cee 70bd 2b4b 183e 4be1 e63e 3820 0bbe
000002a0: 0490 f03d 9bfc 07be cffa 703e 32c0 353f
000002b0: 1aeb 853e 052d f93e 25ba 10be 39e6 0e3f
000002c0: f2ca aabe 5934 c8be 40e5 043f f8a8 b9bd
000002d0: 804a a33d 41d4 1abb ccf4 953e 1189 3e3e
000002e0: 84e4 2f3e 21b9 2bbe cf20 d0bd dcc7 47be
000002f0: 04d5 ea3e 7db9 7abe 8f74 053e 123e 183e
00000300: e442 333e 35b8 2abe e679 b4be 03ef 633d
00000310: 3277 eebd b74a 98bc 0f45 19ba a472 bf3c
00000320: 7488 da3d d94d 443c 0695 1fbe 4d42 9c3c
00000330: ecde 343d d21e 763e 159e 793e 6e20 bbbd
00000340: 9500 a23a b307 fd3d edc0 4c3d 9ed5 84bd
00000350: 0d5e 413e 54bd fcbd 6665 213d 3202 04bd
00000360: cb34 d33d 013c 293e 63b5 b23d a3bb 2bbd
00000370: ced0 833e 5eb3 df3e 97c5 413e 8cf3 cdbd
00000380: cae4 d63d 614e 75bc 6ba4 c1be aefd a8bc
00000390: a541 f13d 6514 4abc 1cad 173e 4d86 7cbd
000003a0: 2b3e f5bd 8194 26be d9ee 0b3e 3cad 96be
000003b0: 4164 d63c 5cf7 cebd 356b 9c3d 7c62 623e
000003c0: c8c2 e5bd ae93 c03d 2bf8 42be a39e 33be
000003d0: 5fc4 4a3d 12b2 283e 6996 363e 1df9 3fbc
000003e0: 5a39 f3bd 04ea 1f3e 16b7 b9bd 07e5 fbbd
000003f0: a8d2 a83d beff 963d bd4d 203d 72cb 353e
0.17954136 -0.11377185 -0.06857983 0.4116619 0.2184191 -0.07325199 0.13209128 0.40306398
0.19562478 -0.3220682 0.098395124 0.089333236 -0.08663194 0.28469253 -0.0725233 0.3381311
0.20923215 0.22398478 0.0912804 0.41859585 0.49012405 -0.0816629 -0.45009 0.06091
-0.19589056 0.33072385 0.21547778 -0.09355288 0.22254278 0.28675467 0.009443306 -0.016530389
0.08543287 0.31778753 -0.5348216 0.016996233 0.037934348 0.2728648 0.31394693 0.3360293
0.06409989 -0.37955177 -0.36297747 -0.22438681 -0.16438639 -0.057886664 -0.25170144 -0.044002898
0.052413724 0.3374564 -0.19939269 -0.19740564 0.04152711 0.010802653 -0.046234787 -0.037072394
-0.02191469 0.013123108 -0.08669727 0.16024531 -0.34540218 0.22249936 0.18706594 0.27416378
0.008563662 -0.058455177 -0.1225692 0.19243284 0.16662951 -0.07087382 0.1202024 -0.12666139
0.060800146 -0.068404764 0.21034934 0.224802 -0.17692357 0.2946974 0.0008741168 -0.06049132
-0.055322174 -0.35927442 0.1597496 0.052359506 0.13702948 0.37985635 -0.3548845 -0.276219
-0.010591226 0.39308354 -0.074256346 0.1931393 0.22290696 0.71201605 0.23031159 0.038268495
0.13835521 0.06417227 -0.39635 -0.04420224 -0.28059855 -0.07308665 0.18345797 0.01736805
0.09418172 0.21766786 -0.12180455 -0.08992245 -0.17810418 -0.13664888 0.034876615 0.10103047
0.14823289 -0.28889495 -0.310292 -0.086633675 -0.051248483 -0.061904993 -0.036696866 0.22877237
0.104778655 -0.2056603 -0.0008899747 0.051219296 -0.040174052 -0.19774695 0.30128995 -0.058279186
-0.3336434 -0.057152994 0.120535105 -0.16626097 0.5141025 0.34993717 -0.09010856 0.44277743
-0.1970954 0.32371244 -0.009859517 0.605133 0.12735939 -0.20040861 0.6778528 -0.34937015
-0.06047313 0.014103053 -0.264258 -0.18819016 0.20938864 0.914906 0.1645935 -0.19016948
0.49340534 0.38540873 0.1378952 0.294803 -0.017263712 0.9285185 0.16158824 0.11842647
0.19854774 -0.0013269485 0.027064692 -0.03124516 -0.05882083 0.14872424 0.4509376 -0.13586509
0.11746219 -0.13279955 0.23533176 0.7099639 0.2615593 0.4866716 -0.14133509 0.5582004
-0.3335796 -0.39102438 0.5191231 -0.09065431 0.07973194 -0.0023625048 0.29288328 0.18606974
0.17177016 -0.1676984 -0.10162508 -0.19509834 0.45865643 -0.2448482 0.13032745 0.14867428
0.17505985 -0.16671832 -0.3524925 0.05564786 -0.116438285 -0.018590314 -0.00058467773 0.023370095
0.106705576 0.011981451 -0.15584192 0.019074583 0.044157907 0.24035195 0.2437671 -0.09137045
0.0012359793 0.12354984 0.049988676 -0.06486057 0.18883534 -0.12340799 0.03940334 -0.032228656
0.10312804 0.16526796 0.08726003 -0.04192699 0.25745243 0.43691534 0.18923031 -0.100562185
0.10492857 -0.0149723 -0.37820753 -0.020628776 0.11780099 -0.012333964 0.1481213 -0.061651517
-0.11974748 -0.16267587 0.13665332 -0.29429042 0.026170852 -0.10105774 0.076376356 0.22107881
-0.11218792 0.09403168 -0.19039981 -0.17540984 0.04950368 0.16474178 0.17830814 -0.011717108
-0.11876173 0.15616614 -0.09068124 -0.12299543 0.082433045 0.07372998 0.039136637 0.1775339

fc_cls1.weight f4 [256, 128]
00000000: 9e5e 22bc 0172 47be cb1d 953d 9018 66bc
00000010: 373b 34bc ac17 ba3c 460d c33d 227e b83b
00000020: ff66 17bd 820b 8abc 1abd febd 0ee0 f0bc
00000030: f271 2d3d a15e 873d 5787 8cbd cbc6 2bbe
00000040: 17d1 e8bd 3097 cc3d 56c8 0fbb ca71 433d
00000050: 996a 2dbe b4bf 2f3e 4718 40bc bb5b 3abe
00000060: 0957 b4bc 921a 1b3e 0612 973c e543 9ebd
00000070: d62c 4c3e 5670 c33d 5007 7f3b 28c6 123e
00000080: 4ec6 e3bd 766d ee3b 9534 ccbd 98a5 583d
00000090: 2828 5a3c c539 a13c 8526 8ebd 6ce9 993d
000000a0: 300d 263b 8c06 02be 5d02 613d 9278 e43d
000000b0: eb5b 00bd 024a 653e f2d1 1b3e ecfc c7bb
000000c0: 367f 9ebd 001e 803d 8b9a bcbd 5735 36be
000000d0: df2f cb3d fcf1 38bd 6252 143e 8244 97bb
000000e0: bee5 4bbc 12cc f9bd cc6d b3bd 0246 35bd
000000f0: f287 b33d f6e7 50bc 7020 99bd f044 01be
00000100: cf3a eabc c2db 71be cd9e 89bb 60d6 d43c
00000110: b188 05be dee2 833d ac74 02bd 398b 4b3d
00000120: 9380 cbbd 7beb 6a3d c320 083d 9c34 833c
00000130: cd64 9ebc a190 ee3c 7321 193d 5201 1abe
00000140: 65d4 a8bd fc7f 8a3d 6869 f03d 06ec b43c
00000150: 2fd0 283d 46e6 8c3d f63d 3bbc a1d4 a4bd
00000160: 9123 db3d 8499 0f3e b301 b73d 4f2d a7bd
00000170: 8bd0 543d 2744 e93a 9fe9 ce3d 32d9 053e
00000180: 0a23 813d 4ab2 6bbb 6431 1cbd 2d33 753c
00000190: 95e5 86bd a9df b03d 472b e5bc 2609 313d
000001a0: 0734 b0bc 3b00 b7bd 9a93 5bbd d60a 533e
000001b0: d6c1 bf3d 4a05 a93d 3abd 82bc 66b1 393d
000001c0: eb70 0abe 62a7 583d 06d9 943c f086 debd
000001d0: 449a c83d 0c26 b63d 7a01 363c 67db 003c
000001e0: d0eb 2abd 1ae9 0bbe a081 d63c 317c c33b
000001f0: 0f88 533d 2b27 a33d 68d3 5ebd ba77 73bd
00000200: 5049 37bd 1b55 e3bd 6545 303d e8ff bbbd
00000210: d939 a03d 39d9 81bd 10f9 843d 8e33 29bd
00000220: 893c 25bd 2520 02bd 4835 4e3c 7f13 ecbd
00000230: bdb3 cdbc 986e 203d 215b 903d e326 d53c
00000240: 5325 1bbd 4ed2 6bbe 398d bb3d 6e6f 8b3c
00000250: 415c dbbd b017 933d 3d50 c23d 5643 4abe
00000260: 58df 113e d7d5 ef3d 1fb7 d63b 641d 843d
00000270: 9079 063d 45e3 343d 9b9f 17bd 1cd9 11bc
00000280: b320 8d3b fa6f 59bd f25e 313d 1996 f6bb
00000290: e6bf 77bd aa27 143d 2074 11bd f07c 15bd
000002a0: af11 e43a 1b9a ab3d f506 573c 9911 033e
000002b0: a1e0 14be 8f02 863c 4399 72bd dee2 b4bc
000002c0: f70c babc 12f3 9abc b8d7 803d 5967 25be
000002d0: 2d69 34bc 3a1b 763d 39a2 403e 7850 a03c
000002e0: 92ea 23be 9fb9 653d 94be 8cbd 51ee 0b37
000002f0: 59be 0c3e e109 b23c 8f6d 23bc a736 a2bd
00000300: f0f8 03bd 7abb b23c 4c72 ffbd 01f7 f6bd
00000310: 762b 78bd a977 483d 23ed e13c 477c dc3a
00000320: 5809 5fbe b9a6 9abd 52cb 703d d84b 353e
00000330: 721b 10bd 7276 dbbd 32bd c33d bcf7 db3d
00000340: bb2f f0bb 41a3 0fbe b7ff 333e 8338 2c3d
00000350: 5553 7bbd 7721 e03d f0b1 c63d 4bb6 0bbd
00000360: 6a1f a43d 06f8 943d bff9 acbd 1f1e 003d
00000370: 696b 9dbc 42cd acbd 7c1a 89bd bbcc 86bd
00000380: a6ac fabc eb1a 5b3b c540 c5bd 216a c8bb
00000390: 2fa3 b63d 63d9 1b3d 0d3b f6bc cfc0 f83c
000003a0: 9f20 f4bd 08ec 1bbd 1a43 46bd 4514 4a3e
000003b0: 6908 cabc 050e ef3d d8c3 22bd 16e0 b73d
000003c0: 5dd2 a53c ef9d f03b 07f1 26bd 828b 993d
000003d0: fec8 16be 587b ea3b c99f 1ebd 07bd 28bd
000003e0: 916e a5bc 929e c13c 15d3 ae3c 3402 c1bd
000003f0: 83a6 023d e11c 66be 5f0d 56bc 2ddb 9b3d
-0.009910254 -0.19477083 0.07281073 -0.014043942 -0.011000446 0.022716366 0.09524016 0.0056302706
-0.03696346 -0.01685119 -0.12438412 -0.029403713 0.042344995 0.06609846 -0.068617515 -0.16775052
-0.11368006 0.09989774 -0.0021939478 0.04771594 -0.16935195 0.17162973 -0.011724538 -0.18199055
-0.022014158 0.15146855 0.018441211 -0.077277936 0.19938979 0.09542911 0.003891427 0.14333403
-0.11121808 0.0072762324 -0.09970967 0.052892298 0.013315238 0.019680867 -0.06940941 0.07515225
0.002533745 -0.1269781 0.054933894 0.111558095 -0.03133766 0.22391513 0.15216807 -0.0061031487
-0.07739107 0.06255722 -0.09209164 -0.17793785 0.0992124 -0.04515265 0.14484552 -0.004616321
-0.0124449115 -0.121971264 -0.087611765 -0.044256218 0.08766164 -0.012750616 -0.0747689 -0.12623954
-0.028592495 -0.23618987 -0.0041998387 0.025981128 -0.13040425 0.06439756 -0.03184955 0.04969332
-0.09936633 0.057353478 0.03323437 0.016016297 -0.019335175 0.029121699 0.037385415 -0.15039566
-0.08243636 0.06762692 0.11738855 0.022085201 0.041214164 0.06879859 -0.011428347 -0.08048368
0.10700143 0.14023405 0.08935871 -0.08162939 0.051956695 0.00177968 0.101031534 0.13071135
0.06305511 -0.0035964423 -0.03813304 0.014965815 -0.06586758 0.0863641 -0.027974738 0.043221615
-0.021509184 -0.08935591 -0.05360756 0.20609602 0.09363143 0.08252962 -0.01595937 0.045335196
-0.13519637 0.052894004 0.018169891 -0.10865581 0.09795049 0.088939756 0.0111087505 0.00786481
-0.041728795 -0.1366314 0.026184857 0.0059657325 0.051643427 0.07966455 -0.05440083 -0.059440352
-0.04474765 -0.11100217 0.04303493 -0.091796696 0.078235336 -0.0634026 0.064928174 -0.041308932
-0.040340934 -0.031768937 0.012585945 -0.11527156 -0.02511012 0.03916797 0.070486315 0.02601952
-0.037877392 -0.23029444 0.091577955 0.017020907 -0.107109554 0.071822524 0.094879605 -0.19752249
0.14245355 0.117107086 0.0065525915 0.06450918 0.032830775 0.044162054 -0.037017446 -0.008901861
0.0043068766 -0.053085305 0.043303438 -0.0075252173 -0.060485743 0.03617064 -0.035511136 -0.036496103
0.001740029 0.08379003 0.013124217 0.12799682 -0.14538814 0.016358642 -0.059228193 -0.022080835
-0.02271126 -0.018914733 0.06291145 -0.16152705 -0.011011404 0.06008456 0.18811883 0.01956962
-0.1600745 0.056085225 -0.068722874 8.340533e-06 0.13744487 0.021733226 -0.009974851 -0.0792058
-0.032219827 0.021817911 -0.12472972 -0.12058831 -0.060588323 0.04894224 0.027578896 0.0016821706
-0.21780908 -0.07551331 0.05878765 0.17704713 -0.035182424 -0.10715951 0.095575705 0.10740611
-0.0073299087 -0.1402712 0.17578016 0.04204608 -0.06135877 0.10943883 0.09701908 -0.034109395
0.08013804 0.07273869 -0.08446073 0.031278726 -0.019216256 -0.08437587 -0.066945046 -0.06582018
-0.030599903 0.0033432792 -0.096314944 -0.006116167 0.089178436 0.038049113 -0.030057454 0.030365376
-0.119202845 -0.038066894 -0.048403837 0.19734295 -0.024662213 0.11672596 -0.039737552 0.08978288
0.02024191 0.007343046 -0.040757205 0.07497312 -0.1472511 0.007155817 -0.0387266 -0.041195896
-0.020194324 0.023635183 0.021340886 -0.09424248 0.03189708 -0.22471954 -0.013064711 0.07610164

fc_cls1.bias f4 [256]
00000000: 6f29 a3bd 85e2 79be 7db3 36be b233 10be
00000010: 3316 80be a679 9fbe db57 fcbd 411d 10be
00000020: 6038 dcbd 710f 6cbe 8046 63bd f1a4 fbbd
00000030: 1638 18bd 4400 2fbe 118d 0ebe cf0e fdbd
00000040: bf9c ecbd 8fd1 02bf 724b 08be 26e6 54be
00000050: 2d12 8e3d 856a 603e b93b e0bd 0dcb b9be
00000060: b617 7ebe 3970 333e 2fb6 3ebe 6fe9 8dbe
00000070: 4fcb 28be fa16 1ebe 8511 0bbd 7a48 9c3d
00000080: 9d99 9f3e 9b07 d0bc 2569 a8bd 5466 47be
00000090: 2edf 1ebe 4d07 64be 3c84 c8bd 59a8 a8be
000000a0: fac2 44be 0358 08be 3cd6 7cbd 23f1 63bd
000000b0: fd4b 6dbe b287 1ebe 1211 bdbd f30a cbbd
000000c0: b677 50be 4156 80be 6975 d7b8 16a5 83be
000000d0: 4a26 4ebd 4722 6cbe 6788 cf3a 13a0 57bd
000000e0: a5a2 36be e3a4 83be 9d6e bcbd 8ed7 2abe
000000f0: 1ddb 08bf 3937 86be c580 063d 6479 7cbe
00000100: 1941 46be b47e 02bf 56e1 b0be 459e 8ebd
00000110: 456d 03be 4d4f 78bd 18b8 10bd 7335 33bd
00000120: edcd 9ebe 2b49 1bbe 144b babd a893 23be
00000130: 288f d1bd 6549 a4bd 8890 97be 23d0 1abe
00000140: cf23 36be dc78 63be 0301 80be 1f29 45be
00000150: cc2c 9bbd 1fd4 d9bd ed7b c33c c008 34bc
00000160: 2fa0 a0bd 5c23 60be 1c99 90be 66cf 1fbe
00000170: 845f 5cbd 8981 f2bd 64e3 03be 82f4 45be
00000180: 24e7 14be a7a5 32be 3fec 61be 3332 6dbe
00000190: 2b4d 9fbd 39c0 e4bc 668e 24be 637d 0fbd
000001a0: 583b 78bd 6247 a3be 186b 3dbe 22af 6e3c
000001b0: 24bd 653e 3440 83be acee 7cbe f782 26be
000001c0: 5447 b3bd 6295 55be 6f81 ddbd f162 81be
000001d0: 7857 c2be 77ff 40be 5601 12be 4be5 2abe
000001e0: 1a85 30be f4f8 47be 5e93 39bd 6991 a8bd
000001f0: b029 57be fdcd 36be ad58 33be e9c1 073e
00000200: b3a1 1abe dff4 1fbe a78f fc3b 76c9 9abe
00000210: dc6e b4bd b3a7 7ebd 3a77 4fbc 8c09 81bd
00000220: d91e 33be e1db 73be bf3a 7cbe 4efa 93be
00000230: f937 16be 7f29 22be f3c9 55be d933 4dbe
00000240: f035 dfbd 6ca8 09be 5c02 50be ccd5 86be
00000250: 3d2b 43be 9aa2 d7be 7514 153e d1c2 3abe
00000260: 902b e4bd 82fc 42be 3d29 9dbe cf1e f6bd
00000270: 0ba2 70bd a447 b13d c69c 593d 7ac9 27be
00000280: dd67 633d be03 fcba b6d4 b7bd 6ed9 9c3c
00000290: 2754 24bd 57a7 34bc 3523 d6be d547 abbe
000002a0: bf7c 48be 2a80 d8bd ff73 e8bd f33f 7abd
000002b0: af39 67be e451 ecbd 3912 99be 8e62 073e
000002c0: 87e2 0dbe 9832 713e 04c1 91bc 0022 a1be
000002d0: 1e36 2cbe 324f ddbd ab03 9abe 1a26 1ebe
000002e0: 370b 87bd aadf d73b 62b1 b53c 10e7 adbe
000002f0: 3028 63be 3318 15be 7185 c2bd 8834 4bbe
00000300: 6cd7 dcbd 5aee 2cbd 2755 51be 21ff d3be
00000310: 5936 24bd be9f babe c085 4bbe b15d 1ebe
00000320: 69c5 22be 446c 8ebd 910c 70bc c16b 1dbe
00000330: a4b0 6dbe 80ec 83be 1b6c 8fbe 07f4 a3bd
00000340: 8503 43be 09c9 18be 9351 26be 250a 8dbe
00000350: 6dda 4abe a1f3 4dbe 0c76 30be ff58 48be
00000360: 12f9 c8bd ce15 8fbd 21cf 97be 09c4 5dbe
00000370: a3c8 67be 5b20 48be 849f acbd bae4 4bbe
00000380: 64f6 bcbd d55a 29be 320a acbd 8a09 75bd
00000390: 6a79 adbc 2542 39be 988a b7bd 699c d6bc
000003a0: e643 d8bd 3500 8fbe a914 11bd 23b4 39be
000003b0: d149 fabd c16c ecbd 74ec 5fbe 33ed adbe
000003c0: 41b3 2ebe 7ba7 76bd 76fd 84be 4ad7 34be
000003d0: 89db 1bbe 75a0 a6bd 5c1b 3fbe 1e97 c13d
000003e0: e71a 15be e8df 2cbe 15fb 8abe 13f1 4bbe
000003f0: 07f1 83be 9027 7bbe fc4c 40be 1430 6bbd
-0.07966887 -0.24402817 -0.17841907 -0.1408222 -0.25016937 -0.31147498 -0.123214446 -0.1407366
-0.1075294 -0.23052765 -0.055487156 -0.122873195 -0.037162863 -0.17089945 -0.13921 -0.1235634
-0.115533344 -0.5110101 -0.1331003 -0.2079092 0.069370605 0.21915634 -0.10948891 -0.36287728
-0.24813733 0.17523278 -0.18624185 -0.27717158 -0.16483806 -0.15438452 -0.033952255 0.07631011
0.31171885 -0.025394252 -0.0822318 -0.19472629 -0.15514824 -0.2226841 -0.09790847 -0.3294094
-0.19215003 -0.13314824 -0.061727747 -0.055649888 -0.23173518 -0.15481451 -0.092317715 -0.09914198
-0.20358166 -0.25065807 -0.00010273868 -0.25711888 -0.050329484 -0.23059951 0.0015833498 -0.052642893
-0.17835481 -0.25711736 -0.09200785 -0.1668379 -0.5345934 -0.26214007 0.032837648 -0.24655682
-0.1936077 -0.50974584 -0.34546918 -0.06963781 -0.12834652 -0.060622502 -0.035331815 -0.043752145
-0.31016484 -0.1516463 -0.09096351 -0.15974295 -0.10232383 -0.080218114 -0.29602456 -0.1511846
-0.17787097 -0.22214073 -0.25000772 -0.19253968 -0.07576904 -0.10636162 0.023862803 -0.010988414
-0.078430526 -0.21888489 -0.28241813 -0.1560646 -0.05380203 -0.11841113 -0.12879711 -0.19331554
-0.14541298 -0.17446004 -0.22062777 -0.2316368 -0.077783905 -0.02792369 -0.16069946 -0.035031687
-0.06060347 -0.31890398 -0.18497884 0.014568122 0.22435433 -0.2563492 -0.24700421 -0.16260897
-0.08753839 -0.20857766 -0.10815703 -0.252708 -0.37957358 -0.18847452 -0.14258322 -0.16689031
-0.17238274 -0.19528562 -0.045306556 -0.0823086 -0.21011996 -0.17852016 -0.17514296 0.13257565
-0.15100746 -0.15620755 0.0077075544 -0.30231827 -0.08810207 -0.06217165 -0.012662703 -0.06300649
-0.17492236 -0.23814346 -0.24631785 -0.28901905 -0.1466979 -0.15836142 -0.20877819 -0.2003931
-0.1089896 -0.13443154 -0.203134 -0.2633499 -0.19059463 -0.42116243 0.14558585 -0.18238379
-0.111411214 -0.19041637 -0.30695525 -0.12017595 -0.058748286 0.086562425 0.053128026 -0.16385451
0.055518974 -0.001922719 -0.08976118 0.019146647 -0.040119316 -0.011026225 -0.41823736 -0.3345324
-0.19578837 -0.1057132 -0.113502495 -0.061096143 -0.22580598 -0.11539057 -0.29896715 0.1322119
-0.13855945 0.23554456 -0.017792232 -0.31471252 -0.16817519 -0.10806121 -0.30080923 -0.15444222
-0.06593936 0.006587942 0.02217931 -0.3396535 -0.22183299 -0.14560013 -0.09498108 -0.19844258
-0.10783276 -0.042219497 -0.2044264 -0.41405585 -0.040090892 -0.3645 -0.1987524 -0.15465428
-0.15895618 -0.06954244 -0.014651434 -0.15373136 -0.23211914 -0.25766373 -0.28012165 -0.08005529
-0.19044311 -0.14920439 -0.16242056 -0.27546802 -0.19809885 -0.20112468 -0.17232531 -0.195652
-0.098131314 -0.06986581 -0.29650214 -0.21656813 -0.2263513 -0.19543593 -0.08428863 -0.19911471
-0.09226683 -0.16538556 -0.08400382 -0.05982355 -0.021176059 -0.18091638 -0.089619815 -0.026197629
-0.105598256 -0.27929845 -0.035420094 -0.18135123 -0.122211106 -0.11544181 -0.21867543 -0.3397003
-0.17060567 -0.060218316 -0.25974625 -0.17660251 -0.15220465 -0.081360735 -0.1866278 0.094526514
-0.14561044 -0.16882288 -0.27144685 -0.19916181 -0.25769827 -0.2452681 -0.18779367 -0.057418898

fc_cls2.weight f4 [128, 256]
00000000: 644a 18bd 9946 95bd 89f7 08bd 6abd f63d
00000010: 62ee a83d 8dec 6abe 8ace ad3b 51c9 72bd
00000020: 8c0f 8abd 33ce 20bc 7fcd 463c 5283 ecbd
00000030: 59ee c1bc b9ef 323d 4f89 6f3d e282 2fbc
00000040: b989 db3d abfe 87be 1f56 19be 890a 143e
00000050: d8fc babd 38d5 163e 9128 223c e6c9 06be
00000060: 9f80 5d3e 18dd 723d 924e b4bd 5dbd 72bd
00000070: b902 d8bb 011b 40bd f93b 133e 6b43 a73d
00000080: 6aaa a43d 1c24 7e3c 4cb2 75bc b1e5 c5bd
00000090: 28b8 8a3d 1f9f 203d 1769 4e3d 1d9f 053e
000000a0: 771b b63e 202e 5e3c f7ca d43c 1f3c 7e3d
000000b0: daad a83d f304 4a3d e7d2 f33d 2be8 63be
000000c0: f407 03bd 85b3 86bc 5f94 e6bb 8eff 3a3e
000000d0: c3e6 493f 01da b43d 67e5 f73a 83f4 24bd
000000e0: fcf6 783c 540e af3d 73c2 04bd 8ecc d53c
000000f0: 2cd8 f6bd a33d 97bd 3870 8d3d 4ca8 a83d
00000100: 4c0f 1e3e a45c e9bd a85a 35bd 7335 ad3c
00000110: 63b6 c3bd 2cde d13d 0308 f03a b808 a1bb
00000120: 9ebf fd3c b879 633d fd5d c63d 3016 343d
00000130: f940 843d 60b8 da3d e508 123e caca d7bc
00000140: 443f 5f3c 1b52 18bc 0197 153e 0ab0 5f3d
00000150: afe2 6b3c aa55 af3d bc97 0b3e ab1c 4cbe
00000160: c639 1d3d ed60 fc3c ec8e 8a3b e7ff c03d
00000170: d47a 8cbb c32f 683c ed47 633d d1bb 663d
00000180: 953f 183d 8a78 333e bc6c 8fbc a8a4 113e
00000190: a768 113e ec7d 97bc 5271 ef3d 55b3 2b3e
000001a0: f72e c53c f2a3 de3d 0867 833d 9e84 aabd
000001b0: 0ed1 c33d 5fcb c03d 7a03 163c 5c81 863d
000001c0: e5f0 603d 18e8 a53c 153c cbbc 1c7f 4c3d
000001d0: 8693 14be 6e5a 3d3d a413 55bd 44a9 a7bc
000001e0: 3d4f 553d d70c 063e c197 48be a317 4e3d
000001f0: 8fbe f73d df13 033d ed7d 833d fdbc 653d
00000200: 527b a1bd 3e09 fabb 33ef ce3d 197c 8ebd
00000210: b7ff 133f 86e0 eabc bffb 11be d77f 483d
00000220: a043 cf3d 964c d8bc c548 51be c1af 873d
00000230: 8179 83bc 7501 d7ba 110b 45bd cedc 89bd
00000240: e477 e53b 0764 7a3d 3f26 033c 24ca ba3d
00000250: 0028 c33c 38bd 9ebd ad98 b83d 565b fabc
00000260: b57b 19bd 9679 a0bd 34a3 38be eb1e f03d
00000270: 6736 b93d 5aaa 6a3d 216d c43c 12e1 c43d
00000280: cb7e bf3d 9264 8d3e c2e9 863d 8861 103e
00000290: 610b 50be ea70 c83d 254e babd dc60 5abc
000002a0: ce57 fc3c e9eb 503e ce29 bb3d cae8 52bc
000002b0: b5da d7bd 1449 583b 0a2d 9bbd 6ee1 8c3b
000002c0: 26c3 bebd b916 6b3d ebce b03e f0ea 043d
000002d0: 3e39 9f3c a438 d53b 1622 343d 3cb3 11bd
000002e0: 3ce1 cf3d ddcb 4f3e c845 bf3c ef86 843c
000002f0: 9ab0 fdbc cb8a 8f3b 974c cdbb ceba 6bbc
00000300: 97ee db3c 4c0d ecbc d931 c0bd 9bf8 383d
00000310: 9747 3bbd d355 51be 6724 12bd 4a11 30bc
00000320: 24b5 b6bb 65a7 1e3d 0c0c 973e e0fb aa3b
00000330: 36ab 743d 3928 023b 31dd 073e a619 2dbd
00000340: 2669 37bc b742 0dbd aa53 28be 8b2e 96bd
00000350: ce3b 393d 2caf ad3d 675e 45bc b0c6 763d
00000360: 5892 333c 402e babd 3101 193d cee6 12bd
00000370: eca5 803d 695d 493c 4d06 cabd 2bcf a6bc
00000380: 670f 023e 3818 9e3d e8fe aebd affe 4fbd
00000390: f2df d2bd 4657 b4bc a2e7 28bc d4f8 353d
000003a0: c39e 8f3c ac5d abbd 13f2 513e df4d 3bbd
000003b0: 8af0 bc3c 16c2 e43c c6ae a0bd c398 983c
000003c0: 3942 4d3c 73cf 85bd c3ae bdbc c484 7e3d
000003d0: 976f d13d 9dc6 bbbc de78 eabd 9235 843b
000003e0: 6e41 2cbc 1ff7 4e3d 2b4e eebc 5f7e fe3d
000003f0: a443 943d ab43 d53d 8db6 ec3c ab5d 9c3d
-0.03718032 -0.07288856 -0.033439193 0.120478466 0.08248593 -0.229418 0.0053041624 -0.05927402
-0.067412466 -0.009814787 0.012133955 -0.11548485 -0.023673223 0.04368565 0.058480557 -0.010712357
0.10719628 -0.26561484 -0.14974259 0.14457144 -0.09130257 0.14729774 0.009897367 -0.13162956
0.21631096 0.059292883 -0.088040486 -0.059262622 -0.0065921214 -0.046900753 0.14378347 0.08167156
0.080403164 0.015511539 -0.014996123 -0.09662951 0.06773406 0.03921425 0.05039319 0.13048978
0.3556783 0.013560802 0.025975687 0.062069055 0.082362846 0.049321126 0.11905461 -0.22256534
-0.031990007 -0.016443023 -0.00703673 0.18261549 0.7886774 0.088306434 0.0018912972 -0.040272247
0.015195604 0.08547655 -0.032412004 0.026098516 -0.1205295 -0.07384803 0.0690617 0.08235225
0.15435523 -0.11394623 -0.04427591 0.02114365 -0.09556272 0.10247454 0.0018312935 -0.0049143694
0.03097516 0.055536002 0.096858956 0.043966472 0.06457705 0.10679698 0.14261205 -0.026341815
0.013625924 -0.009296919 0.14608385 0.054611243 0.014397307 0.08561261 0.13632101 -0.19932811
0.038385175 0.030807937 0.0042284634 0.094238095 -0.004287103 0.0141715435 0.055488516 0.05633146
0.03717001 0.17526451 -0.017507903 0.14222968 0.14200078 -0.018492661 0.11691536 0.16767628
0.024070246 0.10871114 0.06416136 -0.08326076 0.095613584 0.0941379 0.009156102 0.06567642
0.054917235 0.020252272 -0.024808923 0.04992591 -0.145094 0.04622882 -0.052020684 -0.020466454
0.05207752 0.13090836 -0.1958914 0.05031551 0.12096893 0.032001372 0.06420503 0.056088436
-0.078848496 -0.0076304963 0.101042174 -0.069572635 0.57812065 -0.028671514 -0.1425619 0.048950043
0.1012032 -0.026403707 -0.20437916 0.06625319 -0.016049149 -0.0016403632 -0.048106257 -0.06731568
0.0070028175 0.06113055 0.008004724 0.091205865 0.023822784 -0.07750934 0.090134956 -0.03056113
-0.03747149 -0.07835691 -0.18031007 0.11724647 0.090435795 0.057291366 0.023977818 0.09613241
0.09350356 0.27615792 0.065875545 0.14099705 -0.2031684 0.09787162 -0.09096936 -0.013328757
0.030803587 0.20402493 0.09138833 -0.012872884 -0.10539762 0.0033002542 -0.0757695 0.0042993343
-0.09314565 0.057394717 0.34532866 0.032450616 0.019436475 0.006506996 0.04397782 -0.03557132
0.10150382 0.20292611 0.023348704 0.016177623 -0.030968 0.004380559 -0.0062652337 -0.014387799
0.026847167 -0.028814934 -0.09384508 0.045158964 -0.04572257 -0.20442896 -0.035679247 -0.0107463095
-0.005575793 0.03873386 0.2950138 0.005218014 0.059733592 0.00198604 0.13267972 -0.04226079
-0.011194503 -0.034487452 -0.16438165 -0.07333096 0.04522305 0.08480677 -0.012046433 0.060248077
0.010960184 -0.09090853 0.03735465 -0.035864644 0.06281647 0.012290337 -0.09864483 -0.020362457
0.12701188 0.07719463 -0.08544713 -0.050779995 -0.102966204 -0.022014271 -0.010309132 0.044426754
0.017531758 -0.08367476 0.205025 -0.04572856 0.023063917 0.027924579 -0.078458354 0.01862753
0.012527996 -0.065337084 -0.023154622 0.062138334 0.10226362 -0.022921855 -0.11448835 0.0040347064
-0.0105136465 0.05052864 -0.029090008 0.12426447 0.07239464 0.10413297 0.02889564 0.07635053

fc_cls2.bias f4 [128]
00000000: 2f3b 6d3d 4f7a e53d 162e 57bd c5dc 513e
00000010: ddc5 683d dc8e 5c3d 5793 853c 4583 7c3d
00000020: 87e4 403e ad8d 413e ad99 06be 4b3d 413e
00000030: 3926 953c f7d3 87be 14a3 e3bd ee99 3bbd
00000040: 1653 69bd c4b2 433e 2ec8 4bbe 3f28 a0bd
00000050: f62e e63d 26b2 2e3e 37f6 a73d e80c 583e
00000060: 7ebc d0bd 3c83 81bd 0c69 b73d 3ace 04be
00000070: 47ce 84bd 51eb bfbd 5890 8cbe a680 fa3d
00000080: 2d0e 7a3c 9385 b5be ea0d 533d 7208 cebd
00000090: b282 6abe 3ada 8ebe 79c6 58bc 1e57 dc3b
000000a0: 17f5 48bd c110 243e f249 ae3d 365a 253e
000000b0: 883c 213e d05d ab3d c351 d43d d397 eebb
000000c0: a1a6 163e a558 623d a35d 143e 060b 843e
000000d0: 141e 213e cf65 b93d 1813 593e 715d 313d
000000e0: f9e9 183e 2e2f 1c3e b2d3 8c3e a167 2f3e
000000f0: 0fa7 65be b6b5 983d 7594 103e 5629 a33d
00000100: 4fc7 5ebe a6b8 00bd ef01 5d3e 1229 07be
00000110: ff9a a9be 4cfe 0dbe 3fe3 b63d e9c2 a2bd
00000120: 5d74 a1bc d921 2d3e c497 413d 21a2 11bd
00000130: 6b01 53bd 8804 1b3e c1e8 d13d 6f4f 0dbe
00000140: dc2c 7b3e d3b0 013e feb8 8e3e c14a 24be
00000150: a4de cb3d 1726 89bd f179 6f3d 7ea8 b0be
00000160: 7c02 683d 1937 243e 1a73 683e c66f 90bd
00000170: 21ac 2b3e 1280 0f3d 89d4 6a3e 09fd 303d
00000180: 5e6a 363e 2e4b 5e3e b97e 263e 676a ea3c
00000190: 89db c23d 9db7 463e 41b2 77bd 9ce7 883e
000001a0: 7ef5 f53d 7b76 403d b1d7 173e f9d6 943e
000001b0: 8201 1dbd 3626 413e 374f 273e ce24 3bbd
000001c0: 4638 54bd dbbe 91bd 313d bf3d b05f 473e
000001d0: b44a 433e bcb3 cdbd ce1b ef3d f744 243e
000001e0: db1b df3b 478c 11be 63c7 d03d a65a 4a3d
000001f0: 61da f3be 5e77 233e 776a 043e 5c65 ae3d
0.05791777 0.11204969 -0.052534185 0.20494373 0.056829322 0.05384718 0.016305609 0.061648626
0.18837176 0.18901701 -0.1314456 0.18871038 0.018206703 -0.26528904 -0.11115089 -0.045801096
-0.056964003 0.19111162 -0.19900581 -0.07820176 0.11239426 0.17060146 0.08201259 0.21098673
-0.10192202 -0.06323859 0.08955583 -0.12969294 -0.06484657 -0.09371055 -0.27453876 0.12231569
0.015262169 -0.35453472 0.05152694 -0.100602046 -0.22901419 -0.2790087 -0.013230913 0.0067242524
-0.04906186 0.16022016 0.08510198 0.16147694 0.15745747 0.08367503 0.10367157 -0.0072812825
0.14712001 0.05526032 0.14488845 0.2578966 0.1573413 0.090526216 0.2119869 0.043302003
0.14933003 0.15252373 0.2750526 0.17129375 -0.22427009 0.074565336 0.14119132 0.079668686
-0.21755718 -0.031426094 0.21582769 -0.13199261 -0.33126065 -0.13866538 0.089300625 -0.079473324
-0.019708807 0.16907443 0.047263876 -0.03555501 -0.051515024 0.15138447 0.102494724 -0.13799833
0.24528831 0.1266511 0.27875513 -0.16044141 0.09954575 -0.06696718 0.0584659 -0.3450355
0.056642994 0.16036643 0.22700158 -0.07052569 0.1676488 0.035034247 0.22932638 0.043210063
0.17814013 0.21708366 0.16259278 0.02861519 0.09514529 0.1940598 -0.06047273 0.26739204
0.120097145 0.04698799 0.14828373 0.2907026 -0.038331516 0.18862233 0.16338812 -0.045689397
-0.05181148 -0.07116481 0.09337843 0.19470096 0.19071466 -0.10044047 0.11675225 0.16041933
0.0068087406 -0.14213668 0.1019428 0.049402855 -0.47627547 0.15963504 0.12931238 0.085154265
