data/predictor/PT/SiameseNetwork_2024-05-13_21-15-43.pt (torch, 304379 bytes, 12 tensors)

conv1.bias f4 [64]
-0.055271965 0.08026069 -0.05644551 0.0129977865 -0.05175142 -0.11502987 0.068346925 0.026604047
-0.070281945 0.03607912 -0.024708513 -0.004692581 -0.12930664 0.094046086 -0.024474245 -0.016535088
-0.0030379652 -0.09208846 0.13368796 -0.008046875 0.009457905 0.00932906 -0.12752281 0.03963398
-0.16725844 -0.09854579 -0.09021105 0.09679864 0.014618304 -0.013497762 0.09074143 -0.005902445
-0.0033345888 -0.063532315 -0.14877564 0.05299567 0.0 -0.037637684 -0.044356834 -0.0060168807
0.057751548 -0.018188098 0.028645175 -0.10890847 -0.106649436 -0.016771497 0.15448558 -0.036327668
-0.088488005 -0.10500067 0.097868994 -0.016556839 -0.08823245 -0.044686448 -0.082681514 -0.07619627
-0.026628325 0.08993002 -0.028776556 -0.104161136 -0.044178568 -0.08155321 -0.01851854 0.018379968
00000000: db64 62bd b75f a43d 6833 67bd abf4 543c
00000010: 4cf9 53bd c894 ebbd 79f9 8b3d bbf0 d93c
00000020: fbef 8fbd b3c7 133d 8269 cabc 39c4 99bb
00000030: f668 04be 3c9b c03d 367e c8bc 9874 87bc
00000040: 9918 47bb e098 bcbd 7fe5 083e 0ad7 03bc
00000050: 54f5 1a3c ead8 183c 5795 02be 3d57 223d
00000060: cc45 2bbe 60d2 c9bd 92c0 b8bd 5e3e c63d
00000070: 9c81 6f3c b825 5dbc a5d6 b93d 4c69 c1bb
00000080: 1e89 5abb 3b1d 82bd a458 18be fd11 593d
00000090: 0000 0000 f929 1abd 83af 35bd 4129 c5bb
000000a0: e38c 6c3d 35ff 94bc 49a9 ea3c 670b dfbd
000000b0: 056b dabd 6164 89bc 7831 1e3e 52cc 14bd
000000c0: 3339 b5bd 970a d7bd 8a6f c83d 35a2 87bc
000000d0: 37b3 b4bd 2309 37bd ed54 a9bd ca0c 9cbd
000000e0: a523 dabc 3b2d b83d d0bc ebbc 6f52 d5bd
000000f0: 96f4 34bd 5f05 a7bd 31b4 97bc 9691 963c

conv1.lin.weight f4 [64, 6]
-0.013173587 -0.6905814 0.041858595 0.6000155 0.049721286 -0.012974481 -0.10597336 -0.79908836
0.6011078 -0.77651304 0.07624293 0.46750942 0.031838782 0.4251462 -0.7670809 0.6424991
0.03171792 -0.19770229 0.17741089 -0.1736014 -0.1795431 0.25343263 -0.28575695 0.35366246
0.03194755 0.344837 0.16943687 0.45461515 0.1236422 -0.6869686 0.20414071 0.11844081
0.19768383 -0.20246744 -0.23436368 -0.18705504 -0.07996674 0.46088997 -0.31852543 0.21585432
-0.24035448 0.08378138 0.26193383 -0.2940614 -0.23786473 -0.025132172 -0.02660744 0.530767
0.061841946 0.17851174 0.004607201 -0.13535374 -0.13535796 -0.5086988 -0.053646453 0.21502143
-0.23166622 0.6717327 -0.2818512 -0.5929278 0.0041996343 0.004713917 -0.33966172 0.28108698
0.0122758765 0.9754285 -0.14708725 -0.6201297 0.48524094 -0.46227458 -0.035464305 0.5224146
0.068804525 0.34630415 -0.62354624 0.2265499 -0.029585153 0.1377146 0.32071015 -0.46735945
-0.38657975 0.22654875 -0.053598378 0.6757213 -0.49138224 0.028779007 0.27701947 0.26304898
-0.18570891 0.7064893 -0.5948337 0.08198316 -0.14449157 0.40970978 -0.08334166 0.15769309
-0.20257226 0.35068083 -0.22905165 0.2594733 0.17590868 0.6640933 -0.5967236 0.3285959
-0.1827947 0.49887598 -0.03366019 0.3491295 -0.15151504 0.4045806 -0.32605517 0.35909426
-0.13850369 0.63768417 -0.04454416 -0.046997324 -0.12257698 0.005455266 -0.004396674 -0.13419563
-0.07941267 0.6361398 0.24893303 0.15808961 -0.016721455 0.87082136 -0.035317395 0.4715284
-0.64342237 -0.40194806 -0.1755352 0.54334724 0.10124655 0.04600441 0.097943984 -0.09244801
0.13496827 1.2804848 0.04011122 -0.70014703 0.25040945 -0.28587013 -0.05110402 -0.29519963
-0.05792922 0.1213768 0.39328504 0.28400156 0.0019414979 0.7507323 0.033001527 -0.0685281
0.55827284 -0.078886874 0.03269595 0.35419896 0.07589923 0.05097882 0.46261567 -0.7155557
0.26001456 -0.34598368 -0.119381376 0.4198529 -0.3220971 0.13644966 -0.14073634 -0.60367894
-0.570943 0.11865794 -0.2505991 0.35532004 0.2380707 0.14278492 0.06606844 -0.20203452
-0.0009439273 -0.21348198 0.22913538 -0.26265118 -0.59251046 0.061005346 0.18935609 0.21959232
-0.11299217 0.5279734 -0.0020828247 -0.14709838 -0.16605063 -0.26530427 -0.12371597 0.084191106
-0.5630672 -0.862725 0.48198077 0.7658249 0.17648381 -0.10711121 -0.08427066 0.21389669
0.22930968 -0.14191426 0.008670353 1.6806402 0.12418138 -0.11407114 -0.07911284 -0.042778313
0.03881251 0.64157057 -0.07219879 -0.76646256 0.46933788 -0.011573893 -0.23441064 -0.11543793
-0.120802164 -0.12278649 -0.02345562 -0.03208205 -0.27181917 -0.12088372 -0.0030652655 0.62112576
0.043162093 -0.028889991 0.10996851 0.6299939 0.22580461 0.04966065 -0.62302655 -0.47496232
0.02350682 1.3177375 -0.0070235464 0.12355202 -0.124476664 0.625098 -0.25933564 -0.34192452
-0.31281847 -0.2924796 0.106304735 0.16830598 -0.07557608 0.7578484 -0.32119405 -1.0083927
-0.22127014 0.45791516 -0.07983391 -0.23867317 -0.3774031 -0.26081452 0.16397253 -0.61816067
00000000: 07d6 57bc f1c9 30bf eb73 2b3d 9e9a 193f
00000010: 8ca8 4b3d eb92 54bc 9008 d9bd 0e91 4cbf
00000020: 33e2 193f 8fc9 46bf 4125 9c3d 655d ef3e
00000030: 6269 023d c3ac d93e 6a5f 44bf d27a 243f
00000040: a6ea 013d 7872 4abe 33ab 353e 91c4 31be
00000050: 25da 37be ecc1 813e bc4e 92be 3f13 b53e
00000060: 6fdb 023d 7a8e b03e dc80 2d3e 51c3 e83e
00000070: 1f38 fd3d 2ddd 2fbf 430a 513e 1891 f23d
00000080: a16d 4a3e a053 4fbe 08fd 6fbe 5b8b 3fbe
00000090: 9ac5 a3bd c5f9 eb3e c415 a3be ea08 5d3e
000000a0: 7c1f 76be 9295 ab3d 311c 863e 378f 96be
000000b0: d092 73be fce1 cdbc d9f7 d9bc 59e0 073f
000000c0: fb4d 7d3d c8cb 363e 01f8 963b 2c9a 0abe
000000d0: 479b 0abe 163a 02bf 62bc 5bbd 942e 5c3e
000000e0: e939 6dbe adf6 2b3f cd4e 90be 1eca 17bf
000000f0: 169d 893b 3477 9a3b 24e8 adbe a2ea 8f3e
00000100: c220 493c afb5 793f 0a9e 16be d2c0 1ebf
00000110: 8071 f83e 41af ecbe 0543 11bd f7bc 053f
00000120: 63e9 8c3d c74e b13e baa0 1fbf b2fc 673e
00000130: 905c f2bc 0e05 0d3e 1f34 a43e bd49 efbe
00000140: c8ed c5be 65fc 673e f989 5bbd 12fc 2c3f
00000150: 7496 fbbe f4c1 eb3c 7fd5 8d3e 5bae 863e
00000160: 7a2a 3ebe 7cdc 343f 0547 18bf c9e6 a73d
00000170: 99f5 13be 7bc5 d13e 08af aabd 4c7a 213e
00000180: 1a6f 4fbe 708c b33e 848c 6abe afd9 843e
00000190: 6821 343e 0502 2a3f e1c2 18bf b93d a83e
000001a0: 892e 3bbe ac6c ff3e 44df 09bd 1ac1 b23e
000001b0: c226 1bbe 3025 cf3e b4f0 a6be 34db b73e
000001c0: e9d3 0dbe 453f 233f f073 36bd 4480 40bd
000001d0: a409 fbbd 17c2 b23b fa11 90bb 946a 09be
000001e0: 1ca3 a2bd 0fda 223f 4de8 7e3e 3ee2 213e
000001f0: 6ffb 88bc 26ee 5e3f f9a8 10bd 2c6c f13e
00000200: 54b7 24bf 23cc cdbe 80bf 33be ce18 0b3f
00000210: 5a5a cf3d 1f6f 3c3d db96 c83d 6255 bdbd
00000220: 1f35 0a3e ede6 a33f aa4b 243d d63c 33bf
00000230: ab35 803e 925d 92be 7352 51bd 6824 97be
00000240: 3147 6dbd 6694 f83d a85c c93e a768 913e
00000250: dc79 fe3a fe2f 403f 9c2c 073d 7658 8cbd
00000260: f8ea 0e3f 718f a1bd 30ec 053d 9159 b53e
00000270: 0e71 9b3d 2bcf 503d f6db ec3e a92e 37bf
00000280: a120 853e c624 b1be 397e f4bd f6f6 d63e
00000290: e9e9 a4be 76b9 0b3e 301d 10be b48a 1abf
000002a0: 5229 12bf ef02 f33d 864e 80be 82ec b53e
000002b0: cec8 733e 3636 123e e44e 873d 23e2 4ebe
000002c0: e471 77ba 059b 5abe 77a2 6a3e 377a 86be
000002d0: c4ae 17bf bee0 793d 90e6 413e cfdc 603e
000002e0: 7068 e7bd 4429 073f 0080 08bb f5a0 16be
000002f0: 2d09 2abe f6d5 87be cc5e fdbd 636c ac3d
00000300: 2c25 10bf 8cdb 5cbf 2fc6 f63e 1a0d 443f
00000310: 2cb8 343e 1f5d dbbd 1996 acbd bc07 5b3e
00000320: 28d0 6a3e f951 11be 190e 0e3c 381f d73f
00000330: cf52 fe3d 219e e9bd ea05 a2bd 5038 2fbd
00000340: def9 1e3d f83d 243f f6dc 93bd e436 44bf
00000350: 0e4d f03e 6da0 3dbc 5809 70be b96a ecbd
00000360: 2067 f7bd 7c77 fbbd 0026 c0bc 7868 03bd
00000370: e22b 8bbe e291 f7bd 9fe2 48bb 1902 1f3f
00000380: bcca 303d b4aa ecbc 2c37 e13d 4847 213f
00000390: 5339 673e f768 4b3d ab7e 1fbf 432e f3be
000003a0: 6091 c03c 9fab a83f c725 e6bb d708 fd3d
000003b0: 9fed febd 6c06 203f a4c7 84be bb10 afbe
000003c0: be29 a0be e3bf 95be 4cb6 d93d 6758 2c3e
000003d0: a2c7 9abd 5a02 423f 8c73 a4be 0313 81bf
000003e0: a494 62be db73 ea3e f67f a3bd bd66 74be
000003f0: fb3a c1be 7b89 85be 6ae8 273e c73f 1ebf

conv2.bias f4 [64]
0.064561 -0.18073948 -0.052538138 -0.06642144 -0.04648456 0.07718654 0.0 -0.071338296
-0.1221331 -0.031173619 -0.050327655 -0.019250246 -0.009572748 -0.013567812 0.06706691 0.07452382
-0.11197099 -0.11094694 -0.03142953 -0.061117407 -0.006309123 0.05158589 -0.14319031 -0.13736278
0.084052004 -0.042180933 0.08714381 -0.011005788 -0.026285412 0.024389153 -0.078872316 -0.18685396
0.06930219 -0.13475928 -0.107059404 -0.11118321 -0.027519628 0.0 -0.047593754 -0.057832696
-0.17454922 -0.075303614 -0.04234051 -0.032957427 -0.026651245 -0.02941417 0.05422036 -0.226398
-0.11010328 -0.036761522 0.061732836 -0.06836236 -0.03239779 -0.032050822 0.08074758 -0.11164876
0.023386065 -0.18763392 -0.036658272 -0.04483252 -0.014065517 -0.09383404 -0.004462158 -0.07221696
00000000: 8f38 843d c513 39be 3b32 57bd f707 88bd
00000010: 9866 3ebd fa13 9e3d 0000 0000 d019 92bd
00000020: eb20 fabd d15f ffbc 5f24 4ebd b1b2 9dbc
00000030: 04d7 1cbc 874b 5ebc 605a 893d f29f 983d
00000040: 0c51 e5bd 2638 e3bd 40bc 00bd 3f56 7abd
00000050: c2bc cebb ba4b 533d 7ba0 12be d4a8 0cbe
00000060: 7523 ac3d eac5 2cbd 7478 b23d 9f51 34bc
00000070: 8154 d7bc c3cb c73c cf87 a1bd a556 3fbe
00000080: 4eee 8d3d 56fe 09be f641 dbbd 06b4 e3bd
00000090: d870 e1bc 0000 0000 abf1 42bd fae1 6cbd
000000a0: 08bd 32be c838 9abd 3e6d 2dbd 5efe 06bd
000000b0: b653 dabc fcf5 f0bc 2b16 5e3d e1d4 67be
000000c0: d47d e1bd 4093 16bd 92db 7c3d 9101 8cbd
000000d0: 8cb3 04bd b947 03bd fd5e a53d 1ba8 e4bd
000000e0: 2294 bf3c 1b23 40be fc26 16bd 4ea2 37bd
000000f0: 0e73 66bc 102c c0bd 4b37 92bb 7ce6 93bd

conv2.lin.weight f4 [64, 64]
-0.41606516 0.13708606 -0.311815 -0.11979935 0.15241194 0.20265616 -0.043148715 -0.12953876
0.03480543 -0.26593912 0.22350428 -0.2898861 -0.07421493 0.23384999 0.26260838 -0.7867342
0.050435837 -1.032112 -0.3586536 0.0031678255 0.27952728 -0.48340902 0.104750395 -0.006885375
-0.03899498 0.16122162 0.22461873 -0.27861995 -0.661351 -0.06094795 -0.05904892 -0.048798304
-1.0220964 0.1754143 0.19246319 -0.08561049 0.093035445 0.09440186 -0.05008391 -0.15767662
0.58725095 -0.39525947 0.9745969 -1.3171289 -0.0311206 -0.05403022 -0.49553078 -2.2532856
-1.0213964 0.29883656 -0.07987348 -0.006300198 0.22320017 0.3222668 0.2345085 0.0012798905
-0.010327291 0.35360175 0.009110256 0.16715124 -0.4458312 -0.011615936 -0.37305102 -0.4887388
0.0892666 0.15647656 0.3169515 0.15770902 -0.15622042 -0.3553948 0.18238035 0.067032054
-0.24222001 0.21732917 -0.01218102 0.5781105 0.2716649 -0.02654886 -0.504215 -0.27112758
0.25961006 -0.104776345 0.38005027 -0.12778828 0.29925978 0.34687468 0.38787493 -0.35467544
0.16086484 0.024417492 -0.35683814 -0.20536295 -0.17487861 -0.19015644 -0.4777174 -0.20047055
0.07855862 0.52980244 0.110588565 -0.06951703 0.07293548 0.27330282 0.24552605 0.1979474
0.006182614 0.33417246 -0.14071189 0.16671647 0.16360565 0.020901017 0.4988965 0.2683515
0.11076582 0.2109152 0.03415571 0.08770821 -0.22290967 0.4959044 -0.19282278 -0.21218956
-0.47852218 -0.3145486 0.0031636667 0.2392879 0.008594513 -0.06358462 -0.31068307 0.19391301
0.25520268 -0.09210407 -0.17744684 -0.07954219 0.16283138 -0.23458448 -0.3483594 -0.2863234
-0.52733517 0.12404249 0.18307564 0.16752669 -0.31118578 0.011438159 0.6030709 0.19829252
-0.24497367 -0.17500219 0.33248577 -0.01033893 0.07147896 -0.6067149 0.60653865 -0.0040526064
0.15030551 -0.0011781203 -0.33036414 -0.16333984 -0.09041478 -0.014825468 0.414216 0.15636946
0.44428316 0.26854637 -0.04790321 0.42541695 0.079998836 -0.013157211 -0.221378 0.2876512
0.6524501 -0.62455934 -0.15301748 -0.5444599 -0.5698186 0.2443611 0.3234883 0.041510362
-0.048339944 -0.17017931 0.6051223 -0.016998162 -0.44445974 -0.020261288 0.0026431822 0.18163894
-0.090892754 0.47976843 -0.21830928 0.4376782 0.19631273 -0.33352202 0.6965076 -0.36380962
0.0056963284 0.15755002 -0.12355615 -0.06753816 -0.2344857 -0.12167676 -0.09348234 0.14881103
0.100798726 -0.123782635 -0.06896196 -0.12459863 -0.023004796 0.132716 -0.19632626 0.0414765
-0.0012005265 -0.05421625 0.053790092 -0.1415947 -0.11193018 -0.23897399 -0.09012507 -0.15958849
-0.20432071 -0.21759018 0.0057063 0.114617035 0.08757199 0.024111167 -0.080901325 0.023555458
0.09562742 -0.1671361 -0.16732073 -0.11338884 -0.18138254 -0.2293393 0.09979157 -0.051608145
-0.018006742 -0.120907664 0.08753927 -0.19873594 0.11669162 -0.21472134 0.0324219 0.022461787
-0.1264514 0.16784796 -0.20380059 -0.0254258 -0.25212735 -0.14753251 -0.16110176 -0.026789889
-0.033757675 -0.016891181 -0.1833819 -0.20612964 0.15754241 -0.1555644 -0.23381728 -0.2846482
00000000: 7e06 d5be 4a60 0c3e 37a6 9fbe 5d59 f5bd
00000010: e011 1c3e 1985 4f3e b5bc 30bd cfa5 04be
00000020: 2390 0e3d 2c29 88be 4ede 643e f36b 94be
00000030: fffd 97bd 5f76 6f3e 9b74 863e 6a67 49bf
00000040: cf95 4e3d 3f1c 84bf 72a1 b7be 4b9b 4f3b
00000050: 331e 8f3e 6381 f7be 6087 d63d b69e e1bb
00000060: 33b9 1fbd 4817 253e 7402 663e 46a7 8ebe
00000070: 4d4e 29bf 8fa4 79bd 48dd 71bd bbe0 47bd
00000080: 0ed4 82bf ce9f 333e 1215 453e 8d54 afbd
00000090: 5e89 be3d c355 c13d c924 4dbd fb75 21be
000000a0: 1456 163f 735f cabe 2f7f 793f ae97 a8bf
000000b0: a1f0 febc cb4e 5dbd 36b6 fdbe d535 10c0
000000c0: 1ebd 82bf 1b01 993e b594 a3bd e471 cebb
000000d0: 968e 643e 2700 a53e ff22 703e 00c2 a73a
000000e0: cc33 29bc 4a0b b53e 2f43 153c b229 2b3e
000000f0: fd43 e4be c450 3ebc 8b00 bfbe f93b fabe
00000100: 68d1 b63d 643b 203e 7847 a23e 797e 213e
00000110: 3ff8 1fbe 4ff6 b5be eac1 3a3e 1a48 893d
00000120: 8608 78be 8a8b 5e3e e792 47bc 0dff 133f
00000130: a917 8b3e ff7c d9bc 3c14 01bf 3cd1 8abe
00000140: 9ceb 843e fb94 d6bd f395 c23e eeda 02be
00000150: 9438 993e 8f99 b13e 8b97 c63e 0598 b5be
00000160: c1b9 243e 3107 c83c 7db3 b6be aa4a 52be
00000170: 6113 33be 5fb8 42be 6097 f4be 2748 4dbe
00000180: 57e3 a03d 22a1 073f 427c e23d f25e 8ebd
00000190: 325f 953d 59ee 8b3e 2e6b 7b3e b9b2 4a3e
000001a0: 8697 ca3b a718 ab3e c716 10be b9b7 2a3e
000001b0: 3d88 273e 9c38 ab3c 5d6f ff3e 5e65 893e
000001c0: 31d9 e23d 27fa 573e dce6 0b3d 5da0 b33d
000001d0: 6f42 64be 2ee7 fd3e 5673 45be 3848 59be
000001e0: dc00 f5be 840c a1be 8555 4f3b e307 753e
000001f0: 00d0 0c3c a738 82bd da11 9fbe 2291 463e
00000200: eda9 823e 0fa1 bcbd a0b4 35be 04e7 a2bd
00000210: 45bd 263e ea36 70be 2a5c b2be fb98 92be
00000220: 70ff 06bf fd09 fe3d 2e78 3b3e 1e8c 2b3e
00000230: be53 9fbe 1e67 3b3c db62 1a3f 320d 4b3e
00000240: 61da 7abe c633 33be 933b aa3e 9e64 29bc
00000250: 9063 923d ab51 1bbf 1e46 1b3f bacb 84bb
00000260: b0e9 193e 286b 9aba 7d25 a9be 8f42 27be
00000270: 622b b9bd 85e6 72bc 1f14 d43e 511f 203e
00000280: 1579 e33e e97e 893e 2836 44bd 40d0 d93e
00000290: 6ed6 a33d 5891 57bc eab0 62be 0547 933e
000002a0: f806 273f 1fe3 1fbf 9db0 1cbe b961 0bbf
000002b0: a2df 11bf cc39 7a3e 42a0 a53e c506 2a3d
000002c0: 1b00 46bd 7c43 2ebe 4ce9 1a3f bb3f 8bbc
000002d0: 3a90 e3be 00fb a5bc 3d39 2d3b 8fff 393e
000002e0: fb25 babd 35a4 f53e 788c 5fbe 5b17 e03e
000002f0: 3406 493e 66c3 aabe 524e 323f 4145 babe
00000300: 44a8 ba3b cb54 213e 020b fdbd 7251 8abd
00000310: 051d 70be aa31 f9bd ab73 bfbd eb61 183e
00000320: 906f ce3d c081 fdbd ee3b 8dbd 912d ffbd
00000330: 8e74 bcbc b4e6 073e c009 49be 43e3 293d
00000340: fc5a 9dba dc11 5ebd 0053 5c3d 33fe 10be
00000350: a63b e5bd 99b5 74be 7e93 b8bd 2a6b 23be
00000360: 7339 51be f6cf 5ebe eafb ba3b 56bc ea3d
00000370: f258 b33d c884 c53c 98af a5bd 60f7 c03c
00000380: 4fd8 c33d ba25 2bbe 2056 2bbe 6838 e8bd
00000390: 58bc 39be ecd7 6abe 865f cc3d 1063 53bd
000003a0: e082 93bc 709e f7bd ca47 b33d 6f81 4bbe
000003b0: 04fc ee3d e9df 5bbe d4cc 043d c801 b83c
000003c0: 7a7c 01be 56e0 2b3e 1ab1 50be c449 d0bc
000003d0: d616 81be c312 17be dcf7 24be 7876 dbbc
000003e0: 7d45 0abd 605f 8abc 77c8 3bbe a613 53be
000003f0: cc52 213e 464c 1fbe cc6d 6fbe 69bd 91be

conv3.bias f4 [64]
0.029414998 0.008561945 -0.0027166312 0.0018892877 0.0242197 -0.09731368 -0.016794927 -0.001220584
0.008639445 0.029302439 0.032849703 0.0056369607 0.017099818 0.005309112 0.0072953315 0.034109663
-0.012443885 0.023002066 -0.07688447 -0.045872554 0.022263965 0.0050639277 -0.013561257 -0.0075986735
0.0023353007 0.027384447 0.04431499 0.041734412 -0.03339668 -0.00844347 -0.0026891632 0.02997531
-0.028770322 -0.006489318 -0.0073525673 -0.067485295 -0.0385597 0.052522864 0.04414342 -0.100159325
0.010296074 0.022195023 -0.0062280903 0.10185342 0.10174556 -0.039202854 -0.040602416 -0.01497484
-0.00015933126 -0.038670585 0.008204082 0.039976217 0.053063393 0.03676967 0.045144215 -0.0459581
-0.008421276 0.016247142 -0.01835292 -0.06337084 0.011109938 0.068277456 -0.038436696 -0.050763015
00000000: b9f7 f03c 6647 0c3c 8209 32bb faa1 f73a
00000010: 6468 c63c 654c c7bd 8495 89bc 01fc 9fba
00000020: 758c 0d3c ab0b f03c 698d 063d 41b6 b83b
00000030: eb14 8c3c 0ff8 ad3b ad0d ef3b 93b6 0b3d
00000040: 70e1 4bbc d46e bc3c 9b75 9dbd dce4 3bbd
00000050: eb62 b63c 4eef a53b 0930 5ebc 4bfe f8bb
00000060: d80b 193b 5955 e03c a383 353d b4f1 2a3d
00000070: f5ca 08bd 7b56 0abc ac3c 30bb c88e f53c
00000080: bdaf ebbc 58a4 d4bb ceed f0bb bb35 8abd
00000090: c7f0 1dbd 3722 573d bbcf 343d 5520 cdbd
000000a0: ddb0 283c 56d2 b53c 0215 ccbb 8798 d03d
000000b0: fa5f d03d 2c93 20bd b84e 26bd 0859 75bc
000000c0: 2912 27b9 0c65 1ebd 6a6a 063c 1abe 233d
000000d0: 0059 593d cb9b 163d 24e9 383d 903e 3cbd
000000e0: 64f9 09bc ba18 853c dd58 96bc 92c8 81bd
000000f0: 7506 363c 0dd5 8b3d cc6f 1dbd e1ec 4fbd

conv3.lin.weight f4 [64, 64]
0.024352133 -0.39081445 0.030333742 -0.104632035 0.04622229 -0.16673179 0.0089916885 0.720907
-0.10602026 0.14019711 0.03167134 0.099300414 -0.056759957 0.1796032 0.09522523 0.20183145
-0.51356196 0.21597484 0.021752937 0.019378437 -0.5011641 -0.13546026 -0.17698759 -0.44146532
-0.27732736 -0.26403555 -0.18805782 -0.17695123 -0.5169327 0.14811291 -0.13157885 0.70473623
-0.20366156 0.45587608 -0.37258345 -0.10339696 -0.0065706642 0.19088618 0.38896576 0.20646396
0.5182639 -0.18291478 -0.024708416 0.20116359 0.006056345 -0.10846112 -0.17562273 0.30502194
-0.1490188 0.3860289 -0.015582955 -0.036786385 0.0922702 -0.23363417 -0.19308476 -0.1989929
-0.07984694 0.09571489 -0.091040164 0.19811426 0.010940818 -0.013643812 -0.14176016 0.47189862
-0.30566347 -0.104074396 -0.22214042 0.05636582 -0.4023764 0.13822386 -0.037171587 0.73431796
-0.27504805 0.021398053 0.13256563 0.13527901 -0.0013967487 -0.33820018 0.24465042 -0.11671425
0.04979659 -0.3550724 0.032868683 -0.13956688 0.10404642 -0.13606237 -0.2495712 -0.4560311
-0.2955006 -0.21393326 -0.49185392 -0.12929724 -0.8148027 0.13536613 0.35739362 0.6605462
-0.12954178 0.7878757 -0.36511624 -0.16806893 -0.117681816 0.19662695 0.71528476 -0.15822141
1.0124918 -0.09627267 0.040314015 0.3072847 0.08106843 -0.17799895 -0.03500292 0.29447642
-0.13148032 -0.023301868 -0.24144433 -0.1443368 0.20075317 -0.14703177 0.009249977 -0.26476634
0.09477499 0.0034603998 0.092744194 0.25466046 0.059793387 0.72099227 -0.16790314 0.46584955
-0.054899972 -0.019917728 -0.6632321 0.13817231 -0.017097883 0.10760347 -0.10907095 -1.0872574
-0.08995882 0.09833881 -0.15685217 -0.20921774 0.060904384 -0.269117 -0.05010367 0.37518057
-0.14635524 0.84043556 0.06573641 -0.5926816 -0.42372516 0.036820147 -0.7256567 -0.3551371
-0.0012639283 0.11249385 -0.6049854 0.31936914 0.24994025 0.3708094 -0.45685872 0.43981174
-0.121900626 0.50053847 -0.48460475 -0.41559917 -0.045696374 0.2161512 0.16907008 -0.07120767
0.039590932 0.023687901 0.060478125 -0.4667884 -0.06426378 0.07719096 -0.055305947 -0.07424265
0.08249498 -0.3407148 -0.16338296 -0.08064204 -0.07965133 -0.12529662 -0.07198383 -0.74820447
0.27707082 0.2814702 -0.20631056 0.25223073 -0.29352626 -0.32306957 -0.098138124 0.32918575
0.3137583 -0.073272474 0.03449517 0.08701534 -0.30363664 -0.12877378 -0.10446712 0.22024223
-0.019327357 -0.10926534 0.099873886 0.058359984 0.01168379 0.12976569 0.2496571 -0.37859052
0.4902459 0.3973833 -0.060140967 0.3339716 0.66051024 -0.044265863 0.7491971 0.681872
0.10370142 -0.10011738 0.09404911 0.21193747 -0.062389158 -0.29091063 0.16355109 -0.5199144
0.39931685 -0.40192527 0.46196383 0.29264793 -0.06496701 -0.18507843 0.07620427 -0.03812247
-0.32405722 0.12039902 -0.16087659 0.17179523 0.047289163 0.027765594 0.065522425 -0.52764016
0.3237894 0.18111244 0.0914317 0.07873121 0.115982085 0.09559572 -0.21727881 1.0053506
-0.04300387 -0.19472894 0.1978841 -0.26988822 0.06420708 0.21354726 -0.18864869 0.35235065
00000000: 207e c73c d518 c8be 787e f83c 5249 d6bd
00000010: 9553 3d3d bdbb 2abe e051 133c 5c8d 383f
00000020: 2621 d9bd d58f 0f3e cfb9 013d 045e cb3d
00000030: 217d 68bd e7e9 373e 7205 c33d e7ac 4e3e
00000040: cc78 03bf 8228 5d3e 3733 b23c 87bf 9e3c
00000050: 4a4c 00bf 18b6 0abe 3c3c 35be be07 e2be
00000060: dafd 8dbe ab2f 87be 3b92 40be b432 35be
00000070: b455 04bf e9aa 173e 9bbc 06be 9869 343f
00000080: a88c 50be 9768 e93e 42c3 bebe c9c1 d3bd
00000090: ba4e d7bb ab77 433e 8526 c73e 4a6b 533e
000000a0: f1ac 043f 034e 3bbe 4e69 cabc d4fd 4d3e
000000b0: 4e74 c63b dd20 debd 72d6 33be d62b 9c3e
000000c0: 6298 18be 94a5 c53e a74f 7fbc 52ad 16bd
000000d0: 29f8 bc3d cc3d 6fbe 03b8 45be cbc4 4bbe
000000e0: cb86 a3bd 2b06 c43d 4473 babd 77de 4a3e
000000f0: 1e41 333c 4c8a 5fbc 9329 11be b29c f13e
00000100: ec7f 9cbe f524 d5bd c778 63be d9df 663d
00000110: 4804 cebe 8e8a 0d3e 3c41 18bd 43fc 3b3f
00000120: 19d3 8cbe f84a af3c 49bf 073e 9586 0a3e
00000130: 1c13 b7ba 9328 adbe a485 7a3e e107 efbd
00000140: 82f7 4b3d 0dcc b5be 50a1 063d 9fea 0ebe
00000150: 4a16 d53d ef53 0bbe 988f 7fbe e97c e9be
00000160: db4b 97be 5211 5bbe 47d4 fbbe 7f66 04be
00000170: e996 50bf 6b9d 0a3e 4cfc b63e 8e19 293f
00000180: 9aa6 04be 39b2 493f 84f0 babe 431a 2cbe
00000190: 2a03 f1bd 9358 493e e71c 373f cb04 22be
000001a0: 5599 813f 9b2a c5bd 4f20 253d 6c54 9d3e
000001b0: 3407 a63d 5b45 36be 395f 0fbd 9dc5 963e
000001c0: c7a2 06be 8fe3 bebc 2f3d 77be 07cd 13be
000001d0: 3d92 4d3e 7f8f 16be 378d 173c 748f 87be
000001e0: 6419 c23d e0c7 623b abf0 bd3d db62 823e
000001f0: e9e9 743d f392 383f cdee 2bbe d583 ee3e
00000200: cbde 60bd 812a a3bc 94c9 29bf 0b7d 0d3e
00000210: dc10 8cbc 355f dc3d 9760 dfbd 402b 8bbf
00000220: 543c b8bd dc65 c93d db9d 20be 2d3d 56be
00000230: e076 793d b4c9 89be 8239 4dbd ab17 c03e
00000240: 26de 15be c926 573f d0a0 863d fbb9 17bf
00000250: 81f2 d8be b9d0 163d a3c4 39bf 88d4 b5be
00000260: 65aa a5ba 2d63 e63d 53e0 1abf 5a84 a33e
00000270: 56f0 7f3e bbda bd3e 63e9 e9be 012f e13e
00000280: 09a7 f9bd 4a23 003f 1d1e f8be 6ac9 d4be
00000290: 1f2c 3bbd bd56 5d3e b520 2d3e 54d5 91bd
000002a0: 1a2a 223d 210d c23c e9b7 773d e4fe eebe
000002b0: bb9c 83bd 4b16 9e3d 7d88 62bd 880c 98bd
000002c0: 21f3 a83d 2c72 aebe dd4d 27be a727 a5bd
000002d0: 3d20 a3bd c24d 00be 426c 93bd 548a 3fbf
000002e0: 3adc 8d3e dd1c 903e 1343 53be 6324 813e
000002f0: 1349 96be 6069 a5be a4fc c8bd 098b a83e
00000300: eea4 a03e e10f 96bd cf4a 0d3d 1935 b23d
00000310: 4376 9bbe 46dd 03be dbf2 d5bd 2e87 613e
00000320: 6854 9ebc 82c6 dfbd ae8a cc3d e10a 6f3d
00000330: 5e6d 3f3c 4ce1 043e 1ca6 7f3e 9ed6 c1be
00000340: 8301 fb3e d375 cb3e 6056 76bd 53fe aa3e
00000350: 3317 293f 1f50 35bd 62cb 3f3f 2a8f 2e3f
00000360: 6961 d43d 570a cdbd d29c c03d 2306 593e
00000370: c68b 7fbd 3df2 94be f079 273e 1c19 05bf
00000380: 4273 cc3e 26c9 cdbe 8686 ec3e f3d5 953e
00000390: 6c0d 85bd 3385 3dbe fc10 9c3d 4f26 1cbd
000003a0: d4ea a5be c393 f63d d5bc 24be 17eb 2f3e
000003b0: 48b2 413d ac74 e33c 9f30 863d 6d13 07bf
000003c0: b9c7 a53e 8a75 393e 8b40 bb3d d43d a13d
000003d0: 0488 ed3d b0c7 c33d 567e 5ebe 54af 803f
000003e0: d324 30bd 0667 47be 21a2 4a3e ca2e 8abe
000003f0: 007f 833d 22ac 5a3e 1f2d 41be 4e67 b43e

fc_cls1.weight f4 [256, 128]
-0.12716267 0.04071301 0.112447776 -0.08160345 -0.3194545 -0.14112826 0.18780828 -0.012804349
0.16726974 -0.16562831 0.066093564 -0.029324787 0.10184666 -0.17791496 -0.017863574 -0.1371354
0.021945048 0.1610498 0.036784757 -0.16088426 -0.011416005 -0.19187514 -0.23209606 0.07794244
0.26593202 -0.33129317 -0.135816 -0.0151012065 0.16390249 0.27831024 0.22732882 -0.39264286
0.024468886 -0.2171942 -0.20437247 0.046642043 -0.08427423 -0.12085734 0.009809798 -0.055735536
0.077703044 0.07469112 0.008798786 -0.27178007 -0.20147131 -0.1569102 0.02179766 0.2682546
0.45516667 0.002944397 0.09887864 0.11709058 -0.042331964 0.34285524 -0.034017105 -0.057428032
-0.2034111 -0.08132026 0.23786764 0.030036949 -0.09485797 -0.0855835 0.059874646 -0.16113992
-0.12965417 -0.20611048 0.11257481 -0.090150125 -0.090221666 -0.10299443 -0.13049851 -0.44576448
-0.011639517 -0.06485149 0.049584266 -0.14482069 0.0675957 -0.054646138 0.30242893 -0.13946356
0.15769315 -0.16320448 -0.19280927 0.09993301 0.27316985 -0.2098179 -0.062051244 -0.29629025
-0.017780077 -0.18908454 -0.084544115 -0.0012697744 -0.04803992 0.019564016 0.0047394824 0.033864476
0.3325967 0.10450189 -0.20530862 -0.012539516 0.01950089 -0.08752411 0.12028893 -0.16787256
0.058932744 -0.012839345 -0.031303395 0.20882402 -0.08344142 -0.18922538 0.06214265 0.14251894
0.21015261 0.065578796 -0.11872893 -0.06947524 -0.011092561 0.27182245 -0.15884727 0.25479543
-0.29793054 -0.032034807 0.13828452 -0.13947555 -0.34189144 0.0007443163 -0.01632604 -0.051770024
-0.05679691 0.25905782 0.08032614 0.09965657 0.12345855 0.021796076 0.17956041 0.16335298
-0.056835752 -0.26085496 -0.0026135824 -0.08434821 -0.082076095 0.103695765 -0.071535096 -0.00960135
-0.005139613 0.112525016 0.12219668 0.057101235 -0.09846273 0.14744596 -0.019032493 0.09583034
-0.17906299 0.0017888177 -0.04316164 -0.06624248 0.10584401 -0.065617844 0.008295232 -0.29633847
-0.04557976 -0.1288947 -0.07574764 0.024107873 0.06792868 -0.03900462 -0.08472876 0.07933357
-0.06892891 0.06366622 0.06097868 -0.0007433115 -0.15801656 -0.09087227 0.1135345 -0.08240124
-0.0038772866 0.073831804 0.059646882 -0.07275492 0.15591215 -0.048098885 0.14648663 -0.041406844
0.08714873 -0.12013218 -0.080131695 0.12158248 -0.14979373 0.00069204514 -0.08774043 -0.0061012106
-0.16212864 -0.003591467 0.025207939 -0.18484938 -0.27609193 0.09382574 -0.2933233 -0.21735463
0.3257977 0.45709813 0.0464431 -0.0009921873 -0.079152204 0.039624814 0.28731394 -0.17348574
0.0036873214 -0.1761589 -0.35522398 -0.06911598 0.14080594 -0.29979688 -0.21268049 -0.14202055
0.29997694 -0.14665158 -0.15535447 0.023122597 0.018689075 0.17664088 -0.17409863 0.049434822
0.10662509 0.08245198 0.008367899 0.15526967 0.12047131 -0.3428212 0.18003972 -0.090311274
0.27255276 -0.038778804 -0.01415036 -0.048860528 0.121735424 -0.0024505528 0.18336359 0.118348315
0.24166206 -0.06357465 -0.24062726 -0.039007895 -0.1297758 0.1480708 0.017506044 0.25107855
-0.16304323 -0.06654437 0.17645559 -0.118381575 0.27588525 0.28570887 0.08041495 0.07394312
00000000: ee36 02be afc2 263d 054b e63d b61f a7bd
00000010: 8a8f a3be ed83 10be d050 403e 55c9 51bc
00000020: c248 2b3e 789a 29be 105c 873d 893a f0bc
00000030: fb94 d03d 572f 36be a156 92bc 396d 0cbe
00000040: 1ac6 b33c 3dea 243e 9dab 163d d8be 24be
00000050: 320a 3bbc eb7a 44be 97aa 6dbe 49a0 9f3d
00000060: 3e28 883e 429f a9be 5913 0bbe 0d6b 77bc
00000070: 0ed6 273e ae7e 8e3e e3c8 683e 7c08 c9be
00000080: f972 c83c 2868 5ebe 0447 51be ba0b 3f3d
00000090: f897 acbd 0e84 f7bd 46b9 203c f24a 64bd
000000a0: c622 9f3d a8f7 983d c928 103c c226 8bbe
000000b0: 7f4e 4ebe 11ad 20be 0291 b23c ab58 893e
000000c0: 9b0b e93e c9f6 403b e280 ca3d 30cd ef3d
000000d0: 4864 2dbd b98a af3e 8555 0bbd a839 6bbd
000000e0: 004b 50be 3d8b a6bd 9393 733e 0c10 f63c
000000f0: e544 c2bd 6746 afbd 1e3f 753d dd01 25be
00000100: 10c4 04be a00e 53be 9f8d e63d a1a0 b8bd
00000110: 23c6 b8bd beee d2bd 67a1 05be 3e3b e4be
00000120: acb3 3ebc dcd0 84bd df18 4b3d e04b 14be
00000130: 9d6f 8a3d a1d4 5fbd f7d7 9a3e 89cf 0ebe
00000140: 507a 213e 131f 27be cb6f 45be aea9 cc3d
00000150: ebdc 8b3e 81da 56be 7229 7ebd 5bb3 97be
00000160: 86a7 91bc 619f 41be 7725 adbd 8f6e a6ba
00000170: 82c5 44bd b744 a03c a94d 9b3b 7ab5 0a3d
00000180: 1d4a aa3e 1605 d63d 6c3c 52be 8b72 4dbc
00000190: 55c0 9f3c d73f b3bd 0b5a f63d c9e6 2bbe
000001a0: 7663 713d 1e5c 52bc fd37 00bd f7d5 553e
000001b0: 56e3 aabd 4cc4 41be 4b89 7e3d 7cf0 113e
000001c0: 3f32 573e 2d4e 863d 2728 f3bd 0949 8ebd
000001d0: 93bd 35bc 502c 8b3e dca8 22be 8c74 823e
000001e0: 5a8a 98be ee36 03bd 759a 0d3e aed2 0ebe
000001f0: 650c afbe 391e 433a 30be 85bc ce0c 54bd
00000200: e0a3 68bd 3aa3 843e 0882 a43d be18 cc3d
00000210: d6d7 fc3d af8d b23c afde 373e 0146 273e
00000220: 9bcc 68bd c88e 85be a348 2bbb c1be acbd
00000230: 8317 a8bd 725e d43d fe80 92bd fb4e 1dbc
00000240: 336a a8bb 8473 e63d 4142 fa3d fce2 693d
00000250: d4a6 c9bd 13fc 163e 08ea 9bbc b342 c43d
00000260: 4a5c 37be c376 ea3a 43ca 30bd 23aa 87bd
00000270: bfc4 d83d a662 86bd bae8 073c adb9 97be
00000280: d8b1 3abd f9fc 03be 9421 9bbd e07d c53c
00000290: 311e 8b3d 4fc3 1fbd 4686 adbd a479 a23d
000002a0: 9a2a 8dbd 6f63 823d c8c4 793d cada 42ba
000002b0: 18cf 21be 3e1b babd c784 e83d fbc1 a8bd
000002c0: 131a 7ebb 2135 973d 4a50 743d 8800 95bd
000002d0: 6fa7 1f3e 5603 45bd 9700 163e 399a 29bd
000002e0: 097b b23d dc07 f6bd 161c a4bd 3c00 f93d
000002f0: 8763 19be 5d6a 353a 41b1 b3bd aaec c7bb
00000300: 0d05 26be d15e 6bbb e180 ce3c 2849 3dbe
00000310: ec5b 8dbe b627 c03d 792e 96be 3692 5ebe
00000320: f5ce a63e c408 ea3e 1f3b 3e3d 480c 82ba
00000330: 8d1a a2bd a14d 223d d01a 933e 3fa6 31be
00000340: fda6 713b 0063 34be ebdf b5be ae8c 8dbd
00000350: 6f2f 103e fa7e 99be eac8 59be d66d 11be
00000360: 9496 993e d52b 16be 3e15 1fbe 9a6b bd3c
00000370: d519 993c 59e1 343e e946 32be 2b7c 4a3d
00000380: 415e da3d 95dc a83d 8319 093c 03ff 1e3e
00000390: aab9 f63d 4386 afbe 555c 383e 1ef5 b8bd
000003a0: 098c 8b3e 86d6 1ebd e9d6 67bc fa21 48bd
000003b0: 6c50 f93d 7499 20bb aac3 3b3e 9a60 f23d
000003c0: 4276 773e 6d33 82bd fe66 76be bec6 1fbd
000003d0: f3e3 04be df9f 173e d668 8f3c 5e8d 803e
000003e0: cef4 26be 6a48 88bd c6b0 343e 0a72 f2bd
000003f0: d540 8d3e 6f48 923e 98b0 a43d 7e6f 973d

fc_cls1.bias f4 [256]
-0.15858708 0.152063 -0.061216503 -0.124222375 0.0024554594 -0.116626635 -0.19487777 -0.04208926
-0.15890977 -0.24823737 -0.025031067 -0.104434125 -0.0777969 -0.388253 0.085722126 -0.003340101
-0.09795576 -0.24983412 -0.26899585 -0.13834535 -0.17869377 -0.08251272 -0.16122408 0.06722788
-0.1607139 0.030576129 -0.2006225 0.04616605 -0.26009917 -0.11175608 -0.072880104 -0.13301216
-0.03642672 -0.025094995 -0.13805728 -0.018574161 0.017736081 -0.20356506 -0.11677086 -0.17351891
-0.3970891 -0.18568036 -0.2209684 -0.15784624 0.028057491 0.019568697 -0.111822024 -0.038682744
-0.15073128 -0.030560834 -0.054706573 -0.041785788 0.03542685 -0.07767285 -0.17539923 -0.06889425
-0.07448849 -0.09960904 -0.13434444 -0.07786835 0.01140226 -0.15277573 -0.25472128 -0.37968796
-0.24677008 -0.12826745 -0.1460484 -0.16359304 -0.029958762 -0.08558632 -0.07827479 -0.2675119
-0.09993345 0.014596485 -0.22099325 -0.13095494 0.0033824774 -0.10970463 -0.089586556 -0.14855802
0.007353251 -0.037176277 -0.06652545 -0.100712255 -0.1994209 -0.43029898 -0.06684989 0.09084273
0.027937528 -0.09609981 0.028973376 -0.1621279 -0.31639332 -0.14081 -0.045900628 -0.17652674
0.040610995 -0.11285026 -0.01054504 -0.14825669 -0.037615024 -0.122595154 0.12923382 -0.10898931
-0.15631741 0.068522215 -0.17691004 -0.048680715 -0.108348906 -0.1395287 -0.12079006 -0.04521413
-0.09513135 -0.028117461 -0.11113177 -0.20540103 0.03484131 -0.13573946 -0.32242358 -0.18548974
-0.09291678 -0.23323897 -0.0077175004 -0.1679817 -0.1306152 -0.00026037908 0.05055652 -0.041802317
0.0254795 -0.05538897 -0.035167173 -0.038016852 -0.21408413 0.10883837 -0.16019322 0.13695896
-0.12291588 0.026413256 -0.25621897 -0.076576576 -0.052952938 -0.31184196 0.03373404 -0.069949284
-0.115251146 -0.104438946 -0.18472594 -0.17073365 -0.104961015 -0.35917336 -0.0035767902 -0.16306221
-0.22861499 -0.085390866 -0.04451816 -0.17210057 -0.037075635 -0.19991799 -0.09362499 -0.09762645
-0.063370526 -0.07580979 0.11356505 -0.057398263 -0.08825739 -0.038608372 0.03484821 -0.11830215
-0.10577381 -0.07928612 0.04614309 -0.016665353 -0.07122257 -0.13306206 0.02284283 -0.050767377
0.006306244 -0.13936906 -0.17259409 -0.14083628 -0.09955151 -0.18065031 -0.1884953 -0.08190558
-0.13831264 -0.034661755 0.04210497 -0.06143698 -0.24152789 -0.06972273 -0.061780773 -0.16588525
-0.31122065 -0.38081178 -0.09707023 -0.3158977 -0.3637826 -0.32509923 -0.027415356 -0.022241378
-0.080541775 -0.038549017 0.01087848 -0.07585897 -0.15676595 0.010794046 0.07061955 -0.11986155
-0.14340222 0.008342472 -0.040549684 -0.21800785 -0.19066209 -0.06484062 0.0014072914 -0.059175387
-0.14361267 -0.090083346 -0.29773733 -0.14882122 -0.019224524 -0.14201432 0.08285927 -0.122714765
-0.1467039 -0.025780674 0.09927121 -0.19614884 -0.11335655 -0.117667414 -0.23278618 -0.26869914
-0.11700338 0.08318509 -0.23857374 -0.22499973 -0.04560536 -0.07933985 -0.08042496 0.014196817
-0.16973394 -0.038249046 -0.13896446 -0.06998857 0.0005316892 -0.028641257 -0.23726714 -0.0012976389
-0.06995301 -0.012540925 -0.054441538 -0.08928223 -0.07574603 -0.089645416 -0.070661455 -0.17807196
00000000: a764 22be 67b6 1b3e 28be 7abd 4d68 febd
00000010: c6eb 203b f2d9 eebd 0a8e 47be ca65 2cbd
00000020: 3eb9 22be f031 7ebe f40d cdbc 8fe1 d5bd
00000030: fb53 9fbd 19c9 c6be 158f af3d 99e5 5abb
00000040: 089d c8bd 84d4 7fbe d3b9 89be 67aa 0dbe
00000050: 80fb 36be 6efc a8bd ed17 25be c5ae 893d
00000060: 2f92 24be ca7a fa3c fc6f 4dbe 9d18 3d3d
00000070: b82b 85be 5fe0 e4bd 2a42 95bd 5734 08be
00000080: 2f34 15bd 0594 cdbc e35e 0dbe d728 98bc
00000090: 424b 913c 5c73 50be 9025 efbd f1ae 31be
000000a0: 434f cbbe fe22 3ebe 8a45 62be 72a2 21be
000000b0: d3d8 e53c 884e a03c f202 e5bd cc71 1ebd
000000c0: 4d59 1abe b75a fabc 0014 60bd 9327 2bbd
000000d0: bf1b 113d f112 9fbd db9b 33be 6e18 8dbd
000000e0: 6c8d 98bd d3ff cbbd 9791 09be 7179 9fbd
000000f0: 8bd0 3a3c 3e71 1cbe d46a 82be 7666 c2be
00000100: 4cb1 7cbe 8b58 03be b68d 15be ef84 27be
00000110: 146c f5bc e147 afbd 884e a0bd 52f7 88be
00000120: e9a9 ccbd 1826 6f3c 0e4c 62be 0d19 06be
00000130: 8eac 5d3b d2ac e0bd 2879 b7bd 981f 18be
00000140: 8af3 f03b 2746 18bd 7f3e 88bd 3a42 cebd
00000150: fe34 4cbe 2650 dcbe 98e8 88bd c10b ba3d
00000160: 3edd e43c facf c4bd 9359 ed3c db04 26be
00000170: 4efe a1be 7f30 10be 4c02 3cbd 6dc3 34be
00000180: b757 263d 0a1e e7bd 1ac5 2cbc 9ad0 17be
00000190: 3612 1abd 2b13 fbbd df55 043e ca35 dfbd
000001a0: ac11 20be 6055 8c3d e827 35be 6e65 47bd
000001b0: 08e6 ddbd 9de0 0ebe c760 f7bd 7432 39bd
000001c0: 3ad4 c2bd 9756 e6bc 0e99 e3bd a654 52be
000001d0: c3b5 0e3d 49ff 0abe b414 a5be 06f1 3dbe
000001e0: 274b bebd 32d6 6ebe 16e3 fcbb 6503 2cbe
000001f0: febf 05be 7d83 88b9 5a14 4f3d e838 2bbd
00000200: 62ba d03c 8bdf 62bd 740b 10bd 8fb7 1bbd
00000210: df38 5bbe a7e6 de3d b109 24be f83e 0c3e
00000220: 52bb fbbd 9d60 d83c 222f 83be 2ed4 9cbd
00000230: 2ee5 58bd c0a9 9fbe b42c 0a3d 9241 8fbd
00000240: cb08 ecbd 16e4 d5bd cc28 3dbe cdd4 2ebe
00000250: cdf5 d6bd 92e5 b7be 9568 6abb c8f9 26be
00000260: 0c1a 6abe 68e1 aebd ad58 36bd 223b 30be
00000270: 9fdc 17bd 4db7 4cbe 75be bfbd 60f0 c7bd
00000280: 68c8 81bd 2a42 9bbd cb94 e83d 711a 6bbd
00000290: 4ac0 b4bd d023 1ebd ffbc 0e3d 6648 f2bd
000002a0: f09f d8bd c360 a2bd 8900 3d3d c785 88bc
000002b0: 24dd 91bd 6c41 08be e320 bb3c 74f1 4fbd
000002c0: 9ca4 ce3b c3b6 0ebe 81bc 30be 6337 10be
000002d0: a9e1 cbbd 65fc 38be e904 41be 1dbe a7bd
000002e0: d4a1 0dbe 7cf9 0dbd 4376 2c3d 58a5 7bbd
000002f0: 1653 77be caca 8ebd d60d 7dbd d3dd 29be
00000300: 5058 9fbe c3f9 c2be c2cc c6bd 58bd a1be
00000310: b741 babe 6873 a6be 2b96 e0bc 8d33 b6bc
00000320: 16f3 a4bd 93e5 1dbd a73b 323c f35b 9bbd
00000330: 4187 20be 83d9 303c fca0 903d f979 f5bd
00000340: 08d8 12be ddae 083c 6d17 26bd 733d 5fbe
00000350: ec3c 43be 29cb 84bd dd74 b83a e461 72bd
00000360: 330f 13be 9e7d b8bd 0771 98be 9764 18be
00000370: c07c 9dbc 346c 11be 1fb2 a93d e151 fbbd
00000380: 8c39 16be fe31 d3bc b44e cb3d 3edb 48be
00000390: 7b27 e8bd 9dfb f0bd 805f 6ebe ef92 89be
000003a0: 789f efbd f25c aa3d ad4c 74be 5466 66be
000003b0: b0cc 3abd ee7c a2bd d7b5 a4bd c499 683c
000003c0: bcce 2dbe 08ab 1cbd b34c 0ebe 2b56 8fbd
000003d0: 0f61 0b3a 12a1 eabc 28f6 72be 8915 aaba
000003e0: 8643 8fbd 7478 4dbc 17fe 5ebd 9ad9 b6bd
000003f0: bc20 9bbd 0498 b7bd f4b6 90bd 7f58 36be

fc_cls2.weight f4 [128, 256]
0.0874171 0.17550263 -0.08657406 -0.12611501 -0.067426436 -0.40460217 -0.024424963 0.17686656
-0.04968391 -0.04053279 -0.11973648 -0.16368845 -0.07088315 -0.12116919 -0.013149758 -0.24748234
0.2008691 0.21511751 -0.031121535 0.029175984 -0.00031408382 0.20703477 -0.29569986 0.20527689
-0.4563244 -0.1714099 0.016353427 0.08835243 0.10057541 -0.1310882 -0.020913254 -0.01826979
0.23506847 -0.28369653 0.14854294 0.00041685862 0.31193775 -0.09139487 -0.18041636 0.02852804
0.16558367 0.12221949 0.07170511 0.049693435 0.13802028 0.20317651 0.016916828 0.25549698
-0.021282407 -0.15868653 0.059941236 0.20026197 0.18998799 0.33164597 -0.08963322 -0.2190964
-0.42627886 0.13264006 -0.18488885 0.19681923 0.18032564 0.16134119 0.13107565 -0.11338374
0.01742692 -0.07106649 -0.01781995 0.36889526 0.23408724 0.30460942 -0.16363423 -0.39172313
0.02427218 0.17848542 0.11746409 -0.02037652 0.19295475 -0.60611224 0.35615844 -0.17406934
-0.15063973 0.09229846 0.20262697 -0.042232726 0.056189638 -0.18146451 -0.33435193 -0.027662108
-0.10282725 0.023787694 0.16606115 -0.027562167 -0.0006890756 0.07425291 -0.011427939 -0.124976195
0.2926393 -0.031379443 0.25112188 0.00894111 0.6323729 -0.029133867 -0.11756328 -0.4039482
-0.5426014 0.2594465 0.16136423 0.22776708 0.029206237 0.031716276 0.012729871 0.038628537
0.32577434 -0.2141551 -0.004819879 0.27371716 -0.26298308 -0.17514767 0.08572794 -0.030793007
0.21200608 -0.20575625 -0.11677395 0.16554166 -0.17099378 0.0698909 -0.11395945 0.2808462
0.11523598 -0.28590947 0.0122580435 0.33027983 0.23901094 0.037495635 -0.058389027 0.1954611
-0.062816314 -0.16446416 -0.32623398 0.04235347 -0.21951757 0.2039131 0.043527037 -0.1235874
-0.08382072 0.2873019 0.18225683 -0.020601045 -0.22662388 0.28994226 -0.054334722 -0.20930067
-0.2368583 0.14085342 -7.393743e-05 0.32446596 0.08587885 -0.04942396 -0.13407744 0.25620317
-0.041928425 -0.24504693 0.15245242 -0.051166873 -0.021543674 -0.3379176 -0.038520455 0.23235786
-0.053324625 0.10247112 -0.0424059 -0.1603988 0.0076211956 0.053142227 -0.123061016 -0.16153753
-0.20142058 -0.15007558 -0.0026796728 -0.06234735 -0.27468467 -0.035068125 -0.08592598 0.31072655
-0.024388403 -0.28804293 0.1079249 -0.32116413 0.079404175 -0.030353427 0.061624996 -0.007818049
-0.04020023 0.4878792 0.072497696 -0.59326226 0.009203598 -0.24132133 -0.29731753 -0.1847712
0.22374249 0.27384043 -0.29889545 0.16945755 -0.14082985 -0.19097893 -0.1377927 -0.20049655
-0.17931515 -0.03888413 0.08685548 -0.27241883 0.20648172 0.045321725 0.11544308 0.15480718
0.33159295 -0.17790912 -0.0060938234 -0.016208217 0.14925969 -0.070185974 0.17330642 0.05253215
0.0036625464 -0.19162874 -0.05675132 0.41541672 -0.2218519 -0.17598224 -0.0018473539 -0.24868493
-0.28363523 0.14230418 0.24648397 -0.0013054317 -0.3197266 -0.010956721 0.16297601 -0.066409476
-0.01986012 -0.087084696 -0.16229418 -0.0075431895 0.29023707 0.18186374 -0.17518625 0.19793633
0.0018557158 -0.17454417 0.1575091 -0.2181251 -0.20271939 -0.2568988 -0.030935539 0.30072254
00000000: bd07 b33d f6b6 333e be4d b1bd 4b24 01be
00000010: df16 8abd 0428 cfbe dc16 c8bc 821c 353e
00000020: 5b81 4bbd b605 26bd 6638 f5bd f29d 27be
00000030: 2f2b 91bd 8d27 f8bd 1572 57bc 036c 7dbe
00000040: a1b0 4d3e c447 5c3e 97f2 febc 7902 ef3c
00000050: 9eab a4b9 ec00 543e f965 97be 1b34 523e
00000060: 5aa3 e9be 1486 2fbe 9ff7 853c 1ef2 b43d
00000070: 7bfa cd3d fc3b 06be 4652 abbc 87aa 95bc
00000080: cab5 703e ac40 91be a41b 183e d18d da39
00000090: 4eb6 9f3e 3c2d bbbd 11bf 38be a3b3 e93c
000000a0: c48e 293e 364e fa3d 21da 923d 588b 4b3d
000000b0: 3055 0d3e 810d 503e 2995 8a3c 80d0 823e
000000c0: 7158 aebc b97e 22be f184 753d 7911 4d3e
000000d0: 368c 423e 80cd a93e 9f91 b7bd cf5a 60be
000000e0: 3941 dabe ccd2 073e 8153 3dbe fb8a 493e
000000f0: 49a7 383e a036 253e b238 063e bc35 e8bd
00000100: e6c2 8e3c 4f8b 91bd 25fb 91bc d7df bc3e
00000110: 91b4 6f3e c4f5 9b3e bb8f 27be ef8f c8be
00000120: 73d6 c63c e2c4 363e 0391 f03d a9ec a6bc
00000130: ee95 453e 2c2a 1bbf 665a b63e 3c3f 32be
00000140: 4d41 1abe fa06 bd3d 727d 4f3e 39fc 2cbd
00000150: 1b27 663d d5d1 39be 2d30 abbe a59b e2bc
00000160: 1897 d2bd 69de c23c ef0b 2a3e 0eca e1bc
00000170: 15a3 34ba e911 983d 403c 3bbc 85f3 ffbd
00000180: d1d4 953e bb87 00bd 0c93 803e bc7d 123c
00000190: 31e3 213f 26aa eebc 04c5 f0bd 4cd2 cebe
000001a0: ede7 0abf 2cd6 843e aa3c 253e c63b 693e
000001b0: eb41 ef3c ede8 013d f390 503c f538 1e3d
000001c0: e5cb a63e 794b 5bbe 13f0 9dbb a824 8c3e
000001d0: b8a5 86be e959 33be 2192 af3d 9e41 fcbc
000001e0: 1f18 593e c4b1 52be 2e27 efbd c183 293e
000001f0: fe18 2fbe f622 8f3d 9263 e9bd 13cb 8f3e
00000200: d700 ec3d ba62 92be f6d5 483c 701a a93e
00000210: 49bf 743e 0695 193d 5529 6fbd f426 483e
00000220: d7a5 80bd 4b69 28be 2408 a7be d57a 2d3d
00000230: 37c9 60be 98ce 503e 6849 323d 641b fdbd
00000240: 33aa abbd 3c19 933e 89a1 3a3e 86c3 a8bc
00000250: 1710 68be 5073 943e 168e 5ebd ea52 56be
00000260: fb8a 72be e13b 103e db0e 9bb8 6720 a63e
00000270: 40e1 af3d c770 4abd 994b 09be 102d 833e
00000280: 24bd 2bbd 95ed 7abe 7d1c 1c3e 5b94 51bd
00000290: 5c7c b0bc 8903 adbe a0c7 1dbd 38ef 6d3e
000002a0: ec6a 5abd 61dc d13d cfb1 2dbd 953f 24be
000002b0: 39bb f93b aaab 593d 6a07 fcbd 186a 25be
000002c0: 3241 4ebe 6aad 19be 739d 2fbb ef5f 7fbd
000002d0: 78a3 8cbe 98a3 0fbd f6f9 afbd 8d17 9f3e
000002e0: 30ca c7bc 5d7a 93be bb07 dd3d a06f a4be
000002f0: a89e a23d c0a7 f8bc 7e6a 7c3d 4617 00bc
00000300: ffa8 24bd 4dcb f93e ac79 943d 09e0 17bf
00000310: b0ca 163c f01c 77be 013a 98be a934 3dbe
00000320: c01c 653e d034 8c3e d308 99be 4886 2d3e
00000330: b335 10be fb8f 43be 8819 0dbe f84e 4dbe
00000340: 649e 37be f744 1fbd 49e1 b13d 7b7a 8bbe
00000350: f26f 533e 46a3 393d 6c6d ec3d c685 1e3e
00000360: 8dc6 a93e cf2d 36be b2ae c7bb 18c7 84bc
00000370: 88d7 183e aabd 8fbd 3d77 313e f42b 573d
00000380: 5507 703b 533a 44be 1274 68bd 80b1 d43e
00000390: 252d 63be b034 34be e922 f2ba 43a7 7ebe
000003a0: a338 91be 30b8 113e 4b66 7c3e 051b abba
000003b0: 34b3 a3be d283 33bc 2fe3 263e b101 88bd
000003c0: b1b1 a2bc 7659 b2bd 7230 26be dc2c f7bb
000003d0: f499 943e 7d3a 3a3e 0664 33be d2af 4a3e
000003e0: 7d3b f33a b5bb 32be 114a 213e 305c 5fbe
000003f0: ac95 4fbe 3d88 83be 876c fdbc 4ef8 993e

fc_cls2.bias f4 [128]
0.08931095 0.001955228 -0.023058126 0.07953626 0.12224303 0.0478716 0.038499407 0.12477262
0.07690147 0.035016593 -0.084306136 0.12327456 0.11537706 0.076662995 0.09434038 0.10817611
0.09732339 -0.06848172 -0.028816132 0.030346423 -0.09415458 0.07210001 -0.025280407 0.06425453
0.08254744 -0.06072203 0.11225455 0.0771831 0.009937785 -0.067174755 -0.052347563 0.09319521
-0.026965827 -0.024589853 0.11209201 -0.07174026 -0.1111023 -0.07903277 0.058895092 -0.059056208
-0.025366 -0.04434988 -0.0288806 -0.020656211 -0.04110267 -0.0015212519 0.058567967 -0.040916454
0.0149750095 0.08661653 -0.019125218 0.03971807 -0.0077883312 0.035830848 -0.046057336 0.10171593
0.09396078 0.03715466 -0.08804468 0.09921827 0.088703245 0.08191705 -0.03746624 0.11639686
-0.09201164 0.0004723792 -0.025019614 -0.08850859 0.09153363 0.055248905 -0.049767893 -0.04178032
-0.20320281 0.011658556 0.02249813 0.033298228 0.017651018 0.04583348 -0.0011787874 -0.098986745
-0.03414735 -0.017183207 0.013291774 0.06602907 -0.036119536 -0.10730186 0.061813563 -0.08198675
0.0615405 -0.045369282 -0.046578445 -0.05651594 -0.08201107 -0.023574129 0.057593524 -0.08085131
0.113135524 -0.09720777 -0.028308677 -0.0812876 0.11511481 -0.09343238 0.07295022 0.12746319
0.006672631 0.004672341 0.08863432 -0.013338334 0.015501518 0.0019797788 0.0033295748 0.10429775
0.11732223 -0.10401702 -0.0036567163 0.049125414 -0.056853276 0.13548143 0.021513581 0.05169922
-0.06541052 -0.054429173 0.057950556 -0.041218776 -0.0154585745 0.020098489 0.044679254 0.11667526
00000000: a9e8 b63d 4823 003b 65e4 bcbc e8e3 a23d
00000010: 8e5a fa3d 0315 443d 8eb1 1d3d ca88 ff3d
00000020: 857e 9d3d 8f6d 0f3d b2a8 acbd 5f77 fc3d
00000030: cf4a ec3d 7d01 9d3d 8735 c13d 708b dd3d
00000040: 7c51 c73d 2540 8cbd cf0f ecbc 1099 f83c
00000050: 1ed4 c0bd 2ca9 933d db18 cfbc e197 833d
00000060: a20e a93d aab7 78bd b7e5 e53d 2c12 9e3d
00000070: 17d2 223c eb92 89bd 666a 56bd 21dd be3d
00000080: 70e7 dcbc a970 c9bc 7f90 e53d 8fec 92bd
00000090: 9a89 e3bd efdb a1bd fb3b 713d ece4 71bd
000000a0: 5ccc cfbc 38a8 35bd 0297 ecbc 3737 a9bc
000000b0: 465b 28bd be64 c7ba f7e4 6f3d 0398 27bd
000000c0: be59 753c 0264 b13d 7dac 9cbc 6aaf 223d
000000d0: 4235 ffbb 5ec3 123d 9ea6 3cbd 7150 d03d
000000e0: 826e c03d 7c2f 183d c550 b4bd f332 cb3d
000000f0: 0caa b53d 20c4 a73d 3376 19bd 7a61 ee3d
00000100: 9970 bcbd aaa9 f739 eff5 ccbc fe43 b5bd
00000110: fc75 bb3d ad4c 623d 6bd9 4bbd d721 2bbd
00000120: 6614 50be 8703 3f3c 004e b83c b963 083d
00000130: de98 903c e3bb 3b3d 8b81 9aba 90b9 cabd
00000140: 17de 0bbd ccc3 8cbc bec5 593c 403a 873d
00000150: 14f2 13bd 14c1 dbbd 3830 7d3d abe8 a7bd
00000160: e411 7c3d 24d5 39bd 0ac9 3ebd 427d 67bd
00000170: 6bf5 a7bd 881e c1bc 30e7 6b3d 5f95 a5bd
00000180: 99b3 e73d de14 c7bd 99e7 e7bc 1d7a a6bd
00000190: 50c1 eb3d 7a59 bfbd ed66 953d b685 023e
000001a0: 16a6 da3b 701a 993b e985 b53d 0789 5abc
000001b0: 14fa 7d3c 2dbf 013b ff34 5a3b 0f9a d53d
000001c0: a346 f03d e006 d5bd 85a5 6fbb bb37 493d
000001d0: fbde 68bd a5bb 0a3e 403d b03c 90c2 533d
000001e0: f3f5 85bd 20f1 5ebd 905d 6d3d 05d5 28bd
000001f0: f645 7dbc 96a5 a43c 9801 373d 70f3 ee3d
