data/predictor/PT/SiameseNetwork_2024-05-13_20-37-03.pt (torch, 995547 bytes, 16 tensors)

conv1.bias f4 [64]
000000 68 6b 05 be 47 6a 2d bc 1c 71 d8 bc fc f5 a9 bd
       -0.13029253 -0.0105844205 -0.026421122 -0.08298871
000010 5e 65 57 bd b1 9c 03 3e 74 bf 7f bd 65 84 e3 bd
       -0.052586906 0.12852742 -0.062438443 -0.11109237
000020 2a 39 d8 3c 2d 63 26 bd d1 aa c4 bd 11 3c 4a 3e
       0.026394445 -0.040621925 -0.09602893 0.19749476
000030 fd f5 93 3d 80 33 0f be 11 b4 ab 3d aa 32 b4 3b
       0.07224653 -0.1398449 0.08383954 0.0054992037
000040 df b6 71 bd 62 cc 83 bc d3 73 8e 3c be cb e0 3d
       -0.05901229 -0.016088668 0.017389214 0.10976361
000050 27 2f 26 be c3 e9 44 bd c3 1a d0 3c 8d 6c 2a bd
       -0.16228925 -0.048074495 0.025403386 -0.04160743
000060 a3 2c 9f bd 43 b6 01 bd d1 72 bd bc 6c 52 b5 ba
       -0.07772186 -0.03166796 -0.023126038 -0.0013833768
000070 1f d0 aa 3d 1b 81 64 bd cb 3d 5c 3c fc 07 5e 3d
       0.08340477 -0.055787187 0.013442467 0.054206833
000080 fd 18 49 3c 35 ad 87 bc 2a 1f 49 bd a3 66 d0 ba
       0.012274024 -0.016562084 -0.049101986 -0.0015899729
000090 30 a8 ab bd b5 7d a9 3d 14 04 eb 3d 52 23 6f bd
       -0.083816886 0.0827593 0.11475387 -0.058383293
0000a0 ad 00 d4 bd 35 da 52 3d 01 aa 8a 3d 5b 60 6a bc
       -0.103516914 0.05147763 0.06770707 -0.0143051995
0000b0 f6 1a 22 be 6b a5 bd bd c3 28 53 bd 19 82 43 be
       -0.15830597 -0.092600666 -0.051552545 -0.19092597
0000c0 5f 16 9a b9 3e e0 15 be bf 30 ba bd 04 4f 4a 3d
       -0.00029389837 -0.14636323 -0.09091329 0.04939176
0000d0 71 c9 9c bd dd 8e 0a bd ec a5 f5 bd 13 7f 64 ba
       -0.076556094 -0.03382765 -0.11994538 -0.00087164453
0000e0 19 18 c7 bd 00 00 00 00 4e 38 55 bc b5 70 c3 bd
       -0.09721393 0.0 -0.013013912 -0.095429815
0000f0 0a f4 f2 3c 0a 26 e3 bc 15 b8 77 bd d0 ee 36 be
       0.029657383 -0.0277281 -0.06047829 -0.17864537

conv1.lin.weight f4 [64, 6]
000000 1e f6 a7 3c 74 bd 4a be 39 7e 4f 3d 66 7f f0 3d
       0.0205031 -0.19798833 0.050657485 0.11743049
000010 66 90 03 3e 56 6e f7 bd 47 c7 86 bc 8e 64 05 3f
       0.12848052 -0.12081592 -0.016452445 0.5210656
000020 9d b4 0a bf 68 66 f0 bd c8 22 5d bd 1a 14 a3 3e
       -0.54181844 -0.117382824 -0.053988248 0.31851274
000030 c4 26 09 be 96 82 13 3e 6c 51 7e bd d1 34 ef 3e
       -0.13393694 0.14405283 -0.06208937 0.46719983
000040 fc c7 4f be 44 7f ba 3d 90 3f a5 3d 14 e8 4b bd
       -0.20291132 0.09106305 0.08068764 -0.049781874
000050 42 15 ac bc 22 52 80 be c8 90 01 bc 3e 4b 5a be
       -0.02100623 -0.25062662 -0.007908054 -0.21317765
000060 04 1b 55 be ba 54 4d bd ff d9 a3 3e f7 32 c7 3e
       -0.20811087 -0.05012963 0.32002255 0.3890607
000070 1f 22 79 bc 16 91 d1 3e 5d 20 34 be b6 cb 75 bd
       -0.015205889 0.40931004 -0.1759047 -0.060008727
000080 ff e9 0f 3f 16 54 7d 3e e9 6f 29 be b2 42 6e 3e
       0.56216425 0.24739107 -0.16546597 0.2326763
000090 fb fd 6d 3d a4 09 91 bd d2 a5 c6 3e 6f f5 d3 be
       0.058103543 -0.07081917 0.38798386 -0.41398188
0000a0 b0 fb 8a bc 1f 18 91 3e 10 ae 31 3e 96 b9 1d bc
       -0.016965717 0.28338715 0.17351556 -0.009626767
0000b0 9f e2 2c be 2d a3 49 be 26 79 f7 3d 50 91 a4 3e
       -0.16883324 -0.19691153 0.12083654 0.32142115
0000c0 32 52 28 3e 9b 14 13 be 4b 1f c9 be a8 f1 b0 be
       0.16437605 -0.14363329 -0.39281687 -0.3455937
0000d0 f5 cf b7 3e 08 5a 19 3e d8 8c f4 be 70 22 dd 3e
       0.35900846 0.1497575 -0.47763705 0.43190336
0000e0 57 16 a6 3c ad 96 89 3e 61 e5 7f be 96 5c ce 3e
       0.020274324 0.2687277 -0.24989845 0.40305012
0000f0 d1 37 36 3e 27 b6 8e be 58 a9 2b 3e f1 df 40 be
       0.1779473 -0.27873346 0.16763818 -0.18835427
000100 56 30 94 bd 5c 93 38 be 7a da e1 be de 4b 98 bb
       -0.07235782 -0.18024963 -0.44111997 -0.004647716
000110 cd c4 42 3e 47 4a 3f be 9c a0 92 3e b5 46 e3 be
       0.19020386 -0.18680678 0.2863816 -0.44389883
000120 f3 e3 01 be 35 83 ce bc 68 13 ad 3e 43 59 51 3e
       -0.12684612 -0.025209049 0.33803868 0.20444207
000130 9e f8 47 3d 6d 6b 1c 3e 7a e3 20 3e f8 a3 88 3e
       0.048821084 0.15275355 0.15711775 0.26687598
000140 8e a6 79 3b 29 c3 9d be 28 0b 6c be 10 49 2b be
       0.003809366 -0.30812958 -0.23051131 -0.1672709
000150 cc f0 8d be 35 a6 de bd 9e 2c 6b be 48 1f 09 be
       -0.27722776 -0.10871545 -0.22966239 -0.13390839
000160 fd 76 a5 3e 6b 3b e2 bd a5 15 8a bd 4b 48 08 3f
       0.32317343 -0.11046489 -0.067424096 0.5323531
000170 ee b9 54 bf 27 9f bc 3d ef d5 d5 bc e6 af c9 3e
       -0.83096206 0.092100434 -0.026102988 0.39392012
000180 30 ce 03 3e 7f 62 90 3e 11 ac ca 3e dd d2 09 bf
       0.12871623 0.28200147 0.395844 -0.53837377
000190 9c 05 69 bd 34 f3 f9 3d 74 2e 0e 3e 72 98 2b be
       -0.056890115 0.122045904 0.13884908 -0.16757372
0001a0 16 15 99 3e ac 92 85 3d 7b 46 68 be c7 e4 f0 be
       0.298989 0.06522116 -0.22683136 -0.47049543
0001b0 38 a5 2d be 38 bd f5 bd 67 6e 48 3e 8b a7 2b 3e
       -0.16957557 -0.11998981 0.19573365 0.16763131
0001c0 ea 2b 6c 3e 08 f6 96 3e 28 57 f9 be 34 8a b5 3e
       0.23063627 0.29484582 -0.48699307 0.35457003
0001d0 ac 0e fd 3c 8b f4 c7 3e 56 1d 12 3e 4b d5 80 3e
       0.030890785 0.3905376 0.14269003 0.2516273
0001e0 9f 31 d5 3d 11 1b 1d be 5a ef ee 3e d8 f0 1e bc
       0.10409855 -0.15342356 0.46666986 -0.009700976
0001f0 56 ae 1d 3e 5a a7 a4 3e 58 cc 3a 3e 4b ab 2a be
       0.15398535 0.3215893 0.18242013 -0.16666906
000200 84 79 12 be 79 46 94 be 24 a5 23 be f0 55 f0 3e
       -0.14304167 -0.28960016 -0.15980965 0.46940565
000210 e8 ee c2 bd e6 09 b1 3c bf 61 ee 3e ca 48 b4 bd
       -0.09518224 0.021611165 0.4655895 -0.08802946
000220 99 37 26 3d 77 d9 02 3f 1e 68 5f be a1 00 28 bc
       0.040580366 0.51113075 -0.21817061 -0.010254056
000230 61 e9 b5 3e 2d e0 be 3e 2b 93 8d bd b3 db d7 3e
       0.35529616 0.37280408 -0.06912836 0.42159805
000240 98 ab 35 3e c4 5d 1c be aa 7f 25 be d1 2e 50 be
       0.17741239 -0.15270144 -0.16161981 -0.20330359
000250 aa 30 21 3d bd 64 f7 bd e1 a5 91 be b4 15 4d bf
       0.03935305 -0.12079761 -0.28446868 -0.8011124
000260 38 0f 1d bc c8 5b bb 3e c0 52 d0 3d d5 e2 16 3f
       -0.009586148 0.3659346 0.10172033 0.5893987
000270 18 27 be bd 9a e5 7e 3e 73 60 20 3e f8 6f 44 3e
       -0.092848 0.24892274 0.15661792 0.19183338
000280 b8 49 56 be 88 ff 54 3f 89 dc 56 bd e5 1d aa 3d
       -0.20926559 0.8320241 -0.052456412 0.08306483
000290 43 a1 cd 3e 75 12 8e be 7c c7 76 3d 54 b2 cf 3e
       0.40162095 -0.27748457 0.060248837 0.4056574
0002a0 19 11 18 be 65 bc 74 bd 12 86 8a be 4b 73 40 be
       -0.14850272 -0.05974998 -0.27055413 -0.18793981
0002b0 62 28 bc 3e 03 f8 80 be 50 7c 90 bd 23 5c e7 bd
       0.3674956 -0.25189218 -0.07054961 -0.112968706
0002c0 59 cc c1 3e 3e 39 a6 3e 1b ec 6d be 09 84 f3 3e
       0.37851217 0.32465547 -0.23234598 0.47561672
0002d0 e7 85 b3 bd 25 c3 be bd 25 bd ec 3e bb c7 d0 3e
       -0.08765774 -0.093145646 0.46238056 0.40777382
0002e0 52 c6 cc bd 81 8e 93 3e e2 f2 aa be 9a 52 e3 bc
       -0.09998764 0.2881966 -0.3338843 -0.027749348
0002f0 bc 04 a7 3e ec 25 9f 3e a9 07 da 3d 5d 42 2f 3f
       0.326208 0.3108362 0.10645992 0.6846064
000300 09 f6 75 bd 0f 11 9c bc 39 91 03 3f c5 60 b0 be
       -0.06004909 -0.019051103 0.5139347 -0.3444883
000310 5b 5e 5b 3e 55 e3 8c 3e 3c cb ab bd 5a 38 12 3d
       0.21422713 0.2751719 -0.08388373 0.035698272
000320 6a a9 c3 3e 62 5f e5 3e 95 18 1a be 13 99 0f 3e
       0.3821519 0.44799334 -0.1504844 0.14023237
000330 c0 03 da 3d a1 3f e1 bb f5 c3 8b 3d 77 bc 75 be
       0.106452465 -0.0068740402 0.06824485 -0.23997675
000340 7c e7 82 bd 1a 06 87 be 7c e8 84 3e 1d d1 c4 3d
       -0.063918084 -0.26371843 0.25958622 0.09610198
000350 84 84 8a be 69 ec 86 be 9e 14 f9 bd e5 52 1f be
       -0.27054226 -0.26352242 -0.121621355 -0.15558966
000360 86 00 fe 3d 1f b1 61 3e d9 03 05 bf 86 02 a3 be
       0.124024436 0.22040223 -0.51958996 -0.31837863
000370 91 01 87 3b 97 35 23 be 77 18 91 be 92 2d da bd
       0.00412006 -0.15938412 -0.28338978 -0.10653223
000380 b2 59 65 3e 99 08 58 3e db 3f 19 be b6 4d f0 3e
       0.22397497 0.2109703 -0.14965765 0.4693429
000390 df bf 15 be c9 51 23 3e bd 44 ff bd d2 2f a2 3e
       -0.14623974 0.15949167 -0.12464283 0.3167711
0003a0 01 56 8d be f1 1e 2f 3f f1 98 9f be d3 5a a0 3e
       -0.27604678 0.6840659 -0.31171373 0.31319293
0003b0 56 eb 08 3e be d9 61 3e 78 21 37 3d cf fc 86 bc
       0.13371024 0.22055718 0.044709653 -0.01647797
0003c0 3c fb 85 bd 52 ff 7f 3e 08 d1 85 3e bd 92 e7 bd
       -0.0654206 0.2499974 0.2613604 -0.11307285
0003d0 93 1a 6d be 6b a2 8d bf 79 59 4b be d5 a0 6d be
       -0.23154669 -1.1065191 -0.1985835 -0.23205884
0003e0 db 44 36 3d 7c 55 a9 3e 40 c3 29 be 4d cf f7 3e
       0.04449926 0.33073032 -0.16578388 0.48400345
0003f0 21 ad b7 be e8 18 03 bc 38 67 a2 3e 6e b8 a9 3e
       -0.35874274 -0.008001544 0.31719375 0.3314852

conv2.bias f4 [64]
000000 96 44 98 bd be f0 3d bd 67 4c 5d bc 5d 45 b3 bc
       -0.07434957 -0.046372168 -0.013506985 -0.02188366
000010 06 32 3e 3c 63 4f a4 bc 7f 27 ad bc f8 6a dc bc
       0.011608606 -0.020057386 -0.021136997 -0.026906475
000020 6d 79 8a bd 0e ad 50 bd cb 0b 90 bd e0 ad 7e bd
       -0.067614414 -0.050946288 -0.07033499 -0.06217754
000030 99 9c 4e bd 4a 0d 0b bd 65 e2 f1 bd 46 5f 87 bd
       -0.050442312 -0.03394822 -0.118107595 -0.06609969
000040 d6 2a 87 bd 3d a8 8d bd 27 9f 94 bd 83 32 b9 bd
       -0.06599967 -0.069168545 -0.072569184 -0.090428375
000050 31 bc 16 bc 00 00 00 00 d8 91 61 bd 74 77 51 bd
       -0.009200142 0.0 -0.055070728 -0.05113931
000060 67 ce 83 3d 2f 87 e6 bd 13 a7 1c bd 6b e2 c1 bd
       0.064358525 -0.11256253 -0.038245272 -0.09467014
000070 cf 85 a3 3d 1a f7 ec bc ce ac d3 bd d3 58 41 be
       0.07984506 -0.028926421 -0.10335694 -0.1888154
000080 89 5c ca bd 39 6c e3 3d 85 6f 6b bc 67 31 22 3d
       -0.09880931 0.11104626 -0.01436985 0.039597895
000090 f3 2d b3 bd 5e f3 2b bd 94 7c 13 bd 5c c4 af bc
       -0.087489985 -0.04198014 -0.03600748 -0.021455936
0000a0 7f a3 40 be 9a a6 7d bc 00 00 00 00 bc 38 3a bd
       -0.18812369 -0.015481615 0.0 -0.045464262
0000b0 c3 a9 c7 bc dd bf ef bc 80 b3 3c bd 00 00 00 00
       -0.02437294 -0.029266292 -0.046069622 0.0
0000c0 8a ba ce bc 1c a9 0d be d1 d5 44 be 8d 05 5f bd
       -0.025235433 -0.13834041 -0.1922219 -0.054448653
0000d0 64 00 55 bd ab 40 85 bd aa f6 2b bd ca 6f c3 3d
       -0.052002326 -0.06506475 -0.041983284 0.095428064
0000e0 4d 77 5f 3d ad 5b 62 bd 49 64 b7 3d 72 65 8a bc
       0.054557133 -0.05526321 0.08954675 -0.016894076
0000f0 ea b3 a9 bd 9d ee b9 bd 16 da dc bd 70 f8 10 bc
       -0.08286269 -0.09078715 -0.10783784 -0.008848295

conv2.lin.weight f4 [64, 64]
000000 f2 2b fd bd 8f 2b d6 bd f5 c5 b6 bd 08 56 10 3e
       -0.123618975 -0.10457527 -0.08924476 0.14095318
000010 bd 98 50 be 1a 14 1f 3e fa 5b bb 3d e9 00 4d be
       -0.20370765 0.15535012 0.091484025 -0.20019878
000020 e1 3f 62 be e1 b9 1e bd 76 1f 92 3d 16 dd 96 be
       -0.2209468 -0.038751487 0.07134907 -0.2946555
000030 2a 26 ab 3e 3d 8f c9 bc 37 0f 20 3d c0 85 98 bd
       0.33427554 -0.024604434 0.03907701 -0.07447386
000040 be f5 06 3e d3 df 61 bc 71 c2 c3 3c 39 b9 33 3e
       0.1317968 -0.013786274 0.023896428 0.17551126
000050 25 d6 0b be fd 11 36 be be e1 62 3e 6e 38 84 be
       -0.13655908 -0.177803 0.22156426 -0.25824302
000060 e1 a2 2c bd 5b 98 25 bd be 4c 5d bd fd b3 09 be
       -0.04214752 -0.0404285 -0.054028265 -0.13447566
000070 9d dd 58 be b3 b8 48 bd 26 87 13 3e eb 70 09 be
       -0.21178289 -0.049004268 0.14407024 -0.13421981
000080 82 f1 d3 3c 24 d4 05 bd 37 47 09 be a4 cb 05 bd
       0.025871996 -0.032673016 -0.13406073 -0.03266491
000090 61 e0 0a 3c 02 30 4d 3e 6d 7e e4 bb 53 eb e0 3d
       0.008476348 0.20037845 -0.006973079 0.109823845
0000a0 5c d0 6a bd 0d 04 89 3e 9c 88 0b bf b1 31 b7 be
       -0.057327613 0.26760903 -0.54505324 -0.357801
0000b0 3d 6f fb bd d2 a3 15 3e 51 5e e0 bc 8e 0b 7d 3d
       -0.122770764 0.14613274 -0.027388724 0.061778598
0000c0 cf 81 a2 3d c8 83 a5 bd 92 5c 41 be 56 79 53 bd
       0.07934915 -0.08081776 -0.18882969 -0.051629387
0000d0 c9 eb ca 3e f0 53 fc 3c 47 4f 7a 3b 66 fc e7 be
       0.39633015 0.030801743 0.0038194226 -0.45309752
0000e0 82 39 73 3d c4 d5 2b 3d c0 d8 3a 3e 08 4c 22 3e
       0.059381016 0.04195191 0.18246746 0.15849316
0000f0 fb c1 37 be bd ae e1 3d bd ad fa bc e7 9c ca bd
       -0.17945091 0.11019657 -0.030600423 -0.09893208
000100 78 33 86 3d b7 0a 3e be d1 91 5e 3e 82 4e 47 bc
       0.06552786 -0.18558775 0.21735312 -0.012164714
000110 0e 68 f6 3e c0 1c d9 3e bd b3 d6 3d b3 2a d7 bd
       0.48126262 0.42404747 0.10483501 -0.10506191
000120 d1 07 83 bd d8 04 fc bd 27 c3 7e 3d 30 fb fb bc
       -0.06397975 -0.12305611 0.06219783 -0.030759424
000130 b2 9b a7 3e 8c ab 45 3c 16 ca 92 be 7d 61 41 be
       0.32735974 0.012064826 -0.28669804 -0.18884845
000140 b3 85 7f be 15 bd 1b be 6e 06 0b 3e d8 18 ac bd
       -0.24953346 -0.15208848 0.13576671 -0.08403176
000150 f6 1c f1 3c 83 b1 f6 3d 36 ab a0 3d e9 25 e7 3e
       0.029432755 0.120455764 0.07845156 0.4514611
000160 91 cf cc bd 4e 79 70 bd e9 1d 9a 3e b8 d0 83 3c
       -0.10000528 -0.058709435 0.30100945 0.016090736
000170 af 20 71 be 57 1f 4f 3e 41 0e 1c 3e fc 68 d8 3e
       -0.23547624 0.20226799 0.15239812 0.42267597
000180 3c cb 0a 3e 39 56 30 3e 86 2d 03 be df e0 8b bd
       0.1355409 0.17220391 -0.12810335 -0.0683
000190 6c 43 96 be 86 00 02 3f 8b 52 21 3f 09 f9 36 be
       -0.29348314 0.5078205 0.63016576 -0.17868437
0001a0 fb 6a 4a 3e a5 38 40 3e 53 7b b3 3d e2 7a 61 3e
       0.19767372 0.18771608 0.087637566 0.22019532
0001b0 f3 b4 a5 3c d2 fe 56 be 71 2a 22 be 43 50 9b bd
       0.020227885 -0.20995644 -0.15836503 -0.07583668
0001c0 4d bf 9e be d6 dc 00 3f 61 c4 85 3e c7 59 90 3d
       -0.31005326 0.5033697 0.26126388 0.07048374
0001d0 41 7c 54 be 29 52 38 3d 93 e3 20 be 58 a2 69 3f
       -0.20750524 0.04500023 -0.15711813 0.9126334
0001e0 ef 08 b6 bd e8 54 dd 3c bf 35 f8 3e a3 41 93 be
       -0.08888423 0.027018026 0.48478505 -0.28761014
0001f0 f4 06 b7 3c 44 9d 0a be d8 24 17 3f fc 2b 0a 3e
       0.022342183 -0.13536555 0.59040594 0.13493341
000200 a1 06 16 be 8c 77 1d be 0d d7 1f 3d 4f aa a3 bc
       -0.14650966 -0.15377635 0.039023448 -0.01997867
000210 d0 32 87 3c c4 02 a7 3d cf 6e 90 3d a0 88 5f bc
       0.016503721 0.081548244 0.07052385 -0.013643414
000220 5d c3 b4 bb a7 8d 6c be de 35 18 be 03 9d ac bd
       -0.005516453 -0.23100911 -0.14864299 -0.08428385
000230 d9 c4 c5 3b 71 20 7c bd a4 d2 05 bd 9e b4 38 be
       0.006035429 -0.061554376 -0.032671586 -0.1803765
000240 ef 50 d4 bd 00 2d f2 3d 4c eb fb 3d 74 02 f9 3d
       -0.10366999 0.11824989 0.12300739 0.12158671
000250 b3 3f f5 bd 5e ef 50 3d f2 8c c8 3d a4 25 48 be
       -0.1197504 0.05100953 0.09792508 -0.19545609
000260 51 7f ae 3d 13 1a 46 be e4 1b 5c bb c0 09 0b be
       0.085203774 -0.19345884 -0.003358596 -0.13577938
000270 a3 62 f3 bd ed a2 b6 bd d1 8a 0c bd 45 57 31 be
       -0.11884048 -0.089177944 -0.034312073 -0.17318447
000280 4e 09 6c bd 2d 7e 07 be fc 6d a6 3c 1d ed 21 be
       -0.05762606 -0.13231726 0.020316117 -0.15813108
000290 a5 bd 5f be 34 b9 1a 3e e3 34 d7 bd e6 42 4e bd
       -0.21849687 0.15109712 -0.10508134 -0.050356768
0002a0 e2 8e 30 3e 0c e8 f5 3c e7 b3 3e 3e e3 7c 51 bc
       0.17242005 0.030017875 0.18623315 -0.012786123
0002b0 d5 ea 88 bb 43 75 9e bc 71 1f c0 3d 36 76 a1 3d
       -0.004178385 -0.019343024 0.09380997 0.07883875
0002c0 9a b1 99 bd e4 bd e8 bd 5b 0a 37 3e 04 65 19 3e
       -0.07504578 -0.11364344 0.17875044 0.1497994
0002d0 da 75 f2 3d bc 70 82 bd 64 da 2b 3e c5 35 13 be
       0.11838885 -0.063691586 0.16782528 -0.1437598
0002e0 33 6d 22 be c6 c9 b4 3d b2 bc 80 bd a4 4a 1e 3d
       -0.15861969 0.08827548 -0.06285991 0.0386454
0002f0 1a ff 22 3e 02 a2 88 bb ec 1a 90 bc 8a 2b d4 3d
       0.15917626 -0.0041697035 -0.017590962 0.10359867
000300 84 cb dc 3d fe cf 08 be 60 86 1e 3d 3b 3c f8 3d
       0.10781005 -0.13360593 0.03870237 0.12120863
000310 e4 0e 9b 3e d4 74 dd 3d a6 6e 54 be 9a 91 b3 bc
       0.30284798 0.10813299 -0.20745334 -0.021920014
000320 15 b7 f1 bd 4a 15 f2 be 47 a8 04 3d 9a 54 c6 3c
       -0.11802498 -0.47281867 0.032387044 0.024210263
000330 ad 9a ce 3d 61 16 78 bd 19 ae 7e 3d 49 2d 97 be
       0.10088096 -0.060568217 0.06217775 -0.29526737
000340 56 84 5c be a1 16 2d be 96 d9 38 3c 30 01 ff bd
       -0.21534857 -0.16903163 0.011282345 -0.124513984
000350 5a 11 b9 bd 95 62 d2 bc f3 a6 9d 3d be 53 3b 3e
       -0.09036513 -0.025681773 0.07697859 0.18293664
000360 dc 8a 0a be d9 1d 3d 3d be 5d 9a 3e 3c 28 6a be
       -0.13529533 0.046171043 0.30149645 -0.2286691
000370 80 fa e8 3d 37 b5 a6 3e 69 03 d3 3e bb b9 01 bd
       0.11375904 0.3256013 0.4121354 -0.031671267
000380 bf a3 96 be 57 b0 b2 3e 8a f2 fb 3c ad 1d 4b bc
       -0.29421803 0.34900162 0.0307553 -0.012397212
000390 50 c3 34 be b6 7c 0e 3f 33 7f ae 3e ff cb 1c be
       -0.17652631 0.55659044 0.3408142 -0.15312193
0003a0 9f e2 df bd e2 b3 de 3e 3c a8 1e bd 9a 6a 57 3d
       -0.109318964 0.43496615 -0.03873466 0.052591898
0003b0 82 5f b3 3d af 1e 6c be 19 58 5d be 31 ac 2b be
       0.08758451 -0.2305858 -0.21615638 -0.16764905
0003c0 77 ff 45 3e e1 0e 31 3e 2a 87 af 3e ce 7c 24 3e
       0.19335733 0.17290832 0.3428281 0.16063234
0003d0 a6 ab 13 bf 6a 39 d3 bc b3 94 93 be 1f e4 b0 3e
       -0.5768379 -0.025784213 -0.28824386 0.34549043
0003e0 55 7f 10 be b0 42 79 bc 13 ef a2 3d 3c d3 f1 be
       -0.14111073 -0.015213653 0.07955756 -0.47231472
0003f0 43 42 3f bd 59 31 4e be 44 db b5 3c 54 dd f9 3c
       -0.04669405 -0.20136012 0.02219928 0.030501045

conv3.bias f4 [64]
000000 39 d9 ab 3b 6b 39 c7 bc ca 40 9e bd 8e 75 23 3c
       0.005244401 -0.024319371 -0.07727201 0.009976758
000010 f3 85 c8 bc d2 5e a6 3d 8d 87 b7 3d 33 27 76 3d
       -0.024477934 0.08123554 0.08961401 0.060095977
000020 c4 ca c9 bd 26 86 c1 3d af 4a c7 bb cb 16 ad 3b
       -0.098531276 0.09449415 -0.006081901 0.005282258
000030 de 9e d6 bd 5f 6d 53 bc c6 e9 b8 3d 80 60 f7 bc
       -0.1047952 -0.012904494 0.09028964 -0.030197382
000040 14 c8 18 bd 40 f1 1d 3c 73 f4 6e 3c 0f c2 de 3d
       -0.037300184 0.009640038 0.014584648 0.108768575
000050 9d 20 32 ba 8a b8 5e 3d 3d 0e c4 3d d9 77 3d 3d
       -0.0006795021 0.05437521 0.09573028 0.046256874
000060 00 05 d7 3d bf dd f8 bc 18 95 04 3e 79 27 1e 3b
       0.104990005 -0.030379174 0.129475 0.0024132414
000070 ff 34 83 3d 29 f4 48 bb 74 c3 1a bd 9f 58 d3 bd
       0.064065926 -0.003066311 -0.037784055 -0.103196375
000080 7d bf 1f bd 48 1e 3b 3d 18 f6 62 bc de df 3b 3d
       -0.039000977 0.045683175 -0.013852619 0.045867793
000090 94 4e b8 bd e9 37 8c 3c e9 5d c4 bb 32 e4 9c 3c
       -0.089993626 0.017116504 -0.0059926403 0.01915178
0000a0 4a d7 ae bc 71 22 7d 3d f0 6a 8f 3d 2a 48 7b bc
       -0.021342892 0.061800424 0.070028186 -0.0153370295
0000b0 84 6f 6d bb af 3a 34 be b5 0e 90 bb 25 4b e8 bc
       -0.0036229799 -0.17600511 -0.0043962845 -0.028356144
0000c0 a8 60 58 bc 9d ed 08 bd 65 1d af bc d6 af 91 3d
       -0.013206638 -0.03342973 -0.021376321 0.07113616
0000d0 90 18 10 3d 01 56 b2 3b ff bf 30 bc 59 5e a0 bb
       0.035179675 0.0054423814 -0.010787963 -0.0048940596
0000e0 25 93 46 bd 7d 53 33 3d 81 c2 3c bd 24 8a e2 3c
       -0.04848017 0.043780793 -0.04608393 0.027653761
0000f0 28 e7 b4 3b 78 1b c5 bc b8 85 a9 3d a3 f3 94 3d
       0.00552072 -0.02406095 0.08277458 0.072730325

conv3.lin.weight f4 [64, 64]
000000 3f c0 68 3e 79 6e ab be e4 a7 0e be 17 30 13 3c
       0.22729586 -0.3348272 -0.13931233 0.0089836335
000010 49 88 ea 3b 57 b6 9c bd df ec 92 bd df b6 3b 3e
       0.0071573597 -0.07651966 -0.07174086 0.18331479
000020 df 44 22 bc e5 2a 17 be 8a ef 0b be 45 89 64 3e
       -0.009904115 -0.14762457 -0.13665596 0.22317989
000030 20 72 3d be ad 5c e6 bd b1 17 20 3e 18 60 9e 3e
       -0.18500566 -0.11248145 0.15634038 0.3093269
000040 12 22 85 3e a2 db f0 3c f8 5d bb 3d 5b 64 99 3d
       0.26002556 0.029401604 0.091487825 0.074898444
000050 7b d9 2a 3d a0 ec f3 bd 2a b2 b6 3e 77 5e ae be
       0.04171131 -0.11910367 0.35682803 -0.34056446
000060 94 bc a9 bd 9f 27 02 3c 7d 8c 12 bd 0d 49 9c bd
       -0.082879215 0.007944017 -0.03577851 -0.07631121
000070 95 e0 69 3e 06 db a2 be fb 13 28 be 36 3f 98 3d
       0.22839577 -0.31807727 -0.16413872 0.074339315
000080 08 a2 96 3e 9e aa a4 bc cd a6 3b 3e f8 1f a8 bd
       0.29420495 -0.020100888 0.18325348 -0.082092226
000090 12 b1 ff 3d 84 cd 16 3e f0 3c 02 bb 5b f7 c5 bd
       0.12484945 0.14726835 -0.0019872747 -0.0966632
0000a0 10 4b 63 3d 5e 00 a3 3d 6e ba a6 3d 4f db 89 be
       0.055491507 0.079590544 0.081410274 -0.26925132
0000b0 b2 32 54 be fd 18 70 be 85 46 01 3d 30 b9 37 bd
       -0.20722464 -0.23447032 0.031561393 -0.044854343
0000c0 f2 d8 4d 3e a7 d4 a3 3e b5 f1 41 be 6f a3 43 3d
       0.2010229 0.31998178 -0.1893986 0.047763284
0000d0 fa 43 0a 3e d9 1e f9 3d 06 a1 67 3d 5b ca 7d 3c
       0.13502494 0.12164087 0.05655005 0.01549014
0000e0 9a 5f 8a 3d 36 2b 13 3d b0 e7 2a bd c9 4b 99 bd
       0.06756516 0.03592988 -0.04172486 -0.07485158
0000f0 a9 2b 87 3e 07 ee 4c 3e fb 85 ae bc ed d2 00 3f
       0.26400498 0.20012675 -0.021304121 0.5032185
000100 c2 30 07 bd b8 d7 56 be db fb 3c 3c b1 57 f7 bc
       -0.033005483 -0.20980728 0.011534656 -0.030193182
000110 e9 6d d3 bc ae df 0a be b8 a9 14 3c 78 16 25 bd
       -0.025809245 -0.1356189 0.009073667 -0.04030463
000120 c5 6b 6a be 99 53 38 bb f2 21 68 3e bd b8 f2 3d
       -0.22892673 -0.0028126 0.22669199 0.11851642
000130 b1 df 0c 3e 19 e1 38 be 02 bb 97 3e b9 60 05 3d
       0.13757206 -0.18054618 0.29634863 0.032562945
000140 55 89 33 3e 1d 08 0b 3a 1a 6d cb bd ee 95 55 3e
       0.17532857 0.0005303638 -0.09932919 0.20857975
000150 a5 f4 13 be f8 67 31 be ab f8 84 3e b8 45 8a 3d
       -0.14448793 -0.17324817 0.2597097 0.06751579
000160 c4 a7 1b bd 9e ec 2c 3e c4 e2 07 3d 69 f7 af bd
       -0.03800179 0.16887137 0.033175245 -0.085921116
000170 47 11 a3 3d 06 cb 18 be 90 f7 7b bc e5 29 b4 be
       0.0796228 -0.14921197 -0.015378848 -0.35188213
000180 b9 72 d5 bd 55 83 3c 3d f9 e6 84 3d ee 10 89 bc
       -0.10422272 0.046023685 0.06489367 -0.016731706
000190 a4 ef dc bd 4e a3 56 3e 21 0f 7f bd 25 f1 39 3e
       -0.10787895 0.20960733 -0.062270287 0.18158396
0001a0 0a 6f 1f bd 57 19 3b 3d 9c 5f 2e be 9b 91 b1 3d
       -0.038924254 0.045678463 -0.1702866 0.0867035
0001b0 1f f9 99 bd 6b 02 68 be 56 6e 35 3e 8e 01 8e bd
       -0.07518219 -0.22657172 0.17717871 -0.0693389
0001c0 4d 1e 01 bd 3b e8 c2 3e 17 36 e4 bc a8 00 1d 3d
       -0.031523038 0.38067803 -0.027857823 0.038330704
0001d0 8e 47 d7 bd 1b cd 71 be c9 94 b7 ba 0a 6d cb 3d
       -0.10511695 -0.23613398 -0.0014006133 0.09932907
0001e0 e9 8e 1e be 65 6d eb bd 94 8c 37 3e d5 e0 0f be
       -0.15484203 -0.11495475 0.1792472 -0.1405061
0001f0 d4 2c 68 3d 51 38 84 bd 56 d3 d5 3d 68 7e ac 3e
       0.056683376 -0.06456054 0.104407 0.3369019
000200 83 ac 4c bd 93 95 42 be be 14 fe bc 0a f4 73 be
       -0.049969207 -0.1900237 -0.03101575 -0.23823562
000210 33 d7 7f 3e c5 99 27 be a2 d8 6d 3e d2 08 59 3e
       0.24984436 -0.16367252 0.2322717 0.21194771
000220 53 9f 21 3e c4 eb 5c 3e a4 16 1d be f5 f5 ac 3d
       0.15783434 0.21574312 -0.15340668 0.0844535
000230 df 01 3c 3e 6a 53 7e 3c ba 7c 3c 3e c5 c9 4c 3e
       0.18360089 0.015522817 0.18406954 0.19998844
000240 7b 01 63 3e 03 18 f3 3d bd 6a d4 3d da 80 88 bd
       0.22168534 0.11869814 0.10371921 -0.066652015
000250 b5 6b 37 be 68 20 a4 bc 12 4c 27 be 46 62 2d be
       -0.1791218 -0.020034984 -0.16337612 -0.1693202
000260 6b 7d 10 be 6d 4f 8e 3e ad 16 e4 3d 15 26 c6 3d
       -0.14110343 0.27794972 0.111371376 0.09675232
000270 8e e4 75 3d 39 60 01 3e 44 78 a4 bd 37 cc 2d 3f
       0.06003242 0.12634362 -0.08030751 0.6788973
000280 89 dc 2e be e3 68 32 be 18 3a 8f be 9c 07 1f 3c
       -0.17076315 -0.17422824 -0.2797401 0.009706404
000290 05 63 06 3f 5b 4b f2 bd 2f f6 b0 3c 1d da d9 bd
       0.5249484 -0.11830779 0.021601764 -0.10637305
0002a0 97 5b 58 3e e1 a3 58 be fc 5f 1a 3d 7b c6 10 3e
       0.21128689 -0.21156265 0.037689194 0.14138214
0002b0 79 f0 58 3e 5f 4a 04 be bf 26 93 3c c8 ca 4e bd
       0.21185483 -0.12918995 0.017962812 -0.050486356
0002c0 fb a4 bb 3d d9 52 d3 3e b7 7f 75 3e be bb 38 3d
       0.09162327 0.41274145 0.239745 0.04510092
0002d0 b7 ba a5 3e d4 6a 85 3e 63 c3 4d 3e 10 7e 22 3e
       0.32369015 0.26058066 0.20094065 0.15868402
0002e0 77 f1 15 be 72 25 6a 3e 63 26 0d be 04 0c fb 3d
       -0.14642893 0.22865847 -0.13784175 0.12258151
0002f0 f5 95 00 3e cc bd 66 be 8c e6 c3 bd 35 35 6e be
       0.12557204 -0.2253334 -0.09565458 -0.23262484
000300 d7 2a 1d 3e da db 32 3e 2b dd c3 3d 67 ec ea bd
       0.15348373 0.17466679 0.09563669 -0.114708714
000310 b2 f7 a3 3d f0 0f 6b 3d 23 8f b8 bd 3b 0a 90 be
       0.080062285 0.057388246 -0.09011676 -0.28132805
000320 43 0b 05 3d 63 71 11 3e 2f d7 b6 3d 0b 83 30 3e
       0.032481443 0.1420341 0.08927762 0.17237489
000330 6f 50 41 bd 12 7c 31 3e b3 b8 40 3d 66 f5 c2 bd
       -0.047195848 0.17332485 0.047051143 -0.09519462
000340 38 9b 8a bd 82 e1 e1 bc 24 0b 1d be 92 35 65 bd
       -0.06767887 -0.02757335 -0.15336281 -0.05595929
000350 53 a9 47 be 41 8f 52 be 47 66 aa bd 78 b8 be 3e
       -0.19498186 -0.2056246 -0.08320289 0.37250113
000360 7e c1 1b be 0d 03 3e bd c9 b8 09 be 7f 16 65 3d
       -0.1521053 -0.04638963 -0.13449396 0.055929657
000370 06 8c 9f 3d fa 5c 18 be 6f 90 c2 3d 8c 2c 94 be
       0.07790379 -0.14879218 0.09500205 -0.28940237
000380 c8 21 70 3e 7a 7d 8c bb 84 91 2e bd 25 86 65 3d
       0.23450387 -0.004287419 -0.042619243 0.056036133
000390 c6 8b c7 be f9 16 8f bd 7a 4f 9d bd e6 b5 60 be
       -0.38973826 -0.069868036 -0.076811746 -0.21944389
0003a0 33 0d 9e 3d 5a 3a fb 3d 4e d5 82 bd 3c 8e 01 3e
       0.07717361 0.12266989 -0.06388341 0.12651914
0003b0 e6 02 8f bc 46 98 0d bd 86 9d 9a bb a3 00 3e 3e
       -0.017457437 -0.034569047 -0.0047184853 0.1855493
0003c0 28 ed 89 bc 63 fe e2 3d 46 d0 fa 3c 96 96 17 be
       -0.016836718 0.11083677 0.03061689 -0.14803538
0003d0 9a 3f 27 be 08 fc a0 3d 3b 0f 93 3d 3a ad c9 3c
       -0.16332856 0.07860571 0.07180639 0.024618734
0003e0 47 0c 9a 3d d8 0e 8b be 9e 64 1f be 57 7d 50 be
       0.07521873 -0.27159762 -0.15565726 -0.20360313
0003f0 59 2f 70 be 5b 05 db 3d fb 0f 36 3b d8 c1 f9 bd
       -0.23455562 0.10694381 0.0027780521 -0.12195176

fc_cls1.weight f4 [512, 128]
000000 df 24 61 3d ee ad ec 3d c2 cf 8a 3b 4f f4 60 3c
       0.054966804 0.11556612 0.0042361924 0.013730123
000010 4a 71 3d 3c 3b 79 a6 bb 6b f6 55 bd b7 a2 aa bd
       0.011562655 -0.0050803698 -0.052236956 -0.08331817
000020 cd b4 99 3c 5a 11 96 3d 25 86 f1 3d 9a 3c a4 3c
       0.01876297 0.07327528 0.11793164 0.020048428
000030 1f ef f5 bd b7 aa 7c bd fc ef e3 bc ee 4a 41 3d
       -0.12008499 -0.061686244 -0.027824394 0.0471906
000040 95 a1 86 bd 75 0d 31 bd fd bd 4b 3d 23 0b 82 bd
       -0.06573788 -0.043225724 0.049741734 -0.063497804
000050 63 5c 28 3a 4f a4 d8 3d 3f a4 2d 3c 3c 9a 8a 3d
       0.0006422458 0.105782144 0.010598241 0.06767699
000060 0f e6 a3 bd 7d d6 b0 bd 5e f3 2a bd a8 c8 e4 3b
       -0.080028646 -0.086346604 -0.041736 0.006981928
000070 a3 bc 92 3d be e4 b8 bd f0 18 58 3d 2e 73 6b 3b
       0.07164886 -0.09028004 0.052758157 0.0035926807
000080 ff 76 5b bd 85 dc a9 3c 02 ef e2 3c ad 85 6e 3c
       -0.05358028 0.020735035 0.027701858 0.014558238
000090 c6 4c 46 3d bb 9e e3 bd 11 16 97 bd 0f 42 28 3d
       0.04841306 -0.1111426 -0.07377256 0.041078623
0000a0 20 50 11 bc 79 4d ec ba c0 a4 e7 3d 53 6f b2 3d
       -0.008869201 -0.001802846 0.113107204 0.0871264
0000b0 d8 07 c3 bc 91 4f 2c 3d d8 c1 cf bd 02 2d 06 3c
       -0.023807451 0.042068068 -0.10144395 0.008189442
0000c0 0b b9 c2 3d 7f 9e 08 bd 22 6d e4 3d 98 4c 0c bd
       0.095079504 -0.03335428 0.11153628 -0.034252733
0000d0 71 6f 4e bd d3 e4 b6 3d d6 b4 23 bd 58 17 2c 3d
       -0.050399248 0.089303635 -0.03996738 0.04201445
0000e0 61 91 2d 3e 3d b5 3e be 47 0e 4a bd 74 19 ab 3c
       0.16949989 -0.18623824 -0.049330022 0.02088616
0000f0 b6 13 d2 bc 81 b3 ed 3d 64 67 62 3d a7 6b 31 3c
       -0.025644165 0.11606503 0.055274382 0.010828889
000100 28 9e b3 3d 82 5e 2f 3d 08 e8 47 3b d7 c5 94 3d
       0.087704 0.04281474 0.0030503292 0.072642975
000110 80 cc a2 3d 33 98 99 bc 01 0b c7 3b d1 19 02 bd
       0.079491615 -0.018749332 0.00607431 -0.0317629
000120 87 cd 7b bc 57 c9 56 3d b9 1e 21 3c d5 18 17 3c
       -0.015368826 0.052438106 0.009833985 0.009222229
000130 8f 37 eb bc 1f e7 b7 3d b7 c0 f0 38 91 52 f5 3c
       -0.028713016 0.0897963 0.00011479988 0.029946597
000140 fe 9d 9a bd 0a 6a 4a bd ce de f7 3c be 65 a0 3c
       -0.07549666 -0.049417533 0.030257609 0.019579764
000150 6c 13 8c bd 97 58 0c 3c 03 fc 5a bd 0e 67 9b 3d
       -0.06839642 0.008566043 -0.053462993 0.075880155
000160 26 6e c1 bd 76 8c bb bc 3d 7c 0b bd a9 d0 1d 3d
       -0.09444837 -0.022894125 -0.03405403 0.038529072
000170 4d 37 4e 3e 03 cb 22 be 5f d8 fd 3b 8e 95 80 bb
       0.20138283 -0.15897755 0.0077467407 -0.0039240783
000180 1d ec 4c bd 31 1d f7 bd f0 b5 24 3c 5a db ea 3c
       -0.050029863 -0.12066115 0.010053143 0.028669048
000190 df f0 94 3d 84 d1 88 bd 32 c9 56 3d 77 40 8d 3c
       0.07272505 -0.06680587 0.05243797 0.017242653
0001a0 2d b2 25 3d 32 80 0e 3d 60 ff 25 3d ac 8c 69 bc
       0.040453125 0.034790225 0.040526748 -0.01425473
0001b0 98 59 3b 3d 72 9d 0f bd d5 3a 18 be 9c aa 52 3c
       0.04573974 -0.03506226 -0.14866193 0.012858059
0001c0 1d f7 10 3d 1a 6f 24 3d 6b b7 c7 bb b7 d5 bb bc
       0.035391916 0.040145017 -0.006094863 -0.022929056
0001d0 27 16 99 3d 76 33 8e bc 15 cb 36 3d a7 d5 34 bd
       0.07474928 -0.017358523 0.044627268 -0.044149067
0001e0 ed db 14 3e af a0 a5 bd df 36 99 3d c7 a6 d8 bd
       0.1453702 -0.080872886 0.07481169 -0.10578685
0001f0 94 46 d7 3c c2 ce 5d bd e5 0f a5 3c 43 89 8b 3d
       0.026278771 -0.054152258 0.02014918 0.0681329
000200 b7 95 ad bb b5 07 24 3e ac 6e 89 3d 48 a3 6f bd
       -0.0052973884 0.16018565 0.06710562 -0.058505327
000210 27 4c 90 bd 7f ab 3c bd 53 05 08 bd f7 d2 9b 3b
       -0.07045775 -0.04606199 -0.033208203 0.0047553736
000220 af 8b 51 3d 8a b3 a7 bb ec 46 2f 3c 91 bf 62 3d
       0.051158603 -0.0051178383 0.010698061 0.055358473
000230 5c 50 6c bd ff 65 8f bd 8d bd c3 bd f7 83 89 3c
       -0.057693824 -0.07001876 -0.09557638 0.016786559
000240 a1 0d 15 be 2d 8f 23 3d 4f 52 09 bd 90 f4 53 bd
       -0.1455598 0.039931465 -0.03352576 -0.051746905
000250 e0 8c 5f 3c 95 c8 c7 3d 94 b6 2f 3e b2 7f ce 3d
       0.013644427 0.09755055 0.17159492 0.1008295
000260 4d c4 b7 39 c0 b0 58 bd cc 48 78 3d bb 17 31 3e
       0.00035050735 -0.052902937 0.0606163 0.17294209
000270 f7 8e 83 3c fa b4 ea bd f4 e6 87 3c 46 b3 9b 3d
       0.016059382 -0.114603 0.01658962 0.07602553
000280 f9 44 db bc 55 6c 0b 3c 8a eb ec bc 4b d7 b2 bb
       -0.026766287 0.008509715 -0.028920908 -0.005457794
000290 6f 2e f6 3c 09 ec d6 bd 12 56 38 3d 8b 9b b4 bd
       0.030051438 -0.10494239 0.045003958 -0.0881873
0002a0 dd d7 36 3e 08 44 c8 bd b8 a3 6c 3c c1 4b 8e 3d
       0.17855783 -0.09778601 0.0144433305 0.06948043
0002b0 11 05 17 3d 01 9f bb bc 9a 1b 08 be 89 0c 7e bc
       0.036870066 -0.022902967 -0.13291779 -0.015505918
0002c0 a0 b5 2f 3d 65 67 6a bd cd 44 c9 bc 73 59 96 bc
       0.04289782 -0.05722751 -0.02456894 -0.0183532
0002d0 91 c9 28 3d 55 5a 8f 3d 53 9e d6 3b 99 d0 9c bc
       0.041207854 0.06999651 0.0065496354 -0.019142436
0002e0 05 d3 04 be de 55 68 bc 16 51 55 3d bb 24 f6 bd
       -0.12971123 -0.014180629 0.052079283 -0.120187245
0002f0 d5 8f dd bc 60 3b 8d 3d 61 b8 06 3c 15 65 e6 bd
       -0.027046124 0.068960905 0.00822267 -0.112497486
000300 d4 26 dd 3d 46 bb ef 3d 45 0e c7 3c 3b 5f e8 3d
       0.107984215 0.117056414 0.024298796 0.11346289
000310 47 96 0d bd d8 e3 c8 3c 0a 7b 50 3d 4e ff 06 3e
       -0.034567144 0.024522707 0.05089859 0.13183329
000320 f1 4b 9f bd 73 6f 81 bb d7 f1 50 3d d7 9b 05 3e
       -0.077781565 -0.0039500534 0.051011886 0.1304773
000330 2f d2 40 be 00 88 7f bd 93 38 4f 3d 90 15 63 bd
       -0.18830179 -0.06238556 0.050591063 -0.055440485
000340 f1 5a 2f be a3 ff 13 bd 6c 48 b7 bd 4d 14 b7 bc
       -0.17124535 -0.036132466 -0.0894936 -0.022348547
000350 09 b5 13 be dc 12 bf 3c fb 0c 25 3d ac ae ef 3c
       -0.14424528 0.023324423 0.040295582 0.029258095
000360 2d 8c 1d bd 35 d3 b8 bd 20 ce 48 bd 23 18 40 3e
       -0.03846376 -0.090246595 -0.0490247 0.18759207
000370 1d b5 41 3e 21 01 d1 bd a4 5b 11 3e 44 1e d1 3c
       0.18916745 -0.102052934 0.14195114 0.025527127
000380 1a 47 a5 bd dd e9 cd bc fe 41 17 3c 46 5c de bc
       -0.08070202 -0.025135929 0.009232042 -0.027143609
000390 2e 2a 66 3c fc 66 63 bd 94 e3 8f bd f1 9f 1c 3b
       0.014048142 -0.055518135 -0.07025829 0.0023899043
0003a0 01 40 91 3d 85 50 c2 3c 8e 94 ba 3d b1 5a 27 3b
       0.07092286 0.023720035 0.09110366 0.0025536234
0003b0 cc 61 2e 3d 66 98 91 bd ac 36 35 be fe 4c 42 3d
       0.042573735 -0.07109146 -0.17696637 0.047436707
0003c0 5b ed 58 3d 20 d3 5c 3d 4f d0 12 3d cc 5f 3c b9
       0.052960735 0.053912282 0.03584319 -0.00017964764
0003d0 26 d7 9c 3d bf 9c 6d 3b 69 76 19 be 48 7c 6a bd
       0.07658224 0.0036256758 -0.14986576 -0.05724743
0003e0 40 5f d2 bd 2e a7 58 bd c7 67 c4 3c bc 45 86 bc
       -0.10272074 -0.05289381 0.023975266 -0.016390674
0003f0 12 ae f7 bc ea c8 78 3d 47 85 e0 3d 07 59 be bd
       -0.03023437 0.06073848 0.10962921 -0.09294324

fc_cls1.bias f4 [512]
000000 96 4d 04 be 7d f2 f9 bd ee 46 3c be 76 a8 2d be
       -0.12920222 -0.12204454 -0.18386433 -0.16958794
000010 53 f9 48 be b2 23 3e be fe 7d 44 be 31 2e 74 bd
       -0.1962636 -0.18568304 -0.19188687 -0.059614364
000020 ff dd 4c be 9f 52 ec bd 7f 17 db bd 4d 5f 74 3b
       -0.2000656 -0.11539196 -0.10697841 0.003728825
000030 e8 40 53 be 1d 45 3d be ef 15 27 be 46 94 0c bc
       -0.20630229 -0.18483396 -0.16316961 -0.008580273
000040 f3 06 2d be 92 ad 65 be c8 73 05 be 6a d0 10 be
       -0.16897182 -0.22429493 -0.13032448 -0.14142004
000050 16 e7 25 bc ee 68 dc bd be 73 1e be 8d 20 5f bd
       -0.010125896 -0.10762201 -0.1547384 -0.054474402
000060 1d 69 37 be e2 fb 20 be de 81 54 be 99 95 4f be
       -0.17911191 -0.15721086 -0.20752665 -0.2027191
000070 68 ab f9 bd dd 6a 26 be 10 a9 43 be 7c 68 61 be
       -0.12190896 -0.16251703 -0.19107461 -0.22012514
000080 24 2a 8e bd e6 5e 47 be ed 56 85 be f7 72 ee bd
       -0.069416314 -0.19469795 -0.26042882 -0.116430216
000090 83 85 5a be b0 f5 78 bd 5e 78 73 be 0e ae 0f be
       -0.21339993 -0.06078118 -0.23776385 -0.1403124
0000a0 7f a3 cb bd af 57 e6 bd 6e 3d 10 be 0c 0c 27 be
       -0.09943294 -0.11247193 -0.14085934 -0.1631319
0000b0 5e 9f 4b be 9b a4 a7 bc 08 3d 2c bd a9 12 fa bd
       -0.19885013 -0.020464232 -0.04205039 -0.122105904
0000c0 76 d5 73 be 7c 25 d4 bd 2f 67 0d be 8c 40 39 be
       -0.23811898 -0.10358712 -0.13808893 -0.18091029
0000d0 b0 0a 29 be 83 fd 23 be 04 32 13 be 69 55 2e be
       -0.16507983 -0.16014676 -0.14374548 -0.17024769
0000e0 60 8b 04 be 83 f0 11 be 0c 0d 43 bd 7a ac 0c be
       -0.12943792 -0.14251904 -0.047619864 -0.1373767
0000f0 fa ec 2e be 1e 6f d2 bd 87 cd e2 bd 24 8a 1f be
       -0.17082587 -0.102751 -0.110743575 -0.1558004
000100 9d a6 ac bd 98 84 3d bd c1 81 13 be bf c0 c8 bd
       -0.084302165 -0.04626903 -0.14404966 -0.098023884
000110 16 74 8e bd a5 ea 80 bd cc f9 23 be c1 78 98 be
       -0.069557354 -0.06294755 -0.16013259 -0.29779628
000120 c0 c2 96 be 0a 7e 88 be 31 d0 42 be 8c 1a ec bd
       -0.29445457 -0.2665866 -0.19024731 -0.11528501
000130 11 27 3b be d9 bf ff 3c dd d4 62 be 22 5c 80 be
       -0.18276621 0.03121941 -0.22151513 -0.25070292
000140 67 d7 34 bd 5d b7 18 be c9 46 38 be 29 44 71 be
       -0.044150736 -0.14913698 -0.17995752 -0.23561157
000150 42 d6 09 be 55 47 0e be 68 c5 0e be ee 3f 5f be
       -0.13460639 -0.13894399 -0.13942492 -0.21801731
000160 ce 33 6c be 2a 3c 4c be f2 d0 1b be 61 7d fa bd
       -0.23066637 -0.19944826 -0.15216425 -0.122309454
000170 a1 af 80 be 3b 41 c1 bd 10 ae 25 be 98 55 4a be
       -0.25133994 -0.0943627 -0.16179681 -0.19759214
000180 a5 87 20 be c0 6c dd bd c5 a3 a8 be 69 91 29 be
       -0.15676744 -0.10811758 -0.32937446 -0.16559376
000190 df 92 a9 bd 0d 8a e9 bb f2 3a 1f be 20 9f 02 be
       -0.082799666 -0.0071270526 -0.1554983 -0.12756014
0001a0 64 01 45 be 74 f8 7b be 5e 76 f3 bd 56 16 f3 bd
       -0.19238812 -0.24606496 -0.11887811 -0.118694946
0001b0 aa b6 c9 bd 8f bb ec bd 39 08 fd bd 28 34 41 be
       -0.098492935 -0.115592115 -0.12355084 -0.18867552
0001c0 08 db 84 be f9 24 15 be cf 16 37 be a2 39 92 be
       -0.25948358 -0.14564885 -0.17879795 -0.28559595
0001d0 29 69 4c be 67 9f b4 be b9 32 68 be 7b 73 0e be
       -0.1996199 -0.35277864 -0.22675599 -0.1391124
0001e0 17 02 a2 bd 6e d3 b2 bd f0 b4 2c be 58 eb 06 be
       -0.07910555 -0.08731733 -0.16865897 -0.13175714
0001f0 40 69 68 be 18 f3 81 be 9f dd ea bd a2 a3 0f be
       -0.226964 -0.25380778 -0.11468052 -0.14027265
000200 01 6f 31 be 90 ec 4c be 8d 03 6a be c7 2d 7a be
       -0.17327501 -0.20012116 -0.22852917 -0.24431525
000210 72 37 16 be 5f dc 50 be ef 6b f5 bd 32 bc e7 bd
       -0.14669588 -0.20396565 -0.11983477 -0.11315192
000220 21 a2 28 be 36 2c 2f be 30 5c a5 bd c2 cc 05 be
       -0.16468097 -0.17106709 -0.08074224 -0.1306639
000230 39 c2 3c be 51 33 26 bd af 18 52 be 7d f8 2b be
       -0.18433465 -0.040576283 -0.20517229 -0.1679401
000240 63 28 e5 bd 01 ec 5b be d1 5a 23 be 83 db 26 be
       -0.11189344 -0.21476747 -0.15952612 -0.16294675
000250 33 38 41 be 35 10 65 be 9b b3 1a be 17 f0 44 be
       -0.18869095 -0.22369464 -0.15107577 -0.19232212
000260 a5 df ed bd 19 23 56 be 95 66 1a be 2b 48 12 be
       -0.116149224 -0.20911826 -0.15078194 -0.14285342
000270 73 49 61 be 6b b9 ba bd b7 60 65 be 4f b3 3d be
       -0.22000675 -0.09117397 -0.22400175 -0.18525432
000280 76 58 89 be 24 89 37 be de 21 2b be 66 e2 eb bd
       -0.26825303 -0.17923409 -0.16712138 -0.115177915
000290 01 9f 06 be 56 b0 13 be b2 72 84 be 8c d7 20 be
       -0.13146593 -0.14422736 -0.25868756 -0.15707225
0002a0 21 d0 7d be de 51 21 be 68 07 86 be 01 87 19 be
       -0.24786426 -0.15753886 -0.26177526 -0.14992906
0002b0 6b 92 50 be 4f 1c e2 bd ac 89 4a be 0b 31 2f be
       -0.20368354 -0.11040556 -0.1977908 -0.17108552
0002c0 b7 a3 83 be 82 6b 37 be 47 74 a7 be a5 14 23 be
       -0.25710842 -0.17912105 -0.327059 -0.15925844
0002d0 46 b4 3c be 3d 9e 50 be db 91 7f be 00 e6 24 be
       -0.18428144 -0.20372863 -0.24957983 -0.16103363
0002e0 d9 43 06 be 57 94 4c be 62 68 5a be 99 11 bc bd
       -0.1311182 -0.19978462 -0.21328881 -0.09183044
0002f0 29 0e 48 bd d7 b8 76 be 52 8e a0 bd 4e 8b fa bd
       -0.04884163 -0.24093948 -0.078396454 -0.122336015
000300 49 fb 86 be 0d 63 63 be a0 d7 51 be bc 7d 10 be
       -0.2636359 -0.22205754 -0.2049241 -0.14110464
000310 ea 81 3c be 71 d0 33 be cb 4f 71 be 12 dc 58 be
       -0.18408933 -0.17559983 -0.23565595 -0.211777
000320 9c 6c 45 be e1 bf b4 bd 87 e6 f9 bd 63 fc da bd
       -0.19279712 -0.088256605 -0.12202173 -0.1069267
000330 7a 92 57 be 29 ba e7 bd 37 82 28 be 71 9a 74 be
       -0.2105197 -0.11314804 -0.16455923 -0.2388704
000340 6b 96 8d bc 5e 64 05 be f0 b1 83 be 3c 79 5c be
       -0.017283639 -0.13026568 -0.25721693 -0.21530622
000350 72 d2 8d be 88 fa 1e be 4d b3 22 be fd 11 3a be
       -0.2769962 -0.15525258 -0.1588871 -0.18170924
000360 56 d0 35 be f2 6d ae bd da 2c 33 be f9 00 93 bd
       -0.17755255 -0.08517064 -0.17497578 -0.0717792
000370 36 7b 61 be a0 b6 5e bc cb e0 23 be 79 c0 1c be
       -0.22019657 -0.013593346 -0.1600372 -0.15307797
000380 bb c0 24 be 74 55 45 be 76 f5 f9 bd ba ec 50 be
       -0.16089146 -0.19270879 -0.12205021 -0.20402804
000390 13 15 ef bd 58 75 0f be 6f 60 1e be c3 45 0a be
       -0.116739415 -0.14009607 -0.15466474 -0.13503174
0003a0 31 27 0b be cd 24 44 be 12 63 42 be 60 57 47 be
       -0.13589169 -0.19154663 -0.18983105 -0.19466925
0003b0 69 e7 40 be 72 10 7b be 63 62 0e be b5 48 35 be
       -0.18838276 -0.24517992 -0.13904719 -0.17703517
0003c0 61 d7 1e be f7 ce 21 be 8b d1 20 be cb 49 0f be
       -0.15511848 -0.15801607 -0.15704934 -0.13992994
0003d0 92 0d 2f be 71 0e e1 bd 85 00 a2 bd ad b0 82 bd
       -0.1709502 -0.109890826 -0.07910255 -0.063813545
0003e0 ba 5a 80 be 65 a8 3f be 59 09 1a be bf d7 0f be
       -0.2506922 -0.18716581 -0.15042628 -0.14047144
0003f0 30 d2 0b be 4e ea 15 be 62 c2 51 be a1 3a 3d 3c
       -0.13654399 -0.14640161 -0.20484307 0.011549623

fc_cls2.weight f4 [256, 512]
000000 68 06 5f 3b dc 1b 30 be a3 1c 6b be 96 ab c0 be
       0.0034030918 -0.17198128 -0.22960143 -0.3763091
000010 71 91 4a 3b b2 3e b1 bd 2f b6 67 bd 39 d2 c4 be
       0.0030909444 -0.08654536 -0.05657023 -0.38441637
000020 96 b8 1a 3c 52 80 f0 3c 57 18 42 3b 3c 78 9b 3d
       0.009443423 0.029358063 0.0029616558 0.07591292
000030 21 b1 16 bd 7e 55 93 3d c3 ed 58 3d 5b a8 b1 be
       -0.036790017 0.07194041 0.052961122 -0.34698758
000040 da 30 1f 3e c8 d6 b1 bd 15 6b 07 be 12 e0 82 3e
       0.15545979 -0.086835444 -0.13224442 0.25561577
000050 0a ec bb be 41 c5 17 bd 1e c8 39 3d ff 58 ab 3b
       -0.3670352 -0.03705335 0.045356862 0.005229115
000060 dc 6d 4f be 83 b0 42 3e bf bb 76 be 5d d7 21 bf
       -0.20256752 0.19012646 -0.24095057 -0.63219243
000070 0b ed b9 be 0c 1b 63 3d e4 9d 85 bd c4 3c 63 bc
       -0.36313662 0.055445716 -0.06524256 -0.013869468
000080 42 52 8f 3d 9d 1f 10 3c 81 1e 66 be 27 5e f5 3d
       0.06998111 0.0087966 -0.22472574 0.11980849
000090 a1 f6 54 bd a8 c4 a1 bc b9 93 d7 bd 70 2e 33 bd
       -0.051993016 -0.019747093 -0.10526223 -0.043745458
0000a0 e3 bf 64 3d 0a 2e 2a 3e b0 98 d3 be 8b 9c 3f bd
       0.05584706 0.16619125 -0.4132743 -0.04678015
0000b0 05 73 0f 3d f4 2c e5 be 2a e2 8a be d4 c5 bb 3d
       0.0350218 -0.4476086 -0.27125674 0.09168592
0000c0 4a ce c2 3d 38 40 bc 3d 4d 57 83 3d 5c 1e e2 3c
       0.09512003 0.09191936 0.06413136 0.027602367
0000d0 fe 5e 09 bf 31 dc 40 3e f4 bd 37 3e 44 db 6c 3d
       -0.5366057 0.18833996 0.17943555 0.057826295
0000e0 07 be d9 bc e8 f4 5d bd 35 a4 db bd 20 2c f5 3d
       -0.02657987 -0.05418864 -0.107246794 0.11971307
0000f0 76 8c f0 be 71 fc 32 bc 6a 8a e0 3c 20 c6 36 3d
       -0.46982163 -0.0109244445 0.027409751 0.04462254
000100 30 0d 97 3d d5 fb 15 be 28 1d 8d bd 6b e3 35 bd
       0.07375562 -0.14646848 -0.06890327 -0.044406336
000110 e5 e0 4a be db 8d cd bd 45 28 88 3b 77 1c 95 be
       -0.19812353 -0.100368224 0.004155191 -0.2912328
000120 b9 88 d4 bd 4d d3 03 3d 39 e7 e0 be d8 33 b5 bd
       -0.1037764 0.032183934 -0.4392641 -0.08847779
000130 01 3f 7d bd f3 69 21 be ca d2 d9 be 86 2c 54 be
       -0.061827663 -0.15763073 -0.42543632 -0.2072011
000140 98 9a 98 3c d9 28 b6 3d b8 41 01 3d 93 b2 06 3e
       0.018628404 0.0889451 0.031556815 0.13154058
000150 0b 2c 2d 3c 4f e9 d1 3c 09 89 5d bd 3d bd 26 bd
       0.010569583 0.025623946 -0.054085765 -0.040707815
000160 3e 93 ba 3d 15 4e 4d bb cf 52 f3 bd 4c af 45 bd
       0.091101155 -0.0031327058 -0.11881029 -0.04826288
000170 b9 39 37 bd 20 60 ee bc 31 87 90 bd 4f 53 1b 3e
       -0.044732783 -0.02909857 -0.07057036 0.15168498
000180 30 1c 98 bb bc f3 e3 bb 1d 31 23 be 94 e3 8b be
       -0.004642032 -0.0069565456 -0.15936704 -0.27322066
000190 50 4c aa bd c1 bb b5 3d 82 dd 0b be 84 10 3d be
       -0.08315337 0.08873702 -0.13658717 -0.18463331
0001a0 0e ac 89 bd 4f 20 9b 3c a8 06 63 bd f0 e1 22 be
       -0.0672227 0.018936304 -0.05542627 -0.15906501
0001b0 05 50 50 bc ec db 71 bd e7 ef 3d bc cc c8 fd bd
       -0.012714391 -0.059047624 -0.011592842 -0.123918146
0001c0 3d 55 4f bd 71 0f 9c be e0 29 d0 bd d4 2e 90 3d
       -0.0506184 -0.3048053 -0.10164237 0.07040182
0001d0 c4 a9 28 be 07 e2 09 3d b1 8f 56 bd 99 94 34 be
       -0.1647101 0.033662822 -0.05238313 -0.1763481
0001e0 d2 ec 9d 3e 5e fe a1 be bf 2e e9 bd ee 29 26 3d
       0.30844742 -0.3163938 -0.11385869 0.04056733
0001f0 07 62 07 bc 43 7c 04 3f 65 77 cf 3d 08 6e e2 bc
       -0.008263118 0.5175211 0.101301946 -0.027640358
000200 9c b1 ea bd 04 03 c5 bc ad b6 5f 3d 4e dd f7 bc
       -0.114596575 -0.02404929 0.054617573 -0.030256893
000210 12 5c 3c be 6f 84 d5 bd 2a ed 2a bd c6 cd 03 be
       -0.18394497 -0.1042565 -0.041730084 -0.12871465
000220 05 d6 68 bd 07 fc aa bd 21 f1 b8 be 14 7d 12 bd
       -0.05684473 -0.08348852 -0.36121467 -0.035763815
000230 cc 27 ad bd 6b ee f1 be 97 05 43 be 34 9b dc 3b
       -0.08454856 -0.4725221 -0.19045101 0.006732369
000240 41 8a b5 be cd b4 dc bd 51 6b 78 3d 6b 1e 4c bd
       -0.35457042 -0.107766725 0.06064922 -0.049833696
000250 74 e8 46 be 12 cb ad be d4 0d 24 bd 73 cf d8 3b
       -0.19424611 -0.33943993 -0.04005225 0.0066165267
000260 3f 0f 3e bd 21 fc 18 3d 3d 8d 6f 3e 4f e2 89 3e
       -0.04640126 0.037349824 0.23393722 0.26930472
000270 c5 f6 f3 3c e0 87 82 3d ac 79 df bd 28 01 8f 3d
       0.029780755 0.06373572 -0.10911879 0.069826424
000280 56 7f ba be 9f e5 d0 3d cd 4f 63 3d cd 97 95 3d
       -0.36425275 0.10200047 0.055496026 0.07304344
000290 5b a0 54 3e 45 37 9a bd 1e 33 18 be 21 64 35 bf
       0.20764296 -0.07530073 -0.1486325 -0.7085591
0002a0 ed 2a 87 bd 84 7b 1f 3e 22 bf 52 3e 0f c1 55 bd
       -0.06599984 0.15574461 0.20580724 -0.05218607
0002b0 aa 8a d6 be 63 1b ce be 93 60 23 be ae 4f 4a 3d
       -0.41902667 -0.4025527 -0.15954809 0.049392395
0002c0 ff 6b d3 3d 38 1e a6 bc 8d 5e ca bd 2b f3 d3 3d
       0.10323333 -0.020278081 -0.098813154 0.10349115
0002d0 ef 2b 7a be 94 6d a1 bd 55 88 92 bd d3 92 84 bd
       -0.24430822 -0.078822285 -0.071549095 -0.06473317
0002e0 cd 47 1a bc c3 53 4d 3d 03 da f4 3c 21 16 f2 be
       -0.009416533 0.05012871 0.029889112 -0.47282508
0002f0 6c 32 d7 bc 61 b2 20 3d c3 3d a5 3e 60 c1 8f 3c
       -0.02626916 0.039232615 0.32273683 0.017548263
000300 9b fd 7d be 71 32 61 bd 6d 12 ce bd dd 1c fc 3d
       -0.24803774 -0.054979745 -0.10062108 0.12310193
000310 26 f5 cb bd f0 22 a9 bb ee 0b c6 bd a1 a8 88 3d
       -0.09958868 -0.0051616356 -0.09670244 0.066727884
000320 18 06 01 be a1 4c 2b be 29 c0 bd bb 0b f8 4d bd
       -0.12599981 -0.1672845 -0.0057907295 -0.05028538
000330 ba a6 51 be 7d 9b 2e bd 8a 55 5b 3b bb d5 46 be
       -0.20473757 -0.042628754 0.0033467733 -0.19417469
000340 f1 5f b7 3d e6 10 25 be e4 71 e7 bd 22 88 92 be
       0.08953846 -0.16119727 -0.1130102 -0.28619486
000350 a9 e5 21 b9 93 a5 13 bd b4 27 e4 bd 51 4d 31 be
       -0.00015439712 -0.036046576 -0.11140385 -0.1731465
000360 7c 1a 95 be 20 ed 8b 3b 30 b2 dc bc ba c7 d4 be
       -0.29121768 0.004270211 -0.026940435 -0.4155863
000370 ab 08 34 be 74 e3 48 3e 77 dc fb bd ca 5b a5 bd
       -0.17581432 0.19618016 -0.1229791 -0.08074148
000380 f7 44 87 3a b8 c6 a5 39 22 7e 48 3c 23 f4 af 3e
       0.0010320236 0.0003161931 0.012237104 0.3436595
000390 f8 cc 10 bd 19 db 44 3d 0e 29 07 bd b7 2c 23 bd
       -0.035351723 0.04806051 -0.032998137 -0.039837565
0003a0 9d f6 be bd fb 8b aa be db ff 80 be f0 bd e0 3d
       -0.093243815 -0.33309922 -0.25195202 0.10973728
0003b0 55 37 7a 3d 0f b5 2d bd cf 0d 9a 3d 9f 9b 2b be
       0.061087925 -0.042409 0.07522165 -0.16758583
0003c0 f5 89 0a 3d 95 27 30 be be 5a 1e bd 95 b3 12 bd
       0.033822972 -0.172026 -0.038660757 -0.035815794
0003d0 12 0e cc 3b 4a ee 00 3d 20 bf 4c 3d 8f 3f 17 3e
       0.0062272632 0.03147725 0.04998696 0.1477034
0003e0 de 7c eb bd 03 65 25 be 11 5e ca 3e b3 15 15 3c
       -0.11498426 -0.16151814 0.39524892 0.009099412
0003f0 05 72 db 3c 29 58 76 3e 9f 56 f7 bd 9a 23 bb be
       0.026787767 0.24057068 -0.120770685 -0.365506
