data/predictor/PT/SiameseNetwork_2024-05-13_20-03-23.pt (torch, 995547 bytes, 16 tensors)

conv1.bias f4 [64]
000000 03 01 88 3d 46 1f b1 3c b2 a3 13 bd fc 5d 95 bc
       0.06640818 0.021621358 -0.036044784 -0.018233292
000010 fe 22 db 3c 6a 8a 32 3c 03 23 46 3d f5 90 94 bc
       0.026750084 0.010897258 0.048373234 -0.018135527
000020 31 57 39 bc da 99 8d 3d 55 91 6e 3a da 63 3e bc
       -0.011312292 0.069141105 0.00091006357 -0.011620486
000030 00 00 00 00 18 62 91 bb 51 ee 9b 3c b8 20 ba bb
       0.0 -0.0044367425 0.019034537 -0.00568017
000040 05 0b c5 bc 58 bb 9d 3d 4c 4f bc 3b 02 8d 2e bd
       -0.024053106 0.077017486 0.0057467576 -0.042614944
000050 00 49 b5 bd 3b 1d 3e bc 4f 65 23 bb cc 97 ed bc
       -0.08851814 -0.011603649 -0.002493221 -0.029003046
000060 62 ac c0 bc d6 ea 06 bd 2b cd 18 3e 5c b7 80 bd
       -0.023519699 -0.0329388 0.14922015 -0.06284973
000070 fb f6 59 bc f7 9c 85 bd 77 c2 5f 3b c8 c7 c4 bc
       -0.013303514 -0.06524079 0.003414301 -0.024021044
000080 a3 10 b7 3d c2 47 95 3c fa 8c 35 bb 63 b1 2e 3c
       0.0893872 0.018222693 -0.0027702437 0.0106624095
000090 c4 60 23 3c ee f7 15 3d e7 00 dc bc cc b6 96 bb
       0.009971801 0.036613397 -0.026855899 -0.004599428
0000a0 00 00 00 00 b8 3f 96 bc 0d 3d 1a bd ad e6 47 bc
       0.0 -0.01834093 -0.03765588 -0.0122009935
0000b0 1b f2 41 bd 7b d7 0b 3c b8 94 2b 3d 21 52 83 bd
       -0.04735003 0.008535261 0.041889876 -0.06412149
0000c0 2d 6d 7e bb 23 66 5f bc 13 77 87 bd 3e 08 b7 bb
       -0.0038822398 -0.013635191 -0.066145085 -0.0055856993
0000d0 f0 d0 28 3d 71 e4 60 bc d2 a6 8b 3c e2 7b 9f 3d
       0.041214883 -0.01372634 0.01704732 0.07787301
0000e0 d6 71 0f bd 3a 02 c5 3d c5 cc 97 bc 4b 3b 94 bc
       -0.03502067 0.09619565 -0.018530259 -0.01809468
0000f0 6d ba 91 3c ea 71 a0 3d f9 52 e8 3d fe 93 a6 3d
       0.01778909 0.078342274 0.11343951 0.08133696

conv1.lin.weight f4 [64, 6]
000000 07 d6 06 be 7a bd 55 be 94 52 2d be b1 52 0d be
       -0.13167582 -0.20873061 -0.16926032 -0.13801076
000010 87 a7 90 3e 78 89 d0 3d 82 d6 4e bd a3 7e 1e 3e
       0.28252813 0.1018247 -0.05049754 0.15477996
000020 6d c4 ba 3e 81 f7 8b 3e 27 fa 81 3d 61 97 2a 3b
       0.36477986 0.27337268 0.06346541 0.002603017
000030 13 db 51 3e 01 8c 23 3e 6b eb 61 be f5 fd ec 3b
       0.20493726 0.15971376 -0.22062461 0.0072324225
000040 90 95 06 be a4 99 20 3d ea de 45 be 68 4c 0f 3e
       -0.13142991 0.039209023 -0.19323316 0.1399399
000050 c6 25 1d 3e 22 ab 9f 3e 6e 5b d9 3d c0 81 90 3e
       0.1534644 0.3118525 0.10613142 0.2822399
000060 dd 33 3a bc 8d 0d 66 be 79 49 f2 3e 66 99 ad bc
       -0.011364904 -0.22466107 0.4732168 -0.02119131
000070 c4 26 0d 3e ef ad fd 3b 06 9c 9d be 78 22 d5 3d
       0.13784319 0.0077416818 -0.307831 0.10406965
000080 45 32 9e 3e 5d f1 b2 3e c5 c8 a8 bc e9 e1 c8 3e
       0.30897728 0.3494977 -0.020603547 0.39234856
000090 fc 57 54 bd c4 9e 7e 3e cc 10 99 3b 09 e7 e4 3d
       -0.05184172 0.24865252 0.004671192 0.11176879
0000a0 e0 d5 e2 3d 25 83 e6 3d 5d d6 7d 3c 82 94 a8 3c
       0.1107595 0.112554826 0.015493003 0.020578627
0000b0 d5 ba a9 3e a2 fb a4 3d 3e db 26 3e da 3f 39 bd
       0.33150354 0.08055808 0.16294572 -0.04522691
0000c0 47 fa 0f 3e 22 9a 8c 3e a4 f8 75 be 79 4d d1 3c
       0.14060317 0.27461344 -0.2402063 0.025549637
0000d0 16 90 2c 3e 0e 6a 79 3e 4a aa e8 bd 56 46 8e 3e
       0.1685184 0.24356863 -0.11360605 0.27788037
0000e0 e7 07 c9 39 50 02 08 be e2 71 bb 3e d6 bb 48 3e
       0.00038343595 -0.13282132 0.36610323 0.19602904
0000f0 39 7a 83 3c ea 22 fc bd c9 13 52 3e 33 cc b1 3d
       0.016049491 -0.12311347 0.2051536 0.08681526
000100 00 a7 72 be 72 71 87 3c d8 86 a0 be d4 31 15 3e
       -0.23696518 0.016533587 -0.31352878 0.14569789
000110 8b c2 82 3e 3e fd a7 3e 9c 64 42 3e 3a 24 71 3e
       0.2553905 0.32810396 0.18983692 0.23548976
000120 28 48 54 be a7 ec 09 be 3c ec 62 be 04 1f ff 3d
       -0.2073065 -0.13469182 -0.22160429 0.12457088
000130 ab fb 7c be 40 8e a7 3b 0b 1f 62 bc 6d 3e 6b 3e
       -0.24705379 0.005113393 -0.0138013465 0.22973032
000140 b3 52 a2 bd a1 15 1f 3e 9b 1b 8c 3e 6c e7 50 bd
       -0.0792593 0.15535595 0.2736481 -0.05100195
000150 70 0e 45 bd 34 76 c7 3d c2 34 d8 3e 0e df 2d 3d
       -0.04810947 0.09739342 0.4222775 0.04244905
000160 4b 4e 69 be de c5 22 3d 0a b5 43 3e 3e f8 ea 3e
       -0.22783773 0.039739482 0.1911203 0.4589252
000170 d9 dc c1 be 61 08 99 3d b0 8b 2e bd 7f ad ae 3e
       -0.37863806 0.07472301 -0.042613685 0.34116742
000180 2a 0e 23 3e 72 30 42 3e 0c d2 54 bc 3f 96 95 bd
       0.15923372 0.18963793 -0.012989532 -0.07304048
000190 a0 66 21 be 2c aa 3f be e5 b3 d2 be ec 91 71 3e
       -0.15761805 -0.18717259 -0.41152874 0.23590821
0001a0 10 bd 70 3e f7 91 80 3e 7a 2a ce bd 98 aa e5 3e
       0.23509622 0.25111362 -0.100666955 0.44856715
0001b0 9f 8f 9d be 9f 76 0f 3e 6a 28 63 3e 89 70 bc 3e
       -0.30773637 0.14010094 0.22183385 0.36804608
0001c0 94 2b 2e be 22 f8 08 3e 04 17 ca 3d 58 a1 a7 be
       -0.17008811 0.13375905 0.09867671 -0.32740283
0001d0 b2 0f 01 3e c7 39 4a 3e 9c d6 84 3e b2 d6 d0 bd
       0.12603644 0.19748603 0.25944984 -0.101972
0001e0 dd 24 38 3e 91 50 51 be 64 56 16 be c4 ac 64 be
       0.17982812 -0.2044089 -0.14681393 -0.2233153
0001f0 a8 85 95 3d 28 8a b3 be 5c ff b0 3d 3f 46 aa be
       0.073008835 -0.35066342 0.08642456 -0.3325672
000200 23 6f 88 3e 4b 11 be 3e 40 05 57 be 39 89 ad bc
       0.2664729 0.37122568 -0.20998096 -0.021183597
000210 3d 9f 73 3e 67 05 2d 3e 10 f7 bf be af 3a 89 3d
       0.23791213 0.16896592 -0.3749318 0.06700646
000220 6f 8a 90 3e 7f f2 59 3e 49 c2 d7 3d 1d 65 10 be
       0.28230616 0.21283911 0.10535104 -0.14101072
000230 39 05 7b 3e b2 cb a8 3e 2c 3b 83 3e 02 50 24 bd
       0.24513711 0.32967907 0.25631082 -0.040115364
000240 12 ad 55 be 92 60 db bd 3e 4d 74 be 18 09 41 be
       -0.20866802 -0.10711779 -0.2385759 -0.18851125
000250 d9 17 19 3e 82 ed 3d 3e 3c fa 4b 3e a0 34 cc be
       0.14950503 0.18547633 0.19919676 -0.398839
000260 d0 95 a1 3e c3 63 73 3e 04 1f a5 bd 82 93 dc 3d
       0.3155961 0.23768525 -0.080625564 0.107703224
000270 ab 1e 84 be a6 84 f1 3d 9f ea 80 bd 72 a2 6e bb
       -0.25804648 0.11792879 -0.062947504 -0.0036412743
000280 33 d6 c3 3e 3f 60 b4 bd 4a 0e 2b 3e 4a b1 5e bd
       0.3824936 -0.0880742 0.1670467 -0.054368295
000290 ab ab d2 3e 5e 45 f8 3d da 58 24 3c 51 7a a6 3e
       0.41146597 0.12122606 0.0100309495 0.32515195
0002a0 f9 8b 2b 3e ee 7c d8 3e d3 d1 8a be a3 e9 23 bd
       0.16752614 0.42282814 -0.27113208 -0.040017735
0002b0 a2 d2 a1 bd 3b 11 5f 3d f6 bf 56 3e 87 6e 6c bd
       -0.07901503 0.05445979 0.20971665 -0.057722595
0002c0 95 73 f7 3d 5a 25 56 3e b4 b7 85 3e 77 78 b4 3d
       0.120825924 0.20912686 0.26116717 0.08812039
0002d0 a6 3e 01 3e 78 01 16 3e e0 49 6e be 24 6f c5 be
       0.12621555 0.14648998 -0.23270369 -0.38561356
0002e0 c4 40 ad 3e 85 ca 81 3d 00 6c b6 39 e8 f9 0d 3e
       0.33838475 0.06337456 0.0003479421 0.13864863
0002f0 c2 d4 07 be 23 b4 90 be c7 40 e2 bc 74 14 49 be
       -0.13264754 -0.28262433 -0.027618779 -0.19636708
000300 bb e0 0d be ec f6 2d be 9b c8 84 3e 02 44 e0 3e
       -0.13855259 -0.16988724 0.259343 0.43801886
000310 2b 33 02 be c2 3f d6 3d 8f 51 1d be d3 4a 64 3e
       -0.12714832 0.104613796 -0.15363143 0.22294168
000320 43 22 ac be 2f 88 c4 3e 9e 19 bd bd b7 8a 87 be
       -0.3361989 0.3838515 -0.09233402 -0.2647302
000330 5d 42 73 3d 29 36 16 3e f2 96 3d be af 1c 8c 3e
       0.05938946 0.14669098 -0.18514612 0.27365634
000340 0a 17 82 3e 1d 10 f4 3d a5 47 0e 3e c4 fc 30 be
       0.25408202 0.11917136 0.13894518 -0.17283922
000350 c0 f1 b1 be 8d 46 b4 bc 04 00 52 be b3 15 a7 bd
       -0.34754753 -0.022006297 -0.20507818 -0.08158436
000360 73 56 29 3c 5a ae 73 be ff 0f 43 3e 87 f1 99 3e
       0.0103355525 -0.23796979 0.19049071 0.30067083
000370 5a 46 46 bc dd 69 5e 3d 3a 28 a5 bd c3 8d ed bd
       -0.012101734 0.054300178 -0.08064313 -0.115993045
000380 3c ad bf 3e a0 bb 83 3e dc a4 f5 bd f3 0f 08 bd
       0.37436855 0.25729084 -0.11994335 -0.033218335
000390 4b 82 1c be 68 a1 57 be db c3 d2 bc fc fb 8d 3c
       -0.15284078 -0.21057665 -0.025728157 0.01733207
0003a0 df f0 61 3e 49 9d 5e 3d 31 c1 7f 3e f6 bb 7f be
       0.22064541 0.054349218 0.2497604 -0.24974045
0003b0 3a 88 40 be 4e ac c3 3e 13 d9 c4 bc e5 0b 1d 3e
       -0.18801966 0.38217396 -0.02402929 0.15336569
0003c0 42 53 b7 bd 08 5c 41 3d f0 72 9c bd 38 d4 91 3d
       -0.08951427 0.04720691 -0.0763911 0.07120556
0003d0 70 5f 07 bd 80 23 36 3b ca 41 89 3e da f5 a2 3e
       -0.03305 0.0027792156 0.26808006 0.31828195
0003e0 52 0a c6 be e1 db 94 3e b0 5f 16 bd 62 30 2d 3e
       -0.3867975 0.29074004 -0.03671235 0.16912988
0003f0 93 71 9f 3d 00 ec 58 be 47 6b c3 3e 7c 87 93 3e
       0.077853344 -0.21183777 0.38167784 0.28814304

conv2.bias f4 [64]
000000 a1 fc a9 bb 63 02 1d 3d 4c e4 38 bc 36 e9 b1 3b
       -0.0051875864 0.038332354 -0.011284899 0.0054294122
000010 91 8a 45 3d 00 00 00 00 68 07 42 bd cf c5 5c 3d
       0.04822785 0.0 -0.047370344 0.053899582
000020 00 00 00 00 28 b5 be bc 2b 74 8c bc 05 01 d7 bc
       0.0 -0.023279741 -0.017145237 -0.026245603
000030 52 ca 04 bc 18 38 c3 ba e4 4f 5a bd 1d c8 80 bb
       -0.008104878 -0.0014894037 -0.053298846 -0.0039301054
000040 79 9f 61 bc 68 4a a3 3b 2f 9f 22 bd fe 74 4b bc
       -0.013770931 0.004983235 -0.03970259 -0.01241803
000050 5a 2b 03 bd 4d 57 fe bc 4f bf 86 bc d6 8a d8 bc
       -0.032023765 -0.031047488 -0.016448645 -0.02643339
000060 8b 59 04 3d 00 00 00 00 a1 3a 7e 3c 88 38 8e 3c
       0.032311957 0.0 0.015516908 0.01736094
000070 00 00 00 00 1f d9 2b bb 34 91 e0 3c 6d 49 32 bd
       0.0 -0.0026221944 0.027412988 -0.043527056
000080 9d 28 7a bc af 8a 9e bc 96 0c c2 3c 76 0a 9b bc
       -0.015268472 -0.019353239 0.023687642 -0.018925887
000090 3c 98 1a 3d af 68 04 bc 61 58 d0 bc f8 6a 9c bc
       0.03774284 -0.008081599 -0.025432767 -0.019093975
0000a0 b8 f9 ae 3c 8d 7c 09 3d 58 87 30 bd 2f 39 fe 3c
       0.02135931 0.033566047 -0.043097824 0.031033127
0000b0 bb 69 f7 bc 0b 94 24 3d d7 f3 bb bc 24 c7 92 bc
       -0.030201783 0.040180247 -0.02294342 -0.017917223
0000c0 71 1e ce bc 21 84 9e 3d 19 ba ef 3c ab e8 8e bb
       -0.025161 0.07740045 0.029263543 -0.0043612323
0000d0 d5 45 0e bc f6 db 08 bd 9b 2f af bc 37 9d e8 bc
       -0.008683641 -0.033412896 -0.021385005 -0.028395278
0000e0 2f 3f bf bc 48 6c 3e bc 1e 66 c5 bc ac 01 d4 3b
       -0.023345558 -0.011622496 -0.024096545 0.006469926
0000f0 13 81 80 bc 00 00 00 00 61 00 e5 bc ac fd 25 bd
       -0.015686547 0.0 -0.027954282 -0.040525123

conv2.lin.weight f4 [64, 64]
000000 62 d2 cb 3d 44 45 37 be 2a 71 e8 3d 4f 04 16 be
       0.09952237 -0.17897516 0.11349709 -0.14650081
000010 79 df 4f be e3 3b 33 3e 80 53 84 bd 93 89 3f 3e
       -0.20300092 0.17503314 -0.06461239 0.18704824
000020 4d 70 02 be 76 e1 3a be 0c 51 f4 3b 77 92 24 be
       -0.12738152 -0.18250069 0.0074559506 -0.16071497
000030 03 d9 58 3e 80 a6 29 bd 86 bc 23 be 5f 8d 93 bd
       0.21176533 -0.041418552 -0.15989885 -0.07204699
000040 b7 1a 42 3e 1f 28 d2 bd e8 dd b0 bc 5e 79 00 3e
       0.18955503 -0.10261559 -0.021590188 0.12546298
000050 9e 5b 87 3c 24 1f 6f 3d 7e 5d 04 3e e4 7c 0e be
       0.016523179 0.058379307 0.1292629 -0.1391483
000060 a0 f7 d9 3c da b1 fa bd 8c 65 19 3d 74 9f 0a be
       0.026607335 -0.12240954 0.03745036 -0.13537389
000070 e4 8d e5 bd ae 15 ef bd 5d 24 f0 bd 39 79 5c be
       -0.11208704 -0.11674057 -0.11725686 -0.21530618
000080 4f 2e 24 3e 84 41 3a 3d 3f 10 b8 bd 54 57 3c 3e
       0.1603329 0.045472637 -0.08987474 0.18392688
000090 27 cf 54 be 33 9a 3a 3e 1c b0 48 be 1d 96 f2 bd
       -0.20782147 0.18222885 -0.1959843 -0.11845038
0000a0 a8 75 ae bd 1d c9 c8 3d 88 69 58 3d 04 74 3b 3d
       -0.08518535 0.09803984 0.052835017 0.045764938
0000b0 b0 a0 5d be fc 8c 16 3e 4e b3 eb bd 01 b4 97 3d
       -0.21643329 0.14702219 -0.11508809 0.0740738
0000c0 77 5a 87 3d a4 38 49 3d 77 94 13 3e e4 a3 0d bd
       0.06609052 0.049126282 0.14412104 -0.034580126
0000d0 fc 1d 77 3d da 6f 18 3c 6d 73 a8 3d 7d 6e 02 3e
       0.06033133 0.009304011 0.08225141 0.1273746
0000e0 ad ca 13 be 30 98 bd 3c 84 69 d0 3d a4 c9 6f bd
       -0.14432783 0.023143858 0.101763755 -0.05854191
0000f0 28 62 1e be 15 cf 20 3e 48 29 3b bd a1 fe 59 3e
       -0.15467131 0.15703996 -0.045693666 0.2128854
000100 f5 49 8c 3e e5 7c 9d 3e e8 96 40 3e 54 45 81 bd
       0.27400175 0.3075935 0.18807566 -0.063120514
000110 3f 14 0c 3e e0 35 97 be b6 43 3a 3e 40 3c ef 3b
       0.13679598 -0.2953329 0.18189892 0.0073008835
000120 da 40 e3 3d a0 1c 59 3e 4e c8 8f bd b0 d3 59 3e
       0.11096354 0.21202326 -0.07020627 0.21272159
000130 ec 5c d2 bd 6c 3f 70 bd 96 0f f5 3d 15 fe 29 3d
       -0.1027163 -0.058654234 0.119658634 0.041502077
000140 24 28 23 be be e1 d5 bc 21 99 49 bd 94 ed 19 3e
       -0.15933281 -0.026108619 -0.0492183 0.15032035
000150 69 12 1f 3e 51 86 2a be bb 7b 16 3e 05 8b 2a be
       0.15534367 -0.166528 0.14695637 -0.16654594
000160 6d 79 47 3e db 0d 14 bb 1a 86 7d 3c 45 3e 15 bd
       0.19479914 -0.0022591266 0.015473867 -0.036436338
000170 55 fa 92 bd a3 62 31 bb 07 c5 06 3e ac d5 39 bd
       -0.07176653 -0.0027066849 0.13161097 -0.04536979
000180 b5 b6 68 bd e2 db 0a be b6 b8 97 3e 93 4a 93 3d
       -0.056814868 -0.13560441 0.2963311 0.07191958
000190 fa 94 09 be c4 04 22 be 0e cd 6a bd 76 8b d0 bd
       -0.13435736 -0.1582213 -0.05732446 -0.1018285
0001a0 cd 7f 44 3e 13 03 ce bd ae 5b 95 be a4 d3 b2 be
       0.19189377 -0.1005918 -0.2917151 -0.34927094
0001b0 fe 5c 9f 3b 6c f0 8a be 64 96 04 be ba 15 70 3c
       0.0048633805 -0.27136552 -0.12947994 0.0146536175
0001c0 4c c7 87 3e 74 fb 7c 3c 0e 21 f3 bc 0b f1 89 bd
       0.2651924 0.0154408105 -0.029678848 -0.067354284
0001d0 22 ec 22 3e d4 50 0b be da 0e bc bd 42 ff 92 be
       0.1591039 -0.13605052 -0.0918252 -0.2871037
0001e0 ca 96 44 be 37 d4 17 bd b3 4a eb 3d 4c 74 48 be
       -0.19198146 -0.03706762 0.11488857 -0.19575614
0001f0 d4 09 bd 3d 6e 55 20 3e 47 67 8f 3d 08 92 af bd
       0.0923039 0.15657589 0.070021205 -0.08572775
000200 68 96 29 bc 55 c4 90 3e 9c 3d bd 3d bd 63 77 3e
       -0.010350801 0.2827479 0.09240267 0.24159141
000210 13 75 21 3e 51 c4 e1 3e 7b 38 a6 bd 9c 18 18 3e
       0.15767317 0.4409509 -0.081162415 0.14853138
000220 49 1b 14 be 07 c7 f1 bd 12 00 97 3e 0f e9 39 bd
       -0.14463533 -0.118055396 0.2949224 -0.045388278
000230 19 93 5b be 41 37 18 3e 57 b6 2a 3e 19 c6 23 be
       -0.21442832 0.14864828 0.1667112 -0.15993537
000240 5f 2d eb bc c7 10 09 3f 98 d9 e0 3e 31 6b 35 3e
       -0.028708158 0.53541225 0.4391601 0.17716672
000250 77 2d 19 bc 6e c0 b9 3d e7 d1 50 be 51 75 51 3e
       -0.009349219 0.09069906 -0.20392571 0.20454909
000260 6e 5d 10 3e 30 6f 8b 3e e0 c8 32 be 9c d1 78 bd
       0.1409814 0.27233267 -0.1745944 -0.060746774
000270 df 8d 9f 3d 66 67 1a 3e 57 87 e9 bd 33 c1 a0 bd
       0.07790732 0.15078506 -0.11402767 -0.0784935
000280 cf ac e5 3e c3 25 3c 3e 9b 4f 30 be bb 6c 1d 3d
       0.44858405 0.1837378 -0.17217867 0.03843377
000290 6a 6d dd bd 5d bb b4 3e 6b 8c 75 be 60 9e fc bd
       -0.10811885 0.35299197 -0.23979346 -0.12334895
0002a0 14 85 1e be 9d b9 b0 bd 93 54 cb 3d eb 61 7f 3e
       -0.15480453 -0.08629153 0.099282406 0.24939696
0002b0 c4 a0 62 be 01 37 32 3e 87 34 96 3e 5f a6 18 3e
       -0.2213164 0.17403795 0.2933695 0.14907216
0002c0 03 7c 0a be 17 3a 90 3d d0 f9 19 be c0 b2 3a bd
       -0.13523869 0.0704233 -0.15036702 -0.045580626
0002d0 8f dd 0a 3f 9d 6e 13 3e 95 18 b4 bd 03 52 bb 3e
       0.5424432 0.14397664 -0.08793751 0.36586007
0002e0 6f ec 62 3e 06 93 6d be d5 3d 39 bb e4 76 64 bd
       0.22160505 -0.23200616 -0.0028265615 -0.055777445
0002f0 c2 06 87 3e 13 31 ad 3d 66 f6 ba bd 43 a2 4d 3f
       0.26372343 0.08456626 -0.09129028 0.80325717
000300 73 2c 86 be 6c b4 79 3e e4 45 11 be 4a ff 0b 3d
       -0.26205787 0.24385232 -0.14186817 0.03417901
000310 93 f6 ff 3c 70 76 99 3e 91 ec ed 3d 48 a0 87 bd
       0.031245505 0.29973173 0.11617387 -0.06622368
000320 a2 ad 0d be 5f 67 32 bd 77 f1 6d 3e fa 88 aa bd
       -0.13835767 -0.043555614 0.23236643 -0.083269075
000330 37 ed 4e 3e 40 75 df 3d a5 26 2d 3d 4a c3 61 be
       0.20207678 0.109110355 0.042273182 -0.22047153
000340 fc f5 80 bd 22 15 09 3f f1 2d dc 3e 3a 28 a3 3d
       -0.06296918 0.5354787 0.430038 0.07966657
000350 55 6b a6 3c 63 25 1b 3e cd fb 15 bd 14 93 36 3e
       0.020314852 0.1515098 -0.03661709 0.17829543
000360 df 2f 6c 3d 3d e5 cd 3d 18 69 19 be 4b 09 dc bd
       0.05766284 0.10053489 -0.14981496 -0.1074396
000370 86 e0 f4 bd ef 49 67 bd af de da 3d 09 43 1b be
       -0.11956887 -0.056466993 0.10687005 -0.1516229
000380 a2 a1 f8 3e b3 cd a4 3e b5 e2 4c bd d7 91 86 3d
       0.48560816 0.32188186 -0.050020892 0.065707855
000390 a1 63 56 3e 5c 0b e1 3e 67 b1 66 3d 28 c7 23 be
       0.20936443 0.4395398 0.056321528 -0.15993941
0003a0 18 e4 3f bd f6 71 0c 3e cc 2b 14 3e 5b 36 f8 3d
       -0.046848387 0.13715348 0.14469832 0.121197425
0003b0 42 f6 0e 3e 44 18 df 3d 81 1f be 3e 1a f5 93 bc
       0.13961127 0.108933 0.3713341 -0.01806121
0003c0 47 f5 11 3e d8 8d 2f 3c fe 3a d9 bd 54 ce df 3d
       0.14253722 0.0107149705 -0.10606955 0.10928026
0003d0 d8 7e 3d 3e 59 92 99 3e a6 2f 15 be 1f 39 a7 3e
       0.18505418 0.29994467 -0.14568958 0.32660767
0003e0 cf 41 44 3e e8 5c 26 be 36 24 a9 3d fc ff 56 3d
       0.19165729 -0.16246378 0.0825886 0.05249022
0003f0 82 8a 70 3e 64 05 eb bd 8c bb 8e 3d be 29 d5 3e
       0.23490337 -0.114756376 0.069693655 0.4163341

conv3.bias f4 [64]
000000 d6 3a 31 3d 3c 22 07 bd dc 0e c0 bc f5 c3 65 bd
       0.043269 -0.032991633 -0.023444586 -0.056095082
000010 9b 44 3d 3d 17 9e 49 3c 85 ce 1a 3d 37 0e d7 3d
       0.046208005 0.012305758 0.03779461 0.10500758
000020 b9 6a 84 3d fa f1 00 3d f9 07 65 bd cc 4f b7 3d
       0.06465668 0.031480767 -0.055915806 0.08950767
000030 0a 47 eb 3c 9d ec 38 bd 41 c5 06 3b e8 2f 62 bd
       0.028720398 -0.045147527 0.002056435 -0.05522147
000040 af 15 89 3d 4d dc 14 3d 0e 31 d6 3c 4b 31 40 bd
       0.06693589 0.036342908 0.026146438 -0.04692201
000050 3d c1 f0 bc 27 cf de 3d 2f 3b 10 bd 51 68 c5 3c
       -0.029389018 0.10879355 -0.035212692 0.024097594
000060 e4 76 7c 3d 1d 3e 35 3d ba b1 62 3d d2 f5 f9 bc
       0.06163682 0.04424869 0.055345275 -0.030512724
000070 d5 fa d7 3d 47 ec c9 3c 73 24 d3 bc 14 32 de bc
       0.10545889 0.024648799 -0.025774216 -0.027123488
000080 a6 43 c4 bc c9 44 7e 3d fc b0 0f 3d 6d 14 38 bd
       -0.023958039 0.062077317 0.035080895 -0.044941355
000090 e7 ec 1a 3d f6 10 c6 ba 79 0c b4 bd b2 7b 9b bd
       0.037823584 -0.0015111256 -0.087914415 -0.075919524
0000a0 12 04 5f 3c be df 39 3c 02 28 89 bd 51 e4 33 bd
       0.01361181 0.011344848 -0.06697084 -0.04391891
0000b0 d1 fd d7 bc 7a 67 17 bd 1f 75 f6 3c 4b d7 8b 3c
       -0.026366146 -0.036963917 0.030085145 0.017070433
0000c0 2a dd f3 bc 2f f9 25 3d 27 18 a5 3d ea 0b 7f 3d
       -0.029768545 0.040520843 0.08061247 0.06226722
0000d0 92 aa f3 3b 40 5a 90 3d 2b c9 4b bd 65 ff 3e 3d
       0.007436105 0.07048464 -0.049752396 0.046630282
0000e0 08 b4 17 3c 70 b0 b8 bd 6e 99 77 bd 9f 54 40 3d
       0.009259231 -0.09018028 -0.060449056 0.0469557
0000f0 e7 04 c3 bc 76 38 ce 3b a1 fb 30 3c f6 f0 66 3d
       -0.023806049 0.0062933518 0.0108021805 0.056382142

conv3.lin.weight f4 [64, 64]
000000 d9 fe 94 bd 98 0c 85 3e 7f 21 92 be 79 a3 9d be
       -0.07275171 0.2598617 -0.2854118 -0.30788782
000010 a1 ca 87 3d 98 53 15 be 48 e2 32 be f2 d7 88 be
       0.06630445 -0.1458267 -0.17469132 -0.26727253
000020 35 f2 5c 3e cb df 4d bd cf 3f 40 3e c1 73 9f 3d
       0.2157677 -0.050262254 0.18774341 0.0778575
000030 5d 56 ae bd f4 f0 9a bc 91 04 e9 bd e7 e7 27 be
       -0.08512566 -0.018913724 -0.11377824 -0.16397057
000040 f4 ff a9 bd 6d 67 84 bd c1 8e 21 bd f8 d5 d0 3d
       -0.08300772 -0.064650394 -0.03944278 0.10197061
000050 c4 7c 1a be a2 bb 32 be 75 fc 07 3e 89 11 b4 3d
       -0.15086657 -0.17454389 0.13279898 0.08792407
000060 10 eb b1 3d de f5 bf 3d 9a 82 ee bd 42 b8 e5 bc
       0.08687413 0.09373067 -0.11646004 -0.028041963
000070 40 0a 09 bb fb 14 00 3d 1c 45 4a bd 50 89 c4 3d
       -0.002091065 0.03127001 -0.049382314 0.09596503
000080 98 25 af 3d 1f c6 16 bd 05 8e 7e be 03 43 2e bd
       0.08552092 -0.036810037 -0.24858864 -0.042544376
000090 34 c3 c5 bc f5 d5 0a be 9d 95 35 be 57 d7 88 bd
       -0.024140932 -0.1355818 -0.17732854 -0.06681698
0000a0 9a 8d 92 be 46 42 9f bd 1e 89 1f 3e df 5d 21 3e
       -0.28623658 -0.077763125 0.1557965 0.15758465
0000b0 2b e5 1c 3e ee 4e 52 3d ee 20 2f 3e f4 87 1c be
       0.15321796 0.051344804 0.17102405 -0.15286237
0000c0 fb e6 a3 3c 88 76 bc 3e 40 44 c7 3d ae aa 47 be
       0.020007601 0.36809182 0.097298145 -0.19498703
0000d0 21 bf 2c 3e 7b fe a5 bd 61 49 0f bd a1 48 ff 3c
       0.16869785 -0.08105179 -0.03498209 0.031162562
0000e0 87 31 1d 3e 61 c5 00 be 0e b2 05 3d 6a 50 aa 3e
       0.15350924 -0.12575294 0.03264051 0.33264476
0000f0 d7 e8 be 3d c2 e1 a5 3d 61 ec 26 be 1b 2e 49 3e
       0.093217544 0.080997005 -0.16301109 0.19646494
000100 de d0 65 3d c5 8b 4b 3d 92 81 0c 3a 19 f1 aa bd
       0.056107394 0.04969384 0.00053598837 -0.08346767
000110 eb 8f ef bc 4c 76 58 3d 57 e7 f6 3d d6 89 a2 bd
       -0.02924343 0.05284719 0.12055843 -0.07936446
000120 14 eb 45 3d b0 a1 cf bd 49 25 3d 3e 27 33 9d 3c
       0.04831989 -0.10138261 0.18471254 0.01918943
000130 4b 04 f1 bd 32 17 2d 3e ce c5 e2 3d ac 92 22 3e
       -0.11768397 0.1690338 0.110728845 0.15876263
000140 08 24 22 be 5e 31 22 3e ee 10 f0 3d 13 ec 37 3e
       -0.15834057 0.15839145 0.11721979 0.17961149
000150 51 ae 70 be 3e 0b fc bd 80 23 eb bd ff ad 98 3d
       -0.23503996 -0.12306832 -0.114813805 0.07455062
000160 bb 7d d7 bd 6f a5 08 3e 12 96 f9 3d 35 a7 05 3d
       -0.10522028 0.13344358 0.12186827 0.032630164
000170 70 04 0d bd a0 4f 95 3c 49 6f 29 bc 03 1d 3e be
       -0.03442806 0.018226445 -0.010341474 -0.18565755
000180 a5 66 cc bd 02 c1 53 3e 3d 42 05 3e ff 59 83 bd
       -0.099805154 0.20679095 0.13013549 -0.0641365
000190 40 89 6c be c8 de 4f ba 67 4a f5 3d 0c d6 89 3e
       -0.23099232 -0.00079296203 0.11977082 0.26921117
0001a0 ef de 0b 3e e0 8f 59 3e 01 d2 d9 bd 01 b0 47 be
       0.13659261 0.2124629 -0.10635758 -0.19500734
0001b0 7a 4c 3f be fd 3e d9 3d f6 f3 47 3e c2 94 14 be
       -0.18681517 0.10607717 0.19526657 -0.14509872
0001c0 7d da bf 3d f5 f4 02 be c6 38 b7 3d 98 30 5b 39
       0.09367845 -0.12788756 0.089463755 0.0002090357
0001d0 50 cb b5 bd 04 a6 07 bb 7a 79 7d 3d 81 3e 40 3e
       -0.088766694 -0.0020698318 0.061883427 0.18773843
0001e0 2a 01 91 bc e2 96 00 be 60 3d a9 bd f0 65 74 be
       -0.01770075 -0.12557557 -0.082636595 -0.23867011
0001f0 a3 54 65 bb dd d2 dc bd be f5 33 be d5 e6 ab 3d
       -0.0034993074 -0.107824065 -0.17574212 0.08393637
000200 ea b2 1d be a7 0b d6 bd 51 fb 63 3e 63 f6 5f 3e
       -0.15400282 -0.10451441 0.22263838 0.21871333
000210 62 53 a6 bd 0b d4 3d 3e e0 3a b2 3d 7c 9c 6f 3e
       -0.08121373 0.18537919 0.08702636 0.23399538
000220 20 e9 d2 bc fc 4b c7 bd 59 a5 67 bc 00 b0 47 3d
       -0.025745928 -0.0973129 -0.014138543 0.04875183
000230 54 c0 11 be ef 3d 9b 3d 4d 69 dc 3d 69 83 3f be
       -0.14233524 0.07580172 0.10762272 -0.18702473
000240 93 2c 23 3d f2 39 99 3e ee 4b 8e 3d 7a 69 ab 3b
       0.03983743 0.2992702 0.06948076 0.0052310796
000250 63 f7 82 bc 2d 28 0e be 70 c2 c8 3c c9 80 2b be
       -0.015987104 -0.13882513 0.024506778 -0.16748346
000260 63 d0 2d 3e 25 71 d6 bd b8 44 96 bd ce 43 45 3e
       0.16974024 -0.10470799 -0.07337326 0.19264147
000270 70 f2 c4 3c d7 20 f2 bd f3 6c 85 3d 1b 15 15 bd
       0.024041384 -0.1182267 0.06514921 -0.03639708
000280 39 fc 2b be 72 a7 80 3e f5 54 1b 3e 90 8f 33 3e
       -0.16795434 0.2512775 0.15169127 0.17535233
000290 a1 fd 16 be e5 ef 3a be e9 e0 8a 3e fc e5 a2 3e
       -0.14745189 -0.18255575 0.27124718 0.3181609
0002a0 70 51 00 3e ef 74 3a be ea 1b 00 3e 8b eb 7d 3b
       0.12531066 -0.18208669 0.12510648 0.003874513
0002b0 a5 6e da 3d 29 be 35 be b9 22 fe 3d cf 86 0e bc
       0.10665635 -0.17748322 0.124089666 -0.008699133
0002c0 99 a3 2f bd 23 38 88 be e8 34 20 3d 51 2d 3a be
       -0.04288063 -0.2660533 0.039112955 -0.1818135
0002d0 88 2b 0e 3e af 47 4a 3d 77 8d c3 bd 1e 5d 91 3d
       0.13883793 0.04938477 -0.09548467 0.07097839
0002e0 12 23 05 3e dc 7d 8c bd de e8 ac 3d 81 76 16 be
       0.1300166 -0.06859943 0.084428534 -0.14693643
0002f0 1d 53 ab 3d 7c 71 35 bd 2a 22 bb bc 9b e4 ee 3d
       0.08365462 -0.04429768 -0.02284344 0.11664697
000300 63 24 d4 3d 33 e2 7f be eb 44 26 3a dc 3a 72 3e
       0.10358503 -0.24988632 0.0006342667 0.23655266
000310 bb 9a b8 3d 00 60 fc 3a 1a 60 21 bb c9 c2 31 bd
       0.090138875 0.0019254684 -0.0024623931 -0.043398652
000320 34 ca 31 3d 5f 44 7d bd 1c 60 3b 3e d6 60 f2 3d
       0.043405727 -0.061832782 0.18298382 0.11834876
000330 82 28 2f 3e b1 fa a3 3b 51 db 4a 3d 8f 76 d8 bd
       0.17105296 0.00500425 0.049525563 -0.10569488
000340 e4 44 7b bd c4 ee ea 3d 9f bc 14 bd 45 35 08 be
       -0.061344996 0.11471322 -0.036312696 -0.1330157
000350 77 2e d7 3d c3 16 8a 3d 54 21 27 bb 3c d8 45 be
       0.10506909 0.06742623 -0.0025502043 -0.19320768
000360 1c 5d 8e 3d c1 5a 48 3e f4 47 0b 3e f8 4f 16 3e
       0.06951353 0.1956587 0.13601667 0.14678943
000370 89 d4 32 3e ae 2f f2 3d f9 5e 42 3e 96 ee f6 3d
       0.17463888 0.118255004 0.18981542 0.120572254
000380 9b 7f b8 bd 22 2e 4c 3d e8 f4 05 bc ae 04 36 be
       -0.09008714 0.049848683 -0.008176066 -0.17775223
000390 57 ed 91 bd 65 9c 5f be b6 e5 0e 3e 27 80 a6 bd
       -0.07125347 -0.21837004 0.13954815 -0.08129912
0003a0 30 ac 3e 3e 11 14 b2 bd a0 54 36 3e c2 b2 28 be
       0.18620372 -0.086952336 0.1780572 -0.1647444
0003b0 fb 66 88 bc 86 4d e4 3d 4f d0 f9 bd a7 a3 d5 3d
       -0.016650667 0.11147599 -0.12197935 0.10431605
0003c0 01 d2 ea bd 88 8d 97 3d fb ed 08 3c 78 9d 0b be
       -0.11465836 0.07400042 0.00835752 -0.13634288
0003d0 43 16 d9 3d 5b 24 c6 bc 5d 01 47 3e 8d e4 91 bd
       0.10599949 -0.024187258 0.19434114 -0.07123671
0003e0 23 dc 11 3e 8e f6 8e bd ec 50 e9 39 12 88 9f bd
       0.14244132 -0.0698062 0.00044501515 -0.07789625
0003f0 da 32 47 3e 1d d5 2b 3e e3 ed 58 3b a6 ba 4e be
       0.19452992 0.16780515 0.0033100776 -0.20188388

fc_cls1.weight f4 [512, 128]
000000 6b 86 b7 3b 3f b6 91 3d f6 bf 66 bd 06 4f 93 3d
       0.0056007407 0.07114839 -0.056335412 0.07192807
000010 a5 a1 13 bd a7 16 9d bd e5 1c 72 3d 50 c1 58 3d
       -0.036042828 -0.07670336 0.059109587 0.052918732
000020 87 0c 26 3d 2c 7b 01 3d 00 52 53 bd 2c 36 26 bd
       0.04053929 0.031611606 -0.051591873 -0.040579006
000030 9a 3a 53 bd 92 79 29 3c d9 83 e3 3c 2e b0 8b 3d
       -0.05156956 0.010343926 0.02777283 0.06820713
000040 69 53 9b bc 78 51 15 bd aa e0 1e bd 52 b8 de 3c
       -0.018960671 -0.036454648 -0.038788475 0.0271875
000050 7e c4 a7 3d 10 7e 8d bd f7 93 1e bd cc fe 0d bb
       0.08191775 -0.0690881 -0.03871533 -0.0021666763
000060 ff 40 6b bd e0 18 32 3d 87 c0 9b b9 68 49 31 bd
       -0.057435032 0.043480754 -0.00029707348 -0.043282896
000070 46 10 93 3d a9 a6 2d 3d c9 21 6b bd 0e 16 9b 3d
       0.07180838 0.042395268 -0.057405267 0.07572566
000080 c6 6f 48 3d 6f 63 30 3d 01 c7 63 bd 00 09 4a bd
       0.04893472 0.043063577 -0.055609707 -0.04932499
000090 72 6e 20 bd f7 ab 64 3d d4 52 56 bd 03 d9 70 bc
       -0.03916783 0.05582806 -0.052325085 -0.014700177
0000a0 da cf 8d bc 3f 79 0a 3d d2 48 a0 3d 01 d8 83 3d
       -0.017311025 0.033807036 0.07826389 0.06437684
0000b0 72 3b a4 3d 50 b5 76 bd d7 13 f2 3c 70 8a a1 3c
       0.08019151 -0.060231507 0.029550476 0.019719332
0000c0 63 ff d3 bc c7 52 4f bd 62 4f 30 bc 6c f1 af 3c
       -0.025878614 -0.050616052 -0.010761114 0.021477424
0000d0 95 76 00 bc e9 01 19 3d e4 05 a3 3d 38 e7 b4 bd
       -0.007840772 0.037355337 0.07960108 -0.08833164
0000e0 40 6d 85 bd 37 f2 65 bd a9 1f a0 bd 52 80 44 3d
       -0.065149784 -0.056139197 -0.07818539 0.04797394
0000f0 84 0f 52 3d f2 a1 95 3d b7 cc 62 bb b3 77 8d 3b
       0.051284328 0.07306279 -0.0034606883 0.004317248
000100 ce 94 16 bd 0b ec 85 bd fe 76 79 bd 4c 23 05 bc
       -0.036763005 -0.06539162 -0.060904495 -0.008126091
000110 b6 14 cd bc 2b 94 58 bd 7f ad 78 3b e1 83 25 3c
       -0.02503429 -0.05287568 0.0037945209 0.010102243
000120 b1 8a 3c 3d be 77 82 3d 92 57 c9 3b ff f7 4e 3c
       0.046030704 0.06370495 0.0061444724 0.012632369
000130 c6 41 ae bc b4 c7 12 3d 49 3c 03 bc 6c df 98 3d
       -0.021271598 0.035834983 -0.008009979 0.07464489
000140 cc 86 22 3d 3e d6 9d bd ce 20 a5 bd b6 d2 8f 3d
       0.039679334 -0.07706879 -0.080628976 0.07022612
000150 6a a6 ac 3d 1b 62 f2 bd 7c fe 82 3b 86 0e bc bd
       0.084301785 -0.118351184 0.003997622 -0.091824576
000160 b6 4e 1e bd 4f 77 70 3d c8 04 52 3c 7d 58 7e bd
       -0.038649283 0.05870753 0.012818523 -0.062096108
000170 58 f1 0e bd 53 e2 88 bd 41 dd 2d 3d 34 66 db bc
       -0.034898132 -0.06683793 0.042447332 -0.026782133
000180 e2 60 82 bd 11 e6 c5 bd 1a cf f4 bc 88 87 6e 3d
       -0.06366135 -0.09663022 -0.02988391 0.05823472
000190 10 9a d4 bd ee 37 29 3d b5 90 d9 bd 2f 30 97 bd
       -0.103809476 0.041313104 -0.10623304 -0.07382237
0001a0 58 41 6f 3d 09 09 04 bd 62 25 ae bc a9 77 89 bd
       0.058411926 -0.03223518 -0.02125806 -0.067122765
0001b0 90 c8 0d 3d 64 5f 70 bd fc 1b 84 3c b9 4b 97 3d
       0.0346151 -0.05868472 0.016126625 0.0738749
0001c0 83 a5 61 bc a1 cf 64 bd bb d6 08 3d 76 0e 82 3d
       -0.013772371 -0.055862073 0.033407908 0.063504145
0001d0 f0 6c d0 3c 8f 4b 2e bd ce 91 95 3d a8 60 a9 3b
       0.02544257 -0.042552527 0.07303201 0.005168993
0001e0 57 66 06 bc e4 f0 0f be 8d 32 1f bd 25 0d 61 bd
       -0.008203111 -0.14056736 -0.03886657 -0.054944176
0001f0 d2 96 9e 3d 94 45 1b bd e0 d9 70 bd cd 77 87 bd
       0.077436104 -0.03790815 -0.05880153 -0.06614647
000200 dd ce 8f bd f4 96 fd bc 8b c7 50 3d 51 51 54 3d
       -0.07021878 -0.03095577 0.05097155 0.051835362
000210 fa 4c a1 3c 17 6d 41 bd 46 00 26 bd 79 a2 11 bd
       0.019690026 -0.047223177 -0.040527605 -0.035555337
000220 af a9 ac bc 86 34 ed bc 8f de c8 3b c7 35 af 3d
       -0.021077005 -0.02895571 0.0061300467 0.08555179
000230 1a 12 6b 3d 51 96 8d bb d2 a0 1e 3d 9e 8e 83 bd
       0.05739031 -0.0043208976 0.03872759 -0.064236864
000240 92 bd a6 bd 59 56 ac 3d 74 f6 79 3d 91 e0 e7 3c
       -0.081416264 0.08414907 0.06102605 0.028305324
000250 05 33 b4 3d db 6b 16 bb 66 81 04 3a 31 c8 48 3d
       0.08798794 -0.002295247 0.0005054682 0.049019042
000260 0b 57 0b bc 11 37 5c 3d 86 ec 0a bc 9f 0a c2 bc
       -0.008504639 0.053763453 -0.008479243 -0.023686705
000270 2e e0 25 bd 06 88 6c 3d b3 f7 dc 39 9b bd b2 bd
       -0.040496998 0.05774691 0.0004214622 -0.087275706
000280 9b 64 76 bd 82 1d 90 bd 0d 88 1a 3d 35 7e 5c bc
       -0.06015454 -0.07036878 0.037727404 -0.0134578245
000290 c9 2e 24 3d f2 70 1b 3b cd 69 c2 bc 5c e7 72 3d
       0.04008368 0.0023718444 -0.02373209 0.059302673
0002a0 04 07 a7 3d 0d ed ab 3c e7 24 93 bd 62 fc 6c 3c
       0.08155635 0.020987058 -0.07184773 0.01446447
0002b0 57 9e 8d bd 6c a3 48 bc 01 25 79 bd 7a 46 94 bb
       -0.069149666 -0.012245994 -0.060826305 -0.004525003
0002c0 35 9e de bc 62 e8 3c bd 81 d8 9d 3d af df 37 bd
       -0.027175048 -0.046120055 0.077073105 -0.044891056
0002d0 c2 ae a9 bd dc f2 4b bd c9 cc 84 3d 7d c0 7d 3d
       -0.082852855 -0.049792156 0.06484372 0.06195115
0002e0 db 8f 28 bd 95 73 81 3d 72 5c f9 3c ec f0 a4 39
       -0.041152816 0.06320874 0.03043959 0.00031460018
0002f0 87 e0 8d bd da 66 72 3d 31 54 b8 3b 6b 51 c9 3c
       -0.06927591 0.05918012 0.005625271 0.024574956
000300 65 99 17 3d b9 32 a0 3c 87 bf 69 bd ba 5c 6f bd
       0.037011523 0.019555436 -0.05706742 -0.05843804
000310 49 b0 88 3d 27 bc b7 bc bc 97 90 3d 45 ba 47 3d
       0.06674249 -0.022428585 0.07060191 0.048761625
000320 b1 17 61 3c 8c 8f 8e bd 0f 96 ac bd fa 31 32 bd
       0.013738559 -0.06960973 -0.08427059 -0.043504693
000330 3d ab 98 bd ce 5c 86 bd 09 81 2a bb 53 c1 37 3d
       -0.07454536 -0.0656067 -0.0026016852 0.044862103
000340 34 08 10 3d 6f a0 54 bd cf 48 3d 3d c1 e5 26 3d
       0.035164073 -0.051910814 0.046212014 0.040746454
000350 e0 bd 89 bd 6b f3 8d bd 7a ae 25 3d db 97 a0 bc
       -0.06725669 -0.06931194 0.040449597 -0.01960366
000360 d0 c6 9a bd 34 60 24 bd bd ff 51 bb 6c e6 86 3d
       -0.07557452 -0.04013081 -0.00320433 0.06586918
000370 5f ae fd 3c 03 6b d5 3c d9 e4 ca bc 5e 9a a9 3d
       0.030966936 0.026052004 -0.024767326 0.08281396
000380 3c 0f 33 bd 16 2e a2 bd 74 90 b4 bd 8e e0 d1 bc
       -0.0437157 -0.079189464 -0.08816615 -0.025619771
000390 db 5c 4c bd 20 31 69 bd 45 1c a7 bd 5f e4 a9 bd
       -0.04989324 -0.056931615 -0.08159689 -0.082955115
0003a0 c4 7d ca bc c1 36 4f bc 95 86 0a bb fa 3d 7d bd
       -0.024718173 -0.012647332 -0.0021137346 -0.061826684
0003b0 92 0c b5 bd 72 10 24 bd 06 6f 8d 3d 14 a7 82 bd
       -0.08840288 -0.040054746 0.06905942 -0.06379524
0003c0 28 bf a8 3d 41 69 e4 bc 07 79 ca bb fa 4a 4d bb
       0.08239585 -0.02788222 -0.0061789784 -0.0031325207
0003d0 2d 52 33 3d 3a df 91 3d 5c 0d 8e bc fc ee 8f 3d
       0.04377954 0.07122655 -0.017340355 0.070280045
0003e0 98 b5 8d bd 4e db b1 bd 49 52 8e bd 1b aa 4d bd
       -0.06919402 -0.08684407 -0.069492884 -0.050211053
0003f0 df 91 67 3d 8f 67 38 bd 1d 20 c0 bc 83 3b 56 3c
       0.056535598 -0.045020636 -0.023452813 0.013075712

fc_cls1.bias f4 [512]
000000 bb d8 30 bd 5b c9 b6 bd cb bc 38 3d e6 d5 d6 bd
       -0.04317544 -0.08925124 0.045101922 -0.10490017
000010 f3 e7 e7 bd b1 12 8c 3c 91 13 05 3d 90 fa 55 bc
       -0.11323538 0.017098757 0.032489363 -0.013060227
000020 05 3b 7f bb d0 f6 40 3c 4e 9f 93 bd ef 64 f1 bc
       -0.003894509 0.011777595 -0.07208119 -0.029467074
000030 f8 fb 9e bc cf a0 49 bc 1e a9 0e bd 93 27 06 be
       -0.019407257 -0.012306406 -0.03482925 -0.13101034
000040 66 ed d3 bd 93 cb 9a 3d 31 d2 f7 bd 92 88 41 bd
       -0.103480145 0.0755836 -0.12100638 -0.047249384
000050 cf d8 dc bc 01 2b ce bd 6e ed 7f 3c 3d 76 6d bd
       -0.026958851 -0.10066796 0.0156205725 -0.05797409
000060 9d 9e ab bd 86 17 01 3b 01 5b ab bd c5 dd 06 be
       -0.083798625 0.001969786 -0.08366967 -0.13170536
000070 b2 2f 71 bd 76 b5 c6 bd 80 2e ee bb 33 a4 04 bc
       -0.058883376 -0.0970258 -0.007268727 -0.008095789
000080 26 00 a1 bd 37 d5 3b bd 52 5a ad bd f7 23 1f bd
       -0.078613564 -0.045857634 -0.08464493 -0.038852658
000090 07 b5 55 bd 07 ab 05 bd e6 19 67 bd 05 9a c3 bd
       -0.052174594 -0.032633808 -0.056421183 -0.09550861
0000a0 db 6a e2 3a a7 e8 33 3d 59 21 03 bc 20 d7 1d 3b
       0.0017274277 0.043923046 -0.008003556 0.0024084523
0000b0 c8 ed 29 3c 7b 5e 77 bd 08 d8 0e be 77 e3 1f 3d
       0.010371633 -0.060392838 -0.13949597 0.039035287
0000c0 91 0d 6a bd 29 07 24 be 50 81 4f 3c e3 e4 74 3c
       -0.057141844 -0.16018356 0.012665108 0.014947149
0000d0 fb e9 c4 bd 1b 4b 47 bd 2e 98 49 bd f0 f4 d3 bd
       -0.09614941 -0.04865561 -0.049217395 -0.103494525
0000e0 ba 3b db bc b3 08 40 bd e4 60 19 bd ab 39 34 3b
       -0.026761878 -0.046883296 -0.037445918 0.0027500193
0000f0 6a bd 18 be ba 45 c0 bd 51 b7 a4 bd 9e 57 ad 3c
       -0.14916006 -0.09388299 -0.08042777 0.021159943
000100 5d 53 6b 3c 6a 31 82 bd 90 c3 0f be 31 b0 29 bd
       0.014363137 -0.06357081 -0.14039445 -0.041427795
000110 fa cb 19 bd 4e 5c 95 bd 10 77 a5 3c c3 83 a1 bb
       -0.037548043 -0.07292996 0.020198375 -0.0049290373
000120 52 d4 10 be 14 00 14 bd 3b 59 ce bd de 3f 8b 3c
       -0.14143494 -0.036132887 -0.10075613 0.016998228
000130 55 7c 9f bd 6a 71 32 3d 58 3f 05 bd ea 2b c5 bd
       -0.07787386 0.04356519 -0.032531112 -0.096275166
000140 65 f5 79 bd f4 ce 17 bd 79 c9 9e bd 92 c7 2d bd
       -0.061025042 -0.0370626 -0.077532716 -0.042426653
000150 8e f1 3d bd 95 94 f4 bd 6e 0c 8a bd 3f 1c c9 bd
       -0.046372943 -0.11942402 -0.06740652 -0.09819841
000160 1f d0 d5 3c 71 0a 94 3d d0 d3 8c bd 9c fc 47 3d
       0.026100216 0.07228554 -0.068763375 0.04882489
000170 f3 12 37 3d 1f 21 2b 3d 47 92 b9 bc b4 28 21 bd
       0.044695806 0.041779634 -0.022652758 -0.03934546
000180 9e ad c1 bb 4a 7b 22 bd 06 1e 11 bd 21 3c 93 bc
       -0.0059105894 -0.03966836 -0.035429023 -0.017973008
000190 d6 5d 8e bd d8 91 40 ba 09 23 a8 bc a9 c5 c9 bd
       -0.069514915 -0.0007345951 -0.020524519 -0.09852154
0001a0 e8 f5 06 3d 59 b8 c6 bd bf 15 c1 bc 64 82 16 be
       0.03294936 -0.0970313 -0.02356994 -0.14698178
0001b0 43 5b cc 3c 79 47 90 bd d4 db ad bd e3 64 16 bd
       0.02494586 -0.07044882 -0.084891945 -0.036717307
0001c0 96 c8 a4 bd da b4 19 3d 8d 51 10 3c 6b dc f4 bc
       -0.08046071 0.03752599 0.008808506 -0.02989026
0001d0 6d ec 44 bc e5 7b 2e 3d 60 c6 c6 3c ec 9d ca bd
       -0.012019259 0.042598624 0.024264514 -0.098934025
0001e0 97 c8 c3 bc 69 9a 03 be 48 3d d5 bd 35 08 30 be
       -0.02389936 -0.12851872 -0.10412079 -0.1719063
0001f0 7d 8c 78 3d 4a 62 4c bc e9 42 7a bd 4b 9e 11 bd
       0.060680855 -0.012474606 -0.061098967 -0.03555135
000200 a8 9c a3 3c 9c 60 c7 bb c4 ee 2f bd fd ed c7 bd
       0.01997216 -0.006084515 -0.042952314 -0.097621895
000210 d9 7b 34 bd 29 0e 9c bd 98 99 9f 3c 9c d0 a6 bc
       -0.044063423 -0.07619888 0.019482419 -0.020363145
000220 b5 67 88 bd 84 df c2 bd 25 6f 88 bc 5c 07 1b 3d
       -0.066604055 -0.095152885 -0.01665456 0.037848815
000230 f8 c5 a1 bd e7 ff 79 bd 80 92 ab bd 83 27 0f 3d
       -0.07899088 -0.061035063 -0.08377552 0.03494979
000240 e6 e6 86 bd 73 68 89 bd 8a fe b1 bc 35 b4 a7 bc
       -0.06587009 -0.06709375 -0.021727819 -0.020471672
000250 50 45 e9 bc c3 bf 33 bb 6f e4 3f 3c e5 b2 33 3d
       -0.028475434 -0.0027427531 0.011712178 0.04387178
000260 12 4e fe 3c 3c f6 c1 3c 32 61 e1 3c 8b d1 37 bd
       0.031043086 0.023676984 0.027512167 -0.04487757
000270 d8 ec bc bd f0 35 04 bd 66 a4 c2 bc 00 c3 9a bd
       -0.09224862 -0.032278 -0.023760032 -0.075567245
000280 57 14 20 be 69 2e 0a be 3b 81 fd 3c 0d e3 02 3d
       -0.15632759 -0.13494267 0.030945411 0.031954814
000290 40 fc 52 3d 05 98 62 bd bb ad 9c bd 48 c6 ee 3c
       0.051510096 -0.05532076 -0.07650324 0.029147282
0002a0 32 7c cf bd f5 ed 94 bd 18 0d d7 bd cc 23 a8 3b
       -0.1013111 -0.07271949 -0.10500544 0.0051312204
0002b0 b2 08 f2 3c a5 a1 e8 3c 36 b3 b7 3c 1d 14 91 3c
       0.029545162 0.02839739 0.022424322 0.017709786
0002c0 be 1f f8 bd c2 b8 46 3c dc ca 86 bd 67 bc 87 b9
       -0.12115429 0.012129011 -0.06581661 -0.00025889577
0002d0 41 cb 1a bc f1 c8 55 bd ee 5a 92 bd e5 c6 d3 3b
       -0.009447874 -0.052193586 -0.0714625 0.006462919
0002e0 ff 38 b1 bd cc 86 9d bc d2 d1 8a bd 0c 74 03 3d
       -0.08653449 -0.019229315 -0.06778301 0.032093093
0002f0 d8 df c8 bd 20 d2 a6 bd 84 6a f6 3c 61 34 fd bd
       -0.0980832 -0.08145547 0.030080087 -0.12363506
000300 3e 1f 37 be 59 ae cd bd 17 cd 21 be ac 56 0d be
       -0.17883012 -0.1004302 -0.15800892 -0.13802594
000310 96 3b a6 bd 3c 63 48 bc b2 da 13 bd 3f 11 23 3d
       -0.08116834 -0.012230691 -0.036097236 0.03981137
000320 d0 4f a5 3c ce be d1 3b ab 61 5f bd 00 88 17 3d
       0.02017966 0.0064009195 -0.054536503 0.036994934
000330 e6 05 12 bd 7e f8 bd bd a3 26 83 bd 05 ae 5e bd
       -0.035650156 -0.09275912 -0.06403854 -0.054365177
000340 33 72 bd 3c 4a 8d 89 bd 2e 51 a4 bd c0 fe 8b 3d
       0.023125743 -0.06716402 -0.08023296 0.06835699
000350 10 2d a9 3d 5c 3e 16 3d 9d a7 a0 bd 90 ec 59 bd
       0.08260548 0.036680564 -0.0784447 -0.05320412
000360 54 fd 45 bd ff 44 40 bd 12 17 2e bd 90 92 0e be
       -0.048337296 -0.0469408 -0.04250247 -0.13923097
000370 8f 12 b7 bd e9 2b 2c bd a5 84 0d 3d 5d 4a 49 3b
       -0.08939087 -0.042034063 0.034550328 0.003071449
000380 cf c1 e9 bd 45 b1 2b bd 77 69 5f bd a8 f6 fc bd
       -0.11413919 -0.041917104 -0.05454394 -0.123517334
000390 35 80 07 bd 19 58 fd 3d f8 fa 0b be 58 4f 54 bd
       -0.033081252 0.12370319 -0.13669956 -0.05183348
0003a0 90 f0 22 bd 3f 05 bd bd e5 2d a5 bd ac 2b 69 3d
       -0.0397802 -0.09229516 -0.08065394 0.056926414
0003b0 b8 79 99 3c 7f 6a 46 bd 80 22 13 be a3 7a 74 3c
       0.018734798 -0.048441406 -0.1436863 0.014921817
0003c0 fa 9d 22 bc b4 6e a9 bd 0f 5a ce bd 87 6f f7 3a
       -0.00992536 -0.08273068 -0.10075771 0.0018877842
0003d0 a5 b1 9c bd 5b dc 41 3c 6c 48 86 bd 23 fc 75 bd
       -0.076510705 0.011832322 -0.06556782 -0.06005491
0003e0 08 4a f9 bd 64 d7 9d 3c 9f 6a 66 3c 63 00 6a bd
       -0.121723235 0.019267745 0.014063506 -0.057129275
0003f0 0f f8 a0 bd 4c 84 ea 3d 2d c9 73 bd 2c f2 a1 bd
       -0.078598134 0.11451015 -0.059518028 -0.07907519

fc_cls2.weight f4 [256, 512]
000000 32 5f 8e bc a8 fb f2 3b 83 b1 c7 bc 18 73 eb bc
       -0.017379377 0.0074152537 -0.024376636 -0.028741404
000010 70 48 dc bc 0f e0 d8 3c bd 5d af 38 b4 5c 19 bc
       -0.02689001 0.026474027 8.3621104e-05 -0.009360481
000020 41 92 db 3c 91 3f c5 bc 5b fb 01 3d 1d b3 04 3d
       0.026803138 -0.024078162 0.031733852 0.03239738
000030 e0 c5 d6 3b 3b 15 0e bd 4a 3e df 3c 40 b7 47 3b
       0.0065543503 -0.034688216 0.027251381 0.0030474216
000040 ab 6d 2f 3d 88 ad 23 3b c8 fc b5 3c 77 08 a6 bc
       0.042829197 0.002497526 0.022215262 -0.020267708
000050 9f 88 c8 bc a0 91 d7 bb f4 15 26 bc 22 95 e2 bc
       -0.024479209 -0.006578639 -0.01013707 -0.027659003
000060 c3 df 1a 3d 25 16 da 3c 70 d7 be 3a 0e 99 cb 3c
       0.037811052 0.026621887 0.0014560055 0.024853256
000070 6d 0c a4 3b 30 4e 3d bc 5c 9f c3 bc 11 4d 4d 3c
       0.005006364 -0.011554286 -0.0238797 0.012530581
000080 66 89 0f bd d2 80 54 bc ee a8 e8 3c 35 89 a9 bc
       -0.035043143 -0.012970166 0.028400864 -0.020695308
000090 4c 13 f2 3c 1d 9f 83 ba 67 e5 9c bc 88 87 83 3b
       0.029550217 -0.0010041926 -0.019152356 0.0040139593
0000a0 98 2d ac bc 70 34 82 3b fe cc 04 3d b9 70 e8 bc
       -0.021017835 0.003973536 0.03242206 -0.028374063
0000b0 24 d9 96 3c 77 49 a8 3c 9a e8 b3 bb 7c 29 93 3c
       0.018414088 0.020542843 -0.0054903748 0.017964117
0000c0 8e 48 9a bb 9c d7 15 bc b4 6b fc 3c 4b 2a 08 3d
       -0.004708356 -0.009145644 0.030813076 0.03324346
0000d0 00 96 f7 bc 90 f5 73 3c 1b 83 3e 3c 41 bc 0a 3d
       -0.030222893 0.01489009 0.011627938 0.03387094
0000e0 46 04 df 3c 15 8a a2 bb 01 75 9e bc de b9 d1 3c
       0.027223717 -0.0049603083 -0.019342901 0.025601324
0000f0 88 e6 89 3b 89 a0 5d 3c 63 79 d5 bc 4f ed 82 3c
       0.0042083897 0.013527044 -0.026058858 0.015982298
000100 a4 10 fa bb d1 a0 15 3d 48 61 ac 3c 76 c1 29 39
       -0.0076313782 0.03653032 0.021042481 0.00016189166
000110 00 cb 83 3c ff c9 17 3d 1c 5f 2c 3d c0 04 7c 3c
       0.016088009 0.037057873 0.04208289 0.015381992
000120 bb 3b d0 bc b1 b7 d7 bc 1d 5c 02 3d a2 06 09 bd
       -0.025419107 -0.026332708 0.031826127 -0.03345359
000130 47 6d 02 bd 09 5d 32 bd f6 9a ce 3b 83 b0 d1 bc
       -0.031842496 -0.043545756 0.006305094 -0.025596863
000140 8e e9 0c bc 6e 8f ac bb c3 7a 08 3d e4 fe ad bc
       -0.008600606 -0.0052661216 0.0333202 -0.021239705
000150 f8 db 26 3c f0 1d f0 3b e8 64 eb bb 90 b0 df 3c
       0.010184281 0.0073277876 -0.00718366 0.027305871
000160 09 49 26 bd fa ab f4 3a 3a 14 97 3c d6 a6 9b 3c
       -0.040596996 0.0018666976 0.018442262 0.019000452
000170 b6 0f fb bc 08 ee 05 bd d8 0a 8a bb 83 f8 f7 bc
       -0.03064714 -0.032697707 -0.0042127185 -0.030269867
000180 5f 91 86 bc ff 4b 35 3d fe b8 a2 3b fe a2 e2 bc
       -0.01642674 0.04426193 0.0049659004 -0.027665611
000190 c8 49 74 bc 51 1c 9b bc 7a 07 32 3b af 6b 8a bc
       -0.014910169 -0.0189344 0.00271651 -0.01689705
0001a0 05 5e 2d bc 1f a9 05 3d d2 a6 16 bd 80 f3 48 bc
       -0.010581498 0.03263199 -0.036780186 -0.012265086
0001b0 5c 86 30 3c 5a 6c 27 3d 67 b4 5c 3c e8 12 31 bc
       0.010774221 0.040874816 0.013470746 -0.01080773
0001c0 a9 d9 0e 3d 54 02 bd 3c ba 83 13 bd e9 b9 50 3c
       0.034875546 0.0230724 -0.036014296 0.012739637
0001d0 be eb 1d bd 33 d6 db 3b 9f 5d 3a 3c f5 2a 15 bd
       -0.0385549 0.006708884 0.01137486 -0.03641792
0001e0 e9 bc 9b bc 98 1b 18 3c 84 11 cf bb 23 f5 06 3d
       -0.019010978 0.009283923 -0.0063192267 0.032948624
0001f0 0d 4b 26 bc 7d 17 f2 bc b9 91 45 bd 27 9d 40 bd
       -0.010149729 -0.029552216 -0.048234675 -0.047024872
000200 c3 30 b2 3b c6 4f 30 bb 17 7c 02 3d eb e1 09 3d
       0.0054379418 -0.0026903017 0.031856623 0.033662718
000210 56 3e 22 3b 64 2a 49 bc b4 6f 10 3c 3d ed ad 3c
       0.0024756393 -0.012278173 0.008815695 0.021231288
000220 3f 94 d7 3c 06 8b fa 3c 40 8f 1c bb 2a 94 16 3d
       0.026315806 0.03058387 -0.0023889095 0.036762394
000230 43 f9 2b 3d db b9 a8 bc 06 29 aa bb ab 02 07 bd
       0.04198576 -0.020596435 -0.0051928787 -0.03296153
000240 ca 85 9d bc 58 bf 12 bd 30 bb c7 bc 97 eb c0 b9
       -0.019228835 -0.03582701 -0.02438125 -0.00036796622
000250 5a 5a b4 3c 2e ad 14 3d cc 9c 02 3c 23 8b 1a bd
       0.02201574 0.03629797 0.007971954 -0.037730347
000260 68 d9 04 3c b3 d2 3a bd f0 05 d6 bc 3a c5 ee bc
       0.008108474 -0.045611095 -0.026125878 -0.02914678
000270 9e c7 a3 3c 62 e9 24 bc cd 19 e2 3c 95 ef 2f 3d
       0.019992646 -0.010065408 0.027600193 0.042953093
000280 8a 71 a5 bc d8 04 a1 3c 6a fa 0e 3d a7 bb 48 bc
       -0.020195741 0.01965563 0.034906782 -0.012251771
000290 ea b9 c2 3c 33 f0 20 bd d3 4c b7 3c bc 96 5c 3c
       0.023770291 -0.03929157 0.0223755 0.013463672
0002a0 1a 71 9c 3c 5d 41 81 3c 4c 92 e7 bc cc cc b9 3c
       0.0190969 0.015778238 -0.028268002 0.022680663
0002b0 d9 c3 b6 3c 28 6d 9d 3c d4 80 22 3d fe e2 92 3b
       0.022310184 0.019217089 0.03967364 0.004482626
0002c0 2a 2d 97 3c a1 f0 c9 3c 58 a8 0f bd a9 a2 85 3c
       0.018454153 0.024650874 -0.035072654 0.016312914
0002d0 20 1f 06 3c 7a e2 34 bd 38 0b e6 bb f1 7f 87 3c
       0.008186132 -0.044161297 -0.0070203803 0.0165405
0002e0 9c da 10 bd a4 b4 91 bb b3 9c 01 bd ad d7 70 3b
       -0.035364732 -0.004446583 -0.03164358 0.0036749647
0002f0 3b 41 b1 bc e4 21 38 3c a1 b5 34 3c e9 af 0d 3d
       -0.02163755 0.011238549 0.011029632 0.03459159
000300 1c ff 25 bc 28 a2 1b bd 50 a3 8e 3c 30 6d f0 bb
       -0.010131624 -0.03799644 0.017411858 -0.007337235
000310 78 0c 0f bd 54 e4 2c bb 24 cf aa bb 15 26 a0 bc
       -0.034924 -0.0026381211 -0.0052126814 -0.019549409
000320 47 a4 76 36 02 ea c2 3c 70 bf 2a 3c 19 15 2e bc
       3.6752479e-06 0.023793224 0.010421619 -0.010625147
000330 4b d8 a2 3c ef f7 ce bc 58 e9 78 3c f6 fa f3 bc
       0.019878527 -0.025264708 0.015192352 -0.029782753
000340 0d d8 2b bd 81 eb 11 bd 2a 09 c6 3c 1c 0a ac 3c
       -0.04195409 -0.035624985 0.024174292 0.021000914
000350 c2 84 9e 3c 00 72 03 bc 5e 53 29 bb 0e 05 0e 3d
       0.019350413 -0.008022785 -0.0025837044 0.03467279
000360 d7 25 ac 3c 1f 15 27 3c 4e 3c e5 3c 38 1c 74 bc
       0.021014137 0.010197907 0.027982857 -0.014899306
000370 8e b4 28 bd c7 7f 31 3c 33 e3 2d bd b0 70 14 bd
       -0.041187815 0.010833687 -0.042453002 -0.03624028
000380 73 7f 32 bd 56 3c fc 3c 3a 35 eb 3c 92 34 78 bc
       -0.043578576 0.03079049 0.028711904 -0.0151492525
000390 a5 d1 8d 3c f5 28 47 bc 3d 5b 86 3c c0 98 b3 3b
       0.01731188 -0.012155761 0.016400928 0.0054808557
0003a0 1b 23 09 bd aa 77 0d bd 00 78 73 3b 2d ae 31 3c
       -0.033480745 -0.03453795 0.0037150383 0.010844749
0003b0 4e aa 82 bc 48 bc 53 3c a8 60 b6 bb 51 b9 23 bd
       -0.015950348 0.012923308 -0.0055657215 -0.039971653
0003c0 1f b0 b5 3c 77 16 43 bc b4 91 37 3b fe 13 ca bb
       0.022178708 -0.0119072115 0.002801043 -0.006166934
0003d0 53 f9 15 3d 60 ea cf bc 24 05 f6 3c 73 21 2e bd
       0.036614727 -0.025380313 0.030031748 -0.04251237
0003e0 2e 20 a0 3c 5a 3c f3 3c 8c 2f dc 3b b5 98 28 bd
       0.019546594 0.029691864 0.006719535 -0.041161258
0003f0 c3 55 25 3d ea 92 9b 3c c9 6f 11 bd c9 e0 61 3b
       0.040364992 0.018990953 -0.035506997 0.0034466258
