data/predictor/PT/TNetwork-N.pt (torch, 864583 bytes, 16 tensors)

conv1.bias f4 [64]
000000 70 bf 25 be 17 80 60 bd d3 e3 89 3d a7 fd 15 be
       -0.16186309 -0.054809656 0.06732907 -0.14647542
000010 d4 5c 60 bd 79 c1 21 bc a9 d8 70 be 0d 1b 43 bd
       -0.054776028 -0.009872788 -0.2352015 -0.04763322
000020 14 e8 bb bd 55 11 2d bd 4e f3 b8 be d9 e0 2f be
       -0.09175125 -0.042252857 -0.36123127 -0.17175616
000030 38 d1 a1 bd 91 65 81 bd 6b fe a3 bd b9 72 c3 bd
       -0.079012334 -0.063182004 -0.08007511 -0.09543366
000040 83 52 db be 95 1b 77 be 85 0f 31 3a d7 f1 43 b9
       -0.4283639 -0.24131615 0.0006754327 -0.00018686742
000050 a0 0d 91 bd 63 92 dc bd ec 56 53 be d7 7b 2b be
       -0.07082677 -0.107701086 -0.20638627 -0.1674646
000060 17 fb 6a 3e a4 4e 2f be dd 48 c0 3d 51 c3 b1 3d
       0.22947346 -0.17119843 0.093888976 0.08679832
000070 81 ec 64 be 72 ce ce bc ac b1 4b bd 6b 3d 37 be
       -0.22355844 -0.025244925 -0.049729988 -0.17894523
000080 03 02 0d be fa 2a 06 be 8b ac 8b be 7b 6e 04 be
       -0.13770299 -0.13102332 -0.27280077 -0.1293277
000090 16 b2 cb 3c 84 16 83 be 8f 99 a8 be 00 00 00 00
       0.024865191 -0.25603116 -0.32929656 0.0
0000a0 bd 39 06 bd f0 a6 6b bc aa e0 81 be 5d f5 0c be
       -0.032769907 -0.014383063 -0.25366718 -0.13765474
0000b0 0e ba 8a bd 08 c8 9c 3e 37 8e 09 be f2 c5 64 3e
       -0.06773768 0.30621362 -0.13433157 0.22341135
0000c0 e8 43 8a 3e 17 15 aa bd 5f 32 92 be fa 19 d4 be
       0.27004933 -0.08304804 -0.28554055 -0.4142607
0000d0 84 cb 2d 3d 6a d3 8d be 7c 34 0d be 5a 73 92 be
       0.042430416 -0.2770036 -0.13789552 -0.2860363
0000e0 fa e1 08 be 17 d6 b0 be d3 62 72 3d 15 69 d7 bc
       -0.13367453 -0.34538338 0.059176277 -0.026295224
0000f0 6a 0c ed bd 06 10 ba be 5f c6 2d bb 25 cc 96 3c
       -0.115746334 -0.3634035 -0.0026515943 0.01840789

conv1.lin.weight f4 [64, 6]
000000 51 28 a4 3c 5b 22 60 bd a3 a4 63 3e 1e b7 02 c0
       0.020038756 -0.054720264 0.22230773 -2.0424266
000010 a3 db ab 3c db 63 13 40 34 54 14 3e c4 9c b8 bf
       0.020978754 2.3029697 0.14485246 -1.4422841
000020 3c 4e 30 3f 2f 29 bb bf 20 bd 53 bd b0 97 62 3f
       0.68869376 -1.4621943 -0.051694036 0.88512707
000030 06 33 3d bf b0 74 11 be 3f 13 a9 bd 04 b4 03 3f
       -0.7390598 -0.14204669 -0.08255624 0.5144656
000040 76 29 36 be ca 11 82 3f b3 4c 82 3d 42 9a e9 3e
       -0.17789254 1.0161679 0.063622855 0.45625502
000050 7a 09 cf bf c6 ab c5 be 09 28 3c bd 92 44 bb 3f
       -1.6174767 -0.38607615 -0.045936618 1.4630301
000060 49 f7 bd be 35 d4 df be 26 1d f3 be db ab ff 3e
       -0.37102726 -0.4371659 -0.47483176 0.49935803
000070 6a 4f 47 3e 80 ed 90 3f be 83 77 be 26 44 dc 3d
       0.19463888 1.1322479 -0.2417135 0.10755186
000080 f1 b8 23 be e0 11 2c 3d 62 56 34 be 89 58 be 3f
       -0.15988518 0.042009234 -0.17611077 1.4870769
000090 42 85 86 3d 64 1f ae 3e f5 0e b1 bf 0a d6 93 3e
       0.06568386 0.34008324 -1.383269 0.28874236
0000a0 94 e8 14 be ae 6d b3 3f 98 cc 25 be bd c1 d1 3e
       -0.14541847 1.4017847 -0.16191328 0.40968123
0000b0 3c f2 0b 3e 01 d7 95 3e 22 30 30 be e5 cd cf 3f
       0.13666624 0.29265597 -0.17205861 1.6234709
0000c0 7c f5 ce be 5e b1 d3 3d a5 32 d2 3e 67 24 a8 bd
       -0.40421665 0.103365645 0.41054264 -0.08210068
0000d0 c2 09 5e be 10 97 26 3f 77 ed b9 bc 02 fc c5 3b
       -0.2168341 0.65074253 -0.02269624 0.0060420046
0000e0 fd 47 61 3f 90 21 ad 3c 9e fd 37 be 55 33 80 3d
       0.8800047 0.021134168 -0.17967841 0.06259791
0000f0 ea a6 68 3e 78 aa 72 bf 3b 70 a0 3e 5d f2 d3 3d
       0.22719923 -0.94791365 0.31335625 0.103489615
000100 ee a4 2e bc 6f b9 90 3f 82 16 e5 3d 01 20 2b 3f
       -0.0106594395 1.130659 0.11185934 0.6684571
000110 14 fd 56 3e 13 f1 38 bf 1f 6d 20 be ea 2a f2 3b
       0.20994979 -0.7224285 -0.15666626 0.0073903697
000120 d8 37 b5 3c a0 1d f1 3d 2d ea 04 3f b0 4f 37 bd
       0.022121355 0.11773229 0.51919824 -0.04475373
000130 5c 88 8f be 2b d7 a4 bf 79 04 75 bd 1d 9a 24 be
       -0.2803372 -1.2878164 -0.05981872 -0.16074415
000140 04 3d 1d 3e 09 72 de bf 8f 95 43 be 9e ad d6 3f
       0.15355307 -1.7378551 -0.19100021 1.6771734
000150 b7 38 36 3d 5d ad 90 bf ef d4 ba 3e e2 83 b4 bf
       0.04448768 -1.1302906 0.3649058 -1.4102747
000160 31 ee f4 3b 67 c9 a3 3f 18 3b d6 be c3 7e 8e be
       0.0074746837 1.2795838 -0.4184196 -0.27831087
000170 a7 5a d1 be 27 3e 0b 3f 00 8b 98 bc bd 61 a0 3f
       -0.40889475 0.5439171 -0.018620968 1.2529827
000180 8d 37 94 3e e7 2d 98 3e 49 7e 57 3e 8d 0b a6 3e
       0.28948632 0.2972252 0.21044268 0.32430688
000190 74 72 89 bd 13 b0 4c 3f c2 fb 0b 3e ee 29 16 3e
       -0.06711283 0.7995617 0.13670257 0.14664432
0001a0 79 ce 83 bf 28 15 c4 3e cb 59 e7 3c 51 dc 90 3f
       -1.0297385 0.3829739 0.028241059 1.1317235
0001b0 63 b1 8d be 8d a1 47 3e 10 9f 38 3f 95 1d 12 3e
       -0.27674398 0.1949522 0.7211771 0.14269097
0001c0 3d 3e c4 bd ae 2a 0b 3f 6c 81 9d bd 88 ac 04 bf
       -0.095821835 0.54362 -0.07690701 -0.5182576
0001d0 c3 b2 60 bf f7 3e d8 3e 7b a2 8e bd 75 70 67 3f
       -0.8777277 0.42235538 -0.069645844 0.9040597
0001e0 56 8e 08 3d d6 33 8a 3e 36 0d 05 3f 99 b2 74 3d
       0.033338867 0.26992673 0.51973283 0.059740636
0001f0 e8 31 0e bd 93 6c 96 bf d2 17 68 be 4c be 3a b9
       -0.034715563 -1.1751884 -0.22665337 -0.00017809233
000200 1b a1 11 3f 05 b7 ac bf b0 62 29 3d dc 48 12 40
       0.5688645 -1.3493353 0.04135388 2.285697
000210 3c 36 60 3d 1c 1c b7 3d 7f 01 35 3e 2c 18 a0 be
       0.054739222 0.08940908 0.17676352 -0.31268442
000220 21 fa 40 3d ca d8 fa be 39 45 c1 3c 8a 6a 27 3e
       0.04711354 -0.48993522 0.023592578 0.16349235
000230 26 9c ca 3e eb 9b f1 3d bb b8 82 3c e0 df 3a bf
       0.39572257 0.11797317 0.015957227 -0.72997856
000240 25 2a 6d bf 70 8d 38 3f 28 77 0a 3e 89 c1 2d bf
       -0.9264243 0.72090816 0.13522017 -0.67873436
000250 71 45 86 be 89 ca e4 3e 39 2a 81 3d 5f 99 ee 3d
       -0.26224855 0.44685772 0.063068815 0.11650347
000260 22 d0 d9 3e 45 c5 80 be 6d 4e 2f be 89 8a e1 bf
       0.42541605 -0.25150505 -0.17119761 -1.7620403
000270 c7 76 ab be 14 54 8e 3d 3b 3d f5 be fc 3b 04 bf
       -0.33489057 0.069496304 -0.47898278 -0.5165403
000280 6c 6f b1 3e 05 95 45 bb 01 55 37 bf 68 23 1b 3d
       0.3465532 -0.0030148637 -0.7161408 0.037875563
000290 67 9d 29 be 2e a5 08 3f 2f ea 72 be 53 5c 6b 3f
       -0.1656395 0.53377044 -0.23722146 0.9193775
0002a0 73 79 8d 3d d5 c5 3f be 8c 61 07 bf 8a 0c ef 3c
       0.0690793 -0.1872781 -0.5288322 0.029180784
0002b0 6c 03 41 3e 6d c2 f6 be ba 98 8e bd 51 1b 5b 3d
       0.18848962 -0.4819521 -0.06962724 0.053492848
0002c0 d7 0c 91 3d 9b 4d 32 3f 02 fd 15 be 5e 3d df bf
       0.07082527 0.69649667 -0.14647296 -1.7440603
0002d0 d2 25 d6 bc 60 4e 11 3f 85 dd 90 bf d4 0c 9a be
       -0.026141081 0.56760216 -1.1317602 -0.30087912
0002e0 37 dc 12 bd e4 51 b3 be 35 65 04 3e d4 18 03 bd
       -0.035854544 -0.35023415 0.12929232 -0.0320061
0002f0 0e 28 10 3e a2 19 d7 bf 1a ef 82 be 34 88 e9 3f
       0.1407778 -1.6804698 -0.25573045 1.8244691
000300 e6 0f 63 be ac de a5 be ee c0 bc be f4 d5 e1 3e
       -0.22174034 -0.32396448 -0.36865944 0.44108546
000310 27 1d 3b b8 62 8e 7c 3f 05 20 ab be 5a 0e ff bd
       -4.4611425e-05 0.9865476 -0.33422866 -0.12453909
000320 3e 64 43 3f e9 4f c2 bf c4 8b cb 3d af fa b0 be
       0.7632483 -1.5180637 0.099387676 -0.34566256
000330 69 1c 4d 3e 3d 54 39 3e 91 d9 fd 3d f7 a6 1d bf
       0.20030369 0.1809854 0.12395013 -0.61582893
000340 ac b9 1b 3c db 7c ae 3f 2e 65 f3 3d 0c 3d d2 bb
       0.009504717 1.3631853 0.11884533 -0.0064159688
000350 5f c9 a7 3d 69 9a cc bf 1e a9 fe bd fc d8 e9 3f
       0.08192705 -1.5984622 -0.124346 1.8269343
000360 8a 1b 1f be 79 8c c9 3e e1 ae 51 bf 8e 3f 2d 3f
       -0.15537849 0.39364985 -0.8190747 0.676751
000370 b1 c0 cd bd d5 90 85 be 76 04 04 be 5b 54 b8 3d
       -0.100465186 -0.2608706 -0.12892327 0.090004645
000380 2f 85 b9 bd e0 6d 82 3e 9e 5c ae bc 92 6d fe be
       -0.09058606 0.25474453 -0.021284398 -0.4969297
000390 d7 2a 9c 3e df 9e f8 3d bf 64 54 3e 7b 79 b6 bf
       0.30501434 0.12139677 0.20741557 -1.4255823
0003a0 73 89 5b 3e 66 ab c6 3f 5f ca 8b be 25 bb 0f be
       0.21439151 1.5521057 -0.27302834 -0.14036234
0003b0 40 af 83 be 5f 42 6c be 04 ce 92 be 2a 33 6c be
       -0.25719643 -0.23072194 -0.28672802 -0.23066393
0003c0 ec 20 09 bd 7b 1f 1a 3f 88 8d ce bf 00 2c 5e bc
       -0.033478662 0.60204285 -1.6136942 -0.013560295
0003d0 46 70 b7 bd aa f7 92 3f a7 14 cd be 2e 2b b6 bd
       -0.08956961 1.1481831 -0.4005482 -0.088949546
0003e0 42 21 23 3f fe 82 cf bf ec 02 cc 3e 5d 74 d5 be
       0.6372262 -1.6211851 0.3984598 -0.4169034
0003f0 0d 11 d9 3d 87 e0 34 bf 2f 33 cf 3d 8c 7c a3 bf
       0.10598955 -0.706551 0.10117184 -1.2772384

conv2.bias f4 [64]
000000 4e ab b6 bd 0d f0 9c bd cb 1b 02 bd e2 4b 93 be
       -0.089193925 -0.076629736 -0.031764787 -0.28768831
000010 0c ef 4d be 57 44 76 be d6 86 2b 3b 3c 89 de bd
       -0.2011072 -0.24049507 0.0026172898 -0.10866019
000020 0c 81 63 be 34 b8 2e be b6 a2 54 be c2 e3 83 be
       -0.22217196 -0.17062455 -0.20765194 -0.25759703
000030 8f b4 23 bd 00 e4 1c bd 99 d6 19 bd bc 5e 62 be
       -0.039967116 -0.038303375 -0.037558172 -0.22106451
000040 7f d8 5e be bb a1 3e 3c 09 eb 9d bd fd ae 51 bb
       -0.21762274 0.011635239 -0.07710845 -0.003199517
000050 75 da d2 bd 48 66 64 be 14 57 66 be 2d 8d 4a be
       -0.102955736 -0.22304642 -0.22494155 -0.19780417
000060 d8 76 0b 3d 40 4b 90 be 0f bd 81 be 44 89 1f be
       0.034048885 -0.2818241 -0.25339553 -0.15579706
000070 a5 f1 35 be ce 54 0e be c2 ae 53 bd 2c ed 11 3d
       -0.17767961 -0.13899538 -0.051680334 0.035626575
000080 19 63 e6 bc 24 86 da bc bd 90 df 3d 91 da 84 bc
       -0.028123425 -0.026675291 0.109162785 -0.016217502
000090 7f 02 42 be 5e 7b 54 bd f7 05 e8 bc 96 4d fd 3c
       -0.18946265 -0.051875465 -0.028323157 0.030920785
0000a0 5f e1 58 be e8 e6 5c be cd 78 4e be 52 b9 6e be
       -0.21179722 -0.21572459 -0.2016327 -0.23312882
0000b0 02 28 11 be 54 09 7e be e1 23 a1 bd e8 59 5f be
       -0.14175418 -0.24808246 -0.078681715 -0.2181164
0000c0 c3 68 37 bd 7b 5a 29 bd dd ef f5 bd 25 56 27 be
       -0.044777643 -0.041346055 -0.12008641 -0.16341455
0000d0 ea 5f 13 be ea 65 30 bd 95 f1 a3 bb e6 11 f4 bd
       -0.14392057 -0.043065943 -0.005003164 -0.11917476
0000e0 f2 a9 86 be 49 69 79 be 84 d0 ab 3d c9 25 c5 bd
       -0.26301533 -0.2435657 0.083893806 -0.096263476
0000f0 a9 88 b4 3c 60 a2 0f 3e 3b c8 8a be b3 45 4a bd
       0.02203782 0.14026785 -0.2710589 -0.049382877

conv2.lin.weight f4 [64, 64]
000000 11 35 08 3f ae d0 bb be 63 ed 84 bf 13 6c ed 3c
       0.5320597 -0.36682647 -1.0384945 0.028982198
000010 a5 5a ed be 6d 91 cd 3e 53 17 9b be a9 42 15 3e
       -0.4635822 0.40150014 -0.30291232 0.1457621
000020 d9 c6 db bd a4 cd 03 3e b6 0e a0 be de 1d b6 3e
       -0.107312866 0.12871414 -0.31261224 0.35569662
000030 89 bb 71 3b b7 95 50 3e 5c 44 ec be 14 39 74 bf
       0.0036885461 0.20369612 -0.46145904 -0.95399594
000040 b4 5e 2d 3e 5e d4 07 be 7f 0d f5 3d 0b 3b c0 bf
       0.16930658 -0.13264605 0.11965465 -1.5018018
000050 26 63 b8 3e 6d ad 06 3f 6d c4 00 3e b8 c0 09 3e
       0.36013144 0.52608377 0.1257493 0.13452423
000060 e4 9e ac 3e 53 87 68 3e 2e 4d 8b be 10 0b 39 bf
       0.33714974 0.22707872 -0.2720732 -0.72282505
000070 02 29 a1 bd 90 c2 65 bb 56 08 30 3e b7 25 52 3e
       -0.0786915 -0.0035058595 0.1719068 0.205222
000080 57 21 4f bf b5 35 46 3f 19 d1 ee 3d d9 63 e0 3e
       -0.8091025 0.774257 0.11660976 0.43826178
000090 de 53 18 be 91 17 de bd 9c 4d 9b 3e a8 14 af bc
       -0.14875743 -0.10844339 0.3033265 -0.021372154
0000a0 30 9e 1e bc 61 af 0e 3f a9 af 38 be 9d be 48 3e
       -0.0096812695 0.55736357 -0.18035759 0.19603963
0000b0 de e0 49 3e 34 0d a3 bf bd 4f a0 be 7d 81 9c bf
       0.19714686 -1.2738404 -0.31310835 -1.2227017
0000c0 d0 45 7c bf bf ad 29 3e ce bf 89 be 3c d2 76 3e
       -0.98544025 0.16570185 -0.26904148 0.24103636
0000d0 84 86 8a 3e 94 94 b2 3e 88 7f c0 bd ac e3 4e be
       0.27055752 0.3487898 -0.09399325 -0.20204037
0000e0 14 ad 65 bf b6 4c 8a bd 9e f6 52 3e c0 48 ec be
       -0.8971722 -0.06752913 0.2060189 -0.46149254
0000f0 da 00 7a be 3a b5 a2 3e 85 d5 6a be ff 2e 09 be
       -0.24414387 0.3177889 -0.22933014 -0.13396834
000100 11 3f fc be e6 f8 66 3d 04 11 e1 3e a1 5a 14 bf
       -0.49266866 0.05638971 0.43958294 -0.5795079
000110 e0 b5 cc 3f 4c fc 68 bd 8d 67 3d bf 9c 8d f4 bb
       1.5993004 -0.056881234 -0.7398613 -0.00746317
000120 10 d2 35 3d e4 29 7d 3e 28 36 7a be fa 9c 00 bd
       0.044389784 0.24723011 -0.24434721 -0.031399705
000130 88 97 a2 3e 2a 20 0b 3e a6 d8 b0 3e e2 34 cc 3f
       0.31756234 0.13586488 0.3454029 1.5953639
000140 fb 9c 31 be bc 8d fe be bb be 07 3d 72 e9 49 bd
       -0.1734504 -0.4971751 0.03314088 -0.049294896
000150 8e cd c8 3d f4 a8 da be 74 0d cc bd 9f 17 10 3e
       0.098048314 -0.42707026 -0.099635035 0.1407151
000160 b8 13 30 3f cd 89 68 3e 43 a5 0d be 74 17 05 3f
       0.6878009 0.22708817 -0.13832574 0.5198891
000170 2d 37 e3 bd 6e d6 a9 bc 64 5b 5f be 31 1a 88 be
       -0.11094508 -0.02073213 -0.21812207 -0.26582482
000180 02 47 ab 3f 6a 5a 34 bf e7 b6 18 be 88 bc bf be
       1.3381045 -0.7045046 -0.14913522 -0.37448525
000190 48 f3 ab be 0e 2a 4d 3d b2 25 c7 be f6 e8 8c 3d
       -0.33584046 0.050088935 -0.38895947 0.06880371
0001a0 c7 be 22 bf ee 4a 1e bf 5f 92 89 bd 87 59 ae bd
       -0.63572353 -0.61833084 -0.06717371 -0.0851317
0001b0 c7 1f 0b 3f 54 09 c0 bd 3f f0 d3 bb e7 45 8c be
       0.54345363 -0.09376779 -0.0064678486 -0.2739708
0001c0 e5 8f 1d bc 11 06 f5 3e 86 41 13 3e 51 33 aa 3c
       -0.009616827 0.4785619 0.14380464 0.020776423
0001d0 01 30 b7 3e 8e ac d1 be b6 9d 5c be ac 5e 1e 3e
       0.35778812 -0.4095196 -0.21544537 0.15465802
0001e0 a5 c7 bb 3f 0d 5e 85 be cc 17 b4 3e a1 ad 16 bd
       1.4670302 -0.26048318 0.35174406 -0.03678668
0001f0 c9 d6 8e 3e 17 3f 76 bc cb c7 c4 be 13 81 2d 3e
       0.27898243 -0.01502969 -0.3843368 0.16943769
000200 1f 43 12 3e 34 fb 3b be ba ee 55 be b7 9c 40 3e
       0.14283417 -0.18357545 -0.20891848 0.18809782
000210 44 b8 1e 3d 0a ea ea 3d 14 40 97 bd ee 38 11 be
       0.03874995 0.11470421 -0.07385269 -0.14181873
000220 30 b3 78 bd 31 11 13 3e 1f 1b 12 3e 66 d5 42 be
       -0.06071776 0.14362027 0.14268158 -0.19026718
000230 b0 a6 98 3c e2 76 d0 3d ea ac d8 bd 70 96 52 be
       0.01863417 0.10178925 -0.10579856 -0.205652
000240 52 83 38 be 1e 67 3d be 9c d6 22 3d bc db 24 3d
       -0.18018845 -0.18496367 0.03975545 0.040248618
000250 e7 1e 0f be 14 0d 5a 3d 3a 2c 58 be 6d 7b 3f be
       -0.13976632 0.05323513 -0.21110621 -0.18699427
000260 07 39 49 3e 99 ad 59 be cb cf 4e be 5c 6a bd bd
       0.1965066 -0.21257629 -0.20196454 -0.09248802
000270 49 c9 d0 3c 99 3f 35 be 9e 65 00 be ab 58 29 be
       0.025486605 -0.17700042 -0.12538764 -0.1653773
000280 f8 c8 ed bc 17 18 0a 3e 54 c5 1f 3d 70 98 bb bd
       -0.029026493 0.13485752 0.039006546 -0.091599345
000290 94 81 0e be da ab b8 3d bf 71 5c bd 9c a6 69 bd
       -0.13916618 0.09017153 -0.053819414 -0.057043657
0002a0 6d 4f 22 be 90 0e 2b be 18 ca a5 bd 89 0c 4d 3e
       -0.15850611 -0.16704774 -0.08095187 0.20024313
0002b0 90 69 fc bd 60 dd 38 bc 9e 93 b6 bd 1e 2a 90 3d
       -0.12324822 -0.011283249 -0.089148745 0.07039283
0002c0 75 33 4c be 9e 07 a6 bd 32 c1 f2 3d 07 79 cd bd
       -0.19941504 -0.081069216 0.11853255 -0.1003285
0002d0 54 53 1a bd c0 f9 5d bc c2 d8 27 be 24 cd 08 3d
       -0.037677124 -0.013548315 -0.1639128 0.033398762
0002e0 d0 d9 62 bc ec 30 32 be 8c 15 8d bd 32 f5 c3 bd
       -0.013845876 -0.17401475 -0.06888875 -0.09568252
0002f0 5a 1d f2 bd d7 27 3a 3e 47 7c 20 3e d2 55 af 3d
       -0.118220046 0.1817926 0.15672408 0.08561291
000300 cf 9c 30 3d e9 3a a8 be 5a a1 91 3c a1 dc e8 3e
       0.043118294 -0.32857445 0.017777134 0.45480826
000310 d6 45 18 3e cb eb f9 3e c7 90 af 3d a8 b0 a2 3e
       0.1487039 0.48812708 0.08572536 0.31775403
000320 58 98 c1 bd 82 95 2d bf 10 a8 62 be db fe bc 3e
       -0.094528854 -0.67806256 -0.22134423 0.3691319
000330 3a d1 40 bf 84 93 d5 bc 9a 56 9c be 74 20 6d be
       -0.75319254 -0.026071317 -0.30534822 -0.23156911
000340 4a c8 fe 3d b2 26 28 3e 5f bf ef 3b cb 36 54 3d
       0.12440546 0.16421011 0.0073165144 0.051810067
000350 18 f1 4c 3d 06 d1 c6 bd 2e 74 6c 3d 6a 40 0e bf
       0.050034612 -0.09707837 0.057727985 -0.5556704
000360 5c 80 5f 3f 20 a9 fa be 22 e7 8b 3d f6 e3 01 3d
       0.87305236 -0.48957157 0.068311945 0.03171154
000370 cd 98 ba bd 25 7e 9f 3e ed 44 30 3f 0f e8 02 bf
       -0.09111176 0.31150928 0.6885517 -0.51135343
000380 ea 2f 1c 3e a6 27 fc be ce 98 25 bf d7 ba 91 3c
       0.15252653 -0.49249 -0.64686286 0.017789287
000390 d4 f1 fa 3e 44 f8 2f bd f5 9e 37 be 46 2b a0 bd
       0.49012625 -0.042961374 -0.17931731 -0.07820754
0003a0 78 53 07 3f 34 74 ec be b8 15 26 be 0c 9e 93 be
       0.5286174 -0.46182406 -0.16219223 -0.28831518
0003b0 39 48 29 bf 77 7b 8d be ba d0 84 3c 7c 5c 58 be
       -0.6612583 -0.2763326 0.01621281 -0.2112903
0003c0 56 4c ce be 6b a0 7b 3c 82 82 24 3e 1e 40 7d 3e
       -0.40292615 0.015358071 0.1606541 0.2473149
0003d0 2e 7c 52 bd 93 c9 34 be 7b 96 10 3e a2 cd 95 bd
       -0.05138796 -0.1765502 0.14119904 -0.07314612
0003e0 8c 78 1c 3e 91 da 9a be d1 d1 94 be e3 40 a5 bd
       0.1528036 -0.30244878 -0.29066327 -0.08069017
0003f0 cc c4 1d bf 53 c5 72 3b e3 38 0b 3f 15 49 29 bf
       -0.61628413 0.0037043884 0.5438368 -0.6612714

conv3.bias f4 [64]
000000 13 7e fa bd 19 df 22 3d 9d 99 e8 bd 29 84 41 bd
       -0.12231078 0.039763544 -0.113574244 -0.04724518
000010 e0 67 fd 3c 18 58 90 3d 0e e2 22 be 5a 39 17 bd
       0.03093332 0.070480525 -0.15906546 -0.03691993
000020 70 e7 cb 3d 50 28 cc 3e 6f 38 66 3d 8d 56 cb bd
       0.099562526 0.39874506 0.056206163 -0.099286176
000030 31 ed 12 3e da 57 d9 bd 0a 82 53 bc 25 3b b3 bd
       0.14348294 -0.106124595 -0.012909422 -0.08751515
000040 15 fc 8b be a5 71 25 be 73 f4 26 bc 72 40 0d bd
       -0.2734076 -0.16156633 -0.010190117 -0.034485288
000050 c7 d3 8f bd 9e 15 84 be 84 10 e9 3c 06 24 2c bd
       -0.07022815 -0.25797743 0.028450258 -0.042026542
000060 e3 a3 01 bd 73 2a f2 bb c3 77 53 bd 5c c5 4b 3a
       -0.031650435 -0.0073903142 -0.051627886 0.0007773244
000070 22 c6 16 bd 39 3d 43 bd 46 6b 12 bd 47 f5 92 3d
       -0.036810048 -0.04766581 -0.035746835 0.07175689
000080 e9 77 05 be db 02 cc 3d 49 2d 73 3d a5 2a fa 3d
       -0.13034023 0.09961482 0.05936936 0.12215165
000090 b2 ed 8f bd b4 a6 af 3d fd 90 97 3d 47 a9 11 bd
       -0.07027759 0.08576718 0.07400701 -0.035561826
0000a0 0a 3b 3d 3d 59 21 bd bd 12 71 95 3a a1 41 ae be
       0.046198882 -0.09234876 0.0011401495 -0.34034446
0000b0 cf aa 9c bd a4 0a b0 bd 8a 78 b4 3c 4d 2c 23 3d
       -0.07649767 -0.085957795 0.022030134 0.03983717
0000c0 8a d7 65 3d 9a a9 4d bd c3 c3 32 3d 42 ef 84 bd
       0.056113757 -0.050210573 0.043643724 -0.06490947
0000d0 20 90 c5 bd cf cb bd bd a7 72 9a 3d 95 5e 3a bd
       -0.0964663 -0.09267389 0.075413994 -0.045500357
0000e0 31 a6 5d 3e 94 d2 a8 bd bb ba c3 bb 4c b2 2e bd
       0.21645428 -0.082432896 -0.0059731877 -0.042650506
0000f0 b5 fa 0e 3e 64 e1 99 bd 59 84 83 3b ea d6 9c bc
       0.13962825 -0.07513693 0.00401358 -0.019145448

conv3.lin.weight f4 [64, 64]
000000 d5 1d 4a 3e e3 ac 22 bf 24 68 cf 3d 7f 78 23 3f
       0.19737943 -0.63545054 0.10127285 0.6385574
000010 d9 de 84 3d f5 75 0f bf 2d 8d cc 3f 5d 41 9b 3e
       0.06487817 -0.56039363 1.5980583 0.30323306
000020 e4 d0 85 bd 36 6b c9 3e 0a ef a8 be d7 01 01 be
       -0.06533983 0.39339608 -0.32994872 -0.12598358
000030 8a 81 06 be 97 e8 98 be 4e 9a 2c bf e1 7e 42 bf
       -0.13135353 -0.29864952 -0.6742295 -0.7597485
000040 47 87 8b 3d b4 17 c8 3e 16 db ab 3d 6f 26 74 bc
       0.068129115 0.39080584 0.08391397 -0.014901741
000050 04 4b 84 3e a1 93 ef be 68 f0 8b 3c 4d e0 ed bd
       0.25838482 -0.4679232 0.017082408 -0.116150476
000060 c0 2d e3 be 9f 31 85 3e 65 27 a7 3f 26 42 99 3e
       -0.44370842 0.2601442 1.3058897 0.2993328
000070 4f b3 a5 3e d8 e4 65 bf 79 20 c8 bd 59 d2 af be
       0.32363364 -0.8980231 -0.09771819 -0.3434017
000080 a4 e2 18 3e ee 8d 95 be 87 da c5 3c 14 c8 ed 3e
       0.14930207 -0.29209846 0.024152054 0.4644171
000090 56 0a 24 bf 29 aa 39 3e 70 6b c2 3d 2b 4e 3c 3e
       -0.6407827 0.18131317 0.09493148 0.18389194
0000a0 60 89 a3 bd 4e be 2a 3e 80 4a ec 3e f0 08 63 bf
       -0.079851866 0.16674158 0.4615059 -0.8868551
0000b0 2e a0 a5 bd 1f 64 43 bf e3 f2 f0 bd df 72 9f bc
       -0.080871925 -0.7632465 -0.11765077 -0.019463954
0000c0 44 6a fa bd 77 1e d4 be cc 03 ca 3e 41 79 8e 3e
       -0.122273 -0.41429493 0.39456022 0.27826884
0000d0 97 a1 fb 3d b8 fa bb 3e b9 ab 7f bd 48 4a 03 bf
       0.1228668 0.3671472 -0.062419627 -0.5128522
0000e0 e5 c3 a0 3e 8e 33 50 3e 91 9c bd bd 56 95 11 3f
       0.31399456 0.20332167 -0.09258378 0.56868494
0000f0 ff c4 ec 3e 9f 40 c6 bc fb 85 06 bf 9b 00 da bd
       0.46244046 -0.024200736 -0.5254819 -0.10644647
000100 0d 84 dc 3e 32 60 41 be 82 3a 36 3e 49 37 99 be
       0.43069497 -0.18884352 0.17795756 -0.29924992
000110 9e 17 50 3e 42 9b 53 bd 0e b3 dc 3e 80 4d d4 3d
       0.20321509 -0.051661737 0.43105358 0.103663445
000120 f9 16 13 be e6 22 3d 3e 5c d7 e0 3d 2f 5d c8 3e
       -0.14364232 0.18470344 0.109785765 0.39133593
000130 3e 06 46 be e4 04 96 be 3b ef 08 be d7 fb 47 be
       -0.19338319 -0.29300606 -0.13372509 -0.19529663
000140 53 20 73 be 67 1c ad be a2 d5 9c bc 16 91 4f 3e
       -0.237428 -0.33810732 -0.019144837 0.2027019
000150 92 31 e6 3d e4 08 4a 3e d4 e4 0f be e7 58 1a 3f
       0.112399235 0.19729954 -0.14052135 0.60291904
000160 97 69 4c bb 17 81 be be 6d 7b fd 3e 97 43 4c 3f
       -0.0031190866 -0.37207863 0.4950823 0.79790634
000170 5e cc 26 3f 25 ec 89 3e 37 6b 7b be 6f 8f 98 3e
       0.6515559 0.26937976 -0.24552618 0.2979693
000180 f2 a3 49 3e 25 1e bf 3c e6 27 f5 bd f9 1d 93 3e
       0.19691446 0.023329804 -0.11970501 0.28733805
000190 33 a5 95 bc 1a 83 06 be 3b a6 fb bd b8 d6 9b be
       -0.01826725 -0.13135949 -0.12287565 -0.30437255
0001a0 50 3c 83 bc 52 25 e5 bd 89 99 2e be ba 11 ec be
       -0.01601997 -0.11188759 -0.17050757 -0.46107274
0001b0 be f4 81 be 7f 21 d0 be 18 9c 35 be 80 4c a2 be
       -0.25382036 -0.40650555 -0.17735326 -0.3169899
0001c0 9b 6d 49 3c 1a e8 18 3e 5a d3 22 3f cb 75 4b 3e
       0.012294198 0.1493229 0.63603747 0.19869153
0001d0 17 5e ce 3e 8f 4f e5 be d9 c6 a5 3d 51 64 d1 3e
       0.4030616 -0.4478726 0.08094568 0.40896848
0001e0 ea 04 88 be 0b 03 76 3e b9 82 af be 2a 47 19 3f
       -0.2656625 0.24024598 -0.3427942 0.5987421
0001f0 e5 a8 e9 3c d8 05 c9 bd 04 52 4b be 22 57 4c bd
       0.028522918 -0.09815568 -0.19855505 -0.049887784
000200 e0 b9 ac 3e 3f 54 79 3e 86 45 9d bd f4 4b 03 3f
       0.3373556 0.24348544 -0.07679276 0.5128777
000210 e8 eb 88 be a3 a1 f7 bd d8 6b da be d6 a8 bc 3d
       -0.26742482 -0.12091377 -0.42660403 0.092118904
000220 47 56 42 bd 2a 46 99 be 20 f8 95 bd d2 2f 0a bf
       -0.04744556 -0.29936343 -0.07322717 -0.5397922
000230 c2 1d 38 be 1f 7f d9 3e 7d 4f 4c 3e 85 a4 1a 3e
       -0.17980102 0.42479798 0.19952197 0.15101822
000240 5e 3a 5d 3d e5 8b b3 3e 8e 5e fb 3d f2 69 1d 3e
       0.05401074 0.3506767 0.12273894 0.15372446
000250 ca f4 d0 3c d6 d5 52 bd 06 7e d3 3d 16 6e be bc
       0.02550735 -0.05147346 0.103267714 -0.023245852
000260 42 2c 03 be 1a b2 68 3e 95 dc ae be a5 78 7c be
       -0.12809852 0.2272419 -0.34152666 -0.24655397
000270 7f 87 5d be 7a cb ce bd 0c 03 7f 3d 7f 61 b6 be
       -0.21633719 -0.10097404 0.062258765 -0.3562126
000280 24 e3 4c bd 78 69 08 bd 42 b0 c1 3e a5 59 f5 be
       -0.050021306 -0.033303708 0.37829787 -0.47919956
000290 21 ee 99 3e 32 f4 35 3e e9 e4 88 bd 2c 25 79 3d
       0.3006449 0.17768934 -0.06684286 0.060826465
0002a0 7c 1a 4e 3c 95 71 39 3c e1 68 4a bf e9 42 fb 3e
       0.012579557 0.011318584 -0.7906628 0.49074486
0002b0 ee 61 01 3d da e2 2f bd 44 72 33 be 50 d6 49 3e
       0.031587534 -0.042940952 -0.17524058 0.1971066
0002c0 9d 5f 03 be 2d 1a 86 be 9c 4c 1b be 96 59 ef 3d
       -0.12829442 -0.26191846 -0.15165943 0.11687009
0002d0 d2 93 85 be 5e 9e 0a 3f 33 93 7c be 33 fa 8c be
       -0.2608934 0.541479 -0.24665527 -0.27534637
0002e0 48 97 fa 3d b4 08 48 bf e2 f3 88 3e d2 47 5e be
       0.12235886 -0.7813828 0.26748568 -0.21707085
0002f0 78 43 da bb 8f d5 c8 3e 82 a2 74 3e ca 78 00 be
       -0.006660875 0.39225432 0.23890117 -0.12546077
000300 19 38 f4 ba 3b d5 c6 3e 55 d8 af bd 69 d2 5c 3e
       -0.0018632441 0.38834557 -0.08586184 0.2156464
000310 f0 f5 de 3b b4 14 95 3d be 33 e4 be 4a 22 1d be
       0.0068042204 0.072793394 -0.44570726 -0.15345111
000320 d4 c2 d7 3d 7b ce 17 be 48 c9 9b 3e 42 be 17 3f
       0.105352074 -0.1482486 0.30427003 0.59274685
000330 f7 17 23 be 73 e1 37 3f ba e9 3a 3f 6e 6e 96 3d
       -0.1592711 0.71828383 0.7301289 0.073452815
000340 67 5b 75 3e 82 0d b6 3d 1a 99 82 3d 3e 7b 22 be
       0.23960648 0.08889295 0.06376858 -0.15867326
000350 7f 18 94 bc 13 35 d4 bc 6c a1 92 bd 0a df 2b 3e
       -0.018078087 -0.025904214 -0.07159695 0.16784301
000360 34 c1 4c be b3 83 28 3d b3 4e a5 be c4 f6 1c 3e
       -0.19995576 0.041141223 -0.32286605 0.15328509
000370 f8 f0 c9 bc d5 8c e4 3e 3f c7 df bb 8f b5 89 3c
       -0.024651036 0.44638696 -0.006829172 0.016810207
000380 7d d3 1e 3e 46 da 04 3f 66 ec fe be 6a 15 22 be
       0.15510364 0.5189556 -0.49789733 -0.15828481
000390 e9 fc 0a 3f 06 6f 14 3e fa f6 1b 3e a2 6b 95 be
       0.5429216 0.14495477 0.15230933 -0.2918368
0003a0 3e 9b 3e 3e 4a 7b 68 3d 95 a1 71 be 30 95 30 bf
       0.18613908 0.056758203 -0.23596795 -0.6897764
0003b0 b4 a5 82 be b0 84 84 3e ba 36 e9 3d 67 24 f2 3e
       -0.25517046 0.25882483 0.113873914 0.47293398
0003c0 a1 05 89 bd 6a 5d 5b 3e 08 f9 4d 3e eb ec 13 bd
       -0.06690527 0.21422353 0.20114529 -0.036114614
0003d0 39 24 a8 3e e1 34 9c 3e 10 74 67 3f b4 c9 01 3e
       0.32840136 0.30509093 0.9041147 0.126746
0003e0 07 6a 2d 3e 5c db a1 3e ec bb 7c be 98 53 18 bd
       0.16934977 0.3161267 -0.24681062 -0.037189096
0003f0 28 1d 91 bd 3f c3 cb be 2a 46 ca 3e b5 38 ac bc
       -0.07085639 -0.39797398 0.39506656 -0.021023134

fc1.weight f4 [512, 64]
000000 c7 3c 0f bf ee 12 09 3f 97 97 e3 bd 55 4a 94 bd
       -0.55952114 0.5354451 -0.11112898 -0.0724074
000010 75 41 b9 be 9b a6 7d bd cf ef b2 bd 66 70 7d be
       -0.36182752 -0.061926465 -0.08737146 -0.24749908
000020 76 9b 98 3e 04 ea 60 be 27 63 81 be ad 78 93 be
       0.29806107 -0.2196427 -0.2527096 -0.28803006
000030 46 b3 00 3e 0d d5 8c 3e 96 c4 87 be 23 ba 41 3e
       0.12568387 0.27506295 -0.2651717 0.18918662
000040 5e 04 e3 3b 6c 64 f0 be 7c f3 75 3e 57 e7 4d be
       0.006928011 -0.46951616 0.24018663 -0.2010778
000050 27 86 4f 3d c3 0b f8 bd 47 8c 80 3e 80 24 63 3f
       0.050665047 -0.12111618 0.25107023 0.8872757
000060 d5 03 62 be 80 f2 96 3e b0 9c e9 bd 8e 36 2a 3e
       -0.22071774 0.29481888 -0.11406839 0.16622373
000070 18 02 96 be 9b d6 a5 be 7c f9 01 bf eb 4c c4 3e
       -0.29298472 -0.32390293 -0.5077131 0.38339934
000080 11 f9 5e 3e 86 79 89 3e 19 cb 3b 3f d5 d4 8e 3e
       0.21774699 0.26850528 0.7335678 0.27896753
000090 22 1a be 3d 0c 02 93 bb 57 31 32 3e a9 fd 12 bd
       0.09282328 -0.004486328 0.17401634 -0.03588644
0000a0 e7 61 2e 3e 26 c8 cf 3e b8 db 35 3e 96 8e ad be
       0.17029534 0.4058239 0.17759597 -0.33897847
0000b0 d0 23 f1 bd 6b e9 84 3c 4e b6 25 bd c7 77 19 3f
       -0.11774409 0.016224584 -0.040457062 0.5994839
0000c0 0f 19 60 3d a0 41 f6 3e df 0b cd 3d 98 7c bd bd
       0.054711398 0.48096943 0.1001203 -0.0925228
0000d0 b1 c3 35 be 5c 7a e2 bd 52 75 07 be 72 f8 c3 be
       -0.17750432 -0.110584944 -0.13228348 -0.38275486
0000e0 36 d6 72 3e 87 be ae 3e 3b 74 dc be 37 4b dc 3d
       0.23714527 0.34129736 -0.43057427 0.107565336
0000f0 7f b7 fa 3d d0 10 2d bf c5 9c 96 3e 79 79 1f bf
       0.1224203 -0.6760378 0.2941648 -0.6229473
000100 98 28 47 bf 18 fe b1 bd e6 7d 2c 3e 49 de 10 3f
       -0.77796316 -0.08691043 0.16844901 0.5658918
000110 cc 69 23 3d ad 66 32 bf a5 2f 7f bd cb e7 e3 3e
       0.039895818 -0.6968792 -0.062301297 0.44512782
000120 1b 8c 85 3e bb 33 14 3e 18 71 9d be 9a d3 56 bf
       0.26083454 0.14472859 -0.30750346 -0.8391663
000130 f5 71 18 3e 17 b0 49 be c2 a7 7b 3e e4 80 d0 3b
       0.14887221 -0.19696079 0.24575713 0.006363021
000140 a2 9f b3 3d 1f a9 08 bf ac a2 c7 be 25 4b 87 bc
       0.08770682 -0.5338306 -0.38991296 -0.016515324
000150 6b 64 11 3e 90 df e7 be 45 92 f0 be a2 08 3e be
       0.14198463 -0.45287752 -0.46986595 -0.1855798
000160 c2 5c b7 bd f3 04 87 be 78 90 93 3d 91 dd 2c 3f
       -0.08953239 -0.26370963 0.072052896 0.67525584
000170 06 72 02 3f a2 72 cf be 7c 25 42 3e 0d 5f cc 3e
       0.50955236 -0.40517145 0.18959612 0.39916268
000180 dc 46 57 3d 7a 26 27 bf d0 1f 92 3b 19 24 9c bd
       0.05255781 -0.65293086 0.0044593588 -0.076240726
000190 ba 29 21 bf 74 d9 e9 3e 35 c2 fc bd 31 aa a6 3d
       -0.62954295 0.45673716 -0.123417296 0.0813793
0001a0 c9 a6 a6 bd f1 27 6c 3d 76 8b e6 be a8 53 c2 be
       -0.081372805 0.05765528 -0.45028275 -0.3795445
0001b0 8f 45 6a be 95 31 0a bf a4 73 c0 bd 98 86 24 bd
       -0.22878097 -0.53981906 -0.09397057 -0.04016742
0001c0 fb 7c e0 bd df 16 e9 bc ba 14 53 3e ac 89 40 be
       -0.10961338 -0.028453289 0.20613375 -0.18802518
0001d0 d9 fc ca be fa 95 83 3e e9 4c e9 3d c7 15 d4 be
       -0.39646032 0.2570036 0.113916226 -0.41422865
0001e0 19 f0 0a ba df bc da be 7a f2 fe 3c f0 ec 0d bf
       -0.00053000596 -0.42722222 0.031121481 -0.5543966
0001f0 90 71 d6 bc e2 29 4a 3c 87 75 84 3e 10 91 71 3e
       -0.026177198 0.012339087 0.25870916 0.23590493
000200 81 77 f8 be 02 41 d0 bd 7b 05 bc 3d 54 c1 5c be
       -0.48528674 -0.10168649 0.09180733 -0.21558124
000210 5b 94 5d be 40 74 25 3e 18 69 16 bf 04 01 1d bf
       -0.21638624 0.16157627 -0.5875411 -0.61329675
000220 e4 5f 4b 3e 32 0d 8d 3d 38 98 73 3f 52 6e 91 be
       0.19860798 0.068872824 0.9515414 -0.2840448
000230 81 86 70 3d 2a dc 64 3e c5 03 1a bf b3 dd 14 3f
       0.058722023 0.22349611 -0.60162 0.58150786
000240 3c 73 bf 3d 3d d8 c0 be 4c 5c 7b 3d de e2 bd 3c
       0.09348151 -0.37664977 0.061367318 0.023179468
000250 5b 3e 89 be 79 1b 0a 3f 7f 10 94 3e 55 30 9d be
       -0.26805386 0.5394817 0.28918836 -0.30700937
000260 12 e5 8b bd 40 98 b4 3e 47 87 c4 3c 17 e9 67 3e
       -0.06830801 0.35272408 0.023990287 0.2264751
000270 82 00 ab be 31 90 80 be 29 4f ee be 9b 9b b6 3e
       -0.33398825 -0.2511001 -0.4654477 0.35665593
000280 8b 6c 47 bf bc 0a a0 3e dc 80 e9 3b 8d 3b 84 be
       -0.779 0.3125819 0.007125957 -0.25826684
000290 02 4a 0e 3e ee ae fb 3c ec 05 06 3f ea 34 b0 bb
       0.13895419 0.030723061 0.52352786 -0.0053774016
0002a0 e3 85 fd 3e 9b 9e ef be b9 b3 93 3e b3 5a 97 be
       0.4951621 -0.46800694 0.28848055 -0.29561386
0002b0 c8 f9 36 3e e9 0a 11 3c 93 6e 8f be b3 ab 38 be
       0.17868721 0.008852699 -0.2801405 -0.18034248
0002c0 0e c5 96 3e 34 88 5f bf 10 7c 49 3e 1c 02 97 3d
       0.29447216 -0.87317204 0.19676232 0.07373449
0002d0 e2 22 04 bf cd df 78 be 78 86 b6 bd 67 1c bd be
       -0.51615727 -0.24304123 -0.08912367 -0.36935732
0002e0 1b 3f bd 3d 54 09 80 3e 3d ea 10 bf f9 8a be bd
       0.09240552 0.25007117 -0.5660742 -0.09303851
0002f0 1a 04 ea 3d 8d a6 e0 be ad df 37 3d 8e 8d 60 bf
       0.114265636 -0.43877068 0.04489105 -0.87715995
000300 54 c6 58 be 20 cc c2 bc d6 bd 2e bc 64 43 8e bd
       -0.21169406 -0.023778975 -0.010665378 -0.069464475
000310 34 9d 2e bd f4 86 82 bd fe 51 b0 bd 3d 76 61 3d
       -0.04263039 -0.063733965 -0.08609389 0.0550444
000320 db a7 2d be e6 af 6b 3d 49 c8 e0 3d 55 d4 51 be
       -0.16958563 0.057540797 0.10975701 -0.20491154
000330 d2 05 9e 3d b0 13 ee 3c 41 a0 9a bc 5d 4d e5 bd
       0.07715954 0.029062122 -0.018875243 -0.111963965
000340 ed 73 68 bd 21 45 25 be ac 58 03 3c 1e 94 3c be
       -0.05675118 -0.16139652 0.0080167465 -0.18415877
000350 92 d0 af 3e e1 9c 52 3c 79 1b b0 bd 40 2d 7b be
       0.34338814 0.012854786 -0.0859899 -0.2452898
000360 b6 fa 0a 3e 08 fb 21 bc 1f 45 07 3e 6d 6f 5a 3e
       0.13572201 -0.009886511 0.13209961 0.21331568
000370 1b cd 83 3d 09 c4 27 bd 69 61 35 3e 7a b6 27 bd
       0.06435605 -0.040958438 0.1771294 -0.040945508
000380 63 44 d0 be e3 17 d2 bd c0 0c 71 be ad 7a 97 bd
       -0.40677175 -0.10258462 -0.2354002 -0.073964454
000390 1e ae df bd b1 aa 68 3e c4 11 99 3d bf 25 56 be
       -0.10921882 0.22721364 0.07474092 -0.20912836
0003a0 32 26 1a 3e 1f 43 9d be 56 bd 73 bc e2 ef 13 bd
       0.15053633 -0.30715272 -0.014876684 -0.036117442
0003b0 6d 81 b9 3c 62 0e c5 be 1d 20 ee bc f3 64 aa be
       0.022644723 -0.38487536 -0.029068047 -0.33280143
0003c0 37 5a c8 3d 95 86 1e be 85 40 41 3d be 0a bc be
       0.09782832 -0.15481026 0.04718067 -0.36726946
0003d0 42 f3 7c be c8 ad 6a 3e 69 e1 10 3d a7 7d 6a bd
       -0.2470217 0.22917855 0.035371218 -0.057248738
0003e0 d8 6c 1b bd 79 5f 29 bd db e9 8c bd 17 28 0a be
       -0.0379456 -0.041350815 -0.06880542 -0.13491856
0003f0 3d 08 b7 3d ea 53 28 3e 64 33 29 be 91 62 80 3d
       0.08937118 0.1643826 -0.1652351 0.062688

fc1.bias f4 [512]
000000 bc c3 33 be 88 5d 97 3d 1c c8 b8 bd 83 2f 63 be
       -0.17555135 0.073908865 -0.09022543 -0.22186093
000010 0d 56 a3 be c8 03 0b be 14 48 d8 bd 1e c1 31 be
       -0.3190159 -0.13575661 -0.10560623 -0.17358825
000020 16 55 d4 be a0 0f 4d be 4b aa 8d bd 65 82 a8 be
       -0.41471165 -0.20025492 -0.069172464 -0.32911983
000030 9f 65 97 bc c8 d0 66 be bc d4 3c be f9 a6 20 be
       -0.018481074 -0.22540581 -0.18440527 -0.15688695
000040 fa a0 2c be 6c d4 66 bd 09 ad 5e be 7b f9 0e be
       -0.16858283 -0.056354925 -0.21745695 -0.13962357
000050 ad 4e 1e bd e9 d5 85 3e f5 d0 48 be cc cd f4 be
       -0.03864925 0.26139763 -0.19610961 -0.4781326
000060 66 0a 87 be 95 2d e8 b9 92 ba ae bd e1 8c 47 be
       -0.2637512 -0.0004428445 -0.08531679 -0.19487335
000070 e4 83 2c be 76 b9 02 3d 64 31 74 be f5 f2 d1 3d
       -0.16847187 0.03191515 -0.23846966 0.102514185
000080 5e 6d 36 bd 7c b7 ca be da a8 c6 be f2 47 8a be
       -0.044537894 -0.39593112 -0.388007 -0.27008015
000090 59 a4 b7 be 01 27 25 be 8b 2f 16 be 27 43 48 be
       -0.35867575 -0.1612816 -0.14666574 -0.19556867
0000a0 62 fa 22 3f ab 06 51 be 21 11 8a be c5 ae 17 be
       0.63663304 -0.204127 -0.26966193 -0.14812763
0000b0 e7 2f 2a be 5f d2 05 be c8 2f 16 bf 42 f6 a6 be
       -0.16619836 -0.13068531 -0.5866666 -0.32609755
0000c0 b7 67 8c bd ca 8d 6d bc e1 cf d1 be de 84 54 be
       -0.068557195 -0.014499137 -0.40978912 -0.2075381
0000d0 91 99 fc be e1 0f 54 be ca 37 16 be 68 d7 6e bd
       -0.49335912 -0.20709182 -0.1466972 -0.058310896
0000e0 da 32 3f 3e c7 82 e5 be 27 91 9d 3d 0c f2 86 be
       0.18671742 -0.44826338 0.07693701 -0.26356542
0000f0 31 03 e5 be 97 b7 82 bd 25 b4 93 be 10 7a 77 be
       -0.44728997 -0.06382673 -0.28848377 -0.24167657
000100 e7 9e 0f bf b9 01 49 3d 87 7c 73 3e 28 63 7f bd
       -0.5610184 0.04907391 0.23777972 -0.062350422
000110 73 9a 6b be d0 9f 43 be 00 f8 80 bd 94 ff c9 3c
       -0.23008136 -0.19103932 -0.06297302 0.024658002
000120 80 8a b9 be 03 8b 6b be 76 03 a0 bd 53 6a db be
       -0.3623848 -0.23002248 -0.0781316 -0.42854556
000130 53 17 11 be 0c dd 8b 3d 92 58 cd bd 18 63 7e bd
       -0.14169054 0.06829271 -0.10026659 -0.062106222
000140 35 a8 1b be c7 23 05 bf a3 5d a5 be a0 35 22 bd
       -0.15200885 -0.52007717 -0.32298002 -0.039601922
000150 4c 28 8b be 07 00 eb be 6d 40 5c be 28 95 8c bc
       -0.27179182 -0.45898458 -0.21508951 -0.017160967
000160 f3 55 94 be 3d c1 98 be ea 74 07 be 14 79 29 3e
       -0.28971824 -0.2983493 -0.13228193 0.16550094
000170 45 67 a1 3e 22 20 4d be d2 ec bf be 8e 8e b9 be
       0.315241 -0.20031789 -0.37485367 -0.36241573
000180 a3 ee 87 be b7 15 7a be 83 f3 a2 be 5c 67 32 be
       -0.26549253 -0.24422346 -0.3182641 -0.17422241
000190 b8 93 c2 3e a3 72 3f be 7b 5e 06 be 22 13 2f be
       0.38003325 -0.18696074 -0.13121979 -0.17097142
0001a0 64 e2 0f 3d b6 03 09 3f 84 7d b2 bd 8d f7 42 3d
       0.035128012 0.5352129 -0.087153465 0.047599364
0001b0 42 6a 5c be d4 ea 8d be 9c 6b 4e 3e b4 bc 93 3d
       -0.21524909 -0.27718222 0.20158237 0.07213727
0001c0 e6 4e a1 be c3 fa 24 bf 36 99 5f bd b5 ce 6e be
       -0.31505507 -0.6444513 -0.054589473 -0.2332104
0001d0 f3 7b b5 be d8 05 85 be d9 91 d6 3c c2 13 74 bc
       -0.35446128 -0.2598102 0.026192592 -0.014897289
0001e0 13 a1 8c bd e1 fd 02 be f5 dd 93 be 25 44 d2 3d
       -0.0686666 -0.1279216 -0.28880277 0.10266904
0001f0 99 a3 f8 3d a7 8a 53 be 41 9a 8c be 8d 5e 99 3e
       0.12140579 -0.2065836 -0.27461436 0.2995495
000200 c2 b5 85 bd 3a 83 95 be e8 a5 18 be d8 96 fa bd
       -0.06528808 -0.2920168 -0.14907038 -0.122358024
000210 0b 7d dc 3c 18 db 4a be 24 22 40 bf ae 59 0e be
       0.026915094 -0.1981014 -0.75052094 -0.13901398
000220 1f 51 4a be b4 95 58 be 95 45 84 be 84 60 f6 bd
       -0.19757508 -0.21150857 -0.25834337 -0.12030128
000230 cd f1 8d be 95 94 3e be 02 e9 39 bd 87 be 62 bd
       -0.27723542 -0.18611367 -0.04538823 -0.055357482
000240 d7 fa b7 be a3 87 b5 be 25 83 31 3e 36 96 b1 be
       -0.35933563 -0.35455045 0.17335184 -0.34684914
000250 a4 b4 5e be 26 3a a0 be 8b 89 87 be 74 1c 18 3e
       -0.21748596 -0.31294364 -0.26472124 0.14854604
000260 be f1 2c be 08 93 2f 3e 71 02 d0 be 20 82 ae bd
       -0.16889092 0.17145932 -0.40626863 -0.08520913
000270 78 a9 80 be 1d 83 14 be e5 d7 de bd b5 34 10 be
       -0.25129294 -0.14503141 -0.10881022 -0.14082606
000280 6e 1e 0b bf 69 ad 78 be d5 77 d7 be 1b b8 7b be
       -0.54343307 -0.242849 -0.42083612 -0.2458195
000290 04 fd 9c be d8 0f 94 be 66 5b f7 be 24 81 20 bf
       -0.30661786 -0.28918338 -0.4831192 -0.6269705
0002a0 ad f9 68 be fc 32 29 be 63 f5 86 be c5 68 15 be
       -0.22751494 -0.16523355 -0.2635909 -0.14590748
0002b0 b9 da 0a 3d 94 9d 3a be 51 4b 56 bd b4 be 5c bd
       0.033899996 -0.18224174 -0.05231792 -0.053892806
0002c0 b6 44 e1 be 4a a1 aa bd eb a3 35 bd ea e2 dc 3e
       -0.43997735 -0.08331545 -0.044345777 0.43141872
0002d0 88 c2 03 bf 77 d8 f0 bd 14 f4 31 be 06 f8 de bd
       -0.51468706 -0.117600374 -0.17378265 -0.108871505
0002e0 63 0a 65 3d 17 3b ac bd 23 0a 59 be 68 79 8d be
       0.05591811 -0.08409708 -0.21195273 -0.27631688
0002f0 79 10 94 be 03 83 d0 3e de 80 91 3d f1 f8 43 bb
       -0.28918818 0.40724954 0.071046576 -0.002990302
000300 77 9c 6f be fd d1 f2 be ec 38 b7 bd 76 f4 17 bf
       -0.2339953 -0.47425833 -0.08946404 -0.5935739
000310 6f d5 80 be 3a 15 13 bf fe dc 12 3f 69 c0 ff bd
       -0.25162837 -0.57454264 0.5736846 -0.12487871
000320 f6 b9 e6 be fd dc 9f be df 27 2a be 21 5c 6f bd
       -0.45063752 -0.31223288 -0.16616772 -0.05843747
000330 72 76 b6 bd 5f aa 38 be 99 ba f4 bd c8 10 69 be
       -0.089093104 -0.18033741 -0.11949653 -0.22760308
000340 7d 8c 91 be 9e f6 75 be 02 29 b7 3e 55 c8 dc be
       -0.28427497 -0.24019858 0.35773474 -0.4312159
000350 e2 49 41 be 02 ab 9d be a6 53 89 be 27 7a b6 bd
       -0.1887584 -0.3079453 -0.2682163 -0.089100175
000360 4f 77 97 3d 41 48 00 be b0 d5 e9 bc da 74 35 3e
       0.07395803 -0.12527563 -0.028544277 0.17720357
000370 aa aa 61 3e 74 f2 01 3f c8 c8 9c bd a0 fb fe 3d
       0.2203776 0.5076058 -0.076554835 0.124503374
000380 67 07 e5 be 82 b9 5e 3d 6e fa fa be 65 3f 28 be
       -0.4473221 0.054376133 -0.49019188 -0.16430433
000390 f0 66 76 be f3 5f a4 be 91 bc 66 be 55 1f 49 bd
       -0.24062705 -0.32104453 -0.2253287 -0.049102146
0003a0 99 42 8d bd a0 62 97 be 14 2d 23 be 43 af b2 be
       -0.06897468 -0.29567432 -0.15935165 -0.3489934
0003b0 18 39 f4 bd 07 c7 59 be e8 9b d8 3e 6b 08 ea be
       -0.11924952 -0.21267329 0.42306447 -0.45709547
0003c0 9d 7c 3c be 5e e7 15 be dc ce 50 bd f6 c0 51 be
       -0.18406911 -0.14639041 -0.050978526 -0.20483765
0003d0 33 18 a6 be 58 01 4e be 6c 62 bd bc 78 c9 8a bc
       -0.32440338 -0.201177 -0.02311822 -0.01694177
0003e0 e7 24 83 be 34 b7 4b be fb ec 5d be dc 83 86 be
       -0.25614092 -0.19894105 -0.21672432 -0.26272476
0003f0 61 6f c6 be 9f af 9a 3e 9c e0 3c be 10 87 59 3c
       -0.3875685 0.30212113 -0.18445057 0.01327683

fc2.weight f4 [256, 512]
000000 97 26 1b bd 9d a7 52 bd c0 0e 83 ba 60 fd 0e bc
       -0.0378786 -0.05142938 -0.0009998903 -0.0087274015
000010 35 50 a7 bc cc 9f f1 bc ef 87 2b 3d d6 78 aa 3c
       -0.020423988 -0.029495142 0.041877683 0.020809572
000020 d7 9c ee bc 78 96 da 3b c6 c0 91 bc 2d 38 9d bc
       -0.029127521 0.0066707693 -0.017792117 -0.019191826
000030 de 11 bd bb 51 f7 28 3d 6f 1f aa bc 4b c1 6b 3c
       -0.005769952 0.041251484 -0.020766942 0.014389346
000040 22 b6 a9 bc 5b 39 00 bd 60 92 0a bb 6f 87 07 3d
       -0.02071673 -0.0313047 -0.0021144375 0.033088144
000050 52 0f 09 bc 79 5a 4b bd ce 9a 8c bc b1 88 b1 bc
       -0.008365469 -0.04964683 -0.01716366 -0.021671625
000060 92 21 9f bc 0c 3a 9b 3c a6 07 05 bd 03 82 22 3b
       -0.019425187 0.018948577 -0.032477997 0.0024796731
000070 dc f6 89 3c 87 83 1d bd dc 8f 00 bd 7b 66 0e 3d
       0.016841345 -0.038455512 -0.031387195 0.0347657
000080 d3 e0 18 bd 07 3a 32 3d 03 e4 e2 3b 26 79 ac 3c
       -0.037323784 0.04351237 0.006924154 0.021053862
000090 c2 bc b9 3c a1 19 ed bb 33 9f e2 bb e8 a3 30 bd
       0.022673015 -0.007235721 -0.0069159507 -0.043125063
0000a0 79 fa 38 bd ef f7 90 3c 14 6c 23 bc 15 71 9b bc
       -0.045160744 0.017696349 -0.009974498 -0.01897482
0000b0 10 82 90 bc bb 1d 0c bc 68 8e 22 3c 0d f3 0a bd
       -0.017640144 -0.00855201 0.009921648 -0.033923198
0000c0 21 c7 34 bd 28 05 b3 bc 6e 09 00 bd bf 7b a3 3a
       -0.044135217 -0.021853045 -0.031258993 0.0012472792
0000d0 53 7e dc bc 17 25 ba 3c 16 49 51 bc f4 1f e9 3c
       -0.026915705 0.022722764 -0.012773773 0.02845762
0000e0 7c d3 57 bd 80 ae 6f ba 8c a4 ba bc 21 d7 09 3d
       -0.05269192 -0.0009143129 -0.02278354 0.03365243
0000f0 1c 7c 58 bd 84 60 2e 3c e1 de 15 3c 27 b6 3d bd
       -0.052852735 0.010643128 0.009147377 -0.046316292
000100 80 3b e6 39 a2 4e 26 bd 54 82 0e 3d b3 19 69 3c
       0.0004391335 -0.040602334 0.03479226 0.014227319
000110 43 bf 2e 3d 8e 92 8c 3c f5 ce fb bc 5c ab 6a bc
       0.04266287 0.017159726 -0.030738333 -0.014323082
000120 f3 b5 13 3c 01 cd 01 3d bf e0 1e bd 7c 63 0e 3c
       0.009015548 0.031689648 -0.038788553 0.008690711
000130 b6 39 8e 3c f8 81 fb 3c 46 f3 b7 3c c7 ed bb bc
       0.017361503 0.030701622 0.022454869 -0.02294053
000140 34 83 17 bd 94 b1 b6 bc 41 67 0c 3d ee 1a 07 bc
       -0.03699036 -0.022301473 0.034278158 -0.008246167
000150 b6 52 ed 3b 0b f3 69 bd fa 90 f2 bc 94 84 e8 ba
       0.007242526 -0.05711655 -0.029610146 -0.0017739707
000160 c3 6f d1 bc 88 c7 2a bc 66 e7 0c bd dd 0c 44 3c
       -0.025565987 -0.0104235485 -0.034400366 0.0119659575
000170 7e cb 69 bd 46 80 de 3c e4 64 2c 3c 70 89 80 bd
       -0.05707883 0.027160775 0.010522101 -0.06276214
000180 80 a2 35 3a fe 96 b5 3c e1 37 d1 3c dd 12 65 bb
       0.00069288164 0.022166725 0.02553934 -0.003495387
000190 0c 81 8a bc 44 b4 78 3c 60 30 c1 bc ca f1 c8 3c
       -0.016907237 0.015179697 -0.023582637 0.024529357
0001a0 18 b8 19 bc 7f e2 3d bd 07 ba 3a bd 4a 99 71 bc
       -0.00938227 -0.04635858 -0.045587566 -0.01474602
0001b0 22 27 9e bc 19 a0 b4 bc ed 85 ab 3c 2b d4 0e 3d
       -0.01930577 -0.022048997 0.020937884 0.034870308
0001c0 72 1f 89 3c 38 b3 82 bc 51 a1 3d bc 94 5f 06 bd
       0.016738627 -0.015954599 -0.011574105 -0.032805994
0001d0 51 e2 23 bd 48 61 df 3b ce 84 33 bd b8 f3 c3 3b
       -0.040010754 0.0068170168 -0.043827824 0.0059799813
0001e0 65 62 73 bd ee ba 16 bd a1 3a 1c bb cf 29 80 3c
       -0.05942001 -0.036799364 -0.0023838656 0.015644936
0001f0 c3 24 a4 3c 98 17 06 bd d4 87 12 3c c1 55 23 bd
       0.02003706 -0.032737345 0.008943517 -0.039876703
000200 70 ca b0 bc d0 da 02 3d f2 95 c5 bc 77 de fc bc
       -0.021580905 0.031946957 -0.024119351 -0.030867798
000210 ec de 1f bd 4a 0e c1 3c c8 7b 32 bd a8 a7 1e 3c
       -0.039030954 0.023566384 -0.04357508 0.009683527
000220 88 72 99 bc 45 ee 36 bc d4 1a 8b 3c 61 0b 57 bd
       -0.01873137 -0.011165206 0.016980566 -0.052501086
000230 00 68 93 bc e0 78 05 3c 81 03 2d bc 22 81 c8 bc
       -0.017993927 0.008146495 -0.010559917 -0.024475638
000240 1a 31 9a 3c 6d 37 1a 3d 4a 0d 83 bc 8a 82 a7 3c
       0.018822242 0.037650514 -0.015997548 0.020447988
000250 61 61 22 bd 6d f5 64 bc 1e f9 16 bd bf 68 b6 3c
       -0.03964365 -0.01397453 -0.03685867 0.022266744
000260 c0 71 41 3a a6 a2 95 bc b6 2a 4f bc 42 69 9d 3c
       0.0007379316 -0.018266033 -0.01264446 0.01921523
000270 ca 2b 09 bb 7c b8 5e bc 89 06 02 3d 52 d4 80 3c
       -0.0020930641 -0.013593789 0.031744514 0.015726242
000280 3b 0e 6c bd f3 9b a9 bb 9b 02 dd 3c f4 0a 16 bd
       -0.05763076 -0.0051760613 0.026978781 -0.03663154
000290 66 49 4d bd 73 f9 c4 bb 55 00 f8 bc c9 29 29 3d
       -0.050118826 -0.006011182 -0.030273596 0.041299615
0002a0 9f ad 28 3d c0 25 71 bb 43 87 78 bd 6c 5d 06 bd
       0.041181203 -0.0036796182 -0.06067587 -0.032803938
0002b0 10 2c 2c bd f9 93 4a bc 33 0a 33 3c 4b 5e 87 3c
       -0.04203421 -0.012364381 0.010927725 0.016524455
0002c0 aa fa 02 bd d3 42 9c bc 4b 96 58 3c 1d 3e 60 bc
       -0.031977333 -0.019074833 0.013219426 -0.013686684
0002d0 ce f9 87 3c ea a6 6b bc 68 be b5 3b a3 9d 1f 3d
       0.016598608 -0.014383057 0.00554638 0.038968693
0002e0 26 d9 5a bd ee 32 e1 3c 73 a4 20 3b d7 be 33 bd
       -0.053429745 0.027490105 0.0024512082 -0.04388317
0002f0 ee 00 df 3c 83 27 03 3d ec eb e6 3c a0 69 78 bb
       0.027222123 0.032020103 0.028188668 -0.0037904754
000300 b8 c4 70 bd bc 33 42 bc ee e2 eb bc 1e 93 b9 3c
       -0.058781356 -0.011853155 -0.028794732 0.022653159
000310 3a 7a d8 bc 42 ff a2 3b e0 2d 3e bd 2a 00 13 bd
       -0.02642547 0.0049742768 -0.04643047 -0.03588883
000320 ce fb 39 bd 18 2e fa 3b c4 45 44 bc 08 d0 1f 3c
       -0.045406155 0.0076348893 -0.011979524 0.009754188
000330 3f 99 ec 3c 88 13 cc 3b 63 6a 31 3d 2d 77 d3 bc
       0.028881667 0.0062279142 0.04331435 -0.025813663
000340 68 7a d9 bb a2 5c d4 b9 6a f2 09 3d df 7b d9 bc
       -0.0066369064 -0.00040504808 0.03367845 -0.026548324
000350 9b 29 1c 3d bf b8 52 bd 82 fe e6 3c 13 0f 22 bb
       0.038125616 -0.05144572 0.02819753 -0.0024728223
000360 3c c9 f5 bc 1b 34 76 3a 44 ef ff bc e3 3f 81 bc
       -0.030003183 0.00093919196 -0.03124202 -0.015777534
000370 98 0b 33 bd ed aa 02 3d 93 86 21 3d 12 47 24 bd
       -0.04371223 0.03190129 0.03943498 -0.04010684
000380 e4 13 95 bc c5 01 ae bb 86 a2 2f bd e3 cc 0b bd
       -0.018197961 -0.0053102695 -0.042879604 -0.034130942
000390 fa c4 f4 3c 7e 7d 69 bc c7 66 95 bb 6c 09 16 3c
       0.029879082 -0.014251111 -0.004559371 0.00915752
0003a0 29 26 e5 bc 2f d0 0d bd 4a 73 96 bc f0 83 e8 bb
       -0.027972298 -0.034622367 -0.018365521 -0.0070958063
0003b0 de dc 6b bc 8c a2 2c 3b 43 6c 40 bd d5 ab 0c bd
       -0.014395921 0.0026342003 -0.046978246 -0.03434356
0003c0 65 58 1c bd e1 6d 24 bd 63 02 90 3c f4 d7 44 bd
       -0.038170237 -0.04014385 0.017579263 -0.04805751
0003d0 60 ff 03 3c 08 7a 50 bd 9f df 86 bc ac 70 a6 3c
       0.008056492 -0.050897628 -0.016464053 0.020317398
0003e0 08 f9 4f 3c 84 c3 ce bc 25 b5 e6 bb 2b 22 c4 bc
       0.012693651 -0.025239713 -0.007040637 -0.023942074
0003f0 48 9c 0a 3c 29 62 23 bd 2d 9c ae bc a4 f4 bf 3c
       0.008460112 -0.039888535 -0.021314705 0.023432083
