data/predictor/PT/TNetwork-AF.pt (torch, 864583 bytes, 16 tensors)

conv1.bias f4 [64]
0	0xbcb55b12	-0.022138152
1	0xbe2dcbad	-0.16972227
2	0xbe5917c8	-0.21200478
3	0x3cd2ce73	0.025733208
4	0xbe150bef	-0.14555334
5	0xbda9cdf8	-0.082912385
6	0x3e8021bc	0.25025737
7	0xbda0425f	-0.07825159
8	0x3b6599d6	0.003503432
9	0x3d6ec4f1	0.058293287
10	0x3d5b9a6f	0.053614076
11	0x3bec70a6	0.007215577
12	0x3daa8bd0	0.08327448
13	0xbde3728e	-0.11105834
14	0xbda19b41	-0.078909405
15	0xbe12f90d	-0.14352818
16	0xbe618d51	-0.22026564
17	0xbe839a56	-0.25703686
18	0xbea0b8ed	-0.31391087
19	0xbe2ab33d	-0.16669936
20	0xbd4b6c94	-0.049664095
21	0xbe636d61	-0.22209693
22	0xbdd89a20	-0.10576272
23	0xbc97fca9	-0.018553095
24	0xbd22b869	-0.03972665
25	0xbd266005	-0.040618915
26	0x3e0bf4b5	0.13667567
27	0x3d0fb3ea	0.03508369
28	0xbdcc6c94	-0.09981647
29	0xbdbb0573	-0.09131899
30	0xbe166fc1	-0.14691068
31	0xbe4f7f69	-0.20263447
32	0xbb232825	-0.0024895754
33	0x00000000	0.0
34	0xbdd635e1	-0.10459495
35	0xbe8320ca	-0.25610954
36	0xbdcc1ce5	-0.09966449
37	0xbea8df7a	-0.32983
38	0x3c3d2cb1	0.0115463
39	0x3d249381	0.040179733
40	0x3e21f15e	0.1581473
41	0x3cb32941	0.021870257
42	0xbdd4bf49	-0.10388047
43	0xbe28ee31	-0.16497113
44	0xbe8f584f	-0.27997062
45	0xbc514c2d	-0.012774509
46	0xbe9dfbf8	-0.308563
47	0x3d289086	0.041153453
48	0x3e2f1dd3	0.17101221
49	0x3cb32ddd	0.021872455
50	0xbdcbc846	-0.099503085
51	0xbe698d5d	-0.22807832
52	0xbde9d0d8	-0.11416787
53	0xbe93876e	-0.28814262
54	0x3c50cc82	0.012744071
55	0xbdfb5e36	-0.12273829
56	0x3d6b5ba3	0.05746044
57	0xbe1827fe	-0.14859006
58	0xbdc54f4a	-0.09634264
59	0xbd76428f	-0.06012207
60	0x3dffa4d4	0.1248261
61	0x3d8777b6	0.0661463
62	0xbea3e9c3	-0.32014284
63	0xbdf1cf87	-0.11807161

conv1.lin.weight f4 [64, 6]
0	0xbd303395	-0.043017942
1	0x3c76bac7	0.01505918
2	0x3f013b11	0.50480753
3	0x3f3c9b38	0.73674345
4	0xbe70c7cd	-0.23513718
5	0xbd8cb58f	-0.06870567
6	0x3df2abfb	0.11849209
7	0xbe25cb0a	-0.16190735
8	0xbde40f70	-0.11135757
9	0xbea3b2f7	-0.31972477
10	0x3d92534c	0.07144794
11	0xbee1340d	-0.43985024
12	0x3e3217b7	0.17391859
13	0xbf2dac33	-0.6784088
14	0x3f1c46f7	0.61045784
15	0x3e5797a2	0.21053937
16	0xbdfe3780	-0.124129295
17	0x3f40e02f	0.75342077
18	0xbebca781	-0.36846545
19	0x3ed73393	0.42031536
20	0xbfe4a500	-1.7862854
21	0x3eca6060	0.39526653
22	0xbdc3e21c	-0.09564611
23	0x3fad67c5	1.3547293
24	0x3dfd95b6	0.12382071
25	0xbdbacb6c	-0.09120831
26	0xbe5e7c44	-0.21727091
27	0xbe28746e	-0.16450664
28	0xbdfb6a2a	-0.122761086
29	0xbed43c5c	-0.414523
30	0xbd63793a	-0.055535533
31	0x3e09d386	0.13459596
32	0x3eb48fb2	0.3526588
33	0x3f00bea7	0.5029091
34	0x3e520c91	0.20512606
35	0xbe9b0b1c	-0.30281913
36	0xbfb4d0ee	-1.412626
37	0xbd59da0f	-0.053186473
38	0x3e91d57d	0.2848319
39	0xbe51f484	-0.20503432
40	0xbd6e16f5	-0.058127362
41	0x3f8131dd	1.0093342
42	0xbd1e6e8e	-0.038679652
43	0x3d7aaa05	0.0611973
44	0x3efcee17	0.49400398
45	0x3e250cea	0.16118208
46	0xbc9cde90	-0.019149095
47	0x3fcf54d1	1.6197759
48	0xbf2b2b24	-0.668627
49	0xbe28ef51	-0.16497542
50	0xbd80f642	-0.0629697
51	0x3ee61a68	0.4494202
52	0xbe06402e	-0.1311042
53	0x3f4c6513	0.79841727
54	0xbd87238a	-0.065985754
55	0x3ba73c45	0.0051036202
56	0x3f7389b1	0.95131975
57	0x3d195804	0.037437454
58	0x3d978aaf	0.07399499
59	0xbd964fd3	-0.07339444
60	0xbde9a8c6	-0.11409144
61	0x3f0b57c4	0.54430795
62	0xbfdd39e9	-1.7283298
63	0x3f0b3941	0.5438424
64	0xbda2e68d	-0.0795413
65	0x3f8b0357	1.0860394
66	0xbeb3523c	-0.35023677
67	0xbf3c98d4	-0.736707
68	0x3e817448	0.25284028
69	0x3f09efae	0.5388135
70	0xbe5c4864	-0.2151199
71	0x3f92e6b9	1.1476661
72	0xbf89ed50	-1.0775547
73	0xbe3b1dc2	-0.1827307
74	0x3f0db8f4	0.5536034
75	0x3de56a1f	0.112018816
76	0xbe302496	-0.17201456
77	0x3f88a1d4	1.0674386
78	0x3d5e2473	0.05423398
79	0x3d84534d	0.06461201
80	0x3f27a3eb	0.65484494
81	0x3e7b1c26	0.24522457
82	0xbaa1a600	-0.0012332797
83	0xc00d8903	-2.2114875
84	0x3d937c34	0.07201424
85	0x3f1bff71	0.6093665
86	0x3ed847b9	0.4224222
87	0x3db544e9	0.08851034
88	0x3bc583ff	0.006027698
89	0x3f86b197	1.0522946
90	0xbdda897b	-0.106707536
91	0xbe2d9edf	-0.16955136
92	0x3e7e6e5c	0.24846786
93	0x3ed4b44f	0.41543815
94	0xbdff0940	-0.12452936
95	0x3fe7cc76	1.8109272
96	0x3e416933	0.18887787
97	0x3dc72742	0.09724285
98	0x3dfd6662	0.123730436
99	0xbf3dd52f	-0.7415342
100	0xbe8ea537	-0.27860424
101	0x3f686170	0.9077368
102	0x3e53a017	0.20666538
103	0x3de5afe0	0.11215186
104	0x3e041ed0	0.12902379
105	0xbf8639a8	-1.0486345
106	0xbe914085	-0.28369537
107	0x3f8042b0	1.0020351
108	0x3d2aecdd	0.041729797
109	0x3e52a22a	0.20569673
110	0x3e696d33	0.22795562
111	0x3e6e3fae	0.2326648
112	0x3d42e398	0.04758033
113	0xbf783601	-0.96957403
114	0x3d8d8fa1	0.06912161
115	0x3e4923a3	0.196425
116	0x3e0781b6	0.13233075
117	0x3f642e33	0.89132994
118	0x3d18dddc	0.037320957
119	0x3c26abb4	0.010172773
120	0xbe1d7935	-0.15378268
121	0xbe8961c4	-0.26832402
122	0xbe150c8e	-0.1455557
123	0xbe6be10b	-0.23035066
124	0x3d374c2c	0.044750378
125	0xbe09d985	-0.13461883
126	0x3dc07d92	0.09398951
127	0x3e7e5413	0.2483676
128	0x3d814aa2	0.06313063
129	0xc02a2dfa	-2.6590562
130	0xbe3d700a	-0.18499771
131	0x400acf89	2.168917
132	0xbeb656c7	-0.3561308
133	0xbebc8cc1	-0.36826137
134	0xbeef6329	-0.4675534
135	0x3f199ae2	0.6000196
136	0x3d8b1f66	0.06793098
137	0x3fb4067b	1.4064478
138	0xbf01acea	-0.5065447
139	0xbc16009d	-0.00915542
140	0x3f3b4291	0.7314845
141	0xbeb9c73b	-0.36284813
142	0xbe47e0be	-0.19519326
143	0xbf648dad	-0.8927868
144	0xbe8c76e4	-0.27434456
145	0xbd7a20d9	-0.061066482
146	0x3eda2136	0.42603463
147	0xbff0e191	-1.8818837
148	0x3e6940c8	0.22778618
149	0x40119c8e	2.2751803
150	0xbe71c3cf	-0.23609851
151	0x3e44ff48	0.19238007
152	0x3f100578	0.56258345
153	0xbd0ca168	-0.034333616
154	0xbcae0a94	-0.021245278
155	0x3fbe072f	1.4845942
156	0xbf8ff01b	-1.1245149
157	0x3dc989e5	0.098407544
158	0x3e99a11f	0.30005738
159	0xbe046e89	-0.12932791
160	0xbe273342	-0.16328147
161	0x3f6f8de6	0.93575895
162	0x3e2fbbca	0.1716148
163	0xbeaefd3c	-0.34177577
164	0xbf5ee4d7	-0.8706793
165	0xbf5b788c	-0.85730815
166	0xbe839df5	-0.2570645
167	0x3f5d5c64	0.864691
168	0x3dabd7f5	0.083908
169	0xbd0c5afc	-0.034266457
170	0x3f2da79c	0.67833877
171	0x3e528b77	0.20561014
172	0x3b65b0ea	0.0035048076
173	0xc00aad22	-2.1668172
174	0x3d66a599	0.05631027
175	0x3f2c5242	0.67313015
176	0xbfa57a3d	-1.2927929
177	0xbeebb4ff	-0.46036527
178	0x3d3f348e	0.04668098
179	0xbec4abd0	-0.38412333
180	0xbe91be48	-0.28465486
181	0xbe9c5242	-0.30531508
182	0xbe9683c2	-0.29397398
183	0x3f0df89f	0.5545749
184	0xbc9607a0	-0.018314183
185	0x3f918a24	1.1370282
186	0x3d706fa1	0.058700208
187	0x3ecdc35e	0.40188116
188	0xbf385ee9	-0.7201982
189	0x3d8b2e5c	0.06795952
190	0x3d2c07f6	0.04199978
191	0x3ed2e39c	0.41189277
192	0xbee8ee7e	-0.45494455
193	0x3f1d572f	0.61461157
194	0xbf18f25a	-0.597448
195	0x3ebe15c0	0.3712597
196	0x3eab8b48	0.335047
197	0x3f23f5df	0.64047045
198	0xbe142233	-0.14466171
199	0xbdee3034	-0.11630288
200	0xbcc04260	-0.02346915
201	0xbd833126	-0.06405859
202	0xbe6b1090	-0.22955537
203	0xbd767720	-0.0601722
204	0xbd871e4e	-0.06597577
205	0x3ea0de4c	0.314196
206	0x3e94bafc	0.29048908
207	0x3ed15a76	0.4088933
208	0xbe787782	-0.24264339
209	0xbe49cf41	-0.19707967
210	0x3e2c106a	0.16803136
211	0x3e0df149	0.13861574
212	0x3e3e2074	0.18567067
213	0x3e60989f	0.2193322
214	0x3d544f5b	0.05183349
215	0x3fd25bd6	1.6434276
216	0xbd93162d	-0.07181964
217	0x3ee638bf	0.4496517
218	0x3e4e1e67	0.20128785
219	0x3ea87569	0.32902077
220	0xbd94568a	-0.072430685
221	0xbf14369d	-0.57895833
222	0x3e4b88e5	0.1987644
223	0x3e7c5774	0.24642736
224	0xbf866bf0	-1.050169
225	0x3eaf7339	0.34267595
226	0x3dc38441	0.0954671
227	0x3fb282d3	1.3946174
228	0xbd52f71f	-0.051505204
229	0xbf27eb91	-0.6559382
230	0xbfdac817	-1.7092313
231	0x3f131be4	0.5746443
232	0x3e8327cb	0.25616297
233	0x3f5fa00d	0.87353593
234	0xbedc3212	-0.4300695
235	0x3e0b7e1e	0.13622329
236	0xbf5d2fea	-0.86401236
237	0x3e9ac309	0.30226925
238	0x3e883231	0.26600793
239	0xbe1fd890	-0.15609956
240	0xbf535692	-0.8255397
241	0xbde4acb0	-0.1116575
242	0xbc85ac13	-0.016317403
243	0x3e79c0e2	0.24389985
244	0xbe4362e6	-0.19080696
245	0x3f446e7e	0.767311
246	0x3e812715	0.2522513
247	0xbeb99f64	-0.36254418
248	0xbf3bf7f0	-0.734252
249	0xbf938f71	-1.152815
250	0xbd9006e1	-0.07032562
251	0x3ea81077	0.32825062
252	0x3e89b572	0.26896244
253	0xbe1149c7	-0.141883
254	0x3db8a28d	0.09015379
255	0xbec8f612	-0.39250237

conv2.bias f4 [64]
0	0xbe242e51	-0.16033293
1	0xbd4a2512	-0.04935176
2	0xbe8c6fc5	-0.27429023
3	0xbd35651d	-0.044285882
4	0xbdfc1281	-0.12308217
5	0x3c984b24	0.018590517
6	0xbe1004a1	-0.14064266
7	0x3b34e386	0.0027601435
8	0xbe196e18	-0.14983404
9	0x3d7532ad	0.05986278
10	0xbc755f70	-0.014976367
11	0xbe5c074d	-0.2148716
12	0xbe72586c	-0.23666543
13	0xbe309166	-0.17242965
14	0xbd9efba6	-0.07762842
15	0xbbb12ea1	-0.00540717
16	0xbdaff07b	-0.0859079
17	0x3d47a707	0.048743274
18	0x3e6f52fe	0.23371503
19	0xbc894729	-0.016757565
20	0xbe1ab4f9	-0.15108098
21	0xbd49dca5	-0.04928269
22	0xbd1edb16	-0.038783155
23	0xbe223f64	-0.15844494
24	0xbc07f2dd	-0.008297649
25	0xbd0195a2	-0.03163684
26	0xbdb2b382	-0.08725645
27	0xbc53f6a3	-0.012937221
28	0xbd2e92f3	-0.04262061
29	0xbdba3728	-0.090925515
30	0xbe3a7ed8	-0.1821245
31	0xbe5f039c	-0.2177872
32	0x3e1ae023	0.15124564
33	0xbd5c56e4	-0.053793803
34	0xbe941175	-0.2891957
35	0xbe4e6bf1	-0.20158364
36	0xbda168fb	-0.078813516
37	0xbe1549fb	-0.14579003
38	0xbe2ae8cf	-0.16690372
39	0xbe1fc06a	-0.15600744
40	0xbddc1cf7	-0.10747712
41	0xbdd636b5	-0.10459653
42	0x3d09671a	0.03354559
43	0xbe5aec91	-0.21379305
44	0xbccacdde	-0.024756368
45	0xbe11dc5f	-0.14244221
46	0xbd68755e	-0.056752555
47	0xbd253b8a	-0.040339984
48	0xbe5bceec	-0.21465653
49	0xbd060176	-0.032716237
50	0xbdcc4492	-0.09974016
51	0xbd251c2b	-0.040310066
52	0xbe340552	-0.17580155
53	0xbe01e82a	-0.1268622
54	0xbdd6ee7c	-0.10494706
55	0xbd290c4b	-0.04127149
56	0xbd0c5285	-0.034258384
57	0xbcc8ab50	-0.02449575
58	0xbd088a3b	-0.03333495
59	0xbd223e3e	-0.03961014
60	0xbd80f3ae	-0.06296478
61	0xbdea2e82	-0.11434652
62	0xbd6c527d	-0.057695854
63	0x3ce618c6	0.028087985

conv2.lin.weight f4 [64, 64]
0	0xbc7f0656	-0.015565475
1	0x3e073ec4	0.13207537
2	0x3f48d3c2	0.78448117
3	0x3fb592e1	1.4185449
4	0x3c922dcd	0.017844105
5	0xbeb1f3ea	-0.34756404
6	0xbf56739a	-0.83770144
7	0x3edf16db	0.43572125
8	0xbf5dfd19	-0.8671432
9	0x3d0e5c8f	0.03475624
10	0x3f026dbd	0.509487
11	0x3e895fb3	0.26830825
12	0xbd84f697	-0.06492346
13	0xbe699e50	-0.22814298
14	0x3cb4278e	0.021991517
15	0x3f2305f0	0.63680935
16	0x3f2356b5	0.6380418
17	0x3ef3b315	0.47597566
18	0xbebf91fe	-0.3741607
19	0x3e3b7a7d	0.18308444
20	0xbe353c4d	-0.17698784
21	0x3efabfa5	0.48974338
22	0xbf418d9e	-0.75606716
23	0xbf1eff70	-0.62108517
24	0x3f0bbcd8	0.5458503
25	0x3d9ba714	0.07600227
26	0xbf146f83	-0.57982653
27	0x3e85bf0f	0.2612233
28	0xbe849ec9	-0.25902393
29	0x3e72360a	0.23653427
30	0xbff6bc9d	-1.927631
31	0x3e841396	0.25796193
32	0x3e1c08e8	0.15237772
33	0xbde782c9	-0.11304242
34	0xbf3e74d2	-0.74397004
35	0x3f611411	0.87921244
36	0xbf35ef8f	-0.7106866
37	0x3ef603ea	0.4804986
38	0xbfc35d1d	-1.5262791
39	0xbd6d2dbe	-0.05790495
40	0xbfa60762	-1.2971003
41	0xbdb377e4	-0.08763102
42	0xbe67cec5	-0.2263747
43	0xbdcc350f	-0.099710576
44	0x3edfb83f	0.43695256
45	0xbfc16004	-1.5107427
46	0x3e3a8cba	0.18217745
47	0xbe1cbf96	-0.15307459
48	0xbf3efacb	-0.7460143
49	0x3daa7497	0.08323019
50	0x3d356e7d	0.044294823
51	0x3e2b1756	0.1670812
52	0x3fc4779b	1.5349001
53	0xc0fe91d1	-7.9553
54	0xbf4df7ac	-0.8045604
55	0xbe51307b	-0.2042865
56	0x3da180e8	0.07885915
57	0x3c89b5ce	0.016810324
58	0x3e52fd38	0.20604408
59	0x3d0e1ef6	0.034697495
60	0xbf8b7b02	-1.0896914
61	0xc000b7db	-2.0112216
62	0x3f2dafb4	0.67846227
63	0x3ee93105	0.4554521
64	0xbe1a9abe	-0.15098092
65	0xbe23a982	-0.15982631
66	0xbe3eedd4	-0.18645412
67	0x3d800ff7	0.06253045
68	0x3c7f970e	0.015599979
69	0x3e048f8a	0.12945381
70	0xbd8212ce	-0.06351243
71	0xbcb3189c	-0.02186232
72	0xbce87210	-0.028374702
73	0xbe316204	-0.17322546
74	0x3d92cf82	0.07168485
75	0xbd4fe087	-0.050751235
76	0xbd7a2711	-0.061072413
77	0x3e0e97bb	0.13925068
78	0xbca3c531	-0.01999149
79	0xbe156219	-0.14588203
80	0xbe5601c8	-0.20899117
81	0xbda1fafd	-0.079092
82	0xbe07404d	-0.13208123
83	0xbdcc776d	-0.09983716
84	0x3e478859	0.19485606
85	0x3da46aa3	0.08028152
86	0xbe2da52e	-0.16957542
87	0x3d3706de	0.044684283
88	0x3e0a0df2	0.13481882
89	0xbd640f08	-0.055678397
90	0xbddc3ec1	-0.10754157
91	0x3ca6b039	0.020347701
92	0xbdaf276a	-0.085524395
93	0xbd24a463	-0.040195834
94	0xbbcbcee2	-0.0062197307
95	0xbe08418f	-0.13306259
96	0xbe653031	-0.22381665
97	0xbd8e5480	-0.06949711
98	0xbdc55ee4	-0.096372396
99	0x3cc2bd1d	0.023771817
100	0x3ddcc912	0.107805386
101	0xbda2ed8e	-0.07955466
102	0xbdf06015	-0.11737076
103	0x3d8f87b4	0.07008305
104	0xbb9d86c0	-0.004807323
105	0xbc759575	-0.014989247
106	0xbd8dc5dd	-0.06922505
107	0xbe809d0d	-0.2511982
108	0xbe433f68	-0.19067156
109	0x3e3e6e4d	0.18596764
110	0xbe64fe52	-0.2236264
111	0xbe55e242	-0.20887092
112	0x3d5b5ea0	0.05355704
113	0xbdfc1016	-0.12307756
114	0x3dc784a8	0.09742099
115	0xbe45e5b1	-0.19325902
116	0xbdadcb68	-0.08486062
117	0x3d67eb84	0.05662109
118	0x3e444393	0.19166403
119	0xbe31f25f	-0.17377613
120	0x3d825df8	0.06365579
121	0x3d1ccc0b	0.038280528
122	0xbb9f0094	-0.004852364
123	0x3d4e3cc9	0.050350938
124	0x3d527a18	0.05138597
125	0xbde8b9eb	-0.11363586
126	0x3dbec79e	0.09315418
127	0x3d30f712	0.043204375
128	0x3cba9bb3	0.022779321
129	0xbabcd7fa	-0.0014407628
130	0xbe5303fb	-0.20606987
131	0xbef075a3	-0.4696475
132	0xbeb1e3f2	-0.3474422
133	0xbd193aa8	-0.037409455
134	0x3f18c3d1	0.5967379
135	0xbe11c0f2	-0.14233759
136	0x3edbe3e8	0.42947316
137	0xbe135a0f	-0.14389823
138	0xbe67c32d	-0.22633047
139	0x3eaf7705	0.34270492
140	0xbe3270bd	-0.17425819
141	0xbed27a07	-0.41108724
142	0xbf2510a1	-0.644785
143	0x3e7cd4f0	0.24690604
144	0xbec9a2eb	-0.3938211
145	0xbe4651aa	-0.1936709
146	0xbdb326b6	-0.08747618
147	0x3e0ab9c8	0.13547432
148	0x3e39d500	0.1814766
149	0xbe06c4b2	-0.13160971
150	0xbe199ae6	-0.15000495
151	0x3b45f9ff	0.0030208824
152	0xbe05e4ad	-0.13075514
153	0xbca90b4e	-0.020635273
154	0x3e94ef8a	0.29089004
155	0xbed62070	-0.41821623
156	0xbe097371	-0.13422944
157	0xbe367659	-0.17818584
158	0x3b9c223e	0.004764824
159	0xbf08067f	-0.5313491
160	0xbdce5c9e	-0.10076259
161	0x3e3be4f1	0.18349053
162	0xbe9c85d4	-0.30570853
163	0x3d22539a	0.03963051
164	0xbec0d125	-0.37659565
165	0xbe433855	-0.19064458
166	0xbd9410c5	-0.07229761
167	0xbe07ffa6	-0.13281116
168	0x3e885b73	0.2663227
169	0xbd6eda1c	-0.058313474
170	0xbe7baaee	-0.24576923
171	0xbe4ceb9a	-0.2001175
172	0xbb5b54a8	-0.0033467207
173	0xbeb2b925	-0.3490688
174	0xbf04e8ad	-0.51917535
175	0xbcfbeb92	-0.030751977
176	0xbebb2d21	-0.36557868
177	0xbf26f569	-0.65218216
178	0xbe617e62	-0.22020867
179	0xbebb299d	-0.36555186
180	0x3f27bdae	0.65523803
181	0x3f39fc86	0.72650945
182	0x3ddcc822	0.1078036
183	0xbe939ba5	-0.28829685
184	0xbdd1497e	-0.10219096
185	0x3ca2c523	0.019869393
186	0xbef0b10f	-0.47010085
187	0xbe03aee9	-0.12859692
188	0x3f50ad8a	0.815148
189	0x3d4e037a	0.050296284
190	0x3e6b4d34	0.2297867
191	0xbc0747ad	-0.008256835
192	0x3cfd5a5f	0.030926881
193	0xbe136407	-0.14393626
194	0x3e319d03	0.17345051
195	0xbd44a6b9	-0.04801056
196	0x3dcc2685	0.099682845
197	0xbe69d649	-0.2283565
198	0x3cff918b	0.03119733
199	0xbd259813	-0.040428232
200	0x3daeed51	0.08541358
201	0xbd8a48cf	-0.067521684
202	0x3c1aa758	0.009439312
203	0x3e15ff8e	0.14648268
204	0x3def59f8	0.11687082
205	0xbdd6334e	-0.10459004
206	0x3e3754bb	0.17903416
207	0xbcfd609b	-0.030929854
208	0xbd020564	-0.031743422
209	0xbe0697a2	-0.13143781
210	0x3e2c51ab	0.16828029
211	0xbd404d89	-0.046948943
212	0xbcdc3570	-0.02688095
213	0xbe3102d8	-0.17286241
214	0x3e26bca9	0.16282906
215	0xbe1e6929	-0.15469803
216	0xbb0c9a65	-0.002145433
217	0x3d956d02	0.07296182
218	0xbe82de95	-0.25560442
219	0x3c43274d	0.0119112255
220	0xbe2e4c80	-0.1702137
221	0xbe673327	-0.22578107
222	0x3d948c1e	0.07253288
223	0xbc341520	-0.010991365
224	0x3cfbb2ad	0.030724848
225	0x3e022e21	0.1271291
226	0xbe7bdf24	-0.2459684
227	0x3da584f0	0.080819964
228	0xbdc90110	-0.09814656
229	0xbe863ae3	-0.26216802
230	0x3dd2a834	0.102859885
231	0x3d64dc35	0.05587407
232	0xbe86c09b	-0.2631882
233	0xbe8e3114	-0.2777182
234	0xbdc11273	-0.09427347
235	0xbd505caf	-0.05086964
236	0xbe2aa009	-0.16662611
237	0xbe662b6b	-0.224775
238	0x3e1c0ac1	0.15238477
239	0xbbe94095	-0.0071182945
240	0xbdc9766e	-0.09837042
241	0xbe223b97	-0.15843044
242	0xbe4db124	-0.20087105
243	0x3d51ca61	0.051218394
244	0xbe7772ae	-0.2416484
245	0x3c949c00	0.018140793
246	0xbd78fa50	-0.06078559
247	0xbe439e52	-0.19103363
248	0xbde53672	-0.11192025
249	0x3d737aa5	0.059443135
250	0xbdf4a838	-0.11946148
251	0x3d544efc	0.051833138
252	0x3df99eeb	0.12188514
253	0xbe5a9c1b	-0.21348612
254	0x3d644955	0.055733997
255	0xbd67b335	-0.05656739

conv3.bias f4 [64]
0	0xbfd6f955	-1.679484
1	0x3bd4f5c3	0.0064990236
2	0x3d75573f	0.059897657
3	0xbe04838e	-0.12940809
4	0x3bdb21cd	0.006687379
5	0x3d801bfb	0.06255337
6	0xbbbeb807	-0.0058202776
7	0x3e108ca6	0.14116153
8	0xbd4b5257	-0.049639072
9	0xbe17431d	-0.14771695
10	0x3de5c865	0.11219863
11	0x3bec3498	0.007208418
12	0x3e06fa5b	0.1318144
13	0xbe6877b5	-0.22701915
14	0xbe21f63f	-0.15816592
15	0x3d28e57a	0.04123447
16	0xbd3924b7	-0.04520103
17	0xbd9d8ca5	-0.076928414
18	0xbb267cc9	-0.0025403968
19	0x3bddb199	0.006765556
20	0xbd88d644	-0.06681493
21	0x3e037053	0.12835817
22	0x3ccb1d0e	0.024794128
23	0x3e0483dc	0.12940925
24	0xbc5bb94e	-0.013410879
25	0x3e0ab133	0.13544159
26	0xbc9b2441	-0.018938186
27	0xbd75e270	-0.0600304
28	0xbc571696	-0.0131279435
29	0xbd79ad7a	-0.060956456
30	0x3c8e53c4	0.017373927
31	0x3b9888af	0.004654966
32	0xbd537324	-0.05162348
33	0x3c618218	0.013763927
34	0x3c837f30	0.016051859
35	0x3dccf02f	0.10006749
36	0x3d8e9296	0.06961553
37	0xbc85ac03	-0.016317373
38	0xbef770df	-0.483283
39	0xbcc3173f	-0.023814796
40	0xbdf26886	-0.118363425
41	0xbc06a359	-0.008217656
42	0xbe0b681b	-0.13613932
43	0x3d774e88	0.060377628
44	0x3d855392	0.065100804
45	0x3d1193f9	0.03554151
46	0xbd53762a	-0.051626362
47	0xbb0a4935	-0.0021100764
48	0xbd077892	-0.03307397
49	0x3cfd1191	0.030892165
50	0xbc2f3eab	-0.010696094
51	0xbe2c8eef	-0.168514
52	0x3e08f35c	0.13374084
53	0x3b8c6444	0.0042844135
54	0xbd8ea581	-0.06965161
55	0x3d989f2a	0.07452233
56	0xba2c42f7	-0.0006571258
57	0x3c9fe067	0.019516183
58	0x3de8252c	0.11335215
59	0x3cfc14a5	0.030771563
60	0xbe87f142	-0.26551253
61	0xbd0db414	-0.034595564
62	0xbc65b159	-0.014019334
63	0x3dc41535	0.095743574

conv3.lin.weight f4 [64, 64]
0	0xbffabd70	-1.9589062
1	0x3d8661a3	0.065615915
2	0xbfd96463	-1.698376
3	0xbe0f08d9	-0.13968219
4	0xbfaa5f6a	-1.3310368
5	0xbf8cd4be	-1.1002424
6	0xbfa95418	-1.3228788
7	0xbfec2bd2	-1.8450873
8	0xbf7c7898	-0.9862151
9	0xbfb065ae	-1.378103
10	0xbfce64aa	-1.612447
11	0xbe98611f	-0.29761598
12	0xc0008c72	-2.008572
13	0xbf961e9f	-1.1728095
14	0x3e0d2105	0.13782127
15	0xbfdba39e	-1.7159307
16	0xbf6ed2cf	-0.9329042
17	0xbf7abf1d	-0.97947866
18	0xc0173107	-2.3623674
19	0xbf893ad0	-1.0721073
20	0xc0263249	-2.5968192
21	0xbfa0df38	-1.2568121
22	0xbe63d96a	-0.22250906
23	0xbf8ce303	-1.1006778
24	0xbf56af87	-0.83861583
25	0x3e579c4f	0.21055721
26	0xbe38735d	-0.18012758
27	0xbfa227cc	-1.2668395
28	0x3dc22ecf	0.09481584
29	0xc0146822	-2.3188558
30	0xbf33c84d	-0.7022751
31	0xbf242c07	-0.6412968
32	0xc0115dd5	-2.271352
33	0x3cb65a2c	0.022259794
34	0xbfc1d2d6	-1.5142467
35	0xbfc3a836	-1.5285709
36	0xc0192933	-2.3931396
37	0xbfd46936	-1.6594608
38	0xc007191d	-2.1109078
39	0xbf8abb43	-1.0838398
40	0xbf073016	-0.5280775
41	0xbf8708ee	-1.05496
42	0xc020533e	-2.5050807
43	0xc0769624	-3.8529139
44	0xbfb159a6	-1.3855484
45	0xbf6d2daf	-0.9264783
46	0xbea77411	-0.3270574
47	0x3cf6d022	0.030128542
48	0xbff95eff	-1.9482116
49	0xbfd409ae	-1.6565454
50	0xbf04d115	-0.51881534
51	0xbf660d63	-0.89864177
52	0xbf415e3d	-0.7553442
53	0xbfcb75f1	-1.5895368
54	0xbe3f4024	-0.18676811
55	0xbfc2bf52	-1.5214636
56	0xbf050850	-0.5196581
57	0x3e26cc31	0.1628883
58	0x3dd38f25	0.10330037
59	0xbf8de7c8	-1.1086359
60	0xc00b0f15	-2.1727955
61	0xbff91c96	-1.9461849
62	0xbfbcab40	-1.4739761
63	0xbfa46557	-1.2843426
64	0x3f2750d9	0.6535774
65	0x3d548458	0.051884025
66	0xbe0cd5de	-0.13753459
67	0x3e0ddacb	0.13852994
68	0x3e868b8f	0.2627835
69	0xbdd3beb5	-0.10339109
70	0xbf0a6507	-0.54060405
71	0x3a6ac6ed	0.0008956034
72	0x3f1bf7ab	0.60924786
73	0xbcf77f3a	-0.030212034
74	0xbe364671	-0.17800309
75	0x3e91ccac	0.28476465
76	0x3f1315fc	0.5745542
77	0x3d53895d	0.05164467
78	0xbdc4f383	-0.09616759
79	0xbe154667	-0.14577638
80	0x3f0264a4	0.50934815
81	0x3e1a99f1	0.15097786
82	0xbe72d8de	-0.23715541
83	0xbdcf922a	-0.101353005
84	0xbe2a3cd6	-0.1662477
85	0x3e9fd6c8	0.31218553
86	0xbd243793	-0.040092062
87	0x3ef8f823	0.48626813
88	0x3c8d95e2	0.017283384
89	0xbd825d09	-0.06365401
90	0xbe3911d1	-0.18073203
91	0x3e58b02b	0.21160953
92	0xbdee5182	-0.1163664
93	0xbd85ce26	-0.0653346
94	0xbea763ce	-0.32693332
95	0x3b6166f5	0.0034393643
96	0xbe65b60a	-0.22432724
97	0x3da1c90b	0.07899674
98	0x3ec6cafc	0.3882674
99	0x3dbac0ab	0.0911878
100	0xbe8a83d5	-0.27053705
101	0x3f1291c4	0.5725367
102	0xbf4d3a04	-0.8016665
103	0x3d0d253a	0.03445933
104	0xbd87e96f	-0.06636321
105	0x3f5bfa59	0.85928875
106	0x3e0cb41a	0.13740578
107	0xbdef1fae	-0.11675964
108	0x3eb833d5	0.35977045
109	0x3d585c51	0.052822415
110	0x39e620cf	0.00043893463
111	0x3dddcb92	0.108298436
112	0xbe8c7091	-0.2742963
113	0xbebe9a5b	-0.3722714
114	0x3d8cf92a	0.06883462
115	0x3d8c6df0	0.068569064
116	0x3eb7211f	0.35767457
117	0x3f3a8c7a	0.728706
118	0x3c617273	0.013760197
119	0xbeb92264	-0.3615905
120	0xbd9c0574	-0.076182276
121	0x3d986a36	0.07442133
122	0xbd541505	-0.05177786
123	0xbc95b386	-0.01827408
124	0xbe13eb98	-0.1444534
125	0xbd7e961a	-0.062154867
126	0x3dc90f65	0.098173894
127	0x3e93a899	0.28839567
128	0x3da56204	0.080753356
129	0x3d744602	0.059637077
130	0x3d32e449	0.04367474
131	0xbd98122d	-0.07425342
132	0xbf10ae17	-0.5651564
133	0xbc3afdec	-0.011413079
134	0x3e90ebb7	0.28304836
135	0xbd9931e9	-0.07480223
136	0xbea0a979	-0.31379297
137	0xbd5e5453	-0.054279637
138	0x3da495cb	0.08036383
139	0xbe1532b2	-0.1457012
140	0xbef10795	-0.47076097
141	0xbf108c96	-0.5646452
142	0x3d1f1cc5	0.038845796
143	0xbe293c68	-0.1652695
144	0xbdc79819	-0.09745807
145	0xbe22b00a	-0.15887466
146	0x3e62cc9a	0.22148362
147	0xbdcef353	-0.10105004
148	0x3c3df3bc	0.011593755
149	0xbdc061df	-0.093936674
150	0xbd9db665	-0.077008046
151	0xbebbc6d4	-0.3667513
152	0xbef414d8	-0.47672153
153	0xbe33f3cc	-0.1757347
154	0xbddbd426	-0.107338235
155	0xbdc77799	-0.09739608
156	0xbde54f27	-0.11196738
157	0xbeb780c9	-0.35840443
158	0xbed3ed00	-0.41391754
159	0x3ea058d0	0.3131776
160	0x3d63a0d2	0.055573292
161	0xbd0e267c	-0.03470467
162	0xbf18fb22	-0.597582
163	0x3d9f1368	0.07767373
164	0xbc78bd4a	-0.015181849
165	0x3e3aa367	0.18226396
166	0x3f1edcf8	0.6205592
167	0x3ea02a93	0.31282482
168	0xbd23410c	-0.039856955
169	0xbe908c38	-0.28231978
170	0xbd0742b1	-0.033022586
171	0xbe44d9b1	-0.19223668
172	0xbde9f8fa	-0.11424442
173	0xbe7d8ff0	-0.24761939
174	0x3d7a2c14	0.061077192
175	0xbdfea6fa	-0.12434192
176	0xbde9dcfd	-0.11419103
177	0xbe0504d0	-0.12990117
178	0xbdd0606e	-0.101746425
179	0xbe852406	-0.26004046
180	0xbddc89c2	-0.10768463
181	0x3e89ab46	0.26888484
182	0x3c135cd6	0.008994302
183	0x3da78091	0.08178819
184	0x3dffe005	0.124939
185	0x3d512c2f	0.051067527
186	0x3dcd488c	0.10023603
187	0xbe9b79cd	-0.30366364
188	0xbd813d91	-0.06310571
189	0x3c583beb	0.013197879
190	0xbd6c75ed	-0.05772965
191	0xbda936fb	-0.0826244
192	0x3f5c6253	0.8608753
193	0x3e28f6ef	0.16500448
194	0x3c7d3468	0.015454389
195	0xbde76612	-0.11298765
196	0x3d81fd15	0.063471
197	0x3e8b8e2d	0.2725691
198	0x3f63e2f0	0.89018154
199	0x3e08ab78	0.1334666
200	0x3f775a98	0.9662261
201	0x3dc89eaf	0.097958915
202	0x3e88a03a	0.26684743
203	0x3d804d52	0.06264748
204	0x3f317cf3	0.6933128
205	0x3da4bc6a	0.0804375
206	0x3bc408d9	0.0059825
207	0x3e95ff48	0.29296327
208	0x3f36122e	0.7112149
209	0xbea5369b	-0.32268223
210	0x3d525a14	0.051355436
211	0xbed09867	-0.40741274
212	0xbe42d23c	-0.1902551
213	0x3c82ee3e	0.015982743
214	0xbd3cdd97	-0.046109762
215	0xbd807f3e	-0.062742695
216	0xbeef0322	-0.46682078
217	0x3dc0e4c9	0.09418637
218	0xbe85558f	-0.2604184
219	0xbdea530f	-0.114416234
220	0x3d805776	0.06266682
221	0xbe568394	-0.2094863
222	0x3e8696b2	0.26286846
223	0xbeee5ad2	-0.46553665
224	0x3d50999f	0.050927754
225	0xbe222aca	-0.15836635
226	0x3f150da7	0.58223957
227	0xbe1c1c34	-0.15245134
228	0x3e9094d4	0.28238547
229	0x3f0cdb65	0.5502227
230	0xbd10604a	-0.03524808
231	0xbdcb38b0	-0.09922922
232	0x3ddafc58	0.10692662
233	0x3f1460ea	0.5796038
234	0xbe0b268d	-0.13588925
235	0xbda7b5a4	-0.08188942
236	0x3d8100e2	0.062989965
237	0x3e70acc5	0.23503406
238	0xbe12fcb7	-0.14354216
239	0xbe37ada2	-0.1793733
240	0xbf2081c1	-0.6269799
241	0x3d833d51	0.064081796
242	0xbd2ff41a	-0.042957403
243	0xbed4116f	-0.4141955
244	0xbda3c744	-0.07996991
245	0x3f268891	0.65052134
246	0xbe60cbb9	-0.21952714
247	0x3ee6da3a	0.4508837
248	0x3e0576f9	0.13033666
249	0x3de14210	0.109989285
250	0x3d8ad5a0	0.06779027
251	0xbe43bcc6	-0.1911498
252	0x3e77371f	0.24142121
253	0x3d3b7c5c	0.045772895
254	0xbebcb9bb	-0.3686045
255	0x3e65ef8f	0.22454666

fc1.weight f4 [512, 64]
0	0x3e474315	0.19459184
1	0x3edddfdb	0.4333485
2	0xbe0f2d0c	-0.13982028
3	0xbf0ef539	-0.5584293
4	0xbeae7f8e	-0.34081692
5	0x3e395d06	0.18101892
6	0x3eb4e4bf	0.3533077
7	0x3f005d5a	0.50142443
8	0xbea125d2	-0.31474167
9	0x3eabff5e	0.33593267
10	0x3fadcb43	1.3577656
11	0xbe999c36	-0.30001992
12	0x3eb3c77c	0.35113132
13	0xbf005a9e	-0.5013827
14	0xbcd31de6	-0.025771093
15	0x3e249cc9	0.16075434
16	0xbe91bc85	-0.2846414
17	0xbd6ee6fe	-0.05832576
18	0x3cbef2e3	0.023309177
19	0xbe189451	-0.14900328
20	0x3e30c774	0.17263585
21	0xbe904ba0	-0.28182697
22	0xbeba27ce	-0.36358494
23	0x3f1b3ee2	0.60642827
24	0xbeb6d334	-0.3570801
25	0x3f85e6ce	1.0461061
26	0xbe919e72	-0.28441197
27	0x3e08f2bc	0.13373846
28	0x3f1126ab	0.5669963
29	0xbecb95d3	-0.39762744
30	0xbe5b180d	-0.21395893
31	0x3ee580ae	0.44824737
32	0xbe9324b1	-0.2873893
33	0xbeade41e	-0.33963102
34	0xbe9fceb6	-0.31212395
35	0xbef44542	-0.4770909
36	0xbdf79828	-0.120895684
37	0xbd93ff51	-0.07226432
38	0x3d52eeac	0.051497146
39	0x3ec9cdac	0.39414728
40	0xbe018e10	-0.12651849
41	0x3e936a43	0.2879201
42	0xbdc4f657	-0.09617298
43	0xbea34d36	-0.31894845
44	0xbedbf61f	-0.42961213
45	0x3e6f2fe1	0.23358108
46	0x3e86087b	0.26178345
47	0x3eda8d7a	0.42686063
48	0x3ea2b2f6	0.3177716
49	0x3e81cd15	0.25351778
50	0x3da59a4d	0.08086071
51	0xbec903a4	-0.3926059
52	0x3ed6fccb	0.4198974
53	0x3f113531	0.5672179
54	0x3e3127ab	0.17300288
55	0x3e9cb8b4	0.30609667
56	0x3f59188d	0.84803087
57	0x3f07d4a9	0.5305887
58	0x3ca0b973	0.01961968
59	0x3ddb7415	0.107155
60	0xbe8ef544	-0.27921498
61	0xbeb180c3	-0.3466855
62	0x3e46c685	0.19411667
63	0xbebe731f	-0.37197205
64	0x3dce7477	0.10080808
65	0x3d2eb767	0.042655375
66	0xbd174f59	-0.036940906
67	0x3e01959b	0.12654726
68	0x3db6bced	0.089227535
69	0xbda7fb77	-0.0820226
70	0x3d6c6a6f	0.05771869
71	0x3d5a93e7	0.053363707
72	0x3d638812	0.05554969
73	0xbd41c41f	-0.047306176
74	0x3dd19481	0.10233403
75	0x3df3ca9a	0.119038776
76	0xbd249c77	-0.04018828
77	0xbdd8b18a	-0.10580738
78	0xbdb832b9	-0.089940496
79	0xbd9b6883	-0.075882934
80	0x3b09c729	0.002102325
81	0x3d197029	0.03746048
82	0x3d1de9a7	0.038552906
83	0xbcdfbedc	-0.027312689
84	0xbd21c2a6	-0.03949227
85	0x3e0dd1a0	0.13849497
86	0xbdf2d37c	-0.11856744
87	0x3d40b76b	0.04704992
88	0xbdd30550	-0.10303748
89	0xbe1f6bf2	-0.15568522
90	0x3d093a64	0.03350295
91	0x3ce4edc0	0.0279454
92	0xbdb51c17	-0.08843248
93	0xbd8d511b	-0.06900235
94	0xbd546b26	-0.051859997
95	0xbdaeb890	-0.08531296
96	0xbcff803a	-0.031189073
97	0xbc32729f	-0.010891586
98	0x3d007dd4	0.03137
99	0xbc979956	-0.018505733
100	0xbb8772b3	-0.0041335463
101	0x3d8cc0ba	0.06872697
102	0x3d18cedd	0.037306655
103	0xbdc290ef	-0.095003
104	0xbd947064	-0.07247999
105	0x3b9b8961	0.0047466015
106	0x3d8ce255	0.06879107
107	0x3da3039d	0.079596736
108	0x3c7a8901	0.015291453
109	0xbd1171b6	-0.035508834
110	0x3c9015c6	0.017588507
111	0xbd20bfb9	-0.03924534
112	0x3d944690	0.07240021
113	0xbdd9e609	-0.10639579
114	0xbe189f3b	-0.14904492
115	0x3ddb249f	0.10700344
116	0xbe158968	-0.14603198
117	0xbce77d7e	-0.028258082
118	0x3d1f8237	0.038942542
119	0x3d79f1a2	0.061021455
120	0x3df6fbeb	0.12059768
121	0x3de3a0a8	0.11114627
122	0x3dd6a159	0.104799934
123	0xbc959842	-0.018261079
124	0x3b7d113e	0.0038615013
125	0xbd5f0980	-0.05445242
126	0x3e0964ea	0.13417402
127	0x3db5df75	0.08880512
128	0x3d816612	0.063182965
129	0xbda30102	-0.079591766
130	0xbd244137	-0.040101256
131	0x3d4cebf3	0.050029706
132	0x3d840c10	0.06447613
133	0xbd616f7b	-0.055037957
134	0x3d48e14c	0.049042985
135	0xbdcb0b46	-0.099142596
136	0x3da016fd	0.07816885
137	0x3d90da6f	0.07072913
138	0x3d405af4	0.04696174
139	0xbdaafdfd	-0.08349226
140	0x3baa00ef	0.0051880996
141	0x3d8d05e4	0.06885889
142	0x3d85c2ed	0.0653132
143	0xbbdea078	-0.0067940317
144	0xbdf8fc11	-0.12157453
145	0xbce6e9a7	-0.028187586
146	0x3d52c41e	0.051456563
147	0x3d96a49d	0.07355616
148	0x3d9a76ee	0.07542215
149	0x3bc83307	0.0061095986
150	0x3d8fb393	0.07016673
151	0x3df55c7d	0.11980531
152	0xbdb49a3b	-0.088184796
153	0xbddd1c6d	-0.107964374
154	0xbdb8da1b	-0.09025975
155	0x3d9fcdda	0.07802935
156	0xbddce290	-0.10785401
157	0x3cd1dd20	0.025618136
158	0xbcd6fdfe	-0.02624416
159	0xbd5a6b39	-0.05332491
160	0xbd8f0c15	-0.06984726
161	0xbdae622d	-0.08514819
162	0x3d1dc17b	0.038514595
163	0xbd9a5b98	-0.07537001
164	0x3da7cb9d	0.08193133
165	0xbe055a40	-0.13022709
166	0x3c26e451	0.010186271
167	0xbdf2f66c	-0.118634075
168	0xbd919b2a	-0.07109673
169	0xbd7fe7fa	-0.06247709
170	0xbd250eb6	-0.040297233
171	0xbcd48f0b	-0.025947114
172	0x3b0426d0	0.0020164736
173	0xbd1a7aa7	-0.037714627
174	0xbdfd092a	-0.123552635
175	0xbdffead0	-0.12495959
176	0x3d670099	0.056397054
177	0x3df3251d	0.11872313
178	0xbdb5fd2b	-0.088861786
179	0x3d06c64b	0.03290395
180	0x3d9110a0	0.07083249
181	0x3cb83890	0.022487909
182	0xbdc8e055	-0.09808413
183	0xbd909ebd	-0.07061527
184	0x3df1b2eb	0.11801704
185	0xbdfc707d	-0.12326143
186	0x3dffd4df	0.12491774
187	0x3dba949c	0.09110376
188	0x3cf6f612	0.030146632
189	0xbd6db500	-0.058033943
190	0xba6af6c3	-0.0008963162
191	0x3d899528	0.067179024
192	0x3d9bcf43	0.076078914
193	0x3f0e34bc	0.55549216
194	0x3e783d29	0.24242081
195	0xbe3945f7	-0.18093096
196	0x3ecabc08	0.3959658
197	0xbdb3635a	-0.08759184
198	0xbddea42e	-0.108711585
199	0xbe585c12	-0.21128872
200	0xbef0e794	-0.4705168
201	0xbd8c1beb	-0.068412624
202	0x3d9a8971	0.07545746
203	0x3bc2542b	0.0059304438
204	0xbf1c1a28	-0.6097741
205	0x3eb1038d	0.34573022
206	0x3ecd7b6a	0.4013322
207	0x3edb1648	0.42790437
208	0x3d6ac504	0.057316795
209	0xbe6dcfe1	-0.23223831
210	0xbd7e1ede	-0.062041156
211	0xbe390a2b	-0.18070285
212	0x3f1ee26a	0.6206423
213	0x3d651231	0.05592555
214	0xbe02a491	-0.1275809
215	0x3cc2fc92	0.023802076
216	0x3e742d20	0.23845339
217	0xbc2de787	-0.010614282
218	0xbe98bd26	-0.2983181
219	0xbd8a0691	-0.06739534
220	0xbda7776c	-0.08177075
221	0x3f8132cc	1.0093627
222	0x3e315c58	0.17320383
223	0x3d59e8a1	0.053200368
224	0x3c07b727	0.008283413
225	0xbecd647e	-0.40115732
226	0x3e87bfc8	0.26513505
227	0xbd9f43cd	-0.07776604
228	0xbd1a219c	-0.03762971
229	0xbe382ec5	-0.17986591
230	0xbcf86254	-0.030320324
231	0xbf11cb29	-0.5695062
232	0x3e94c015	0.29052797
233	0x3ee0fbe4	0.43942177
234	0x3e836308	0.25661492
235	0x3d6e2e18	0.058149427
236	0x3e35415f	0.17700718
237	0x3e0e7a4e	0.13913843
238	0xbccd3e97	-0.02505426
239	0x3e9373d2	0.287993
240	0xbe7a3236	-0.24433216
241	0xbc2e2f18	-0.010631345
242	0x3e1d9da1	0.15392162
243	0xbec79f8d	-0.38988915
244	0xbe80c171	-0.25147584
245	0x3e273bc3	0.16331391
246	0x3d3db4c0	0.046314955
247	0xbfc772b1	-1.5581876
248	0x3d3e91c5	0.046525735
249	0x3ddc98a0	0.107712984
250	0xbe2505be	-0.16115472
251	0xbe6f287e	-0.2335529
252	0x3eb1f79b	0.3475922
253	0x3f0b7349	0.54472786
254	0xbe7b4b71	-0.24540497
255	0x3e1d0ec9	0.15337671

fc1.bias f4 [512]
0	0xbd0eafaa	-0.034835495
1	0xbd869439	-0.0657124
2	0xbd3c5812	-0.045982428
3	0xbe51a770	-0.20474029
4	0xbd37bc6f	-0.04485744
5	0xbe63b80b	-0.22238176
6	0xbdaabaef	-0.08336436
7	0x3d9dfe54	0.07714525
8	0x3dce2bb2	0.10066928
9	0xbc831892	-0.016002927
10	0x3ce0438a	0.027375955
11	0xbdd3686e	-0.10322653
12	0x3c858d91	0.016302856
13	0xbe5d5e4b	-0.21618001
14	0x3d3be65c	0.045873985
15	0xbde383a1	-0.111090906
16	0xbc5d9db7	-0.013526372
17	0xbe3c838e	-0.18409559
18	0x3db365d1	0.08759654
19	0x3e2f96ab	0.17147319
20	0xbdd81fec	-0.105529636
21	0x3ca6b8e0	0.020351827
22	0xbd984b59	-0.074362464
23	0xbe7d380a	-0.24728408
24	0xbe0592fe	-0.13044354
25	0xbdfd48f0	-0.12367427
26	0xbe310af4	-0.17289335
27	0x3dc2e500	0.095163345
28	0xbb8d5921	-0.0043136035
29	0xbe0966f1	-0.13418175
30	0xbe04e4c0	-0.12977886
31	0xbe6db1cf	-0.2321236
32	0xbdad14d6	-0.0845124
33	0xbe07ea46	-0.13272962
34	0x3ad8b200	0.001653254
35	0xbe2d120d	-0.16901417
36	0xbbe0b341	-0.006857306
37	0xbe064796	-0.13113245
38	0xbec1477c	-0.3774985
39	0xbc9e6e51	-0.019339712
40	0x3aeeba81	0.0018213541
41	0xbd6ddca8	-0.058071762
42	0xbea374b7	-0.31924984
43	0x3dd1e1e2	0.10248162
44	0xbea11fce	-0.31469578
45	0xbe87651a	-0.26444322
46	0xbd7e54e5	-0.06209268
47	0x3ef5aaaa	0.4798177
48	0xbdf82f60	-0.12118411
49	0xbdc118fc	-0.094285935
50	0x3d3249ea	0.04352752
51	0xbd3978de	-0.045281284
52	0xbdf583c3	-0.11988022
53	0xbd9929a1	-0.07478643
54	0x3c1f164b	0.009709905
55	0xbea96e57	-0.33091995
56	0x3d766e30	0.060163677
57	0xbd30c57e	-0.043157093
58	0xbdb76c97	-0.08956259
59	0xbd7cfae4	-0.061762705
60	0x3e26a318	0.16273153
61	0xbc9a820d	-0.018860841
62	0xbe4608bd	-0.19339271
63	0xbd91cce5	-0.07119159
64	0x3e05ab60	0.13053656
65	0xbd681a18	-0.05666551
66	0xbe8e9922	-0.27851206
67	0xbe1f4fdf	-0.15557812
68	0xbdf30462	-0.1186607
69	0x3edd82f5	0.43263975
70	0xbcc2765e	-0.023738082
71	0xbb9d2295	-0.0047953823
72	0x3d0f8550	0.035039246
73	0xbba12b6f	-0.0049185078
74	0x3ade2c28	0.0016950415
75	0xbe166764	-0.14687878
76	0x3e001f0d	0.12511845
77	0xbe3d0ff9	-0.18463124
78	0xbce4ae71	-0.027915211
79	0xbd1bef77	-0.03807017
80	0x3d6836fc	0.056693062
81	0x3d86e019	0.06585712
82	0xbc36ad81	-0.011149765
83	0x38c62218	9.447726e-05
84	0xbd17f73c	-0.037101015
85	0xbd3a3eab	-0.04546992
86	0xbdd49e71	-0.10381783
87	0x3dded41b	0.108803
88	0xbdbab009	-0.09115607
89	0xbe519711	-0.20467784
90	0xbdbc514e	-0.09195195
91	0x3cdd00e3	0.026977962
92	0xbe429737	-0.19002996
93	0xbe30dae0	-0.17270994
94	0x3e8129d8	0.25227237
95	0x3c02dae7	0.007986761
96	0xbd7d2238	-0.06180021
97	0x3c2688ff	0.010164498
98	0xbd113a1c	-0.035455808
99	0xbde2a437	-0.11066478
100	0x3e53f8ed	0.20700426
101	0xbeea83f6	-0.45803803
102	0x3d52ba41	0.051447157
103	0xbe103a2a	-0.14084688
104	0xbe09da7c	-0.13462251
105	0x3cef243e	0.029192086
106	0x3e9b4ec9	0.30333546
107	0xbe0a01d4	-0.1347726
108	0xbdb037ba	-0.08604379
109	0xbd894352	-0.067022935
110	0x3e17c79b	0.14822237
111	0x3cb72e10	0.022360831
112	0xbd14d32c	-0.0363342
113	0xbd6f3857	-0.05840334
114	0x3d9c79b2	0.07640399
115	0x3d2c396f	0.04204696
116	0x3d98f953	0.0746943
117	0x3d8e8648	0.06959206
118	0xbe5d0674	-0.21584493
119	0xbd4550fe	-0.048172943
120	0xbcc20696	-0.023684781
121	0xbdb750dd	-0.0895097
122	0xbd0c1d1e	-0.034207456
123	0xbd1bd6e8	-0.038046747
124	0xbe38fdb8	-0.18065536
125	0xb99c487a	-0.00029808638
126	0xbe4a8eda	-0.19781056
127	0xbdf1f6f7	-0.11814683
128	0x3e210bf7	0.1572722
129	0xbe12a48e	-0.14320585
130	0xbcb05b50	-0.021527916
131	0xbe5b9eb5	-0.2144726
132	0xbe02e014	-0.12780792
133	0x3e12ca1b	0.1433491
134	0xbe8cf6a8	-0.27531934
135	0xbdac9d48	-0.084284365
136	0x3a542358	0.0008092425
137	0x3d79ec3f	0.061016317
138	0x3dacf9e4	0.084461
139	0xbea81321	-0.32827094
140	0xbe22c663	-0.15895991
141	0xbda8f6e6	-0.08250217
142	0x3d9ab9e2	0.075549856
143	0xbdf383f0	-0.118903995
144	0x3ba22006	0.004947665
145	0xbdec3784	-0.11534026
146	0x3d045cd0	0.032315075
147	0xbe1dd3ce	-0.15412828
148	0xbea926cb	-0.3303741
149	0x3e78f69f	0.24312828
150	0xbd83e34e	-0.06439839
151	0xbe2ae449	-0.16688646
152	0x3db7d48b	0.08976086
153	0xbd49dc4e	-0.049282365
154	0xbebc9982	-0.36835867
155	0x3e74d3f7	0.23908983
156	0x3d448520	0.04797852
157	0xbeb5347f	-0.35391614
158	0xbe8865de	-0.26640218
159	0x3d580237	0.052736487
160	0xbc94f2ab	-0.01818212
161	0xbe170285	-0.14747055
162	0xbd371ed5	-0.044707138
163	0xbe170be7	-0.14750634
164	0xbd054e5b	-0.03254543
165	0xbe0d3719	-0.1379055
166	0xbe050352	-0.12989548
167	0xbdbed620	-0.09318185
168	0xbdaa5c03	-0.08318331
169	0xbd1816ce	-0.037131123
170	0x3dd3739e	0.103247866
171	0xbde5fdef	-0.112300746
172	0xbc73cfb5	-0.014881064
173	0x3d935b1c	0.07195112
174	0x3eb82b19	0.3597038
175	0x3e195063	0.14972071
176	0xbd1f8938	-0.03894922
177	0x3d541840	0.05178094
178	0xbde839bd	-0.11339138
179	0xbd8c58f6	-0.068529055
180	0xbe06b4e3	-0.1315494
181	0x3e57c4de	0.21071193
182	0xbe49e9bd	-0.1971807
183	0xbd9cd62a	-0.07658036
184	0x3e51d115	0.20489915
185	0xbdece740	-0.11567545
186	0xbcc4d6d0	-0.024028212
187	0x3e0d192b	0.13779132
188	0xbdea9e76	-0.11456005
189	0xbd9437fc	-0.07237241
190	0xbef840e4	-0.48487008
191	0xbe51d9cc	-0.20493239
192	0xbc08a91e	-0.008341102
193	0x3eabc411	0.33548024
194	0xbd9a0d31	-0.07522047
195	0xbde6357e	-0.112406716
196	0xbe0ddb83	-0.13853268
197	0xbd9501a2	-0.07275702
198	0xbd6e33c2	-0.05815483
199	0xbe41455f	-0.18874119
200	0xbe53f487	-0.20698749
201	0xbe3edc1a	-0.1863865
202	0x3e173a7d	0.14768405
203	0xbe526783	-0.20547299
204	0xbcfb6ea9	-0.030692415
205	0xbc68ae30	-0.014201686
206	0xbd372f8c	-0.04472308
207	0xbead1521	-0.33805183
208	0xbe3ce0e8	-0.1844517
209	0x3d3498f3	0.044091176
210	0xbd50508c	-0.050858065
211	0xbd346f2c	-0.044051334
212	0xbd6c5a00	-0.05770302
213	0xbdb95f4c	-0.090513796
214	0xbe2de8e1	-0.16983368
215	0xbc8d3c50	-0.017240673
216	0xbc2b05fd	-0.010438439
217	0xbe6e3278	-0.2326144
218	0xbec79200	-0.38978577
219	0x3eb66eaf	0.3563132
220	0xbcf01e65	-0.029311368
221	0xbde28752	-0.110609666
222	0xbb6d67e6	-0.0036225258
223	0xbde36ce1	-0.111047514
224	0xbe06ed3d	-0.13176437
225	0x3f13ff3d	0.5781134
226	0x3d4866c0	0.048926115
227	0xbda11b81	-0.07866574
228	0xbcf2e698	-0.029650971
229	0xbf0ed648	-0.5579572
230	0x3ec0be12	0.37645012
231	0x3b89dd62	0.004207299
232	0x3d99a464	0.07502058
233	0x3cb5e4e5	0.022203872
234	0xbeb09aa4	-0.3449298
235	0xbdb2672d	-0.087110855
236	0xbe02c521	-0.12770511
237	0xbd74161b	-0.059591394
238	0xbe1575b7	-0.14595686
239	0x3d7715dd	0.060323585
240	0xbdae7036	-0.08517496
241	0xbe2580b0	-0.16162372
242	0x3c4ae5b1	0.012383864
243	0x3d34feaf	0.044188198
244	0xbcddc138	-0.027069673
245	0x3cb0bf9e	0.021575745
246	0x3e914e27	0.28379938
247	0xbde386b7	-0.11109679
248	0xbdc45a77	-0.09587567
249	0xbdfdb092	-0.12387194
250	0xbd99f485	-0.075173415
251	0xbddee3a8	-0.10883266
252	0x3e8aedda	0.2713459
253	0xbe56091e	-0.20901915
254	0x3ddca6b7	0.10773986
255	0x3e525f6f	0.20544218

fc2.weight f4 [256, 512]
0	0x3c25f5cb	0.010129402
1	0x3d16a149	0.036774907
2	0x3d20e8b7	0.039284434
3	0x3d0ee24b	0.03488378
4	0x3cc49261	0.02399558
5	0xbc6ef48a	-0.01458467
6	0xbc6f76aa	-0.014615694
7	0xbcd0dfb3	-0.025497293
8	0x3cc6c5b2	0.02426419
9	0x3b7fc8da	0.003902963
10	0x3c5b32f0	0.013378844
11	0x3ca1ae4e	0.019736435
12	0xbd0d6f59	-0.034530018
13	0xbc88068b	-0.016604682
14	0x3cadbc12	0.021207843
15	0x3d16b989	0.036798034
16	0xb8a844de	-8.023692e-05
17	0xbd7b95cb	-0.06142215
18	0x3cd4353b	0.025904289
19	0xbce902bd	-0.028443689
20	0x3d1b387b	0.03789566
21	0xbced821a	-0.028992701
22	0xbd5a67d9	-0.053321693
23	0xbd472c82	-0.04862643
24	0xbd1d1399	-0.038348768
25	0xbafbd200	-0.0019212365
26	0x3a4a9000	0.0007727146
27	0xbd471cf8	-0.04861161
28	0xbd4fce11	-0.05073363
29	0x3c9a55ed	0.0188398
30	0x3ca47b02	0.020078186
31	0xbd509af9	-0.050929043
32	0x3d02fba1	0.031978253
33	0xbd29b619	-0.041433427
34	0x3d269141	0.04066587
35	0xbbbb4542	-0.0057150433
36	0xbb62de16	-0.0034617237
37	0x3c09ae31	0.008403347
38	0x3ca4041a	0.020021487
39	0x3d08733d	0.033313025
40	0x3bff1e80	0.0077856183
41	0xbcda6c39	-0.026662933
42	0xbd865d00	-0.06560707
43	0xbb87af02	-0.0041407356
44	0x3b0197fe	0.0019774432
45	0xbcf98e52	-0.030463371
46	0xbd15049b	-0.036381345
47	0xbd15fdad	-0.036618877
48	0x3c0d8f41	0.008640111
49	0x39c91800	0.0003835559
50	0xbc2c1bd9	-0.010504686
51	0x3c7d875f	0.0154741695
52	0xbd58e81f	-0.052955743
53	0x3aaeb560	0.00133292
54	0xbafb4880	-0.0019171387
55	0xbb1bdd90	-0.0023783185
56	0xbd76ec19	-0.060283754
57	0x3cb8ef22	0.022574965
58	0x3bbced27	0.0057655754
59	0x3c4a141c	0.012333896
60	0xbcaa6afa	-0.020802964
61	0x3caa7e56	0.020812195
62	0x3d1acfab	0.037795704
63	0xbc8b6e21	-0.017020287
64	0xbc9c8bf4	-0.019109704
65	0xbd1780ed	-0.036988188
66	0x3c7e8bc8	0.015536256
67	0xbbcbe510	-0.0062223747
68	0xbcd0db21	-0.025495114
69	0xbd4e598f	-0.05037838
70	0x3c9f5126	0.019447874
71	0xbd29c14f	-0.04144412
72	0xbd16c180	-0.03680563
73	0xbc1e5b78	-0.009665363
74	0xbd0413f5	-0.032245595
75	0xbc3d4f1c	-0.011554506
76	0xbd0b8c48	-0.03406933
77	0xbb169aa9	-0.0022980368
78	0xbd0412aa	-0.032244362
79	0xbc5cd6a0	-0.013478905
80	0x3d24a63b	0.040197592
81	0x3c70b847	0.014692373
82	0xbd229ecd	-0.039702225
83	0x3c38d87c	0.011282083
84	0xbc322cc4	-0.010874931
85	0x3cb97bba	0.022642005
86	0xbd2804c5	-0.041020174
87	0x3d11a4c2	0.035557516
88	0xbce9bca0	-0.028532326
89	0xbd192a3e	-0.0373938
90	0xbc84dd71	-0.016218873
91	0xbc94d974	-0.018170096
92	0xbc4a7fc0	-0.01235956
93	0xbcff92ef	-0.031197993
94	0xbd4dc66a	-0.05023805
95	0x3ccb51ba	0.024819244
96	0x3c1c6784	0.009546164
97	0x3cd58801	0.026065828
98	0xbb5c2040	-0.0033588558
99	0xbd0de065	-0.034637827
100	0xbc265963	-0.010153147
101	0xbcb3db8d	-0.021955276
102	0xbced0fa4	-0.028938122
103	0xbd341f66	-0.043975256
104	0xbca78d49	-0.020453112
105	0x3c84c03c	0.016204946
106	0xbd023117	-0.031785097
107	0xbc112931	-0.008859918
108	0xbd2e86ef	-0.04260915
109	0xb99d7b00	-0.00030037016
110	0xbcbd75da	-0.023127485
111	0x3cd46e1e	0.025931414
112	0x3b06ea90	0.0020586587
113	0x3bbc1d87	0.0057408246
114	0x3ca0b255	0.019616285
115	0x3c4d973b	0.012548263
116	0xbd165ef5	-0.03671165
117	0xbd4941a2	-0.049134858
118	0xbbdb0090	-0.0066834167
119	0xbc8bf45d	-0.017084295
120	0xbca3866c	-0.019961558
121	0x3c9a1fb6	0.01881395
122	0x3c3ec992	0.011644738
123	0xbd3f5936	-0.046715938
124	0x3c0537f8	0.00813102
125	0xbc973d7f	-0.01846194
126	0xbc069803	-0.008214953
127	0xbb94f538	-0.004545834
128	0xbd6b104e	-0.057388596
129	0x3d2ea01d	0.042633165
130	0xbc965125	-0.01834924
131	0xbc977aa0	-0.01849109
132	0x3c980a97	0.018559737
133	0x3d480899	0.048836324
134	0xbc795c4b	-0.015219758
135	0xbce14fa3	-0.027503794
136	0xbcea2588	-0.02858235
137	0xbd391bbd	-0.04519247
138	0xbc1e089f	-0.00964561
139	0x3ce7e8eb	0.028309306
140	0xbbf5a800	-0.007496834
141	0x3d088149	0.03332642
142	0xbd2f9a39	-0.042871688
143	0x3c862597	0.016375346
144	0xbd5ce107	-0.05392554
145	0x3766f000	1.3764948e-05
146	0xbd1639f2	-0.036676355
147	0xbda2f0e2	-0.07956101
148	0xbcd3187e	-0.025768515
149	0xbcbceaae	-0.023061123
150	0x3a8cd620	0.0010744967
151	0x3cda10c2	0.026619319
152	0xbb25390f	-0.0025211012
153	0x3cbd92c6	0.023141276
154	0xbb681353	-0.0035411909
155	0xbcc3e1be	-0.023911353
156	0x3b7618fc	0.0037551513
157	0x3cc0a9ee	0.023518529
158	0x3c6fd73f	0.014638721
159	0x3c9e178a	0.019298334
160	0xbd1bfb61	-0.03808153
161	0xbc80c838	-0.015720472
162	0x3b643475	0.0034821306
163	0xbd61769e	-0.055044763
164	0x3cb37e80	0.021910906
165	0xbd3dd6a6	-0.046347283
166	0xbd31f007	-0.0434418
167	0x3d19b1e1	0.037523154
168	0xbc748601	-0.014924527
169	0xbd3fa24f	-0.04678565
170	0xbcaa0b60	-0.020757377
171	0xbb2d0c50	-0.0026405044
172	0x3c43b164	0.011944149
173	0x3d0fb11b	0.03508101
174	0xbcfb30ca	-0.030662913
175	0x3b3b7574	0.0028603943
176	0xbc8446b4	-0.016146995
177	0xbb716a23	-0.0036836944
178	0xbcdea148	-0.027176514
179	0xbd29ca5e	-0.041452758
180	0xbc0050c8	-0.00783176
181	0xbd66c5ee	-0.056341104
182	0xbd6448ea	-0.0557336
183	0xbc8f087c	-0.0174601
184	0x3c32dcba	0.010916883
185	0x3d068081	0.032837395
186	0x3cecd88a	0.028911848
187	0xbd234798	-0.0398632
188	0xba5db080	-0.00084567815
189	0x3c6624bc	0.014046844
190	0xbd86d729	-0.06584007
191	0x3cb1e0d2	0.021713648
192	0xbd23c634	-0.039983943
193	0xbd4b4ceb	-0.0496339
194	0xbd005b2f	-0.03133696
195	0xbcb5ac42	-0.022176865
196	0xbd2fd514	-0.042927817
197	0x3cc6b216	0.02425484
198	0xbc85d587	-0.01633717
199	0xbce7b97c	-0.028286688
200	0xbbef3e2e	-0.0073011136
201	0x3c4064e8	0.011742808
202	0x3c420bd2	0.0118436385
203	0xbc803933	-0.015652275
204	0x3ca7f864	0.020504184
205	0x3c940056	0.018066566
206	0x3c7955c7	0.015218205
207	0xbc72c655	-0.014817794
208	0xbd6a60ab	-0.057221096
209	0x3cf02dbe	0.029318687
210	0xbcbd2c05	-0.02309228
211	0x3d20ce47	0.03925922
212	0x3c950494	0.01819066
213	0x3ce4795a	0.027889896
214	0x3ccae162	0.024765674
215	0xbd18d19e	-0.03730928
216	0x3cab5dae	0.020918693
217	0xbd89d85d	-0.06730721
218	0xbd861213	-0.06546416
219	0xbca219f4	-0.019787766
220	0xbb888635	-0.0041663893
221	0xbd06fc83	-0.032955658
222	0xbcc57c15	-0.024107018
223	0x3c7d6294	0.015465397
224	0xbcc20d0d	-0.023687864
225	0xbd17a2da	-0.03702054
226	0xbc87e9f9	-0.016591059
227	0xbd210b38	-0.03931734
228	0xbc8da6da	-0.017291475
229	0xbcd6c8c2	-0.026218776
230	0xbd177e15	-0.036985476
231	0x3cc3d341	0.023904445
232	0x3ca92cb2	0.020651195
233	0xbb50c680	-0.0031856596
234	0x3cf5b39e	0.029992875
235	0x3a6a1e64	0.000893092
236	0xbd0af678	-0.033926457
237	0xbd203a3f	-0.039118048
238	0x3cc3732e	0.023858633
239	0x3cf5a4a2	0.02998573
240	0xbce66270	-0.02812311
241	0x3c4f85d8	0.012666188
242	0x3c5e23e8	0.013558365
243	0xbc94bd13	-0.018156564
244	0xbaeed2e0	-0.0018220805
245	0xbc2a25d8	-0.010384999
246	0xbc471eb0	-0.012153313
247	0xba34ad40	-0.00068922713
248	0xbc30c481	-0.010789038
249	0xbd27c1a2	-0.040956147
250	0x3c950588	0.018191114
251	0xbcadfc07	-0.02123834
252	0xbd4b2073	-0.049591493
253	0xbcf769aa	-0.030201752
254	0xbcd0bb73	-0.025480008
255	0xbcf99cae	-0.030470219
