data/predictor/PT/TNetwork-AF_2024-04-18_10-24-06.pt (torch, 865125 bytes, 16 tensors)

conv1.bias f4 [64]
-0.12235825 -0.3058066 -0.15325485 -0.108702675 -0.024171952 0.020905087 -0.20913018 -0.14920285
0.068889424 -0.0903362 -0.01958873 -0.12194068 -0.0798402 -0.22417042 -0.26678514 -0.091216125
-0.3096952 -0.046934813 -0.18940623 -0.15656224 -0.1175064 -0.22752331 -0.017363831 -0.0453834
-0.108631514 -0.23165578 -0.12501831 0.018060856 -0.050480556 -0.15990795 -0.15639001 -0.08635789
-0.14795026 -0.35896906 -0.038634032 0.13302076 -0.34992793 -0.34748337 -0.08691244 -0.026139233
-0.08192862 -0.20519146 0.30597866 -0.033942785 -0.020543357 -0.26432726 -0.013557826 -0.009803243
-0.027876873 -0.12788747 -0.1420285 -0.067426614 -0.10610845 -0.08065999 0.029931461 -0.13250752
-0.1623047 -0.11808584 -0.19373222 -0.067830615 -0.33855295 0.03743436 0.027275184 -0.023984792
00000000: f696 fabd af92 9cbe d7ee 1cbe 829f debd
00000010: 4204 c6bc 2541 ab3c 3926 56be a2c8 18be
00000020: e615 8d3d 3002 b9bd 8b78 a0bc 09bc f9bd
00000030: 4283 a3bd ee8c 65be 1098 88be 85cf babd
00000040: 5f90 9ebe b83e 40bd b5f3 41be da51 20be
00000050: 32a7 f0bd dffb 68be 983e 8ebc f2e3 39bd
00000060: 337a debd 2c37 6dbe cd04 00be 5cf4 933c
00000070: b3c4 4ebd e9be 23be b424 20be 68dc b0bd
00000080: 4680 17be cbca b7be b83e 1ebd 9836 083e
00000090: c129 b3be 57e9 b1be 26ff b1bd f221 d6bc
000000a0: 31ca a7bd b61d 52be 3ca9 9c3e 9707 0bbd
000000b0: 8b4a a8bc e755 87be a521 5ebc c89d 20bc
000000c0: 0a5e e4bc eff4 02be eb6f 11be f716 8abd
000000d0: 634f d9bd 1131 a5bd d332 f53c 0db0 07be
000000e0: 3433 26be fdd6 f1bd bd61 46be c7ea 8abd
000000f0: d056 adbe c554 193d 3570 df3c c17b c4bc

conv1.lin.weight f4 [64, 6]
0.04115664 -0.0011940527 0.09298483 -1.7182063 -0.007536159 2.125213 0.22217768 -0.63703275
-0.40936443 -0.7083425 -0.14594097 0.8565658 -0.30029768 0.1909962 -0.1897228 0.018593026
0.32014397 -0.8091955 0.018130707 0.049523383 0.81320906 0.106345735 -0.04248905 0.47108248
-0.5591005 -0.83841366 0.26056623 -0.6202642 0.18467303 -0.5775342 0.4420274 -0.80862075
0.08566034 0.21683925 -0.06522966 -2.0907102 0.053340513 0.019819625 0.17610675 0.025234142
-0.007378128 -0.19729237 0.06621683 0.38044462 -0.48427612 -0.16544883 0.034325145 0.60673547
-0.20659146 0.013286157 0.41405824 -3.331382 -0.17359844 2.0699282 -0.27447745 0.48507208
0.3447371 0.78166634 -0.011053475 0.24629727 0.00022733194 0.59240395 -1.6194354 -0.47447687
-0.11791976 -0.6266545 0.015460882 -0.15980452 0.09908861 0.07152949 -0.02424094 0.03998132
0.021252174 0.7641666 0.36625347 -2.2934585 0.10549279 1.7526698 0.14237675 -0.15441436
0.5263154 0.22935084 -0.051717877 -1.4304317 0.09893312 0.37279165 -0.12929699 0.33329234
0.023676787 0.37233937 -0.22593059 0.33579105 -0.22445334 0.45305642 -0.033038147 0.26971218
0.1327927 0.109792896 0.4045664 0.387426 0.009029124 0.22801924 -0.17975347 0.48359144
-1.4285697 -0.22961757 -0.039118636 1.3401604 0.11446632 -0.06033601 -0.44811183 -0.2129258
0.13571209 -0.088840306 0.12001569 -0.30242306 0.061956093 -0.019101867 -0.17120391 -0.094286986
0.07835453 0.0024627564 -1.2270563 0.61499995 0.005421561 1.4454079 0.11788454 0.131299
0.15651052 0.1802262 -0.08642134 2.5536048 0.39043733 -1.1679212 0.10677476 -1.2932241
-0.006822112 0.54743737 -0.46334794 0.63738704 0.03717605 0.044938862 -0.09978309 -1.650505
0.067730285 0.42703107 -0.5518568 0.61418295 0.020946842 -0.17350475 -0.00087951875 0.18251184
-0.2664733 -0.6447086 -0.27616456 0.28038558 0.2263579 -0.8128661 0.25706512 -0.27304348
-0.2026965 -0.069670394 -0.37002453 0.67323595 -1.4973091 0.7110291 -7.351648e-05 0.91139156
-0.5475528 -0.0015879114 -0.012169149 0.50923073 -0.039642062 1.086209 0.024831148 -0.43074325
0.13121682 -0.836725 0.10414131 -0.85209715 0.053191192 0.40187278 0.30044475 -0.29607993
0.011304172 -0.48293084 -0.25241154 -0.034902763 0.5176998 -3.0827854 0.042510822 2.3508801
0.087798744 -0.24261418 0.51501393 0.60473466 -0.1492977 -1.1027814 0.016451102 -0.10731481
0.15934329 0.32191557 -0.05931835 0.28768793 -0.4513386 0.55917704 0.03401733 0.14019024
-0.074911 0.6820376 -0.8155332 -0.5037698 0.7094541 0.197574 0.16882463 0.8571857
0.1294235 0.49637464 0.4842645 -0.7394685 0.15063861 -0.38835838 0.1697897 0.06918903
-0.3690409 0.3277815 -0.0052677062 0.5969924 0.036653522 -0.09745096 0.72467095 0.06834556
0.007572596 -2.1623816 -0.34805745 -0.73213625 -0.5645704 0.44039184 -0.12785727 1.1145995
-0.056801036 0.44135383 -0.712903 0.15483753 -0.042748537 0.6750275 -0.2692996 0.031010315
0.768582 -1.3372443 0.14827044 -0.56226945 -1.4005392 -0.2650878 0.4606089 0.6067249
00000000: dd93 283d c381 9cba d56e be3d 2fee dbbf
00000010: e2f1 f6bb 7d03 0840 8c82 633e 9414 23bf
00000020: 3798 d1be ef55 35bf 8d71 15be e547 5b3f
00000030: 9ec0 99be 8294 433e b246 42be 6750 983c
00000040: e9e9 a33e 7027 4fbf d986 943c 08d9 4a3d
00000050: 782e 503f cbcb d93d 0009 2ebd b931 f13e
00000060: 3621 0fbf 47a2 56bf f068 853e a2c9 1ebf
00000070: ed1a 3d3e 48d9 13bf 6a51 e23e c501 4fbf
00000080: b06e af3d 1c0b 5e3e 2197 85bd 32ce 05c0
00000090: 957b 5a3d c45c a23c 5455 343e d5b7 ce3c
000000a0: 39c4 f1bb 0307 4abe b09c 873d a3c9 c23e
000000b0: 0af3 f7be 6b6b 29be 8698 0c3d 0453 1b3f
000000c0: b68c 53be 2eae 593c 71ff d33e 5d35 55c0
000000d0: cac3 31be b479 0440 4f88 8cbe 5e5b f83e
000000e0: 6281 b03e 491b 483f a219 35bc 5a35 7c3e
000000f0: f45f 6e39 c9a7 173f a949 cfbf a2ee f2be
00000100: ea7f f1bd 6e6c 20bf a44f 7d3c cca3 23be
00000110: f8ee ca3d 0e7e 923d f094 c6bc 74c3 233d
00000120: 0a19 ae3c 6ca0 433f 9385 bb3e 06c8 12c0
00000130: 9b0c d83d 7c57 e03f 36cb 113e cc1e 1ebe
00000140: 9bbc 063f f2da 6a3e 20d6 53bd 6318 b7bf
00000150: 739d ca3d 8cde be3e 6e66 04be 4ba5 aa3e
00000160: d2f5 c13c 44a3 be3e 595a 67be ceec ab3e
00000170: 19d7 65be 03f7 e73e 0253 07bd b717 8a3e
00000180: cffa 073e 19db e03d 5423 cf3e b35c c63e
00000190: e4ee 133c e07d 693e 4b11 38be 4c99 f73e
000001a0: 5fdb b6bf de20 6bbe dd3a 20bd 608a ab3f
000001b0: 516d ea3d e422 77bd ea6e e5be 3909 5abe
000001c0: 1cf8 0a3e e8f1 b5bd c9ca f53d 32d7 9abe
000001d0: acc5 7d3d 857b 9cbc 1450 2fbe 8919 c1bd
000001e0: 5778 a03d 3266 213b 2e10 9dbf a370 1d3f
000001f0: 5aa7 b13b 2003 b93f 736d f13d 3f73 063e
00000200: 4b44 203e 388d 383e acfd b0bd 436e 2340
00000210: 67e7 c73e 717e 95bf baac da3d 5e88 a5bf
00000220: 068c dfbb db24 0c3f f13b edbe cc2b 233f
00000230: ea45 183d d011 383d 145b ccbd bf43 d3bf
00000240: 2db6 8a3d d1a3 da3e 7d46 0dbf 183b 1d3f
00000250: b698 ab3c 3bab 31be 818f 66ba 62e4 3a3e
00000260: 306f 88be 9f0b 25bf 7165 8dbe b38e 8f3e
00000270: 5eca 673e fe17 50bf 0a9e 833e 5bcc 8bbe
00000280: ac8f 4fbe 5aaf 8ebd db73 bdbe 3159 2c3f
00000290: d3a7 bfbf 0106 363f dc2c 9ab8 f550 693f
000002a0: 6c2c 0cbf 7721 d0ba 1c61 47bc f25c 023f
000002b0: b75f 22bd e608 8b3f b16a cb3c 618a dcbe
000002c0: b45d 063e 9c33 56bf 0a48 d53d 0a23 5abf
000002d0: 02df 593d 45c2 cd3e e5d3 993e ca97 97be
000002e0: 2235 393c b642 f7be 163c 81be 33f6 0ebd
000002f0: f987 043f 5b4c 45c0 d41f 2e3d d274 1640
00000300: d4cf b33d da6f 78be f4d7 033f e4cf 1a3f
00000310: 7fe1 18be f127 8dbf 76c4 863c dec7 dbbd
00000320: e32a 233e 1ed2 a43e ccf7 72bd d54b 933e
00000330: da15 e7be 3a26 0f3f c155 0b3d 088e 0f3e
00000340: f06a 99bd 049a 2e3f c9c6 50bf 0ff7 00bf
00000350: c99e 353f d750 4a3e 5de0 2c3e 8670 5b3f
00000360: 9887 043e d124 fe3e 84f1 f73e cf4d 3dbf
00000370: 0241 1a3e e9d6 c6be 5add 2d3e fab2 8d3d
00000380: eef2 bcbe fad2 a73e b99c acbb 7ed4 183f
00000390: 0122 163d 5e94 c7bd 0984 393f c2f8 8b3d
000003a0: 8a23 f83b 7664 0ac0 9634 b2be 486d 3bbf
000003b0: b087 10bf 0a7b e13e 04ed 02be 32ab 8e3f
000003c0: 34a8 68bd 21f9 e13e d080 36bf bb8d 1e3e
000003d0: 1719 2fbd 9ace 2c3f a3e1 89be 5809 fe3c
000003e0: cac1 443f d22a abbf 35d4 173e e4f0 0fbf
000003f0: de44 b3bf 97b9 87be eed4 eb3e 5352 1b3f

conv2.bias f4 [64]
-0.06793232 -0.28865063 -0.26481104 -0.25304613 -0.058269396 0.29383343 -0.06722727 0.021636909
-0.26005235 -0.04393263 0.00034027966 -0.12699655 -0.18424325 -0.0342214 -0.1963237 0.32320935
-0.2443764 -0.2060454 -0.070663355 0.016777014 -0.08025994 -0.14108285 -0.032924335 -0.055266093
0.036213126 -0.01951264 -0.23091784 -0.18997209 -0.10003515 -0.0200581 -0.22313951 -0.072397426
-0.06125112 -0.25984803 -0.25386456 0.057471722 -0.11109393 -0.17029613 -0.17456836 -0.03168044
-0.25236088 -0.12511013 -0.34039798 -0.14135423 -0.011797 -0.10706952 -0.1086493 -0.094159916
-0.15565729 -0.25122178 0.23554787 -0.16945092 -0.41234368 -0.054093793 -0.3206195 -0.2190071
-0.12907319 -0.07866489 -0.069573104 -0.11820447 0.018052049 -0.24232891 -0.08156407 -0.2723537
00000000: 1a20 8bbd 04ca 93be 5095 87be 438f 81be
00000010: e4ab 6ebd 5671 963e 73ae 89bd e33f b13c
00000020: 9525 85be b4f2 33bd 9067 b239 620b 02be
00000030: 43aa 3cbe bd2b 0cbd 1409 49be b27b a53e
00000040: cf3d 7abe 91fd 52be f3b7 90bd f36f 893c
00000050: 535f a4bd 0678 10be abdb 06bd b35e 62bd
00000060: 3754 143d f9d8 9fbc ba75 6cbe 0b88 42be
00000070: 3bdf ccbd e250 a4bc af7e 64be 1a45 94bd
00000080: 74e2 7abd cd0a 85be 89fa 81be 7867 6b3d
00000090: 3785 e3bd 1c62 2ebe 0cc2 32be 59c3 01bd
000000a0: 7235 81be df1c 00be a548 aebe 2abf 10be
000000b0: 3448 41bc 4447 dbbd 8683 debd ead6 c0bd
000000c0: a064 1fbe 24a0 80be 7633 713e 8b84 2dbe
000000d0: b61e d3be 7491 5dbd 3d28 a4be 6643 60be
000000e0: c32b 04be 0f1b a1bd 587c 8ebd 2f15 f2bd
000000f0: e4e1 933c 1225 78be 100b a7bd f271 8bbe

conv2.lin.weight f4 [64, 64]
1.6110612 -1.6374687 0.16453888 0.28288743 -0.18097559 -0.3976244 -0.16947882 -0.21938756
0.79924524 0.30847007 -0.2318325 0.064440995 0.5130201 0.08799467 -0.13185838 0.28273696
0.0071494244 -0.36347702 -0.00901407 0.121256806 -0.26410463 0.935792 -0.17048654 0.07997512
0.22479193 -0.112333454 -0.104845576 0.17785577 -0.8353519 -0.196226 -0.11166411 1.3061947
-0.11221612 -0.0794039 0.13829231 -0.22462846 0.16917738 -0.008739161 0.09628319 -1.7374601
0.028750237 0.96801287 -0.60630345 -1.3089087 0.04007838 -0.0960416 -0.095903724 0.564728
-1.0315866 -0.6446969 -0.27018905 0.18178953 0.3131745 0.27813625 0.3188403 0.6385758
0.62015307 -0.33933404 1.1613771 -0.8157307 -0.24306059 0.034289308 -0.17158344 -0.03066726
-0.5709435 -0.31759623 -0.3171171 -0.47806135 1.5725672 0.03437238 -0.091632254 -0.13828413
-0.73142475 0.06267641 -0.24492452 -0.046947625 -0.475022 -0.2595836 0.85687363 -0.045454927
-0.09029573 -0.29052952 -0.18309781 -0.43437752 0.36329058 0.44177312 -0.5277751 -0.22981821
0.15968235 -0.67330945 -0.47582543 0.43266883 0.48233145 -0.49830946 2.3097658 -0.20087959
0.20775524 0.1580266 -0.06083802 0.17289974 4.471197 0.1924492 -0.5825279 0.89332104
-0.043900184 2.8112285 0.4657837 0.47345084 -0.3853407 -0.11833951 -0.81044656 -0.7657388
0.4222545 0.20516422 -0.5786561 -0.70094526 0.30859065 0.13823958 0.42443752 0.046665262
0.32599458 0.027849296 -0.38431245 0.798227 0.17519419 -0.7590194 0.08274535 0.13056193
0.6016767 -1.7559154 -0.24019547 0.14047313 0.35408047 0.15922943 -0.12579602 0.590269
0.4289718 -1.2404752 1.0445092 0.16584024 -0.091060236 0.29212773 -0.077846184 -0.23226736
0.19226797 0.5827865 -0.14254187 -0.12855749 0.14917673 0.5107726 0.07158587 -1.7545722
0.7682894 -0.35258624 0.24482915 -0.49280855 -0.8740919 0.29751107 -0.761032 0.81594795
0.33433184 0.17552151 -1.0184364 -0.10282784 -1.5156621 -0.6387516 -0.17932224 -2.4188337
0.5162274 -0.45138493 -0.40241575 -0.45263758 -0.0025206592 0.06668967 -0.14413808 0.091223344
-0.3781925 0.35684153 -0.22273798 -0.22904815 0.35388243 -0.5972779 0.23056844 0.33766013
0.5361326 0.9030421 0.26105323 -0.83311063 0.2386233 -0.22325125 -1.3803381 0.07170282
0.7002102 -0.80183417 0.17110908 -0.057054643 -0.77164805 0.038208235 0.01265693 0.57876676
0.31200188 -0.21525775 1.5573475 0.08656999 0.17544593 0.1679389 0.7404452 0.51827663
-0.28374743 -1.9650277 -0.23097321 -0.18848594 -0.75813967 0.35764277 -0.058223244 -1.2531052
1.1977983 0.07641109 -0.32236743 -1.9247583 -0.68413717 0.006300795 -0.4842398 0.8650264
0.23694319 -0.09435153 -0.6585882 -0.40686572 -0.6159428 -0.069340155 -0.12853217 -1.3608824
0.64738345 0.8949875 -1.4034851 -1.3887713 0.1592948 0.2180998 -0.07198319 0.07894263
-0.78510076 0.80864424 0.011310889 -0.14312245 0.48420492 -0.028510762 -0.04505601 0.6293834
0.3006576 0.78878236 0.6002436 -0.5100505 -1.0909015 -0.028412564 -0.9978923 -0.048503295
00000000: 4137 ce3f 9398 d1bf e17c 283e 9fd6 903e
00000010: aa51 39be 6d95 cbbe db8b 2dbe 22a7 60be
00000020: 569b 4c3f caef 9d3e 8065 6dbe a4f9 833d
00000030: 4955 033f 8d36 b43d e205 07be e6c2 903e
00000040: b845 ea3b a919 babe c0af 13bc 7d55 f83d
00000050: b938 87be 1190 6f3f 0694 2ebe ffc9 a33d
00000060: db2f 663e 150f e6bd 47b9 d6bd d31f 363e
00000070: 9fd9 55bf 78ef 48be 27b0 e4bd 6331 a73f
00000080: 91d1 e5bd 839e a2bd 809c 0d3e 0105 66be
00000090: d63c 2d3e b32e 0fbc 1f30 c53d 1865 debf
000000a0: 9e85 eb3c b1cf 773f b436 1bbf 528a a7bf
000000b0: 3a29 243d 75b1 c4bd 2c69 c4bd 0492 103f
000000c0: 080b 84bf db0a 25bf 3856 8abe 0927 3a3e
000000d0: 6858 a03e e067 8e3e 093f a33e b479 233f
000000e0: 5ac2 1e3f 31bd adbe 01a8 943f bad3 50bf
000000f0: e0e4 78be f272 0c3d 92b3 2fbe e839 fbbc
00000100: 5a29 12bf f99b a2be 2c5d a2be 75c4 f4be
00000110: e249 c93f 0dca 0c3d b1a9 bbbd 5b9a 0dbe
00000120: a73e 3bbf 7d5c 803d 7ecd 7abe 274c 40bd
00000130: 1536 f3be 24e8 84be 125c 5b3f f22e 3abd
00000140: f8ec b8bd 49c0 94be fe7d 3bbe bb66 debe
00000150: 3901 ba3e 1630 e23e 451c 07bf 7755 6bbe
00000160: c583 233e 025e 2cbf 649f f3be c586 dd3e
00000170: 26f4 f63e 6b22 ffbe 34d3 1340 61b3 4dbe
00000180: cabd 543e bad1 213e 4a31 79bd a10c 313e
00000190: 0c14 8f40 6711 453e 8c20 15bf b0b0 643f
000001a0: aed0 33bd 2beb 3340 337b ee3e 2668 f23e
000001b0: 604b c5be fc5b f2bd 6d79 4fbf 7507 44bf
000001c0: be31 d83e 9216 523e ce22 14bf 2671 33bf
000001d0: 98ff 9d3e ad8e 0d3e e04f d93e 1324 3f3d
000001e0: c3e8 a63e 3524 e43c 9ac4 c4be 9b58 4c3f
000001f0: 1b66 333e 184f 42bf 6576 a93d 07b2 053e
00000200: 7c07 1a3f d6c1 e0bf cdf5 75be 30d8 0f3e
00000210: 094a b53e 0a0d 233e acd0 00be df1b 173f
00000220: 31a2 db3e e4c7 9ebf 7ab2 853f 06d2 293e
00000230: ca7d babd c491 953e d26d 9fbd 7fd7 6dbe
00000240: e5e1 443e 7f31 153f 7ff6 11be 93a4 03be
00000250: c9c1 183e fec1 023f 9d9b 923d d295 e0bf
00000260: 9dae 443f 2f86 b4be 7eb4 7a3e 6751 fcbe
00000270: 7dc4 5fbf 5f53 983e fed2 42bf f7e1 503f
00000280: 8b2d ab3e e9bb 333e 205c 82bf 6797 d2bd
00000290: 3701 c2bf 3a85 23bf 40a0 37be 2cce 1ac0
000002a0: 7b27 043f ed1b e7be 7009 cebe 1dc0 e7be
000002b0: a531 25bb 9894 883d ef98 13be 4ed3 ba3d
000002c0: 73a2 c1be efb3 b63e 6d15 64be 998b 6abe
000002d0: 1430 b53e 34e7 18bf 221a 6c3e cae1 ac3e
000002e0: fc3f 093f c42d 673f c5a8 853e bd46 55bf
000002f0: ab59 743e fa9b 64be ebae b0bf eed8 923d
00000300: fa40 333f 0145 4dbf 3837 2f3e 21b2 69bd
00000310: ba8a 45bf 3d80 1c3d 035f 4f3c 0f2a 143f
00000320: b6be 9f3e 876c 5cbe 2a57 c73f 9b4b b13d
00000330: 19a8 333e 2df8 2b3e d18d 3d3f c7ad 043f
00000340: 5847 91be 0786 fbbf 3e84 6cbe 7502 41be
00000350: 7115 42bf f41c b73e 7f7b 6ebd c065 a0bf
00000360: 7451 993f 6b7d 9c3d 580d a5be 7b5e f6bf
00000370: 9d23 2fbf e676 ce3b 47ee f7be 5f72 5d3f
00000380: 3ca1 723e 603b c1bd 3c99 28bf b450 d0be
00000390: 6dae 1dbf 3602 8ebd f09d 03be 6531 aebf
000003a0: ecba 253f e71d 653f 66a5 b3bf 42c3 b1bf
000003b0: 2d1e 233e 8e55 5f3e ec6b 93bd acac a13d
000003c0: 5dfc 48bf 4f03 4f3f 4f51 393c b18e 12be
000003d0: b5e9 f73e 678f e9bc a78c 38bd 451f 213f
000003e0: cbef 993e a4ed 493f 91a9 193f ab92 02bf
000003f0: a9a2 8bbf 77c1 e8bc df75 7fbf 64ab 46bd

conv3.bias f4 [64]
-0.03367154 0.178174 -0.046435107 0.053228617 0.015158848 0.001370817 0.1530735 -0.12869427
0.05213605 0.045829967 0.07364168 -0.17752019 -0.040894426 -0.09397394 -0.05741638 0.15694693
0.017936286 -0.07358748 -0.021092935 0.032252192 -0.026320219 -0.09300823 -0.09580639 -0.031763755
-0.13143273 -0.010434296 2.0854776 0.08455802 0.15352449 0.082992956 0.10403879 -0.11505986
-0.010929182 -0.055214737 0.048263982 -0.018784737 -0.08330172 0.04048269 -0.11728814 -0.072369196
0.32741782 -0.12697671 0.16770855 -0.15492721 0.01996549 -0.04577434 0.037304293 0.20279917
0.026780715 0.07261429 -0.0037757298 0.10042568 -0.0587786 -0.07097544 -0.011866 -0.12903205
-0.03259728 0.046998214 0.02716238 -0.10873147 0.07967595 0.112603106 0.19935928 1.2774122e-05
00000000: 2beb 09bd 3f73 363e bd32 3ebd 4006 5a3d
00000010: d15c 783c fcac b33a 4dbf 1c3e 6ec8 03be
00000020: 9c8c 553d 34b8 3b3d 73d1 963d dac7 35be
00000030: ea80 27bd 6975 c0bd 702d 6bbd b2b6 203e
00000040: 1eef 923c 08b5 96bd 17cb acbc e01a 043d
00000050: 809d d7bc 197b bebd 2436 c4bd b61a 02bd
00000060: 4d96 06be 9cf4 2abc 7778 0540 c12c ad3d
00000070: 8635 1d3e 36f8 a93d 4a12 d53d 81a4 ebbd
00000080: 5010 33bc d928 62bd 74b0 453d 73e2 99bc
00000090: 189a aabd 2dd1 253d c434 f0bd 4d36 94bd
000000a0: 4fa3 a73e 2f06 02be cabb 2b3e 3da5 1ebe
000000b0: ab8e a33c e07d 3bbd 63cc 183d 96aa 4f3e
000000c0: 3b63 db3c cdb6 943d 3c72 77bb fbab cd3d
000000d0: d4c1 70bd 925b 91bd 9c69 42bc fa20 04be
000000e0: ba84 05bd 3381 403d a483 de3c 9bae debd
000000f0: 252d a33d 759c e63d d724 4c3e 7050 5637

conv3.lin.weight f4 [64, 64]
0.409907 0.93570226 0.96342915 0.2620265 -0.08140867 0.0064204033 0.011015585 -1.0055512
-0.3820955 -0.01700667 -0.4155988 -0.28661042 0.23423465 0.2030793 0.18176205 0.2998546
0.37076825 0.27001372 -0.306966 -0.33725575 0.21919593 -1.4788556 0.3783118 -0.023556639
-0.92686594 0.19684075 -0.18860489 -0.15900105 0.06892832 -0.059505377 -0.21855198 0.01270428
-0.0001378191 -0.04793821 -0.11957611 -0.21767333 0.061616052 0.87145555 -0.36750442 -0.05682836
0.34887418 0.6730143 -1.2436382 -0.029605819 -1.0357367 0.16949363 0.084568925 0.07652983
-0.07426912 -0.22444756 0.48697147 -0.42423388 0.5893546 -0.10646214 -0.073781125 0.053646974
0.03194657 -0.05465351 0.067034915 0.052407578 -0.04778182 0.047992665 0.07949739 0.78518057
-0.46474132 0.10441781 0.3750216 -0.14252567 0.10687233 -0.24920417 -0.19656491 0.27433416
0.023100337 -0.17285982 0.18366626 0.110523194 -0.16899048 0.031471673 -0.21632992 -0.12627739
-0.31856042 -0.3247797 0.18402132 0.0342934 0.09133856 -0.28148717 0.3808788 -0.0055475165
-0.9717288 0.0033784306 1.0720224 0.16331136 0.06269359 0.33788314 -0.31977025 0.099687144
0.09126693 0.032442715 0.13813597 0.1283999 0.097638026 -0.6737801 -0.32674325 -0.046369635
0.24374272 -0.040485926 0.7421329 0.17892899 -0.46080807 -0.77347434 -0.008790625 -0.018361779
0.04103477 -0.06563098 -0.26755288 0.18577525 0.010040331 0.3413207 0.32957923 0.1217963
0.15983163 0.19378991 0.084331356 0.41834298 -0.008047397 0.4031498 -0.1223024 0.6539967
1.1791321 -0.31112018 0.40778744 0.30961058 -0.21756499 -0.12752916 -0.033133123 0.14549227
0.073069766 -0.020666527 -0.46318817 0.030210655 0.139308 0.2728315 0.3056726 -0.16599004
0.39133418 0.57043046 -0.0043626674 -0.04385868 -0.12599038 -0.14968401 -0.0105451625 0.0010859173
0.19016045 -0.19074334 -1.1192538 -0.30820432 -0.26668566 -0.12262647 -0.087409146 0.37514326
0.21846136 -0.38147035 -0.027707482 -0.06843593 -0.26723433 1.2969992 -0.43987396 0.23531076
-0.39178637 0.7616716 -0.56122845 0.12412 -0.026339712 0.4318773 -0.14820991 -0.24699329
0.13944055 -0.15285635 -0.19310635 -0.023930285 0.033857066 -0.14173105 -0.20134822 -0.004856237
0.16168383 -0.051692527 -0.19189002 -0.47766262 0.6583966 -0.59409904 0.027009508 -0.69476634
-0.24329095 -1.2512422 -0.23611405 0.312364 -0.012258923 -0.16973017 -0.18970492 0.9220097
0.5386845 0.15371382 -0.104472645 0.5699193 -0.23610291 -0.11696254 0.049083896 0.09650026
0.18775758 -0.2701252 0.11983176 -0.016809618 0.13172665 0.80139995 -0.63962287 -0.07787164
0.38554534 0.2597631 -0.17812473 -0.43256307 0.104542635 -0.008919135 0.100143634 0.24481249
0.15869066 -0.1277968 -0.4819265 0.11349955 0.090489425 -0.3441344 0.2652388 -0.03204456
-0.6453073 0.14642525 1.3574061 0.11855175 0.60071135 0.50474954 0.03419781 -0.22554363
0.12671188 0.057712942 0.105272606 0.22646563 -0.65609026 -0.15938652 -0.11228214 0.51402366
-0.18035819 0.06491927 0.14836617 0.12066997 0.017348545 -0.37695566 0.12931716 -1.3388237
00000000: 55df d13e 2f8a 6f3f 4ba3 763f 5628 863e
00000010: 97b9 a6bd 3f62 d23b b67a 343c e7b5 80bf
00000020: 05a2 c3be 9251 8bbc 5ec9 d4be 9abe 92be
00000030: 35db 6f3e 05f4 4f3e d51f 3a3e 8b86 993e
00000040: 56d5 bd3e 3d3f 8a3e a62a 9dbe c9ac acbe
00000050: e674 603e 244b bdbf 16b2 c13e daf9 c0bc
00000060: 1647 6dbf 9f90 493e a421 41be 2cd1 22be
00000070: 4b2a 8d3d e9bb 73bd 17cc 5fbe 9d25 503c
00000080: 8883 10b9 db5a 44bd 52e4 f4bd c2e5 5ebe
00000090: 1d61 7c3d b617 5f3f 8a29 bcbe dbc4 68bd
000000a0: a39f b23e aa4a 2c3f 892f 9fbf e787 f2bc
000000b0: 0593 84bf bd8f 2d3e 7932 ad3d acbb 9c3d
000000c0: 691a 98bd 95d5 65be 5354 f93e 2f35 d9be
000000d0: f1df 163f d308 dabd 8f1a 97bd eebc 5b3d
000000e0: 68da 023d 5cdc 5fbd 9a49 893d 54a9 563d
000000f0: dfb6 43bd f593 443d 87cf a23d 9801 493f
00000100: 93f2 edbe 01d9 d53d d502 c03e 40f2 11be
00000110: e1df da3d 612f 7fbe 5048 49be 8775 8c3e
00000120: eb3c bd3c 2a02 31be 0213 3c3e fc59 e23d
00000130: d70b 2dbe 71e8 003d 9785 5dbe dc4e 01be
00000140: 5a1a a3be 8649 a6be 1670 3c3e 3c77 0c3d
00000150: b60f bb3d 161f 90be 8c02 c33e f1c7 b5bb
00000160: 38c3 78bf a968 5d3b 0838 893f 183b 273e
00000170: 7f65 803d 05ff ac3e edb8 a3be c628 cc3d
00000180: 28ea ba3d a7e2 043d 8473 0d3e 437b 033e
00000190: 72f6 c73d da7c 2cbf e44a a7be 16ee 3dbd
000001a0: b197 793e 92d4 25bd 6cfc 3d3f 2939 373e
000001b0: 09ef ebbe 6a02 46bf 8e06 10bc 716b 96bc
000001c0: 1314 283d 8969 86bd b1fc 88be de3b 3e3e
000001d0: 3380 243c 96c1 ae3e 9cbe a83e 5770 f93d
000001e0: e7aa 233e dd70 463e ebb5 ac3d 0d31 d63e
000001f0: 3bd9 03bc a769 ce3e ae79 fabd 546c 273f
00000200: cded 963f 254b 9fbe 84c9 d03e 4785 9e3e
00000210: 5bc9 5ebe 0197 02be 99b6 07bd edfb 143e
00000220: 9aa5 953d d94c a9bc 0027 edbe 567c f73c
00000230: c2a6 0e3e 92b0 8b3e 1e81 9c3e 4bf9 29be
00000240: f45c c83e bb07 123f b5f4 8ebb 29a5 33bd
00000250: 9f03 01be c446 19be 9ec5 2cbc 5755 8e3a
00000260: 6cb9 423e 3952 43be b543 8fbf f5cc 9dbe
00000270: 068b 88be 9623 fbbd 9103 b3bd c712 c03e
00000280: 56b4 5f3e 1550 c3be cdfa e2bc 2328 8cbd
00000290: f0d2 88be 1204 a63f 2937 e1be 4ef5 703e
000002a0: 3998 c8be e9fc 423f abac 0fbf a032 fe3d
000002b0: 61c6 d7bc 051f dd3e 57c4 17be cfeb 7cbe
000002c0: 81c9 0e3e 6086 1cbe acbd 45be 7209 c4bc
000002d0: b5ad 0a3d f221 11be 3a2e 4ebe 1221 9fbb
000002e0: 7290 253e 8bbb 53bd d17e 44be 3290 f4be
000002f0: ae8c 283f e016 18bf 0b43 dd3c 35dc 31bf
00000300: 4321 79be b428 a0bf e2c7 71be 2dee 9f3e
00000310: a6d9 48bc bfcd 2dbe 0242 42be d408 6c3f
00000320: 3ae7 093f 2867 1d3e c1f5 d5bd 3be6 113f
00000330: f6c4 71be 0e8a efbd 320c 493d eea1 c53d
00000340: 8643 403e da4d 8abe 5b6a f53d 53b4 89bc
00000350: 5ae3 063e 8c28 4d3f 53be 23bf 2b7b 9fbd
00000360: 3366 c53e abff 843e 5466 36be e878 ddbe
00000370: 731a d63d 9021 12bc 1b18 cd3d 20b0 7a3e
00000380: ce7f 223e 2add 02be 12bf f6be 7472 e83d
00000390: 8552 b93d 6232 b0be 61cd 873e 2841 03bd
000003a0: dc32 25bf 80f0 153e 7cbf ad3f 43cb f23d
000003b0: 38c8 193f 4437 013f 0113 0c3d e9f4 66be
000003c0: c2c0 013e 6864 6c3d 2a99 d73d 9be6 673e
000003d0: 88f5 27bf 3836 23be 2ef4 e5bd 0e97 033f
000003e0: d1af 38be 65f4 843d 4ded 173e d121 f73d
000003f0: 891e 8e3c 5500 c1be b86b 043e 935e abbf

fc1.weight f4 [512, 64]
-0.0449985 -0.06332824 -0.045501336 0.06534904 0.07466268 -0.007959778 0.06744756 0.038057655
-0.05107667 -0.065057784 -0.10141759 -0.019479802 -0.021657985 -0.12057905 0.11609743 0.045711055
-0.004503201 0.04469461 -0.050321743 0.10589856 0.08561464 0.10033253 -0.056601487 -0.047132
-0.009524325 0.11396972 -0.05836493 -0.13126673 0.026730556 -0.06998648 -0.08240776 0.12562363
-0.05199855 -0.09825969 0.0398362 -0.11496681 0.10187843 0.05275432 0.012711455 -0.059044134
0.03989398 -0.07095896 -0.0011057722 -0.0014940444 0.015105951 0.12863523 0.02593383 -0.070789516
0.07240754 0.032566704 0.089910656 0.046057366 -0.11711456 -0.05354287 0.052549325 0.04221748
0.040137224 -0.08780759 0.097627684 0.014035965 -0.010374318 0.022137184 -0.15014601 0.090756066
0.07468235 -0.41603974 0.3889514 0.3541948 -0.5269416 -0.20033944 0.040353745 0.43528187
-0.07426682 -0.23165758 0.14889751 0.36831847 0.085071795 -0.35518152 -1.1697131 0.16942844
0.5254318 -0.5294452 -0.4005509 -0.32078347 -0.14745869 -0.28568017 -0.017528873 -0.15438196
-0.44830686 -0.045186277 -0.012163307 -0.86476415 -0.5056018 -0.59005326 -0.6591212 0.8859727
0.7167091 -0.28020215 -0.51604605 -0.56415266 -0.021656923 0.44259766 -0.07044974 -0.6829112
0.10524109 0.1778713 0.18783481 0.29888812 0.792301 0.17181714 0.40076643 0.19674549
0.21547784 -0.10055149 -0.20535803 -0.38027057 0.12118526 0.4290895 0.82428086 0.23820342
0.5436785 0.686808 -0.34429535 0.30330977 0.36893487 -0.12188889 0.19698519 0.16174302
0.44368967 0.0805409 -0.24405132 -0.2323174 -0.08393046 0.31801352 -0.023980178 0.049102254
-0.14509599 -0.116238914 -0.15287305 0.18748246 0.13274737 -0.05314459 0.08467368 -0.031096753
0.046416212 0.3151582 0.08190255 0.027074533 -0.04623712 0.061816063 -0.11528691 -0.02559715
0.13295072 -0.02887793 -0.15597579 -0.099246845 -0.26202467 -0.2797997 0.044985943 -0.07881126
-0.16382311 -0.014581986 -0.05299061 0.022038257 0.022080155 -0.04699264 0.20156209 -0.011116007
-0.048465576 -0.09938115 -0.3650208 0.19293453 0.08491571 0.07409246 -0.08897461 -0.021154374
0.12225618 0.14009395 0.06276463 -0.095255226 0.057310503 0.010648604 -0.018929526 -0.071772575
-0.12858051 -0.020016735 -0.25531068 -0.045924406 0.114843786 0.25995764 0.10284922 -0.011672312
-0.051722035 -0.0016163588 -0.05273272 0.08266652 -0.093737274 -0.021409288 0.11671507 0.06912695
0.064248174 0.026872486 0.06590448 -0.013743326 -0.06513974 -0.100556865 -0.037246197 0.0053486973
0.02815701 0.091642216 0.07753806 -0.012998164 -0.10270701 0.088871315 -0.055431172 -0.06940089
0.018394634 0.041509062 -0.09124501 -0.0996522 -0.024642646 -0.06268437 -0.030441418 -0.024440259
-0.11120227 0.034082443 0.035974294 0.10021083 -0.11415289 -0.01621136 0.040908486 0.05251175
-0.022681534 0.060814887 0.06462371 0.11026226 -0.030971587 -0.09508236 -0.0040985644 0.004966587
0.11871177 -0.06854139 0.0701936 -0.10994829 -0.089882 0.106221974 0.023631528 -0.10567169
-0.07511142 0.018982232 -0.012865409 -0.081362724 -0.011735126 0.060245767 -0.018180922 0.0075174123
00000000: 5950 38bd 3cb2 81bd 9c5f 3abd b8d5 853d
00000010: bfe8 983d bb69 02bc f221 8a3d 58e2 1b3d
00000020: c535 51bd 043d 85bd 07b4 cfbd 1b94 9fbc
00000030: 166c b1bc 26f2 f6bd 7dc4 ed3d 843b 3b3d
00000040: 978f 93bb b211 373d 2c1e 4ebd 58e1 d83d
00000050: ba56 af3d 247b cd3d f6d6 67bd 7c0d 41bd
00000060: ea0b 1cbc f568 e93d 1110 6fbd c96a 06be
00000070: 0afa da3c 1255 8fbd 66c5 a8bd 7ba3 003e
00000080: 6efc 54bd 603c c9bd 492b 233d b873 ebbd
00000090: a3a5 d03d ea14 583d b543 503c 43d8 71bd
000000a0: df67 233d ee52 91bd 8fef 90ba d0d3 c3ba
000000b0: f37e 773c f4b8 033e 2f73 d43c 18fa 90bd
000000c0: 684a 943d aa64 053d 1423 b83d a6a6 3c3d
000000d0: c2d9 efbd c54f 5bbd f63d 573d 3cec 2c3d
000000e0: ee66 243d 77d4 b3bd 06f1 c73d 1bf7 653c
000000f0: 0bf9 29bc 0a59 b53c e0bf 19be 51de b93d
00000100: 0ff3 983d 2903 d5be a324 c73e 0559 b53e
00000110: a5e5 06bf c825 4dbe f849 253d 44dd de3e
00000120: 3419 98bd a537 6dbe 9778 183e 3d94 bc3e
00000130: 1f3a ae3d 5ada b5be 29b9 95bf a67e 2d3e
00000140: b382 063f b889 07bf 0215 cdbe bb3d a4be
00000150: 69ff 16be ac44 92be b698 8fbc 4e16 1ebe
00000160: 7a88 e5be 3f15 39bd 9b48 47bc 2f61 5dbf
00000170: 1f6f 01bf bb0d 17bf 2bbc 28bf 1bcf 623f
00000180: 3f7a 373f a876 8fbe 981b 04bf 4f6c 10bf
00000190: dc69 b1bc 299c e23e f447 90bd 45d3 2ebf
000001a0: a488 d73d e523 363e c557 403e dd07 993e
000001b0: 3dd4 4a3f d5f0 2f3e 4231 cd3e a677 493e
000001c0: 39a6 5c3e f1ed cdbd 6049 52be d3b2 c2be
000001d0: fa2f f83d 9eb1 db3e 1204 533f 99eb 733e
000001e0: 842e 0b3f a6d2 2f3f 7b47 b0be 6b4b 9b3e
000001f0: 08e5 bc3e e2a0 f9bd 7cb6 493e f69f 253e
00000200: 4b2b e33e a1f2 a43d 97e8 79be 9de4 6dbe
00000210: bce3 abbd abd2 a23e 1472 c4bc 721f 493d
00000220: 0b94 14be ab0e eebd c18a 1cbe 67fb 3f3e
00000230: edee 073e 24ae 59bd 6569 ad3d 9ebe febc
00000240: ed1e 3e3d 6a5c a13e 86bc a73d 69cb dd3c
00000250: 2263 3dbd d732 7d3d 8b1b ecbd 1db1 d1bc
00000260: 3c24 083e 6991 ecbc 1eb8 1fbe ee41 cbbd
00000270: 1928 86be e841 8fbe 2e43 383d cc67 a1bd
00000280: 3fc1 27be 48e9 6ebc af0c 59bd 9389 b43c
00000290: 71e1 b43c 5b7b 40bd 4b66 4e3e ea1f 36bc
000002a0: d783 46bd 5888 cbbd 02e4 babe a190 453e
000002b0: 4ae8 ad3d cabd 973d 5238 b6bd f04b adbc
000002c0: 7361 fa3d ca74 0f3e be8a 803d 2c15 c3bd
000002d0: 6bbe 6a3d 7b77 2e3c 1812 9bbc 80fd 92bd
000002e0: 9caa 03be 23fa a3bc 15b8 82be 3b1b 3cbd
000002f0: 3833 eb3d 2b19 853e 9da2 d23d 3a3d 3fbc
00000300: 7cda 53bd 00dc d3ba 44fe 57bd 104d a93d
00000310: 54f9 bfbd 8862 afbc 5008 ef3d 6e92 8d3d
00000320: 8c94 833d b023 dc3c eef8 863d b02b 61bc
00000330: fc67 85bd c2f0 cdbd 788f 18bd 2044 af3b
00000340: 88a9 e63c eaae bb3d 46cc 9e3d 40f6 54bc
00000350: 0e58 d2bd 2a02 b63d cc0b 63bd 0e22 8ebd
00000360: 58b0 963c 6805 2a3d aade babd 7416 ccbd
00000370: 60df c9bc aa60 80bd 4860 f9bc f036 c8bc
00000380: 04be e3bd 089a 0b3d c859 133d 563b cd3d
00000390: fec8 e9bd b0cd 84bc a88f 273d 9016 573d
000003a0: a0ce b9bc 0819 793d 7059 843d 2ed1 e13d
000003b0: 20b8 fdbc 8aba c2bd 404d 86bb c0be a23b
000003c0: 281f f33d 6e5f 8cbd aac1 8f3d 922c e1bd
000003d0: 0e14 b8bd e88a d93d e896 c13c 666a d8bd
000003e0: 04d4 99bd a080 9b3c 70c9 52bc 80a1 a6bd
000003f0: b044 40bc 44c4 763d 28f0 94bc a054 f63b

fc1.bias f4 [512]
0.013935445 0.07779637 -0.064172894 -0.069624424 0.1973641 -0.4571011 0.06813713 -0.31326175
-0.12556702 -0.18540555 0.011774567 0.031206124 -0.12160723 -0.3019117 0.035139743 -0.0045325975
-0.08233318 -0.2089292 -0.15129954 -0.15470071 -0.04118435 -0.067715555 -0.122207314 -0.05008205
-0.1210358 0.003174386 -0.1148269 0.04359902 -0.024426281 2.2160007e-06 -0.1433192 0.054233965
-0.114619344 -0.46830764 -0.28325593 -0.19335274 0.5495135 -0.14063264 0.043870836 -0.10612379
-0.33007443 -0.04627252 -0.0054951278 -0.07346014 -0.09599946 -0.048413083 0.06789664 -0.09328511
-0.11184216 -0.15650523 -0.09045714 -0.077763274 0.019868318 -0.0932057 -0.6274083 -0.018502504
-0.18461888 0.02082157 -0.2787691 -0.3429566 -0.32615712 0.18015099 -0.24024937 -0.087521344
-0.20118986 0.13848959 -0.1661486 -0.14627963 -0.23642816 0.11061973 -0.062145915 -0.13484445
0.29232952 0.35675523 -0.13851523 -0.23143694 -0.21420074 0.05398221 0.011186062 -0.0874385
-0.13701405 -0.3522276 -0.089829944 -0.48662016 0.025995744 -0.2831073 -0.07274189 0.0990513
-0.1360858 -0.098366335 -0.07765366 -0.23356742 -0.059521187 -0.23322462 0.027861208 -0.11014099
0.10774309 -0.12537365 -0.096030354 -0.049180355 -0.23983175 -0.11291714 0.08674367 0.0900998
-0.09514252 -0.4042035 0.10878002 -0.28775373 -0.057208106 -0.121727526 0.1537971 0.33651182
-0.10845763 -0.017943703 -0.1372519 0.036566585 -0.10235986 -0.20482548 -0.0024516466 0.25020388
-0.20455918 -0.096197665 -0.09712015 -0.100433245 -0.06458013 0.081585236 0.19561395 -0.16986121
-0.3148561 -0.0037862852 0.18326776 -0.23713681 0.0141720055 -0.113688044 0.1671694 -0.07254315
-0.09553312 -0.029196024 -0.10807135 -0.066246375 -0.22263382 -0.6801952 0.06034645 -0.042422857
-0.21039844 -0.0067284238 -0.10591546 -0.36891866 -0.23015538 -0.043259725 0.114456065 -0.09059252
-0.18099052 -0.11424626 -0.19749969 -0.1177938 0.32552984 -0.13391304 -0.07310306 -0.0021543857
-0.095332384 0.066889174 -0.16526276 -0.012928996 -0.10411759 -0.059650313 0.003503403 -0.006022646
-0.6421908 -0.15631907 -0.22270404 -0.012280275 -0.16300845 -0.13761349 -0.018296156 -0.21534783
-0.115799 -0.09943397 0.06743458 -0.13668796 -0.10567129 -0.082404196 -0.17144926 -0.110316426
-0.13161431 -0.092769325 -0.23477882 -0.03751353 -0.10714383 -0.041937623 -0.025285669 -0.07622745
-0.2620757 -0.046646956 0.0053527653 -0.17329231 -0.26331514 -0.040094838 -0.062799886 -0.12856019
-0.0890533 -0.06055759 -0.039372496 0.014457867 -0.20192122 -0.1972911 -0.58616114 -0.045127816
-0.123416364 0.64314234 -0.11644553 -0.13197665 -0.029236529 -0.14214858 0.18716848 -0.08729766
0.020452922 -0.04390198 -0.09805627 0.1782794 0.036704835 -0.13458669 -0.065473035 0.2620452
0.25317326 -0.15136681 -0.15531822 -0.12850083 -0.21650027 0.30284563 -0.25804174 -0.1389612
-0.02740195 -0.3459837 -0.15331368 -0.054622173 -0.08076828 0.03140014 0.0438488 -0.13101144
-0.11959005 -0.15374778 -0.10152251 -0.048016686 -0.10919925 0.11181858 -0.076727174 -0.20202303
-0.032072574 -0.090592496 -0.12077589 -0.018858254 0.032321658 0.25509736 0.14392297 -0.18447408
00000000: 7e51 643c b453 9f3d 146d 83bd 4097 8ebd
00000010: d119 4a3e 2809 eabe 7b8b 8b3d d863 a0be
00000020: a494 00be f4da 3dbe 1dea 403c fca3 ff3c
00000030: 360d f9bd 2c94 9abe b1ee 0f3d 2f86 94bb
00000040: 4c9e a8bd 89f1 55be 44ee 1abe dd69 1ebe
00000050: ecb0 28bd 74ae 8abd d447 fabd d622 4dbd
00000060: 9ee1 f7bd 5c09 503b 5e2a ebbd e394 323d
00000070: a019 c8bc 9ab6 1436 45c2 12be 6f24 5e3d
00000080: 8cbd eabd 05c6 efbe ec06 91be 43fe 45be
00000090: ebac 0c3f 0102 10be e8b1 333d 6e57 d9bd
000000a0: 84ff a8be 4188 3dbd 7910 b4bb 4572 96bd
000000b0: 5d9b c4bd cc4c 46bd 650d 8b3d 440c bfbd
000000c0: 810d e5bd e842 20be 9841 b9bd 5a42 9fbd
000000d0: e2c2 a23c a1e2 bebd d59d 20bf 9092 97bc
000000e0: bb0c 3dbe ff91 aa3c d3ba 8ebe 0298 afbe
000000f0: 11fe a6be 8079 383e ee03 76be 643e b3bd
00000100: b704 4ebe 37d0 0d3e dc22 2abe 54ca 15be
00000110: 391a 72be 998c e23d b78c 7ebd aa14 0abe
00000120: 37ac 953e 9fa8 b63e f0d6 0dbe cefd 6cbe
00000130: 7057 5bbe 731c 5d3d bf45 373c f512 b3bd
00000140: 694d 0cbe 2d57 b4be c3f8 b7bd 4726 f9be
00000150: 07f5 d43c 71f3 90be b3f9 94bd 68db ca3d
00000160: 135a 0bbe 4a74 c9bd e208 9fbd 4c2c 6fbe
00000170: 7dcc 73bd 6fd2 6ebe 303d e43c 9991 e1bd
00000180: 69a8 dc3d f361 00be 90ab c4bd 5771 49bd
00000190: 7496 75be 1a41 e7bd aaa6 b13d 3e86 b83d
000001a0: 15da c2bd c3f3 cebe 0fc8 de3d 7554 93be
000001b0: 0c53 6abd 484c f9bd fd7c 1d3e 474b ac3e
000001c0: 091f debd acfe 92bc c38b 0cbe d8c6 153d
000001d0: 0ca2 d1bd c5bd 51be ceab 20bb b91a 803e
000001e0: f677 51be 4803 c5bd eee6 c6bd f2af cdbd
000001f0: 9642 84bd 2916 a73d 064f 483e 19f0 2dbe
00000200: d234 a1be 5323 78bb 8baa 3b3e fed3 72be
00000210: b331 683c 47d5 e8bd 752e 2b3e 8191 94bd
00000220: dea6 c3bd 802c efbc 8354 ddbd 2eac 87bd
00000230: 1ffa 63be 4621 2ebf d72d 773d 97c3 2dbd
00000240: b072 57be 1c7a dcbb 34ea d8bd e8e2 bcbe
00000250: daad 6bbe 1c31 31bd f167 ea3d 9288 b9bd
00000260: 9455 39be f1f9 e9bd 5c3d 4abe e03d f1bd
00000270: d9ab a63e 8020 09be 0fb7 95bd 9830 0dbb
00000280: a03d c3bd 31fd 883d a43a 29be 24d4 53bc
00000290: 9a3b d5bd e353 74bd 5999 653b 9e59 c5bb
000002a0: 9e66 24bf 1b12 20be 870c 64be 3533 49bc
000002b0: b0eb 26be 8dea 0cbe d2e1 95bc 2484 5cbe
000002c0: 0728 edbd 0aa4 cbbd 241b 8a3d eef7 0bbe
000002d0: 306a d8bd 88c3 a8bd 6590 2fbe 94ed e1bd
000002e0: e7c5 06be d8fd bdbd dc69 70be caa7 19bd
000002f0: 396e dbbd c9c6 2bbd e423 cfbc 231d 9cbd
00000300: c92e 86be e110 3fbd 4066 af3b 8a73 31be
00000310: 3ed1 86be 7c3a 24bd 3a9d 80bd 48a5 03be
00000320: 9461 b6bd 3c0b 78bd 0e45 21bd b0e0 6c3c
00000330: 70c4 4ebe ae06 4abe a80e 16bf f2d7 38bd
00000340: b8c1 fcbd faa4 243f fe7a eebd e324 07be
00000350: 7281 efbc 668f 11be 18a9 3f3e 1ec9 b2bd
00000360: e38c a73c 90d2 33bd bad1 c8bd e08e 363e
00000370: cf57 163d 18d1 09be ba16 86bd ca2a 863e
00000380: ed9f 813e e7ff 1abe bd0b 1fbe b995 03be
00000390: 3fb2 5dbe 950e 9b3e 0c1e 84be d84b 0ebe
000003a0: 0e7a e0bc c724 b1be 43fe 1cbe 80bb 5fbd
000003b0: d769 a5bd 6f9d 003d cd9a 333d dd27 06be
000003c0: a1eb f4bd 0f70 1dbe 09eb cfbd 25ad 44bd
000003d0: dba3 dfbd 2401 e53d 2323 9dbd 20df 4ebe
000003e0: 885e 03bd 8f88 b9bd 5a59 f7bd a07c 9abc
000003f0: b763 043d 1f9c 823e 8b60 133e c6e6 3cbe

fc2.weight f4 [256, 512]
-0.0320905 -0.037885264 0.037729837 -0.03855367 -0.070704356 0.10870023 -0.07712917 -0.11952475
-0.03883921 0.034496646 0.007982301 0.09022739 0.051186003 -0.084121145 -0.121626176 -0.0131571125
-0.0047008847 -0.024362667 0.14604127 -0.013807671 -0.016846653 0.0062511526 0.22388022 0.0031517
-0.026367458 0.052579913 -0.117723204 -0.13872133 -0.082022466 -0.019762956 0.1453632 0.009927783
-0.021082073 -0.039491653 -0.13705212 -0.005813724 -0.09752655 0.013850469 -0.10500569 -0.01515412
-0.0969397 -0.007476982 0.0004348346 0.0034605628 0.0104678385 -0.016455112 -0.028694205 -0.052788597
0.01224488 0.11410749 0.06117974 -0.012954708 -0.06942208 -0.027076932 -0.08456691 0.015724145
-0.022832787 0.26641282 0.025704684 -0.100513525 0.07715065 -0.05545237 0.11669062 -0.025837498
-0.076512925 -0.10870117 -0.05516088 0.117224775 -0.018650465 -0.08288189 -0.036539577 0.04347033
-0.0030225364 -0.12616867 -0.01879398 -0.048222914 -0.003606821 0.04161052 0.031880386 0.00096837804
-0.15971199 -0.02907438 -0.0024737976 -0.057627644 0.02252904 0.10888108 0.050779596 -0.11035437
0.0036491144 0.08899256 -0.03133311 -0.027748467 -0.025620088 0.016926378 0.05476412 0.00077781256
-0.09094077 0.011943886 0.16861416 0.073251426 0.010261279 -0.005807977 0.034890004 -0.005392014
-0.018184679 -0.050225604 0.07397089 0.19438614 0.009046968 -0.012161575 -0.084636025 -0.09974812
0.019803535 0.0010197547 0.03039683 -0.045689072 -0.04045099 -0.0029700845 -0.052718133 -0.1444268
-0.015254419 0.025950126 -0.017598301 0.21943538 -0.00075765327 -0.14061727 0.010469061 0.0071494714
0.03427827 0.0040230416 -0.1393582 0.12884234 -0.029541166 -0.008737531 0.07580619 -0.07324148
-0.06496158 0.008644976 -0.046819966 -0.016210942 -0.022687238 0.137815 -0.047466967 0.0019475408
0.03411839 -0.03466402 -0.07545175 0.18435532 -0.014853023 0.11844476 -0.000764915 0.006143283
-0.05491978 -0.018860003 0.00825202 0.038195964 -0.13200168 0.08729741 -0.017297493 -0.03248913
0.026947202 0.024357699 0.041222524 0.009414653 -0.03914564 0.011497159 -0.032943293 0.0014182925
-0.028657043 -0.096154094 -0.0688295 0.019544965 -0.0010955861 -0.0113916835 -0.032887366 -0.21178672
-0.05707546 -0.03893284 0.007675234 0.022062393 -0.02843152 -0.031850547 0.019226177 0.0053455387
-0.047017895 0.14765064 0.029907934 0.011416491 -0.027318154 0.03586759 -0.05813433 0.05402304
0.14183013 0.08477111 0.004175257 0.10863136 -0.023652874 0.033344097 -0.03578242 0.25499326
-0.016669959 0.19045104 -0.08287344 -0.0045529455 0.038055386 -0.10309016 0.08284951 -0.020573141
0.03583045 -0.12283329 0.031219468 0.15168689 0.021350238 0.009188507 -0.06947514 -0.008195769
-0.164001 0.032006625 0.032210592 -0.06838452 -0.10654564 0.05876276 -0.0116964355 0.10289578
-0.08127981 -0.016201975 0.010172056 -0.04777531 0.16998391 0.016250744 -0.12530196 0.072340794
-0.10568158 -0.08810251 -0.008889306 0.037956115 -0.020972682 -0.0808479 -0.027783701 -0.06248932
-0.042866953 -0.019334298 0.10336694 0.014516771 0.31234306 0.014135339 -0.15657431 -0.06102615
-0.037841137 -0.12009296 0.011247292 -0.07141182 -0.01570147 -0.23861969 0.008449561 -0.017654404
00000000: 5471 03bd 942d 1bbd 9a8a 1a3d 74ea 1dbd
00000010: 72cd 90bd 3a9e de3d e6f5 9dbd 64c9 f4bd
00000020: dd15 1fbd 5b4c 0d3d 32c8 023c 23c9 b83d
00000030: 6aa8 513d b547 acbd 2517 f9bd ee90 57bc
00000040: e109 9abb 3794 c7bc d88b 153e 9239 62bc
00000050: fe01 8abc 78d6 cc3b db40 653e c08c 4e3b
00000060: 9100 d8bc 095e 573d dd18 f1bd f70c 0ebe
00000070: 65fb a7bd ece5 a1bc 17da 143e 24a8 223c
00000080: 50b4 acbc 00c2 21bd 6457 0cbe 0d81 bebb
00000090: 00bc c7bd 14ed 623c 390d d7bd fc48 78bc
000000a0: 5288 c6bd 7901 f5bb 83fa e339 9cca 623b
000000b0: 4c81 2b3c dfcc 86bc 1c10 ebbc db38 58bd
000000c0: c09e 483c 30b1 e93d 9b97 7a3d fc3f 54bc
000000d0: 2a2d 8ebd 71d0 ddbc 6b31 adbd eccf 803c
000000e0: d30b bbbc 4367 883e a192 d23c 09da cdbd
000000f0: 2901 9e3d 0622 63bd 7efb ee3d 29a9 d3bc
00000100: cfb2 9cbd b89e debd 60f0 61bd 8b13 f03d
00000110: dcc8 98bc fbbd a9bd 86aa 15bd f20d 323d
00000120: bf15 46bb 5c32 01be d5f5 99bc 6485 45bd
00000130: 6a60 6cbb cb6f 2a3d 0295 023d c0da 7d3a
00000140: 8a8b 23be 652d eebc 701f 22bb f70a 6cbd
00000150: d28e b83c 0bfd de3d 44fe 4f3d 7901 e2bd
00000160: fb25 6f3b bb41 b63d 2657 00bd c150 e3bc
00000170: 38e1 d1bc 30a9 8a3c 5850 603d 1ee6 4b3a
00000180: 283f babd 4ab0 433c 31a9 2c3e d804 963d
00000190: ec1e 283c d850 bebb d2e8 0e3d 7eaf b0bb
000001a0: 09f8 94bc 5db9 4dbd 0d7e 973d 290d 473e
000001b0: bc39 143c 5841 47bc a755 adbd be48 ccbd
000001c0: 063b a23c 4aa9 853a c602 f93c 7724 3bbd
000001d0: f0af 25bd c0a5 42bb f8ee 57bd 9ee4 13be
000001e0: aced 79bc 5c95 d43c 502a 90bc abb3 603e
000001f0: 409d 46ba f9fd 0fbe 6d86 2b3c 1d46 ea3b
00000200: 5f67 0c3d b8d3 833b eab3 0ebe 3fef 033e
00000210: 5100 f2bc dc27 0fbc 4740 9b3d a1ff 95bd
00000220: 940a 85bd a8a3 0d3c 4bc6 3fbd cfcc 84bc
00000230: 96da b9bc 601f 0d3e b96c 42bd a044 ff3a
00000240: babf 0b3d dcfb 0dbd 7286 9abd a4c7 3c3e
00000250: 185a 73bc 2b93 f23d 9484 48ba 984d c93b
00000260: 90f3 60bd 4b80 9abc 7b33 073c 5f73 1c3d
00000270: 732b 07be fcc8 b23d 79b3 8dbc 5213 05bd
00000280: 61c0 dc3c cc89 c73c f3d8 283d eb3f 1a3c
00000290: 2e57 20bd 945e 3c3c 8cef 06bd 00e6 b93a
000002a0: 2dc2 eabc 70ec c4bd 7bf6 8cbd c31c a03c
000002b0: c599 8fba 2fa4 3abc e7b4 06bd 9ede 58be
000002c0: f5c7 69bd 0b78 1fbd 8880 fb3b 31bc b43c
000002d0: 38e9 e8bc b875 02bd 3780 9d3c a129 af3b
000002e0: d695 40bd bb31 173e 7c01 f53c 3c0c 3b3c
000002f0: 52ca dfbc e5e9 123d 431e 6ebd 4347 5d3d
00000300: eb3b 113e 7a9c ad3d 98d0 883b 1e7a de3d
00000310: acc3 c1bc d293 083d 9690 12bd 7a8e 823e
00000320: 708f 88bc 9905 433e 8db9 a9bd e030 95bb
00000330: f7df 1b3d ef20 d3bd 01ad a93d 0189 a8bc
00000340: f3c2 123d 0590 fbbd f8bf ff3c cf53 1b3e
00000350: b2e6 ae3c 648b 163c fb48 8ebd 8c47 06bc
00000360: e1ef 27be 6119 033d 41ef 033d 2f0d 8cbd
00000370: 9a34 dabd 38b1 703d 68a2 3fbc 06bb d23d
00000380: 0776 a6bd 01ba 84bc b2a8 263c 0bb0 43bd
00000390: 4310 2e3e 4820 853c 284f 00be 6927 943d
000003a0: 966f d8bd 176f b4bd 74a4 11bc df77 1b3d
000003b0: e7ce abbc 9593 a5bd a59a e3bc cdf4 7fbd
000003c0: 4295 2fbd f662 9ebc 0cb2 d33d c0d7 6d3c
000003d0: 6eeb 9f3e e997 673c 0455 20be 8ef6 79bd
000003e0: 4fff 1abd 4cf3 f5bd 9046 383c 5c40 92bd
000003f0: 5fa0 80bc b858 74be 0770 0a3c f89f 90bc

fc2.bias f4 [256]
-0.22875628 0.0010857936 0.18009382 -0.15526694 0.034415025 -0.051923197 0.17130867 -0.60270804
-0.060337033 -0.08999782 -0.08761132 -0.75096405 -0.106220685 -0.032776278 -0.031798624 -0.54392016
-0.6341426 0.21908873 0.06895706 -0.031607185 -0.3818811 -0.24943472 -0.028627025 0.0025333827
-0.14191233 -0.10354341 -0.5880253 -0.07968339 -0.09331209 -0.063851744 -0.061926775 0.019094633
-0.20627598 -0.24281888 -0.11962062 -0.025542527 -0.04837272 -0.06789812 -0.0026946946 -0.47245377
-0.0667267 0.7663623 -0.12115091 -0.0570421 -0.53109664 -0.029547773 -0.22824097 0.39640614
-0.10562721 -0.0823107 -0.11530402 -0.013789003 -0.24911512 -0.28468844 -0.71621424 0.04490924
-0.22223008 0.021546893 -0.19997574 0.24373841 -0.11551934 -0.76592714 -0.034884673 -0.3060153
-0.13438335 -0.01734883 -0.05481918 -0.3631825 0.06357101 0.098059714 -0.07786629 -0.24222666
-0.37269098 -0.45922518 -0.5147575 -0.59701294 -0.4091052 -0.044208176 -0.24038303 -0.22979525
0.2151296 -0.22876336 -0.014390316 -0.53183305 -0.353616 -0.060590457 -0.0529728 -0.08344853
0.06635073 -0.19858149 -0.44415817 -0.4909083 -0.04788826 -0.44523546 -0.092321336 -0.0037937523
-0.3027758 -0.023194168 -0.22687282 0.2919857 -0.069616266 -0.5136633 -0.06460142 -0.57236695
-0.13666189 0.06979051 0.06712175 -0.043092847 -0.5276176 -0.46589413 -0.11458606 -0.203988
-0.8310731 -0.5238696 -0.10883176 -0.1544561 -0.04116292 -0.62593174 -0.73042107 -0.588623
-0.36871412 -0.22664991 -0.066360466 -0.027847448 -0.03617773 -0.029927885 -0.030547686 -0.02241738
-0.4104191 0.39017296 -0.5641938 -0.10177524 0.10786128 -0.4933964 -0.087742314 -0.6134591
-0.5448998 -0.6800599 -0.17454058 0.040717036 -0.13113359 0.13356087 -0.039164882 -0.50580466
-0.232242 -0.40271068 -0.7058623 -0.11292777 -0.4475346 -0.43859684 -0.06181596 -0.6776877
-0.07141894 -0.4827048 -0.05391822 -0.07909226 0.3521398 -0.20439367 -0.7441489 0.5789245
-0.066449136 -0.122990586 -0.07390276 -0.17168437 -0.5122651 -0.3710517 -0.02795433 -0.097189225
-0.26924047 -0.086972326 -0.19697522 -0.04485463 -0.043658286 -0.39522636 -0.06315236 -0.20091528
-0.028182069 -0.21672142 -0.29297665 0.21239394 -0.025767308 -0.028790658 -0.531311 -0.06031622
0.16745813 -0.50241417 0.54487276 -0.07193753 -0.3768611 -0.15955351 -0.07020703 -0.13999996
-0.13321455 -0.043086655 -0.5331266 0.37234595 -0.47733688 -0.060745947 -0.021765102 0.014989507
-0.33524668 -0.40919083 -0.20786901 -0.054191098 -0.18035851 -0.367185 -0.5011369 0.00017614092
-0.017792286 -0.706963 -0.0100288205 -0.25037447 -0.26382777 -0.062755555 -0.623247 -0.11165615
0.35394928 0.12678003 -0.076466106 0.14010677 -0.017792188 -0.43263444 -0.06295263 0.47958416
-0.10852605 0.11031111 -0.17256328 -0.20616177 -0.34448922 -0.082375914 0.05583542 -0.034392063
0.24484113 -0.13120681 -0.05760518 -0.080220245 0.0019166683 -0.47038805 -0.2538256 -0.3148783
-0.25950074 -0.066173136 -0.32148668 -0.055970646 -0.5211013 -0.030374888 -0.0039152107 -0.0382612
-0.2974901 -0.056421142 -0.3516305 -0.44738358 -0.20126279 -0.034853287 1.6535058 0.62375265
00000000: 163f 6abe 3051 8e3a 846a 383e 4cfe 1ebe
00000010: c5f6 0c3d 6bad 54bd 8a6b 2f3e 134b 1abf
00000020: f723 77bd c750 b8bd 906d b3bd 2e3f 40bf
00000030: 3b8a d9bd 6b40 06bd 463f 02bd 5a3e 0bbf
00000040: 2b57 22bf cc58 603e 5c39 8d3d 8976 01bd
00000050: eb85 c3be d16b 7fbe 3983 eabc 1c07 263b
00000060: 7751 11be 910e d4bd d388 16bf 0c31 a3bd
00000070: 691a bfbd b4c4 82bd eea6 7dbd 596c 9c3c
00000080: 033a 53be 83a5 78be a8fb f4bd 903e d1bc
00000090: 7922 46bd 2b0e 8bbd 7999 30bb 76e5 f1be
000000a0: 02a8 88bd 5230 443f f81d f8bd faa4 69bd
000000b0: f3f5 07bf 2c0e f2bc 00b8 69be bff5 ca3e
000000c0: 1453 d8bd 8392 a8bd 8424 ecbd 45eb 61bc
000000d0: 0918 7fbe afc2 91be d159 37bf c0f2 373d
000000e0: 4890 63be 1c83 b03c 71c6 4cbe 9096 793e
000000f0: 6795 ecbd cd13 44bf 3be3 0ebd 0aae 9cbe
00000100: ca9b 09be 221f 8ebc 148a 60bd 0ef3 b9be
00000110: 8531 823d 88d3 c83d 5d78 9fbd 440a 78be
00000120: 5ad1 bebe 901f ebbe 26c7 03bf d7d5 18bf
00000130: 3d76 d1be a213 35bd f826 76be 724f 6bbe
00000140: ef4a 5c3e f140 6abe 5cc5 6bbc 3626 08bf
00000150: 280d b5be b32d 78bd 02fa 58bd 10e7 aabd
00000160: e4e2 873d f258 4bbe b368 e3be 5558 fbbe
00000170: 7b26 44bd e7f5 e3be f812 bdbd 9aa0 78bb
00000180: 6e05 9bbe b201 bebc 5951 68be 267f 953e
00000190: f992 8ebd 707f 03bf c04d 84bd a486 12bf
000001a0: 18f1 0bbe 54ee 8e3d 2177 893d 2082 30bd
000001b0: f211 07bf ad89 eebe 19ac eabd 3be2 50be
000001c0: 35c1 54bf 511c 06bf 30e3 debd bd29 1ebe
000001d0: 739a 28bd 103d 20bf e0fc 3abf ffaf 16bf
000001e0: 19c8 bcbe ea16 68be ffe7 87bd 5520 e4bc
000001f0: 192f 14bd 532b f5bc 243f fabc a7a4 b7bc
00000200: 7422 d2be c0c4 c73e 016f 10bf 896f d0bd
00000210: 60e6 dc3d 749e fcbe 3eb2 b3bd a80b 1dbf
00000220: 8e7e 0bbf 6818 2ebf c4ba 32be e8c6 263d
00000230: e247 06be 2ec4 083e 5b6b 20bd 6a7c 01bf
00000240: d9d0 6dbe 1830 cebe 64b3 34bf ad46 e7bd
00000250: 4123 e5be c48f e0be bb32 7dbd f17c 2dbf
00000260: 1844 92bd 1525 f7be 5ad9 5cbd 1ffb a1bd
00000270: ab4b b43e 934c 51be 8b80 3ebf 6534 143f
00000280: 7c16 88bd 7de2 fbbd 555a 97bd 07ce 2fbe
00000290: ce23 03bf 7dfa bdbe 7b00 e5bc 250b c7bd
000002a0: e3d9 89be 8c1e b2bd dfb3 49be 7db9 37bd
000002b0: 08d3 32bd 1c5b cabe 0656 81bd bcbc 4dbe
000002c0: 15de e6bc 38ec 5dbe 0901 96be cc7d 593e
000002d0: f615 d3bc 63da ebbc ff03 08bf 240e 77bd
000002e0: 257a 2b3e 379e 00bf c87c 0b3f fc53 93bd
000002f0: f0f3 c0be ff61 23be b4c8 8fbd 265c 0fbe
00000300: 6569 08be a27b 30bd fc7a 08bf 21a4 be3e
00000310: 8065 f4be bed0 78bd ba4c b2bc 8d96 753c
00000320: 74a5 abbe 7681 d1be 9ddb 54be 7cf7 5dbd
00000330: e7af 38be acff bbbe 824a 00bf 78b2 3839
00000340: 21c1 91bc 87fb 34bf ec4f 24bc 1531 80be
00000350: 6f14 87be fc85 80bd 1e8d 1fbf fbab e4bd
00000360: d738 b53e a0d2 013e 439a 9cbd 2678 0f3e
00000370: ecc0 91bc 4382 ddbe 4fed 80bd 0e8c f53e
00000380: e842 debd cbea e13d 6eb4 30be 121c 53be
00000390: e460 b0be b4b4 a8bd aeb3 643d b1de 0cbd
000003a0: a2b7 7a3e 145b 06be 69f3 6bbd 834a a4bd
000003b0: b738 fb3a b4d6 f0be 6ef5 81be bb37 a1be
000003c0: 48dd 84be c885 87bd e799 a4be 7a41 65bd
000003d0: e566 05bf c2d4 f8bc 2b4b 80bb c7b7 1cbd
000003e0: 9f50 98be db19 67bd ea08 b4be 760f e5be
000003f0: d517 4ebe 52c2 0ebd 14a6 d33f 41ae 1f3f
