data/predictor/PT/TNetwork-N_2024-04-19_10-59-59.pt (torch, 865107 bytes, 16 tensors)

conv1.bias f4 [64]
0	0xbdbdfdfe	-0.09276961
1	0xbe69e2ec	-0.2284047
2	0x3c9e5be4	0.019330926
3	0xbea3758a	-0.31925613
4	0x3ef39aea	0.47579128
5	0xbb967e29	-0.004592676
6	0xbd7d3f82	-0.061828144
7	0xbdf03d9c	-0.11730501
8	0xbd7383e3	-0.05945195
9	0xbe1bd736	-0.15218815
10	0x3b3ffba2	0.0029294272
11	0x3d009dbc	0.031400427
12	0xbc06f4b3	-0.008237052
13	0x3db0cfed	0.08633409
14	0xbd83ecd1	-0.064416535
15	0xbeb4c7e5	-0.35308757
16	0xbeb92cc8	-0.36166978
17	0xbe16b9e2	-0.14719346
18	0xbcf4d4f5	-0.029886702
19	0x3f06ff2c	0.5273311
20	0xbcc36e15	-0.023856202
21	0xbd8b35f4	-0.067974
22	0xbe4e5ba9	-0.20152153
23	0x3e0168dd	0.12637658
24	0x3decdc95	0.1156551
25	0xbdc84f27	-0.09780722
26	0x3d7d77b4	0.061881736
27	0x3957cbbc	0.00020579895
28	0xbd9e8816	-0.077408
29	0xbe929b77	-0.28634235
30	0xbc349d7a	-0.011023873
31	0xbe8feead	-0.28111783
32	0xbe20be78	-0.15697658
33	0xbec67297	-0.387593
34	0xbeff20e7	-0.4982979
35	0xbe8537f4	-0.2601925
36	0xbdd6edb8	-0.1049456
37	0xbe988d3e	-0.2979526
38	0xbdde85bc	-0.108653516
39	0xbeca1174	-0.3946644
40	0xbe4f5766	-0.20248184
41	0xbe792983	-0.24332242
42	0xbcc825fb	-0.024432173
43	0xbe4b1d5d	-0.1983542
44	0xbeca2287	-0.39479467
45	0xbcdc0466	-0.026857566
46	0xbe4bcabc	-0.19901556
47	0xbeba7f3a	-0.3642519
48	0xbd132396	-0.03592261
49	0xbe483f4e	-0.19555399
50	0xbcdb3bd1	-0.026761921
51	0xbdde07d1	-0.108413346
52	0xbf002faa	-0.5007273
53	0xbb68c1a4	-0.003551581
54	0xbd45d37a	-0.048297383
55	0xbced295b	-0.028950384
56	0x3e01fec0	0.12694836
57	0x3d0c913a	0.034318186
58	0xbe1c5a5b	-0.15268843
59	0xbe046d3f	-0.12932299
60	0xbe350d18	-0.17680776
61	0xbd890efa	-0.0669231
62	0xbe53c6ef	-0.20681356
63	0xbceeade0	-0.029135644

conv1.lin.weight f4 [64, 6]
0	0x3d1aea35	0.037821013
1	0x3ec30622	0.38090616
2	0x3dc68c70	0.09694755
3	0xc00196b9	-2.0248244
4	0xbbf33d34	-0.0074230675
5	0x40056685	2.0843823
6	0x3e001496	0.12507853
7	0x3e44194c	0.19150275
8	0x3d77c294	0.0604883
9	0x3e0d1931	0.13779141
10	0x3dd2705c	0.10275337
11	0xbe109d50	-0.1412251
12	0x3e3d2193	0.18469839
13	0x3ea5aaf0	0.32356977
14	0xbfaf2535	-1.368323
15	0xbfa392a3	-1.2779125
16	0xbda32e88	-0.079678595
17	0xbe7ef2de	-0.24897334
18	0x3e45fcb9	0.19334687
19	0x3e89bfc8	0.2690413
20	0xbeedd696	-0.4645278
21	0x3e64996e	0.22324154
22	0x3d6d14da	0.057881214
23	0x3f97ccb6	1.1859348
24	0xbfbb545b	-1.4635118
25	0xbe52b63b	-0.20577328
26	0x3e8e8680	0.2783699
27	0x3dea9ab2	0.11455287
28	0xbf0110af	-0.5041608
29	0x3f772c2b	0.9655177
30	0x3e029888	0.12753499
31	0xbfa980ea	-1.3242466
32	0x3efd01d1	0.49415448
33	0xbf3d7cc7	-0.7401852
34	0xbe6babbc	-0.2301473
35	0xbfe8065e	-1.8126943
36	0xbe20a119	-0.15686454
37	0x3e5da91e	0.21646544
38	0x3f19f008	0.60131884
39	0x3d8040d7	0.06262367
40	0xbe17fcb0	-0.14842486
41	0xbe1fba3a	-0.15598384
42	0x3d1b00bb	0.037842494
43	0x3f43a2ef	0.7642049
44	0xbf9705a2	-1.1798594
45	0x3f8eac67	1.1146363
46	0xba510486	-0.00079733913
47	0xbebd1b67	-0.3693497
48	0xbe8d2593	-0.2756773
49	0xbe13f40d	-0.14448567
50	0xbe632803	-0.22183232
51	0x3ee56ed0	0.44811106
52	0x3c333caf	0.010939761
53	0x3fa5ef81	1.2963716
54	0x3ddf021f	0.108890764
55	0xbd9fca67	-0.07802277
56	0x3dcc8879	0.099869676
57	0xbe5d740d	-0.21626301
58	0x3db8189e	0.0898907
59	0xbd4362d8	-0.047701687
60	0x3db29e24	0.08721569
61	0x3e9d598e	0.30732387
62	0x3f04adb5	0.51827556
63	0xbff0ac75	-1.880263
64	0xbd3dd751	-0.04634792
65	0x3e0188fd	0.12649913
66	0xbf214b40	-0.6300545
67	0xbfc73320	-1.5562477
68	0x3f434923	0.7628347
69	0xbeee22b6	-0.46510857
70	0xbd930ac0	-0.07179785
71	0x3fbf5ab6	1.4949558
72	0xbd32aa49	-0.043619428
73	0x3f04ca19	0.51870877
74	0xbf194f46	-0.59886587
75	0xbeb64a19	-0.35603407
76	0xbe0c26a6	-0.13686618
77	0xbf80f1a5	-1.0073744
78	0xbfb5917b	-1.4185022
79	0x3f188c2d	0.5958889
80	0xc00a4043	-2.1601722
81	0x3f6ee824	0.9332297
82	0xbde0d1b6	-0.10977499
83	0x3f3b4cf6	0.7316431
84	0xbe2b1b52	-0.1670964
85	0xbe95d0f1	-0.29260972
86	0xbd4a0470	-0.04932064
87	0xbdc20ea0	-0.09475446
88	0x3d4d60f7	0.0501413
89	0xbe4248ac	-0.18973035
90	0x3dcc122f	0.09964406
91	0x3de3c101	0.11120797
92	0x3ebc54a7	0.36783335
93	0x3ebea001	0.37231448
94	0xbe81bbf7	-0.25338718
95	0x3edb55fb	0.42839035
96	0x3e3a4e46	0.18193921
97	0x3e64e65e	0.22353503
98	0x3f2da57a	0.6783062
99	0x3e9c9cef	0.3058848
100	0x3d848d56	0.0647227
101	0xbff3dad9	-1.9051162
102	0xbcdae467	-0.026720239
103	0xbe187577	-0.1488856
104	0xbd022196	-0.03177031
105	0xbe378434	-0.17921525
106	0x3e0ec4ae	0.13942215
107	0xbc953390	-0.018213063
108	0xbbee21ad	-0.007267198
109	0x3c86ffd1	0.016479405
110	0x3e72d886	0.2371541
111	0xc0168d1b	-2.3523624
112	0xba135e93	-0.00056216976
113	0x400b8fcb	2.1806514
114	0xc02468f8	-2.5689068
115	0x3c62cdc0	0.013843
116	0x3edcd3a3	0.43130216
117	0x3f5f3338	0.8718753
118	0xbed658a8	-0.41864514
119	0x3f49bc86	0.7880329
120	0xbe870fef	-0.26379344
121	0xbce7291c	-0.028217845
122	0xbd0edc93	-0.034878325
123	0x3c35da76	0.011099448
124	0xbbfd1780	-0.0077237487
125	0xbe38e2c2	-0.18055251
126	0xbe9f7eb8	-0.31151366
127	0x3f0e0df5	0.55490047
128	0xbdccb565	-0.09995536
129	0x3ee3944f	0.44449088
130	0xbd2c94cb	-0.042134088
131	0xbd1c5d3b	-0.03817485
132	0x3e273fd6	0.16332945
133	0xbe171409	-0.14753737
134	0xbee0febf	-0.43944356
135	0x3f394285	0.72367126
136	0x3b119266	0.0022212504
137	0x3dd1402f	0.1021732
138	0xbf701f44	-0.9379771
139	0xbebcf4d8	-0.3690555
140	0x3da8ef12	0.08248724
141	0x3ed65b61	0.41866592
142	0x3d8e0233	0.06934013
143	0x3fb0cb21	1.381199
144	0xbee240ef	-0.44190165
145	0xbe49c4aa	-0.19703928
146	0xbe4befcf	-0.19915698
147	0x3e9a5ef7	0.30150577
148	0xbe7f1c2f	-0.24913095
149	0x3f69917f	0.91237634
150	0xbc1976fa	-0.009366745
151	0x3e45fb40	0.19334126
152	0x3f178da6	0.59200513
153	0xbd459e41	-0.048246626
154	0xbd323be3	-0.043514144
155	0x3d56c397	0.052432623
156	0xbf559502	-0.8343049
157	0x3f19cb06	0.60075414
158	0xbeaa77a7	-0.33294412
159	0x3f124810	0.5714121
160	0xbe2ac1ea	-0.16675535
161	0x3f740ca3	0.9533178
162	0xbea34eb8	-0.31895995
163	0xbfd05783	-1.6276706
164	0xbefd9057	-0.49524185
165	0x3eddb72e	0.43303818
166	0xbdf19656	-0.117962524
167	0x3f776435	0.9663728
168	0xbea7e576	-0.32792252
169	0xbf165912	-0.5872966
170	0xbf213787	-0.62975353
171	0x3f078db7	0.52950615
172	0xbbde7c1c	-0.0067896973
173	0x3f980414	1.1876245
174	0x3df0d31d	0.11759017
175	0x3e6df041	0.23236181
176	0x3e219b2a	0.15781847
177	0x3e281674	0.16414815
178	0x3dd65685	0.10465721
179	0x3e326dd8	0.17424715
180	0x3e836f02	0.2567063
181	0xc009c742	-2.1527867
182	0x3f70662d	0.9390591
183	0x3eab2696	0.33427876
184	0xbe8fe7c4	-0.2810651
185	0xbffa20df	-1.9541281
186	0xbe049cd8	-0.12950456
187	0x3f38dd5d	0.72212774
188	0xbeb47a89	-0.35249737
189	0x3e3b96f1	0.18319298
190	0x3dd67c4d	0.10472927
191	0xbda4602e	-0.08026157
192	0xbe0e9c62	-0.13926843
193	0x3f0086e1	0.5020581
194	0xbee6f8c2	-0.45111662
195	0x3e989a27	0.2980511
196	0xbe51fb44	-0.20506006
197	0x3ed4e89e	0.41583723
198	0xbde20703	-0.11036494
199	0x3e74b43e	0.23896882
200	0x3e2aa601	0.16664888
201	0x3e854ad4	0.26033652
202	0xbe018341	-0.12647726
203	0x3ed34502	0.41263586
204	0x3e9893d0	0.29800272
205	0x3eb87252	0.3602472
206	0x3ee4fc72	0.4472385
207	0x3eede6e0	0.46465206
208	0xbd62eac4	-0.05539967
209	0x3fd4f1ad	1.6636254
210	0x3dbb6908	0.091508925
211	0x3e393db6	0.18089947
212	0xbf2ab8ad	-0.6668804
213	0xbf19eac8	-0.6012387
214	0x3b9e8de7	0.0048386934
215	0x3e8bb5c2	0.27287108
216	0xbf165036	-0.5871614
217	0x3f147f60	0.5800686
218	0xbeaa1c83	-0.33224878
219	0x3f1905b6	0.5977434
220	0xbd997160	-0.07492328
221	0xbdac5ebc	-0.08416507
222	0x3e453fca	0.19262615
223	0x3f25452a	0.6455866
224	0x3e8f9772	0.2804523
225	0x3e9fe634	0.3123032
226	0xbb900e92	-0.004396268
227	0x400bc644	2.1839762
228	0x3e2e32e7	0.17011605
229	0xbe345a8d	-0.17612667
230	0xbf177b3d	-0.5917242
231	0xbe8acf5c	-0.27111328
232	0xbe806672	-0.2507816
233	0x3f78ed52	0.9723712
234	0x3e8e6334	0.2781006
235	0x3ed68130	0.41895437
236	0x3ebf13c3	0.37319764
237	0x3ee75de0	0.45188808
238	0xbe1d19f7	-0.15341936
239	0x400002ab	2.0001628
240	0xbca6ab02	-0.020345215
241	0x3ebe2a72	0.37141758
242	0x3ec7f7d3	0.39056262
243	0x3ec4bf29	0.38427094
244	0xbe0beb03	-0.13663869
245	0x3e100162	0.14063028
246	0xbced2f1a	-0.028953124
247	0x3ed0c72c	0.40776956
248	0x3eeb766c	0.45988786
249	0x3edc846d	0.43069783
250	0xbe02bb54	-0.12766773
251	0x3e08253f	0.13295458
252	0xbef167f7	-0.4714963
253	0x3efcf0b1	0.49402383
254	0x3f418bab	0.7560374
255	0xbd00c905	-0.031441707

conv2.bias f4 [64]
0	0xbeb2f5d3	-0.34953174
1	0x3dd669e4	0.10469416
2	0x3d452fbc	0.048141226
3	0xbec67157	-0.38758346
4	0xbe25a12c	-0.16174763
5	0xbd99600b	-0.07489022
6	0xbd310238	-0.043215007
7	0xbe5c5344	-0.21516138
8	0xbe32ffc5	-0.17480381
9	0xbe262ead	-0.16228743
10	0xbe633dfb	-0.22191612
11	0xbd194721	-0.03742135
12	0xbd6f7276	-0.058458768
13	0xbcf93f46	-0.030425679
14	0x3d85530e	0.06509982
15	0xbd13f065	-0.03611793
16	0xbe88b10b	-0.26697573
17	0x3c954ddc	0.018225603
18	0xbe824b17	-0.25447914
19	0xbe642c99	-0.22282638
20	0xbe02a906	-0.1275979
21	0xbe3c8074	-0.18408376
22	0xbc8f9fc3	-0.017532235
23	0xbc2e2ad3	-0.010630327
24	0xbe7cc3e2	-0.24684098
25	0xbe6f2290	-0.23353028
26	0xbe9a1538	-0.30094314
27	0xbd10d9de	-0.035364024
28	0xbe09d27e	-0.13459203
29	0xbec3b65a	-0.3822506
30	0xbdbeeade	-0.09322141
31	0xbd99e79a	-0.075148776
32	0xbe5d38d0	-0.21603703
33	0x3e27adfd	0.16374965
34	0xbe0cab22	-0.13737157
35	0xbe0f7ed0	-0.14013219
36	0xbe8b48a6	-0.27203864
37	0x3df16c16	0.11788194
38	0xbd3a07bb	-0.04541753
39	0xbd07ca36	-0.033151828
40	0xbe7d37ef	-0.24728368
41	0xbd556ec6	-0.052107595
42	0xbcff9b5d	-0.031202013
43	0xbdc0521e	-0.093906626
44	0x3da26f66	0.07931404
45	0x3e12510d	0.14288731
46	0xbda2d8b4	-0.07951489
47	0xbe8ba1c2	-0.2727185
48	0xbe6c1044	-0.2305308
49	0xbec619d8	-0.38691592
50	0xbe6635bd	-0.22481437
51	0xbd98ee46	-0.07467322
52	0xbdc78d4e	-0.097437486
53	0xbe261aad	-0.16221114
54	0xbe9529f7	-0.2913358
55	0xbd02126f	-0.03175586
56	0xbe921b27	-0.2853634
57	0xbe723561	-0.23653175
58	0xbe88195b	-0.26581845
59	0xbeae99f2	-0.34101826
60	0x3c40cc45	0.011767452
61	0xbd6043e4	-0.054752246
62	0xbeb90b71	-0.36141542
63	0xbe78396c	-0.24240655

conv2.lin.weight f4 [64, 64]
0	0x3f11deaf	0.56980413
1	0x3deb6ce5	0.11495379
2	0xbe8572b2	-0.26064068
3	0xbe97b795	-0.2963225
4	0xbf02d72f	-0.51109594
5	0x3c8dcfa5	0.017310927
6	0x3d8f5ece	0.070005044
7	0x3ec94f6c	0.39318407
8	0xbf083308	-0.5320287
9	0xbe39fdb2	-0.18163183
10	0x3e8d9c8d	0.276585
11	0xbf65682d	-0.89612085
12	0x3d0be975	0.03415819
13	0xbe5b2d33	-0.21403961
14	0xbdf5d9ae	-0.1200441
15	0x3d32d0bf	0.043656107
16	0x3e98f666	0.29875487
17	0xbca73a65	-0.020413587
18	0x3f685c63	0.9076597
19	0xbf416c2a	-0.7555567
20	0x3de2201b	0.1104128
21	0xbf045abb	-0.51700944
22	0x3f9f8b91	1.2464467
23	0xbf0522e0	-0.5200634
24	0xbf203f4e	-0.62596595
25	0x3e3af561	0.18257667
26	0xbf9161a9	-1.1357929
27	0xbdb9a56a	-0.09064753
28	0xbf510d78	-0.81661177
29	0x3dd04f41	0.101713665
30	0x3c6e0f3c	0.014529999
31	0xbf00119d	-0.50026876
32	0x3f10ad95	0.56514865
33	0x3da8dc40	0.08245134
34	0x3eabc88c	0.33551443
35	0x3de29ced	0.110650875
36	0xbf2ff129	-0.68727356
37	0x3e254a56	0.16141638
38	0xbe048c19	-0.12944068
39	0x3ec0a07c	0.3762244
40	0x3e9b4b4e	0.3033089
41	0x3e4a28a8	0.19742072
42	0x3d9c7c15	0.07640854
43	0x3ec431cd	0.38319245
44	0x3f9f9987	1.2468728
45	0x3e6e6683	0.23281293
46	0x3e6b8418	0.22999609
47	0x3f325483	0.69660205
48	0x3f22e53b	0.6363103
49	0x3f1edac8	0.62052584
50	0xbda8d20a	-0.08243187
51	0x3eac647a	0.33670408
52	0x3eb82a69	0.35969856
53	0xbe832042	-0.25610548
54	0x3e57356a	0.2101647
55	0x3f085568	0.5325532
56	0xbede094d	-0.4336647
57	0x3dfa5ed1	0.12225116
58	0xbcb10127	-0.021606995
59	0x3eaecbaa	0.34139758
60	0xbe277e1c	-0.163567
61	0x3d08d05b	0.03340183
62	0xbea031ac	-0.31287897
63	0x3f134a72	0.5753547
64	0x3e09d114	0.13458663
65	0xbbc8c0e4	-0.00612651
66	0xbd9a4b40	-0.07533884
67	0x3ed574e4	0.41690743
68	0xbf1567f5	-0.5836175
69	0xbed847e4	-0.42242348
70	0xbf93038a	-1.1485455
71	0x3e6b7f28	0.22997725
72	0xbe0c5793	-0.13705282
73	0x3d8a82a9	0.06763203
74	0xbf1fe249	-0.6245466
75	0xbf1bf00e	-0.6091317
76	0x3e5f3915	0.21799119
77	0x3d9e6d53	0.07735696
78	0xbe33b115	-0.1754802
79	0xbf4ce6b7	-0.8003954
80	0xc038d47a	-2.8879685
81	0x3e1563fc	0.14588922
82	0x3d607d2d	0.054806877
83	0xbe80e197	-0.2517211
84	0xbd8bd75e	-0.068281874
85	0xbe1ad0d2	-0.15118721
86	0x3ea42797	0.32061455
87	0x3e43d754	0.1912511
88	0x3e9f4557	0.3110759
89	0xc0088680	-2.1332092
90	0x3ea0f1bc	0.3143443
91	0xbc868bcb	-0.01642408
92	0x3c767ed4	0.015044887
93	0xbd79b53f	-0.060963865
94	0xbf3eb5b5	-0.7449601
95	0x3f0b23d5	0.5435155
96	0x3e17c316	0.14820513
97	0xbeb9e10b	-0.36304507
98	0x3eb28d03	0.34873208
99	0xbe2294b1	-0.15877034
100	0x3ec38857	0.38189957
101	0x3e1c3913	0.15256147
102	0xbe04ee97	-0.1298164
103	0x3ed2bb83	0.41158685
104	0xbeae6bd8	-0.34066653
105	0xbf3126f3	-0.69200057
106	0xbfe0e4a9	-1.7569782
107	0xbdffc2fd	-0.12488363
108	0x3e86bdaf	0.26316592
109	0x3ef4bfbb	0.4780253
110	0xc0788365	-3.8830197
111	0x3f9416e7	1.1569489
112	0x3e9a9ca5	0.30197635
113	0x3e8eddcb	0.2790359
114	0xbeb55194	-0.35413802
115	0x3e8da594	0.2766539
116	0x3e9f7669	0.31145027
117	0x3d4031d7	0.04692253
118	0x3e411b47	0.18858062
119	0xbeaabc73	-0.333469
120	0x3e83e615	0.25761476
121	0x3eaf7fce	0.34277195
122	0x3d168f9f	0.03675806
123	0xbe866210	-0.2624669
124	0xbf0bdc31	-0.5463286
125	0xbda8b415	-0.08237473
126	0x3e5e5100	0.21710587
127	0x3f05afb5	0.5222123
128	0x3efc34ec	0.49259126
129	0xbd86c917	-0.065813236
130	0xbeb0525d	-0.34437838
131	0x3dc915fd	0.09818647
132	0xbf443022	-0.76635945
133	0xbf1260eb	-0.57179135
134	0x3be46dd6	0.0069711013
135	0xbe24dc57	-0.16099678
136	0xbf2631c6	-0.649197
137	0xbc40979b	-0.011754896
138	0xbd21af88	-0.03947404
139	0x3f19ab63	0.6002714
140	0xbf0c2a7a	-0.54752314
141	0xbd599c76	-0.05312773
142	0xbe369ee3	-0.17834048
143	0x3e34cf49	0.17657198
144	0x3d216dea	0.039411463
145	0x3db55c6b	0.08855518
146	0x3f883001	1.063965
147	0xbf70b208	-0.94021654
148	0xbd992946	-0.074785754
149	0xbe8d7846	-0.27630824
150	0x3e9308ca	0.28717643
151	0xbfaacac8	-1.3343134
152	0xbf21aed4	-0.6315739
153	0xbd031865	-0.032005686
154	0xbf09f3a0	-0.5388737
155	0xbf88bbc6	-1.0682304
156	0xbf67efef	-0.90600485
157	0xbdd4913a	-0.10379262
158	0xbf0bded9	-0.54636914
159	0x3edc3d11	0.4301534
160	0x3f38078f	0.71886533
161	0xbcb8c946	-0.022556912
162	0x3f14aef1	0.5807944
163	0xbebd1d68	-0.36936498
164	0xbe54158e	-0.20711347
165	0x3eeadce3	0.45871648
166	0xbdcfdcf5	-0.10149566
167	0x3f06f417	0.527162
168	0x3ea2962c	0.31755197
169	0x3e07a02a	0.13244691
170	0x3e8fc93e	0.28083223
171	0x3e88981f	0.2667856
172	0x3ff19587	1.8873757
173	0xbcab2a4b	-0.02089419
174	0x3c01b4a6	0.007916605
175	0x3f241e05	0.64108306
176	0x3f39923a	0.7248875
177	0x3f4632dc	0.77421355
178	0x3ea3c101	0.31983188
179	0x3f0696d8	0.5257392
180	0x3f19b012	0.60034287
181	0x3e01ac4d	0.12663384
182	0x3e1b895e	0.1518912
183	0x3f0d600b	0.55224675
184	0xbef56dca	-0.47935325
185	0xbf26cbc5	-0.6515468
186	0xbe1e2bdb	-0.15446417
187	0x3e2c4561	0.16823341
188	0x3e823430	0.2543044
189	0x3f3d327b	0.7390515
190	0xbe49cda5	-0.19707353
191	0x3f5a1e71	0.852027
192	0xbea5a9da	-0.3235615
193	0xbdd4e42f	-0.10395085
194	0x3dd8e622	0.10590769
195	0x3f82a260	1.0205803
196	0xbf390013	-0.7226574
197	0x3d7487a8	0.059699684
198	0xbf0ebf60	-0.55760765
199	0x3ed9a163	0.4250594
200	0x3ee06f7c	0.43835056
201	0xbe67c4a6	-0.22633609
202	0xbd9dbe41	-0.07702304
203	0xbf22acaf	-0.63544744
204	0x3e69454f	0.22780345
205	0xbc52e385	-0.012871628
206	0xbe65c1de	-0.22437236
207	0x3f4d9108	0.80299425
208	0xbfaaeab8	-1.335288
209	0xbd3e43a1	-0.046451215
210	0xbff81bca	-1.938348
211	0xbf2b79b8	-0.66982603
212	0x3e09617b	0.13416092
213	0x3e0118d9	0.12607135
214	0x3f083381	0.5320359
215	0xbd33bc37	-0.043880668
216	0x3dcef411	0.10105146
217	0xbfea744c	-1.8316741
218	0x3f152134	0.5825379
219	0xbf9d7a9f	-1.2303046
220	0xbeb243f3	-0.34817466
221	0x3e77b468	0.24189913
222	0xbebe92e9	-0.3722146
223	0x3e4a7769	0.19772114
224	0x3e558cf4	0.2085455
225	0x3dd3d79a	0.10343857
226	0x3f442c24	0.76629853
227	0x3f09f140	0.53883743
228	0x3e3d0764	0.1845985
229	0x3f397b79	0.7245403
230	0x3db0f6eb	0.08640846
231	0x3f09af9d	0.5378359
232	0xbc249ec9	-0.010047623
233	0xbd43589c	-0.047691926
234	0xbf8f3cc8	-1.1190424
235	0xbd9a597b	-0.07536598
236	0x3edeb182	0.43494803
237	0x3ee6e5ee	0.45097297
238	0xc028ac69	-2.635523
239	0x3f9a39d4	1.2048898
240	0xbfcd3ab1	-1.6033536
241	0x3eeaf77e	0.45891947
242	0xbe0a813d	-0.13525863
243	0xbfcf6c17	-1.6204861
244	0x3fa399d6	1.2781322
245	0xbe739bba	-0.23789874
246	0x3cabd068	0.0209734
247	0xbf9c96a0	-1.2233467
248	0x3ed85c84	0.42258084
249	0x3f0b6eb6	0.54465806
250	0x3d5f4728	0.05451122
251	0xbe171dbc	-0.14757437
252	0x3e579b58	0.21055353
253	0xbd9dcacf	-0.07704698
254	0x3eae6fab	0.3406957
255	0xbf96d907	-1.1784981

conv3.bias f4 [64]
0	0x3c500580	0.012696624
1	0xbbabb879	-0.0052404967
2	0xbc1a6a19	-0.00942471
3	0xbc220f24	-0.009891305
4	0x3cb60c1d	0.022222573
5	0xba14bfa9	-0.00056743115
6	0x3c96f22b	0.018426022
7	0xbc9f63e0	-0.019456804
8	0x3b573be1	0.0032842087
9	0x3d4c5d7e	0.04989385
10	0xba0b703f	-0.0005319155
11	0xbc4fc2c6	-0.012680715
12	0x3b242a23	0.002504953
13	0xbb84f92e	-0.004058025
14	0xbbec4134	-0.0072099213
15	0xbc2531d5	-0.010082682
16	0x3b576cb4	0.0032871189
17	0xbcc17696	-0.023616116
18	0xba674395	-0.0008822021
19	0xbae2da9f	-0.0017307586
20	0xbb44b7f8	-0.003001688
21	0xbb131688	-0.002244385
22	0x3ab969a0	0.0014145859
23	0x3be9fd5b	0.007140798
24	0xbc4995b4	-0.012303758
25	0x3c80ce2d	0.015723312
26	0xbc22beee	-0.0099332165
27	0xbcde2221	-0.027115883
28	0xbd1d0c7b	-0.03834198
29	0xbca73741	-0.02041209
30	0x3bb9b2c5	0.005667063
31	0x3c55fbc2	0.013060512
32	0x3a70a352	0.000917961
33	0x3d82a2ee	0.063787326
34	0xbab7b4cd	-0.0014015675
35	0x3cc45b98	0.023969457
36	0x3c526ec5	0.012843792
37	0x3c8c0838	0.017093763
38	0xbab3d2e9	-0.0013719472
39	0xbb8fc821	-0.004387871
40	0xbb7f61d0	-0.0038968213
41	0x3c46154b	0.012090038
42	0xbc018336	-0.007904818
43	0x3d130937	0.03589746
44	0xbd340b9d	-0.043956388
45	0x3b924b79	0.0044645634
46	0x3b031a97	0.0020004862
47	0x3c210cbd	0.009829697
48	0xbcc35e7a	-0.02384876
49	0x3d0bece0	0.03416145
50	0x3c202606	0.0097746905
51	0x3bcd50fd	0.006265758
52	0xba9628f3	-0.0011456296
53	0x3b8849ef	0.004159204
54	0xbc49fbd3	-0.012328106
55	0x3c156c1d	0.0091200145
56	0xbb51f7bd	-0.0032038533
57	0x3abf27b2	0.0014583974
58	0xbd3607fc	-0.04444121
59	0xbcb2d61e	-0.021830615
60	0xbc6c9645	-0.014440124
61	0x3b1be0e5	0.002378517
62	0xbd2f4d39	-0.042798255
63	0x3b7fa85b	0.003901026

conv3.lin.weight f4 [64, 64]
0	0xbb0befd1	-0.0021352659
1	0x3cf54438	0.029939756
2	0xbea10a48	-0.31453156
3	0xc0322fdb	-2.7841709
4	0x3c61596e	0.013754232
5	0xbcd766c2	-0.026294116
6	0x3d12c7b8	0.035834998
7	0xbd3a01da	-0.045411922
8	0xbdfe22f8	-0.124090135
9	0xbe1924be	-0.14955422
10	0x3db1df39	0.086851545
11	0x3cfad348	0.030618325
12	0x3ee19d40	0.44065285
13	0x3f255b13	0.64592093
14	0x3ecb4a68	0.39705205
15	0x3d90d8a2	0.070725694
16	0xbe573c57	-0.21019112
17	0x3e32bedc	0.1745562
18	0x3dc44f89	0.095854826
19	0xbe2ce905	-0.16885765
20	0xbe321626	-0.17391261
21	0xbd19db1d	-0.03756248
22	0xbefcf2a5	-0.49403873
23	0x3e888135	0.26661077
24	0xbef6cae9	-0.48201683
25	0xbf53b1be	-0.8269309
26	0xbf1f9608	-0.62338305
27	0xbe1e8cb4	-0.15483361
28	0xbd49a391	-0.049228255
29	0x3d5fa457	0.054600086
30	0x3d1e0edc	0.03858839
31	0x3cb60e8e	0.022223737
32	0x3e1d2480	0.15345955
33	0xbcee2365	-0.029069612
34	0xbefab56f	-0.48966548
35	0x3e0ae5cb	0.13564222
36	0x3e63d497	0.22249065
37	0x3deeccf9	0.11660189
38	0x3d771cf8	0.06033036
39	0x3ef4102b	0.47668585
40	0xbe4e4249	-0.20142473
41	0x3bd9fb80	0.0066522956
42	0xbe0aa7ea	-0.13540617
43	0xbe5c9cea	-0.21544233
44	0xbda90265	-0.0825241
45	0x3d0b5b52	0.034022637
46	0xbe714176	-0.23560128
47	0xbe84c454	-0.25931036
48	0x3e8c8101	0.27442172
49	0x3f4d93c4	0.803036
50	0xbdb121b6	-0.08649008
51	0xbe2363c6	-0.1595603
52	0x3c98ba27	0.018643452
53	0xbec62916	-0.3870322
54	0xbb95e51f	-0.0045744325
55	0x3e1f07f4	0.15530378
56	0x3e9d504f	0.30725333
57	0xbe35d735	-0.17757876
58	0xbe3b0a53	-0.18265657
59	0xbdf17681	-0.11790181
60	0x3edf1890	0.43573427
61	0x3ea78c8a	0.3272441
62	0xbe07fb02	-0.13279346
63	0xbcbe8594	-0.023257054
64	0x3d606c16	0.05479058
65	0x3e2458c8	0.16049492
66	0x3f44dc77	0.768989
67	0x3fe54c03	1.7913822
68	0x3e8891d4	0.26673758
69	0x3db97723	0.09055927
70	0xbda8b331	-0.08237303
71	0x3df1258e	0.11774741
72	0x3e8b34a9	0.27188614
73	0x3e82224e	0.25416797
74	0xbe1649c9	-0.14676584
75	0x3e0dbb67	0.1384102
76	0xbeb1229f	-0.34596726
77	0xbf264f88	-0.64965105
78	0xbf07fd50	-0.531209
79	0x3d568d33	0.05238075
80	0x3e54a01b	0.207642
81	0x3e2c65f1	0.16835763
82	0xbe938a47	-0.28816435
83	0xbca1d845	-0.019756446
84	0xbd9483fb	-0.07251736
85	0x3eaa4445	0.3325521
86	0x3e4a0ee5	0.19732244
87	0xbedbc0a4	-0.4292041
88	0xbf16cae5	-0.5890334
89	0x3f333ddd	0.7001627
90	0x3db5e12a	0.08880837
91	0xbdea94ce	-0.114541635
92	0xbe461f4e	-0.1934788
93	0xbe5eccfc	-0.21757883
94	0xbdb7b433	-0.08969917
95	0x3c7c7153	0.015407878
96	0x3c396f4c	0.011318039
97	0xbdf58c04	-0.119895965
98	0xbf96cd3a	-1.178138
99	0xbde76322	-0.11298205
100	0x3f2d6fbe	0.6774863
101	0xbe85a843	-0.26104936
102	0x3dae22cd	0.085027315
103	0xbf0367ff	-0.5133056
104	0xba91740a	-0.0011097204
105	0xbd957762	-0.07298161
106	0x3e47dc72	0.19517687
107	0x3ed4a391	0.4153104
108	0x3e6fbcfb	0.23411934
109	0xbe81c0eb	-0.25342497
110	0xbc42ecbe	-0.011897264
111	0x3c7d598b	0.015463243
112	0x3e92885f	0.28619668
113	0xbec9c28b	-0.39406237
114	0x3bb90007	0.005645755
115	0x3d886ca8	0.066613495
116	0x3e4340f9	0.19067754
117	0x3e5ec113	0.2175334
118	0x3d313583	0.043263923
119	0x3db2f2b3	0.087376975
120	0x3eb6b978	0.35688376
121	0xbeafcf21	-0.34337714
122	0x3d5d1dcd	0.0539835
123	0x3e800f78	0.25011802
124	0xbe5c4aad	-0.21512862
125	0x3d3766f2	0.04477591
126	0x3e439dd5	0.19103177
127	0xbea31df7	-0.318588
128	0x3f615a86	0.8802875
129	0xbf171c41	-0.5902749
130	0x3faf27e7	1.3684052
131	0xc00470ac	-2.069377
132	0xbf211900	-0.6292877
133	0x3e1a5310	0.15070748
134	0xbefc00c9	-0.4921935
135	0x3e980716	0.29692906
136	0x3e52696a	0.20548025
137	0xbecb1728	-0.39666104
138	0x3eda0aa6	0.4258625
139	0xbf7df5e6	-0.99203336
140	0xbf430944	-0.76186013
141	0xbee6bc25	-0.45065418
142	0xbe1afcc7	-0.1513549
143	0x3f0df6f3	0.5545494
144	0x3f3116c7	0.6917538
145	0x3f21675b	0.6304833
146	0x3f035963	0.5130827
147	0x3f1629a8	0.5865731
148	0x3e720c09	0.23637404
149	0x3ec81283	0.39076623
150	0x3cb84e3b	0.02249824
151	0xbf9241d9	-1.1426345
152	0x3f3bf670	0.7342291
153	0xbf3f2e80	-0.7468033
154	0x3de2e3fb	0.1107864
155	0xbe25b3de	-0.16181895
156	0x3f50a37c	0.8149946
157	0x3ee76929	0.45197418
158	0xbd14068c	-0.036139056
159	0x3e0b4a44	0.13602549
160	0x3f01a2d6	0.5063909
161	0xbeba024f	-0.36329886
162	0xbfc102b5	-1.5078951
163	0x3ea4f887	0.3222086
164	0xbef94d44	-0.48691761
165	0xbf4431b5	-0.76638347
166	0xbd02b6de	-0.031912677
167	0x3e4c5edb	0.1995806
168	0x3f28158f	0.65657896
169	0x3d935957	0.071947746
170	0x3d6a0632	0.057134815
171	0xbf2e06ad	-0.67978936
172	0xbf8bf891	-1.0935231
173	0xbee2ff55	-0.44335428
174	0xbf105a91	-0.56388193
175	0xbfbba8e0	-1.4660912
176	0xbfdf6309	-1.7452098
177	0xc017f597	-2.3743646
178	0x3cdb3a87	0.026761306
179	0xbe015010	-0.12628198
180	0xbe819472	-0.25308567
181	0x3f8a1c6b	1.0789922
182	0x3dea4698	0.11439246
183	0xbdb90971	-0.09035004
184	0x3f6ff358	0.9373069
185	0x3f315625	0.6927207
186	0x3e813a10	0.2523961
187	0x3f912aea	1.1341221
188	0xbfa765a4	-1.3077893
189	0xbdfcebfb	-0.12349697
190	0xbf7e53a0	-0.9934635
191	0x3edd3765	0.43206325
192	0x3ecf0468	0.4043305
193	0xbe23c57d	-0.15993305
194	0x3f8991be	1.0747602
195	0xbcfac333	-0.030610656
196	0xbe73cd6d	-0.23808832
197	0x3db6e49c	0.089303225
198	0xbe65617f	-0.22400473
199	0x3e13e947	0.14444457
200	0x3e1fc806	0.15603647
201	0xbdba4c8d	-0.09096632
202	0xbcbda6a4	-0.02315075
203	0xbeebad4e	-0.46030658
204	0xbf01cb18	-0.5070052
205	0xbee85774	-0.4537922
206	0xbe527092	-0.20550755
207	0x3eaa2801	0.33233646
208	0x3e96144b	0.29312357
209	0x3e6a90ba	0.22906771
210	0xbd6e500c	-0.058181807
211	0x3e022ddc	0.12712806
212	0x3e33f1b0	0.17572665
213	0x3da625cd	0.08112679
214	0x3dab4076	0.08361904
215	0xbf4ef8ff	-0.8084869
216	0x3e58bc88	0.21165669
217	0xbe0ded36	-0.1386002
218	0x3e16cf84	0.14727598
219	0x3c9d9391	0.019235404
220	0x3df5e5d4	0.12006727
221	0x3a9696ce	0.0011489035
222	0xbda1f6a0	-0.07908368
223	0x3dfa1783	0.12211516
224	0x3e20958e	0.1568205
225	0xbe17a89a	-0.1481041
226	0xbf9b045c	-1.2110705
227	0x3e0b3a24	0.13596398
228	0x3e2901ac	0.16504544
229	0xbedfab45	-0.43685356
230	0xbe4aecb0	-0.19816852
231	0xbdc64ca9	-0.096825905
232	0x3e446a49	0.1918117
233	0xbd5e844d	-0.05432539
234	0xbe20066b	-0.15627448
235	0xbe17d383	-0.14826779
236	0xbebe7104	-0.371956
237	0xbe5d47a1	-0.21609356
238	0xbdda046b	-0.10645374
239	0xbf106a22	-0.56411946
240	0xbf18f51a	-0.59748995
241	0xbf7a8704	-0.9786227
242	0x3d8fa07e	0.07013033
243	0xbd8c0e6b	-0.068386875
244	0x3e4da2b1	0.20081593
245	0x3f43c38d	0.7647026
246	0xbd6153d2	-0.055011578
247	0x3df67446	0.12033896
248	0x3f1c25de	0.6099528
249	0x3e3d9dfc	0.18517298
250	0x3e8b0981	0.27155688
251	0x3f081d22	0.53169453
252	0xbf003e64	-0.500952
253	0xbd89a2ec	-0.06720528
254	0xbe9334f3	-0.28751335
255	0x3e6e7686	0.232874

fc1.weight f4 [512, 64]
0	0xbe932b74	-0.2874409
1	0xbe608bb5	-0.21928294
2	0xbec4d7e3	-0.38445958
3	0xbe1b48a8	-0.15164435
4	0xbe3444f1	-0.17604424
5	0xbec07d75	-0.37595716
6	0xbd11f915	-0.035637934
7	0x3d0bdabf	0.03414416
8	0xbf239949	-0.6390577
9	0xbed58319	-0.41701582
10	0xbe9f5a56	-0.31123608
11	0x3e9f7cb4	0.31149828
12	0xbea86c59	-0.32895163
13	0x3e8c5530	0.27408743
14	0x3e733d5d	0.23753877
15	0xbe472aeb	-0.19449966
16	0xbdd0c087	-0.10192972
17	0xbe42997b	-0.1900386
18	0x3e0fcaa7	0.1404215
19	0xbeba473b	-0.3638247
20	0x3bbde1b6	0.005794729
21	0x3d6f44d7	0.05841526
22	0x3eb11b23	0.34591016
23	0xbe63a954	-0.22232562
24	0x3d802e6e	0.06258856
25	0xbe284893	-0.16433935
26	0x3f42f120	0.7614918
27	0x3eb588e1	0.35455993
28	0x3f0dba15	0.55362064
29	0xbe1f9242	-0.15583137
30	0xbe4d5f32	-0.20055845
31	0x3da64e76	0.08120434
32	0xbbb3700e	-0.0054760044
33	0x3ecc3401	0.39883426
34	0xbda9b456	-0.082863495
35	0xbef86f3b	-0.48522362
36	0xbcf6f0ce	-0.030144121
37	0x3cd190bd	0.025581712
38	0xbeba3025	-0.36364856
39	0xbee3beae	-0.44481415
40	0xbebbb09c	-0.3665818
41	0xbce8cf5c	-0.02841919
42	0x3ef1083a	0.4707659
43	0xbec1dec4	-0.3786527
44	0x3efaa2d1	0.48952344
45	0x3e7706f1	0.24123742
46	0xbe52de16	-0.20592532
47	0x3e8af8a9	0.27142838
48	0xbf1978b5	-0.5994981
49	0xbe930fbb	-0.2872294
50	0xbf0bbe72	-0.5458747
51	0x3e147edd	0.1450152
52	0x3cb5c463	0.022188371
53	0xbe29ad8d	-0.1657011
54	0xbe082fec	-0.1329953
55	0xbde0f43b	-0.10984083
56	0xbd206ab5	-0.039164264
57	0xbd825f5e	-0.06365846
58	0xbdfe5678	-0.12418836
59	0x3ea619d6	0.32441586
60	0xbe6148eb	-0.22000472
61	0x3e99efe6	0.3006584
62	0x3ef475ae	0.47746032
63	0x3e289f77	0.16467081
64	0x3e309f71	0.17248322
65	0xbd1899af	-0.03725594
66	0x3dbb2835	0.09138528
67	0xbdac190c	-0.08403215
68	0x3f228722	0.63487446
69	0x3e78f409	0.24311842
70	0xbe0056e1	-0.12533142
71	0xbe8f8718	-0.28032756
72	0x3d80c602	0.06287767
73	0x3fce1fd7	1.6103467
74	0xbe0f8328	-0.14014876
75	0x3f955c81	1.1668855
76	0x3d8371e2	0.06418206
77	0xbf0a3d86	-0.5400013
78	0xbe88d5d8	-0.2672565
79	0xbcf39938	-0.029736146
80	0xbf2d714e	-0.67751014
81	0x3e1dfa98	0.15427625
82	0x3c8d1331	0.017221065
83	0x402071b9	2.506941
84	0xbd9b00aa	-0.07568486
85	0xbd7d70b9	-0.06187508
86	0x3e47ed3e	0.19524094
87	0x3eab2c90	0.33432436
88	0x3d8aea2c	0.06782946
89	0x3f467708	0.7752538
90	0xbf4737e5	-0.77819663
91	0xbf8d4199	-1.1035644
92	0xbc982449	-0.01857199
93	0x3df88965	0.12135581
94	0x3cb3547e	0.021890875
95	0x3dd88d59	0.10573835
96	0x3e0d376e	0.13790676
97	0xbf72061d	-0.9454058
98	0x3d96da91	0.07365907
99	0x3f81c22e	1.0137384
100	0x3fae9cb2	1.364157
101	0x3db40a62	0.08791043
102	0x3e408d93	0.18804006
103	0x3cff411c	0.031158976
104	0xbca70f79	-0.02039312
105	0xbcda94e0	-0.026682317
106	0xbf130855	-0.5743459
107	0x3f90efbb	1.132316
108	0xc000a7fa	-2.0102525
109	0x379f4d3e	1.8990246e-05
110	0x3e1d3d42	0.15355399
111	0x3cea400a	0.02859499
112	0x3f4066b8	0.75156736
113	0x3f14b1c9	0.5808378
114	0x3dcbe403	0.09955599
115	0x3e32f456	0.1747602
116	0xbe45c351	-0.19312789
117	0x3d3a9957	0.045556393
118	0x3dc54891	0.096329816
119	0xbedad928	-0.42743802
120	0x3dab05c8	0.08350712
121	0xbde78f9f	-0.113066904
122	0xbc2b5bca	-0.010458896
123	0xbffa7b54	-1.9568887
124	0x3da38a77	0.079853944
125	0xbd8c9693	-0.06864657
126	0x3ee69ce1	0.45041564
127	0xbd02e710	-0.03195864
128	0xbe99e133	-0.30054626
129	0xbf864d49	-1.0492336
130	0xbe87689f	-0.26447007
131	0xbdc2908b	-0.09500226
132	0xbe61372a	-0.219937
133	0xbe0a1c79	-0.13487424
134	0x3e549a34	0.20761949
135	0xbf120122	-0.5703298
136	0x3e3353e4	0.1751247
137	0x3f057283	0.52127856
138	0x3df939dd	0.1216924
139	0x3eb4e851	0.35333493
140	0x3e6b113e	0.22955796
141	0xbf55bf1e	-0.83494747
142	0x3ea4dfbc	0.32201946
143	0xbea25a06	-0.31709307
144	0x3f7bd190	0.9836664
145	0xbea2fc5c	-0.3183316
146	0x3eca0d23	0.39463148
147	0xbf3a7c7b	-0.7284619
148	0xbe528b37	-0.20560919
149	0xbe65217f	-0.22376059
150	0x3f19ea76	0.60123384
151	0x3f021ca7	0.5082497
152	0x3cadfcb9	0.021238672
153	0x3da46c72	0.08028497
154	0x3d3d97f6	0.0462875
155	0x3ef6dc99	0.48215178
156	0xbe111aa8	-0.14170325
157	0xbe2bfd43	-0.1679583
158	0x3da7435b	0.08167144
159	0x3e8bb3d6	0.2728564
160	0xbe8a75cc	-0.27042997
161	0xbf712cf1	-0.942092
162	0x3d4d4aba	0.050120093
163	0xbd8ed108	-0.06973463
164	0x3f0f8600	0.5606384
165	0x3d8e95b2	0.06962146
166	0xbd9881d2	-0.07446636
167	0xbd7411fd	-0.059587467
168	0xbc11d499	-0.008900785
169	0x3d3680ee	0.04455655
170	0x3d8bc02c	0.06823763
171	0xbed2d93f	-0.4118137
172	0xbea3537e	-0.31899637
173	0x3e41cf2c	0.18926686
174	0x3ef9c07c	0.48779666
175	0x3de9a25c	0.11407921
176	0x3f6cc7f6	0.92492616
177	0xbf256c1d	-0.6461809
178	0xbdcb1c70	-0.099175334
179	0x3e19077b	0.1494426
180	0x3dc40532	0.095713034
181	0xbd97e6a4	-0.07417038
182	0xbea3b564	-0.31974328
183	0x3dadc0f6	0.0848407
184	0xbe993b06	-0.29927844
185	0xbe3dbc7f	-0.18528937
186	0xbc1f0459	-0.009705626
187	0xbd614216	-0.054994665
188	0xbdbb4ffb	-0.091461144
189	0x3d92b35c	0.07163116
190	0x3ebdf1e5	0.37098613
191	0x3e140d56	0.14458212
192	0xbf2c13fa	-0.6721798
193	0xbd664c5d	-0.05622517
194	0x3d17caf8	0.0370588
195	0xbd9fe584	-0.078074485
196	0xbd981652	-0.07426132
197	0xbc9fd4c4	-0.019510634
198	0x3cf76081	0.030197384
199	0x3dabcef5	0.08389083
200	0x3e7999ab	0.24375026
201	0xbe85363c	-0.2601794
202	0xbe29de8f	-0.16588806
203	0xbd97bb41	-0.07408763
204	0xbda5b043	-0.0809026
205	0x3cbd8292	0.02313355
206	0x3e85b974	0.26118052
207	0x3dc06edd	0.093961455
208	0xbdfbf835	-0.12303201
209	0xbca4a946	-0.020100247
210	0x3e548173	0.20752506
211	0xc002ebd7	-2.0456445
212	0x3d73c1e6	0.059511088
213	0xbe22ea94	-0.15909797
214	0xbcb9dd18	-0.022688434
215	0x3dfc4f6d	0.12319837
216	0x3eba677e	0.36407083
217	0xbf12387b	-0.5711743
218	0x3e7cbf66	0.24682388
219	0x3c75f8ba	0.015012914
220	0x3f0fcfee	0.5617665
221	0xbabf05c1	-0.0014573858
222	0xbd099403	-0.03358842
223	0x3e03f123	0.12884955
224	0xbe94408b	-0.28955492
225	0x3f7dba16	0.9911207
226	0xbe54cf27	-0.20782147
227	0x3d20b452	0.039234467
228	0xbe773cef	-0.24144338
229	0x3c4c9c4a	0.012488434
230	0xbe41c5f1	-0.18923165
231	0x3e90738c	0.28213155
232	0xbdc028a7	-0.09382754
233	0x3d359d6c	0.044339582
234	0x3eebaec0	0.4603176
235	0xbf38069c	-0.71885085
236	0x3ee2cae3	0.44295415
237	0x3ca0e2fe	0.019639488
238	0x3cd4005a	0.025879074
239	0xbb69a8a7	-0.0035653503
240	0xbedc0fbf	-0.42980763
241	0xbe63426d	-0.22193308
242	0xbea55a96	-0.32295674
243	0xbbeaa167	-0.007160354
244	0x3e725fe0	0.23669386
245	0x3de99e68	0.11407167
246	0xbe274746	-0.16335782
247	0xbdbae5c8	-0.091258585
248	0xbe3c3fb1	-0.18383671
249	0xbec25c27	-0.37960932
250	0x3db8664d	0.09003887
251	0x3f09fcd3	0.53901404
252	0x3e8da820	0.27667332
253	0xbe1d251b	-0.15346186
254	0x3e991d7a	0.299053
255	0xbdbcc1a8	-0.092166245

fc1.bias f4 [512]
0	0xbeab0a05	-0.33406082
1	0xbd58df7f	-0.052947517
2	0x3e1d6cee	0.15373585
3	0xbe8e9b32	-0.2785278
4	0xbe423962	-0.18967202
5	0x3dfc3836	0.12315409
6	0x3e3a9205	0.18219765
7	0xbed3481b	-0.4126595
8	0xbea371cb	-0.31922755
9	0xbe843329	-0.25820282
10	0xbed178c0	-0.40912437
11	0xbeb8994c	-0.36054456
12	0x3e9572e5	0.2918922
13	0x3e284018	0.164307
14	0xbebb8168	-0.36622167
15	0xbf2cf837	-0.67566246
16	0xbecad18f	-0.39613006
17	0xbe3e9a8b	-0.18613641
18	0xbeb0f244	-0.34559834
19	0xbe60f5bd	-0.21968742
20	0xbea17d05	-0.31540695
21	0xbe74b28f	-0.2389624
22	0xbe1df325	-0.15424784
23	0xbee70a46	-0.45125026
24	0xbec3463e	-0.38139528
25	0xbeb3e1ac	-0.3513311
26	0xbdebba4c	-0.11510143
27	0xbe6ad637	-0.22933279
28	0x3d4d1c9a	0.050076105
29	0xbe94a7b5	-0.290342
30	0xbda8ac37	-0.082359724
31	0x3e72f040	0.2372446
32	0xbeb83cb8	-0.35983825
33	0xbd8fd506	-0.07023053
34	0xbea2a53b	-0.31766686
35	0xbe8a7fe4	-0.27050698
36	0xbeb50f94	-0.35363448
37	0xbedf1c1b	-0.4357613
38	0xbe610fd2	-0.21978691
39	0xbec4139d	-0.38296214
40	0xbe7e2c1b	-0.24821512
41	0xbe9128c9	-0.2835143
42	0xbcbbcfd6	-0.022926252
43	0x3e219128	0.15778029
44	0xbebaf7b4	-0.36517107
45	0xbe84d3a7	-0.25942728
46	0xbe1770e5	-0.1478916
47	0xbe825437	-0.25454876
48	0xbf011d79	-0.50435597
49	0xbeb4c217	-0.3530433
50	0x3d75d2cb	0.06001548
51	0xbeb6f4fc	-0.35733783
52	0xbeb02bb1	-0.34408334
53	0xbefcb2b1	-0.4935508
54	0xbea50660	-0.32231426
55	0xbe77202b	-0.24133365
56	0xbdd7cb6f	-0.10536849
57	0xbe8be086	-0.27319735
58	0xbca985f0	-0.02069375
59	0xbeee682d	-0.46563855
60	0xbd536413	-0.05160911
61	0xbe944e53	-0.28966007
62	0xbec8c8d0	-0.39215708
63	0x3efdc6aa	0.4956563
64	0xbea03714	-0.3129202
65	0xbe9f360c	-0.31095922
66	0x3eaf940d	0.3429264
67	0xbeada331	-0.33913568
68	0xbeb4fd3c	-0.35349452
69	0xbeb1b887	-0.34711096
70	0xbed40edd	-0.4141759
71	0xbe9e265e	-0.30888647
72	0xbecfef0e	-0.40612072
73	0xbe8c17fd	-0.27362052
74	0xbe4bb236	-0.19892201
75	0xbf040d5e	-0.51582897
76	0x3c0f0206	0.00872851
77	0xbe6f90b0	-0.23395038
78	0xbeb146c8	-0.34624314
79	0xbee1068b	-0.43950304
80	0xbeaa1338	-0.33217788
81	0xbf0ef3de	-0.5584086
82	0x3e364858	0.17801034
83	0xbe9574d2	-0.2919069
84	0x3c9c133d	0.019052142
85	0xbe35b1ed	-0.17743655
86	0xbe25b318	-0.161816
87	0xbe9e593f	-0.30927464
88	0xbe7c5e96	-0.24645457
89	0xbe9deea6	-0.30846137
90	0xbeb0ce75	-0.34532514
91	0xbeeec977	-0.4663808
92	0xbcc18d5b	-0.023626974
93	0xbdcbd98b	-0.099536024
94	0xbe1d9517	-0.15388905
95	0x3f08b082	0.5339433
96	0xbeb62ec7	-0.35582563
97	0xbe7c86d1	-0.24660803
98	0xbd173778	-0.036918133
99	0xbe3fb1d7	-0.18720184
100	0x3e8465ff	0.25859067
101	0xbe11f4d6	-0.14253554
102	0x3e363b04	0.1779595
103	0xbe906b8a	-0.28207046
104	0xbdf9c309	-0.12195403
105	0xbe9f436d	-0.3110613
106	0xbece575b	-0.40301022
107	0x3e054ecf	0.13018344
108	0xbe9b1cc4	-0.30295384
109	0xbddc23d0	-0.10749018
110	0xbe135f50	-0.14391828
111	0xbe921582	-0.28532034
112	0xbee18ade	-0.4405126
113	0x3b54e834	0.0032487037
114	0xbe80883a	-0.25103933
115	0xbf0448c3	-0.51673526
116	0xbe3b145f	-0.1826949
117	0xbf01c1a5	-0.50686103
118	0xbee51f4b	-0.44750437
119	0xbebb7a90	-0.36616945
120	0xbed6b8d8	-0.419379
121	0xbe2cb8f3	-0.16867428
122	0xbeccfe6d	-0.4003786
123	0xbd711945	-0.05886199
124	0xbc8ebf58	-0.017425224
125	0xbeeee09e	-0.46655744
126	0x3ef1e3f3	0.47244224
127	0x3ea200ba	0.3164118
128	0xbe819f98	-0.25317073
129	0xbe605e95	-0.2191108
130	0xbeac8ce1	-0.33701232
131	0xbec350ca	-0.38147575
132	0x3e916dfd	0.28404227
133	0xbe4a13dc	-0.19734138
134	0xbe9ece46	-0.3101675
135	0xbe16542b	-0.14680545
136	0xbf03077e	-0.5118331
137	0xbd2b1fe2	-0.041778453
138	0xbd96e1b6	-0.0736727
139	0xbe65e1e1	-0.22449447
140	0xbef62dd6	-0.48081845
141	0xbec33d85	-0.38132873
142	0x3e4a9cb3	0.19786339
143	0xbe9228db	-0.28546795
144	0xbe6d9998	-0.23203123
145	0xbef5437c	-0.4790305
146	0x3dff82d8	0.12476128
147	0xbe79dda5	-0.24400957
148	0xbe97b7b8	-0.29632354
149	0x3c3dc6ac	0.011583012
150	0xbe41e9cb	-0.18936841
151	0xbe2bb738	-0.16769111
152	0xbebc91f3	-0.368301
153	0xbf012085	-0.50440246
154	0xbee5b94d	-0.44867936
155	0xbf0288ed	-0.5099018
156	0xbea7faeb	-0.32808623
157	0xbe5e2dec	-0.21697205
158	0x3dabfc2d	0.08397708
159	0xbed6fde5	-0.4199058
160	0xbebfc16a	-0.3745225
161	0xbe845e9b	-0.25853428
162	0x3e069e0c	0.13146228
163	0xbef39bf1	-0.4757991
164	0x3edb5af8	0.4284284
165	0xbec69545	-0.3878576
166	0xbe989c50	-0.29806757
167	0xbefa3804	-0.48870862
168	0xbe84f49c	-0.25967872
169	0xbe32bc50	-0.17454648
170	0xbeb2883d	-0.34869567
171	0xbd317ce0	-0.04333198
172	0xbea3809d	-0.31934062
173	0xbec75d0e	-0.38938183
174	0xbe5f29c1	-0.21793272
175	0xbe5e5b0c	-0.21714419
176	0xbe473dd9	-0.19457187
177	0xbe5b01f6	-0.21387467
178	0xbe683ba5	-0.22679003
179	0xbdd874a6	-0.10569124
180	0xbe55e559	-0.2088827
181	0xbe0bfcc9	-0.13670649
182	0x3f0602ad	0.5234783
183	0xbe801f69	-0.25023964
184	0xbd2b95ae	-0.041890793
185	0xbe10dde9	-0.14147152
186	0xbed80bc8	-0.42196488
187	0xbe7855d8	-0.24251497
188	0x3f3cd911	0.7376872
189	0xbea8d07d	-0.32971564
190	0xbea4b856	-0.32171887
191	0xbef5ca38	-0.48005843
192	0xbf123586	-0.5711292
193	0xbea80415	-0.32815614
194	0xbeeffa36	-0.46870583
195	0xbead811f	-0.33887574
196	0xbf055d8c	-0.52095866
197	0xbe9d32ac	-0.30702722
198	0xbeaa9be0	-0.33322048
199	0xbe02a36f	-0.12757657
200	0xbe936dc3	-0.2879468
201	0xbea35fca	-0.3190902
202	0xbea5ff74	-0.32421458
203	0xbe644544	-0.22292048
204	0xbec7694a	-0.38947517
205	0xbe9d7311	-0.3075185
206	0xbe37875f	-0.17922734
207	0xbe37dd99	-0.17955627
208	0xbf0d711e	-0.5525073
209	0xbed6c475	-0.4194676
210	0xbeca44ec	-0.39505708
211	0xbcbcccf3	-0.023046946
212	0xbed01c32	-0.4064651
213	0xbdb829f8	-0.0899238
214	0xbeb5187b	-0.3537024
215	0xbedf5ee5	-0.43627086
216	0xbebd4460	-0.36966228
217	0xbea61c53	-0.32443485
218	0xbeb29d78	-0.34885764
219	0xbee9f630	-0.4569564
220	0xbeeb21b3	-0.45924148
221	0xbef0e429	-0.47049072
222	0xbecf1eee	-0.40453285
223	0xbe975e26	-0.29564017
224	0xbea7959f	-0.3273134
225	0xbeda2900	-0.42609406
226	0xbec07318	-0.3758781
227	0xbeb81bad	-0.35958615
228	0xbf0b3924	-0.54384065
229	0xbdd92f95	-0.10604779
230	0xbe7f0bbd	-0.24906822
231	0xbded9944	-0.11601499
232	0xbe8e571d	-0.27800837
233	0xbe816bb0	-0.25277472
234	0x3d74dc61	0.059780482
235	0xbf0fee30	-0.5622282
236	0xbed302fd	-0.41213217
237	0xbec9323e	-0.39296144
238	0x3db654f4	0.08902922
239	0xbe776d57	-0.24162804
240	0xbe634943	-0.22195916
241	0x3e026724	0.12734658
242	0xbe556238	-0.20838249
243	0x3e295ce8	0.16539347
244	0xbe5daaa0	-0.2164712
245	0xbe150638	-0.14553154
246	0xbeb91070	-0.36145353
247	0xbead5a9f	-0.338582
248	0xbe2042ea	-0.15650526
249	0xbea02152	-0.3127542
250	0xbe8394e2	-0.25699526
251	0xbe3425fb	-0.17592613
252	0x3e8d4ee2	0.27599245
253	0xbe939fa8	-0.28832746
254	0xbef38b3d	-0.47567168
255	0xbeb53538	-0.35392165

fc2.weight f4 [256, 512]
0	0xbd1b005a	-0.037842132
1	0xbcbb5d2a	-0.022871573
2	0x3d0471cf	0.0323351
3	0x3bcea95e	0.0063068112
4	0x3c977366	0.018487643
5	0xbd44d04e	-0.048050217
6	0xbcc89abf	-0.024487851
7	0x3d0d10e1	0.034439925
8	0xbc9f063c	-0.019412152
9	0xbd646500	-0.055760384
10	0x3d10b161	0.03532541
11	0x3c2dea74	0.01061498
12	0x3993a65f	0.0002816198
13	0x3d1395b4	0.03603144
14	0xbd82a0df	-0.0637834
15	0xbb88fd80	-0.00418061
16	0xbd7df872	-0.062004514
17	0xbbd2bddf	-0.006431326
18	0x3cfa8f46	0.030585896
19	0xbd017f12	-0.031615324
20	0xbb1e16ea	-0.0024122545
21	0xbb571829	-0.0032820797
22	0x3c61183c	0.013738688
23	0x3cfd07bf	0.030887483
24	0xbd25e091	-0.040497366
25	0xbd2ac05b	-0.04168735
26	0xbcfa24f0	-0.030535191
27	0xbcba6523	-0.022753304
28	0xbd122f83	-0.035689842
29	0x3d0d01a9	0.03442541
30	0xbd6a3783	-0.057181846
31	0x3c9b4a53	0.018956339
32	0xbc962bf1	-0.0183315
33	0xbd3352a9	-0.043780003
34	0x3b8db5f0	0.004324667
35	0xbd496935	-0.0491726
36	0x3c6bb345	0.014386003
37	0x3bdd52fc	0.0067542773
38	0xbc5d46ca	-0.013505647
39	0xbbc82df8	-0.0061089955
40	0xbd09b187	-0.03361657
41	0xbb550d10	-0.0032509007
42	0xbb1be380	-0.0023786724
43	0x3c01c37c	0.007920142
44	0xbd05a421	-0.03262723
45	0xbd3e4640	-0.046453714
46	0xbc13e750	-0.009027317
47	0xbcd2fea6	-0.025756191
48	0xbd861024	-0.06546047
49	0x3d1d7c9f	0.038448926
50	0xbb86f1be	-0.0041181734
51	0xbbf915a8	-0.0076014586
52	0x3cd110ca	0.025520701
53	0xbd7a8620	-0.061163068
54	0xbcc14358	-0.023591682
55	0x3c18172c	0.009282868
56	0x3c280318	0.010254644
57	0x3d2a1c27	0.041530754
58	0x3c8c128c	0.017098688
59	0xbccf542d	-0.025308693
60	0x3cf82e25	0.03029544
61	0xbd32f25b	-0.04368816
62	0x3702e60d	7.802167e-06
63	0x3c51a0e0	0.012794703
64	0x3b571ad0	0.0032822378
65	0xbce31ffa	-0.027725209
66	0x3c3154e4	0.010823462
67	0xbd44707a	-0.04795883
68	0x3c79c530	0.015244767
69	0xbd68cbe4	-0.05683507
70	0xbc6edce3	-0.014579031
71	0xbd6f6a7d	-0.058451165
72	0xbcc41300	-0.023934841
73	0xbcc85f04	-0.02445937
74	0xbd318015	-0.04333504
75	0x3add5f20	0.0016889311
76	0xbb620300	-0.0034486651
77	0xbc1953d0	-0.009358361
78	0xbd3e775b	-0.046500545
79	0xbc8f475d	-0.017490083
80	0xbd1bc728	-0.038031727
81	0xbcd1859e	-0.025576409
82	0xbc3a2e5b	-0.011363591
83	0xbd03c0ad	-0.03216617
84	0x3b9958b8	0.0046797656
85	0x3d121cff	0.035672184
86	0xbd311717	-0.04323491
87	0xbd07798a	-0.033074893
88	0xbca2531e	-0.019815024
89	0xbd93cbb8	-0.07216591
90	0xbb981088	-0.0046406426
91	0xbc97ce85	-0.018531093
92	0xbcd99502	-0.02656031
93	0xbcf01a4c	-0.029309414
94	0xbd1b5688	-0.03792432
95	0x3c409a88	0.011755593
96	0x3c0b7435	0.008511593
97	0xbd18f69e	-0.037344567
98	0xbc802e4f	-0.015647082
99	0x3c3d9f3c	0.011573609
100	0xbd27dc8e	-0.04098182
101	0x3cd30cda	0.025762964
102	0x3c21031e	0.009827403
103	0xbc812a62	-0.01576728
104	0x3cb16b23	0.021657532
105	0xbd1a49ba	-0.037667967
106	0xbc4e9449	-0.012608596
107	0xbd2ce02d	-0.04220598
108	0xbbd0e1b8	-0.006374564
109	0xbd13c2ba	-0.036074378
110	0x3c920ce4	0.017828412
111	0x3cb88f8d	0.022529388
112	0xbb9ca570	-0.004780464
113	0xbca43933	-0.020046806
114	0x3d03f4af	0.03221577
115	0x3c9b72f8	0.01897572
116	0xbd315037	-0.04328939
117	0xbc1cb700	-0.009565115
118	0xbd739321	-0.059466485
119	0xbd943d4e	-0.072382554
120	0xbcec879b	-0.028873255
121	0xbbc4d030	-0.006006263
122	0xbd03cf9b	-0.03218041
123	0xbd534b02	-0.051585205
124	0xbd92d8f2	-0.07170285
125	0xbd154607	-0.036443736
126	0xbc4844fd	-0.012223479
127	0xbd69def9	-0.05709741
128	0xba999520	-0.0011717416
129	0xbd297443	-0.04137064
130	0x3cea6a48	0.028615132
131	0xbc52ff10	-0.012878194
132	0xbd1dd98f	-0.03853756
133	0x3c5273ec	0.012845021
134	0xbc9c9582	-0.01911426
135	0xbc126941	-0.008936227
136	0xbd225ed1	-0.039641205
137	0x3c81a7dc	0.015827112
138	0xbb923f25	-0.004463094
139	0x3ca8f5e6	0.020625066
140	0xbd984230	-0.07434499
141	0xbd3e5540	-0.04646802
142	0xbccb82c1	-0.024842622
143	0xbc6eb7a9	-0.014570155
144	0xbc6cbb3a	-0.014448935
145	0x3c0fdaf3	0.008780229
146	0x3c8dc2dc	0.01730483
147	0xbc810bca	-0.015752692
148	0xbcb1c8fb	-0.02170228
149	0x3c12db60	0.008963436
150	0xbd0780b4	-0.033081725
151	0x3c87718e	0.01653364
152	0xbae28a40	-0.0017283633
153	0x3a78fcc7	0.0009498116
154	0xba166bbf	-0.00057381013
155	0xbd024623	-0.03180517
156	0xb97627ef	-0.00023475265
157	0xbc389ea6	-0.0112682935
158	0xbcbdf0f8	-0.023186192
159	0x3cd209a2	0.025639359
160	0xbd06cdc6	-0.032911085
161	0xbd84424e	-0.06457959
162	0xbca1b033	-0.019737339
163	0xbd88f0d2	-0.06686558
164	0xbd28c74e	-0.041205697
165	0x3bd8ba46	0.0066140024
166	0xbcefafb8	-0.029258594
167	0x3b7b8410	0.0038378276
168	0xbd9bb992	-0.07603754
169	0xbd020fdd	-0.03175341
170	0xbd693e85	-0.05694439
171	0x3b3dff9a	0.0028991462
172	0xbc9e5335	-0.019326786
173	0xbd14d270	-0.0363335
174	0x3d00ab65	0.031413455
175	0xbc03ad3f	-0.008036911
176	0x3c3f5b74	0.011679519
177	0xbd2af9b0	-0.041742027
178	0xbbe33658	-0.0069339685
179	0xbd3f5637	-0.04671308
180	0xbd2718b9	-0.04079506
181	0xbce2470c	-0.027621768
182	0xbd29aa5a	-0.041422226
183	0x3b79a71f	0.0038093997
184	0xbcee7107	-0.02910663
185	0xbcda6f9e	-0.026664551
186	0xbc09b606	-0.008405214
187	0xbd2540d5	-0.04034503
188	0x3bd8cb72	0.0066160494
189	0xbccf3ff9	-0.02529906
190	0xbceca3d0	-0.028886706
191	0xbd57dccc	-0.052700803
192	0xbb699453	-0.0035641387
193	0xbc917832	-0.017757509
194	0xbd21e7e9	-0.039527807
195	0x3cce258f	0.025164394
196	0xbd5089c4	-0.050912634
197	0xbd05d98e	-0.03267818
198	0x3c57502c	0.013141673
199	0xbd390e1d	-0.045179475
200	0xbd4466fa	-0.04794977
201	0x3c2a7fd5	0.010406454
202	0x3be30068	0.0069275387
203	0xbd12fb73	-0.035884332
204	0xbd4e06f3	-0.050299596
205	0x3a95bb60	0.001142364
206	0x3b846058	0.0040398054
207	0xbd1c7c12	-0.03820426
208	0xbd22637e	-0.039645664
209	0xbce05da2	-0.027388398
210	0xbc80167d	-0.015635723
211	0xbd43c07e	-0.047790997
212	0x3c6ef41c	0.014584567
213	0x3bce9db7	0.006305422
214	0xbd2ad355	-0.04170545
215	0x3c27e32f	0.010247036
216	0xbd38a18d	-0.04507594
217	0xbc9eda8e	-0.019391324
218	0x3ba9ad14	0.005178103
219	0xbd341623	-0.043966424
220	0xbd26bbc1	-0.0407064
221	0xbc8c7a1b	-0.017148068
222	0xbd1f5abf	-0.0389049
223	0xbc4aaffc	-0.0123710595
224	0xbbcb59cf	-0.0062057744
225	0x3cb3ea8e	0.02196243
226	0xbcbb7b23	-0.022885865
227	0x3c271ac4	0.0101992525
228	0xbd2e99eb	-0.042627256
229	0x3cd5b6a2	0.026088063
230	0xbd29cbe1	-0.0414542
231	0x3acb7e80	0.0015525371
232	0x3c1bcab4	0.009508777
233	0xbd5a2323	-0.053256165
234	0xbd47436d	-0.048648287
235	0xbd84f6b0	-0.064923644
236	0xbd6e0077	-0.058105912
237	0xbbb611a5	-0.0055563026
238	0x3c42d681	0.011891962
239	0xbc7a2118	-0.015266679
240	0x3d1c69c5	0.038186807
241	0xbc8386a2	-0.016055409
242	0x3cc3201e	0.023819026
243	0xbcec7e72	-0.028868888
244	0x3c1b1174	0.00946461
245	0xbd92f23e	-0.0717511
246	0xbc53d82e	-0.012929959
247	0xbcb1f49e	-0.021723088
248	0xbd7d2c45	-0.061809797
249	0x3c2b6caf	0.010462924
250	0x3d1b4a6d	0.037912775
251	0xbbb8dd90	-0.0056416467
252	0x3c8a3e22	0.01687533
253	0x3c8a93f4	0.016916253
254	0xbc9db244	-0.019250043
255	0x3ba5ad18	0.005056035
