data/predictor/PT/TNetwork-F_2024-04-23_19-26-35.pt (torch, 865107 bytes, 16 tensors)

conv1.bias f4 [64]
00000000: 654d d5bd b6b2 00be d4ec 123e 0000 0000
00000010: 2686 e3bd 0000 0000 be45 78be 1188 febe
00000020: 9e50 1f3d e124 c9bc 6de4 c4bd f674 36be
00000030: a713 063f b832 d3be 5313 3fbe 483b d0bc
00000040: c751 f4bd 0000 0000 0dcf 9bbd 335e 66be
00000050: 70b1 383e 2f14 433e 5003 1ebc f95f dcbd
00000060: b060 50be 381e d4be 474a 4fbd a5fc 62bd
00000070: 34fe a23d 87ff 65be e0f1 d3bd 8a24 16be
00000080: faf7 84be e789 10be 0000 0000 9568 78be
00000090: a1d4 9abd 8604 2dbe a1c1 90be d907 e23b
000000a0: 65e5 17bc 7e5e 76be 8d39 08bf ac9d 14be
000000b0: 990d cdbe ea1a b43b 17fc 51bd f947 9e3e
000000c0: 757f bebd eb94 e53c 1fb0 34bd ebc2 d9bd
000000d0: ba63 b6be 0000 0000 6028 cabd d573 32be
000000e0: da8c 62be a81a 08bd 1147 03be 6e86 8fbe
000000f0: dcdf 7cbe d55a 4cbe 4e49 03be 9103 08be
-0.104151525 -0.12568173 0.14348155 0.0 -0.11109571 0.0 -0.24245355 -0.49713185
0.038895242 -0.024553718 -0.09613881 -0.17818055 0.5237374 -0.41249633 -0.18659715 -0.025418893
-0.1192966 0.0 -0.07607851 -0.22496872 0.18036437 0.19050668 -0.009644344 -0.10760493
-0.20349383 -0.41429305 -0.050607946 -0.05541672 0.07958642 -0.22460757 -0.10348868 -0.14662376
-0.2597044 -0.14115106 0.0 -0.24258645 -0.07560087 -0.16896257 -0.28272727 0.006897908
-0.0092710005 -0.24059483 -0.53212816 -0.14513272 -0.40049437 0.0054963725 -0.051265802 0.30914286
-0.09301654 0.028025111 -0.044113275 -0.10632881 -0.3562296 0.0 -0.09870982 -0.17426999
-0.22124043 -0.033228546 -0.12820078 -0.2803225 -0.2469477 -0.19956525 -0.12820932 -0.1328261

conv1.lin.weight f4 [64, 6]
00000000: 1215 013d e1bc 4bbe 9bd4 24be 741b 8cbe
00000010: 3115 a33d 7bae 05bd 3775 a0be 320b 1bbf
00000020: 8f82 0ebf a76d 243f 8776 ac3c 6584 ab3f
00000030: 6dd4 a83e c832 69bf 2ff6 163e 0545 073f
00000040: 57fa acbd 258b 3fc0 be6f 57be b805 3bbe
00000050: f01e f2bc 3854 8dbe 20cc 5abc 8062 aebc
00000060: 4a9c 83be a5b8 133f a7db 13be 1240 573f
00000070: c9bd 24bd 039c 823c a321 92be 60f9 21be
00000080: 4b92 26be 60d8 92bc 8baa 7dbe 767a 10be
00000090: 1228 b13d d09d 83be 5221 363f 322b 9f3e
000000a0: 7c41 adbd 0d38 29bf a03e 4c3e 75b1 023f
000000b0: b22c de3e 00d1 bd3e be56 b2bd 100c 3d40
000000c0: 0cab 1fbf 8bc9 483f 5964 6a3f 11e3 c0be
000000d0: b45f 4ebe 3404 443f 0074 e53b 4cfb 21be
000000e0: 4b95 b4bc 779b 073c 3abe a3bd f8b6 333c
000000f0: 72f0 073d e936 3f3f 1715 16c0 990e 0dbf
00000100: 643e 05be 2dbb 563f 0512 4ebe 8c20 253f
00000110: fa7b 9fbf 8304 173f 509e 2f3d fb00 c13f
00000120: 7f83 6dc0 f748 153e c208 6e3f 8cd3 493f
00000130: c810 febe 72d0 a93f c140 d73d ef4d 303f
00000140: b9e9 193f 9ee5 eb3e 1a89 5dbc e363 00c0
00000150: 33ae cc3d 2af7 283f de69 5a3e 6b1a 413f
00000160: 7dce bcb9 18b8 27c0 24a9 94bb c150 a03d
00000170: 26b5 a0bd b60d 9dbf 6e1d 06bc 6bac e93f
00000180: 2aa0 bb3d 7f1a f33e 6bf3 32bf 9449 383f
00000190: aa28 3bbc 638c 133f 5073 f1bd 60ad a4bc
000001a0: 30f3 a1bc 304b 97bd beb7 84be f2c7 7bbe
000001b0: 0980 ffbe 9f33 8dbb bd7e 5c3f 53b0 34bf
000001c0: f089 3b3c a3c6 5abf e24d 3a3e 2007 50bf
000001d0: 7763 7e3d 58d7 95bf d82d 90be 2094 e43f
000001e0: 1fe7 8fbf c91b 4dbf b46d 053f b9d7 4c3e
000001f0: 8e32 5abe 4b6b be3f 62fd 923e 5bc6 6fbf
00000200: b003 1ac0 5682 0f3f cd9c debd a120 633f
00000210: 2032 bfbc 486b 47be e630 ad3e dd89 02c0
00000220: 088b 80be 9dc3 f63f 3b6e 9dbc 60b0 193f
00000230: ada2 babf 27f3 473e 2558 7ebe 92aa b73f
00000240: 131a 273d 80d5 0f3f 5150 2d3f 0160 053f
00000250: fd2d 1a3e de3f 36c0 8241 073e 01dc 293f
00000260: 1d5b 033f d049 a33e 096a 8bbe 3adb 813f
00000270: b245 103e 6b39 62bf f856 063d eabc cfbf
00000280: 3679 79be 28c8 ef3f ef18 e5be 94c9 163b
00000290: a45b 433f d98c 25bf 670b 023e c775 45bf
000002a0: 5f32 05bf bb1a 85bf 6355 5e3f ed85 813e
000002b0: 7c39 53be c1e6 22c0 bbd5 c43d 259a 17bf
000002c0: 287e 873e 7934 4b3f a337 803d ae51 2ebf
000002d0: c661 92bf 66f6 923f c4ef cdbf 515b de3e
000002e0: 0cc3 1ebe 6466 3cbf aae9 e83d 2f3c 353f
000002f0: d8dd a5bf 5503 23bf b889 95bc 5d59 943f
00000300: 284f b3be 5418 7f3f 1a50 2bbf c4b0 ebbe
00000310: acd7 dbbc 456f 63bc 5a5f 23be 510f 113f
00000320: ee2a f73e dd82 f33e 6b2e 76be 97f3 c73e
00000330: c71a 47be 5cd4 01be b8d5 37be 6641 03be
00000340: c6d9 39be 8051 233c 2567 323e 0f41 03c0
00000350: ca06 893e c7b4 6b3f ad76 743d ea44 27be
00000360: 3140 06bf abab 543f 3616 f8bf da96 263e
00000370: c172 033e 590c 463f ca87 ca3d 48f4 d03e
00000380: 4470 803f b983 31bf ac9b 6bbd 094c 36bf
00000390: 6113 693e c127 683e f3a6 17be 61c5 e73d
000003a0: 0849 1fbd d741 483f dadc dc3d 3452 33bd
000003b0: ecc4 c8bd 5c37 cbbf 0a4d 68be b128 0140
000003c0: da23 8fbd 5ed5 b83e 8ace 443e aaa3 24c0
000003d0: 6bb0 90be 5868 fa3f 9e54 d03d 9d91 743e
000003e0: ddbe 60bf 0c17 5e3e 3a4f 803d 0b9f dc3f
000003f0: a808 6f3e 385a f03e 171a 2f3f 442c e53e
0.031514235 -0.1989627 -0.16096728 -0.27364695 0.07963026 -0.0326371 -0.31339428 -0.6056396
-0.55667967 0.64229816 0.021052612 1.3399779 0.32974568 -0.9109311 0.14742349 0.5283969
-0.08446186 -2.9928677 -0.2103872 -0.182639 -0.029555768 -0.27603316 -0.013354331 -0.021287203
-0.25705177 0.5770362 -0.1443926 0.8408214 -0.040220056 0.015943533 -0.28541288 -0.15817785
-0.16266744 -0.017925441 -0.24772088 -0.14109215 0.08650221 -0.2570634 0.7114459 0.31087643
-0.08459756 -0.6610115 0.19945765 0.5105203 0.43393475 0.37073517 -0.08707951 2.9538612
-0.6237037 0.7843253 0.9155937 -0.37673238 -0.20153695 0.76568913 0.0070023537 -0.15818518
-0.022043845 0.008276812 -0.07995267 0.010968916 0.03318829 0.7469316 -2.3450372 -0.551004
-0.13012081 0.8387936 -0.20124061 0.6450279 -1.245971 0.5899126 0.042875588 1.5078424
-3.711151 0.14578615 0.92982113 0.7883842 -0.49622178 1.3266737 0.10510398 0.6886892
0.6012226 0.46073622 -0.013521457 -2.0060966 0.09994163 0.6600214 0.21329448 0.75430936
-0.00036012 -2.6206112 -0.0045367647 0.078279026 -0.07847051 -1.2269809 -0.0081857275 1.8255743
0.09161408 0.47481152 -0.69902676 0.7198727 -0.011423269 0.5763609 -0.11789572 -0.020102203
-0.019769281 -0.07387388 -0.25921434 -0.24587992 -0.4990237 -0.004309132 0.8613089 -0.7058155
0.011446461 -0.85459346 0.18193772 -0.8126087 0.062106576 -1.1706343 -0.28159976 1.7857704
-1.1242408 -0.8012052 0.5212052 0.20004167 -0.21308348 1.4876493 0.2870894 -0.9366204
-2.406475 0.5605825 -0.10869751 0.8872166 -0.023339331 -0.19474518 0.3382637 -2.0396645
-0.25106072 1.9278446 -0.019217601 0.6003475 -1.4580895 0.19526349 -0.24838312 1.4348929
0.04079635 0.5618515 0.6770068 0.52099615 0.15056606 -2.8476481 0.13208583 0.66351324
0.513109 0.31892252 -0.27229336 1.0145028 0.14089087 -0.8836886 0.032797784 -1.6229527
-0.24362645 1.8732958 -0.44745585 0.0023008334 0.7631171 -0.6466804 0.12699662 -0.7713284
-0.52029985 -1.0398782 0.8684904 0.2529749 -0.20627397 -2.545334 0.09611078 -0.5921958
0.26463437 0.7937694 0.06260612 -0.68093383 -1.1436088 1.1481445 -1.6088796 0.43429044
-0.15504092 -0.73593736 0.11372693 0.7079496 -1.2958326 -0.6367696 -0.018254146 1.1589772
-0.3502133 0.99646497 -0.669191 -0.460333 -0.026836239 -0.013881509 -0.15954342 0.56663996
0.4827494 0.47560778 -0.24041145 0.39053032 -0.19443808 -0.12678665 -0.17952621 -0.12817916
-0.1814948 0.009968162 0.17422159 -2.0508459 0.26762992 0.9207272 0.05968349 -0.16334882
-0.524417 0.83074445 -1.9381778 0.16268483 0.12836744 0.7736259 0.09889181 0.40811372
1.0034261 -0.6934162 -0.057521507 -0.7120977 0.22761299 0.22671415 -0.1480978 0.11316944
-0.038888007 0.78225464 0.107843116 -0.043779567 -0.09803185 -1.5876269 -0.22685638 2.0181086
-0.0698926 0.36100286 0.19219413 -2.5724893 -0.28259596 1.9563093 0.101723894 0.23883672
-0.87791234 0.21688479 0.06265111 1.7236036 0.23343146 0.4694383 0.68399185 0.44760334

conv2.bias f4 [64]
00000000: ad2e 6cbe 4883 8dbd 3427 b3bd 7b3c 85be
00000010: d887 6dbd 9fd9 e1bd b1cd f1bd 3276 56bd
00000020: aca8 76be 2312 443e cfd2 1fbf e4e0 d33d
00000030: 3f02 a2be 6ece b5bc 9b8f 3fbd d2e8 a73d
00000040: f240 e9bd c6de 33bd 2da6 063e 6760 64be
00000050: fc6b 96bd 5249 de3d e670 20be 1f60 7abe
00000060: 5193 ba3d 8f07 20bd f032 96be 56bd 69be
00000070: fb6a f8bc 3c2c 1bbe 096c 343d d859 9dbe
00000080: ff41 c1be d9a4 a0bc fc3e 04be 841f 49bd
00000090: ba62 aabd bed0 c7bd 528f 57bd 445e 19be
000000a0: ba09 11bc 42fe 463e 152a c4bd 7d64 c0bd
000000b0: d373 55be d009 cc3d 591c 02bd 6fec 93be
000000c0: 600e 593c cb28 85bd 99b7 bb3d 0c43 6fbe
000000d0: dc0d 97be 8dfe 91be b136 593d aa9e b1bd
000000e0: ad2d 59be bd29 cdbc ed32 23bf 62a6 45be
000000f0: 642c 6abd b234 bfbd d9f7 8fbe 17cb 46be
-0.2306468 -0.069098055 -0.08747712 -0.26022705 -0.05799088 -0.11027836 -0.11806811 -0.052358814
-0.2408778 0.19147544 -0.62431043 0.10345629 -0.3164234 -0.02219316 -0.046767812 0.08198704
-0.113893405 -0.043913625 0.13149329 -0.223024 -0.07344815 0.108538285 -0.15668067 -0.2445073
0.091101296 -0.03906971 -0.29335737 -0.22826132 -0.03032445 -0.15153593 0.044048343 -0.30732608
-0.37745664 -0.019609855 -0.12914652 -0.04910232 -0.08319612 -0.09756611 -0.052626915 -0.14977366
-0.008852417 0.19432929 -0.09578339 -0.093941666 -0.20844965 0.09962809 -0.031765316 -0.28891322
0.013248056 -0.06501921 0.09165878 -0.2336542 -0.2950276 -0.2851452 0.053030673 -0.08672841
-0.2120883 -0.025044316 -0.6374958 -0.19301751 -0.05717124 -0.09336223 -0.2811878 -0.1941341

conv2.lin.weight f4 [64, 64]
00000000: 6fb0 4ebe 7bbe 613f 4321 0f3d 6210 cc3d
00000010: a4e0 323d b503 0dbe 365a f6be a5b8 133f
00000020: 2cc6 42bf d2dd 803d fc68 ce3e 1d78 133f
00000030: 97ec ddbe 4ad5 adbe 1d84 ddbe ae24 a73e
00000040: 49e2 903e d246 f03d 1a3f 7abf 1730 ab3e
00000050: 6a4d 3cbe 42fb 12bd 4516 143f 59a3 3d3e
00000060: b203 2dbf 41df 3bbe 98f4 453e ef74 e5bf
00000070: 57d2 9fbf 55a6 9dbd 1e98 643e 109b 8a3e
00000080: c51f 113f ca70 b1be d82e a6bc df68 563f
00000090: 3264 893e d935 e3bf 62b6 953e 5cdb 103f
000000a0: c729 193d 6812 b23e ca76 c1bf 1841 afbc
000000b0: 40a7 b23e 61aa dbbe 5cbb 1b3f 72fb 9bbd
000000c0: 98f0 a5be 2ba0 273f 112b 00be e0b7 0d3f
000000d0: e2fe e33e ae20 97bd 6413 e6be 974b 113f
000000e0: 1e65 e73f 3355 4d3e c9fc 153f 615c bc3d
000000f0: c1d4 8b3d efae 16bf 693c d43d 59e1 c7bf
00000100: af90 b3bd fd08 843d ade2 61be 351a 383e
00000110: 53a3 5cbd 0dd6 34be 1b36 15be 0cfc 14be
00000120: 15d7 82be 545f 26be bbfa ee3d 6296 03be
00000130: f162 0a3c 7b16 543d a41d 5abe fdea 833d
00000140: 0d90 d1bd 6c83 6e3d abbe 70bd 41cc 31be
00000150: 678e 99bd 28e0 913d 1235 5dbd df4a a1bd
00000160: 6049 07bd af52 b7bd 0827 aa3d 56c9 5fbd
00000170: 3c4b 07be 0ca1 b03d c586 cf3d 48ca c7bc
00000180: eacf 50be dadc 7dbe cb02 373e 016f 0b3e
00000190: 3203 ee3d 6215 bfbd b563 223e 49b1 77be
000001a0: 1668 96bd 70b6 573d 547b c0bd 3195 f3bd
000001b0: 00bb 463d e755 a0bd fecb 223e 2257 403d
000001c0: 8975 70bb 6a47 0c3e 1528 87be a40f 0cbd
000001d0: 7d87 83bd 0fde 303e f453 83bd 6e58 3abe
000001e0: 90f9 93bd 70b5 0bbe fa7c e6bd e563 84be
000001f0: d408 0e3e 55b4 18bd f497 f03d d0ba a23d
00000200: 116e 843d e990 0140 a1a1 1a3d f6b1 33be
00000210: 281d a6bc cef0 b83d 08e0 9e3e cde1 7e3f
00000220: a252 9f3e 6509 073e a28c 07bf 680d 59bf
00000230: a670 c5be ab4a 183f fc3c 503e e5f6 09be
00000240: 537a b6be e636 ff3d e5bf c7bf 2fc1 cd3e
00000250: 90fe 413d 8566 19bd b386 2cbf 5700 6dbf
00000260: b9ef dd3e 9cce 263f 8e53 0c3c fe20 93bf
00000270: 5e8e 48bf d4a1 e73e 29c8 40c0 f78a 14c0
00000280: d5b4 b340 65c7 0f3f c037 66bb 18f5 f03d
00000290: 7423 bdc0 4b35 cfbe 7263 06bf d4d6 64be
000002a0: e7b7 1cbf 1bea 87bf 140e 033f 2af2 b53e
000002b0: f8c9 cdbf 19f9 16c0 b034 583f 2870 023e
000002c0: 781a 3a3e 6f72 29be 38b1 8bbd 130c ff3e
000002d0: d598 ea3e 9a3d b7bd de65 35be 8cb0 493f
000002e0: 2c49 53bf a1b5 57be 2959 10bf b2b1 acbf
000002f0: 5fdd 7c3d 6f2f c6be d17e a23f 3ac0 bc3e
00000300: a217 82bd b48d 4dbf fdbf 703e 5114 41be
00000310: 343c b53e 7414 0bbe d1f5 b63d cc98 f2bf
00000320: b2de a9be d405 1f3e 2292 8d3d b0e2 34bf
00000330: 2987 68be 6625 b33e 11d5 f23e aad8 18c0
00000340: b555 e83d 4665 b83d b56b b13e 019b d5be
00000350: 410f b0bd 80e7 873d e7dd 4cbf 50a7 f0be
00000360: 1ae5 c83e 173b bd3e a559 8fbf 1a5f 873e
00000370: cf37 703f a173 5d3e 73c4 a63e 920a 993e
00000380: 10f1 313e d77d 443e 9f2a 523e 15e5 1fbd
00000390: 4ec2 f93e a41f 133e 76b8 84be bcf3 bebf
000003a0: 9a82 56bf 9ca6 00bf 073a 393f 7887 cf3e
000003b0: 82fb e13e 3425 bd3c ad67 983e ea04 21be
000003c0: 25c7 0fbe c958 3a3e ec81 67be 8ce8 9a3e
000003d0: 7b38 ff3d 6dd8 363e 388c da3e bc33 55bb
000003e0: 74d8 c2be 30d5 54bf 452e 843d 92c1 8a3e
000003f0: 4a60 f63e 8780 e3be 157f e8be ad29 163e
-0.20184492 0.88181275 0.03494383 0.09964062 0.043671265 -0.13770945 -0.481157 0.5770362
-0.76083636 0.06292309 0.40314472 0.57605153 -0.43344566 -0.3395179 -0.43264857 0.32645172
0.28297642 0.11732258 -0.97752535 0.33435127 -0.18388906 -0.03588415 0.5784648 0.18519343
-0.67583764 -0.18346883 0.19331586 -1.792631 -1.2486066 -0.07697741 0.22323653 0.27071428
0.566891 -0.34656364 -0.020286009 0.8375377 0.26834255 -1.7750808 0.2924071 0.56584716
0.037393358 0.34779668 -1.5114377 -0.021393344 0.34893227 -0.42903426 0.6083276 -0.07616319
-0.3241012 0.6547877 -0.12516429 0.55358696 0.44530398 -0.0737928 -0.4493667 0.56755966
1.8077734 0.20052032 0.58588845 0.091973074 0.06827689 -0.5886068 0.10363085 -1.5615646
-0.087678306 0.06447027 -0.22059126 0.17978747 -0.053866696 -0.17659779 -0.14571421 -0.14549273
-0.2555472 -0.16247302 0.11668917 -0.12850335 0.008446441 0.05177925 -0.2130037 0.06441305
-0.10232554 0.058230802 -0.058775585 -0.17363073 -0.07497864 0.071228325 -0.05400569 -0.07875609
-0.03302896 -0.089513175 0.08308226 -0.05463537 -0.13212293 0.08624467 0.10133127 -0.024388447
-0.20391813 -0.2479128 0.17872159 0.13616563 0.11621703 -0.0933025 0.15858348 -0.24188723
-0.073440716 0.05266422 -0.09398523 -0.118936904 0.04851818 -0.078288846 0.1589813 0.046958096
-0.003669115 0.13699117 -0.26397768 -0.034194604 -0.06422327 0.17272209 -0.06412497 -0.18197796
-0.07225335 -0.13643432 -0.11254306 -0.25857463 0.13870555 -0.037281353 0.11747733 0.07945788
0.06466306 2.0244696 0.037751798 -0.17548355 -0.020277575 0.09030305 0.31030297 0.99563295
0.3111773 0.13187177 -0.52948964 -0.8478608 -0.38562506 0.59488934 0.20335764 -0.13473089
-0.356402 0.12461643 -1.5605437 0.4018645 0.04736191 -0.037451286 -0.67393035 -0.92578644
0.43346956 0.6515901 0.008564843 -1.1494443 -0.78342235 0.45240653 -3.0122168 -2.3209817
5.615824 0.56163627 -0.0035128444 0.11765498 -5.910578 -0.40470347 -0.5249549 -0.22347575
-0.6121811 -1.0618318 0.51193357 0.3553632 -1.6077261 -2.3589537 0.84455395 0.12738097
0.1817416 -0.16547559 -0.06820911 0.498139 0.45819727 -0.089472964 -0.1771464 0.78785014
-0.82533526 -0.2106538 -0.5638605 -1.3491728 0.061734553 -0.38708064 1.2694951 0.36865407
-0.06352164 -0.80294347 0.23510738 -0.18855406 0.35397494 -0.13582021 0.089336045 -1.895288
-0.33177716 0.15529567 0.06912638 -0.706584 -0.2270781 0.3498947 0.47428182 -2.3882241
0.11344472 0.090036914 0.34652486 -0.4171982 -0.085966595 0.06635952 -0.80026096 -0.4700265
0.3923729 0.36959144 -1.1199232 0.26439744 0.9383516 0.2162614 0.32571754 0.29890877
0.17377114 0.19188629 0.20524071 -0.03903683 0.48781055 0.14367539 -0.25921983 -1.4918132
-0.8379303 -0.50254226 0.7235417 0.40533042 0.44137198 0.023089029 0.29766598 -0.15724531
-0.14040811 0.18197931 -0.22608155 0.30255544 0.12461945 0.17855997 0.42685103 -0.0032532057
-0.38055766 -0.831378 0.06454138 0.27100807 0.48120338 -0.44433996 -0.45409456 0.14664336

conv3.bias f4 [64]
00000000: 4098 96b9 0a3c 043b 6b4b 203b 0abf 9fbb
00000010: 24f4 03ba c919 71ba 14ce 61bc 4a00 0d3c
00000020: 7095 1cbb dc9e 13bc 1eea ef3a fbd2 de39
00000030: 5ab5 7fbb c679 2e3b 28bc 49bb a3e6 94bb
00000040: 04fe 05bc 7eed 36bc a5a2 3cbb de1e 103b
00000050: 97b5 083b d29f 2a3c 49c2 a63b c1ec 9e3b
00000060: 2e27 ab3b be54 283a 4a9b c73b 46dd 023c
00000070: e4fa 233b c910 a03a b9ec 3abc 4e64 96bb
00000080: 7474 b2bb fdea 8cb9 7fc1 c9ba 384c 013c
00000090: 2781 383a 0ae7 9ebb 244f 44bb aeea 6a3c
000000a0: ceff 983b 8520 fbba 2175 aeba 25ec 9cbb
000000b0: 3dff b83a 2554 443b a5d2 7bba 9d12 eebb
000000c0: 2311 abbb 2142 20bb f0e9 b33b 55df 30bb
000000d0: 3854 a4bb d330 123b 711a 45bb d150 dfb9
000000e0: 1e2a 4fbb 2f07 3dba 508d 1abb db5b 323a
000000f0: 2f8c 303c 3a38 0c3c 9cc4 f13a a2c0 1bbb
-0.00028723665 0.0020177388 0.0024459015 -0.0048750686 -0.0005033633 -0.00091972627 -0.013782043 0.008606026
-0.0023892783 -0.009010043 0.0018304025 0.00042500332 -0.0039018006 0.0026622876 -0.0030782316 -0.0045440956
-0.008178238 -0.011165021 -0.0028783467 0.0021991055 0.002086019 0.010414081 0.0050890786 0.0048500006
0.0052231764 0.0006421319 0.00609151 0.007987326 0.0025021369 0.0012212034 -0.011408978 -0.004589594
-0.005446011 -0.0002687796 -0.0015392749 0.007891707 0.0007038288 -0.0048493193 -0.0029954398 0.014338179
0.004669166 -0.0019159472 -0.0013310054 -0.004788893 0.0014114153 0.002995738 -0.00096062786 -0.0072654025
-0.0052205487 -0.0024453478 0.005490534 -0.0026988585 -0.0050149225 0.0022306934 -0.0030075575 -0.00042594087
-0.0031610797 -0.0007210848 -0.0023582764 0.00068038487 0.01077561 0.008558327 0.0018445435 -0.002376594

conv3.lin.weight f4 [64, 64]
00000000: 757a 003f 134c 2abe fddf adbe eba2 993e
00000010: 050d 023d 2060 6bbe 5afc b73c bc5f 0cbd
00000020: dfa4 82bd a86e 433d f4c9 5b3f 0e3e acbd
00000030: 9098 69be a10c 073e 2cc6 373d 5207 04be
00000040: 65da 1cbd 6356 093d deb2 033e 1c01 00be
00000050: 20b5 253e 9cbc e93d 1338 1b3e 021a b53e
00000060: 6ec4 c03c f703 05be ecd2 e6bd 27f1 05bf
00000070: e044 573d 792c 3bbd 2655 50bd f767 c0be
00000080: 21cc 35be 5a0c b0bd 9fdd 50be bfce 06bd
00000090: 8034 28be 4236 d83e 11e6 16be d024 253d
000000a0: d6db d0bc c3e8 a23e d56b 38bd 6278 48bc
000000b0: b3a9 dbbc fa04 923d 2af3 7c3d 9cfa 37bf
000000c0: b024 28bf 788f 283e 1c10 72be 27e0 d0be
000000d0: 742d d93e 216e 11bf fdfa 54bd c993 03be
000000e0: 38e8 c83d 78aa 2b3e 2959 1f3f 26b2 a83d
000000f0: 1ab1 47be 4308 e43e 1efd cebe 6bed 063f
00000100: f7ab 853e 4e10 ef3d a74f 30be d7a4 9b3e
00000110: f719 8abe b512 a9be 26f1 123c 1050 e0bc
00000120: 9f90 253d 1be9 2a3e 9d1a f53f 63fc 48be
00000130: 4406 8abe 3e10 853d e804 d83d 525a 3c3e
00000140: db77 b53c 45a1 fa3c 68a5 a03e 23d4 d13d
00000150: 4499 13be ae1c f6bd 8e59 6a3d 2f84 2c3e
00000160: eb21 d4bd 3a54 dcbd 1993 bf3d 8399 27bf
00000170: 9d1e 443d 2e71 813c dd18 45be 9ea6 a0bd
00000180: 8ef6 a2be 6a34 37ba ff90 93bc 5cc4 e0bc
00000190: 0ebb 803c a63f 9d3d aad3 20be 88b3 15be
000001a0: 7581 b8bc 363c 993e ea57 063e 5a44 cf3d
000001b0: 17e7 f1bd 53ee c53d 310e 97bd fd9b f5be
000001c0: b5be 3cbf 7eed 8ebd 4948 1bbd b2b7 b5bd
000001d0: 9dd9 c03e 4606 edbe c75a b0bd 9a6c 29be
000001e0: 83c5 9a3e 64f0 033e f5f6 343f c718 67be
000001f0: 9061 013d 8099 b13d f87d 63bc 5f12 8bbe
00000200: af1b b53e f046 ec3d 0da0 3ebe 1364 923e
00000210: b730 8dbe 5a89 95be a605 15bc 2a24 513e
00000220: dba7 823d c318 0e3e 6302 3140 9576 35be
00000230: 5152 8cbe a904 23be ee4a 0e3e bef3 503e
00000240: 8988 3cbb 215c a5bd 6ab3 5d3e 3b0d ee3d
00000250: cda8 2fbd 489d 0dbe 9f26 693d dcef fb3c
00000260: 6d32 10be e62d 3abe 3c0f 8a3d 669a ffbe
00000270: e0d0 54be 37b0 393d 9f28 63be e074 a3bd
00000280: 2480 bfbe 6b29 e1bd d2d5 4b3e dac0 353e
00000290: 5805 8d3c 9b2b 92bd f177 e93d a8e5 263d
000002a0: 3c2f 20bc 676c 633e 04c7 e139 b5e2 4fbe
000002b0: a3c3 0abe a731 c83d a13c 043e 43fa f1be
000002c0: 9026 57bf 2d29 c13b 2472 c8bc e2ce 12be
000002d0: 3841 c33e 23fe 15bf 6aa7 e0bd bbae 37be
000002e0: 96cb ac3e 0f61 b13d f406 663f 6dfc babe
000002f0: 1680 9ebd 9e2e 8d3d f3a5 bc3c d145 91be
00000300: 24f4 84be 2151 473e 5ea7 6f3e f0ef 83be
00000310: 6300 a93e 8e57 833e ede0 c4ba 1a4f 153e
00000320: c395 b4bd fa27 1dbe 51da 85c0 46a9 2b3e
00000330: f8b6 6a3e 1c6a 523d d99d a6be 56f1 4bbe
00000340: c35b 253d 72b3 dc3d 051e 35be ecf6 b7bd
00000350: 4c91 543e a365 813e cb8d 243e bed9 be3d
00000360: 2652 493e 2302 56be b43b d1bb db27 643e
00000370: aca3 8d3c 6cd3 06be 9711 9c3e bc0c 543d
00000380: 949d 0a3f 6d7c 6d3c 09ce 12bf 87b6 213e
00000390: 9ea2 5e3d bc99 c83e 0ef0 9d3d b38a 5fbe
000003a0: 787e c9bd 6584 14be 3aaa 09be 6043 09be
000003b0: c751 1e3e ab26 b3bd 7885 07be 522b fa3e
000003c0: 6414 553f f8b9 883d 63b9 8e3d 0bfa 5d3e
000003d0: dd60 e7be 4dd1 353f c713 db3d c58e 533e
000003e0: 9feb e3be b1df 1b3e 016f 99bf 5ae8 1d3f
000003f0: 8928 5abd 5e0c aebd d5c5 82be 6d44 063f
0.50186855 -0.16630583 -0.33959952 0.3000711 0.031750698 -0.22985888 0.022459198 -0.034270987
-0.06379103 0.047712952 0.8585503 -0.084102735 -0.22812104 0.13188411 0.044866726 -0.12893417
-0.038294215 0.03352965 0.12861201 -0.12500423 0.16182375 0.114129275 0.1515811 0.35371405
0.023531165 -0.12989794 -0.11270699 -0.52321094 0.05255592 -0.04569671 -0.050862454 -0.3757932
-0.1775365 -0.08596106 -0.20397042 -0.032912012 -0.16426277 0.42228895 -0.14736201 0.04031831
-0.025495451 0.31818208 -0.04502471 -0.012235733 -0.026814317 0.071298555 0.061755337 -0.71866775
-0.6568098 0.16460979 -0.23638958 -0.40796015 0.4241749 -0.5680867 -0.051997174 -0.12849344
0.09809917 0.16764247 0.6224542 0.08237104 -0.19501153 0.44537553 -0.40427488 0.5270602
0.2610776 0.11673032 -0.17217885 0.303992 -0.26972935 -0.33022085 0.008968627 -0.027381927
0.040421125 0.16690485 1.9148747 -0.19627528 -0.26957905 0.064972386 0.10547811 0.1839383
0.022151878 0.030594477 0.31376195 0.1024554 -0.14413935 -0.12017189 0.057214312 0.16847299
-0.10358032 -0.107582524 0.093542285 -0.65468615 0.047880758 0.015801039 -0.19247766 -0.0784428
-0.3182873 -0.00069887063 -0.018013475 -0.027437381 0.015714195 0.076781556 -0.15705743 -0.14619267
-0.022522667 0.2992875 0.13119474 0.10120459 -0.11811655 0.09664597 -0.07375754 -0.47970572
-0.73728496 -0.06978892 -0.037910733 -0.08872928 0.37666026 -0.4629385 -0.086110644 -0.16545334
0.30228814 0.1288467 0.70689327 -0.22568046 0.031587183 0.08671856 -0.013885014 -0.27162454
0.35372683 0.11536968 -0.18615742 0.28591976 -0.2757623 -0.29206353 -0.009095585 0.20423952
0.06379672 0.13876633 2.7657707 -0.17721017 -0.27406552 -0.15919746 0.13895771 0.2040548
-0.0028767905 -0.08074213 0.21650472 0.11623617 -0.04288559 -0.1382953 0.056921598 0.030754022
-0.14081736 -0.18181571 0.06741187 -0.49922484 -0.20782804 0.045334067 -0.22183464 -0.079812765
-0.3740245 -0.10994228 0.19905785 0.17749348 0.017214462 -0.07137223 0.1139983 0.04074636
-0.009776887 0.22209321 0.00043063622 -0.20301326 -0.13551192 0.097750954 0.12913753 -0.47261247
-0.84043217 0.005894801 -0.024468489 -0.14336732 0.38135695 -0.58590907 -0.10969432 -0.17937748
0.33749074 0.086610906 0.8985436 -0.3652071 -0.07739274 0.06893657 0.02302835 -0.28373578
-0.25967515 0.19464542 0.2340369 -0.25768995 0.33008108 0.25652736 -0.0015020646 0.14580956
-0.08817627 -0.15347281 -4.1829 0.16763791 0.2292136 0.051370725 -0.32542303 -0.19916281
0.040370714 0.10776414 -0.17687233 -0.089826435 0.20758551 0.25272855 0.16069715 0.09318875
0.19660243 -0.20899253 -0.006385291 0.22280829 0.017289959 -0.13166589 0.3048217 0.051769957
0.54146695 0.014494997 -0.57345635 0.15792285 0.054354303 0.3917979 0.077118024 -0.21830253
-0.09838575 -0.1450363 -0.13443843 -0.13404608 0.15460883 -0.0874761 -0.13234508 0.48861176
0.8323424 0.06676096 0.069689535 0.21677415 -0.45191088 0.7102249 0.106971316 0.20659931
-0.44515702 0.1522205 -1.1987001 0.61682665 -0.053261314 -0.084984526 -0.2554156 0.5244816

fc1.weight f4 [512, 64]
00000000: 33cc 7fbf 7fa7 1d3f cd0a 60bd c6b6 983d
00000010: e786 f2bd 33c5 b2be 8e2c 1e3e fe2b 5d3e
00000020: 278c ac3e bfb5 023f ac44 443d 8cf6 723e
00000030: 6762 00bf 6a71 6a3e 3c8a b13e 3b18 dfbd
00000040: d2df c33d 82d1 023e 1500 8dbe 3d17 0dbe
00000050: b0c4 063e 61df 73bf 300c 9f3e 6516 78bf
00000060: 2194 68be 8ed1 febd ffa6 72be 30c9 b7be
00000070: 9f82 17bf da23 a8bd 73d8 943e b22d 8d3e
00000080: d350 b3be caff c63e affb 403e ea68 f83d
00000090: dd6a 313e e3a7 babe 41f1 29be 3236 88bd
000000a0: f8b6 d23e ab8a 6ebe 564c b63e e80d d2be
000000b0: 59ea 5dbe 6fbf 8b3e b6b0 d4bd 8aed b43d
000000c0: cc03 773d 18f0 b53e b717 63bf e98f 363d
000000d0: 4409 073f 2249 073e 3968 4fbd 6caf 80be
000000e0: ec33 eb3e 3bc3 ad3c f7e4 0d3e 6666 673d
000000f0: 3697 55be 1afa 303f 05d3 52be 4329 d2be
00000100: 915d ff3e 09e5 423e 6ba3 733d 0150 34be
00000110: 7cbe 1a3e 1de1 8b3e 663d 993e da36 173e
00000120: eab6 d3bd ba7c 893e 6f63 2d3e 6155 3d3e
00000130: 381c 45bd 2455 1e3d 50b8 b0be f7b4 84be
00000140: f241 afbb 3bdf e13d 3e1e 27bf 4b49 053f
00000150: ce00 333e 6076 20be b841 b53e 4e7f 963e
00000160: 756c 683e 17df e5bd 0ce7 223e 35c2 15bd
00000170: dcb1 2fbe 6f70 a6be 9d0e 9b3e fdbf 863e
00000180: f03b c73d 33d3 a63e c8c8 813e a883 2cbd
00000190: ffea 433e 59cf ebbd f9a4 aabd b61b 71be
000001a0: 423c f33d 8ef1 193c 35b5 a2bd f200 8bbe
000001b0: a624 aa3e 123c 3e3e 08ff 90bd 329b a63e
000001c0: 2ea6 113e 6e7b 363c 7014 b53e d9de 94bd
000001d0: 38d6 d23e 8ee8 ad3d 0bf0 ffbc c39d 97be
000001e0: a691 f2bc 6163 3abe c9ca 7ebe 012b a33d
000001f0: 44ad 38be 001f 443d 2d56 063d a274 e03c
00000200: cbf4 86be 91cb f83d d9a6 76be 8101 083f
00000210: 57c7 493d d58f fabc 855a 4c3d cc3d a23e
00000220: 93e0 863e b698 303e 6d10 14bc 9406 3d3e
00000230: 35b4 2d3e 7992 803c 3b8f 98be c0e3 63be
00000240: b44a 1c3e ab64 0ebf 80b3 d5be a3cb 703d
00000250: d815 fa3d 6206 8d3e e8ac 263e 73d0 383c
00000260: a20b fc3e d482 15bd 5c55 70be 4894 2f3e
00000270: f7de babd f901 163d 9429 163e 997f d13d
00000280: 0569 50be e52f 6dbe b8b4 f43d 9953 aebd
00000290: 3cce 153d e051 36bf bb3b b73c 2071 a93c
000002a0: b67a 893e adf9 a83e 9e6f a5be 7e0b bfbd
000002b0: 8a47 0fbe aafe 093e 8f61 b7bd 57d0 fa3d
000002c0: 4d7e 2b3e ca76 b13e c0af 3dbe e6c8 19be
000002d0: ef8f 71be 26a5 7a3e 4b90 3b3e f807 2fbe
000002e0: 9fbf fb3c 1350 f3bd 5041 08be 562b 013e
000002f0: 1d4c 2abe a12e 993e 91fe 7c3c 32a1 9dbc
00000300: 6b3b 1c3e 6247 983e e130 a73d 8cb6 ef3d
00000310: 7977 edbd aeb0 083d 4f43 053e 0d0c 833e
00000320: bae8 4c3e f53a f43e 8370 d4bd ae9e aa3e
00000330: feee adbd ed64 f1bd ba2e 51bd 4877 39be
00000340: 5b90 fb3c 0a2b 763e 0890 39be 2eef c23e
00000350: 7741 adbc 0c7b 923e 3327 d53e 79ae bdbe
00000360: 6ce8 0dbd ea8e d23d b8bd 1bbe c906 94be
00000370: a47b 22be ec6e 9a3b bda4 1f3e 1139 b53e
00000380: 5b3e b7be 5a87 f8bc 073d 973d 1d36 d63c
00000390: 5a8a 4f3e a390 d0be 3463 42be 98a0 b73d
000003a0: cfb1 c03e b830 86bd 5cf6 33bd f1a9 9ebe
000003b0: dc0d 903e 0e3e 46bd 0ff4 c13d 1cac 9bbd
000003c0: b94c cabc 88b0 dd3d 07b5 c43e ae23 f73d
000003d0: fb35 37be eed8 593d f1db a7be a881 c0bd
000003e0: ca40 003e 6cd8 783d 1c5d a6bd caf2 10be
000003f0: 1438 123d 3e35 1fbc 4720 3ebd fffc 5bbe
-0.9992096 0.61583704 -0.0546978 0.07456736 -0.11842137 -0.34916076 0.15446684 0.21598813
0.33700678 0.5105857 0.047917053 0.23726863 -0.5015015 0.22894827 0.34675777 -0.108932935
0.09564175 0.12775233 -0.27539125 -0.13778396 0.13160968 -0.95262724 0.31063986 -0.9690917
-0.22712757 -0.12442313 -0.23696516 -0.3589568 -0.59183687 -0.08209963 0.29071388 0.27573925
-0.350226 0.38867027 0.1884601 0.12129386 0.17325921 -0.36456212 -0.16595937 -0.06650962
0.4115522 -0.23295085 0.35605115 -0.41026235 -0.21671428 0.2729449 -0.103852674 0.088343695
0.060306355 0.3553474 -0.8870806 0.044570837 0.52748513 0.13211492 -0.050636504 -0.25133836
0.4593805 0.021211257 0.13856874 0.05649414 -0.20858464 0.69131625 -0.2058831 -0.41047105
0.49876073 0.19032682 0.05948202 -0.17608644 0.15111727 0.27320185 0.29929656 0.14767018
-0.103376225 0.2685297 0.16932462 0.184896 -0.048122615 0.038655415 -0.3451562 -0.25919315
-0.0053484375 0.11028906 -0.6528052 0.5206496 0.17480776 -0.15670156 0.35401702 0.29394
0.22697623 -0.11224192 0.1590845 -0.036562163 -0.17157692 -0.32507655 0.30284587 0.2631835
0.09728229 0.32583007 0.25348496 -0.042117745 0.19132613 -0.11514158 -0.08332247 -0.23545727
0.11876728 0.00939597 -0.07944719 -0.2714916 0.33231086 0.18577603 -0.07079893 0.3254028
0.14223549 0.011137826 0.35367155 -0.07269067 0.4117906 0.08491622 -0.031242391 -0.2961255
-0.029610466 -0.18201973 -0.24882044 0.07967187 -0.18034846 0.047881126 0.032797027 0.027399365
-0.26358637 0.12148202 -0.24087085 0.53127295 0.04926237 -0.030586163 0.049891014 0.31687772
0.26343212 0.17245755 -0.009037119 0.1845954 0.16963275 0.015694844 -0.29796776 -0.22254848
0.15262872 -0.5562236 -0.4173851 0.058787953 0.122111976 0.27543932 0.16276896 0.011280167
0.49227625 -0.03650172 -0.23470062 0.17146409 -0.091245584 0.036622975 0.14664298 0.102294154
-0.20352562 -0.23162802 0.11948532 -0.08512039 0.036573634 -0.7121868 0.022367349 0.020683825
0.26851434 0.33002988 -0.3231172 -0.09328364 -0.13992134 0.13476053 -0.08954155 0.12246769
0.16747399 0.3466094 -0.18524075 -0.15018043 -0.23590063 0.24477062 0.18316762 -0.17092884
0.03073102 -0.11880507 -0.13306165 0.12614188 -0.16630597 0.29918388 0.015441553 -0.019241903
0.15257041 0.2974196 0.0816362 0.1170474 -0.11595053 0.03337162 0.13013957 0.25595132
0.20010653 0.4770123 -0.103730224 0.33324188 -0.0849285 -0.11786828 -0.051069953 -0.18111908
0.030708482 0.24039856 -0.1812135 0.38073105 -0.02114938 0.28609502 0.4163147 -0.37047175
-0.034645483 0.10281165 -0.1520909 -0.28911427 -0.15867478 0.00471293 0.15590186 0.353951
-0.3578976 -0.030337978 0.07384687 0.02614885 0.2026762 -0.4073535 -0.18983155 0.08966178
0.37635657 -0.06552261 -0.04393612 -0.3098903 0.28135574 -0.048399024 0.094703786 -0.07601187
-0.024694787 0.10824686 0.38419363 0.12067352 -0.17891686 0.053185396 -0.3278499 -0.0939973
0.12524715 0.06075327 -0.08123228 -0.14155117 0.03569801 -0.009717284 -0.0464175 -0.21483229

fc1.bias f4 [512]
00000000: 884a 46be 03d4 e1be 6aa9 25be 3306 a4bd
00000010: ec1f 88be 24dd 79be 80f4 1dbe 71f0 12bd
00000020: fb56 4b3d 53d0 b6bd 4311 c1be 580a dbbe
00000030: fe7c 22bd e133 4ebe d787 a9be 04e8 a1be
00000040: 25dc 3bbe 6a37 233f 0a70 15be 4e19 57be
00000050: f2b3 94bd 92a0 12be 92d3 69be b9ea b8bd
00000060: 6434 d63d 6f74 d4bd 3fd0 b8be e6f2 0dbc
00000070: 4e60 acbe a4a4 cbbe fa51 02bf 8e71 3d3e
00000080: 9697 2abe 160f 233e c0a3 3bbe edcf 263e
00000090: f9d0 26be f87f adbe 60bf a7be 6000 86be
000000a0: c14f c3bd b529 17bf 24af 05bf 2d0a 8fbe
000000b0: 9a7f 77bc 08ad 943e 47ec 2dbe 4c7c 5fbe
000000c0: 6fdf e9be 9bb9 8dbe bcaa d23d fc66 b3bd
000000d0: 0eb2 4b3d b67f 63be 2e7b a5bd f0d4 80be
000000e0: a359 b5be 9c35 83bc f567 93be 8fd7 09be
000000f0: e467 b2bb 690d dc3e 29c6 84bc a1ea f2be
00000100: 392d 8abe 320a 52be 0763 aebe 153c 7ebe
00000110: 0f07 1a3f c034 eebd bf81 80be 21e7 0fbe
00000120: 63bf f7be a4aa 18bf f887 e8bd 91e4 9c3c
00000130: 5cb2 98be efb7 dcbb f8aa 43be 3235 46be
00000140: 16ea 95be 505e 8cbd 4797 683e baba d13e
00000150: 702b 98be 01b0 9dbe 7d79 b7bd c864 8fbc
00000160: 8a23 69be 816a eebe 3c39 d1be 31f4 0cbe
00000170: d3eb cb3d c15e 8fbd a17d 3abe e91f 493e
00000180: 83c6 75be 85d1 92be 9863 45be f769 9dbe
00000190: 1e2c 3cbe 81a0 aebe 9ff3 99be dda4 a3be
000001a0: fe6c 00bf a0d7 98be 7287 3cbe b011 a03c
000001b0: e1a4 d3bd 09f8 a0be 0ec3 ecbe b5e8 c7be
000001c0: a68f f8be 24de d8bc eff1 0dbe 17be ddbe
000001d0: d6e8 e1be cb64 71be 9718 5abd 2075 03be
000001e0: 03d0 f9be 0067 63be 0e70 d6be a064 b5bb
000001f0: 56d0 93be 89fd 9ebe c4b2 9cbe a9d4 d63c
00000200: bac6 813d 13f2 45be e167 84be 692c 79be
00000210: b316 a9be d3f6 41be 7d7c 4a3b 37cf e63d
00000220: ae0e 8a3d 32d1 20be 7b14 8dbe 5df7 d9bd
00000230: 7ac9 bebe fd37 8abe ec54 e2bd 6fe4 58be
00000240: 1769 053e a0b2 61be 7398 9fbe ad8a 3bbe
00000250: debc f5be 259e 65be fa4c 50bf 912f 09be
00000260: 76e2 b2be 0f7e d9be 5aa5 39be 7d1e 563e
00000270: 1c36 a0bd a86d 4fbe 13a0 84be 2c7a 4fbe
00000280: 77a3 6dbe 5726 19be eaf2 7abe a749 bfbd
00000290: 4146 4ebe 377a 19be 518c 8abe 2792 9fbe
000002a0: 51c5 473c a046 25be c6b0 89be c342 c73b
000002b0: 37c5 113d 34dc 643e e897 413e a5cd 2dbe
000002c0: c2a2 77be 2caf 82be 7a09 83be 7a0a bb3d
000002d0: fb50 ce3d 6ebe 70be f128 dcbe 770b 63be
000002e0: 326b bcbe 38a3 c43d d5cc b6bb 7916 28be
000002f0: 22fc b3bc f47c 2abe a27a d4bd fa83 a4be
00000300: 11a7 7dbe 3bf7 a83e 0453 92be 2d39 9abd
00000310: 9fa9 fdbe 3482 62be ab89 033d c143 623d
00000320: 4cd3 353d 2f57 35be 9277 02be de04 d3be
00000330: f2c6 95be b0aa 75be 23f8 9d3d 749f 54be
00000340: 4c88 07bf b5f0 3ebe 576a aabe 308f 10bf
00000350: b1dd 61be bb54 31be b9b1 9ebe 60ad 2abe
00000360: a8b8 58be e699 b8bc e123 53be 614d 223e
00000370: b9d7 21be 9659 f6bd 67be 023e fbb2 febd
00000380: a809 b6be f5a1 c5be 8ad8 8ebc 38be b9be
00000390: 3da0 773e afb3 5cbe 524c 90be 738b d6bd
000003a0: dbb4 a03d 6649 a8be 1289 68be 2bc4 07bf
000003b0: 0bb5 443e 5c2d c83d 7b96 e4be 8223 99be
000003c0: dbe4 b63d 2548 a1bc 8e17 86be 3e13 6abe
000003d0: b072 a33c f212 83be 5097 8ebc dd83 2abe
000003e0: cd8a 00be 3564 4c3c d88a 3d3f 7823 9cbe
000003f0: 4f97 db3e 6b86 82be 2105 cabc aaaf d6be
-0.19364369 -0.44107065 -0.16177908 -0.08008995 -0.26586854 -0.24400765 -0.154253 -0.035873834
0.049643498 -0.089264534 -0.37708482 -0.4278133 -0.039669983 -0.20136978 -0.3311145 -0.31622326
-0.18345697 0.6375643 -0.14593521 -0.21005747 -0.07260884 -0.14319065 -0.22834614 -0.09029145
0.104592115 -0.103737704 -0.3609638 -0.0086638685 -0.33667225 -0.39774048 -0.50906336 0.18500349
-0.16659388 0.15923724 -0.18324184 0.16290255 -0.16290654 -0.33886695 -0.32763195 -0.2617216
-0.09536696 -0.59048015 -0.5222037 -0.2793745 -0.015106106 0.29038262 -0.16984664 -0.21824759
-0.4567828 -0.27680668 0.10286471 -0.08759877 0.049730353 -0.22216687 -0.08080135 -0.25162458
-0.3541995 -0.016016774 -0.2879025 -0.13461135 -0.0054445136 0.4297898 -0.016207771 -0.47444633
-0.26987627 -0.20511702 -0.34059927 -0.24827607 0.6016702 -0.11631155 -0.25098988 -0.14053012
-0.48388204 -0.59635377 -0.11354059 0.019151958 -0.29823577 -0.006735794 -0.19108188 -0.1935623
-0.29280156 -0.06853926 0.22713958 0.40962774 -0.2972064 -0.30798343 -0.08958719 -0.017504111
-0.22767463 -0.4656563 -0.4086398 -0.13765027 0.09957089 -0.07000495 -0.18211986 0.19641079
-0.24001507 -0.28675476 -0.19276273 -0.30744907 -0.18376204 -0.3410683 -0.3006868 -0.31961718
-0.5016631 -0.2985201 -0.18411043 0.019539684 -0.103341825 -0.31439236 -0.46242565 -0.3904473
-0.48547095 -0.026473112 -0.13861822 -0.4330909 -0.44122952 -0.23573606 -0.053246107 -0.12837648
-0.48791513 -0.2220726 -0.41882366 -0.005535677 -0.28869885 -0.31052807 -0.30605137 0.026224451
0.06336732 -0.19330625 -0.25860503 -0.24333347 -0.3302513 -0.18941812 0.0030896955 0.11269992
0.06741081 -0.15704802 -0.27554688 -0.10642884 -0.3726309 -0.2699584 -0.11051354 -0.2118089
0.1302837 -0.22040796 -0.31170997 -0.1831462 -0.47995657 -0.22423609 -0.81367457 -0.13397051
-0.349384 -0.42478988 -0.18129483 0.20910068 -0.078228205 -0.20256674 -0.25903377 -0.20261449
-0.23206888 -0.14956032 -0.24506727 -0.0934022 -0.20143987 -0.14988028 -0.27060178 -0.31166193
0.01219304 -0.16140223 -0.2689268 0.0060809567 0.03558847 0.22349626 0.18905604 -0.16972978
-0.24183181 -0.2552427 -0.25593168 0.091328576 0.100740395 -0.23510143 -0.42999986 -0.22172342
-0.36800534 0.09601444 -0.005578617 -0.16414823 -0.021970812 -0.16649228 -0.10374953 -0.3213194
-0.24770762 0.33001122 -0.2857896 -0.07530437 -0.49543473 -0.22119981 0.032113712 0.055240396
0.04439096 -0.17709039 -0.12740925 -0.4121465 -0.29253346 -0.23990893 0.07713344 -0.20763952
-0.5294235 -0.1864651 -0.33284256 -0.56468487 -0.22057225 -0.17317478 -0.30994967 -0.166677
-0.21164191 -0.022534322 -0.20619155 0.1584983 -0.15804948 -0.12028806 0.12767945 -0.124364816
-0.35554242 -0.38600126 -0.017437238 -0.36277938 0.2418222 -0.21552919 -0.28183228 -0.104758166
0.078469954 -0.328685 -0.22708538 -0.53033704 0.19209687 0.097742766 -0.44646057 -0.29909903
0.089303695 -0.019687722 -0.26189846 -0.22858903 0.019952148 -0.25600392 -0.017406136 -0.16651864
-0.12552948 0.012475063 0.74039984 -0.3049581 0.42888877 -0.25493178 -0.024660649 -0.41930896

fc2.weight f4 [256, 512]
00000000: f10d c8bc 257c bfbc 4d3f 023d 4df6 00bd
00000010: bb65 123d 500d e23c c4e2 11bd 2368 18bd
00000020: 6218 83ba ac5f 223c a4a8 283c 3e98 bebb
00000030: 9ed1 dabc 6426 4c3c 8918 54bc eac6 e63c
00000040: b661 13bd 9da0 28bd b354 ffbc e466 093c
00000050: 3f07 493c d0ad 43bc 560e 6ebb bbcc 61bd
00000060: b465 e6ba f77c fa3c 5003 413c 2110 823b
00000070: c207 1b3c c6cf bf3c a104 853a 7b77 0abd
00000080: 6b0f 173d 11f5 f63c 1fe1 e63b 8003 77ba
00000090: a02c e63c 69b0 2ebd 1c4b 543b f6c4 c73c
000000a0: 4c08 00bd f56d 303d 4cd9 25bd 8413 5abd
000000b0: 614f e1bc 501d 3dbb df9c 0c3d c36b 9f3c
000000c0: a908 e6bc b09d 843c 14b8 7f3b 0c34 f3bc
000000d0: fbf6 bbbc 2217 bb3c 5763 fbbb 449a 4abc
000000e0: fc03 27bc bdce 163c 6c8d 2ebc 6418 723c
000000f0: 5c96 95bc 302b 66bb e600 c83c f877 143c
00000100: f457 cbbc d736 4ebd 2650 b0bc 85e4 2b3d
00000110: 511d 93ba 922b a33c 4728 3ebd bb77 cfbb
00000120: f3cc 103d 37b8 c3bc d30a 26bd b51b 21bd
00000130: d0ae 03bd 7e0d 0ebd 30f2 c83b 5c87 08bc
00000140: ead0 1bbd f9d3 343b 60c3 4dbd 9a3b 59bd
00000150: 155a 4ebd 0280 ae3c 8020 71bb dc45 3dbd
00000160: eea8 db3c 2023 093c 5c7d 34bc c1fe 81bb
00000170: ef3c 5fbd 2a7a de3c daa3 bc3c 7f4c 27bc
00000180: 339b a4bc b568 523b d564 dd3c 096f abbc
00000190: 8070 bb3c 4ed8 6dbc 2510 c7bc 2ad2 0dbd
000001a0: 0a4e 4cbd 3287 bb3c 1672 853c b6a8 023d
000001b0: 5bbb b6bc 04c6 e63c 185e 35bc 2d8f 323d
000001c0: 4568 41bd 4fb5 853c 35b3 4dbd b076 fdbc
000001d0: 21e3 123d 4061 75bb acfb b13c 897a 24bd
000001e0: d360 1a3d 8faf a9bc 60f9 0e3c e9cf 2bbd
000001f0: 691b bebc aae6 c23c 22b0 05bc df5e 49bd
00000200: fb1c ba3c f48d 253d b333 1d3d b4a2 a73c
00000210: 875e bfbc a5eb 313d dd75 cbba 1a1f eabc
00000220: bdd8 903c ca0c e2bb d575 5abb 1d49 043d
00000230: 2ef8 db3c 638f 61bd 999c 12bd 539a ffbc
00000240: 77f3 47bd 0a65 64bc dd48 9d3c e080 dfbc
00000250: 384c f1bb 57a0 b43c 62c3 b63c 1e62 f53c
00000260: d835 2ebc f740 8c3c d0ce 08bb 7f45 22bd
00000270: 1764 1f3d 1a67 ecbc 9964 1bbd 9fb6 2fbd
00000280: e001 c5bb 201c 2f3b 30bd 30bb c289 af3c
00000290: ae9e 9d3c b0a5 fc3b 3087 56bd 82d3 973c
000002a0: 6504 d93c 7dd8 1ebd aa8b c438 088f f63b
000002b0: c010 6bbc 6c4a 15ba de67 c53c 04a2 b53c
000002c0: 25dd e6bc 8008 c639 7a8e 073d 8f69 37bd
000002d0: 690e bbbb aa7c aebc ea33 a23c 5c28 de3a
000002e0: 6206 d43c 833f 0b3d dfe2 8a3c ddbb b53c
000002f0: ea49 a73c b098 29bd 178e 98bc 0da8 653c
00000300: cc6b f3bc dcf4 dd3c 3ad8 eb3c 00dd 54bb
00000310: 60c9 a2ba 99cd 50bd b997 f93c 1e7a 14bd
00000320: aade 98bc dea9 9e3c 3809 01bd 00e6 0d3b
00000330: f665 883b c9f1 b5bc c6f0 d33c 654a 06bd
00000340: 3728 8abb fc9e 01bd 14d4 8a3c d218 913c
00000350: 0081 363c 4070 4b3b 92c7 00bd 30b2 c13c
00000360: 5b1c ff3c 55f9 41bb 6076 80bc 9fd3 cebc
00000370: 65ed 10bd 2832 f13b 0c2a 01bd 68f7 9c3b
00000380: ae6b 11bd d8c7 3fbc 58c8 3a3c be18 3cbd
00000390: 7254 23bd ffe1 a53b 635f 1bbd 5f90 96bc
000003a0: c0b5 d73c 2447 2fbd 0839 57bc f5b0 05bd
000003b0: ced3 fbbc 1791 c93c b881 fd3b 70cc 353c
000003c0: 25e1 a93c 5ffb 5bbc 2851 dcbc 3bde 34bd
000003d0: 72a7 08bd 1c34 45bc dc75 79bc ce20 eb3c
000003e0: d85c 223c d139 1dbd 2a75 963c 35b0 30bd
000003f0: e04f 90bc c0b3 60ba dea6 e1bc 0e96 e33c
-0.02442071 -0.023374626 0.03179865 -0.03148489 0.03574155 0.027594239 -0.03561665 -0.037208688
-0.0010001773 0.009910505 0.010294113 -0.0058164885 -0.026711281 0.012460325 -0.012945303 0.028171021
-0.035981856 -0.041168798 -0.031168317 0.008386347 0.012269794 -0.011943296 -0.0036324463 -0.055126887
-0.0017577917 0.030577166 0.011780575 0.003969208 0.009462299 0.023414504 0.0010148474 -0.03380535
0.036879938 0.030146154 0.0070458795 -0.0009422824 0.02809745 -0.042648707 0.0032393401 0.02438591
-0.031257913 0.043073613 -0.040490434 -0.053241268 -0.027503671 -0.0028856583 0.03432929 0.019460564
-0.028080301 0.016188473 0.0039019631 -0.029687904 -0.022944918 0.022838179 -0.0076717543 -0.012365881
-0.010193821 0.009204564 -0.010653835 0.014776323 -0.018260173 -0.0035120957 0.02441449 0.009061806
-0.024822213 -0.050345268 -0.021522593 0.04196598 -0.0011223947 0.019918237 -0.04642513 -0.0063314117
0.035351705 -0.023891551 -0.040537667 -0.039333064 -0.032149136 -0.034680836 0.0061323866 -0.008333053
-0.038041033 0.0027592166 -0.050235152 -0.053035356 -0.050378878 0.021301273 -0.0036793053 -0.0462092
0.02681395 0.008370191 -0.011016216 -0.0039671366 -0.05450147 0.027157862 0.02302735 -0.010211109
-0.020093536 0.0032105867 0.02702562 -0.02092697 0.022880793 -0.014516903 -0.02429969 -0.034624256
-0.04987911 0.022891615 0.016289752 0.031899177 -0.022306135 0.028170593 -0.011069797 0.043593574
-0.04721858 0.016321806 -0.050219733 -0.030940384 0.03586114 -0.0037441999 0.021726452 -0.04015592
0.037689995 -0.020713596 0.008726448 -0.041946325 -0.02320643 0.02379163 -0.008159669 -0.04916274
0.022718897 0.04041858 0.038379382 0.020463325 -0.023360504 0.04343762 -0.0015522797 -0.028579284
0.017681474 -0.006898497 -0.0033334394 0.03229629 0.02685174 -0.055068385 -0.035793874 -0.031201517
-0.04881617 -0.013940105 0.019199783 -0.027283132 -0.0073638223 0.022049112 0.022309963 0.029954012
-0.010632955 0.017120821 -0.0020875223 -0.039617058 0.038913812 -0.028857756 -0.037937734 -0.04289877
-0.0060121864 0.0026719645 -0.0026968233 0.021427993 0.019240703 0.007710181 -0.05237502 0.018533472
0.026491353 -0.038780678 9.372023e-05 0.007524375 -0.014347255 -0.00056949886 0.02409738 0.022171982
-0.028181622 0.00037771836 0.03309486 -0.044778403 -0.005708505 -0.021299679 0.019800145 0.0016949284
0.02588195 0.033996116 0.016953884 0.022184307 0.020420987 -0.04140538 -0.018622441 0.014017117
-0.029714487 0.027094297 0.028789628 -0.003248036 -0.0012419634 -0.050977323 0.030467855 -0.036249273
-0.018660862 0.019368108 -0.031502932 0.0021651983 0.0041625453 -0.022210019 0.025871646 -0.032785792
-0.0042162198 -0.03164576 0.01694683 0.01771203 0.011139154 0.0031042248 -0.031440325 0.023644537
0.03114145 -0.0029598076 -0.015681446 -0.025247393 -0.035382647 0.0073607154 -0.03153424 0.0047902353
-0.035503082 -0.011705361 0.011400305 -0.045922033 -0.039875455 0.005062341 -0.037932765 -0.018379388
0.026331782 -0.042792454 -0.013136156 -0.032639463 -0.030740645 0.024605317 0.007736411 0.011096105
0.02073724 -0.013426631 -0.026894167 -0.044157248 -0.033362813 -0.01203635 -0.015225854 0.028702166
0.009909831 -0.038385216 0.018366415 -0.043136794 -0.017616212 -0.0008571707 -0.027545389 0.027781513

fc2.bias f4 [256]
00000000: f021 2dbd f307 23bd 2aaa afbd 2f59 bcbc
00000010: a0c4 58bd b2ac a33d c692 a53b 6347 73bd
00000020: 1617 4dbd bf4c d7bd ab8a fabd 45a2 13bc
00000030: 131e cfbc 0d2c 65bd 2dee b5be dfea bdbe
00000040: 7942 f5bd 404a 99bd 5ad2 29bc 8a23 363f
00000050: 15e9 febc ffd7 64bd f8e7 e2be 8405 66bd
00000060: 1c9c cbbe ae30 36bd df85 77be 0026 9abd
00000070: 7912 0bbe 78e7 a3bc 51df 05bf f1bd 2f3f
00000080: 3f95 85be f62c 86bb f76d c43c f464 cfbd
00000090: 8a94 26be ceff 76be c6aa 3abd 6069 46bd
000000a0: a60c 03be eae5 99bd b887 a0bd 1979 39be
000000b0: ac2f d7be 73b8 8dbd c3f3 37be 149f 98bd
000000c0: 4126 373e b7aa 22bd fb6e 02be 2cc8 21bd
000000d0: 479a b9bd 44be dfbc 8f40 00be 74b7 b93c
000000e0: bc5b f2bc 53b6 06be f80d 88ba db36 4fbd
000000f0: 665e 6abc 1ccd cb3c ba98 abbc d10e 51bd
00000100: 66a6 ccbd e720 f7be 09a2 29be 0a28 83be
00000110: 0b54 e6bb a515 6abd 6408 b1bd 3bd2 0ebd
00000120: 035e 1dbd b720 59bd fc43 8bbd 6ed0 96bd
00000130: 0e4a 073e ad12 8cbd 1214 09bd 1710 c03b
00000140: 5ad0 e7bd de9e 66bd 7865 4dbd 593b 3fbd
00000150: 56c7 cbbe b90a 1cbd ba35 5ebc 353a 15be
00000160: f90b a7bd 17e5 8ebc 0718 bebd 68b7 c0be
00000170: f2fe f93d 4f0a 363a 7db8 993e 7fcc 1fbe
00000180: ac94 e8bc ae5d afbe 1a2e aa3c 6a3e 313e
00000190: e22a d8bd 32b0 83bc 7243 60bd 0e86 82bd
000001a0: ca22 39bc b77e 92bd f4dd 26be 9b52 94bc
000001b0: f4f2 62be 90f4 33bd ad20 923e 202a 06bd
000001c0: 5eef a53b 371e 693d f02a c6bd 7ae5 abbd
000001d0: f98c 68be c979 b2bc 2941 6bbc 39e8 67bd
000001e0: 10f2 2abd ef81 02bd 3893 8abc 0b00 1fbd
000001f0: b3d5 1bbd 4f72 1bbe fed1 e0be 5873 87bd
00000200: 9c93 79bd 2271 54be 28ab c43d 35de 57be
00000210: 73f4 c03b 372f 1cbe 7537 51bd a68e 793e
00000220: 15ef 24be 08c8 6f3d 0d49 70bd 65ef acbc
00000230: 517e e9bd a44a 51bc e4b1 48bc 686d 80bd
00000240: e7bb b1be da21 65bd ba71 81bb 1259 f83e
00000250: 69bd 79bb d256 1e3e 9be5 9bbc ad2e 01bf
00000260: 14b6 8dbc 1c7a 523d 4918 07bd f578 9dbe
00000270: 6eb3 a8bd a993 13bd 021a d23e 165f 2cbd
00000280: 1daa 28bd 3d98 c63e 02f9 33bc e2e4 be3d
00000290: 6f4b 9d3d 3efe 043f 5120 143d 320c f0bd
000002a0: e947 9abd 00f6 59bd 871c 46bc 00bd 82be
000002b0: 6f1f 7ebd 5aaa 19be 6b7e cebc abbb 54bd
000002c0: ae71 eebd 9520 45be 6f94 e4bd 4a25 3abe
000002d0: 7aae aabe 620e 2bbd 3cdf 91bc 3a22 5fbd
000002e0: 04a7 95bd 9bd9 bc3c 382c d8bd 139d 5f3d
000002f0: fe29 cfbc 6b70 82bd 54cf 7d3d 00a5 f63d
00000300: d206 8abb d4b8 0f3e 9270 bb3c 6262 a53e
00000310: 4778 57bd d314 ce3b fe66 1abe 8dfa 0e3d
00000320: d073 a43d 0af3 99be d939 6bbd 2757 08be
00000330: a6d6 ecbe 0df4 83be cff9 88bd 76c8 e1bd
00000340: 4eff c7bc e4a6 f5be 59d8 d3be 42e2 873e
00000350: b1ed db3d 2872 01be 2f80 a2be 6e66 17be
00000360: 9f93 f0bb 4817 aebd 5ade ecbd 1e7d 3f3e
00000370: 9ffb 90bd 673b 38be a06e 6f3c 0de5 38be
00000380: 7785 e53c 81e0 0c3c eb9a 6abd 6074 f9be
00000390: 2204 433e da7d 90bb 5a90 7a3c 6c82 bc3e
000003a0: 65ad a2ba e92a 9ebe 155a 903d fe8f 16be
000003b0: d2a8 72be 5edb 88bd 1a39 77bd f87e 83bd
000003c0: 4932 c1be f7c0 92bd 7741 a5be 604e 2fbb
000003d0: 7846 0cbd 5084 08bf 896a d9bb af6c 66bc
000003e0: 9703 bd3b c99a 28bd 8f47 8c3d ba03 8fbd
000003f0: 01f6 f3bb 41c2 cebd 1561 463e b0a2 06be
-0.042268693 -0.039802503 -0.08577378 -0.022991745 -0.05292189 0.079919234 0.005052897 -0.05939425
-0.050070845 -0.10512685 -0.1223348 -0.009010856 -0.025282895 -0.055950213 -0.35533276 -0.37093255
-0.11975569 -0.07484865 -0.010365093 0.7114798 -0.031117002 -0.055870052 -0.44317603 -0.056157604
-0.3976754 -0.04448002 -0.24172162 -0.07526779 -0.13581266 -0.020007834 -0.5229388 0.686492
-0.26090428 -0.004094715 0.023978217 -0.10126677 -0.162676 -0.24121019 -0.04557302 -0.048440337
-0.12797794 -0.07514556 -0.07838386 -0.18112601 -0.42028558 -0.069199465 -0.17964081 -0.07452217
0.17885686 -0.039713588 -0.12737648 -0.03949754 -0.09062629 -0.027312405 -0.12524627 0.022670485
-0.029584758 -0.13155489 -0.001038014 -0.050589424 -0.014304733 0.024878077 -0.02094685 -0.05103952
-0.099926755 -0.4826729 -0.16565718 -0.25616485 -0.0070290617 -0.057149548 -0.086441785 -0.03486846
-0.038419735 -0.053009715 -0.06800076 -0.073639736 0.13211843 -0.068394996 -0.033466406 0.005861293
-0.11319037 -0.05630385 -0.050145596 -0.046687458 -0.3980052 -0.038096163 -0.013562614 -0.14572985
-0.081565805 -0.017443223 -0.092819266 -0.37639928 0.1220683 0.0006944285 0.30023566 -0.15605353
-0.028391205 -0.3425116 0.020773936 0.17308965 -0.10555054 -0.016075227 -0.05475182 -0.06373225
-0.011299798 -0.07153075 -0.16295606 -0.018105796 -0.22162992 -0.043934405 0.28540555 -0.032755017
0.005063935 0.05691358 -0.096761584 -0.083933786 -0.22710027 -0.021786587 -0.014358797 -0.05661795
-0.041734755 -0.031862196 -0.016915902 -0.0388184 -0.038045596 -0.15180324 -0.4391021 -0.06613797
-0.060931787 -0.20746282 0.09602958 -0.21080859 0.0058885156 -0.15252386 -0.05107828 0.24370822
-0.16106828 0.058540374 -0.058663417 -0.021110246 -0.11401046 -0.012774143 -0.012249444 -0.062708676
-0.3471367 -0.055940486 -0.003950325 0.48505455 -0.0038107282 0.15462807 -0.019030383 -0.50461847
-0.017298736 0.051385984 -0.032982145 -0.30756345 -0.082373485 -0.03602949 0.41035467 -0.04208287
-0.041177858 0.38788024 -0.010984661 0.09321 0.076804034 0.5195044 0.03616363 -0.11721076
-0.07533247 -0.05321312 -0.012091762 -0.2553482 -0.062041696 -0.1500639 -0.025206765 -0.051936787
-0.116427764 -0.1925071 -0.11161124 -0.18178287 -0.3333624 -0.041761763 -0.017806642 -0.054476
-0.07307246 0.023052981 -0.10555309 0.054593157 -0.025288578 -0.06369098 0.0619653 0.1204319
-0.004212239 0.1403535 0.022880826 0.32301623 -0.05260494 0.0062891035 -0.15078351 0.034906913
0.08029902 -0.30068237 -0.057428215 -0.13314496 -0.46257514 -0.25772133 -0.06688272 -0.11024563
-0.024413731 -0.4797889 -0.41375998 0.2653981 0.107386954 -0.12641203 -0.3173842 -0.14785168
-0.0073418166 -0.08500534 -0.11565848 0.18700072 -0.07079243 -0.1799141 0.014613777 -0.18056126
0.028017743 0.008598448 -0.057276648 -0.487216 0.19044545 -0.004409534 0.015293205 0.36818254
-0.0012411295 -0.30892113 0.07048432 -0.14703366 -0.23697212 -0.06682466 -0.06035719 -0.06420702
-0.37733677 -0.071657114 -0.32276508 -0.0026749596 -0.03424689 -0.5332689 -0.0066350144 -0.014063998
0.00576825 -0.04116324 0.06849586 -0.06983133 -0.0074450974 -0.10095645 0.19372971 -0.13147998
