data/predictor/PT/TNetwork-F.pt (torch, 864583 bytes, 16 tensors)

conv1.bias f4 [64]
00000000: 8f47 813d bb9c a4bb 6d69 aebd 432c e5bd
00000010: 4517 403c e783 16be 3a35 70bd bad1 a9bd
00000020: 654b a0be b267 a03d 8868 d2bc 176d c83d
00000030: 577a 9abe e31c bf3c b2e6 bcbd 1922 423e
00000040: 9b12 36be 011f 12be 12cd 1dbe cc6b 8dbd
00000050: 88f9 213e 0652 91bd 1bf1 18be 1161 1cbe
00000060: d8fa c53c 241d 33bc d648 05bc a190 9abc
00000070: 4fe3 5cbe 75de 8fbd fa4a 79be 8537 bfbc
00000080: a6ad 66bd d0b4 b73d dca1 42be 465a e5bd
00000090: a282 bbbe 37bf 703e 69d3 82be 1347 c4bd
000000a0: a66b 71be c27c 4ebe 7179 9dbd 1808 9e3c
000000b0: 20e4 9bbd ff7b 4abe 374e 88be 10ac 6cbe
000000c0: b74f 5dbe 9e87 c83d bafd 2dbe 423b 80be
000000d0: 526a a3bd 3415 c1bc bd23 52bd c6c2 0cbe
000000e0: 87a1 b2bd 343d a7bd a9f6 27be 9b41 93bd
000000f0: ea16 f8bd 2282 c2bd 0000 0000 3af0 dfbd
0.06312477 -0.0050235665 -0.08516202 -0.11190083 0.011724298 -0.14698754 -0.05864451 -0.08291955
-0.3130752 0.07832278 -0.02568461 0.09786432 -0.30171463 0.023329204 -0.09223689 0.1895832
-0.17780535 -0.1426964 -0.1541026 -0.06905326 0.15817845 -0.07095723 -0.14935724 -0.15271403
0.024167463 -0.010932241 -0.008135041 -0.018867793 -0.21571086 -0.07024852 -0.24345008 -0.023341903
-0.056317948 0.08970034 -0.19007057 -0.11198859 -0.36623102 0.23510443 -0.25551918 -0.09583869
-0.23576221 -0.20164779 -0.07689179 0.019290969 -0.07611871 -0.19773863 -0.26622173 -0.23112512
-0.2161244 0.09791492 -0.1699132 -0.2504521 -0.07979263 -0.02356968 -0.051303614 -0.13746175
-0.08722215 -0.081659704 -0.16402687 -0.071902476 -0.121137455 -0.09497477 0.0 -0.109344915

conv1.lin.weight f4 [64, 6]
00000000: 35c3 4dbf 5394 0b3f 2bdb 1dbe b26f 4dbd
00000010: 0b2c cbbd ebbc 3dbf c45f 90be f2dd 28be
00000020: 9ac6 69be 0bc9 31bd 8629 39be 2cb3 cd3c
00000030: 7ff9 3c3d 9e54 873d 549c 373f 7f3d 703d
00000040: 57a3 87be f89a fc3c 67a3 7a3d 750f 793d
00000050: d7e3 6a3d 59b4 d9bf 63b4 313c 0ca8 b03f
00000060: b891 953e 2923 17bf 7d59 59be 377e 16bf
00000070: 4902 4dbe 10e0 17bf 19eb c63d c88c 173c
00000080: 8a45 0b3f 76c6 fb3d 67bf 553d 08c4 db3d
00000090: 22c2 8e3c 1507 0b3f 3c91 1cbf 6524 9cbe
000000a0: 987d 82be 2114 8bbf 2804 843d 698d 153f
000000b0: 3df0 89bf 3149 88be cdaf e7bc 47af 793f
000000c0: dbbd 0dbe e8d3 bb3e 91e4 cc3c 7f22 8abd
000000d0: cd14 62be e8ec 863f 8010 b5bd e467 32bd
000000e0: d4e5 4e3f d088 443e 1d44 2fbe 4d13 9ebd
000000f0: ad19 b2be c705 51bd 9516 083f 3549 f93d
00000100: a245 31bd 6775 783f 9997 ddbe 4737 20bf
00000110: ccab 83bf 8ec6 a23e 6101 af3e 1f39 433e
00000120: 6df9 c73a 7243 d83c d743 a5bd ab84 d93e
00000130: 78f5 f03c 359e 0f3f d48d a0bd 4f36 cf3e
00000140: 433d c93e a58e 1cc0 ba93 593e ed95 bc3f
00000150: 4499 8fbe 2188 11be 87d5 38be 6d19 8b3e
00000160: 8a39 bcbd 14c0 483f f73b 6dbf 781a 1dbd
00000170: 3d93 c43e ae24 9b3e 457e 59be 1600 3d3f
00000180: a87f d73d 5765 f93d 6db6 b73d 9dca 93bf
00000190: 987d 3cbe 6ec6 883f 800a 0dbf 54c0 a53d
000001a0: 0bf6 f63d aeb1 143f 9a76 cf3b 0a8a 903f
000001b0: a848 21be f344 5d3e 4ecf 8d3e 92a0 08bf
000001c0: efcc 73be d12a e23b 6164 2fbe dc81 62bf
000001d0: 33ec 0c3e 1504 143e 0c68 4fbe 1d75 993f
000001e0: 7b67 39be 319c 743c e4f9 483f c9e0 af3e
000001f0: 89fc 80be f408 dbbe 215c c83c 52a1 0b3f
00000200: 00aa 3fbf dded 90be 18ba 10bd 2538 adbf
00000210: 66b3 bd3d 9fb5 b43d bb04 4b3d 2b34 c0bf
00000220: 9193 cb3d 474c 0540 1225 443d d80d 103e
00000230: 6942 17be 2238 febe a06d 95be bbbd 0e3e
00000240: 9d7a 23bf c0a4 103b 8e4f 153e 3097 0f3e
00000250: fa03 9bbd 3e12 f93e c4bf e0be ca87 c93e
00000260: aa93 1fbe b0c7 b53e 360c 43be 6e51 613f
00000270: f2cf 2cbd f6d7 0abf 592d 89bf 2db1 ea3e
00000280: 48a8 dfbd 2859 883f 5169 16bf 8a59 84bd
00000290: 1d57 9abb a643 ee3e 4949 9bbd de30 7f3f
000002a0: d9a5 18bd 42d2 0ebe 0800 85bd f671 bf3e
000002b0: ae87 80be 87bc a43e 64f5 05bd d865 ff3d
000002c0: c5ef 3c3c 50a5 d83e 71d6 88be 04fa 0f40
000002d0: 3eca f93d fc76 bebd b1a6 723e b17d d33e
000002e0: 007c e2bc 8d6d f23f 2c8e 58be 688e 213d
000002f0: 5f34 a33e f479 eebf 45f0 66be 1c6d 0040
00000300: 0ca3 da3c 86b7 dfbe f776 3dbf 6ddf 203f
00000310: ce08 eebd 5c7b 6c3f f20b 8b3c 13ab 3dbf
00000320: 6714 d0be 1c47 17bd b37f b13e 1694 783f
00000330: c6ea 9a3d 54c2 2b3e 1be0 113e 5a9b a5bf
00000340: 5033 55be 3e14 803f d67e c33d 0603 3cbe
00000350: d8ab 03be 4e2d b6be b715 f7bb 3154 7c3d
00000360: 4f74 043d 2ce5 99be 8526 b23e e341 b23e
00000370: caf1 403d 2ce8 833f 5196 b8bf 60c0 b2bd
00000380: 3dd4 093f 14f2 a73e 353e 7fbe dbcc 9e3f
00000390: fd4d 363e 0dfd 513e 7405 083e 1aa2 513e
000003a0: 6d7c 20be 1d8c 453f 8cff 7ebe 679d 9abd
000003b0: 602f e1bd 83ff d83e 870e b73a ce5d 813f
000003c0: cc32 213d b8ff 7a3e 48a8 2dbf 05f2 1d3d
000003d0: c499 083c 1743 3c3f 1f04 c93c 6e84 833e
000003e0: 3f1d bebe 638b 403e 0e72 e4bd dda7 e83f
000003f0: 4b43 473e 6637 81be 3460 9cbf da50 843e
-0.8037599 0.545232 -0.15415637 -0.05015535 -0.0992051 -0.7411639 -0.28198063 -0.16490915
-0.22829667 -0.04340462 -0.18082246 0.02510985 0.046136376 0.06607936 0.7172291 0.058652397
-0.26491806 0.030835614 0.06119099 0.060805757 0.05734619 -1.7008163 0.01084623 1.3801284
0.29212737 -0.59038025 -0.21225543 -0.5878634 -0.20020403 -0.5932627 0.0971281 0.009249873
0.54402983 0.12293713 0.05218449 0.10730749 0.017426554 0.5430768 -0.6115911 -0.30496517
-0.25486445 -1.0865518 0.06446105 0.584189 -1.077644 -0.2661834 -0.02828207 0.97533077
-0.13841955 0.3668511 0.025011333 -0.06744861 -0.22078247 1.0541048 -0.08841038 -0.04355611
0.8081944 0.19192815 -0.17115827 -0.07718525 -0.34785214 -0.0510309 0.5315946 0.12172166
-0.043279298 0.9705414 -0.43279722 -0.62584347 -1.0286803 0.3179211 0.3418074 0.19064759
0.001525683 0.026399348 -0.0806958 0.4248403 0.029413924 0.5610078 -0.078395516 0.40471122
0.3930455 -2.4462063 0.2124776 1.4733254 -0.2804662 -0.14212085 -0.18050204 0.27167836
-0.09190662 0.7841809 -0.92669624 -0.03835532 0.38393584 0.30301422 -0.21239574 0.73828256
0.10522395 0.12177532 0.08970342 -1.1546208 -0.18407285 1.0685556 -0.55094147 0.08093324
0.12058648 0.5808362 0.006331277 1.1292126 -0.15750372 0.21608333 0.27697223 -0.5337001
-0.23808645 0.006902077 -0.17128135 -0.884794 0.13761978 0.14454682 -0.20254534 1.1988865
-0.18105881 0.014929817 0.785063 0.34351185 -0.2519267 -0.42780268 0.024457993 0.5454303
-0.74868774 -0.28306475 -0.035333723 -1.3532759 0.09262733 0.08823704 0.04956506 -1.501592
0.099402554 2.0827806 0.047886916 0.14067781 -0.14771427 -0.496522 -0.291852 0.13939564
-0.6385897 0.0022070855 0.14581129 0.14022517 -0.07569118 0.4864673 -0.43896306 0.3936141
-0.15583673 0.35503912 -0.19047627 0.88014877 -0.0421905 -0.5423578 -1.0716964 0.458383
-0.10920769 1.0652208 -0.5875445 -0.06462391 -0.0047100917 0.46535987 -0.075823374 0.9968394
-0.03726754 -0.13947394 -0.064941466 0.37391633 -0.25103515 0.32175085 -0.032704726 0.12470597
0.011531775 0.42313623 -0.26726106 2.2496347 0.12196778 -0.09300038 0.236964 0.41306832
-0.027647018 1.8939682 -0.21147984 0.03944245 0.31875893 -1.8630967 -0.22552593 2.0066595
0.026689075 -0.43694705 -0.7400965 0.6284092 -0.11622773 0.9237573 0.01697347 -0.74089164
-0.40640566 -0.03693305 0.3466774 0.9710096 0.07564311 0.16773349 0.14245646 -1.2938035
-0.20820355 1.0006177 0.095456764 -0.18360528 -0.12858522 -0.3558144 -0.0075404304 0.06160373
0.032337483 -0.30057657 0.34795013 0.34815893 0.047105588 1.0305228 -1.4420873 -0.08728099
0.53839475 0.32801878 -0.24926074 1.2406267 0.17803188 0.20506687 0.1328333 0.20471993
-0.15672465 0.7716692 -0.24902171 -0.07549553 -0.10995364 0.4238244 0.0013966121 1.0106752
0.039355084 0.24511611 -0.678349 0.038560886 0.008337442 0.7353987 0.024538098 0.25686973
-0.37131688 0.18803172 -0.11154567 1.8176228 0.19459264 -0.25237578 -1.2216859 0.25842935

conv2.bias f4 [64]
00000000: b4d2 ecbc 0f7d ca3d 20b4 a53d ff9d a3bd
00000010: f0e0 acbd e5c6 cabe e459 47be deb1 77bd
00000020: d3c0 7abe 0a72 76be a870 2dbe 27e3 1dbe
00000030: d6da 6dbd f501 87bd d63c 933d 73f1 ab3b
00000040: a870 87be 768f 69be 912a b3bd e2d4 83bd
00000050: 9c1b 55be ad00 213d b985 763d 71b2 48bd
00000060: ddbc 54bd 6111 033e b4a9 bdbc 6ac8 f83c
00000070: eb29 083e a69e 2cbe 9531 9cbd 598e 2ebd
00000080: 41c8 bebd 071c cdbd e936 e9bd 7777 a5bd
00000090: 2c2d 17be 2039 e8bc c7cb 0ebe c6e8 58be
000000a0: 5195 5bbe 7f29 033d 9723 2bbd 46b2 69bd
000000b0: 9317 9dbe 047e cfbd ca04 b7bd 6241 0ebc
000000c0: 34ed 1fbe 95f8 e13c 13d6 d4bd 5984 2bbd
000000d0: 4a1e dcbd dcf4 68bb 67f9 34bd d133 0dbe
000000e0: 49c4 143e 7c7a 09bd e32f 05be 1fdd 01bd
000000f0: a9b3 1ebe 23fc a43c c8c9 24be 84b0 83be
-0.028909065 0.09887134 0.08090997 -0.0798912 -0.08441341 -0.3960487 -0.19467884 -0.06047236
-0.24487619 -0.2406694 -0.16937506 -0.15418683 -0.058070026 -0.0659217 0.07189338 0.005247289
-0.26453137 -0.22808632 -0.08748353 -0.064370885 -0.20811313 0.039307285 0.06018612 -0.0489983
-0.051937927 0.12799598 -0.02315221 0.030369002 0.1329724 -0.16857395 -0.076266445 -0.042616222
-0.09315539 -0.100151114 -0.113874264 -0.08079427 -0.14763325 -0.028347552 -0.13944922 -0.21182546
-0.21443678 0.032021996 -0.041781988 -0.05705478 -0.30682048 -0.101314574 -0.0893646 -0.008682581
-0.1561783 0.027584353 -0.10392394 -0.041874263 -0.10747965 -0.0035546338 -0.04418316 -0.13789298
0.14528002 -0.033564076 -0.13006549 -0.031705018 -0.15498222 0.02013976 -0.16092598 -0.25720608

conv2.lin.weight f4 [64, 64]
00000000: ed1f 3ebe 9b88 52be 80e0 c43e 46b5 8e3e
00000010: e663 733d 4f8f ae3e bbf1 c03d 77f9 ebbd
00000020: 28d7 733e b488 f93e 8008 c4be 1af2 16bf
00000030: 01be 3f3e 68c8 ef3e 2adf 65bf c6c0 ddbf
00000040: c217 0a3e fb92 3c3f 0e11 94bd b66c efbd
00000050: df19 c03e 6796 3e3d 105c 1a3e 4493 2fbe
00000060: 0fbd 8ebe c091 7a3d 3f49 ae3d 8fa2 61be
00000070: 24f8 bb3c 0a42 803e 37fd 2c3e a3ff 5fbd
00000080: dd16 40bc a58d bebe 9e58 3d3e 7152 18be
00000090: 85ab f8be 9993 dbbf d77e 2b3e c8b2 0bbf
000000a0: 392d ac3e 7ca5 d03e ad3c 31be e3f7 863e
000000b0: 0769 adbd b12d b33d d073 0abf 89e9 013e
000000c0: b40d 823e 3ecb 56c0 6243 183e cd0a f2bc
000000d0: 130c 31bd 9d4f bf3d 2ce8 21bf 89cf 6dbc
000000e0: bfa5 bf3d 86dc fc3d cce4 9abf a895 3cbd
000000f0: 8341 3a3e d41e 3bbe 7a72 dd3d 01ba 15bf
00000100: 67b1 2d3f 7907 06be 4eeb de3e 84c9 893e
00000110: 3194 86bd 23e1 963e f04a 083d a54a 14bf
00000120: ecd3 2b3d 6202 ea3e 07f2 e73d 4fd9 49bf
00000130: 16c9 7f3e d84c e03d 17b0 a03b 82a0 59be
00000140: 491a 9f3b 4966 ebbe d700 513e 1338 acbe
00000150: 0b9d 1f3f 6111 46be 9dd7 f5be dab3 193e
00000160: 768a 483e fa57 6a3e 3495 c0be 41be 443c
00000170: f12d 8fbd 7316 35be 0fb3 51bd 7fe9 8d3d
00000180: 1fb1 12be 0aaa d4bf 626f 4b3e 08f5 d13b
00000190: 6b7a c3be 54e8 95be 5bfd f03d aadf 59bf
000001a0: ff7a 27be 7c93 e6bd 0d1d 30be 1255 0cbf
000001b0: 8fd8 81be 4055 903e 1472 ecbf 198f 303e
000001c0: 7b11 aebc 6bb6 ecbf 4465 25be 9a41 7ebe
000001d0: c8da 9b3d 3c35 f53d f1db 08be ff29 55be
000001e0: 35dd 0c3e 0efa 91bb 989a b93e aee5 4e3e
000001f0: 7f44 a1bd fcd1 f03d e864 89bd ef27 3e3e
00000200: 2548 ce3d a4bb 1ebd 7f93 81be e1be b7be
00000210: e5a4 33bf d9b1 8abe 7f31 773e 5525 f33e
00000220: a1e1 463e 432a 3fbe 4df9 47be 0f54 b23d
00000230: 12a7 063e 6f6c a83e 100f d6be 2bd2 3ebe
00000240: 006d a9bd 3c12 5dbf 08b8 3fbd 8ee4 13bf
00000250: 63a0 d1be 8dd5 053f d5f5 95bd bc4e e43d
00000260: 6044 03be 76b8 073f 4207 933e 29ae a5be
00000270: adce 013e d80f 83be 1272 14bf 29e5 e73d
00000280: 7f86 953d 4b1a 433e d7b6 5bbd 8e1d 57bd
00000290: d031 debe 5374 72bb 4ca9 0bbf e0ce a4bc
000002a0: 7216 0d3e 3884 903d 4f7b 9fbe a2ef 7ebf
000002b0: a60e 72be ec0c ebbe ef33 843e 46b2 bd3e
000002c0: 5523 ddbe 858d bf3d 63f8 9fbe 33e0 47bd
000002d0: f150 ea3e ebe4 ee3d df05 013f 1fe7 83be
000002e0: 9300 ec3d 7a0d 15be 9ae4 f33e d5fa 58bf
000002f0: 8b0e 743e 9e1a d0bc c0ac 7dbd 83b3 c43d
00000300: 8ea9 fb3e 6fc0 f73c 7ea0 ae3e 9245 3e3e
00000310: 1339 12be dcf5 6d3d 4fc1 85be 677d 863d
00000320: 94e8 f4bd ccda 323e 2b16 f43e c243 58be
00000330: 74d9 0b3e d9b3 823d 0bcd b9bf b204 29bf
00000340: ef07 953d 4742 9bbf e958 623e 67fc 283f
00000350: 58bc c53d 902f 0abf 9410 343f 2777 14be
00000360: 4374 20be a608 0ebf 9f2d b0bf 5d16 b6bf
00000370: 8514 cd3e 2922 ce3e 0589 953e 73e2 8a3f
00000380: 9d3d 05bf dd31 11bf 665f 853d 0fe9 8cbe
00000390: 0713 593e ad92 14bf 1d5f cebd fc50 9abf
000003a0: e081 02bf 76ae 82be df0d 02be 8ec8 59bf
000003b0: 4087 10bf 2d93 d63d f7ad 433f e855 943e
000003c0: 001a 513e f5cf 123f 260e b0bd e671 a03e
000003d0: e3c0 9dbe c60c c33d aa85 04be a967 9d3c
000003e0: beb1 043e da7d bc3d a000 55bf ad96 843e
000003f0: e3e4 333e fe9e 2a3f b53f 4abe 1b53 543f
-0.18566866 -0.20559923 0.3845253 0.27872676 0.059421442 0.3409371 0.094211064 -0.11522191
0.23812544 0.4873711 -0.38287735 -0.5896317 0.18724824 0.46832585 -0.89793646 -1.7324455
0.13485625 0.73661774 -0.072298154 -0.11690657 0.37519738 0.046530154 0.15074182 -0.17146021
-0.27878615 0.061174154 0.08510064 -0.22034667 0.022945471 0.25050384 0.16893469 -0.054687154
-0.011724201 -0.3721744 0.18490836 -0.14875199 -0.4856836 -1.7154418 0.16747604 -0.54569674
0.33628252 0.40751255 -0.17308302 0.26360998 -0.08467298 0.08748949 -0.54082966 0.12686743
0.2540108 -3.356155 0.14869455 -0.029546166 -0.043224405 0.09341357 -0.6324489 -0.014514812
0.093577854 0.12346749 -1.2101073 -0.04604116 0.18189053 -0.18273479 0.1081285 -0.58486944
0.6784882 -0.13088788 0.43538898 0.26911557 -0.06571234 0.2946864 0.03327459 -0.579264
0.04195015 0.45704943 0.1132546 -0.7884721 0.24979052 0.10952157 0.004903804 -0.21252635
0.0048554284 -0.45976475 0.20410477 -0.3363653 0.62349004 -0.19342567 -0.48016062 0.15010014
0.19584069 0.22885123 -0.37613833 0.012008251 -0.069911845 -0.17684345 -0.051196154 0.069293015
-0.14325379 -1.6614392 0.19866708 0.006407384 -0.38179335 -0.29278815 0.11767074 -0.8510691
-0.16355513 -0.11258599 -0.17198582 -0.54817307 -0.25360534 0.2819004 -1.8472314 0.17242087
-0.02124857 -1.849317 -0.16151911 -0.24829713 0.076100886 0.11973044 -0.13365151 -0.20816801
0.13756259 -0.0044548577 0.36250758 0.20204803 -0.07874393 0.11758801 -0.067086995 0.18569921
0.10072354 -0.038753167 -0.25307843 -0.35887817 -0.70173484 -0.27088812 0.24139975 0.4748942
0.19422008 -0.18668465 -0.19528694 0.08707439 0.1314967 0.32895228 -0.41808367 -0.1863486
-0.08272743 -0.8635595 -0.046806365 -0.5777062 -0.40942678 0.5227898 -0.07322279 0.1114783
-0.12819052 0.5301584 0.28716475 -0.32359436 0.12676497 -0.25598025 -0.5798656 0.11323006
0.07301044 0.19052999 -0.053641167 -0.05251842 -0.4339738 -0.0036995604 -0.545552 -0.020118177
0.13778093 0.07056469 -0.31148764 -0.995844 -0.236384 -0.45908296 0.25820872 0.37050074
-0.4319102 0.093531646 -0.31244192 -0.048797797 0.45764878 0.116647564 0.50399584 -0.2576227
0.11523547 -0.14555922 0.47635347 -0.8475774 0.23833673 -0.025403317 -0.061932325 0.09604552
0.49152797 0.030243127 0.3410682 0.18581226 -0.14279585 0.058095798 -0.26124045 0.06566887
-0.11958423 0.17466277 0.47673163 -0.21119598 0.1365717 0.063819595 -1.4515699 -0.6602279
0.07276904 -1.2129601 0.22104229 0.66010135 0.09655064 -0.53978825 0.70337796 -0.14498578
-0.1566935 -0.55481946 -1.3763922 -1.4225575 0.40054718 0.40260437 0.292061 1.0850357
-0.5204714 -0.5671671 0.065123364 -0.2752156 0.21198665 -0.5803631 -0.10076735 -1.2055964
-0.50979424 -0.25523728 -0.12700604 -0.8507165 -0.56456375 0.1047729 0.76437324 0.2897179
0.20420074 0.5734857 -0.085964486 0.31336898 -0.30811223 0.09523921 -0.12941614 0.019214468
0.12958428 0.09203692 -0.8320408 0.25896206 0.17567782 0.6664885 -0.19750865 0.8293931

conv3.bias f4 [64]
00000000: 11c8 adbd 46b8 70bd 57fd 183e f7a5 d63c
00000010: c3a1 0b3d 26dc d737 8b0b 2e3d fa30 583d
00000020: c6f0 85bc a33b ecbf 22dc 2a3d 92a0 89bd
00000030: 89c2 6c3d 026c 163e 8282 583c 9315 863d
00000040: 4601 d1bd fae3 2cbd 1a52 263d fa5b bc3c
00000050: 888f 673d 5f1b a73d 9011 f0bd 943e 0ebe
00000060: 3d2c 2fbc dc00 0cbd 929f 403b 2fda a3bd
00000070: c7af f93d 42f8 c03d 912c 82bc 3555 71bc
00000080: ac09 dd3d d7d6 f9bd 2c77 3abd 275e 833d
00000090: 299a 39bd 181c 15bd 27b7 8fbd a4d9 d4bb
000000a0: 68ac d23c 1f80 0a3d 35f1 d03d 6387 b13c
000000b0: 8dee 973d b7d1 c8bd e095 e4bd e974 f7bd
000000c0: e5b4 05bd 372f 103d 66d2 313d 4e59 1fbc
000000d0: 32bb 543a 56ac a63d 79fd b6bd 5e25 e2bd
000000e0: ca0e 943b 3546 b5bd e38a 99ba 64bf 423d
000000f0: 7506 003e 79fb edbc 4c93 973d 2c27 273d
-0.08485425 -0.058769487 0.14940391 0.026202185 0.034089815 2.5732512e-05 0.042491477 0.052781083
-0.016350161 -1.84557 0.04171384 -0.067200795 0.05780271 0.14689639 0.013214709 0.06547084
-0.10205321 -0.042209603 0.040605642 0.022993077 0.056533366 0.081595175 -0.117221 -0.13891059
-0.0106917 -0.034180507 0.0029391986 -0.080005996 0.1219173 0.094223514 -0.015890392 -0.014729788
0.107928604 -0.121991806 -0.045523807 0.064144425 -0.045313034 -0.036403745 -0.070173554 -0.0064956713
0.025716975 0.033813592 0.102022566 0.021671003 0.07418547 -0.09805625 -0.11161399 -0.12082846
-0.032643218 0.035201278 0.043413542 -0.009725882 0.00081150525 0.08138339 -0.08935065 -0.110422835
0.0045183646 -0.088512816 -0.0011714365 0.047545806 0.12502463 -0.029050576 0.074011415 0.04080884

conv3.lin.weight f4 [64, 64]
00000000: 6873 a0be 086f 203e 2696 bf3d 139c 1c3e
00000010: 86e9 713f 284a a5be 0978 fabd aa55 a73d
00000020: 0d76 e2be 2507 b3be 68c7 babe 576e 82be
00000030: d11d 0c3e 8531 bf3c 7404 8fbd 4adc 48be
00000040: d001 05bf 67f0 6bbf 61f6 4a3e 4b34 0b3f
00000050: 433a 16bf 200e cabe 51b2 f9be 15d3 76be
00000060: 7c58 34be 2cae 68bd d946 53be ee8f 76be
00000070: 29e8 59bd b058 cbbd 3104 c23e ff46 b13c
00000080: 3cca 863d 9be1 e7bd 1e8c 01bf 08fc a4be
00000090: 0c19 0d3f 21b8 b2bd 8876 2abf 8fd6 1d3e
000000a0: 9ae6 0f3f 3053 68bc 9a63 073e 3b43 633d
000000b0: 668f 31be d96c 3abf 94f0 3bbe ee33 103f
000000c0: 486b c9be ce9b be3d 0de1 e43e 9c2d e53d
000000d0: f700 d43e 020d 8bbe 52b7 833f 3141 27bf
000000e0: 4c65 263f 001c 3dbe c5e4 a4be a619 8e3c
000000f0: c5ab 9f3d 93e4 26be aa10 2cbf 402a bebc
00000100: 942d 26bc 4a4e c23d f170 a3be 26da ed3e
00000110: 440d 4e3f 79b1 cbbe e1e3 3c3e adfa 6e3d
00000120: 6484 5f3d f955 d1bb 70eb 31be 3baa 763e
00000130: 14c4 0d3f fad8 a9bd 0977 203e 9bc3 9e3d
00000140: 62e6 7cbe a4b0 60bf d5fe 383e afd6 f43e
00000150: 1bad e4be fe7c 253e 680d 11be b7c8 b8bd
00000160: 419a f0be caf6 51bd a3b4 60bd 571b 623d
00000170: 2253 c6be 5842 33be d9a8 91bd a3ea 13be
00000180: 421f 91be 5fcc f3bd c969 14bd c38b 82bf
00000190: c5d0 83be 8d27 a4bc cce1 c83e ab17 333c
000001a0: 3af5 3cbe de87 9e3c a80f e33d f721 903d
000001b0: 171a 4cbe 9afd b73e 89b5 fbbd ed5a c83e
000001c0: 7069 c2be ef4c bbbd 8195 c2be ae47 333e
000001d0: b762 223f fc3c e73d 9983 763f 8e9b 25be
000001e0: f465 623d 0569 603d 9611 3a3e 8363 62bd
000001f0: c962 19be cd5d 16be f75f 003f aa87 c1be
00000200: 0942 c53e 4073 963e 9247 b43d cfb3 91be
00000210: 1d93 e2be 7556 a93e 7db4 583e 42a2 48bd
00000220: 018a b4bd 1eb3 053e 1c3c a9bd 437e 9c3e
00000230: de9a a03a be33 07be e92c e23e 41ad 0d3f
00000240: 1d19 bfbc daed 463c 9f02 47bd 38ab 2cbe
00000250: db40 523e 25e6 8e3e 5588 bb3e 4259 52be
00000260: dcbd 4fbf 41db 9cbd 7285 0bbe 956e ef3b
00000270: 66ff 3dbe 8117 b2bd a032 763e 18a0 f3bc
00000280: 5a81 ff3d 5f5d dd3e c6da b03e f07b e23e
00000290: 7f82 c6bc 3977 50be ca08 063f f1dc d83d
000002a0: f09a 0bbe 0c2f 49bd b1b5 fa3d 96e7 ce3d
000002b0: de70 27bc 7240 4d3d b484 f93c b82c 0e3d
000002c0: 1f23 c63e 1f24 f13e 9daa 3bbf 8eeb a7bd
000002d0: 783b 3f3e 85bf d8bd 4ef5 c6be 9cc1 4fbf
000002e0: f1bb 3fbd dbb9 d53e 6838 23be 8d62 073f
000002f0: ddd5 eebd 2515 a43e 9d9e 443f 4f36 823d
00000300: 6fa3 9c3d bc73 af3e 70da a9bd 825d 64be
00000310: 320c bf3e 1e92 203e 3f67 48be 90e5 d03d
00000320: 77ee 4abd 4565 c93e 6a6a e63d 08e8 983e
00000330: ff69 cf3e 5f20 16bd 6a32 b43e 7ce6 ffbc
00000340: 519a a13b 3652 77bf 50b8 06bc 2f03 073d
00000350: f50f f03e a505 c83b 0846 67be e920 b4be
00000360: 1b34 2abf 1ebe d9bd ec43 55be 6139 1dbf
00000370: cc89 1dbe 8904 c6bd e945 5fbe daba 8f3e
00000380: 865f 84be a50a 1fbe 181e 2cbf 1d10 66bf
00000390: 2354 d7be 9c4c fbbc 9461 6abf cb52 c03d
000003a0: 1c62 5ebe 597d a5be 64e9 06be 49da b6bd
000003b0: 31a4 6f3d 6679 18be cf55 0e3e 1d97 42be
000003c0: af76 9d3f 036c 24be b56c 93be 9545 4a3d
000003d0: 2efc 34bd 3e5c e03d 2281 293e 3e6a 583d
000003e0: b55a 453e 0c34 5f3e 41f8 093e 21f3 81be
000003f0: 57f2 733e 617a 463e 965f 2ebf e5f9 51be
-0.31338048 0.15667355 0.093548104 0.15293913 0.94496953 -0.3228314 -0.12229926 0.08170636
-0.4423069 -0.34966388 -0.3648026 -0.25474808 0.13683249 0.023339042 -0.06983271 -0.19615284
-0.5195589 -0.921637 0.19820549 0.5437667 -0.5868265 -0.39463902 -0.48768857 -0.24103959
-0.17611879 -0.05680673 -0.20632495 -0.24078342 -0.05319992 -0.09929025 0.37893823 0.021640299
0.06581542 -0.11322328 -0.50604427 -0.32223535 0.55116343 -0.08726526 -0.66587114 0.15413879
0.56211245 -0.01417999 0.13221589 0.055484038 -0.17339858 -0.7282234 -0.18353492 0.5632924
-0.39339662 0.09307061 0.4470295 0.1119034 0.41406986 -0.27158362 1.029032 -0.6533385
0.64998317 -0.18467712 -0.32205787 0.017346215 0.07796434 -0.16298132 -0.6721293 -0.023213506
-0.010142703 0.09487589 -0.31922105 0.46455497 0.8048899 -0.39783838 0.18446304 0.05834453
0.054569617 -0.0063884226 -0.17374969 0.24088375 0.55377316 -0.08293338 0.15670408 0.077521525
-0.24697259 -0.8776953 0.1806596 0.4782004 -0.4466332 0.16160962 -0.1416527 -0.09022658
-0.46992686 -0.051260747 -0.05485977 0.055201855 -0.387353 -0.17505777 -0.07112283 -0.14444976
-0.2834416 -0.11904215 -0.036233697 -1.0198902 -0.25745216 -0.02003839 0.3923477 0.010930936
-0.18452922 0.019351896 0.110869706 0.07037728 -0.19931827 0.3593567 -0.122904845 0.3913187
-0.37971067 -0.09145533 -0.38004687 0.17507812 0.63431877 0.11290929 0.9629455 -0.1617262
0.05527301 0.054787654 0.18170771 -0.055270683 -0.1497909 -0.1468422 0.5014643 -0.37798816
0.38526943 0.29384804 0.088027135 -0.28457496 -0.44252864 0.33073774 0.21162601 -0.048982866
-0.08815385 0.13056609 -0.08263418 0.3056508 0.0012253185 -0.13203332 0.4417489 0.5534249
-0.023327405 0.012141669 -0.048586484 -0.1686219 0.20532553 0.2790996 0.3662745 -0.20541862
-0.8114908 -0.07659007 -0.13625124 0.0073068836 -0.18554458 -0.08695889 0.2404275 -0.029739425
0.12475844 0.432353 0.3454191 0.44235182 -0.024232147 -0.2035798 0.5235716 0.10589016
-0.13633323 -0.049117133 0.12241686 0.10102765 -0.010219781 0.050110288 0.030458786 0.034710616
0.3869867 0.4709787 -0.7330721 -0.08199225 0.1867503 -0.105834045 -0.38859028 -0.811548
-0.046810094 0.4174336 -0.15939486 0.5288475 -0.11661885 0.32047382 0.76804525 0.06358015
0.0764836 0.34267986 -0.08293617 -0.22301295 0.37313992 0.1568074 -0.19570635 0.102000356
-0.049543824 0.39335075 0.112507656 0.29864526 0.40510556 -0.036651965 0.35194713 -0.031237833
0.004931726 -0.9660982 -0.008222654 0.03296202 0.46887174 0.0061041885 -0.22585309 -0.35181358
-0.66485757 -0.10631965 -0.20826691 -0.6141568 -0.15384597 -0.09668834 -0.21804012 0.28072244
-0.2585413 -0.15531404 -0.6723342 -0.89868337 -0.4205638 -0.030676179 -0.9155514 0.093907915
-0.21717113 -0.32322195 -0.13174969 -0.08928353 0.058506195 -0.1489006 0.13899921 -0.19002958
1.2301844 -0.16056828 -0.28793874 0.049382765 -0.04418581 0.10955094 0.16553167 0.052835695
0.19272883 0.21797198 0.13473608 -0.25380805 0.23822914 0.19382621 -0.681146 -0.20505483

fc1.weight f4 [512, 64]
00000000: 5863 673d c89c 483e 304c aabd 264b 88bd
00000010: a34a 273e eed7 35bd 5a14 1a3e e026 8b3e
00000020: 9fd2 18be fa47 223e e6c3 c2bd d863 cbba
00000030: 46c4 49bc 9ef6 ebbd 7dcf 2ebd d710 e53d
00000040: 30df 81be 18fc 413d 39ab 143d e363 373e
00000050: 9b3b 073e 90fe 233e 406e 56be e6d1 00be
00000060: d4d8 d6bd bfb1 143e dd2f cdbc bf8b e3bb
00000070: 601b f6bd 2063 f03d 3935 293d 94d4 36bc
00000080: 2bd1 1fbd 2b20 403d 4a2b 153c eee4 a43e
00000090: e9d7 7bbe 9a90 10be a84d 14be b511 e83d
000000a0: 4bcd 79bb c022 f33c 4f6a 833d 9ed6 99bc
000000b0: f735 7f3c 815d 1ebc abdc e93d 1ec1 67bd
000000c0: 3de0 ecbb 1dd3 58be b7bb 5abd e49a 14be
000000d0: 55b0 1abe 45cf 98bd 3538 1f3e 4343 ebbd
000000e0: 40a0 3dbd e9d5 17bd 3e0a c63d 5b42 3bbd
000000f0: 813e 5bbd c78d 043e 5365 083e e2f1 753e
00000100: 7f7b da3d 43c4 05bd 5284 09bd 6fbc 48be
00000110: f4cc b6bd 1240 233e 5fa2 4c3d 4111 043e
00000120: ebe2 ccbb ff0c 6d3d cdf0 c6bc e9ff 47be
00000130: 89ad 7cbb c928 a7bd 750b 183e 8ecb 7e3d
00000140: c724 0f3d 21d7 283d 6aff 05bd b37e 82bd
00000150: b260 7c3d c3a7 583e 5ab9 05bd f209 bd3c
00000160: beca 0c3c 6fea debd 9e87 f7bc c3fc 0bbe
00000170: f7d5 1abc 5fc3 43bb 1b7f 0f3b f5e4 973c
00000180: 6407 f2bd 47f2 a3bd 100c a43d 34b0 f8bd
00000190: d9ad 9b3d 5e85 833d f87f 573d 80e8 acbc
000001a0: 4954 d8bd d046 0abc 9b7c bdbd f48e 393e
000001b0: f0d5 b73c 36c6 023d ae78 6dbd d444 dbbd
000001c0: 5013 fa3b 4c42 53bd de06 a53c 4a4f a13d
000001d0: e2ab 9fbd 6dbd a63d 92a6 f2bd 30e5 9f3d
000001e0: 0a18 1fbe 689c 9e3d a663 69be 5137 383d
000001f0: 0fa0 dabd 4e45 9dbd ae59 5b3d 1806 aa3d
00000200: b098 d73d dee8 ddbe 80ff 74bf 3d1f 513d
00000210: af28 0a3e acab 9d3e d5a5 21be cea4 cabe
00000220: 0302 b93e 9bab da3d d331 123e d3c3 3bbe
00000230: 9ee6 28be f314 28bf b3d4 3f3e b567 943d
00000240: 5ebf 2d3e 700f 04bd 9096 9a3e 8ed8 a6bd
00000250: 7333 86bd 11bc d03d 2600 913e 859d a43e
00000260: 4c84 893e 0f3b 4dbe 3f28 5e3d 5ffb 0e3c
00000270: cd7d 8fbe e1f0 b4be 7326 90be b8a9 50be
00000280: 4163 85be 4424 353d 6d8e a23c 39be 84be
00000290: db92 cdbc 819c a83d 8af4 9b3e de37 b9bd
000002a0: 9cba 5fbe c16f 1bbe a63b 4dbf a813 863e
000002b0: fac3 42bd 804b f6bd 4373 7a3c dadd f33d
000002c0: a1de fbbd 881d 313e a3e8 ab3e c106 5f3e
000002d0: c450 8c3d 2756 283d 6c7a c6be 4b8b 53be
000002e0: 3c8a 3dbe 1fda 17be e495 21bf d1f0 fdbe
000002f0: dc00 a8be 6fa2 89bd 0749 b7be 421c 233e
00000300: c4dd 1dbd bc23 96be 9992 023c 46c1 833c
00000310: 1fa9 c43d 933a 613e fba0 9e3e e4e8 14be
00000320: 2ebb 5bbf 6e0d 163e 7e2f dc3c 4c34 b2bd
00000330: 3e10 46be 4137 243e ec9b ac3d 05df 503f
00000340: 8c98 ed3c bbef 34be 5ea3 07ba cb69 b5bf
00000350: b140 923e 23ac a03e b6e9 28bf fd65 41be
00000360: 8f3c 35be 45cb 16be 6afb a53e a862 48bd
00000370: 9112 fbbd 5b6d 80be a984 fdbd d9b1 083e
00000380: 3ad8 97be e26f 37bf 27d9 763e 57a8 3c3d
00000390: f980 a9be 2019 e73e 633f 1e3e 8252 ffbe
000003a0: 6f89 c8be b62c e43e ea33 7d3e f53a dfbe
000003b0: efad 963b 4393 6ebf d9c7 02be 0451 acbe
000003c0: 156f f8bd ef2b 4abe 29d1 46be 0b45 bc3e
000003d0: 3351 88bd 49fe 263f 49d1 d7be 7c59 723e
000003e0: fcde 32be 98a0 1dbf 5aa2 f1be ed22 903e
000003f0: 31c0 1fbc 36b3 80be d7aa 353e 30ec 8f3d
0.056491226 0.19591057 -0.08315313 -0.066549584 0.16337065 -0.04439538 0.15046826 0.27178097
-0.14924096 0.1584777 -0.09510021 -0.0015517427 -0.012314862 -0.11521648 -0.042678345 0.111848526
-0.2536559 0.047359556 0.036296103 0.17909198 0.13206331 0.16015077 -0.20940495 -0.1258007
-0.104905754 0.1452093 -0.025047237 -0.0069441493 -0.1201694 0.117376566 0.041310523 -0.011159081
-0.039017837 0.046905678 0.009104559 0.3220591 -0.24594082 -0.14117661 -0.14482749 0.11331502
-0.003811675 0.029679656 0.06416761 -0.018779095 0.015576831 -0.009665848 0.11419042 -0.056580655
-0.0072288797 -0.21174283 -0.053401675 -0.14512211 -0.15106328 -0.074614085 0.15548785 -0.114874385
-0.046295404 -0.037069235 0.09669922 -0.04571758 -0.053526405 0.12944709 0.13319902 0.24018052
0.10668086 -0.032657873 -0.033573456 -0.19603132 -0.089258105 0.1594241 0.049959537 0.12897207
-0.0062526367 0.057873722 -0.024284745 -0.19531216 -0.0038555583 -0.08162076 0.1484812 0.062205844
0.034947183 0.041220788 -0.032714285 -0.06371822 0.061615653 0.21157746 -0.03264747 0.023076031
0.008593259 -0.108845584 -0.030216035 -0.1367064 -0.009450427 -0.002987109 0.002189583 0.018541792
-0.11817816 -0.08005195 0.08010113 -0.12142983 0.07601518 0.06421922 0.052612275 -0.021106958
-0.10562951 -0.008439735 -0.09252282 0.18120939 0.02244088 0.03192731 -0.057976417 -0.10706487
0.0076316968 -0.051576898 0.020144876 0.07876451 -0.07796456 0.08141599 -0.11848177 0.07807386
-0.15536514 0.07744676 -0.22791919 0.04497463 -0.1067506 -0.076792344 0.053552322 0.083019435
0.1052717 -0.43341726 -0.9570236 0.05105518 0.13492082 0.30795038 -0.15785916 -0.3957886
0.36134347 0.106772624 0.14276819 -0.1833642 -0.16494223 -0.65656966 0.18733482 0.07246343
0.16967532 -0.032241285 0.30192995 -0.08146773 -0.06552782 0.10192121 0.28320426 0.32151428
0.26858747 -0.2004206 0.0542376 0.008726924 -0.28025666 -0.35340026 -0.28154334 -0.20377243
-0.26052287 0.04422404 0.019843305 -0.25926378 -0.02509444 0.08232976 0.30460006 -0.09043859
-0.2184853 -0.1517935 -0.8016914 0.26186872 -0.04755018 -0.12026119 0.01528627 0.11907549
-0.122983225 0.17296422 0.33575925 0.2177992 0.06851342 0.041097786 -0.38765275 -0.20658605
-0.18509763 -0.148293 -0.6311934 -0.4959779 -0.32813156 -0.06720435 -0.35797903 0.15928748
-0.03854157 -0.29324138 0.007969522 0.01608337 0.0960257 0.21995 0.30982193 -0.14541966
-0.8583249 0.1465356 0.026878115 -0.08701381 -0.19342133 0.16036703 0.08428177 0.815903
0.029003404 -0.17669575 -0.0005174185 -1.417291 0.2856498 0.3138133 -0.65981615 -0.18886562
-0.17698883 -0.14725979 0.32418376 -0.04892221 -0.12259401 -0.25083432 -0.123788185 0.13349093
-0.29657155 -0.71655095 0.24106275 0.04605898 -0.3310621 0.45136356 0.15453868 -0.49867636
-0.39167354 0.44565362 0.24726835 -0.43599668 0.004598371 -0.93193454 -0.12771548 -0.3365556
-0.12130562 -0.19743322 -0.19415726 0.36771426 -0.066561125 0.6523176 -0.4215186 0.23666948
-0.17467874 -0.6157317 -0.47194177 0.28151646 -0.009750412 -0.25136727 0.17740951 0.07027471

fc1.bias f4 [512]
00000000: fa4d cabc e94e 39bd 0c57 59be e07a a53d
00000010: 5314 863d 7fda 61be 1a01 a4bd 6826 ccbc
00000020: 6802 70bc 466b 843e 6ee3 27bd 46b5 c9bd
00000030: 4115 b9bd e071 14bd 3ac9 7c3e 7003 18bc
00000040: 9901 1cbd 7048 8dbd a7a0 6ebe 9d11 febc
00000050: 53dc cebd 2413 22be 5713 42be b761 17bd
00000060: 121b 8c3e 7961 46bc 533f ccbd aec3 a1bd
00000070: 1e90 f1bd 0f52 2e3e c68c 70bd 9ccb 923e
00000080: a6d5 913d 66db e6bd 4325 763c 9544 d0bd
00000090: 92bd 443d e37f 23be c293 bbbd fc84 193e
000000a0: 6be6 0ebe 75d2 353e 08a5 fcbd fea1 093e
000000b0: e2b1 66bd 6fdd 8cbd 2492 8b3d 74d2 fcbd
000000c0: cc25 ecbd 668c 453d b90a 0fbc 10c3 e63c
000000d0: 47ff 99be e057 3cbe 8d66 cb3d f51e f0bd
000000e0: e38a 16bd cf8f 033e bfad be3d 01ad 93be
000000f0: 8674 f53d 71eb 16be 944c ccbd 8ba5 24bd
00000100: 40e8 ae3d d712 27bd bdf2 45bd 759b 08bf
00000110: 76a7 12be 96c8 5bbc b1ef cabd bb69 f9bc
00000120: a239 a3bd f310 c13c 39a2 543e 35dd 0c3d
00000130: 22c2 043b e893 cebd 36c4 1cbe bfe3 36bd
00000140: 8e23 6abe 922d a1bd c42e ec3c 7f52 86be
00000150: 2130 2fbe 9d50 4d3e 133f 24be fa49 b8bd
00000160: 0247 5bbe 8663 53be 2435 e0bd aebe 8dbd
00000170: 5f39 1d3e b295 8fbd fa59 04bd e04b e73b
00000180: eeba 1ebe 9b69 11be 247c c0bc 8e77 ecbd
00000190: 5202 5dbc 4027 b8bd 7151 ec3b 6512 0dbe
000001a0: 19ff ddbe f9c5 2b3d c53b 813c 4ac6 813e
000001b0: 1824 e0bc 88bd bdbc ede3 acbd abb5 e3bd
000001c0: 27ab cebc 8025 eebd 335c ddbd a6b6 2e3e
000001d0: a9dc 86be 4a96 02be 2da9 b2bc 1fab f2bc
000001e0: 1ef0 f9be 0e4d 61be 0cfe 303d 7d55 213e
000001f0: 284a ddbc 5ddf 8a3e 14e8 563d b045 8f3c
00000200: f883 abbd 343d 77be 33d7 bcbd 1872 ebbd
00000210: 0a95 e0be 0846 a3bc 8280 d7bd 7cf7 abbd
00000220: 153a 1bbe 4404 8d3c e97e 173e 130c 853e
00000230: 7630 57be 17bc 313d 6c1d 3d3e 0847 d8bc
00000240: ddd9 5cbe df40 d63d b6a3 9fbd 4f1e 51be
00000250: d0c3 b0bc 02d8 4b3d 8042 833b 0e68 38be
00000260: 0821 bcbd beed 97be a2b7 0b3d 792a 6dbd
00000270: 6ad5 f7bd 0a11 c4bd 905d c6bd edad 5ebd
00000280: 0284 4abe 8e10 8cbe 2a13 0bbe 9e1b 4abe
00000290: 0e0e 42be 1c6c bfbc 9d62 a43d c3fd b0bc
000002a0: 79e2 1f3d 52a5 86bd 0bfa 1bbe 30b0 7fbd
000002b0: 9914 5d3e 1459 78bd c291 e0bd efb3 20be
000002c0: da58 a1bd d6d1 c53e 0065 693e e5f7 8bbc
000002d0: ce95 27be f7cc d4bd ce67 b7be e266 58bd
000002e0: 0549 873d f20f 88bd 94a9 6b3e bed5 403e
000002f0: 8daf d6be e86b f1bd 1ed8 86bd 50f8 6d3b
00000300: 5464 0dbe a166 3abe 2244 093c 2f2f 443e
00000310: e9a4 50be a193 25be ff57 97bc d496 5cbd
00000320: 9c57 48bd 95da 3b3e 8f84 65bd da8b 92bd
00000330: ead4 44bd 87e4 25be 08e2 873d 748c 613d
00000340: 32b3 a73d 3486 16bd 44b3 e83c 76b1 90bd
00000350: 6154 e03c 2814 e83c 726c 4abe a6a9 03be
00000360: b6e2 3d3e ef80 49be 5161 213e 0bfb 9f3e
00000370: 5335 7a3d 1b1b 63be 713a e0bc 8473 8fbe
00000380: 92d4 543d e585 c03d e1e6 763e 200d 8ebc
00000390: 76cb d1bd 30f2 293e 416f c1bd e6e5 8dbb
000003a0: 0896 b6bd 50bc 61be 3387 2e3e b0e5 d83b
000003b0: d505 fcbd 78e0 04be c6d5 8ebd 6d2c 4abe
000003c0: ea6a f13d 786d a03c 8c25 cfbd 73dc fd3d
000003d0: 43ff e53b ba09 21bd 0703 453e 1a76 0abd
000003e0: 32e2 0ebe 2fdc fcbd d513 e2bb e062 823c
000003f0: 88b4 d0bd d4d9 143c 9200 38be cc90 cebd
-0.024695385 -0.04524127 -0.21224612 0.08080077 0.06546845 -0.22056006 -0.080080226 -0.024920657
-0.014649011 0.25863093 -0.04098838 -0.09849028 -0.09037257 -0.036241412 0.24686137 -0.009278163
-0.03808746 -0.06898582 -0.23303472 -0.031014258 -0.10100617 -0.15827614 -0.1895269 -0.036958423
0.27364403 -0.0121082 -0.09973016 -0.07898651 -0.11795066 0.1702349 -0.058728002 0.28670967
0.07120828 -0.11272316 0.015023532 -0.10169331 0.04803235 -0.15966754 -0.09159042 0.14992136
-0.13955085 0.17756064 -0.12336165 0.13440701 -0.056321986 -0.068781726 0.068149835 -0.12344828
-0.11530647 0.048229598 -0.008730584 0.028169185 -0.30077574 -0.18392897 0.099316694 -0.117246546
-0.036753546 0.12847827 0.09310483 -0.2884293 0.11985116 -0.14738251 -0.099755436 -0.040196937
0.08540392 -0.04078945 -0.048327196 -0.5336221 -0.14321694 -0.013414523 -0.09908999 -0.030445924
-0.07969977 0.023567652 0.20765008 0.034390647 0.0020257314 -0.10086805 -0.15309224 -0.04465079
-0.22865126 -0.0787002 0.028830893 -0.26234815 -0.17108203 0.20050283 -0.16039686 -0.08998485
-0.21413806 -0.20643434 -0.10947636 -0.06921135 0.15353917 -0.07010974 -0.03231237 0.0070586056
-0.15500996 -0.14200442 -0.023496695 -0.11546241 -0.013489323 -0.08991861 0.007211857 -0.13776548
-0.43358687 0.04193685 0.01577557 0.25346595 -0.02736096 -0.023161665 -0.08441911 -0.11118635
-0.025228096 -0.11628246 -0.10808601 0.17061862 -0.26340225 -0.12752643 -0.021809185 -0.029622613
-0.48816007 -0.2200205 0.043211028 0.15755267 -0.0270129 0.27123538 0.05246742 0.017489284
-0.083747804 -0.24144441 -0.092207335 -0.11496371 -0.43863708 -0.019930854 -0.10522558 -0.08396813
-0.15158875 0.017213948 0.14794506 0.25985774 -0.2101458 0.043392267 0.18468255 -0.026401058
-0.21567483 0.10461592 -0.07794897 -0.20421718 -0.021577746 0.049766548 0.00400573 -0.18008444
-0.09185988 -0.2967357 0.034110673 -0.057901833 -0.121012524 -0.095735624 -0.096858144 -0.054365087
-0.1977692 -0.2735638 -0.1358153 -0.19737098 -0.18950674 -0.02336698 0.080266215 -0.021605378
0.03903434 -0.06574501 -0.15232103 -0.062423885 0.21589889 -0.060631827 -0.10965301 -0.15693639
-0.07878275 0.38636655 0.22792435 -0.017085979 -0.1636574 -0.103906564 -0.35821384 -0.05283249
0.06605724 -0.06643666 0.23013908 0.18831536 -0.4193081 -0.117881596 -0.0658419 0.0036311336
-0.13807803 -0.18203212 0.008378061 0.19158624 -0.20375408 -0.16169597 -0.018474577 -0.05385478
-0.048911676 0.18345101 -0.05603462 -0.07155581 -0.048054613 -0.16200458 0.06634909 0.055065587
0.08188476 -0.03674908 0.028405793 -0.07065098 0.027383985 0.028329924 -0.19767931 -0.12857684
0.18543515 -0.1967809 0.1575978 0.31246218 0.06108601 -0.22178309 -0.027371617 -0.2801782
0.051960535 0.09400538 0.24111511 -0.017340243 -0.10243885 0.16596293 -0.09445048 -0.0043303845
-0.08915335 -0.22044492 0.17043762 0.0066191778 -0.123058 -0.12976253 -0.06974368 -0.1974351
0.1178797 0.019583449 -0.101145834 0.12395563 0.007018955 -0.039315917 0.19239436 -0.033804037
-0.13953474 -0.12346684 -0.006899337 0.015916288 -0.101906836 0.009085137 -0.17968968 -0.100862116

fc2.weight f4 [256, 512]
00000000: 933d 9dbd 82cc c7bd 8739 c23b a2cd 73bd
00000010: c31d a23c b05b bebd 10f0 1fbd d188 6739
00000020: 06f8 c0bc 47f7 d4bd a520 e1bc d920 313d
00000030: 4be6 08bd 41fc 0e3d 0994 08bd db32 963d
00000040: aaa0 e4bb 32b6 c13c fae5 91bd cffd 4fbd
00000050: 7243 a63c 08f8 bcbb b4c6 f1bc 636b eabc
00000060: a993 83bc a123 4d3a 2a0b 4abd 0743 83bc
00000070: f3c5 343e 2483 97bd 3a45 dbbd 0815 22bd
00000080: 7935 febd 811a 9abc 14ce e8be 10f9 a63c
00000090: 860f 8a3c ee6b c0bd 484d 133e 7455 193d
000000a0: 5200 dbbd 2f21 ad3d d4d1 23bd e892 1a3e
000000b0: f532 cdbc a3a9 00be 0f6b b13c de5d 66bd
000000c0: f5a3 253d 57c9 863c b810 803d a393 4bbe
000000d0: ef25 a33d 8978 a2b8 92bd b0bd 596b 6bbd
000000e0: b31b 85bc f342 7dbd 61bb 1b3d d678 03bb
000000f0: d1f6 cbbd 19f4 103d 00a0 4438 8340 6b3c
00000100: 77ad 91bd 1767 a0bd 6e6f a9bd 587a 6a3e
00000110: 47f8 d1bd 6c2d 2bba a9e9 33bb de06 f5be
00000120: 3ad6 aa3c ae81 1d3e 8088 cfbd 4b73 1cbd
00000130: 935d 1e3d a4eb 38bd 5c09 2fbd 5856 e7bb
00000140: 4813 e9bc 5eeb 3abc 63b1 6abd ca2c 143d
00000150: 0dcf 33bd 7f0a 1ebd 85cf 4fbc ac83 e8bc
00000160: a362 533d 3d41 663d aea4 df3c 3c54 6cbd
00000170: 285e d1bc c8fb 95bd 0bd2 83bd 5ef6 f3bc
00000180: 24e1 333d db11 213d ddaa e03c 736c 0a3d
00000190: 924e 38bd a1a1 693d 1125 62bd 67c1 b53d
000001a0: 85e5 473c 0555 bd3c 475a fa3d 47d0 bcbd
000001b0: 9a68 06bd c68c 7dbc f57b b6bc 8046 ae3c
000001c0: 5845 403a c23b fdbc a463 e4bc 8c7c 6d3d
000001d0: c439 1fbf 27db d03c 88f5 8abc e154 a5bc
000001e0: 7b80 1abe 3411 2d3d ce2f bb3c 13be 4fbd
000001f0: 46d8 c4bc 61d9 9cbd 3389 3dbc e993 adbd
00000200: 04e9 b63c 98a2 303e a3c6 193d da2f 44bd
00000210: a5a4 aebd 491a 65bd 69e8 0ebd 2aef dfbb
00000220: 5530 78be 5aff fd3b c6bd 25be 0620 47bd
00000230: d3a6 193e 26a7 f4bd d73f 83bc d8de 863b
00000240: 8a9b 0cbd 4ba4 89bd d7bf 02bd cb79 1cbd
00000250: 5fde 01bd cdf1 0abd 123f b73c 66d4 b7bd
00000260: d63b 6abd 8308 893d 89be 113e 5498 d8bc
00000270: b0d1 acbb be84 5e3c afa3 793b 41cb 4dba
00000280: b389 b9bd 5d25 2abe 785d c6bc 1718 c53d
00000290: 1745 5bbc 4e1d 83bc 38a5 05bd 055c 1f3a
000002a0: 672b 783c a6ab 8ebc fac9 693d 524c 2fbd
000002b0: ad94 acbd d8b9 35be 1c3f 2d3c de87 80bc
000002c0: f85b a73c f6fe 1ebe 108f 97bd d327 fa3b
000002d0: 5ca4 34be 0285 da3d 09e3 0b3e c46d 43bd
000002e0: e49e 47bd f82c 1abe c9ee 24bd 6a15 ceba
000002f0: 39e4 f2bd 8f1c 3c3c 354a af38 7627 123d
00000300: c70f e63c e097 0fbd 4bc2 5fbd 61da f5bc
00000310: 36f4 02be f6c0 29bd 6f5b 633d 2084 b7ba
00000320: 5879 47bc 524b 23bb 2057 dcbd 4060 33bd
00000330: b113 6ebc ec5d 483d 72aa 3abd fa00 b5be
00000340: 63bc cb3b db84 7e3d eae8 c03d 0ddc 323d
00000350: 01d3 533c f3b6 1e3e 0906 06bd 3abe 82bd
00000360: 1f00 193e 07da 71bb 98f3 783d ceb9 fabd
00000370: b14b 7cbd 9b8b 67bd 9062 8f3b abcf aebc
00000380: 8e72 b53b 2cb7 43bc 6797 80bd 30f6 a43b
00000390: 3324 383c b218 d5bc b72f a2bd a9c7 4dbd
000003a0: fc2c f9bc 163c 05bd 4cda 09be a84b 633d
000003b0: e346 bb3c b3c2 113d d3a3 d9bc 28f4 5f3d
000003c0: e6d0 3abd f465 6bbd a93c d6bc ea7e f7bd
000003d0: d484 aabd fe85 a2bc dfc8 e53d 28fb febc
000003e0: 8547 92be f48d 273c 8dbf 623c 3226 3cbd
000003f0: 1e2b a6bd cc33 143d c9c1 22bd 6d07 1fbd
-0.0767776 -0.09755804 0.005927268 -0.05952228 0.019789582 -0.09294832 -0.0390473 0.00022080845
-0.023555767 -0.10398727 -0.027481386 0.043244217 -0.03342275 0.034908537 -0.033344302 0.07333919
-0.0069771605 0.023646448 -0.07123943 -0.05077916 0.020295832 -0.0057668723 -0.029513694 -0.02861566
-0.01606162 0.00078254385 -0.049327053 -0.016023172 0.17653637 -0.0739806 -0.10706563 -0.03957084
-0.12412543 -0.018811466 -0.45469725 0.020382434 0.016853105 -0.09395586 0.14384949 0.03743501
-0.106934205 0.08453595 -0.03999503 0.15095103 -0.025048712 -0.12564711 0.021657495 -0.056241862
0.040439565 0.016453428 0.06253189 -0.19880538 0.0796622 -7.7472134e-05 -0.08629908 -0.05747542
-0.01624856 -0.061831426 0.038020495 -0.0020061038 -0.09959186 0.03538904 4.6879053e-05 0.0143586425
-0.07113164 -0.07832163 -0.08273207 0.22898233 -0.10252433 -0.0006529901 -0.0027452505 -0.47856802
0.020854104 0.153815 -0.10133457 -0.03819589 0.038663458 -0.0451466 -0.042733535 -0.0070598535
-0.028451577 -0.011408655 -0.057298075 0.036175527 -0.04389863 -0.03858423 -0.012683754 -0.028383099
0.05160774 0.05621456 0.027300205 -0.05769752 -0.025557593 -0.07323414 -0.06436547 -0.029780563
0.043915883 0.03932367 0.027425224 0.03379483 -0.044996805 0.057038907 -0.05521113 0.08874779
0.012200718 0.02311183 0.1222425 -0.09219413 -0.0328146 -0.0154754575 -0.022275904 0.021273851
0.0007334552 -0.030912284 -0.027879544 0.057980105 -0.6219752 0.025495125 -0.016962782 -0.020182075
-0.15088074 0.042252734 0.022849943 -0.05071838 -0.024028908 -0.07658649 -0.011568355 -0.08475477
0.022327907 0.17249525 0.03754295 -0.047897197 -0.08527497 -0.05593327 -0.034889612 -0.0068339305
-0.24237187 0.0077513875 -0.16185674 -0.048614524 0.15005045 -0.119459435 -0.016021652 0.0041159205
-0.03432802 -0.067207895 -0.031921234 -0.03820209 -0.03170621 -0.033922005 0.022368941 -0.08976059
-0.05718597 0.066910766 0.1423284 -0.026439823 -0.00527402 0.013581453 0.0038091948 -0.00078504166
-0.09059467 -0.16615815 -0.024214491 0.096237354 -0.0133831715 -0.016005185 -0.032628268 0.00060790806
0.015147067 -0.017415833 0.057077385 -0.042797394 -0.08426795 -0.17746675 0.0105741285 -0.015689787
0.020429596 -0.15526947 -0.07400334 0.007634142 -0.17640823 0.106699005 0.13660826 -0.047712103
-0.048735514 -0.15056217 -0.040266786 -0.0015722935 -0.11859936 0.011481418 8.3584724e-05 0.035682164
0.028083695 -0.03505695 -0.05462865 -0.030011358 -0.12788472 -0.041443788 0.05550712 -0.0014001168
-0.012174927 -0.002491672 -0.10758805 -0.043792963 -0.014531062 0.048917696 -0.045572706 -0.35352308
0.006217526 0.06213842 0.09419425 0.043666888 0.012928725 0.15499477 -0.0327206 -0.06383939
0.14941452 -0.0036903636 0.060779184 -0.12242471 -0.061595622 -0.056529623 0.0043757632 -0.021339258
0.0055373376 -0.011945527 -0.06278878 0.0050342306 0.011239099 -0.026012752 -0.07919257 -0.05023924
-0.030416958 -0.032528006 -0.1346218 0.055492073 0.02286095 0.03558607 -0.026567375 0.054676205
-0.045609377 -0.057470277 -0.026151972 -0.12084754 -0.08326116 -0.019839283 0.11219954 -0.03112562
-0.2857019 0.010226715 0.013839615 -0.045934863 -0.08113693 0.03618221 -0.03973559 -0.03882544

fc2.bias f4 [256]
00000000: dca3 6bbd c051 95bd 1b74 c73d bcc4 11bf
00000010: 69e3 35bd 270d 08bf 64f6 f5bd e084 21be
00000020: d1f8 d1be 9f43 bb3c 2681 04bd febd 54bc
00000030: 4eb9 9ebc 9505 6bbd 2022 ccbe f82a 60be
00000040: 13b0 5bbc cd8b 42bd 2f46 86bd 44f5 3cbe
00000050: 541f b9bd 50e8 5fbd 772c 453f 66ab 28be
00000060: c93e 33bb 2253 72be c4bd 1fbd e914 5e3e
00000070: 60ab 1fbd c77d a2bd f407 55be 68cd 8bba
00000080: 87b1 0d3f 6407 96be 017c 73bd f1b8 a4be
00000090: a693 68bc 3e92 a4bd 2252 b4bd 8d28 7bbd
000000a0: 3a9e 16be be95 9abe 1a65 febc 051e f8bd
000000b0: d721 24be a61f 8abd ce75 40bd f9fc 87bc
000000c0: 1e3d f3be 238e 95be 3d45 a239 b00d 34bd
000000d0: 5578 7fbd 0fe4 73be 6ecf cfbc 9505 64bd
000000e0: c1bf a2bd 6eb0 e2bb 60fd ef3c 0d83 d1bd
000000f0: ed3f 34bc fa59 94bd 14fd 94bd d402 e8be
00000100: 1bd5 99bc 2065 a4bd fb75 a03e 1675 813b
00000110: c804 c0bd d948 6abc 490d 97be 3dba 6bbb
00000120: b76c 01bd 5478 afbd d8e6 1abd 8bfb 2fbd
00000130: 70ab b03c f82a 95bc 2256 b2be b01e e2be
00000140: 6754 a3bc 8181 fbbe f65a be3e eb84 bcbe
00000150: e4bc 06bf b64e 14be bbbd 25be b782 81bd
00000160: 3831 4ebd 0071 a53c 175f 06be 7122 edbe
00000170: 286c 86be 7f70 6abd 1936 2dbe 4666 17be
00000180: 854f 05bd ef98 8e3e 08a3 833c f940 e0bc
00000190: f18b 643c a823 08bd 3fde d03d bf1e 05bf
000001a0: 15da 1fbf fcbe 27bc 5c4a 61bd 5ce8 35be
000001b0: 60e2 93bd c363 a2bd 0014 babe 75c7 84be
000001c0: c735 89bc af27 8dbd 0afd 9abd 617c 7bbd
000001d0: 37b7 b7bc 2a78 a6bd 326f 0fbf b0c3 3bbd
000001e0: 52bb c6bd 91e9 21bf 8564 33be fa39 7e3d
000001f0: 0287 3dbd da1c 87be 3615 903e dcee 39bd
00000200: 3673 9cbd 4a62 dbbd b5f9 1dbe 9f79 a1be
00000210: c915 3bbe 079e a5be abc3 70bd 0161 dfbc
00000220: ede5 bfbc de5d e2bd 17f1 e5bd 9700 5abe
00000230: b3ae 69be 5c43 fdbd b99d 51bc 2848 48bd
00000240: 012e 3dbd e853 c5bc 2e48 4c3f 39be a1bc
00000250: 8258 30bc 3888 5dbd 9e3d 7fbd 5821 4f3b
00000260: b5c4 c8be 1d5f 1bbd ed4a d4be f058 20bd
00000270: 0e94 a2bd ca2c 5dbc 1ac8 07bf e25b 64bd
00000280: 0d7a 3abd b63d 07be d163 dd3c 1ba3 9abc
00000290: c3fc 03bf b4f7 ebbc cf2b c2be ab1f 813d
000002a0: 4413 0fbe 11aa 2abd 679d 5cbe 202c cebb
000002b0: 48ff 1cbd c20c 82be 4ca3 acbd 923f 9cbc
000002c0: 1642 c8be c68a 2cbd dbf3 bfbd a669 06bf
000002d0: a6dd 0fbd f956 cd3b 9826 92be e0fd 7ebe
000002e0: 5653 8ebd fbab 8fbd 4e81 aabe fdae 8cbe
000002f0: c5f5 87bd 8e7e 81be 5868 253f 6cbe 9bbd
00000300: ae5a 2dbe 2604 c4bc baeb 94bd 86be 57bd
00000310: 850d 02be 9c43 c1bc 8b91 a1bd b310 80bd
00000320: e582 b7bc 1e83 96be e1ed 02bd e790 9ebd
00000330: 06bf a8bb b242 05be 0461 b2bc a948 91bd
00000340: f2bd 56bd 64a2 ecbe 6047 cbbc 1c97 153d
00000350: 2ce0 14bd 6e4e 34bd 506b 04bd 3392 cdbd
00000360: 9464 95be 8e56 52bc df2b 22bd 49bc bebd
00000370: 7c9a c63d 654d 0fbe 37e9 7ebe 92d8 47be
00000380: 25dd 09bd 3dde c23d bcd2 49bd 920d a5bd
00000390: 7cb8 8ebe a5dc 57bd 3bea 8fbd 57fe 49bd
000003a0: 79a5 5a3d 81c3 8b3e 34df 26be d4fb f63d
000003b0: 5ff0 12bd db8d fdbc 9b31 16bf 6614 e6be
000003c0: 8cb6 2abd 36de 3e3e 7d93 b5be 403f debc
000003d0: 479c 87bd 89c3 003c 1500 74be 3553 94be
000003e0: 251f 4dbe 88ad c1be 402d 1bbe ccdb 25be
000003f0: 9246 14bd 87f1 2fb9 7bbd ffbd 02f0 6cbe
-0.057529315 -0.07290983 0.09738942 -0.5694082 -0.04440633 -0.5314507 -0.12009886 -0.15773344
-0.41010144 0.022859393 -0.032349728 -0.012984751 -0.01937547 -0.05737837 -0.39869785 -0.21891391
-0.013408679 -0.047496606 -0.06556355 -0.18452936 -0.090391785 -0.05466491 0.7702097 -0.16471633
-0.0027350655 -0.23664525 -0.038999334 0.21687664 -0.038981795 -0.079341464 -0.20803815 -0.0010666074
0.5534901 -0.29302514 -0.05944443 -0.3217235 -0.014195358 -0.08035706 -0.08804728 -0.06131797
-0.14708796 -0.3019237 -0.031054068 -0.12115101 -0.16028534 -0.06744318 -0.046987347 -0.016600119
-0.47507566 -0.29210004 0.00030950634 -0.043958366 -0.062370617 -0.23817466 -0.025367465 -0.055669386
-0.079467304 -0.0069180047 0.029295623 -0.10230074 -0.011001569 -0.07243724 -0.07274833 -0.45314658
-0.018778374 -0.080271006 0.31340012 0.0039507253 -0.09375912 -0.014299595 -0.29502323 -0.003596916
-0.03159782 -0.08567873 -0.037817806 -0.0429645 0.021566123 -0.018208966 -0.3483134 -0.44164038
-0.019937707 -0.4912224 0.37178773 -0.36820158 -0.52631974 -0.14483151 -0.16185658 -0.0632376
-0.050339907 0.020195484 -0.13122211 -0.4631534 -0.26254392 -0.05723619 -0.16915168 -0.14785108
-0.03254654 0.27851054 0.01606895 -0.027374731 0.01394938 -0.03323713 0.1019864 -0.5200004
-0.6244214 -0.010238405 -0.055002555 -0.1776442 -0.07220912 -0.07929184 -0.36343384 -0.25933424
-0.016749276 -0.06892335 -0.075677946 -0.061397914 -0.02242623 -0.08128388 -0.56029046 -0.04584092
-0.09703697 -0.6324702 -0.17518814 0.06206701 -0.04627133 -0.263892 0.28141183 -0.04539381
-0.07639162 -0.107121065 -0.15427287 -0.31538102 -0.18270029 -0.32347128 -0.058780354 -0.027267935
-0.023425067 -0.1105306 -0.11227625 -0.21289288 -0.22820549 -0.123663634 -0.012793952 -0.04889694
-0.04618645 -0.024087861 0.7979764 -0.019744026 -0.010763289 -0.054084986 -0.062314622 0.0031605568
-0.39212576 -0.037932504 -0.41463414 -0.039147317 -0.079383954 -0.013499448 -0.53039706 -0.05575169
-0.045526553 -0.13207135 0.027025135 -0.018876603 -0.5155756 -0.028804637 -0.37924048 0.06304868
-0.13972193 -0.041666094 -0.21544419 -0.006291881 -0.038329393 -0.25400358 -0.08429584 -0.019073281
-0.3911292 -0.042124532 -0.093726836 -0.52504957 -0.03512349 0.0062664715 -0.2854507 -0.24901533
-0.06949489 -0.070152245 -0.33301777 -0.27477255 -0.06638674 -0.25291866 0.6461234 -0.076046795
-0.16929123 -0.02392776 -0.07271524 -0.05267193 -0.1270047 -0.023591809 -0.07889088 -0.06253185
-0.022401283 -0.2939691 -0.03196514 -0.07742482 -0.005149725 -0.13013723 -0.021774776 -0.07093937
-0.05242724 -0.46217644 -0.024814308 0.036521062 -0.0363466 -0.04402011 -0.032328904 -0.10037651
-0.29178298 -0.012838019 -0.03959262 -0.09313256 0.09697434 -0.13994367 -0.24893652 -0.19516209
-0.033658165 0.09515045 -0.049273238 -0.08059229 -0.27875125 -0.052700657 -0.07027098 -0.049314823
0.053380463 0.27297595 -0.16296083 0.12059751 -0.035873767 -0.030951431 -0.5866944 -0.44937438
-0.041677997 0.18639454 -0.35464087 -0.02712977 -0.066216044 0.007859119 -0.23828156 -0.28969732
-0.20031412 -0.37827706 -0.1515398 -0.16197127 -0.036200114 -0.00016779276 -0.124873124 -0.2313843
