data/predictor/PT/TNet_10.pt (torch, 864053 bytes, 16 tensors)

conv1.bias f4 [64]
00000000: 9c75 d3bc c3e3 c4bd a1a0 91bd 530c 51bc
00000010: 5abb 81bd 3b4b adbb c7e0 81bd 241c 90bd
00000020: d507 58bd 2ce6 9e3d 8732 e4bb bf3f 1d3c
00000030: 0829 95bc 023d babd c2eb 73bd 8d50 5ebd
00000040: cb06 c33d be06 7c3d 0e6a 693c 3d6b 16bd
00000050: 1a41 1ebe c5b7 b8bd ddda e1bd 51a2 d1bd
00000060: 9f82 1ebd f825 133d 86f4 cbbc 263a a0bc
00000070: 1f08 6f3d 7e01 3d3d 7c27 99bd 5fde 823c
00000080: 22a0 c4bd 5546 c53c 6462 dcbd 3191 ffba
00000090: e2ca 64bd 0000 0000 8b5e b03c 2e83 c3bd
000000a0: af50 193c 4998 a7bd a401 10bd d3b9 233a
000000b0: 8e89 d0bd 4b43 d1bb 84bf 20bd dd5d c03b
000000c0: ed39 d83d a9b6 e83c 7e6c c53d 78ef 81bb
000000d0: bd5a 35bd 2cbf 96bd 3b45 41bd 34d8 96bd
000000e0: 898e 883c 15d1 38be f3f8 24bd b8d5 72bb
000000f0: 27ef b23d fefd 3fbe 4048 053d 3406 683d
-0.025812916 -0.096137546 -0.07110716 -0.012759286 -0.063345626 -0.005288509 -0.06341701 -0.070366174
-0.052741844 0.077587456 -0.006964031 0.009597718 -0.018208042 -0.090936676 -0.059551008 -0.054276038
0.0952278 0.061529867 0.014246477 -0.036723364 -0.15454522 -0.09019426 -0.11028073 -0.102360375
-0.03869879 0.03592488 -0.024896871 -0.019558977 0.058357354 0.046144 -0.07478234 0.015975175
-0.096008554 0.024081388 -0.10760954 -0.0019498226 -0.055857547 0.0 0.021529457 -0.09546505
0.009357615 -0.08183343 -0.035157815 0.00062456465 -0.101824865 -0.006386196 -0.039245144 0.0058705644
0.105579235 0.028407412 0.09639834 -0.0039653145 -0.044275988 -0.07360682 -0.047185164 -0.07365456
0.016669529 -0.18048508 -0.04027648 -0.0037053656 0.08737021 -0.18749234 0.032539606 0.05664654

conv1.lin.weight f4 [64, 6]
00000000: f57e 80be 8c50 213f 9fc9 bcbe 0a57 f63e
00000010: 7b67 1c3e afb7 273f a512 c03d 0d7f ec3e
00000020: e0b7 66bf ee9a 20bc 9fa8 733d 2494 8ebe
00000030: ea1a 363e 97cc 8bbd 01ce 583c 23a6 89be
00000040: 99af 35be c38a 08be 93f4 92be f039 0a3f
00000050: 59c8 243e 1d9c 9e3e 8b23 7a3d cb89 583e
00000060: 816c c3be e94c 82be ea68 03bd 93fb 293f
00000070: bb44 a13c 5f3c 8f3f 1258 443d b00f afbc
00000080: 1813 c8be de66 093f c7f1 c6ba d408 6d3f
00000090: ed05 4ebe b394 a2be e1b9 e8be 86c0 b53e
000000a0: d8e9 96bd 6054 6a3f e050 8a3d 5fdb d0be
000000b0: 68f1 bb3e 473c f33e b005 ca3c 6806 853f
000000c0: 81a8 273e c36e c8bd 8356 84be 1e14 bc3e
000000d0: 5233 aa3c 1a48 0c3f 4783 953e 52ba a23d
000000e0: d009 2cbf 8d74 eb3e d86f 873e c8c7 c4bf
000000f0: c55c 8dbd d1d4 4e3e 5e80 f53d f6ed 173e
00000100: 2275 503e 1362 773f d550 63bd 05fb 2a3e
00000110: d205 b73e bb94 88be 60e5 b8bd 1fa2 9bbf
00000120: 9e35 53be c14e a73e 3956 7b3e 46b6 b73e
00000130: d511 733b 0f3e 853f b93a 4abe 8b1b b93e
00000140: 6238 3f3e ca76 293e b6c9 15bc 55f3 6cbf
00000150: 32a7 3abe c87d 00be 6066 c3bc 952a 18be
00000160: 3956 593d 4830 52bd 2e6d b63c ac15 e73e
00000170: b8ee d93c 00c0 93bd e48a f2bd e8b4 033e
00000180: 89b4 76be 6814 c7be e127 e43d d206 173f
00000190: e453 79be 7f70 923f 23d9 3d3e 9ec7 503e
000001a0: 73b7 09bf e17b d63e f411 373d 09d2 b1bf
000001b0: 1f05 48bd 0f2a 2e3c ccfd 7b3e 0a31 cfbf
000001c0: 435f 93be d311 8a3f 2301 1ebf 78cc 26bb
000001d0: bea0 023f 6c41 5a3d 771f 083e 2033 abbe
000001e0: 7f3c b73d fdcd cc3d 64d0 8d3e 7d39 77bc
000001f0: d18f 073e 075f ce3e 9d4f 683e 957c 99be
00000200: 5d56 59bd 48ab 40bd 0bcd 283d 9ba1 6fbe
00000210: 2f0c 0f3e 194d 933e 422d af3e 8716 7fbe
00000220: b348 2abe c556 8f3e eb45 563d a088 4f3d
00000230: 6c7a a5bd 5621 9b3d 13a2 d03d 11c6 fabd
00000240: ea90 11bf 8895 cbbd 9fc7 eb3e 4c9f f03d
00000250: 748f 95be 5305 913e 4085 1bbe 9274 853e
00000260: 0b0e 353d 9d4b 003f 6614 cdbd 7172 443c
00000270: efb1 363d 7183 06bf ec91 943e 4db3 b7bf
00000280: 4ccd 29be b297 513f 0d81 823c a383 02bf
00000290: 82e4 a13e 57b4 76be 9877 37be 5ec8 48bf
000002a0: 2304 c4bd 96f4 bd3d 531a d93e 947a 03c0
000002b0: 35cd c5bd 2c19 943f 9723 1dbf 30de 9d3d
000002c0: 22cb 883e 6536 0c3f 8594 803e 82d3 b63e
000002d0: d5ca 06be 6ba3 193f b801 e4be 022d e03e
000002e0: 8740 c53d ab6e 133f c927 06be 598b 4a3e
000002f0: 4e39 aa3d cc83 823e 86c9 92be 1cb7 983e
00000300: 9ecf 95be 30bd 86be ce74 80bd e077 cb3c
00000310: c5ef ba3d b4d4 60be bedf 31bd 9ab0 14bf
00000320: 199e af3e e266 9e3e 70a6 22bd 33b3 67bf
00000330: f4b0 2c3e 460d 103e 7d60 ef3d 6dee 10be
00000340: d85c babb 7373 1dbe 9755 dfbd 3e8f 3d3e
00000350: 881c 743e c198 e7bf b539 4b3e 2395 a73f
00000360: 03be b33d f072 f33e d209 5dbd f7eb e5be
00000370: 6bc0 953c aae4 d8bc ec3d eabd 86ce a4bd
00000380: 0e21 37be 8074 afbc 8149 1dbe 1ef1 dcbd
00000390: 7dce 8f3e 08e7 90be 7b2c fdbe e597 bc3e
000003a0: 6afa 75be ddb2 95bf 546d e93c 9f5a c83e
000003b0: d6e5 ad3d edc3 b63e 2603 983c 1877 d23d
000003c0: faa1 ff3d 4585 94be 9415 96be 9641 87be
000003d0: f84f ab3d 4a2b 97be 8905 8d3d 0bf4 ce3e
000003e0: 1151 ecbc 75cf d03d 1576 fe3d 1e68 8c3e
000003f0: 0e84 32be 2833 b5bd e84d 373c 61cd 94be
-0.2509686 0.6301353 -0.36872575 0.4811328 0.1527385 0.65514654 0.09378556 0.46190682
-0.9012432 -0.009802563 0.05948698 -0.27847397 0.17783704 -0.06826132 0.013232709 -0.26884565
-0.17742766 -0.13334183 -0.2870222 0.53994656 0.16092052 0.3097848 0.061069053 0.21146314
-0.3816872 -0.25449303 -0.032082476 0.66399497 0.019686094 1.1190299 0.047935553 -0.021369785
-0.39077067 0.5367259 -0.0015178256 0.92591596 -0.20119448 -0.31754074 -0.45454314 0.35498446
-0.07368821 0.91534996 0.06753707 -0.40792367 0.36707616 0.47506925 0.024660915 1.039258
0.16372873 -0.09786751 -0.25847253 0.36734098 0.020776425 0.5479752 0.2920172 0.07945694
-0.6720247 0.4598736 0.26452518 -1.5373468 -0.0690246 0.2019837 0.11987375 0.14836869
0.20357183 0.96634024 -0.05549701 0.16697319 0.35746628 -0.26675972 -0.09028125 -1.215885
-0.20625922 0.32677272 0.2454461 0.3588125 0.0037089486 1.0409564 -0.19748963 0.36153826
0.18673852 0.1654922 -0.00914233 -0.92558795 -0.18227842 -0.12547982 -0.023852527 -0.14859994
0.053060744 -0.051315576 0.022268858 0.45133722 0.026603088 -0.072143555 -0.118428975 0.12861979
-0.24092306 -0.38882756 0.11140419 0.5899478 -0.24348408 1.1440581 0.18539862 0.20388648
-0.53795546 0.41891387 0.044694856 -1.3892223 -0.04883301 0.010630145 0.24608535 -1.618684
-0.28783616 1.078669 -0.61720484 -0.0025451463 0.51026523 0.053285047 0.13293253 -0.33437443
0.089470856 0.10000227 0.27698052 -0.01508939 0.13238455 0.40306875 0.2268662 -0.2997786
-0.053060878 -0.047038347 0.04121117 -0.23401491 0.13969491 0.28769758 0.34214216 -0.24910937
-0.16629295 0.27995887 0.052312773 0.050667405 -0.08079991 0.07574718 0.10187163 -0.122448094
-0.56861746 -0.0994063 0.46050736 0.117491335 -0.2921101 0.28324375 -0.1518755 0.260655
0.044202846 0.50115377 -0.10013656 0.011990176 0.044603284 -0.52544314 0.2901758 -1.4351593
-0.16582221 0.81872094 0.015930677 -0.5098211 0.3161965 -0.24092232 -0.17916715 -0.78430736
-0.095711015 0.09275167 0.42402896 -2.0543566 -0.09658281 1.1570182 -0.6138243 0.077083945
0.26717478 0.547705 0.2511331 0.35708243 -0.13163312 0.6001498 -0.4453256 0.43784338
0.09631448 0.5759074 -0.13101114 0.1977972 0.08311711 0.25491178 -0.28669375 0.298272
-0.29259962 -0.26316214 -0.06272279 0.024837434 0.09127764 -0.2195614 -0.043426268 -0.5808197
0.34300306 0.30937868 -0.03970951 -0.9050781 0.16864377 0.14067563 0.116883256 -0.14153452
-0.0056873374 -0.15376072 -0.10904997 0.18511674 0.23839009 -1.8093492 0.19846232 1.3092388
0.08776476 0.47548628 -0.053964444 -0.4490659 0.018280229 -0.026476223 -0.11437592 -0.08047204
-0.17883703 -0.021417856 -0.15360071 -0.10788177 0.28087226 -0.28301263 -0.49447998 0.36834636
-0.24021307 -1.169521 0.028494515 0.39131638 0.08491103 0.35696355 0.018556189 0.102766216
0.124820665 -0.29007927 -0.29313338 -0.26417226 0.08364862 -0.29525214 0.06885821 0.40420565
-0.02884725 0.10195819 0.12424866 0.27423185 -0.17433187 -0.08847648 0.011188008 -0.29062942

conv2.bias f4 [64]
00000000: 8f24 623c 1262 8fbd 0829 45bc f560 883c
00000010: b38d 42be ec36 4abd 29a1 2bbd 9b0d afbc
00000020: 008e 10bd 5a70 0f3d 0e0d 40bd 0e73 873c
00000030: 0000 0000 5a8b 9fbc fbc5 a4bd f4ee 18ba
00000040: 95ea 5ebd 76cd bebd 6180 83bd b79c c3bd
00000050: 87d0 12bd 82e6 543b 592b aabc 2b3b d8bc
00000060: e3b9 48be 9112 b8bd edd3 54bc 57df 4a3c
00000070: 989a aebd 55cf 133d ff78 58bc 1ada 73bd
00000080: f6c9 22bd 67b4 00bd 2625 4cbd 536f 41bd
00000090: add5 6abd fd61 213d 0137 42be 7c42 c5bc
000000a0: 5a43 28bd bb0f b9bd c14e 35bd c3f7 86bd
000000b0: a004 dfbd a6f6 4ebd dc04 82bc 1db6 8cbc
000000c0: 8b1b 6bbd 4792 a3bc 6838 adbd faab b4bc
000000d0: e6cb 50bd bc58 c4bd cd01 babc fda9 c03c
000000e0: 9d3b e7bc 62de c0bc eb9b 1bbd 79b3 2abd
000000f0: 0000 0000 9243 3abd fc6c 64bc e400 5bbd
0.013802662 -0.07001127 -0.012033708 0.016647795 -0.18999366 -0.049368784 -0.04190174 -0.021368792
-0.03529167 0.035019256 -0.04688745 0.016534355 0.0 -0.019475628 -0.08045574 -0.00058339466
-0.054422934 -0.09316532 -0.06420971 -0.09551375 -0.0358434 0.0032486026 -0.020772623 -0.026395401
-0.1960216 -0.08987916 -0.01298998 0.01238235 -0.0852558 0.0360864 -0.0132124415 -0.05953417
-0.039743386 -0.031422045 -0.049840115 -0.047225308 -0.057332683 0.03940009 -0.18966295 -0.024079554
-0.041079856 -0.090362035 -0.04426456 -0.065902255 -0.10889554 -0.05052819 -0.015871458 -0.017176682
-0.057399314 -0.019967211 -0.08458024 -0.022054661 -0.050975703 -0.09587237 -0.022705937 0.023518557
-0.028226668 -0.02354354 -0.03799049 -0.041675065 0.0 -0.045474596 -0.0139419995 -0.053467646

conv2.lin.weight f4 [64, 64]
00000000: 7b5d 6dbe a84b 3a3d c5fb a23d 0214 29be
00000010: 9313 75bf d0fb 003e 2e09 ecbf a232 0b3e
00000020: 6083 94bd 9821 71be 6e4f 663e 6556 7d3e
00000030: ae3c cf3e 57b4 523a dee3 47be 1885 733e
00000040: ce25 2b3d 1543 d3bd 6fcb 933e 0a3f b0be
00000050: 50e0 f0bd f51f 5fbc b5eb 9b3d b6b5 9dbc
00000060: 93b1 24bf b3ea 233e f224 4bbe 7ba7 a0be
00000070: c289 c83e 5c72 233d 866b e83b fda7 c63e
00000080: 8a26 0abe 5164 a0be f96e 0e3e 6a5d a03e
00000090: d6ba 4b3e 0072 c93a 3466 6bbe b94f 413e
000000a0: f34c b43a 5e1b 903d f53e 3cbe c4c4 ef3b
000000b0: 0d1d 3d3d 41dc 913d 5ec3 cc3e eba1 28be
000000c0: c683 183f 264e 043e b0ae 21bf 5721 1dbb
000000d0: 5a08 963e 918d 823e 3118 70be a019 953e
000000e0: 72ae c6bd b0b4 a13d 91d5 0cbd c824 53be
000000f0: 1322 013f c230 613d 2687 b63e 09e2 51be
00000100: 9576 dd3d c8d1 e8bd 7496 37be 7932 243d
00000110: 4a4e 6ebe fe79 59bc 7b83 31be c5d2 c2be
00000120: 4423 593e 7170 02be 79cd 903d 21cb c0be
00000130: 88e7 303e e1b0 b9be 9be1 25bd 8604 c8bd
00000140: 5a38 0e3e 99ed ae3d db28 c43e dc2a 41bd
00000150: 2006 3e3e ef7f 5abe 5313 4abe cf06 12bd
00000160: 7ceb 813e 64ef 2fbe 7cb5 ff3d 125a 0dbf
00000170: 9780 e03c 69ae aebe 469b fcbc 4182 553e
00000180: 7ead 83be 1a4d 2cbf 3d69 0abd f72e 843e
00000190: 1e05 14bb e4f2 26bd 1e0b 983e ce40 b9ba
000001a0: e3ec 29be d347 2c3e d480 61be f3bb d4bd
000001b0: 560d 3dbe 9acc af3e 70bd 353e 5407 8fbc
000001c0: 72e0 a5be 8eda 4f3d 15ea 77bf 35ee 32be
000001d0: bd24 983d a369 2e3e 3984 753e 57ad c73e
000001e0: cfab aa3d a33f 993c f075 a53d c4a0 ccbe
000001f0: c079 083e 5b7a ff3d c691 d93e 4519 323f
00000200: 6001 b83b 9cce 5fbd 709f bfbc c5e6 2bbe
00000210: 91d9 4b3d 66fc a2bd e35e 55be 57ff 113d
00000220: a318 06bd 083d 173d 2203 9a3c bef0 ba3d
00000230: 38a2 513d 4611 d4bd 486b 8ebc 0026 d6bc
00000240: dde8 1c3e 42c5 e23c 108f b93d 2f84 cbbd
00000250: f285 2ebe a6dd 55bd ef4d 0a3e b3f7 37be
00000260: 2066 13be 0d0d 383e 293d d1bd eaa5 123e
00000270: da4e 48be 5ae0 9cbc 7122 3dbe f5fe 3ebc
00000280: 5cf4 303d 6212 39bd 9102 8a3d 8550 e0bc
00000290: d0de 01bc 8465 a3bd cf48 29be 4c18 5dbe
000002a0: fd67 e6bd f410 54be 7345 2dbe 0cc6 e43d
000002b0: c017 413e 5363 f0bd 8cc2 af3d 7769 323e
000002c0: 8630 f5bc 7e32 26be 22ce e93c 1d77 47bd
000002d0: ad70 95bd 11d6 28be 5656 1bbe 23d7 60be
000002e0: 78f6 12be a5a6 103e 01b2 4a3e cc3a 2cbe
000002f0: c039 1c3e 583c 38be 6b86 a23d 61d1 303e
00000300: 293b 1f3e 0a39 133e 1b45 47be 65c0 67be
00000310: 9a6f 3a3f bbfc 27be 82fa ab3f 1293 d03d
00000320: f192 c63c 63da bfbd c4df 563e 4dd8 36be
00000330: 1f91 d33c bfc6 1ebf f5c2 a03d de2d a3bd
00000340: c852 043f 14a9 2c3e 4d5c 8f3c 05e8 543e
00000350: ed14 2fbe b5b0 a2bc f556 9ebd 73a6 2b3e
00000360: ff22 7f3e 09a3 903e ee34 6fbe c813 803e
00000370: e627 ffbe 8c35 1dbc fd25 153e d2c1 4e3d
00000380: a85e 0dbe f282 d93d 3315 25be 7ab9 a0bd
00000390: 0fe2 0a3e f8ca d3bc 98d9 6bbe 6419 843e
000003a0: fd57 143e d5c8 c73d 1e34 473d de2e 1d3d
000003b0: a3d0 0abe 250c 473d 3852 ab3e a10e 32be
000003c0: 0fa0 26be 55cc 83bd 09f1 0c3e fc6d 9ebe
000003d0: 2e06 983e df86 b6bd db54 9a3e cf1f b13e
000003e0: 3614 3fbe 0e00 ed3d 1236 283e 96e6 62bd
000003f0: 79e3 08bb a001 89bb 7c7a d73d d30e b83f
-0.23180191 0.045482308 0.079581775 -0.16511539 -0.9573299 0.12596059 -1.8440301 0.13593534
-0.0725162 -0.23547971 0.22491238 0.24739988 0.40475982 0.0008037737 -0.19520518 0.2378124
0.0417841 -0.10315529 0.28866145 -0.34423095 -0.11761534 -0.013618459 0.07613317 -0.019251686
-0.64333457 0.160075 -0.19838312 -0.31377777 0.391676 0.039903983 0.007092896 0.3880004
-0.13491264 -0.31326535 0.1390952 0.3132127 0.19895491 0.0015369058 -0.22988206 0.18878068
0.0013755843 0.0703647 -0.18383391 0.0073171575 0.046170283 0.07122088 0.39992803 -0.16468017
0.5957607 0.12920436 -0.63157177 -0.002397617 0.29303247 0.25498632 -0.23446728 0.29121113
-0.097012416 0.078957915 -0.03438336 -0.206195 0.5044262 0.05497814 0.35649985 -0.20496382
0.10813633 -0.113681376 -0.17928487 0.040087197 -0.23272052 -0.013273714 -0.17335312 -0.3805143
0.21204859 -0.12738205 0.07070441 -0.37654975 0.17275822 -0.3626776 -0.040498357 -0.09766488
0.13888684 0.08541412 0.3831242 -0.047160015 0.18557024 -0.21337865 -0.19733934 -0.035651024
0.25374973 -0.17181164 0.12485787 -0.5521556 0.027405066 -0.3411744 -0.030835759 0.20850469
-0.25718302 -0.6730515 -0.03379177 0.2581708 -0.0022586058 -0.040758982 0.29695982 -0.0014133693
-0.16594271 0.16824274 -0.220218 -0.10387411 -0.18462119 0.34335786 0.17748046 -0.017459549
-0.323978 0.05074554 -0.96841556 -0.17473681 0.07428882 0.17032485 0.2397622 0.38999435
0.08333551 0.018707102 0.080791354 -0.39966404 0.13327694 0.12474509 0.4249403 0.6956981
0.0056153983 -0.054640397 -0.023391455 -0.1678725 0.049768034 -0.079582974 -0.20836978 0.0356439
-0.03273834 0.03692344 0.018800322 0.09127949 0.051180094 -0.10354857 -0.01738514 -0.026141167
0.15323205 0.02768195 0.0906049 -0.099373214 -0.17043284 -0.052213334 0.13506292 -0.17965584
-0.14394426 0.17973728 -0.102167435 0.14321104 -0.1956133 -0.019149948 -0.1847017 -0.011657466
0.04320179 -0.045183547 0.06738771 -0.027382145 -0.007926658 -0.07978347 -0.1653168 -0.215913
-0.11250303 -0.20709592 -0.16921024 0.11170587 0.18856716 -0.117376946 0.08582029 0.17423044
-0.029930364 -0.16230199 0.028540675 -0.04869758 -0.07296882 -0.1648791 -0.15169653 -0.21957068
-0.14351833 0.1412607 0.19794466 -0.16819304 0.15256405 -0.1799177 0.079357944 0.17267372
0.15549912 0.14377227 -0.19459955 -0.22631986 0.7282654 -0.16405003 1.3435824 0.101843014
0.024239989 -0.09367826 0.20983797 -0.1785595 0.025826035 -0.6202201 0.07849685 -0.07967733
0.51688814 0.16861373 0.017500067 0.20791633 -0.17097826 -0.019859651 -0.077314295 0.16762714
0.24915694 0.28249386 -0.23360035 0.25015092 -0.49835128 -0.009595286 0.14565273 0.05047781
-0.1380564 0.10620679 -0.16121368 -0.07847877 0.13562797 -0.025853619 -0.23032224 0.25800622
0.1448669 0.097551025 0.048633687 0.038374774 -0.13556151 0.048595566 0.33461165 -0.17388393
-0.16271995 -0.064354576 0.13763823 -0.30943286 0.29692215 -0.08912443 0.30142865 0.3459458
-0.18660054 0.11572276 0.16426876 -0.055395685 -0.0020887537 -0.004181102 0.10521409 1.4379524

conv3.bias f4 [64]
00000000: 1c57 ea3c c904 cbbc 7512 cebc b4f7 e1bc
00000010: e7fb f93b 173c 30bd 99bf d93c b1ba 71bc
00000020: af0e 16bd adeb adbb a49d 06bd 66a8 223c
00000030: 7cbf 40bd 2c27 073c 50c8 523c 4074 2e3d
00000040: 6eff 3abc ebb2 3c3d 6c40 be3a 3d3f 86bc
00000050: d60c d53c 90fb dc3c 0787 c03c 5ac5 52bb
00000060: 7991 88bc bce2 123c 04c6 bfbc cac5 38bd
00000070: 4e02 7fbc 9076 123d 4811 36bd 558c 26bd
00000080: 78b4 463d f60f 9e3c 3cfa c63c b7ad dbbc
00000090: c97e cbbb 1e59 3cbd 5908 c13a 78a3 823c
000000a0: a678 c5bc cd89 2d3d f112 243d 912d 21bc
000000b0: 62a5 61bc 10d8 31bb 2c92 15b9 5ade 08bd
000000c0: 2b0f 5f3d 9d01 0e3d 482f 15bc 6e0b 0f3d
000000d0: 5831 413c 9351 173b aea4 1ebd 5907 adbb
000000e0: 8538 03bd f440 87bd b48b a2bc ad23 cebc
000000f0: 8f40 54bb 931a 0b3b 58aa 09bd 8813 b8bc
0.02860599 -0.024782555 -0.025155285 -0.027583934 0.007628906 -0.043026056 0.026580619 -0.014753983
-0.036635097 -0.0053076358 -0.03286518 0.009927845 -0.047057614 0.008249085 0.012865141 0.042591333
-0.011413438 0.046069067 0.0014515049 -0.016387576 0.026007097 0.026975423 0.023501886 -0.0032161088
-0.01667093 0.0089651905 -0.02340985 -0.0451105 -0.015564514 0.0357576 -0.044450074 -0.040661175
0.048511952 0.01929472 0.024289243 -0.026816232 -0.0062101823 -0.045983426 0.0014727219 0.015947089
-0.024105381 0.042367745 0.040057126 -0.009837524 -0.0137723405 -0.002713684 -0.000142642 -0.033415176
0.054457825 0.034669507 -0.009105511 0.03492301 0.01179155 0.0023089394 -0.03873127 -0.005280417
-0.032036323 -0.06604186 -0.019842006 -0.025163496 -0.0032387113 0.0021225556 -0.033609718 -0.02247025

conv3.lin.weight f4 [64, 64]
00000000: 5193 97be 833e 97be 012c e93b c98a 36be
00000010: d353 073f 1ed0 3240 737d 523e 5344 ba3e
00000020: 34e6 febd 1f1e 8bbe 578e cdbe 3a70 45be
00000030: c0d2 5fbd 2db8 1b3d f128 813d d455 66be
00000040: 3482 113d a3a1 49be 470d a5be 7125 3fbd
00000050: 5172 acbe 8b59 2abe 9e2a 9fbd 5dd0 d53d
00000060: 1aef 6a3e 810f 92be 9d55 743d a537 7d3e
00000070: ed4f b4bd 073d c5bd 7379 70bd 14a2 473d
00000080: e273 113e 7df5 31bc 06c4 5a3e 1c37 03bf
00000090: f136 c33d 196c 53bd de11 0c3e 19c2 24be
000000a0: 13eb 34be d0a9 973e 9eb4 0f3d 112d 203d
000000b0: 639a e33f facb 933e dc51 343e 7f06 cbbd
000000c0: 32b7 a33d bde6 ffbd 3299 513f 7f2c d1bd
000000d0: 7c67 d53d 3285 3c3f 7dda b7bd b562 81be
000000e0: 45e6 db3c 1771 fabe a1cb 19be fb6d 1d3e
000000f0: 2011 d53b 556f 613d 7a43 193e 84ee 53be
00000100: fd35 f63e 4308 cd3d 79b9 e5bd f62b 53bd
00000110: 5f60 1e3f 4edb 39c0 85d3 1e3e f429 8bbf
00000120: d3ca 94be b087 1c3e f9c8 8abe 4c0e 58be
00000130: 8c27 12be c611 06be 9033 ec3d bc80 73be
00000140: 507f ecbf 3536 883e 62e0 cd3d 8e2a 643d
00000150: cc4c 1ebf 076a 923c 34dd 3dbe 87b8 99bc
00000160: 0cd3 493f 564c 74be f603 4e3e a181 f93c
00000170: 7c97 293f 3858 fabc 13f0 683d ac53 93be
00000180: c49d 0cbe fc2b 073e 2fe1 08be 13ac b13e
00000190: f1d6 313f 5695 05be dfd1 8d3e 915d 2d3e
000001a0: 415b 5cbe 4fc6 98be d59e 463e 79fb da3c
000001b0: 0c5f e6bf 3439 32bf fc52 73bd 1ba5 4a3e
000001c0: 6bcf b73d 8a5b 373e ac60 9ebf 04e8 793d
000001d0: f642 533d ead7 c1be 3373 9d3e 8d61 9cbb
000001e0: af31 1b3d b1d3 2bbe 2c04 f6bd b58e 7ebc
000001f0: b467 a2bd 8d55 e93d cb56 4c3e 09bb 4e3e
00000200: 8af9 5cbe 7ee8 91be 1af0 dfbd 275b acbc
00000210: c560 97be b8eb 83be 5fdb f7bd 3df6 2e3f
00000220: 99c7 723e 8bb3 353e 30f8 0b3f a1aa f03d
00000230: 00fe 1cbe 869f 153c be86 b6bd 5168 d43d
00000240: 4c31 873f 003c a3bd f163 543d 58fc 16be
00000250: dca6 943f de6b c33d 1c36 2e3e 8990 84bd
00000260: 33f4 dabe cd4d a73e cad0 2a3c 163a c53d
00000270: 96d5 85be 29b5 1e3e f315 33be a64e 9c3d
00000280: ff19 7cbe a044 18be 76ca e63d 54f9 4bbe
00000290: 30d5 d1be 7f90 4b3e af9d a5bd ac6b bd3d
000002a0: 0307 ee3d 2607 263e b2e3 733d 2d44 7cbe
000002b0: 4e48 a93e ff90 f43d 40ff 07bb 89b3 3dbe
000002c0: 8a26 02bd 7c2c f7bd f84f 85be 2f7b 4dbd
000002d0: 470d 00bd 9fff e6bd e8be 91be 6c62 283e
000002e0: 6ab3 71be 516f d33e b556 cdbb 6c4a 29be
000002f0: 30e8 5c3c 9ce4 82bd e98d 4bbd bbf5 c3bd
00000300: 8561 133e c60a dcbc c157 523e 4921 eb3c
00000310: f515 73be de06 eabf 28e8 b63c 154f 08be
00000320: cf2e 78be fa32 0b3e 8ae3 ff3e 0154 fe3d
00000330: cadb 33be de5d 353d acc8 61be faa0 01bd
00000340: c6b6 70be fac6 ad3d c40e 933e e5b2 013e
00000350: 4ae9 dd3e 0d4c 2d3e 5409 21bd 4589 13be
00000360: d15c 27bd 7bc0 fe3d 0de2 4e3e 2d06 46be
00000370: 5b89 e0bd b6f8 e83d 3f47 0dbe a45a 423d
00000380: dd4d d6bd 0d99 7bbb 36ae f1bd 9eb5 db3e
00000390: 0fc2 87be 53f7 893e fbc7 47be 4e78 0e3e
000003a0: 622c ca3c 374d 313d 6fdb 3abe b9be 953e
000003b0: c16b 9ebf 8185 c7bc 6846 77be 6733 b2bc
000003c0: 3cfb 943d 7782 4b3d b09f bdbe 9e56 303e
000003d0: f274 3c3d 3262 5dbe d4d2 603e 7486 773e
000003e0: 713a 013e 9246 103e a612 9a3d 827d eb3c
000003f0: 076c 0d3e dc39 07bc e9a6 27bc edf4 0dbe
-0.2960458 -0.2953988 0.0071158414 -0.1782638 0.5286228 2.7939525 0.20555668 0.36380252
-0.124462515 -0.27171418 -0.4014766 -0.19281092 -0.054644346 0.03801744 0.06306637 -0.22493678
0.035524562 -0.19690566 -0.32236692 -0.046666566 -0.33680966 -0.1663572 -0.077718005 0.10440133
0.22942773 -0.28527454 0.05965196 0.24728258 -0.08804307 -0.09630781 -0.058709573 0.048738554
0.14204362 -0.010861752 0.2136384 -0.51255965 0.095319636 -0.05161676 0.13678691 -0.16089667
-0.17667799 0.29621744 0.03508436 0.03910548 1.778149 0.2886656 0.17609352 -0.099133484
0.07993926 -0.12495182 0.8187438 -0.10213565 0.10420129 0.7364074 -0.0897722 -0.2527062
0.0268432 -0.48914406 -0.15019085 0.15373985 0.0065022856 0.055037815 0.14967147 -0.20696455
0.48088065 0.100113414 -0.11217017 -0.051555596 0.618658 -2.9040103 0.15510376 -1.0872178
-0.29060993 0.15286136 -0.27106455 -0.21099204 -0.14272898 -0.13092718 0.11533272 -0.23779577
-1.8476353 0.26603857 0.10052563 0.055704646 -0.6183593 0.017872823 -0.18541414 -0.018764747
0.78837657 -0.23857245 0.20118698 0.03045732 0.6624677 -0.030559644 0.056869578 -0.28774774
-0.13732058 0.13200372 -0.1336715 0.34701595 0.694686 -0.13045248 0.2769918 0.16930224
-0.21519186 -0.29838797 0.19396527 0.02673124 -1.7997756 -0.69618535 -0.059405312 0.19789545
0.08975109 0.17906013 -1.2373252 0.061012283 0.05157753 -0.37860042 0.30751953 -0.004772371
0.03788918 -0.16779973 -0.120125145 -0.015536954 -0.07929936 0.11393271 0.19954984 0.20188536
-0.21579567 -0.2849769 -0.109344676 -0.021039559 -0.29566017 -0.25765777 -0.121023886 0.6834448
0.23708953 0.17744271 0.5467558 0.11751295 -0.15331268 0.009132272 -0.08912419 0.10371459
1.0561919 -0.079704285 0.051853124 -0.14744699 1.1613421 0.095420584 0.17012829 -0.064728804
-0.42764434 0.32676545 0.010425756 0.0963022 -0.26139516 0.15498795 -0.17488842 0.076321885
-0.24619292 -0.14869928 0.11269085 -0.1991933 -0.40982962 0.1987934 -0.080867164 0.092490524
0.11622431 0.16213664 0.05954332 -0.24635382 0.33062977 0.11941718 -0.0020751506 -0.18525518
-0.031775035 -0.120690316 -0.26037574 -0.050166305 -0.031262662 -0.112792246 -0.28465962 0.16443795
-0.23603597 0.41295865 -0.00626644 -0.16532296 0.013483092 -0.0639126 -0.049695883 -0.09568354
0.1439267 -0.026860606 0.20541288 0.028702395 -0.23738845 -1.8283346 0.022327498 -0.13311417
-0.24236606 0.13593665 0.49978286 0.12418366 -0.17564312 0.04427897 -0.22049206 -0.03164766
-0.23507223 0.084852174 0.28722203 0.12665899 0.43342048 0.16923542 -0.039315537 -0.14407833
-0.04086 0.124390565 0.20203419 -0.19338293 -0.109636985 0.11375563 -0.1379671 0.047449723
-0.1046407 -0.0038390786 -0.11800806 0.42912 -0.26515242 0.26946506 -0.1950988 0.1391308
0.024679366 0.04328653 -0.1824777 0.29247072 -1.2376634 -0.024355652 -0.24147952 -0.021753026
0.07274482 0.049684968 -0.37035894 0.17220542 0.046009965 -0.2161949 0.21955425 0.24172384
0.1261995 0.1408942 0.07523088 0.02874637 0.1381074 -0.008253541 -0.010232666 -0.13862963

fc1.weight f4 [512, 64]
00000000: eb77 0d3e c8fa 50be 772e 23be 463f 0ebd
00000010: 867c 1abe 2416 20be df63 8bbd 8319 a8bd
00000020: 0dd7 c5be 63f3 a1be c467 b43d 8b0c 15bd
00000030: a555 a83d 2345 25be 1a74 143e 6c76 833e
00000040: af12 03be 62d7 cb3e bf02 df3d eb72 393c
00000050: 07b6 173e 7c5d b73d c49a 943d e796 15bf
00000060: 8df1 61be 8497 013d 2c74 06bf f7ff 86bc
00000070: 6a7e 4f3e 0d21 c33e 218d 1f3c 487d 4e3d
00000080: b55d 0fbb 8334 053f 29b9 743c a795 c93e
00000090: 5eab 14be 01c3 69bd 425c da3e 12cc 0fbd
000000a0: 08c1 1a3d dcb3 0b3e eb71 aa3d a7c2 cbbe
000000b0: 62bf 343d addd 0b3f 91db 15be cf5d c03d
000000c0: 9acd 093f dcc8 0cbc 2d95 233e 6168 293e
000000d0: 20ea 9e3e 5831 4dbe 7d61 833e 461f 31bd
000000e0: 7d84 d9bd 7023 fbbc ced9 98bd 4c29 12bf
000000f0: f5d0 453d 7964 d7bc e83d 8cbd 876c 34bd
00000100: b908 c93c 6e3f a3bd 0d63 5abd 590b f8bc
00000110: 4666 903d 06de 353c c00a 3c3d 72b0 a4bd
00000120: fe48 a5bd e031 45bd 7a07 02bd 2269 543d
00000130: 6bd6 b53d 2f7d bcbc 86cd d63c cfb5 fd3d
00000140: 9c91 993c 218b b6bd 03b0 043d 34a9 97bc
00000150: bfc4 c8bd a9bf 7ebd 6a14 3c3d f7ff f23c
00000160: ee87 3c3d e2c1 cebd 7e25 9cbd 2147 b63c
00000170: 52ed a4bd a9e1 e7bb ea52 cabd 586d e73c
00000180: 8e9e e2bd 24f4 de3d 0d65 25bd 984c ffbb
00000190: 4f4f 243d d17b a9bc e099 8cbd 099d c4bc
000001a0: 1dea 073d 4d37 ef3d 08c4 80bd 6927 153d
000001b0: a331 cd3d 709b e2bc c71c d4bd 7a8d 36bd
000001c0: df18 23bd 4d1f ae3b e8e6 793d 6d21 babd
000001d0: b1e1 d4bd b5fd 653d 907a 48bb 2421 01bc
000001e0: b44d 62bd 1f7a a33b e0c1 0d3d e33f ad3d
000001f0: 0dd3 8abd 8b7f 87b9 f964 4e3d d0f5 073a
00000200: dedb bdbd 75d5 2c3e 5c4c aabe 5351 c5bc
00000210: cbf5 55bd 6799 76be 2459 b23d 8bce d9bd
00000220: 48f2 393c cdf4 81bd 185d 20bc 2a01 1abb
00000230: 3763 693e ca2e e2bd 478f 14be dfe7 f5bd
00000240: ab45 82bd 2e04 453d d7cf d43b e94d c4bd
00000250: 1c0f 59be 38b1 21be 96bb 063e ca96 513d
00000260: e8b2 483d 7af9 22be 38ba 463e e813 033e
00000270: 899e 283d 9b10 f9bd 7d34 b2b9 ce7a 95bc
00000280: 1137 a13d 70a9 ac3e f050 96bd a022 683f
00000290: 1937 05be 5e24 c33e d4c5 f23d ed63 2f3d
000002a0: f65b 213e dcea 08be 34e5 f8bd d08d 813d
000002b0: 3e2c 39bc a8a7 a43e 2a5f d43d 88f0 dcbd
000002c0: fc27 183e eba1 e6bc b9ee 623d 2f4c 8abe
000002d0: 165b f33d 9f54 81bd 4f4f ec3d 5a68 663e
000002e0: f54f 2d3d 4286 d03d 72e6 a2bd 5ab0 343d
000002f0: 1135 873d 68e1 ab3e c749 ddbc 8445 0b3e
00000300: bdc1 0c3d 935a 8c3d d716 67bd ec80 90be
00000310: e548 58be 5190 9d3d c035 1cbe 614a bebe
00000320: e201 82bc 82c2 7dbe fc4c 9abe 18bf cebd
00000330: bc78 36bc fea0 9abc 0c3c 2e3e 0be4 483d
00000340: 161e bb3c a0cc c63e a98d 20bb 31ca f6bd
00000350: c8a3 9b3d f477 c33c af52 b83e ad93 e6be
00000360: 2c04 8abe 17b2 88be 5c18 16bf 96cc 5d3e
00000370: 552d 5dbd 335a a03e d0a2 0c3e 2e5f c7bc
00000380: da1c 09be 1ea4 ed3e fcb5 57bd a5a9 dd3e
00000390: 0468 62be 4f81 21be 888f 873e 6c7f 87bd
000003a0: 4a8b 163e 9f16 3c3e 5217 ac3c 6fb5 a3be
000003b0: b5cd 303e 47d3 df3e baed 6c3e 1c88 a0bd
000003c0: cf51 c43e 64f1 6bbd 3987 4b3e 296d 34be
000003d0: 4d9a 003f 09c3 17bd 31d0 433e 527d e23e
000003e0: a67d 683d 4126 5f3d 3426 ce3d 5c4a 15be
000003f0: a0fe 46be 0c8a cb3e 0e6f abbd 747a 8bbd
0.13815276 -0.20408165 -0.15935694 -0.03472831 -0.15086564 -0.15633446 -0.06806158 -0.08207991
-0.38640633 -0.31631002 0.08808854 -0.036388915 0.082194604 -0.16139655 0.14497414 0.25676286
-0.12800096 0.39812762 0.10889196 0.0113189025 0.14815532 0.089533776 0.07256082 -0.58433384
-0.220648 0.031638637 -0.52521014 -0.016479475 0.20263067 0.38111153 0.009738238 0.050412446
-0.0021875922 0.5203325 0.014936724 0.39371988 -0.14518496 -0.057070736 0.42648512 -0.035106726
0.037781745 0.1364283 0.083225094 -0.39796945 0.04412783 0.54635125 -0.14634539 0.093928926
0.5382935 -0.0085928105 0.15974875 0.16543724 0.31037998 -0.20038354 0.25660315 -0.043242715
-0.10620973 -0.030656546 -0.07463418 -0.57094264 0.04829498 -0.026293026 -0.06847745 -0.044048812
0.024540292 -0.07971083 -0.05331712 -0.030278848 0.07050757 0.011100298 0.04590869 -0.08041467
-0.08070563 -0.048143268 -0.03174541 0.051858075 0.088787876 -0.023008911 0.026221048 0.12388193
0.01874619 -0.089132555 0.03239442 -0.0185133 -0.09803151 -0.0621945 0.045917906 0.02966307
0.04602807 -0.10095574 -0.076243386 0.022250714 -0.08053078 -0.0070764613 -0.09879096 0.028250381
-0.11065398 0.1088641 -0.040379573 -0.007791113 0.040114697 -0.020688923 -0.06865287 -0.024000661
0.033182252 0.1168047 -0.0628739 0.036414538 0.10019233 -0.027662009 -0.10357051 -0.044568516
-0.03981864 0.00531379 0.061011225 -0.09088407 -0.1039461 0.056150157 -0.003059063 -0.0078814365
-0.055249885 0.004988923 0.03460872 0.08459451 -0.06778536 -0.00025844233 0.050389264 0.000518647
-0.09270452 0.16878302 -0.33261383 -0.02408663 -0.05223636 -0.24081956 0.087084085 -0.10635098
0.011349268 -0.0634552 -0.00978782 -0.002349923 0.22791754 -0.110440806 -0.14507781 -0.120071165
-0.06360944 0.04809969 0.006494503 -0.09585173 -0.2119717 -0.1579026 0.13157496 0.051169194
0.048998743 -0.1591548 0.19406974 0.12800562 0.041166816 -0.1216137 -0.00033989912 -0.018247034
0.07871831 0.3372302 -0.07339656 0.90677834 -0.130093 0.38113683 0.11854139 0.042819906
0.15757737 -0.13370842 -0.12153092 0.06325877 -0.011302052 0.32159162 0.103697136 -0.10788065
0.14859003 -0.02815338 0.055403445 -0.27011248 0.11882608 -0.06314968 0.115385644 0.22500744
0.04231258 0.10181858 -0.0795411 0.044113494 0.066019185 0.3357041 -0.027012719 0.13600737
0.03436445 0.06853213 -0.056418266 -0.2822336 -0.21121557 0.07693542 -0.15254879 -0.37166122
-0.015870038 -0.2478123 -0.3013686 -0.10095042 -0.011137184 -0.018875595 0.17015094 0.049045604
0.022841495 0.3882799 -0.0024498499 -0.12050284 0.07599598 0.023860909 0.36000583 -0.45034543
-0.26956308 -0.26698372 -0.5863092 0.21660075 -0.05399831 0.31318817 0.13733983 -0.024337377
-0.13389912 0.46414274 -0.05266379 0.4329349 -0.22109991 -0.15771984 0.26476693 -0.06616101
0.14701572 0.18368004 0.021007214 -0.3197436 0.17265971 0.4371588 0.2313756 -0.07838461
0.38343665 -0.057603255 0.19875802 -0.17619766 0.50235444 -0.037051234 0.19122387 0.44236237
0.056760453 0.05447984 0.100658804 -0.14579147 -0.19433069 0.3975376 -0.083707914 -0.068104655

fc1.bias f4 [512]
00000000: 72f5 7f3d 72c1 83bd f61d 813d 133f a33b
00000010: 67f8 a93d 2509 04be 01b8 393d 7be4 a1bd
00000020: 1f5f c8bd 8ff4 e0bd 9827 a93c 25de 313e
00000030: 5eaa b93c 986c ccbd 95d6 87bd 1f35 15be
00000040: 7fef ddbd 0ae2 a03d 8d4d 7d3d 58aa 7d3d
00000050: 2b64 80bd f44b edbd 4f99 88bd ba18 59bd
00000060: e268 94be 9753 483d 6ed0 4bbc 94c9 3cbc
00000070: b8e1 64bd 24c0 d5bd 11bb c83c e5f5 ab3d
00000080: 6fcd 2cbe 7a54 9ebd e003 5cbd b274 613d
00000090: 8be4 3a3d 0f7c 5fbd e214 f1bd 3dfe 97bd
000000a0: c705 c1bd 404f a4be ac6d ddbd 5c24 e83d
000000b0: 2cd7 10bd d93a aebd 7ec8 edbd 3984 a9bd
000000c0: d171 8abd 9945 623d dcbd 2bbd 748c bfbd
000000d0: 207a b9bd 81c8 4ebc 249b cabd 4e12 973d
000000e0: a125 203c 9d8c d9bd 98c3 bfbd c008 5dbd
000000f0: 6614 6a3c ba71 8ebc 40c8 483d cef4 6ebd
00000100: 11fa eb3c a3c0 01be 30db 5fbc 17d3 eabd
00000110: 2453 15be 2988 82bd 460a fb3d bf94 88bb
00000120: 4e81 8bbc c2a3 0fbc da1e e43c ca18 9e3d
00000130: 2777 c5be fe97 033e ffa2 01be 3b18 c4bc
00000140: dc6a 103e 228f b5bd cacd e9bc c467 00be
00000150: d4cc 5f3d 0ff2 76bd a604 f1bd de70 173c
00000160: c4f3 d4bd a868 d83c 15f0 c3b8 966f 9a3d
00000170: 5bce 0bbe 7dd2 d6bc a3c3 0dbe 63a5 533d
00000180: 4219 82bd fd90 eebd adfa b13c 218d db3b
00000190: b3d8 0d3b 7c4d e7bd 9c58 62bd e823 23bd
000001a0: 16c9 14be ee5f 913c a0aa e4bd 8e3a adbd
000001b0: 8861 c23d 7e2b 863c 42c4 b5bd 9a76 c13c
000001c0: c57a 073d ef73 0dbe 4e63 eabd e9c0 f7bd
000001d0: 5abb 8e3c b81e b0bd c3f0 88bc d7d6 a63d
000001e0: 6ae2 90bc 8577 8d3d 9861 38bd 468c 293d
000001f0: 3806 02be e55b d4bd 3a22 9bbd c297 21bd
00000200: aa90 fbbd 33ab 2abe 563a ef3a 8a2f f93c
00000210: 96b4 f5bd 0ddf d4bd 9147 903d a1cb 263e
00000220: 44b3 02bd 3bd1 e9bd d12d 9abe 2803 87bc
00000230: 7006 243c e439 1bbe 329f 7a3a 5f83 c3bd
00000240: 41b0 873c 940e 7cbd be34 e6bd 270b febd
00000250: 21ed 88bd 4a85 eebc e29e 40bc 1633 a1bd
00000260: 05a4 163d ca27 87bb 262b c53c 01f3 23be
00000270: 5c8f 81bd d57f 313e d0cd b2be de9d e6bd
00000280: e29b dcbd d9fa 19bc ee98 6b3d 2e7f e8bd
00000290: 717d 0cbd 01ea 963a 8d82 e6bd 8c2c b6bd
000002a0: b86f a6bd ab35 643d a592 273d ed10 d7bd
000002b0: c997 973d 681f 1ebd 8aef 523d cba7 0bbe
000002c0: fcc9 1abd 8b71 a63c 2759 89bd 3099 03be
000002d0: 7b7c 90bd 30e6 fabc 7e5a ffbb 78ba 93bd
000002e0: cf3d 833c 76d5 ba3b 4c07 93bd a92e 3ebe
000002f0: fe30 75be 3f2a b43c aa73 afbd 4f0d cfbd
00000300: e9bf 1a3c 61ed bfbd b2e8 303d 35be 0a3d
00000310: 9944 8ebd 0e9f 91bc 2c88 2abd 5e67 113d
00000320: e16e 1fbc 5d94 683b 3336 c03d 2a10 09be
00000330: ac1d 153b c7f8 29be 4a21 78bd efe4 67bd
00000340: 6be9 21bd 85a5 84bd 4f7b 813c d2f7 a43c
00000350: 3122 8abd f7e3 06be a5a8 e13d 6e43 1dbe
00000360: 39db 303e d621 1ebd 8d41 cdbb bae0 743c
00000370: 122e adbd 66e5 a5ba 9059 1abe 2e86 0bbe
00000380: 66f0 00ba cc16 dfbc a07b 89be e327 953d
00000390: b1fb 18be 9ea8 c0bd 3fba 22bc c152 813d
000003a0: 434f bf3c b9db 04be c358 27bb cec2 1bbe
000003b0: 1dd5 57be 029f d4bd b662 f53c 7347 a73d
000003c0: dffa dcbd ceb7 84bd 60f5 ca3c d876 23be
000003d0: e4fa a3bd 87a5 55bd 213a 95bd fb08 083d
000003e0: 0b25 943c 0bc0 f6bd 0539 c0bd d810 f1bd
000003f0: dd1a 02be 1ef2 48bb fd47 a0bc 31ce 8fbd
0.062489934 -0.06433381 0.06304543 0.0049818843 0.08299332 -0.12894113 0.045341495 -0.07904907
-0.09783768 -0.10984146 0.020648763 0.17369898 0.022664245 -0.0998165 -0.06632725 -0.14571045
-0.10836696 0.078556135 0.061841536 0.06193003 -0.062691055 -0.115867525 -0.06669866 -0.053002097
-0.2898627 0.048907842 -0.01243983 -0.011522669 -0.055879325 -0.104370385 0.024503263 0.0839651
-0.16875242 -0.077309564 -0.053714633 0.05504293 0.04562811 -0.05456167 -0.11771561 -0.07421539
-0.0942493 -0.32091713 -0.10811934 0.1133506 -0.035361454 -0.08507318 -0.116105065 -0.082771726
-0.0675999 0.055242155 -0.04192911 -0.09352961 -0.090564966 -0.012621046 -0.09892872 0.07376538
0.009774596 -0.10622523 -0.093634784 -0.053963423 0.01428709 -0.017388213 0.0490191 -0.058338933
0.028805764 -0.12671141 -0.013663098 -0.114660434 -0.14582497 -0.06373627 0.12257819 -0.0041681225
-0.01702943 -0.00876707 0.027846742 0.07719572 -0.3856747 0.12850949 -0.12659834 -0.023937335
0.14103264 -0.08865191 -0.02854051 -0.12539583 0.0546387 -0.06028944 -0.11768465 0.009243218
-0.10398057 0.026417091 -9.343043e-05 0.075408146 -0.13652937 -0.026223416 -0.1384416 0.051671397
-0.06352474 -0.11648748 0.021725977 0.0067001735 0.0021644055 -0.11294076 -0.055260286 -0.039829165
-0.14529833 0.017745938 -0.11165357 -0.08458434 0.09491259 0.01637816 -0.08875324 0.023616124
0.033076067 -0.13813756 -0.11444722 -0.120973416 0.01742332 -0.08599609 -0.016716367 0.08146446
-0.017686088 0.06907562 -0.045014948 0.04139354 -0.12697685 -0.1036909 -0.075748876 -0.03945137
-0.12283452 -0.1666687 0.0018251638 0.030418176 -0.11997335 -0.10394106 0.070449 0.16288616
-0.031909242 -0.11416861 -0.3011308 -0.016480997 0.0100113 -0.15158802 0.0009560465 -0.095465414
0.016563537 -0.06153734 -0.112405285 -0.12404471 -0.06685854 -0.029116292 -0.011756631 -0.07871072
0.036777515 -0.0041246163 0.024068426 -0.16010667 -0.06326172 0.1733392 -0.34922647 -0.112605795
-0.1077192 -0.009398186 0.057518892 -0.113523826 -0.034299318 0.001151383 -0.11255369 -0.088952154
-0.081267774 0.055715244 0.040911335 -0.10501275 0.074019976 -0.03860417 0.051497974 -0.13638227
-0.037790284 0.020317813 -0.067064576 -0.12851405 -0.07054993 -0.03062734 -0.00779277 -0.072133005
0.016020684 0.005701716 -0.07179126 -0.18572487 -0.2394447 0.0219928 -0.08566983 -0.1010996
0.009445169 -0.09371448 0.043190666 0.0338728 -0.06946678 -0.017776038 -0.04163377 0.03549897
-0.009731025 0.0035488822 0.09385338 -0.13385072 0.0022753282 -0.16598807 -0.060578622 -0.056614812
-0.039529245 -0.06476883 0.015805868 0.020137701 -0.06744803 -0.13172899 0.110184945 -0.15357754
0.17271127 -0.038606487 -0.006263918 0.014946157 -0.08456053 -0.0012656867 -0.15073228 -0.13625404
-0.00049186347 -0.02723255 -0.2685213 0.072829984 -0.14939763 -0.09407161 -0.0099321 0.06314612
0.023353225 -0.12974443 -0.0025535084 -0.15211031 -0.2107739 -0.10381891 0.029954296 0.08167925
-0.10790037 -0.064803705 0.024775207 -0.15963304 -0.08006838 -0.052159812 -0.07286478 0.03321169
0.01808407 -0.12048348 -0.093858756 -0.11770791 -0.1270556 -0.0030661891 -0.019565577 -0.0702175

fc2.weight f4 [256, 512]
00000000: 6960 123e 7acb 9e3c eb1c 9fbc 7398 c03d
00000010: 1472 c13d 0499 47bc ef43 b23d dcff 37bd
00000020: 5066 233b 1741 f8be 6974 c53d 5ce8 f6bd
00000030: 0c8c b6be 210d 88bd 36c4 abbe 1ae2 66bc
00000040: e09b fbbe bd8a 07bd 8b0e 66bd e378 133e
00000050: c00b 5e3e 0396 69bc 085b a3bc 3e9b 5ebe
00000060: 2810 6dbf d7a9 1b3e 2805 433e 2319 17bd
00000070: 94d0 843d 341b 5d3c 6441 623d 1b40 09be
00000080: 3f82 a4bb 8fb2 53bd de73 683e 840f 05bf
00000090: f1c3 073e 1df0 e23d 45c2 a1bd 53dd 14be
000000a0: c3d1 89be 79dc 50bf 9d5c a73c 2e49 983d
000000b0: b13e 0ebd d4ec 08bf 6471 5fbd 8ecc 743c
000000c0: a571 823e 2f3f 243f 4f3d 87be 55ef 1d3e
000000d0: 8e26 203f 0def efbe 9964 153d 8b14 143e
000000e0: dcc2 ec3d 706c 6ebc e234 32be c33f 40be
000000f0: 602e 9e3c 08d5 6ebd d420 2ebd c4bd 473e
00000100: 947f 223e 409e 6abc eed8 a2be fb0c 3fbd
00000110: 6c22 abbc 1ec7 8b3d 134c 183e 9287 de3d
00000120: 7f1b 00be 1e8e d03e 0565 f03d a1ae c1bd
00000130: 8b31 a7bf dfbc 80bd b6be 8abe be60 8abf
00000140: ff25 4a3e c3ca c0bd c98c b6be 58dd e13b
00000150: 0089 76bd ddfa 08bf d68f d33c 2f09 653d
00000160: e7cb 9ebd 5b06 8d3d 983c 4e3e 3876 ffbd
00000170: 36a3 a43c 9621 e53d b192 7b3d b601 a43d
00000180: 1c34 c2bc 2ed8 cc3c d11a 61bf 7e1a 26bd
00000190: 2dfa a0be f436 92bc 7206 f9be 8562 b53d
000001a0: a840 943d 0999 df3d 80dc 04bf c64b fcbc
000001b0: 38e8 29be 2169 573d 472e debc 06b6 69be
000001c0: 6ce6 2e3c ff90 a5bb a843 16bd c806 783c
000001d0: 79cb c23d 3174 65be d78e e4bc 2ff0 f83d
000001e0: 1e62 fabc c968 40bf 8d8f e53d bd1e 18bd
000001f0: 0054 98ba 338e a7bd 6101 08bd bfa6 e63c
00000200: 73f1 40bc 20bc abbd 4910 ecbd ea07 cf3d
00000210: d5d3 c3bd 5600 fb3c d217 d9bd 9622 d6bd
00000220: eba6 5abe ca83 35bf 19c5 92be 7fae 193e
00000230: 76ae 8c3e 5d9b c73e 6b2a f43d 8fce 213d
00000240: f33b 7a3d c9f5 19bf 6b3e 84bc 4200 a0be
00000250: 771d 1f3e c0f6 febe 09d4 ccbd 8086 0bbd
00000260: 2d2b 1cbf e2c9 09be 99d1 383e 8350 f83e
00000270: 0d9b efbe fad4 a0bd 7029 2dbd e1ed b6bc
00000280: c7d4 63bd f1f6 acbd 500d 333d 0049 783a
00000290: 2a41 a43e 49f4 d4be 2d13 42bd 7060 d8be
000002a0: a8a1 bcbd 9b47 683d e6bc fb3d abe4 2a3d
000002b0: eba7 193f b19f f1bd a1ee c63c b9a8 acbe
000002c0: 2a9e c9bc 3835 e03d 5fae 09bd aa5a cebe
000002d0: dabc fa3d bd8f e1bc bd57 92be 2a13 d43c
000002e0: 810d dcbd d832 a5bd f0ed 3e3c 9698 d83e
000002f0: d408 c7bd 497d 563d 5c82 2c3d 1fb8 75be
00000300: 0180 b038 cb16 c6bc 7a49 bc3e e405 0a3e
00000310: 4294 973d 4416 c2bc 9c16 2b3e d179 83be
00000320: c369 853d bdf8 a8bd f492 34bd 6431 5a3c
00000330: 5a79 93bc 1538 14bd 9742 39be 94d4 053e
00000340: 5e4b b9bb 9c4c d43d bd43 2e3e 4e14 d23d
00000350: 0045 05bd 27e7 b9bd 1d68 d73d 99cf 84bd
00000360: 2cb7 a73c 270a d03d 6cb6 bcbc 197e 033e
00000370: 0aee d53c e705 9bbd 6a67 6abc cac6 28be
00000380: 1bac f53d 75b3 0fbe 5223 35bf cfac 1d3c
00000390: 4554 333d a46a 993d acf9 823d ca41 a23d
000003a0: c1ab 773c b273 d43c 60fd 0d3e a8de cabc
000003b0: 74df 9fbd 185f 22bc 2b02 0c3e 57af b1bd
000003c0: 6955 ba3c ce4c 08bf 52f7 193d 2c47 59be
000003d0: d48c bfbd 0727 3a3e e9cf 093e 788b b2bd
000003e0: 2970 363e 284d fcbc 7337 28bd 2ac3 94bc
000003f0: 6082 633b 567e a23c c457 48be 6c3c bc3d
0.1429459 0.019384135 -0.019422969 0.094040774 0.09445587 -0.012182478 0.087043636 -0.04492174
0.002493281 -0.4848716 0.09641344 -0.12056038 -0.35653722 -0.06643129 -0.33548135 -0.014091993
-0.4914236 -0.033091296 -0.056166213 0.14401583 0.2168417 -0.014256957 -0.019940868 -0.21738908
-0.9260278 0.15201508 0.19044936 -0.036889207 0.064850956 0.013495255 0.055238143 -0.1340336
-0.0050204094 -0.05168396 0.2270045 -0.519768 0.1325834 0.11080954 -0.07898382 -0.14537553
-0.26917848 -0.81586415 0.020429904 0.07435833 -0.034727756 -0.5348637 -0.054551497 0.014941348
0.2547733 0.6415891 -0.26413962 0.15423329 0.6255883 -0.4686207 0.03647289 0.14460962
0.11560604 -0.014552221 -0.17402986 -0.18774323 0.019309223 -0.05830863 -0.042511776 0.19505984
0.1586898 -0.014319956 -0.3180613 -0.04664324 -0.020890437 0.06825088 0.1487277 0.10865702
-0.12510489 0.40733427 0.11738018 -0.09457136 -1.3061994 -0.06286024 -0.27098626 -1.0810773
0.19741057 -0.09413674 -0.35654286 0.0068928413 -0.060189247 -0.53507787 0.025825422 0.05591696
-0.07753735 0.06885978 0.20140302 -0.1247372 0.020097356 0.11188047 0.061419193 0.08008139
-0.023706488 0.025005426 -0.87931544 -0.04055261 -0.3144087 -0.01784847 -0.4863773 0.08856682
0.07238895 0.10917861 -0.51898956 -0.03079785 -0.1659249 0.052590493 -0.027121676 -0.22823343
0.010675054 -0.0050526853 -0.036685616 0.0151383355 0.095114656 -0.22407605 -0.027900143 0.121551864
-0.030564364 -0.7515989 0.11209021 -0.03713869 -0.0011621714 -0.08181419 -0.03320444 0.028155683
-0.011776316 -0.08385491 -0.11526544 0.10108931 -0.09561888 0.030639809 -0.106002465 -0.104558155
-0.21352737 -0.7090422 -0.28666 0.15007971 0.27476853 0.3898572 0.11922153 0.03950363
0.06109233 -0.60140663 -0.016143044 -0.31250197 0.15538584 -0.4979763 -0.1000138 -0.034063816
-0.6100338 -0.13455918 0.18048705 0.48498926 -0.46797982 -0.07853122 -0.042275846 -0.022330226
-0.055622842 -0.08445538 0.043713868 0.0009471327 0.32080966 -0.41592625 -0.04738157 -0.42261076
-0.09210521 0.056708913 0.12291889 0.04172198 0.6002185 -0.11798037 0.024283709 -0.33722475
-0.024611551 0.10947651 -0.03361356 -0.40303546 0.12243052 -0.02753436 -0.28582564 0.025888044
-0.10744763 -0.08066338 0.011653408 0.42303914 -0.09718481 0.052365575 0.042116508 -0.23996018
8.4161766e-05 -0.02418079 0.36774808 0.1347881 0.07401325 -0.023692258 0.16707844 -0.25678876
0.06514313 -0.08250568 -0.044085458 0.01331744 -0.0180022 -0.036186296 -0.18091808 0.13069373
-0.0056547364 0.103661746 0.17018028 0.10257779 -0.032536507 -0.09077292 0.10517905 -0.064849086
0.020473085 0.101581864 -0.023036204 0.12841071 0.026114482 -0.07569485 -0.014306882 -0.16482082
0.11995717 -0.14033301 -0.7075702 0.00962372 0.043781538 0.07491043 0.063952774 0.079227045
0.015116633 0.025934074 0.13866186 -0.024764374 -0.07806292 -0.009910367 0.13672702 -0.086760215
0.022745805 -0.53242195 0.03758938 -0.21218556 -0.09353033 0.1817895 0.13458218 -0.08718008
0.17816223 -0.03079851 -0.041068505 -0.018159468 0.003471516 0.019835632 -0.1956473 0.09191212

fc2.bias f4 [256]
00000000: 88c7 92bd cbd0 be3d 8fd9 65bd df78 ddbd
00000010: 3125 42bd 792f 0ebe 5af4 babd cd7d 4a3b
00000020: c256 16bd 77aa 313d fdde 37be c8d1 733b
00000030: 1c1c cfbc f2c3 a6bc ab7f 3bbd 4e84 8ebd
00000040: 61f2 68bd 11f7 57bc dbd0 82bd efd7 5dbd
00000050: 9edf 78be 9921 13bd b53d 3fbd 0d4d 29bb
00000060: 0a1f 32bd cc48 95bd 5d6d 83bd 0fa6 32bd
00000070: 0a19 95be 83a7 85bd 739e 953d 7218 f0bc
00000080: 3259 65be 072a b5bc c3bd fc3c 74aa aabd
00000090: e800 5bbd 7fcb 49bd 85e4 173e e9c8 66bb
000000a0: 7cf4 62be 2bc0 163c da55 3bbe d45b 3d3e
000000b0: c656 9e3d dd59 3c3e 75e5 4fbe f812 ccbc
000000c0: 285f 9ebd 454c 62bd 9136 50bd 854f 073c
000000d0: ea6a 5e3b de37 21bd 5e18 af3d 0610 443e
000000e0: badc 52bd ce99 25bc c282 74bd a83e 2a3d
000000f0: 4319 65bc 25dd 30bc 9ec6 77bd 6bd6 87bc
00000100: 8570 9abc 6454 953d 2ec2 acbc 6a4a 43bc
00000110: bfc4 10bc 7398 f53d 8483 51bd 9dea 233e
00000120: ed20 d9bd 8301 e6bd 3ae1 95bc a9e6 563d
00000130: 0890 5ebd e661 81bd e564 3cbe 8eb1 333d
00000140: f5f6 303e 18d3 babb d50c c43c a9c0 81be
00000150: 2fdd fe3b 7501 01bd fba0 763d 0736 00be
00000160: 717b 3abd 0408 bcbc f98f 11bd ce5e 9dbd
00000170: 9d73 c93c 10d8 51ba b0fb a0bc fdd2 4ebc
00000180: d24e e03c ff8f d43d 6495 ba3d 871a 333e
00000190: 28d5 57bd a9ed 85bb 901e 99bd f1b9 e3bc
000001a0: 8220 d8bc 66a6 62bd 7337 f1bd 2e0f 853c
000001b0: c936 7abd e951 17bd 5d68 73bc cdfe 53bd
000001c0: 0ed4 ecbc ce02 0fbd 2b2c fbbb 64af 4fbd
000001d0: b4ea dcbc 48e6 54bd 73a4 4b3d 1472 16bd
000001e0: 2c4b 14bd e2b4 7d3c 510b 863d a512 f2bd
000001f0: 5266 fd3d 5751 89bd 0e2a 703d aced 09be
00000200: 6a13 90bc 95d4 083e 4f1d 22be 6fb0 62bd
00000210: d947 cdbd 22a3 75bc b41a 663e 9cc1 703e
00000220: c292 eabb c54d 0ebd 5e76 0dbd 42c3 6f3e
00000230: 0136 6bbd c8c8 f3bb 4bf2 e23d 6e6d debd
00000240: 0bd9 48bd 1ad4 0a3e 4b01 63bd a586 4a3d
00000250: a75c ab3d e3da 80bd 1ca4 7abe bce8 9abc
00000260: 478b 8fbc 9cd9 f13d dc8c a43d 598c a63c
00000270: 0c7a 2d3e 625e 7bbd 2e05 e8bc f044 0b3c
00000280: 87a4 223e ef0f 583d 336e 90bd b25e 52be
00000290: f5e9 8dbe e33d 8ebd 27ec 573e b3ba 93be
000002a0: f274 56bd e050 efbc 1200 90bd 6667 353d
000002b0: 3f1a 5bbc 5cb2 babb ec10 d9bd 1cf5 a0bd
000002c0: 498a d4bc 41d4 2b3e 036f 84be b877 31bd
000002d0: 32ce 583c 120a 26bd d379 1dbe 076b 9fbd
000002e0: 2e13 86bd cd9b febd 9c6a 1fbd ee61 a1be
000002f0: ef52 cfbc 6fac c3bb 1145 153c 86c0 13bd
00000300: 0559 99bc 53f6 063b b2c0 4dbb a77a fcbc
00000310: a613 dd3c c2f6 c93d 3e58 aebc 8568 78bd
00000320: acfa 4a3e dfb4 99be 3b77 cd3d 9480 05bd
00000330: db3a b2bc a191 403e db56 56bd c8d3 25be
00000340: 5dfb 273e 6b8e 59bd 7235 42bd 00df a5bc
00000350: 4bbb 3bbd 0f21 6e3d e522 763c dfe2 aebd
00000360: 475f 19bd f821 08bc 43cd 7c3d 0591 02ba
00000370: 95ac b83c 62d3 d33d a5d2 a9bd 80ef 7e3d
00000380: 3fda 4fbd 8b6b 9c3d a348 8cbd 0f74 f7bc
00000390: c394 91bc f88c 0bbe f196 13bd d684 68bd
000003a0: 97ef f2bd d111 7dbd 0ce8 643d 24f3 4dbd
000003b0: 8ad3 963d 8855 00bd ee17 873a af07 2f3d
000003c0: 3da1 5fbd d2d6 733d d0c3 92bd 7b35 f43b
000003d0: f1ce bdbd fe6a 35be 508d 583d a0ea 51bd
000003e0: 1848 fdbc 6555 11be 91f4 7cbc 2cdd 14bd
000003f0: 7d38 a3bc 745a 82bd e83c 8cbd 3f92 b33d
-0.07166964 0.09317168 -0.056115683 -0.1081407 -0.04739875 -0.13885297 -0.091286376 0.0030897737
-0.036703832 0.04337546 -0.17956157 0.0037203897 -0.025281958 -0.020357106 -0.04577605 -0.06958829
-0.056871776 -0.013181464 -0.06387492 -0.05416101 -0.24304053 -0.035920713 -0.046689708 -0.002583328
-0.043486632 -0.072892755 -0.06417344 -0.043615397 -0.29120666 -0.06526091 0.073056124 -0.029308531
-0.22397307 -0.022114767 0.030852204 -0.083332926 -0.05346766 -0.049266335 0.14833267 -0.0035214967
-0.22163576 0.00920109 -0.18294469 0.18492061 0.077313945 0.18393655 -0.20302375 -0.024911389
-0.07732993 -0.055248518 -0.05083329 0.008258705 0.0033938237 -0.03935992 0.085495695 0.19146737
-0.051480033 -0.010107471 -0.059695013 0.04156366 -0.013983074 -0.010794912 -0.06049215 -0.016581735
-0.018852482 0.07291487 -0.021088686 -0.011919597 -0.00883597 0.11991968 -0.051150814 0.16007467
-0.10601983 -0.11230757 -0.018295873 0.05246607 -0.054336578 -0.06317501 -0.18397863 0.0438705
0.17281707 -0.005701434 0.0239319 -0.253423 0.007777832 -0.03149553 0.060212117 -0.1252061
-0.04552788 -0.02295304 -0.035537694 -0.07684098 0.024591262 -0.0008004913 -0.019651264 -0.012623546
0.027381334 0.103790276 0.09110525 0.17490588 -0.052693516 -0.004087169 -0.074765325 -0.027798625
-0.026382688 -0.05533447 -0.11778154 0.01624259 -0.061087403 -0.03694335 -0.014856425 -0.05175667
-0.02890971 -0.034914784 -0.0076651773 -0.050704375 -0.026967384 -0.051977426 0.049717378 -0.036729887
-0.036204502 0.01548502 0.06545127 -0.118199624 0.12373032 -0.067049675 0.058633856 -0.13469571
-0.017587382 0.13362344 -0.15831493 -0.05534404 -0.100234695 -0.014992507 0.22471124 0.23511356
-0.007158608 -0.034742136 -0.034536712 0.23414329 -0.05742455 -0.0074397065 0.1108137 -0.10860716
-0.049035113 0.13557473 -0.055421155 0.049444813 0.083672814 -0.06291749 -0.24476665 -0.018909805
-0.017522467 0.11809084 0.08034679 0.020330595 0.16941088 -0.061369307 -0.028322782 0.008500323
0.15883075 0.05274957 -0.07052269 -0.20543936 -0.27717558 -0.06945398 0.21086179 -0.28853378
-0.05235762 -0.029213369 -0.070312634 0.04428806 -0.013372957 -0.0056975316 -0.10598931 -0.07859251
-0.025944846 0.16780187 -0.25865945 -0.043327063 0.013232755 -0.040536948 -0.15378504 -0.07784086
-0.06546627 -0.124320604 -0.03892003 -0.31520027 -0.0253081 -0.0059714834 0.009110705 -0.036072277
-0.018719206 0.0020593598 -0.0031395373 -0.030820204 0.026986908 0.098615184 -0.021282312 -0.060646553
0.19822186 -0.30020806 0.10032507 -0.032593325 -0.02175658 0.18805553 -0.052328926 -0.1619407
0.16404481 -0.053114336 -0.04741425 -0.020247936 -0.045832913 0.058136996 0.015022968 -0.08539366
-0.03744438 -0.00830888 0.06171919 -0.0004980716 0.022543231 0.103430524 -0.082921304 0.062240124
-0.050745245 0.076377 -0.06849792 -0.030206708 -0.01777113 -0.13627994 -0.03603262 -0.056767307
-0.118621044 -0.06178457 0.05588536 -0.050280705 0.073645666 -0.03133157 0.0010306814 0.042731937
-0.05459713 0.05953104 -0.071662545 0.0074526644 -0.092679866 -0.17716596 0.05286914 -0.051249146
-0.030918166 -0.14192732 -0.015439169 -0.03634374 -0.019924397 -0.06364909 -0.068475544 0.087681286
