data/predictor/PT/TNetwork_2024-04-18_20-31-15.pt (torch, 865071 bytes, 16 tensors)

conv1.bias f4 [64]
-0.023271188 -0.10054786 -0.17172246 -0.13134572 0.06845783 -0.06543556 -0.11596677 0.050904345
-0.06720337 -0.06824822 0.13302438 -0.18000981 0.0072916485 0.07730044 -0.29033685 -0.0087138945
-0.16216536 -0.10136829 -0.116695635 0.1095838 -0.028562823 -0.046976157 -0.030398384 -0.21866576
-0.114462025 0.031490043 -0.13055487 -0.16655084 -0.21754387 -0.23982114 -0.090694696 -0.25347757
-0.24396235 -0.21632463 0.18056768 -0.22679777 0.28049254 -0.092569046 -0.31967834 0.3024406
-0.28950217 -0.040892087 -0.23010753 -0.0068031764 -0.14647567 0.18631731 -0.0051609813 -0.12013787
-0.041573364 -0.31897277 -0.3190109 -0.093272604 -0.20064601 -0.12789083 0.027711304 -0.2171556
-0.21663287 -0.2986836 -0.090275876 -0.17191155 -0.172945 0.009549899 0.20550835 -0.2357331
00000000: 38a3 bebc 09ec cdbd 03d8 2fbe 7e7f 06be
00000010: 9e33 8c3d 1403 86bd fc7f edbd 1381 503d
00000020: eca1 89bd b9c5 8bbd 8b37 083e 7e54 38be
00000030: c8ee ee3b b14f 9e3d 08a7 94be b9c4 0ebc
00000040: ad0e 26be 2e9a cfbd 1ffe eebd 796d e03d
00000050: 95fc e9bc 126a 40bd 0806 f9bc ebe9 5fbe
00000060: 116b eabd b4fb 003d 2db0 05be 4e8c 2abe
00000070: d2c3 5ebe ac93 75be 24be b9bd d0c7 81be
00000080: 44d1 79be 3484 5dbe bce6 383e ad3d 68be
00000090: b89c 8f3e d794 bdbd e1ac a3be 7fd9 9a3e
000000a0: a139 94be 767e 27bd 4fa1 6bbe 2eed debb
000000b0: b8fd 15be f7c9 3e3e 731d a9bb d80a f6bd
000000c0: d548 2abd 6650 a3be 6655 a3be b505 bfbd
000000d0: 2676 4dbe d0f5 02be d102 e33c 0a5e 5ebe
000000e0: 02d5 5dbe 0fed 98be 8fe2 b8bd 9509 30be
000000f0: 7e18 31be 2e77 1c3c c870 523e 0564 71be

conv1.lin.weight f4 [64, 6]
0.0034479625 0.2688983 -1.8578279 0.6730733 -0.1856063 0.84875387 0.20080404 -0.0744218
-0.9561022 -0.12758042 0.011173324 0.83591986 0.08193207 0.12779057 0.1247512 -2.1046317
0.106819965 2.2561584 0.056673154 0.39254394 0.4223552 0.13075201 -0.16632055 -1.7989906
-0.5966905 -0.0681246 -0.30824003 0.6543693 -0.11322591 1.1070682 -0.33602718 0.4080018
-0.018234544 0.24754609 -0.24110712 -0.05741192 0.0023291819 0.4188647 -0.7222527 -1.0093477
-0.003585458 -0.55869347 -0.26621443 0.426433 -1.2169287 0.48120695 -0.19235864 1.1519672
-0.33077314 0.04992358 0.5557656 -1.9877479 0.18174307 2.273236 -0.3575834 0.5306696
0.04032338 0.22476256 -0.2596823 0.9996695 0.23432066 -0.38293046 0.21045187 0.7903053
-0.1649264 -1.6226789 -0.048249662 -0.13019104 0.14703517 0.34767812 -0.27238095 1.4967835
-0.05690414 -0.8888982 -1.6535426 0.624599 -0.091846175 0.8981744 -0.38356012 0.46362445
-0.5304848 0.8098888 -0.12733582 -1.3616979 -0.18372673 -0.063440636 0.15436639 -0.33591685
-0.23934793 0.40679547 -0.5728985 -0.42909822 -0.6464322 0.33444205 -0.18047577 1.3565971
-0.05468166 -0.4587298 0.5585339 0.28383106 -0.04181409 0.61113816 -0.44709548 -0.6781089
0.40067238 0.38146022 -0.18809435 -0.7531882 0.07320569 0.56192315 -1.1657645 -1.0036039
0.048665643 -0.5941081 -0.7079162 -0.29859042 0.26289135 0.25879067 -0.14204958 0.90324634
-0.35138988 -0.22262569 -0.6385644 0.48063773 -0.018487874 1.4928801 0.0015768713 -0.7039311
-1.7064608 0.70054764 -0.0027034793 0.83193773 -0.2168773 0.28291708 0.53736067 -1.6913533
-0.047857292 1.5597332 0.14858803 0.15028541 0.13213956 -0.96785533 -0.12694162 1.3230661
-0.014861174 0.09708118 0.59103274 0.12127792 -0.032977503 0.667823 -0.369978 0.15998767
-0.4093175 0.16631171 0.4345491 -0.053902764 0.045381874 0.10886993 0.091430895 -1.943875
-0.27187088 2.1898472 0.12303166 0.08389017 0.5956647 0.56653446 0.1068459 -0.75581354
0.097392984 0.4067107 -0.43980706 -0.7119569 0.028254539 -0.8416323 0.16423236 0.17797226
-0.8514281 0.21305633 0.0061494857 1.1340742 0.24437216 -0.45043635 0.37267676 0.37090924
0.005445735 -0.90475243 0.16516483 0.20444304 0.05345397 0.25850725 -0.12060605 1.7871051
0.05155613 0.22768256 -1.0929594 0.22202164 0.0008430216 1.0415428 -0.144242 -1.4291977
0.32894564 0.6669487 0.057058148 -0.972025 -0.9704316 -0.21887796 0.06571451 0.60942376
-0.24476194 0.9230423 0.020199578 0.4983121 0.45132768 -0.88364625 -0.16706412 -1.4065795
-1.5101082 -0.72346866 0.5156412 0.04290445 0.24193497 1.2334872 -0.3614769 -0.7323715
0.73912543 -1.2817595 0.03418888 1.1194031 0.13577867 0.25621563 0.2876886 0.13980463
-0.21482912 1.5535083 -1.2756888 -0.026513943 0.42437717 -0.012521398 -0.3379832 1.0258466
0.16025488 0.3184294 -0.74012333 0.15601878 -0.17374021 1.294604 -0.05906925 0.44229895
-1.2373981 0.2857532 -0.066656366 -0.11594447 -0.026298996 0.38870013 -0.97919995 0.36843693
00000000: 36f7 613b 0aad 893e 4ecd edbf 884e 2c3f
00000010: 940f 3ebe ef47 593f 939f 4d3e 756a 98bd
00000020: 1dc3 74bf 71a4 02be 5110 373c d8fe 553f
00000030: 00cc a73d 88db 023e 8f7d ff3d 49b2 06c0
00000040: 6dc4 da3d e664 1040 1c22 683d 85fb c83e
00000050: f13e d83e dbe3 053e ef4f 2abe 5345 e6bf
00000060: b5c0 18bf e984 8bbd a3d1 9dbe bf84 273f
00000070: fce2 e7bd 69b4 8d3f c10b acbe 9de5 d03e
00000080: 9c60 95bc b97c 7d3e c9e4 76be c328 6bbd
00000090: 30a5 183b 6f75 d63e 8ee5 38bf 4e32 81bf
000000a0: 01fa 6abb 8906 0fbf 424d 88be 6d55 da3e
000000b0: 52c4 9bbf c260 f63e aaf9 44be a973 933f
000000c0: 195b a9be ab7c 4c3d a846 0e3f 866e febf
000000d0: db1a 3a3e b37c 1140 2c15 b7be f7d9 073f
000000e0: 212a 253d 2828 663e 14f5 84be 57ea 7f3f
000000f0: c1f1 6f3e 760f c4be b280 573e 7351 4a3f
00000100: 77e2 28be f1b3 cfbf 70a1 45bd cd50 05be
00000110: 6390 163e de02 b23e 8475 8bbe 9a96 bf3f
00000120: 5114 69bd d58e 63bf 49a7 d3bf b8e5 1f3f
00000130: d919 bcbd c2ee 653f fe61 c4be 2f60 ed3e
00000140: dacd 07bf df54 4f3f 5264 02be 1e4c aebf
00000150: dc22 3cbe 2aed 81bd 3912 1e3e 4bfd abbe
00000160: a017 75be 7f47 d03e 7aa9 12bf c3b2 dbbe
00000170: 957c 25bf fd3b ab3e a4ce 38be f9a4 ad3f
00000180: e0f9 5fbd a2de eabe 14fc 0e3f 4e52 913e
00000190: 4045 2bbd 8d73 1c3f b3e9 e4be 8b98 2dbf
000001a0: ee24 cd3e c14e c33e ce9b 40be f1d0 40bf
000001b0: ddec 953d 32da 0f3f c537 95bf 1876 80bf
000001c0: a055 473d 7817 18bf ff39 35bf d8e0 98be
000001d0: b299 863e 3680 843e 7275 11be 273b 673f
000001e0: 60e9 b3be fdf7 63be f578 23bf 2616 f63e
000001f0: e273 97bc b216 bf3f 05af ce3a d434 34bf
00000200: 4f6d dabf 1757 333f db2c 31bb dff9 543f
00000210: 1515 5ebe 82da 903e 7890 093f 447e d8bf
00000220: 0206 44bd 56a5 c73f 7627 183e 6be4 193e
00000230: 984f 073e 5ec5 77bf fcfc 01be 3b5a a93f
00000240: 487c 73bc 7fd2 c63d ec4d 173f 8f60 f83d
00000250: 6b13 07bd 73f6 2a3f c26d bdbe cfd3 233e
00000260: 1092 d1be 9e4d 2a3e 387d de3e 25c9 5cbd
00000270: 58e2 393d 33f7 de3d 1f40 bb3d e5d0 f8bf
00000280: a932 8bbe 7526 0c40 06f8 fb3d 9cce ab3d
00000290: 7b7d 183f 6708 113f 06d2 da3d ff7c 41bf
000002a0: f975 c73d 633c d03e 642e e1be cf42 36bf
000002b0: 1076 e73c 3775 57bf 872c 283e 5c3e 363e
000002c0: 31f7 59bf 702b 5a3e a081 c93b 5829 913f
000002d0: b23c 7a3e 989f e6be 7dcf be3e d1e7 bd3e
000002e0: 2372 b23b db9d 67bf f820 293e 8459 513e
000002f0: 8df2 5a3d 105b 843e 4e00 f7bd dcbf e43f
00000300: 852c 533d 9e25 693e 18e6 8bbf a459 633e
00000310: 39fe 5c3a 4651 853f 2db4 13be f3ef b6bf
00000320: 906b a83e 26bd 2a3f ceb5 693d a1d6 78bf
00000330: 356e 78bf 8b21 60be 5495 863d 3203 1c3f
00000340: e0a2 7abe 804c 6c3f 9679 a53c c322 ff3e
00000350: 6c14 e73e a436 62bf db12 2bbe cc0a b4bf
00000360: 3a4b c1bf 3e35 39bf 1001 043f 94bc 2f3d
00000370: cdbd 773e e9e2 9d3f 8013 b9be b37c 3bbf
00000380: 5337 3d3f b210 a4bf a409 0c3d 9a48 8f3f
00000390: 9009 0b3e b22e 833e ec4b 933e f228 0f3e
000003a0: 2afc 5bbe 5cd9 c63f c549 a3bf c533 d9bc
000003b0: f747 d93e 8d26 4dbc 220c adbe f14e 833f
000003c0: db19 243e 2e09 a33e b978 3dbf 63c3 1f3e
000003d0: f4e8 31be 95b5 a53f 99f2 71bd 0275 e23e
000003e0: 1063 9ebf 3e4e 923e 2283 88bd 4b74 edbd
000003f0: fe70 d7bc b403 c73e d9ac 7abf c4a3 bc3e

conv2.bias f4 [64]
-0.11435235 -0.08629033 -0.23317644 -0.25858906 -0.10223786 -0.054902926 -0.13705587 -0.09059539
-0.14525288 -0.04596127 -0.31310147 -0.10612707 -0.23401238 0.08354994 -0.15585944 -0.03451188
-0.35344264 -0.044337828 -0.14741896 -0.29414207 -0.14926083 -0.2407069 -0.040620208 -0.15384524
-0.15448837 -0.20740248 -0.08429177 0.2530973 -0.1100283 -0.029854089 -0.115414 -0.030274523
-0.19179079 -0.011697829 -0.08268763 -0.13710913 -0.054282047 -0.22091936 -0.13811089 -0.28122634
-0.049332973 -0.08676412 -0.061465744 -0.28767893 -0.03369548 -0.09421171 -0.17718853 -0.13087836
-0.12386946 -0.12824617 -0.15158463 -0.14460863 0.016556686 0.008378128 -0.13991554 -0.045862418
-0.11137455 -0.033708993 -0.13015376 0.00510123 0.103594616 -0.07764277 -0.038751755 -0.19010596
00000000: 9131 eabd fcb8 b0bd cec5 6ebe c965 84be
00000010: 1562 d1bd e4e1 60bd 6058 0cbe 138a b9bd
00000020: 2cbd 14be e241 3cbd d64e a0be 2659 d9bd
00000030: f1a0 6fbe 3b1c ab3d 9e99 1fbe 545c 0dbd
00000040: 6ff6 b4be 959b 35bd fff4 16be ca99 96be
00000050: d5d7 18be df7b 76be 6061 26bd 9b89 1dbe
00000060: 3332 1ebe 5161 54be 2aa1 acbd f895 813e
00000070: 8456 e1bd 9090 f4bc 2d5e ecbd 4702 f8bc
00000080: ce64 44be 40a8 3fbc 2258 a9bd 5666 0cbe
00000090: da56 5ebd af38 62be f16c 0dbe e6fc 8fbe
000000a0: 5f11 4abd 63b1 b1bd 81c3 7bbd a74a 93be
000000b0: 4604 0abd 12f2 c0bd e970 35be fa04 06be
000000c0: 45af fdbd f752 03be 0039 1bbe 4914 14be
000000d0: e3a1 873c 6a44 093c 0546 0fbe 3bda 3bbd
000000e0: 5718 e4bd 7112 0abd 0747 05be 3828 a73b
000000f0: 6a29 d43d 2c03 9fbd 29ba 1ebd 23ab 42be

conv2.lin.weight f4 [64, 64]
0.08431404 -0.015541133 0.024346024 0.004010119 0.037349414 0.116441265 0.20633043 0.09087333
-0.022672037 -0.06252778 -0.064904824 -0.74511856 0.24001536 0.003769067 -0.524384 -0.120341115
-0.14559238 -0.27544174 -0.06048004 -0.04901005 0.051679555 -0.18214919 -0.28147715 -0.26535684
-0.11836219 -0.04915669 -0.15097545 -0.037653558 0.02431063 -0.15156326 -0.1077072 -0.01464184
0.015845023 0.08146157 -0.13504149 -0.0458858 0.014379208 -0.29215372 -0.24430218 -0.31123266
0.31720653 -0.07879608 0.16949089 0.0622389 -0.2109244 -0.03707151 -0.6809499 -0.06385869
-0.050243333 -0.04667528 -0.18467683 -0.28664002 0.07630711 0.030109193 -0.17781204 0.005081314
-0.14969763 0.09519807 -0.1912671 -0.16900751 0.0957062 -0.5884082 0.15889062 0.23812957
-3.5251465 -0.31275758 1.0632375 0.026263779 -0.00114367 0.019030666 -0.82593244 -0.8423659
0.5747843 0.17235166 -0.4691542 0.90299296 -0.5138211 1.5564581 0.24983303 0.15089998
0.42540795 -0.25686243 -2.6445742 -0.1556166 -0.037351854 -0.8025478 0.42281455 0.75918746
0.11511101 0.42388344 1.018878 -0.17530729 -0.90845567 -0.67045635 -0.4278504 0.6900529
-2.4258502 -0.42342228 -0.24399897 -0.21069984 -0.49923882 -0.30283576 0.75221115 -0.7043735
-1.3862176 -3.7031946 -1.4763032 -0.16176394 0.6400549 -0.19269235 0.46653968 0.9471071
-4.3942814 0.2534716 -2.3063014 -0.8391075 0.5872742 -3.3025684 0.22076978 -0.40852416
0.69383264 0.16159496 -0.21409059 0.40279484 -0.048542403 0.5386607 -0.37088886 -3.5920331
0.03523715 0.12698287 1.202326 -0.6393288 -1.338738 -0.14441183 0.17617008 -0.2532726
1.1115843 0.21303566 0.10410312 0.35125178 -0.655614 0.27533668 -0.08664854 -2.1635785
0.2813283 0.41976362 0.033497125 -0.5352842 -1.2497811 -1.1135753 0.414364 0.8193277
0.22015841 -0.29065767 1.5000867 -0.23682874 -0.23663819 0.045256853 -0.1488246 0.7472968
0.1345997 1.3092165 -0.7223052 -0.54560715 -0.2792598 -0.33502823 0.6001952 -0.22285835
0.26846573 0.23570384 0.23065867 0.14413214 0.97453356 0.009017277 0.013688224 0.8237237
0.1276684 0.048688155 0.21536656 0.102234535 0.8760934 0.3538386 0.07510922 -0.33999878
0.51817006 0.05945989 -1.6625161 0.29559666 -0.29421848 0.018637309 -0.03630179 0.2685184
0.032177072 -0.27211857 -1.0259368 0.047400143 0.055536292 0.14780334 0.7512521 0.6822061
-0.99590313 0.54147804 -0.23521408 -0.76144093 0.32870397 0.37398103 -0.5980685 0.42245656
-0.25138876 0.0022081924 0.47428566 -0.21086276 0.3376245 0.24015668 -0.3279952 -0.5806386
-0.022227753 0.07493289 -0.98989886 0.3324961 0.5826659 0.4085254 -0.19575953 0.6773076
0.20885889 -0.37920558 -0.068557456 0.5352076 -0.6390604 0.4057665 0.29734144 -0.3045615
0.89362854 0.5163329 0.4307184 0.06530353 0.5750368 0.3216344 -0.47488397 -0.9908546
0.3662331 -0.20946722 0.2074747 -0.22332539 -0.3642336 0.69615364 -0.035992175 -0.6053861
0.47624975 0.10442401 0.08708269 -0.35084403 -0.07566182 -0.89827013 -0.004822259 0.4463513
00000000: d7ac ac3d 3ca0 7ebc 5071 c73c 5167 833b
00000010: b3fb 183d c278 ee3d 4948 533e cc1b ba3d
00000020: b5ba b9bc 910e 80bd d2ec 84bd 17c0 3ebf
00000030: 96c6 753e 7402 773b 083e 06bf 6775 f6bd
00000040: 2b16 15be b306 8dbe ebb9 77bd c3be 48bd
00000050: f1ad 533d 5185 3abe c61d 90be dadc 87be
00000060: e067 f2bd 8658 49bd 4f99 1abe 9e3a 1abd
00000070: 1627 c73c 6633 1bbe 9895 dcbd 54e4 6fbc
00000080: 6ccd 813c 53d5 a63d 5148 0abe c0f2 3bbd
00000090: c596 6b3c 2c95 95be 5a2a 7abe e359 9fbe
000000a0: e568 a23e d75f a1bd 058f 2d3e 38ee 7e3d
000000b0: 91fc 57be 4cd8 17bd bc52 2ebf 58c8 82bd
000000c0: f4cb 4dbd 942e 3fbd ec1b 3dbe 7bc2 92be
000000d0: e746 9c3d 8ea7 f63c 5c14 36be 2781 a63b
000000e0: 564a 19be 35f7 c23d 86db 43be 4e10 2dbe
000000f0: 9d01 c43d eba1 16bf 39b4 223e 3dd8 733e
00000100: 009c 61c0 c321 a0be 2b18 883f 2327 d73c
00000110: 32e7 95ba 33e6 9b3c 4f70 53bf 4ba5 57bf
00000120: 1025 133f f47c 303e fb34 f0be 8c2a 673f
00000130: c889 03bf 053a c73f 3bd4 7f3e 8685 1a3e
00000140: 12cf d93e 7983 83be b440 29c0 f559 1fbe
00000150: 42fe 18bd c673 4dbf 267b d83e 1c5a 423f
00000160: 52bf eb3d 4007 d93e 986a 823f c183 33be
00000170: 8d90 68bf 07a3 2bbf 350f dbbe 4fa7 303f
00000180: 2141 1bc0 ceca d8be deda 79be b3c1 57be
00000190: 3b9c ffbe 4a0d 9bbe e990 403f d251 34bf
000001a0: 946f b1bf 2401 6dc0 81f7 bcbf 72a5 25be
000001b0: a3da 233f 2551 45be 4ade ee3e 9c75 723f
000001c0: f49d 8cc0 08c7 813e 719a 13c0 c0cf 56bf
000001d0: 9a57 163f 485d 53c0 7911 623e 142a d1be
000001e0: 049f 313f 2679 253e 903a 5bbe 203b ce3e
000001f0: 66d4 46bd abe5 093f 25e5 bdbe dfe3 65c0
00000200: d454 103d cc07 023e d2e5 993f 0dab 23bf
00000210: c45b abbf b2e0 13be ee65 343e f2ac 81be
00000220: 6548 8e3f 0526 5a3e 0434 d53d 46d7 b33e
00000230: 52d6 27bf eef8 8c3e ca74 b1bd 1278 0ac0
00000240: 430a 903e 42eb d63e 4834 093d 6308 09bf
00000250: d4f8 9fbf a389 8ebf 8527 d43e 76bf 513f
00000260: 3571 613e 15d1 94be d702 c03f 3c83 72be
00000270: 4851 72be 405f 393d 7a65 18be d84e 3f3f
00000280: 81d4 093e 6894 a73f fee8 38bf e9ac 0bbf
00000290: 24fb 8ebe d288 abbe 65a6 193f fb34 64be
000002a0: 5774 893e 595c 713e c931 6c3e 6097 133e
000002b0: 087b 793f 33bd 133c 9344 603c 8edf 523f
000002c0: 81bb 023e 3b6d 473d 0d89 5c3e 5760 d13d
000002d0: a847 603f 552a b53e ddd2 993d 5214 aebe
000002e0: cba6 043f 378c 733d 54cd d4bf 7258 973e
000002f0: cea3 96be 45ad 983c 30b1 14bd 3e7b 893e
00000300: 1bcc 033d 2053 8bbe e651 83bf a726 423d
00000310: 067a 633d c259 173e 0f52 403f 0fa5 2e3f
00000320: 82f3 7ebf 4e9e 0a3f f6db 70be cbed 42bf
00000330: e34b a83e 717a bf3e 041b 19bf 3a4c d83e
00000340: 07b6 80be 52b7 103b 92d5 f23e 68ec 57be
00000350: 1edd ac3e a2eb 753e fdee a7be bba4 14bf
00000360: fa16 b6bc 6a76 993d 036a 7dbf ee3c aa3e
00000370: 9829 153f 3e2a d13e 3075 48be 0864 2d3f
00000380: 1bdf 553e 3c27 c2be da67 8cbd 5e03 093f
00000390: 7699 23bf a0c0 cf3e 233d 983e 7cef 9bbe
000003a0: d7c4 643f 652e 043f 1f87 dc3e dbbd 853d
000003b0: 9d35 133f 44ad a43e fe23 f3be a6a8 7dbf
000003c0: e882 bb3e 937e 56be 3f74 543e 69af 64be
000003d0: d47c babe 2037 323f 886c 13bd 95fa 1abf
000003e0: 02d7 f33e 41dc d53d 6958 b23d d4a1 b3be
000003f0: 96f4 9abd 08f5 65bf 0a04 9ebb 2888 e43e

conv3.bias f4 [64]
0.12547076 -0.011971049 -0.023281336 -0.008938094 -0.10473005 0.13957557 0.027401311 -0.045887806
-0.05509103 -0.008045239 -0.07928089 -0.021039354 -0.07091792 0.030374544 -0.047109287 -0.023022665
0.0034920883 0.06598894 -0.06056909 0.030226745 0.10006078 0.005923623 -0.14363058 0.03241402
-0.11879335 -0.07494211 0.13045533 -0.12654123 0.011073726 -0.06561472 0.04001802 -0.12157807
-0.05724509 0.011243238 -0.064781845 -0.13926686 0.5758452 0.013482115 -0.12639101 0.047188736
-0.019262582 -0.097799025 0.10927014 -0.013851165 0.039678488 0.03466833 -0.059072558 0.107691534
-0.091659606 -0.10824566 -0.07218354 -0.024719242 0.08083898 0.010483666 -0.111480534 0.028048348
-0.09577144 0.028081922 0.031786025 -0.0451206 0.040780194 0.11621566 0.021516196 -0.1677145
00000000: 687b 003e 3822 44bc 80b8 bebc 1571 12bc
00000010: b57c d6bd e6ec 0e3e b778 e03c daf4 3bbd
00000020: 22a7 61bd 2ed0 03bc 055e a2bd b95a acbc
00000030: 6a3d 91bd 09d4 f83c abf5 40bd 079a bcbc
00000040: 85db 643b 3625 873d 4b17 78bd 149e f73c
00000050: abec cc3d f41a c23b e513 13be 90c4 043d
00000060: ee49 f3bd 407b 99bd 1596 053e 0694 01be
00000070: 936e 353c 0361 86bd efe9 233d ecfd f8bd
00000080: d479 6abd 8f35 383c 58ac 84bd f99b 0ebe
00000090: 976a 133f 17e4 5c3c a56c 01be fa48 413d
000000a0: 90cc 9dbc db4a c8bd 06c9 df3d ffef 62bc
000000b0: e985 223d 6100 0e3d 11f6 71bd 618d dc3d
000000c0: 08b8 bbbd e7af ddbd f7d4 93bd 0280 cabc
000000d0: e88e a53d afc3 2b3c e84f e4bd a6c5 e53c
000000e0: d123 c4bd 0f0c e63c 1032 023d 61d0 38bd
000000f0: 2209 273d 7a02 ee3d bc42 b03c 5abd 2bbe

conv3.lin.weight f4 [64, 64]
0.12546547 -0.29680756 -1.197487 0.3311151 0.030478897 0.09160468 0.14833896 0.19260278
-0.1912783 0.6468437 0.16738437 -0.10211946 0.0722094 0.42102498 -0.13789013 -0.00092852477
0.21125475 -0.24151164 -1.3141791 0.1853191 0.5030032 0.14404215 0.030378133 -0.049772512
-0.31193835 0.014345374 0.0588233 -0.15168104 -0.12504911 -0.040099982 -1.0373853 0.12948462
-0.036388703 -0.8154883 0.18767308 -0.07578179 0.0633875 -0.120071456 0.017420424 0.40356663
0.037954677 -0.3646872 0.080264695 -1.1477151 0.06764312 -0.3346379 0.2600375 -0.6399987
0.65841514 0.44433486 0.24504794 0.09912776 -0.32800412 -0.024605446 -1.2161099 0.049152296
0.5631607 -0.48201978 0.039738763 0.33249533 0.04424247 -0.04087366 -0.12057447 0.20142497
0.06919295 0.61855924 -0.5245534 -0.047783684 -0.048433725 -0.14579163 -0.08346026 0.035860375
-0.05127043 0.047965467 -0.16822653 0.04772838 0.34405577 0.080823734 0.16050969 -0.03652506
0.21753746 -0.20501415 -0.34385276 -0.024712984 -0.029181188 -0.24770288 0.14723098 -0.10788669
-0.08491491 -0.11808221 -0.18336919 -0.1047045 0.14725135 -0.11882412 -0.23671263 0.18315972
0.56307393 -0.005154109 -0.12139026 -0.055445332 0.20931904 0.04149501 -0.0026858707 0.37005842
-0.22136515 -0.08554998 -0.08151961 -0.744083 -0.004684717 -0.16493666 -0.4174227 0.37857422
0.32544693 0.20510939 0.09471276 -0.15670668 0.12793319 0.2537033 -0.39240184 0.044625685
-0.09415008 -0.24844483 0.305164 -0.13985589 -0.016033825 0.1676673 0.0690817 0.07320477
-0.007459244 -0.06197876 -1.2054083 0.11586573 0.21176693 -0.18725671 -0.12754041 -0.59766924
-0.14961413 0.45567974 0.14013414 -0.1984232 -0.39180547 0.10326472 -0.03573373 0.12376749
-0.5143487 7.066205e-05 -0.9240205 -0.13542071 -0.057259798 -0.030120384 -0.03860486 -0.18469156
-0.0438901 -0.22802544 0.13032478 0.11713508 -0.37803882 0.11305153 -0.90128195 -0.02690593
-0.52504104 -0.041397735 -0.121772125 0.19598606 0.2402957 0.022056917 -0.1454379 -0.8180206
0.28934184 0.076878004 -0.20505494 -1.0491159 0.47649544 0.13065836 -0.04303892 0.32802492
0.28190345 -0.11191906 0.3317473 0.7634532 0.24221052 0.072948985 -0.94543815 -0.10712946
0.23342715 0.11097364 0.16049333 0.06969228 0.07771181 -0.15781924 -0.120197915 -0.08866265
0.081301205 -0.32351157 0.69636095 -0.36350298 -0.0066547417 -0.15590641 0.049707677 0.12487125
0.0722532 -0.0872127 -0.083784156 -0.027752398 0.29094422 0.3487128 0.074374266 0.16039765
0.4408691 0.05062618 0.5862945 -0.27606842 0.3713608 -0.34348026 -0.11377908 0.12542838
0.35580456 0.2613513 0.06326719 -0.71704376 -0.022230368 0.19484787 0.6111658 0.02444933
0.34315488 0.20235436 -0.031288777 -0.07721965 0.057648107 -0.43275112 0.06909873 0.66332763
-0.14668123 0.045375135 0.07854703 0.15480514 -0.19543839 0.10268368 0.2423753 0.19971342
-0.0353504 0.22855489 -0.33758438 -0.14076473 -0.08236997 0.103259146 0.2916031 -0.12267164
0.24159408 0.29352364 -0.11383119 0.39192882 -0.34541157 0.042268123 0.061450824 0.08151807
00000000: 057a 003e 29f7 97be 4147 99bf eb87 a93e
00000010: e1ae f93c 3c9b bb3d 2be6 173e aa39 453e
00000020: 75de 43be 8c97 253f cf66 2b3e 0224 d1bd
00000030: 86e2 933d 9690 d73e 1233 0dbe 3e68 73ba
00000040: 2a53 583e d44e 77be 0537 a8bf 4ac4 3d3e
00000050: d1c4 003f c97f 133e 90db f83c 43de 4bbd
00000060: 62b6 9fbe dc08 6b3c b3f0 703d 4652 1bbe
00000070: e00c 00be e13f 24bd 0bc9 84bf 9e97 043e
00000080: 520c 15bd d7c3 50bf 5f2d 403e 7c33 9bbd
00000090: 4ed1 813d 06e8 f5bd 47b5 8e3c 49a0 ce3e
000000a0: 5d76 1b3d 48b8 babe d161 a43d 54e8 92bf
000000b0: 7a88 8a3d a955 abbe a323 853e f4d6 23bf
000000c0: e58d 283f dc7f e33e d9ed 7a3e 7f03 cb3d
000000d0: 28f0 a7be 5c91 c9bc 7da9 9bbf eb53 493d
000000e0: 4d2b 103f 4ccb f6be 1dc5 223d d43c aa3e
000000f0: 9837 353d 246b 27bd bfef f6bd 5942 4e3e
00000100: 09b5 8d3d e659 1e3f 2249 06bf d3b8 43bd
00000110: 7162 46bd 674a 15be 36ed aabd 54e2 123d
00000120: f100 52bd 7077 443d 9343 2cbe d57e 433d
00000130: 1428 b03e ea86 a53d a75c 243e 4d9b 15bd
00000140: 24c2 5e3e 3bef 51be 780d b0be e272 cabc
00000150: 630d efbc d3a5 7dbe b8c3 163e b2f3 dcbd
00000160: dee7 adbd 16d5 f1bd 22c5 3bbe 506f d6bd
00000170: 0fc9 163e 0f5a f3bd cc64 72be 398e 3b3e
00000180: 9d25 103f cde3 a8bb 759b f8bd a51a 63bd
00000190: bb57 563e acf6 293d 6f05 30bb 4c78 bd3e
000001a0: 8cad 62be d434 afbd c1f3 a6bd 397c 3ebf
000001b0: 4182 99bb 28e5 28be 6eb8 d5be 7bd4 c13e
000001c0: fba0 a63e 3208 523e c3f8 c13d b777 20be
000001d0: eb00 033e 66e5 813e e5e8 c8be 6cc9 363d
000001e0: c2d1 c0bd 5268 7ebe 753e 9c3e 6236 0fbe
000001f0: 5e59 83bc fab0 2b3e b57a 8d3d 62ec 953d
00000200: ad6c f4bb 71dd 7dbd d24a 9abf 034b ed3d
00000210: 6ed9 583e 39c0 3fbe f499 02be da00 19bf
00000220: 7234 19be db4e e93e 537f 0f3e 742f 4bbe
00000230: ba9a c8be 747c d33d 885d 12bd cf79 fd3d
00000240: 5bac 03bf 6630 9438 9c8c 6cbf baab 0abe
00000250: 4089 6abd 06bf f6bc 2120 1ebd c91f 3dbe
00000260: 1bc6 33bd 807f 69be dc73 053e 84e4 ef3d
00000270: 4e8e c1be 9087 e73d 6aba 66bf d369 dcbc
00000280: 1769 06bf ac90 29bd aa63 f9bd 92b0 483e
00000290: 1310 763e b5b0 b43c aced 14be cc69 51bf
000002a0: 9d24 943e 3772 9d3d ecf9 51be 6e49 86bf
000002b0: 36f7 f33e 4ecb 053e 9449 30bd e2f2 a73e
000002c0: a655 903e d235 e5bd c8da a93e ab71 433f
000002d0: 0906 783e 4766 953d 3c08 72bf b166 dbbd
000002e0: 8707 6f3e 2646 e33d 5d58 243e d3ba 8e3d
000002f0: 5f27 9f3d 5e9b 21be 532a f6bd c394 b5bd
00000300: 3f81 a63d 4fa3 a5be b644 323f 101d babe
00000310: 0510 dabb eea5 1fbe 479a 4b3d 7fbc ff3d
00000320: 7cf9 933d 929c b2bd 0797 abbd ff58 e3bc
00000330: a4f6 943e 7c8a b23e 8951 983d 483f 243e
00000340: 98b9 e13e 665d 4f3d 6517 163f d758 8dbe
00000350: 0123 be3e a5dc afbe 0205 e9bd 4c70 003e
00000360: 042c b63e d6cf 853e 3a92 813d 2e90 37bf
00000370: 761c b6bc 3386 473e 5d75 1c3f f649 c83c
00000380: ffb1 af3e fb35 4f3e a928 00bd 5625 9ebd
00000390: 6c20 6c3d 8e91 ddbe a383 8d3d d7cf 293f
000003a0: 9b33 16be 47db 393d 44dd a03d 3d85 1e3e
000003b0: 0021 48be d24b d23d 3b31 783e ad81 4c3e
000003c0: 95cb 10bd 4b0a 6a3e dcd7 acbe a124 10be
000003d0: 96b1 a8bd 8879 d33d 004d 953e 453b fbbd
000003e0: 7064 773e bb48 963e 5420 e9bd e5aa c83e
000003f0: c9d9 b0be 5721 2d3d dcb3 7b3d f2f2 a63d

fc1.weight f4 [512, 64]
0.7537047 0.01835189 -0.41487154 -0.09446014 0.049795926 0.5282377 0.1091018 0.14295791
0.12599495 0.16346988 -0.33533996 -0.061336268 -0.6409175 0.64490056 -0.30783316 0.07103995
-0.24223913 -0.053999465 -0.36858487 -0.49354216 0.34190458 -0.2678821 -0.5589552 0.80660266
-0.16413581 0.35579985 0.090193205 -0.3248433 -0.18643466 0.020534465 0.4980479 -0.25377047
0.17478156 0.32838666 -0.64651656 0.482219 0.16369396 -0.32129318 -0.08307218 1.2981256
-0.75595313 -0.3884991 -0.030782275 -0.3770761 0.076190084 -0.23832771 -0.4135328 -0.043671183
0.40019587 -0.39304167 0.10636473 -0.9591968 -0.008534491 0.71883607 -0.224476 0.23976126
-0.1599183 0.037840527 -0.11190186 -0.24204488 -0.009467013 0.43884957 0.5178471 -0.38960382
0.16963394 0.04620772 0.16068473 -0.0032940689 0.21879023 -0.1399296 -0.05178293 0.096153736
0.21766686 -0.053813677 0.079388835 -0.032916415 0.063335724 0.0069377148 -0.0635291 0.099622265
0.057203986 0.06487571 -0.023304688 0.13345039 0.01624359 0.16588567 0.08719671 -0.20583294
0.103547156 0.10792677 -0.24588858 0.04748754 0.23915964 0.012612767 0.26308036 -0.024749849
-0.26529267 0.0011675959 0.028797898 0.07935412 -0.5557798 0.20024912 0.04437741 -0.13487571
-0.032799058 0.11781426 0.08718063 0.16656867 -0.1323408 0.15773687 -0.04996922 -0.017332297
0.11806999 0.13601586 -0.023386324 0.032305036 -0.026829032 -0.04178365 0.27368817 -0.056219086
-0.05974044 -0.061911054 0.15131602 -0.06691203 -0.06392912 0.021240175 0.038523797 0.20817848
1.3020363 -0.1303226 -0.28079584 -0.15844977 -0.09786315 0.21287033 0.31854883 0.47571477
0.1675375 0.35499334 0.3132766 -0.5928129 -0.0016590977 0.43382108 0.33747008 -0.0867455
-0.3977649 0.12445142 -0.43299404 -0.3816915 0.09410024 0.59959185 0.017431699 0.3726697
-0.3582953 0.38247675 -0.103818126 -0.13080561 1.1024402 0.5119907 -0.11469634 0.057061095
-0.3982308 0.20103292 0.2528108 0.9327213 0.27829373 0.1296854 0.039110333 0.64649534
-0.028641151 -0.1623358 -0.2782881 0.08038975 0.48648697 -0.3798682 -1.3643216 -0.08394508
0.39145872 0.018094324 0.39595693 -2.1774154 0.09383356 -0.2981144 0.7235964 1.5439235
-0.13417827 0.29863453 0.22351964 0.34204987 0.26915932 -0.17449687 0.64779365 0.05738644
0.58308405 0.0065973117 0.01510485 -0.029723154 0.094709165 0.03662579 -0.24068958 -0.23745616
0.25221035 0.33882982 -0.073436715 0.12788355 -0.24039832 0.438031 -0.4100594 -0.23414505
0.18496034 -0.077159144 -0.08469901 0.26103172 -0.12069316 0.3004592 -0.21567309 -0.048374854
0.073506154 -0.46866372 0.2718149 -0.40594864 0.6287313 0.014932927 -0.19397388 0.25149852
-0.3248748 -0.22424568 0.120566115 0.44452813 -0.29988557 0.27836472 0.032047495 -0.02751389
-0.2679252 -0.23917283 0.35059452 -0.12080769 0.13628419 0.06390577 -0.3881058 -0.08050164
0.3645507 -0.06719669 0.20493211 -0.30946827 -0.18316203 0.2473763 0.7162503 0.5632441
-0.069286376 -0.02814946 0.3086751 -0.60760534 -0.03287625 0.10079018 0.48456275 0.27497035
00000000: cbf2 403f b456 963c 0b6a d4be 5174 c1bd
00000010: d0f6 4b3d 963a 073f c470 df3d 8f63 123e
00000020: d204 013e a664 273e aeb1 abbe bd3b 7bbd
00000030: 2b13 24bf 3418 253f 4f9c 9dbe 657d 913d
00000040: 890d 78be 8b2e 5dbd 28b7 bcbe 8fb1 fcbe
00000050: 1e0e af3e d827 89be b017 0fbf 837d 4e3f
00000060: 3813 28be 662b b63e 37b7 b83d dc51 a6be
00000070: bae8 3ebe e537 a83c 2200 ff3e 34ee 81be
00000080: f0f9 323e 4c22 a83e 1c82 25bf 69e5 f63e
00000090: 649f 273e 8a80 a4be bf21 aabd fb28 a63f
000000a0: 2586 41bf 5be9 c6be 1c2b fcbc 1e10 c1be
000000b0: 8c09 9c3d 2e0c 74be 92ba d3be 8ee0 32bd
000000c0: 79e6 cc3e c23c c9be c0d5 d93d ec8d 75bf
000000d0: 40d4 0bbc a405 383f 09dd 65be fa83 753e
000000e0: 9fc1 23be abfe 1a3d cd2c e5bd 9dda 77be
000000f0: 881b 1bbc e4b0 e03e a191 043f 277a c7be
00000100: 85b4 2d3e 4e44 3d3d 8a8a 243e 4ee1 57bb
00000110: 8c0a 603e b449 0fbe 561a 54bd 40ec c43d
00000120: 10e4 5e3e bb6b 5cbd 9d96 a23d 5dd3 06bd
00000130: 29b6 813d c555 e33b 8b1b 82bd c206 cc3d
00000140: ba4e 6a3d 8edd 843d 79e9 bebc 38a7 083e
00000150: 4711 853c efdd 293e 3094 b23d dfc5 52be
00000160: 8810 d43d b608 dd3d 37ca 7bbe 4b82 423d
00000170: 44e6 743e c7a5 4e3c 78b2 863e 32c0 cabc
00000180: 71d4 87be 040a 993a 92e9 eb3c 6a84 a23d
00000190: 9647 0ebf 1b0e 4d3e 16c5 353d dc1c 0abe
000001a0: 4e58 06bd 9a48 f13d c28b b23d fa90 2a3e
000001b0: 5984 07be c685 213e 86ac 4cbd 76fc 8dbc
000001c0: aece f13d be47 0b3e ad94 bfbc 4952 043d
000001d0: 8fc8 dbbc 5525 2bbd db20 8c3e fc45 66bd
000001e0: 64b2 74bd 7296 7dbd 96f2 1a3e 2d09 89bd
000001f0: 45ed 82bd e0ff ad3c 21cb 1d3d bd2c 553e
00000200: 20a9 a63f 4a73 05be 79c4 8fbe a840 22be
00000210: 7a6c c8bd aefa 593e d518 a33e e390 f33e
00000220: f38e 2b3e b0c1 b53e ca65 a03e 96c2 17bf
00000230: 1576 d9ba cc1d de3e e1c8 ac3e a0a7 b1bd
00000240: d7a7 cbbe 63e0 fe3d 65b1 ddbe 116d c3be
00000250: a0b7 c03d da7e 193f eccc 8e3c 90ce be3e
00000260: 7b72 b7be fed3 c33e 999e d4bd e8f1 05be
00000270: c31c 8d3f d311 033f eae5 eabd e5b8 693d
00000280: e8e4 cbbe 93db 4d3e 6b70 813e d3c6 6e3f
00000290: 847c 8e3e 40cc 043e 2832 203d b880 253f
000002a0: d9a0 eabc 5b3b 26be c77b 8ebe 62a3 a43d
000002b0: d214 f93e 167e c2be 17a2 aebf 66eb abbd
000002c0: 476d c83e 8c3a 943c deba ca3e c65a 0bc0
000002d0: cf2b c03d 73a2 98be 9d3d 393f 499f c53f
000002e0: 0766 09be a0e6 983e 55e2 643e 2921 af3e
000002f0: 40cf 893e 4faf 32be ced5 253f 0b0e 6b3d
00000300: ff44 153f 432e d83b 557a 773c f97d f3bc
00000310: e1f6 c13d ed04 163d 5477 76be b527 73be
00000320: b721 813e 1a7b ad3e fd65 96bd e8f3 023e
00000330: fa2a 76be 9945 e03e 4ef3 d1be b8c3 6fbe
00000340: 3e66 3d3e 9d05 9ebd ad76 adbd f3a5 853e
00000350: fa2d f7bd cad5 993e 68d9 5cbe b624 46bd
00000360: 658a 963d b1f4 efbe 532b 8b3e 80d8 cfbe
00000370: 89f4 203f 3ca9 743c 17a1 46be 6ac4 803e
00000380: fd55 a6be a9a0 65be 5eeb f63d 3199 e33e
00000390: 9a8a 99be d285 8e3e 3c44 033d cf64 e1bc
000003a0: 7e2d 89be b9e9 74be 2081 b33e 066a f7bd
000003b0: 158e 0b3e 07e1 823d ceb5 c6be 0bde a4bd
000003c0: 64a6 ba3e 6b9e 89bd b9d9 513e a072 9ebe
000003d0: d48e 3bbe 3650 7d3e 2e5c 373f c430 103f
000003e0: 04e6 8dbd b299 e6bc aa0a 9e3e 068c 1bbf
000003f0: 3fa9 06bd 156b ce3d 9c18 f83e eac8 8c3e

fc1.bias f4 [512]
0.18175557 -0.09169136 0.027319385 -0.20611231 -0.055534102 0.24584979 -0.18411446 -0.5833602
-0.09852737 0.014877797 -0.5210629 0.024723781 0.035054684 -0.018479038 -0.21059935 -0.22704442
-0.19293256 -0.46795338 0.05336713 -0.2875791 -0.103891246 -0.23967592 -0.122438915 0.31770152
-0.09280144 0.27781796 -0.053415935 -0.39198327 0.0891127 -0.73441 -0.19406445 0.07550307
-0.06816303 0.29131028 -0.03674876 -0.14016093 -0.3561851 -0.035745077 -0.26093397 0.081509076
0.0049459604 -0.25849184 0.3114991 -0.07784586 -0.61765254 0.10333869 -0.15504609 -0.1059363
-0.4688642 -0.3477982 -0.34024626 -0.17174783 -0.14388557 -0.20288062 -0.05800859 -0.5481789
-0.027902221 -0.23798755 -0.26796797 -0.20765023 0.09390154 0.010152099 0.01791382 -0.30070043
-0.15832227 -0.36438096 -0.15711291 -0.26632 -0.34987172 -0.075212546 -0.097004615 -0.112542644
-0.40187496 -0.42482218 0.3567763 -0.43711704 -0.54033726 -0.1401073 -0.57876027 -0.20507054
-0.10842769 0.06003338 -0.343324 -0.017122317 -0.41790462 -0.62072504 -0.17402259 -0.043813813
-0.07973231 -0.3604228 -0.2462863 -0.0867992 -0.16491786 0.01127685 -0.15527603 -0.11000752
-0.34978 -0.27589625 -0.13682896 -0.31412444 -0.114987865 -0.24414755 0.11606327 -0.17535795
-0.10687215 -0.05005197 -0.06008719 -0.16888353 -0.24686915 -0.082279555 -0.2191107 0.06305238
-0.15255705 -0.17463386 0.058242578 -0.10635289 -0.36286077 -0.3049915 -0.21376058 -0.07392062
-0.2479741 -0.28180468 0.021813283 -0.11401685 -0.41718036 -0.23924275 0.023810681 0.045979373
-0.10161284 -0.20910966 -0.13768002 -0.41897532 -0.31588367 -0.16640496 -0.08011334 -0.0820896
0.13085485 -0.2847745 0.16483715 -0.19213355 -0.31821117 -0.32640398 0.061921895 0.02010053
-0.4486448 -0.4758697 -0.140972 -0.09688187 -0.1594196 0.00021623517 0.06782695 0.46082816
-0.02798123 -0.2247821 -0.59461504 -0.062121823 0.020115314 -0.040722538 -0.2166822 0.4970332
-0.04752251 0.09144209 -0.33280155 -0.21499221 -0.4292838 -0.08982738 -0.11601444 -0.36152273
-0.17684366 0.15027915 0.18442309 -0.119238496 -0.12374897 0.035833858 -0.11646281 -0.24738151
-0.21558376 0.087675184 0.5413572 -0.08196689 0.12991181 -0.071779914 -0.23813221 -0.23022597
0.2290217 -0.1846652 -0.35779542 -0.15891959 -0.31168196 0.08197522 -0.3204235 0.03283433
-0.29832923 -0.12232993 0.021823097 0.11785612 -0.013674145 -0.04802336 0.31225467 -0.3335674
-0.3208499 -0.1288959 0.0020611484 0.16150256 -0.39613205 -0.002418784 -0.0702691 0.06603429
-0.28888857 -0.64045644 -0.3511995 -0.2729665 -0.20091419 -0.5454116 -0.3541148 -0.18948509
0.112538755 -0.12939778 -0.16755334 -0.20328742 -0.10591176 -0.22631481 -0.5406096 0.30713558
-0.6269156 -0.16274902 0.23115174 -0.27503827 -0.107893355 -0.11028464 -0.4129313 0.02665192
0.04663347 -0.15936624 -0.15158047 -0.22798748 -0.10060037 -0.3242126 0.51533085 0.40195966
-0.058661815 0.026818013 -0.12378506 -0.3032577 -0.42088622 -0.14664926 -0.2582208 0.058359444
-0.10713818 -0.24622166 -0.7133878 -0.15763818 -0.28104582 -0.119471066 0.070022434 -0.5745003
00000000: 221e 3a3e aec8 bbbd e7cc df3c 1b0f 53be
00000010: ba77 63bd 0cc0 7b3e 8088 3cbe 1857 15bf
00000020: b8c8 c9bd 01c2 733c 6164 05bf 8789 ca3c
00000030: 8095 0f3d 5a61 97bc 5ba7 57be 557e 68be
00000040: 1d90 45be 9697 efbe 7e97 5a3d 913d 93be
00000050: efc4 d4bd 9b6d 75be 41c1 fabd c6a9 a23e
00000060: ae0e bebd 283e 8e3e abca 5abd 08b2 c8be
00000070: b880 b63d 4b02 3cbf d5b8 46be 5ba1 9a3d
00000080: 0f99 8bbd 9f26 953e de85 16bd 5986 0fbe
00000090: e55d b6be 6e69 12bd 2399 85be 3bee a63d
000000a0: b911 a23b 0b59 84be cf7c 9f3e a66d 9fbd
000000b0: 7a1e 1ebf 3ca3 d33d 67c4 1ebe 21f5 d8bd
000000c0: f80e f0be 9b12 b2be c234 aebe aade 2fbe
000000d0: bd56 13be f0bf 4fbe 6a9a 6dbd 7455 0cbf
000000e0: 3393 e4bc 02b3 73be 1933 89be 43a2 54be
000000f0: 734f c03d fd54 263c 01c0 923c 68f5 99be
00000100: 3c1f 22be 2490 babe 35e2 20be 185b 88be
00000110: 6322 b3be 0909 9abd 5baa c6bd c27c e6bd
00000120: 8ec2 cdbe 4b82 d9be 62ab b63e cecd dfbe
00000130: 8b53 0abf 4a78 0fbe a229 14bf 03fe 51be
00000140: 560f debd 90e5 753d 2ac8 afbe 1a44 8cbc
00000150: 98f7 d5be d6e7 1ebf fa32 32be 1d76 33bd
00000160: b14a a3bd 5689 b8be 7a32 7cbe c7c3 b1bd
00000170: 3ae0 28be 89c2 383c ae00 1fbe 9f4b e1bd
00000180: 5d16 b3be 4642 8dbe e41c 0cbe ebd4 a0be
00000190: c27e ebbd d101 7abe 94b2 ed3d 0991 33be
000001a0: c9df dabd 4b03 4dbd fc1d 76bd ceef 2cbe
000001b0: 44cb 7cbe 2f82 a8bd 8e5e 60be 9b21 813d
000001c0: ea37 1cbe 38d3 32be c58f 6e3d 8bcf d9bd
000001d0: e3c8 b9be d927 9cbe 0ee4 5abe b263 97bd
000001e0: ecec 7dbe b448 90be c5b1 b23c ab81 e9bd
000001f0: aa98 d5be 0dfc 74be 9e0e c33c de54 3c3d
00000200: 651a d0bd d820 56be fefb 0cbe ef83 d6be
00000210: 81bb a1be 1066 2abe 7612 a4bd 981e a8bd
00000220: d0fe 053e f7cd 91be 12cb 283e a8be 44be
00000230: 93ec a2be 6c1e a7be d0a1 7d3d dea9 a43c
00000240: c5b4 e5be 31a5 f3be f75a 10be 006a c6bd
00000250: e43e 23be 30bd 6239 dbe8 8a3d abf1 eb3e
00000260: e438 e5bc 472d 66be b138 18bf 7473 7ebd
00000270: dfc8 a43c adcc 26bd f0e1 5dbe 237b fe3e
00000280: f7a6 42bd fe45 bb3d f764 aabe eb26 5cbe
00000290: 16cb dbbe 6bf7 b7bd fb98 edbd 8219 b9be
000002a0: 8116 35be c7e2 193e 68d9 3c3e 5033 f4bd
000002b0: 1a70 fdbd 86c6 123d 0e84 eebd 9451 7dbe
000002c0: fdc1 5cbe 0c8f b33d 6396 0a3f 42de a7bd
000002d0: 9a07 053e 5901 93bd eed8 73be 5bc0 6bbe
000002e0: aa84 6a3e e018 3dbe f630 b7be d1bb 22be
000002f0: c794 9fbe a0e2 a73d 8d0e a4be 4a7d 063d
00000300: 9cbe 98be 1d88 fabd 5ac6 b23c 8d5e f13d
00000310: 8509 60bc 25b4 44bd d8df 9f3e 59c9 aabe
00000320: 7046 a4be 49fd 03be 5514 073b ed60 253e
00000330: d2d1 cabe 7684 1ebb 3fe9 8fbd fc3c 873d
00000340: 34e9 93be f4f4 23bf 6cd0 b3be 44c2 8bbe
00000350: 73bc 4dbe 18a0 0bbf 894e b5be 6108 42be
00000360: b87a e63d da80 04be 1a93 2bbe 942a 50be
00000370: 44e8 d8bd 12bf 67be 6465 0abf e040 9d3e
00000380: 8a7d 20bf aea7 26be 0bb3 6c3e d1d1 8cbe
00000390: 31f7 dcbd eadc e1bd bb6b d3be 2155 da3c
000003a0: bd02 3f3d e730 23be e937 1bbe 8d75 69be
000003b0: 9107 cebd 32ff a5be b9ec 033f a8cd cd3e
000003c0: 5f47 70bd 73b1 db3c 0683 fdbd 9844 9bbe
000003d0: 667e d7be 392b 16be 8435 84be 500a 6f3d
000003e0: 436b dbbd 8821 7cbe 95a0 36bf e76b 21be
000003f0: 3de5 8fbe 3fad f4bd ec67 8f3d 7412 13bf

fc2.weight f4 [256, 512]
-0.0020449196 0.003387566 0.03765685 0.2820135 -0.08257418 -0.338255 0.26525563 -0.09419942
-0.089123696 0.058853723 0.27676877 -0.08117761 0.92802995 0.48716372 -0.33448452 -0.086004466
-0.5883921 -0.022393545 0.31001288 -0.045597196 0.04101779 -0.119381145 0.32947797 0.41237247
-0.031626534 0.08612017 -0.027370429 -0.40284553 0.031747896 -0.6134029 -0.06360213 0.047508225
0.0057896245 0.26622188 0.43757343 0.09699512 -0.13069804 -0.006160003 0.08360567 0.15366897
0.4046136 -0.10894952 -0.43635538 0.02133 -0.2313385 0.48185867 -0.25338915 0.7882306
0.009420693 -0.09129273 -0.5277838 0.118010044 0.12427911 0.24942969 0.114036605 -0.4852414
0.10284856 -0.74778265 -0.002461589 -0.79632163 0.42099303 0.09810402 0.33705857 0.021640727
0.14886941 0.08144556 -0.011683385 0.022655386 -0.23898725 0.2987392 -0.027340677 0.55898243
-0.620634 -1.5235063 0.16878164 -0.3939159 0.09498375 -0.7144437 0.54455906 -0.064079136
0.023027362 0.79681313 0.2146199 -0.54320323 -0.017352445 -0.31054032 0.044078134 0.3059041
-0.26523554 -0.20079073 -0.38328323 -0.1337558 -0.105535775 0.15794404 -0.02488936 -0.021418884
-0.36689636 -0.30614033 -0.53932726 -0.12825927 0.13451052 0.11379286 0.37585813 -1.0336559
0.34800503 -0.18779466 0.29751986 -0.050866 -0.29455024 -0.2827943 -0.19243287 0.31889322
-0.39321265 0.06318059 0.5367429 0.3856593 -0.52677 -0.6940987 -0.060222093 -0.09927885
-0.7835151 0.4042305 0.42968366 0.022701284 -0.48419338 0.01807256 0.2571587 -0.1532065
0.44506893 0.5485946 -0.130507 0.045054033 -0.19477025 0.17420521 0.84975207 -0.2792797
0.40310052 0.3395431 0.6132339 -0.22581369 -0.04386325 0.09664958 0.52924263 -0.029820465
0.07916951 -0.32848015 0.119882636 -0.016891815 0.027503092 0.50903714 -1.0895851 0.039791424
0.21620572 0.024370411 -0.56411004 -0.00906958 -0.28459123 0.13616043 -0.0011695804 0.30773604
0.19439045 0.30119404 0.30872196 -0.15311009 -0.24076572 -0.028521402 -0.05434386 -0.3634243
0.04624565 0.06758136 0.67660916 -0.6694037 -0.3988595 0.5320374 -0.018605758 -0.5639884
0.25334394 -0.06584592 0.19785726 -0.012983289 0.50678015 -0.019827534 -0.19431688 0.29247674
0.096882485 -0.1365402 -0.017915253 0.0026018217 0.403542 0.16780081 0.22833934 0.54119927
0.18309991 -0.0022490248 0.09410235 0.654787 -0.008547855 0.47778013 -0.15627588 0.1924803
-0.45130813 0.0025090696 -0.3060351 0.33980954 -0.3209932 0.14300677 -0.35612473 0.16832489
-0.06725465 -0.8748877 -0.45526135 0.063163236 -0.04123522 0.13107207 -0.040361665 0.07838108
0.09606327 0.016087651 0.033780813 -0.010992993 0.1765629 -0.44090086 -0.23872937 0.051249698
-0.2852676 -0.30680415 0.18457808 -0.78627133 0.08618229 0.041331775 -0.42103145 -0.43252778
0.607848 0.54683894 -0.02046382 -0.64984035 -0.46294636 -0.5990238 0.19980992 -0.12233658
0.07140457 0.07871266 -0.035509437 0.2744203 -0.12208088 -0.08085072 0.020040823 0.61853397
-0.022188464 0.09777581 -0.0960541 0.057079956 -0.18480733 0.025402222 -0.16208507 0.30913436
00000000: 0f04 06bb ed01 5e3b 123e 1a3d 1364 903e
00000010: a71c a9bd c22f adbe 96cf 873e a0eb c0bd
00000020: 7c86 b6bd 9a10 713d a3b4 8d3e 7240 a6bd
00000030: 5f93 6d3f 866d f93e 8e41 abbe 1c23 b0bd
00000040: dda0 16bf ab72 b7bc 02ba 9e3e 20c4 3abd
00000050: 4502 283d 1a7e f4bd 56b1 a83e 7c22 d33e
00000060: d38a 01bd c65f b03d f337 e0bc c541 cebe
00000070: 150a 023d f907 1dbf d541 82bd fc97 423d
00000080: e4b6 bd3b 3c4e 883e a009 e03e 61a5 c63d
00000090: b5d5 05be dad9 c9bb 7339 ab3d 665b 1d3e
000000a0: 8429 cf3e ed20 dfbd f969 dfbe 41bc ae3c
000000b0: 00e4 6cbe 2eb6 f63e 39bc 81be 7bc9 493f
000000c0: 4059 1a3c aff7 babd d71c 07bf 40af f13d
000000d0: 0c86 fe3d 7f6a 7f3e 068c e93d 9071 f8be
000000e0: 44a2 d23d af6e 3fbf 9c52 21bb bcdb 4bbf
000000f0: 668c d73e c3ea c83d f192 ac3e e547 b13c
00000100: 3971 183e eecc a63d ab6b 3fbc ca97 b93c
00000110: 13b9 74be 58f4 983e 8ef9 dfbc 7919 0f3f
00000120: dfe1 1ebf 4102 c3bf 18d5 2c3e 58af c9be
00000130: d786 c23d c8e5 36bf 3968 0b3f ec3b 83bd
00000140: e1a3 bc3c f2fb 4b3f 52c5 5b3e 5e0f 0bbf
00000150: b726 8ebc 24ff 9ebe 468b 343d 769f 9c3e
00000160: f4cc 87be 169c 4dbe b33d c4be 48f7 08be
00000170: 2423 d8bd 15bc 213e c5e4 cbbc a876 afbc
00000180: d7d9 bbbe 6dbe 9cbe 5a11 0abf 6656 03be
00000190: 20bd 093e 3b0c e93d 7a70 c03e d64e 84bf
000001a0: b72d b23e 3e4d 40be 8654 983e de58 50bd
000001b0: 4acf 96be 6aca 90be 1f0d 45be f945 a33e
000001c0: 2b53 c9be d364 813d fc67 093f 2375 c53e
000001d0: 66da 06bf 74b0 31bf 71ab 76bd b652 cbbd
000001e0: 7294 48bf 4df7 ce3e 7fff db3e 0bf8 b93c
000001f0: 32e8 f7be e80c 943c 4eaa 833e 2ae2 1cbe
00000200: 13e0 e33e b270 0c3f a1a3 05be 948a 383d
00000210: da71 47be da62 323e 5a89 593f c0fd 8ebe
00000220: 3163 ce3e 98d8 ad3e e6fc 1c3f b43b 67be
00000230: f4a9 33bd 37f0 c53d 727c 073f 0c4a f4bc
00000240: a023 a23d 8d2e a8be 0785 f53d b460 8abc
00000250: 2a4e e13c 4250 023f 8677 8bbf 55fc 223d
00000260: 0865 5d3e 75a4 c73c 8469 10bf 9398 14bc
00000270: f1b5 91be a46d 0b3e 9b4c 99ba 948f 9d3e
00000280: 4a0e 473e 1b36 9a3e ce10 9e3e e4c8 1cbe
00000290: 4a8b 76be b7a5 e9bc ab97 5ebd c012 babe
000002a0: 146c 3d3d 1968 8a3d 4236 2d3f 0a5e 2bbf
000002b0: 5037 ccbe 9a33 083f 1a6b 98bc 8b61 10bf
000002c0: 4cb6 813e 3ada 86bd 189b 4a3e dcb7 54bc
000002d0: 58bc 013f 5a6d a2bc 01fb 46be 83bf 953e
000002e0: 536a c63d 32d1 0bbe 02c3 92bc 5383 2a3b
000002f0: 0f9d ce3e fad3 2b3e cad1 693e 098c 0a3f
00000300: 8b7e 3b3e 6064 13bb bcb8 c03d 1fa0 273f
00000310: 4d0c 0cbc 999f f43e c906 20be 8e19 453e
00000320: dc11 e7be 346f 243b a2b0 9cbe 84fb ad3e
00000330: 3959 a4be 5e70 123e fb55 b6be 5c5d 2c3e
00000340: cebc 89bd a4f8 5fbf 0418 e9be ba5b 813d
00000350: 43e6 28bd c237 063e 4652 25bd 4286 a03d
00000360: d2bc c43d 40ca 833c c05d 0a3d f41b 34bc
00000370: e8cc 343e c2bd e1be 7975 74be 34eb 513d
00000380: 980e 92be 6f15 9dbe 0902 3d3e 1449 49bf
00000390: 5780 b03d 824b 293d 6f91 d7be 4874 ddbe
000003a0: ed9b 1b3f a3fd 0b3f bea3 a7bc f05b 26bf
000003b0: 4e07 edbe a059 19bf f99a 4c3e 9a8b fabd
000003c0: 8f3c 923d 1a34 a13d 5872 11bd d180 8c3e
000003d0: 8a05 fabd 1095 a5bd a72c a43c 3e58 1e3f
000003e0: 95c4 b5bc af3e c83d 03b8 c4bd accc 693d
000003f0: 223e 3dbe 5218 d03c a1f9 25be dc46 9e3e

fc2.bias f4 [256]
-0.03001625 -0.7037688 -0.026821481 -0.07040552 -0.52347076 -0.5281781 -0.07003342 -0.11120401
-0.06313885 -0.17978856 -0.054502286 -0.05409958 -0.028040627 -0.04338897 -0.199533 -0.6598985
-0.36879864 -0.49215806 0.004661042 -0.067192346 -0.06554768 -0.5255889 -0.35267577 -0.005139763
0.29327276 -0.04127722 -0.39494735 -0.307353 -0.3133381 0.028873535 -0.049302466 -0.060836904
-0.5569716 -0.42467612 -0.03571844 -0.01239453 -0.58296025 -0.012402263 0.30295253 -0.3286896
-0.4463661 -0.55644625 -0.56973433 -0.28674477 -0.6692797 0.39496416 -0.14570186 -0.075763606
-0.050139923 0.5979372 0.036889173 -0.62429863 -0.24617036 -0.46874785 -0.42717743 0.24648981
-0.2486955 -0.31515968 -0.513278 -0.0870432 -0.052622758 -0.2411086 -0.06582129 -0.056508243
-0.05617623 -0.19428518 -0.036161672 -0.51747626 -0.02362293 0.002059998 -0.029150408 0.11063185
-0.17620729 -0.21775083 -0.64336765 -0.11291182 -0.0018708023 -0.15539588 -0.2159706 -0.23799255
-0.011222302 -0.07084185 -0.03303676 0.10680454 -0.11464318 -0.093659036 -0.5861809 -0.02629731
0.276216 -0.09840075 -0.03210705 -0.83050215 -0.64069206 -0.07556016 -0.43920892 -0.5245289
-0.010152024 -0.066352956 -0.07768325 -0.03279428 -0.60571367 -0.04877665 -0.4278207 -0.046078105
-0.2770177 -0.0649204 -0.4751928 0.1777236 -0.54846996 -0.7499747 -0.325733 0.15820327
-0.3809332 -0.09492172 -0.06975047 -0.092035905 -0.20763695 -0.063068405 -0.040500473 -0.044127434
-0.016224239 -0.049932323 -0.097319424 -0.5962436 -0.061709214 0.13539694 -0.04210762 -0.05660763
-0.037489414 0.14959763 -0.47344172 0.49972358 -0.042338833 -0.00810495 -0.03717508 -0.28647143
-0.033567883 -0.39343348 -0.025852377 -0.024842687 -0.48634398 -0.2014738 -0.24717434 -0.028787525
-0.056951303 -0.01205352 -0.8004261 -0.030840818 -0.2873718 -0.97810304 -0.09791697 -0.09396499
-0.14562544 -0.5413074 1.1240618 -0.27026045 -0.0117544085 -0.8144822 -0.65411663 -0.2700205
-0.48394182 -0.35641298 -0.024788909 -0.08880398 -0.5461715 -0.28469855 -0.01385071 -0.77084976
-0.14177838 -0.3618495 -0.12206574 -0.16048081 -0.08513204 -0.48479763 -0.42706573 0.09093975
-0.025204705 -0.034542013 -0.50153524 -0.051267646 -0.065999106 -0.015091228 -0.212833 -0.019570453
-0.0073532057 -0.10340533 -0.7749552 -0.27499825 -0.40788695 -0.067044586 0.007133986 -0.05301873
-0.21932185 -0.029401124 -0.5950797 0.32868627 0.1395662 -0.5629983 -0.20151535 -0.039356083
-0.123261034 -0.38433936 1.6396563 -0.064312115 -0.07019195 -0.05128068 -0.24669273 -0.46071404
-0.2400027 -0.46207684 -0.3125912 -0.051724374 -0.07737021 -0.03259367 -0.7675015 -0.05591174
-0.030037818 -0.8654203 -0.013599235 -0.050829995 0.021135645 -0.3528548 -0.12888841 -0.056640867
-0.39455312 -0.36377117 -0.5361766 -0.020360488 0.094290435 -0.04886454 -0.065588914 -0.006958715
-0.18120335 -0.39628243 -0.08575232 -0.06714381 0.5867593 -0.48024318 -0.21814696 -0.16773584
-0.093191236 -0.056400396 -0.07913285 -0.35951865 -0.04886035 -0.11979199 -0.7231319 -0.1756191
-0.67445177 -0.40769073 -0.31068045 -0.7008277 -0.42086998 -0.1493531 -0.0502641 -0.17810391
00000000: a4e4 f5bc 312a 34bf b9b8 dbbc c530 90bd
00000010: 2e02 06bf ae36 07bf af6d 8fbd eebe e3bd
00000020: f14e 81bd 7e1a 38be ca3d 5fbd 8597 5dbd
00000030: 75b5 e5bc a2b8 31bd 6152 4cbe 1cef 28bf
00000040: 2dd3 bcbe 24fc fbbe a7bb 983b 249c 89bd
00000050: dd3d 86bd ff8c 06bf eb91 b4be 756b a8bb
00000060: d927 963e 4d12 29bd 8a36 cabe 5f5d 9dbe
00000070: da6d a0be 3188 ec3c 62f1 49bd 1e30 79bd
00000080: b195 0ebf 266f d9be 804d 12bd 6d12 4bbc
00000090: e23c 15bf dc32 4bbc 981c 9b3e 014a a8be
000000a0: 198a e4be 4373 0ebf 1cda 11bf 36d0 92be
000000b0: ea55 2bbf be38 ca3e de32 15be f329 9bbd
000000c0: 855f 4dbd 6a12 193f 1a19 173d 09d2 1fbf
000000d0: 1514 7cbe b8ff efbe 00b7 dabe d367 7c3e
000000e0: 08aa 7ebe 9c5c a1be 3066 03bf b543 b2bd
000000f0: f68a 57bd 2ce5 76be 50cd 86bd 3075 67bd
00000100: 0c19 66bd b2f2 46be 431e 14bd 5379 04bf
00000110: e084 c1bc 0801 073b d6cc eebc f492 e23d
00000120: af6f 34be 13fa 5ebe beb3 24bf 503e e7bd
00000130: b535 f5ba 1920 1fbe 6627 5dbe 52b4 73be
00000140: bfdd 37bc 8815 91bd 8e51 07bd 57bc da3d
00000150: 0bca eabd 4fd0 bfbd f40f 16bf 756d d7bc
00000160: 2f6c 8d3e 5586 c9bd af82 03bd ca9b 54bf
00000170: 6504 24bf 49bf 9abd fedf e0be 8747 06bf
00000180: ad54 26bc 0fe4 87bd 6518 9fbd 4c53 06bd
00000190: 0d10 1bbf 06ca 47bd 510b dbbe 65bc 3cbd
000001a0: 44d5 8dbe fdf4 84bd 784c f3be 2dfd 353e
000001b0: 8768 0cbf 58fe 3fbf 7ac6 a6be 0a00 223e
000001c0: ad09 c3be 5266 c2bd 56d9 8ebd 527d bcbd
000001d0: c89e 54be 022a 81bd d3e3 25bd f8be 34bd
000001e0: b2e8 84bc d685 4cbd 684f c7bd 6ca3 18bf
000001f0: cdc2 7cbd 7fa5 0a3e 0a79 2cbd 67dd 67bd
00000200: 808e 19bd 1f30 193e f466 f2be c5db ff3e
00000210: 7c6b 2dbd a0ca 04bc e644 18bd 62ac 92be
00000220: 7a7e 09bd 1d70 c9be 5dc8 d3bc e482 cbbc
00000230: 1402 f9be 264f 4ebe 451b 7dbe d1d3 ebbc
00000240: c545 69bd 217c 45bc bae8 4cbf e2a5 fcbc
00000250: 6622 93be f664 7abf b188 c8bd b770 c0bd
00000260: d61e 15be 1f93 0abf 42e1 8f3f 945f 8abe
00000270: 9095 40bc e881 50bf 3074 27bf 2140 8abe
00000280: 39c7 f7be c37b b6be 1c12 cbbc dcde b5bd
00000290: e5d1 0bbf 02c4 91be 17ee 62bc 6956 45bf
000002a0: 5a2e 11be 5644 b9be 9afd f9bd 1555 24be
000002b0: b559 aebd 6537 f8be 5ca8 dabe 9f3e ba3d
000002c0: 197a cebc ed7b 0dbd 9d64 00bf 06fe 51bd
000002d0: 8a2a 87bd 3341 77bc e5f0 59be 3752 a0bc
000002e0: 29f3 f0bb 2cc6 d3bd 7763 46bf 92cc 8cbe
000002f0: 8fd6 d0be ac4e 89bd 36c4 e93b 2b2a 59bd
00000300: e895 60be a0da f0bc 2557 18bf 9149 a83e
00000310: 71ea 0e3e a820 10bf 0a5a 4ebe d833 21bd
00000320: 4870 fcbd 21c8 c4be 42e0 d13f 12b6 83bd
00000330: ccc0 8fbd b10b 52bd 059d 7cbe b6e2 ebbe
00000340: 45c3 75be 5695 ecbe f40b a0be f0dc 53bd
00000350: 4674 9ebd f180 05bd fa7a 44bf b503 65bd
00000360: df11 f6bc 2f8c 5dbf 53cf 5ebc 1d33 50bd
00000370: a924 ad3c 62a9 b4be 53fb 03be 4100 68bd
00000380: de02 cabe 3740 babe df42 09bf 0acb a6bc
00000390: 581b c13d 2f26 48bd 7b53 86bd ef05 e4bb
000003a0: 5f8d 39be 88e5 cabe ea9e afbd b282 89bd
000003b0: dc35 163f 6fe2 f5be eb61 5fbe f2c2 2bbe
000003c0: 0cdb bebd 1a04 67bd 6710 a2bd d412 b8be
000003d0: ca21 48bd 8155 f5bd 2c1f 39bf 7ed5 33be
000003e0: dfa8 2cbf d7bc d0be 8211 9fbe 7269 33bf
000003f0: 457c d7be 05f0 18be bbe1 4dbd df60 36be
