data/predictor/PT/TNetwork-N_2024-04-19_10-13-20.pt (torch, 865107 bytes, 16 tensors)

conv1.bias f4 [64]
00000000: 40f9 2f3e 52e0 93bd ba09 d8bd f79e 093e
00000010: 85c5 d9be e67a c3bb 4ee4 62be 1e47 d8bd
00000020: 5242 963d 8ca5 31be 15fb c8be cb8b fe3c
00000030: 252e f13c b46a 4fbd 2afd ecbd 4ec6 41bd
00000040: d891 b8be 468d a4be 2f8b 02be cadd 43be
00000050: cc1b 973c a6f1 ec3d 72f9 93bd 9ea5 45be
00000060: f546 58bd 0721 163e f232 6bbd c3c8 8dbe
00000070: e1ce 1cbe 8ca0 8dbd 90fe 89bd dfbd 26be
00000080: c370 48be f853 e0bd b549 f0be bb41 01bc
00000090: 5f3b 273e e51c 993b 8bba 25be 8349 d5bd
000000a0: 5855 8fbd 5c1d c7bd bfc8 af3d c641 babb
000000b0: 18ba 32bd 328a 583e b5a6 67bc bd00 843c
000000c0: 6a0e a2bd 1525 43bc 87ac a6be c016 abbe
000000d0: 70c5 553c b3df f9bc 5726 bbbe 0d88 92be
000000e0: c5ab 7ebe 5980 9dbc 9202 80be e044 903d
000000f0: a756 7ebe 7d07 e4bd e4f1 1cbe ec02 92be
0.17184925 -0.0722052 -0.1054873 0.13439547 -0.42533508 -0.0059655784 -0.22157404 -0.105604395
0.07336868 -0.17348307 -0.3925406 0.031072518 0.029440949 -0.05063887 -0.11571725 -0.04730826
-0.3604877 -0.32139033 -0.12748407 -0.19127575 0.018445872 0.11569528 -0.07225312 -0.19301459
-0.052802045 0.14661036 -0.057421632 -0.27692232 -0.15313293 -0.069153875 -0.06738007 -0.16283368
-0.19574265 -0.10953516 -0.46931234 -0.0078892065 0.16331242 0.004672634 -0.16184442 -0.10414412
-0.069987 -0.09722397 0.08583211 -0.0056841103 -0.043634504 0.21146467 -0.014138867 0.016113633
-0.079129055 -0.0119106965 -0.32553503 -0.33415794 0.013047561 -0.030502176 -0.36552688 -0.28619424
-0.24870212 -0.01922624 -0.2500196 0.07044387 -0.24837743 -0.11134241 -0.15326649 -0.28517854

conv1.lin.weight f4 [64, 6]
00000000: d82d 55bf 12f1 03be 1ffa 963e 45de 273f
00000010: 4c9c 91be 3765 753f 6176 373c 79f7 a93d
00000020: cdfe 373f 3dec 5c3d 8d52 213a f19d dbbe
00000030: e9bd 33be 775f d2bf 1813 c83e b175 213f
00000040: da5e 99bc c9d6 1640 1971 5fbf e3a3 963d
00000050: 78a4 193e 496d 493f 61b1 9cbd 4fba 803f
00000060: a1f5 823e bfef 5b3d d6ae cc3e dc3b e93e
00000070: 0960 3bbe 7d8d af3f fe01 973e 39b0 19bf
00000080: 3065 f53e bdf8 4f3f 0a38 86bd c4d5 0bc0
00000090: 8d6f 9f3d 9345 133d fdda 973e 53c9 e9bf
000000a0: 810f c83d e48a 0c40 09a4 5c3d de18 c13d
000000b0: 328c 333f fb44 203d 0f35 5c3c e1eb 8ebf
000000c0: 099d 15be c29f 6d3c 12bb 533f a66f 84bd
000000d0: f290 30be d0ad a33e ffca cd3c 1d8f d2bd
000000e0: b333 193e 4f24 4c3c 2866 68bd 7817 40bf
000000f0: 16c5 a73e dbaa 073e 9a36 7c3e 3a97 18bf
00000100: 35d3 8fbe 233c 5f3f 9937 0bbe 8430 d83e
00000110: 979d 01c0 d5e2 323f 8033 9dbd 452f aa3f
00000120: f614 6dbe 7473 773e 4299 c2bf 071b 8abe
00000130: 02f2 5c3e 785c 913f 12ad bfbe 5668 003f
00000140: 9008 9bbf ef2e ed3e cfee 91be 099e 573e
00000150: 51ad 8f3d 93fa 1e3e c2cc a2bd 55d9 193e
00000160: bc07 9bbd c4d9 de3f 4bf0 b5be 1110 cebc
00000170: c6e0 0f3f 41c6 c8bf e85b 8ebe da3a fe3f
00000180: d4af ac3e 460d 3c3e 1990 4c3e 0f6a 87bf
00000190: 9d57 463e 2309 ab3f f9cc 933e 2ac6 1d3e
000001a0: 731f 353e 24ed 85bf 7001 b4bc 02c9 a53f
000001b0: 8be3 76bd b0c9 423e 8c77 ac3e 0505 153f
000001c0: 50e4 e2bd dd93 b53d 633a 31bd 0c4c c4be
000001d0: ed05 86bf d07e 983e 22f4 ee39 6dd4 953c
000001e0: bb4a 85be 2cf9 a63e 2602 3cbf 4b57 bd3e
000001f0: 8ce4 c3bd 3ce6 c83f 6130 adbe e42a 103f
00000200: 0451 51be 6303 b23d f849 54be 07d3 3fbf
00000210: 5c84 4c3d 5c24 3a3d db5e 0a3f 5a58 3abb
00000220: 4c5d e13c 70df b4bf 75df de3d 7aa9 8d3e
00000230: a323 a5bf 1ec7 babf 3bd6 203e f4d9 ad3f
00000240: b4e9 23bd d405 cb3d e7e2 2a3f c6f5 25bb
00000250: 9f76 d9bc f615 86bf 12e0 3dbf cc03 9abe
00000260: a13d 253f 691d 1ebf c935 60be 862d dcbf
00000270: eacb 32be 30ef 083f cb0b 973d 6671 fcbd
00000280: b86e d9bd 4367 b4bf a2cb 403e 5dac 803c
00000290: 04ca 523e d7b4 913e 0a2a 53be 81be af3f
000002a0: 1402 d33c 141f e43e 1d16 cbbe 19d7 9dbe
000002b0: 926c 30bd 8c5b 89be cce9 143d 38e7 0b3f
000002c0: 6075 85bf a1dd 6dbe ee78 f1bd 2b0f f9be
000002d0: 09ee 3bbd 3f8c 203e 7f8d c33e a86c 11c0
000002e0: 2b6b 5d3e 12f5 0b40 85e1 9b3d 7eae adbf
000002f0: afb1 5cbe e35a 063f bc47 e63d b92c 293f
00000300: 519a 83bb 7950 3fbd e957 963e f7f4 6b3e
00000310: f73b 0e3d e2ae e13f d3dc 563e 29b4 65be
00000320: 51a1 0abe 2478 0cc0 35f0 c03c 226b e83f
00000330: 8c57 68bd 6c5a d5bd 8522 d83d 3ef3 793d
00000340: 4d0a 14be 374a 423f dc47 adbd fba7 e03d
00000350: 67b8 2e3f 445b babf f236 dfbd f9ac 9a3f
00000360: 765c 85be 810c 27bd bcb6 02bd d4ec 8a3f
00000370: 9c36 40be 09c5 b4bd 425c 1abf 69b0 a0bd
00000380: 919a 4e3f d37a 29bf 9443 743e 7f89 16bf
00000390: ee7a ae3d 9459 80be 964d 19bf 8cdb c73d
000003a0: 1d50 133d 8967 1dbf 8e0f 8f3d bc8f edbe
000003b0: ee83 1ebf 232e 1f3f 7bf8 ea3c 2fd9 a8bf
000003c0: 278e 19bf acf1 c9ba 0a96 5f3f 1462 c8be
000003d0: d7b3 a1bc d6c5 e9be ca6d 1e3d 17be 52ba
000003e0: eb20 533d 2ab3 633f e836 03be ba8a 05c0
000003f0: b36e 8fbf 699f 903d 6dcc 113f 892e ebbe
-0.83273077 -0.1288493 0.29487702 0.6557353 -0.28439558 0.95857567 0.011197657 0.08299155
0.7187317 0.053936232 0.00061539636 -0.42893937 -0.17552914 -1.6435384 0.39077067 0.6307021
-0.018721987 2.3568594 -0.8728195 0.07355478 0.15004146 0.7868238 -0.0765102 1.0056857
0.25578025 0.053695437 0.3997714 0.45553482 -0.18298353 1.3715054 0.29493707 -0.6003452
0.47928762 0.8123892 -0.06553657 -2.1849222 0.077849485 0.035955023 0.29659262 -1.8264564
0.09768582 2.1959772 0.053867374 0.09428571 0.70135796 0.039128285 0.0134403845 -1.1165735
-0.14610685 0.014503421 0.8270732 -0.06466608 -0.17242792 0.31968546 0.02512121 -0.10281203
0.14961128 0.0124598285 -0.05673805 -0.7503581 0.32767552 0.1324877 0.24630204 -0.59605753
-0.28090826 0.87201136 -0.13595428 0.42224514 -2.0252435 0.6987737 -0.076758385 1.3295676
-0.23152527 0.24165136 -1.520302 -0.26973745 0.21576694 1.1356344 -0.3743673 0.50159204
-1.2111988 0.4632487 -0.2850251 0.2105638 0.07015479 0.15525274 -0.07949211 0.15024312
-0.075698346 1.7410207 -0.3553489 -0.025154145 0.5620235 -1.5685502 -0.27804494 1.986171
0.33727896 0.18364438 0.19976844 -1.0579242 0.1936936 1.3362163 0.2886732 0.15407625
0.17687778 -1.0462995 -0.021973342 1.2951968 -0.060275596 0.1902225 0.33684957 0.58210784
-0.110787034 0.08866093 -0.043268573 -0.3833927 -1.0470558 0.2978425 0.0004557679 0.018289769
-0.26033577 0.32611978 -0.7344078 0.36980662 -0.09565076 1.5695262 -0.33825973 0.56315446
-0.20441061 0.08692052 -0.20731342 -0.7493138 0.049930915 0.04544483 0.5405099 -0.002843401
0.027510308 -1.4130688 0.10882465 0.27668363 -1.29015 -1.4592016 0.15706722 1.3582139
-0.0400178 0.09913221 0.66752476 -0.0025323494 -0.02654582 -1.0475452 -0.7417003 -0.30081022
0.64547163 -0.61763626 -0.21895517 -1.7201393 -0.174606 0.5348997 0.07375296 -0.123263165
-0.10616821 -1.4094013 0.1882768 0.01570719 0.20584875 0.28458282 -0.20621505 1.3730012
0.025757827 0.4455496 -0.3966531 -0.3082817 -0.04307229 -0.26827657 0.03635578 0.54649687
-1.0426445 -0.23229076 -0.11790644 -0.48644385 -0.045881305 0.156785 0.3819389 -2.2722569
0.21622913 2.186833 0.07611374 -1.3568876 -0.21552156 0.5248243 0.11244151 0.66083866
-0.0040161987 -0.046707604 0.29363945 0.23042665 0.034725156 1.7631495 0.20982675 -0.22432007
-0.135381 -2.1948328 0.02355204 1.8157694 -0.056724116 -0.10417637 0.10553459 0.06102299
-0.14457054 0.7589449 -0.08460972 0.1096954 0.68250126 -1.4559102 -0.10899152 1.2084037
-0.26047105 -0.04078341 -0.03191255 1.0853524 -0.18770832 -0.08826644 -0.60297024 -0.078461476
0.807046 -0.6620304 0.23853904 -0.5880355 0.08519541 -0.25068343 -0.5988401 0.09758672
0.035965074 -0.6148611 0.06985389 -0.46398723 -0.6192006 0.62179774 0.028682938 -1.3191279
-0.5998253 -0.0015407107 0.87338316 -0.39137328 -0.019739075 -0.4565875 0.03867892 -0.000803919
0.051545065 0.8894526 -0.12813914 -2.0865922 -1.1205658 0.07061655 0.56952554 -0.4593394

conv2.bias f4 [64]
00000000: 025f 7ebd 1a1c 02bd 60ae dd3d d95b ddbd
00000010: 679c c1bd f6e6 3abd 95b3 9ebd e66a 6fbd
00000020: 7827 bdbd 813a c7bd 8647 afbb 4f15 b43d
00000030: 7eac 20bc 74da d3bd bf33 673e 278e 08be
00000040: bde6 c8bc 01be b9bd 196c 2cbe 7403 a0bd
00000050: 161f b5bd 09fb 1dbe 7f80 34be 08ad 8abd
00000060: d971 4cbd 7c36 a83e 0360 00be 745d 6fbd
00000070: 2aba 9bbd 20d3 4fbc 8af5 afbd dc36 a1be
00000080: 4aa5 96bd 6596 c1bd dfd8 2abd c5e9 c5bd
00000090: 0ffe 10be 987b 1fbe 23b1 9cbe f90d c2bb
000000a0: 54c9 a3bc 0fc5 30be 6abb 73be 16a6 2abe
000000b0: c67a 43be 088f 82be 3712 433d e61c 70be
000000c0: b168 89be b5c2 56bd 1961 963c 4f36 16be
000000d0: df63 13be 8b3c f0bd 21c7 bfbd eb6f 063d
000000e0: 7e6d 1ebe 533a d2bc 7739 25be 9241 02be
000000f0: e22f 4cbe f192 b7bd 9b37 8cbe c935 53be
-0.062102325 -0.03176508 0.10824275 -0.10808534 -0.094536595 -0.045630418 -0.07749096 -0.058451556
-0.09236044 -0.097279556 -0.0053491024 0.08793127 -0.00980675 -0.10344401 0.22578333 -0.13335477
-0.024524087 -0.090694435 -0.16838111 -0.07813159 -0.0884382 -0.15427794 -0.17627142 -0.06771284
-0.04991326 0.32854068 -0.12536626 -0.058438733 -0.07603867 -0.0126846135 -0.08591755 -0.31487167
-0.07355745 -0.094525136 -0.04171073 -0.096637286 -0.14159416 -0.15574491 -0.30603895 -0.005922076
-0.019993462 -0.17262672 -0.23801962 -0.1666492 -0.19089803 -0.2549975 0.047624793 -0.23448524
-0.26837686 -0.05243178 0.018356847 -0.14669155 -0.14393567 -0.11730298 -0.09364153 0.032821577
-0.15471455 -0.025662577 -0.16135202 -0.12720326 -0.19940141 -0.08963574 -0.27386174 -0.20625986

conv2.lin.weight f4 [64, 64]
00000000: c854 443f e128 433d b270 5abd 00d5 7f3d
00000010: 4b85 c1be 842c 12bf 90e6 f9be abcc 893e
00000020: 5cfa 34be e0d8 cdbe 72ac 1bbf f954 483e
00000030: 416a 4d3d 5635 f83e c6a0 0b3f 8bc2 d63b
00000040: 418d f7be 4baa cebe 4511 c33b 5c71 eebe
00000050: 786e 3d3f 51b6 d73e 6d16 c73e 91f6 7c3e
00000060: 07ef ebba 2905 b53e cb5e b63e 1e50 9cbc
00000070: 0ae7 473f bcf1 053f dd76 80bc 0384 e5be
00000080: 0eb0 3c3e 9fe1 55be f9f2 01bd 1c6b 22be
00000090: a53d f5bb 2679 a23e a4e6 23bd d74d 8bbf
000000a0: 8f88 f53e f0af 8dbe 56eb 513e 7e01 17bf
000000b0: 52bb 533f 52d4 07be b9d6 433f 4963 b43e
000000c0: 5faf d03d e794 1f3f 0ab1 a2be 78a1 17bf
000000d0: 21ec 7a3e 1db1 5fbd 3675 19be 9c00 56be
000000e0: 93c7 15bf 6056 b93d 987d 3fbd 779e 3e3e
000000f0: f4e0 a43e 53c4 0abf 606a 07bf ef12 603e
00000100: 1819 11be dc45 5b3d 5885 923c 28ad 7cbe
00000110: ee2a babd 455c 4fbe 1c63 3dbc 202e 2c3c
00000120: 1c82 15be 951c 043e 7e03 19be fb2a 19be
00000130: f2de 4ebe fc98 65bd 2f32 21be 76b8 d83d
00000140: f5dd efbc c82b 62bd 594a 1a3e 2454 50bb
00000150: 55a1 173e ac74 163d 4022 50be 6526 df3d
00000160: f0f3 19bd 21b9 d93c bfb8 1d3e c704 19be
00000170: 7058 ec3c f670 a03d dc41 fc3c 5e16 abbd
00000180: 26f8 1abe 5151 2bbe b20c 94bd c8d2 cbbc
00000190: 53b0 2fbe 132a 8b3c e01b 87bc f618 193e
000001a0: 2f5a 26be 56ab 853d 6d58 ffba 9774 073e
000001b0: 3d2a 45be bd83 b7bc ccb4 58bd 0ef8 bd3d
000001c0: 0206 6cbd 50dc 3f3c c06e 45be 1441 3dbe
000001d0: cf86 563e 6ec6 d5bd 126f 43be f6a3 d73d
000001e0: b0f2 aabd 65a2 34be f87b f2bd fa37 ccbd
000001f0: d8b2 89bd 7da5 c9bd 481a bbbc 3e39 3bbe
00000200: 5666 3e3e f1bd a1bc 571f 023f e969 d33b
00000210: 2985 8a3f 3a15 03bf 6624 f4be 4ca8 0cbc
00000220: 60f8 10be c17d 70be d4d5 d0be 4553 87bd
00000230: b37b 32bd 5152 e1be a674 2f3f ae67 51bf
00000240: e1c6 37be d2cb 44bf 1991 553d f940 a3be
00000250: 54c2 173f 478f 18bf c230 d9bd bba8 d0bd
00000260: 19fa 093e 00b2 a03d 6957 133e 4e37 e53e
00000270: 0e7d 0e3e a1ef febd 0c1d acbd fc9e 413d
00000280: 9ab2 283f 0073 83be c7a8 be3e b1e0 84be
00000290: 7823 823d 83d3 7f3d f6e9 613c 8a87 c7be
000002a0: 894d 503c a051 15bf 70d2 babd 4d60 3cbd
000002b0: 5cbf 2c3e f579 493e 0155 983f 1093 2ebe
000002c0: d71d 1b3d fbeb 013f dcaf 8e3f a6c2 acbe
000002d0: 0263 bf3e 8b45 0f3e b153 07bf e1de 3c3f
000002e0: 12c7 b3be f451 e43e 5446 113e f39c ec3c
000002f0: 61a0 693f ec96 c8be 9215 99bf e1db 8f3e
00000300: 4ff4 34be 899a 363f 5175 b8be 1f83 8cbc
00000310: 9121 2abd 00df 933e c6ab dbbe 0236 cf3e
00000320: b429 fd3e e96f 5c3e 3955 d8be 1457 d2be
00000330: e45e 8abf 0abc adbe ecdf 69be 87e8 49bf
00000340: f8a0 3cbf 4a20 46bf 97b6 9a3e 7bc1 c8bd
00000350: 20f2 dabe d16f 46be e9e2 b73e 59b3 953e
00000360: 35a5 903e b290 fbbe a17b 5d3d 72f0 cdbe
00000370: a11f eb3e 45a9 9d3e 1ff3 9e3c 7d5f 423d
00000380: 2a28 dbbc da6d 88be ff95 fcbd 6603 083f
00000390: 0e15 98be b0bf c4be 6e3c 6bbe 86f7 98bd
000003a0: 4884 d5be 6b8c 4e3b ee11 f9be ccdd d33a
000003b0: aacd 7e3e 9715 5cba 2a17 0a3f 7a80 0c3e
000003c0: a5d4 31be d59a 613f ad03 91be 2801 43bf
000003d0: 41b7 5a3f db68 22be b993 0436 4646 17be
000003e0: 9468 63bf d07e b3be 5708 acbc 7d20 4c3f
000003f0: 4b2c b0be 9196 60bf 5470 9dbe 7204 f63d
0.76691866 0.047646407 -0.05333013 0.062458992 -0.37797007 -0.57099175 -0.48808718 0.26913962
-0.1767363 -0.40204525 -0.60810006 0.19563664 0.05015016 0.48478192 0.54542196 0.006553953
-0.48349956 -0.40364298 0.0059529864 -0.4657086 0.73996687 0.42131284 0.38884297 0.24703433
-0.0018000313 0.353555 0.35619196 -0.019081172 0.7808691 0.5232198 -0.015681678 -0.4482728
0.18426535 -0.20886849 -0.031725857 -0.15861171 -0.0074841552 0.31733054 -0.040014878 -1.088313
0.47955748 -0.27673292 0.2049993 -0.5898665 0.82707703 -0.13264588 0.76499516 0.35232
0.101896994 0.6233658 -0.31775695 -0.59230757 0.24504139 -0.054612268 -0.14986119 -0.2089867
-0.5850765 0.09049678 -0.046750635 0.18615137 0.32202876 -0.54205817 -0.5289669 0.21882223
-0.14169729 0.05353342 0.017885849 -0.24675429 -0.090902194 -0.20250042 -0.011559274 0.010509044
-0.14600414 0.12901528 -0.14942738 -0.14957802 -0.20202234 -0.0560541 -0.157418 0.10582058
-0.029280642 -0.055217534 0.15067424 -0.0031788433 0.14807637 0.03673236 -0.20325565 0.10895995
-0.037586153 0.026577534 0.15402506 -0.14943229 0.028850764 0.078340456 0.030793123 -0.083538756
-0.15133724 -0.16730238 -0.07228984 -0.024880782 -0.17157106 0.016987836 -0.016492784 0.14950928
-0.1624534 0.0652682 -0.0019481309 0.13228069 -0.19254394 -0.022401685 -0.052906796 0.09275828
-0.057622917 0.011710241 -0.19280529 -0.18481857 0.20949863 -0.10438238 -0.19085339 0.1052932
-0.0834707 -0.17640074 -0.118400514 -0.09971614 -0.06723565 -0.098460175 -0.02283968 -0.18283555
0.18593726 -0.019743891 0.5082907 0.0064518345 1.0821887 -0.51204264 -0.4768402 -0.008585047
-0.14157248 -0.23485471 -0.40788138 -0.06607679 -0.043575 -0.44008115 0.68537366 -0.8179883
-0.1794696 -0.76873505 0.05214033 -0.31885508 0.59280896 -0.59593624 -0.10605003 -0.10188433
0.13474311 0.07846451 0.14388813 0.44768757 0.13914892 -0.12448049 -0.08403978 0.04727076
0.65897524 -0.25673676 0.37238142 -0.25952676 0.063544214 0.062457573 0.013788691 -0.38970596
0.012713798 -0.58327675 -0.09122169 -0.045990277 0.16869873 0.19675429 1.1900941 -0.17048287
0.037870254 0.507507 1.1147418 -0.33742255 0.37380224 0.13991372 -0.5286208 0.73777586
-0.35112816 0.44593775 0.14186984 0.028883433 0.91260344 -0.39177644 -1.1959708 0.28097442
-0.17671321 0.7132955 -0.36027005 -0.017152367 -0.041535918 0.28881073 -0.4290449 0.40470892
0.4944588 0.21527065 -0.4225252 -0.4108206 -1.0810208 -0.33932525 -0.22839326 -0.78870434
-0.7368312 -0.7739302 0.3021743 -0.098025285 -0.42762852 -0.19378592 0.35915306 0.29238394
0.28251043 -0.4913383 0.05407298 -0.40222508 0.45922568 0.30793205 0.019403039 0.047454346
-0.02675255 -0.2664631 -0.12333297 0.53130186 -0.29703563 -0.38427496 -0.22972271 -0.07469086
-0.41702485 0.00315168 -0.48646492 0.0016164123 0.24883142 -0.0008395551 0.53941596 0.13720885
-0.17366274 0.8812688 -0.28323117 -0.7617364 0.85435873 -0.15860312 1.9755519e-06 -0.14772901
-0.8883145 -0.35057688 -0.02100007 0.79737073 -0.34408793 -0.87729746 -0.30749762 0.120125666

conv3.bias f4 [64]
00000000: 550d 5c3d f7f3 153e 3150 94bd 85e1 b23d
00000010: 4163 4dbe a3c5 6ebd 2f73 393b f25f a63c
00000020: e8db 113e d9f6 3dbd 8736 6abe ad08 2cbd
00000030: 662d 0ebe bd16 9b3d d9fa 23be 22b3 9e3b
00000040: a8b6 bebd e3fc 1abe f970 40be 3abe 983c
00000050: 7163 aa3c b883 12be 7a20 31bd f3f4 f1bd
00000060: 4875 a5bc 116a e5bd 24f3 1bbd 7124 65bd
00000070: 016f 96bb 245e c73d 7168 3c3c 32b2 123d
00000080: 22ff dbbd 231e 8e3d 5f96 d8bd 50dc 2a3d
00000090: f3c2 36bd 7b3c aabd ad71 f2bb 1200 c13d
000000a0: 2669 edbc d3d0 c0bd a5a9 33bd 85e8 1f3e
000000b0: 32b6 00be c503 d73d 96a7 98bc eb07 073e
000000c0: 1bd6 3bbb 0125 fc3d cad5 893c ccd2 dbbc
000000d0: a96d c03c 124d 8ebe b9ec 353e a92f 2c3e
000000e0: 4636 ff3b b1be 60bd 3367 b6bb 4276 29bb
000000f0: be56 653d 7016 f6bd 8b05 fabd c8b2 e1bd
0.053723652 0.14643846 -0.07241858 0.08734421 -0.20057394 -0.05829395 0.0028297415 0.020309422
0.14244044 -0.04637799 -0.22872363 -0.04200046 -0.13884506 0.07572696 -0.1601366 0.0048431316
-0.09312183 -0.15135531 -0.18793096 0.018645395 0.02079937 -0.14308059 -0.043243863 -0.118142985
-0.020197526 -0.11201871 -0.038073674 -0.055942956 -0.0045908694 0.09734753 0.01149951 0.03581447
-0.10742022 0.06939342 -0.10575556 0.041714013 -0.04461951 -0.08312317 -0.007398805 0.094238415
-0.028980803 -0.0941483 -0.043862958 0.15616043 -0.12569502 0.10498766 -0.018634599 0.13186614
-0.0028661552 0.123117454 0.016825575 -0.026833914 0.02348979 -0.27793175 0.17766084 0.16815056
0.0077884523 -0.054869357 -0.0055665015 -0.002585784 0.055990927 -0.12015998 -0.122080885 -0.11020428

conv3.lin.weight f4 [64, 64]
00000000: 7c5d d9bc b352 4bbd b40e be3e 7ef9 063e
00000010: 7896 77be deab 9e3d f19e 5d3e 1b81 14bf
00000020: 6b62 80bd a74a 983d 1fc7 0dbd 0b23 4bbe
00000030: 401c 053e 695c f53c b9f8 fc3e d762 40bd
00000040: 019e 63be 5141 33be 63dd bfbe 29eb 153e
00000050: 36a1 043e b128 933d c4b4 a83d a7d4 0cbd
00000060: 0fec 353e 4dd8 2b3f 139a 1e3d 5c7c ecbe
00000070: e65e 0ebe f416 013f f3f6 523e dd45 3b3f
00000080: ebbd b03e 0766 22be 72de 2d3e 5051 2abf
00000090: 7de7 7ebd e28b 26bf 0257 c63d 0e3f 7d3e
000000a0: de1e 36be 937d a83d 034f 58be fee7 27bf
000000b0: cc91 afbe 111a febc 648d 1ebe 275f b93d
000000c0: 8792 c9bd 1c5f bbbe 1bd1 02bf 0fd6 13be
000000d0: 39b0 0bbe b626 e83d 79ba 14bb ec4b 2b3e
000000e0: 6509 86bd 98f6 68bc 4fff 24bf dfcb 6fbd
000000f0: cad1 0fbf 990f eb3e b0a1 89bf 0abc 0a3e
00000100: 75cc e9be 1245 a63d cef6 cabe 8711 6f3e
00000110: c00a 1bbe d155 013d f504 fabd 6db5 723f
00000120: f7d5 1fbd 081d ca3e 6b2f bcbe f98e 323f
00000130: 1030 373e 9fbb 9ebe d5c9 61be 09f4 c73e
00000140: f775 113d e7ca f03d 938c 6f3e c05c 1dbe
00000150: 6a7b 183e d377 813d c4ca a83e 4628 df3d
00000160: c545 143e 1f61 e2be 1c99 a0bc 725c debd
00000170: d807 ddbd 0446 5fbe fc1f febd 4e8f a7bf
00000180: 9fcf b9be 2032 b13d 1584 053e d08b ea3e
00000190: ed34 a4bd 7498 8dbe 1a95 41bf 2d3b 0abf
000001a0: 718c 2dbe 3842 e9be d10e b9be 508c e53e
000001b0: 6e94 25be cd0e 913f 1ba9 733e b109 48be
000001c0: 6a51 7c3f 081f 0ebf 6309 9d3e a0a7 b2bd
000001d0: 6f20 e33d 2f65 263e f6e5 263f 0155 dbbe
000001e0: 51cd 77be 7319 873d 2b85 cdbe f9de cf3e
000001f0: ea41 e63e 4059 abbe c79f 743e e413 1b3f
00000200: 7523 2cbd 307e 5e3e 2f17 ce3e d5fb 2d3f
00000210: df5e f6bc b0eb 3ebc 2805 893e 9693 1cbf
00000220: 8ea9 d83d 8e16 c33c 0796 c03d f911 c4be
00000230: 8c50 003f caaa bfbe 190b dd3e 9f9e 7c3d
00000240: eb09 c0bd 2891 23be 7bf8 14be 564e 4f3c
00000250: 090e d8bd a69a 34bd 82a7 65be efaf d53e
00000260: 0c75 46bc 3f90 b13e 77bc 233e 4d91 ce3e
00000270: d5f0 fcbc 9000 003f 949e b33d 5767 ef3e
00000280: 7b2c 813f 7438 3dbe fbe5 dfbd d20f 15bf
00000290: 6ca5 fdbc 18b0 4ebd 9161 af3e 08e1 463e
000002a0: 86ce 86be 17c5 8bbd 9300 38be 7b54 56bf
000002b0: 9e40 673e 4825 fdbe 4011 8ebe 47ac a8be
000002c0: b0eb 36be 8c21 093f b67a 31bf 9430 d0bd
000002d0: d21c 7f3e 50c1 1e3e db8b 91be 8165 1bbe
000002e0: f631 83be b064 3b3e d4f5 013e b129 0ebf
000002f0: 63f2 45bf 7a91 033f 130f 853c 792d cd3d
00000300: 6a82 de3d 9dc9 143e 3cea 513e 52e3 d83e
00000310: 09f6 b4bd ab41 ae3d 0ad0 29be 92cf 46bf
00000320: 6844 f8bd 893d 57be 4272 ca3e b3f8 83bb
00000330: 2df3 e43e 5e5e d33d 12af ad3d 3bc4 b9be
00000340: 5987 2abe 31b4 543e a299 b83e 1b4a c43e
00000350: 9347 bf3d b576 1cbd b716 c2bc 96b8 083c
00000360: 8ca0 143e 3a9a eebd 23ef 18be b70a d53e
00000370: 8aa9 ca3d 0e08 183f 8452 4e3d b750 393f
00000380: 3678 ed3e b99c 843e 4fc8 283e 0a74 86bf
00000390: 9a20 943e 8640 a7bd 5d01 ef3e 4aa7 9b3e
000003a0: 9936 96bd ec1d 28bc a2ad 88bd 46a9 8dbf
000003b0: b137 c73e 00c8 28be a806 633e 2f35 71bd
000003c0: 21c2 23be 27d6 1d3e 901a 703a dc38 3a3d
000003d0: c840 0f3e 809c 00bd 0da0 d3be 9ffa b73d
000003e0: 1243 9a3d 1ef8 153e 0257 88bd 10bf 11bf
000003f0: 7783 81bf 4cc1 dd3e fde3 bc3c 2e70 93be
-0.026533835 -0.049639415 0.37120593 0.13181111 -0.24178493 0.07747625 0.21642663 -0.580095
-0.06268772 0.07436114 -0.034613725 -0.19837587 0.12999058 0.029951291 0.4940851 -0.04696926
-0.22228242 -0.17505385 -0.37473592 0.14640488 0.12952122 0.07185496 0.08237603 -0.03438249
0.1776583 0.67126924 0.038721155 -0.4618863 -0.13903388 0.5042565 0.20602016 0.7315348
0.34519896 -0.15859233 0.16979387 -0.66530323 -0.062232483 -0.65057194 0.09684564 0.24731085
-0.17785212 0.082270764 -0.2112389 -0.65588367 -0.34290922 -0.031018289 -0.15483624 0.09051352
-0.09842401 -0.36596 -0.5110032 -0.14437126 -0.13641442 0.113355085 -0.0022694154 0.1672818
-0.065447606 -0.014218949 -0.6445207 -0.058544036 -0.5617949 0.45910338 -1.0752468 0.13548294
-0.456638 0.08118643 -0.39641422 0.2334653 -0.1514082 0.03157598 -0.12207977 0.94808084
-0.039022412 0.39475274 -0.36754927 0.6974941 0.17889428 -0.3100252 -0.22049649 0.39053372
0.03551289 0.117574506 0.23393469 -0.15367413 0.14890829 0.06321683 0.32967198 0.108963534
0.1447974 -0.44214723 -0.019604258 -0.10857476 -0.10792512 -0.21804053 -0.12408444 -1.3090608
-0.36291215 0.08652139 0.13038667 0.45809793 -0.08017907 -0.27655375 -0.75618136 -0.53996545
-0.16948105 -0.45558333 -0.36144117 0.44833612 -0.16169903 1.1332642 0.23794977 -0.19534947
0.9856173 -0.555161 0.30671224 -0.08723378 0.110901706 0.16249536 0.6519464 -0.4283829
-0.24199416 0.06596651 -0.40140662 0.40599802 0.44972163 -0.3346653 0.23889075 0.60577226
-0.042026002 0.21727824 0.40252063 0.6796239 -0.030074535 -0.011652872 0.26761746 -0.611627
0.10579215 0.023814466 0.094036154 -0.38294962 0.50122905 -0.3743499 0.4317253 0.06167471
-0.09376892 -0.15973341 -0.14547913 0.012652954 -0.10549552 -0.044092797 -0.2242718 0.4173579
-0.012112867 0.34680364 0.15989862 0.4034523 -0.030876556 0.5000086 0.08770481 0.4675853
1.0091699 -0.18478566 -0.10932537 -0.58227265 -0.030962668 -0.050460905 0.34254125 0.1942178
-0.2632944 -0.06824701 -0.17968969 -0.83722657 0.22583243 -0.49442506 -0.27747536 -0.32943937
-0.17863345 0.53566813 -0.6932787 -0.101655155 0.24913338 0.1550343 -0.28427014 -0.1517544
-0.25624055 0.18300128 0.12691432 -0.55532366 -0.7732298 0.51393855 0.01624254 0.10018439
0.10864718 0.14530034 0.2049951 0.42360932 -0.0883599 0.08508619 -0.16583267 -0.7766048
-0.121224225 -0.21019568 0.39540297 -0.00402745 0.44716778 0.103207335 0.08480658 -0.36282524
-0.16653194 0.20771863 0.36054713 0.38337788 0.093398236 -0.038199145 -0.023692472 0.00834479
0.14514369 -0.1165051 -0.14934973 0.41609737 0.09895618 0.5938729 0.05037166 0.72388786
0.46380776 0.2590082 0.16482662 -1.0504162 0.28931123 -0.08166604 0.46680728 0.3040107
-0.073346324 -0.01026104 -0.06673743 -1.1067283 0.38909677 -0.16482544 0.22170508 -0.05888861
-0.15992023 0.15413724 0.00091592316 0.04546438 0.13989556 -0.03139925 -0.41333047 0.08983349
0.07532324 0.1464543 -0.066572204 -0.56932163 -1.0118245 0.43311536 0.023057932 -0.28796524

fc1.weight f4 [512, 64]
00000000: a374 c53e 57c8 033e 36d1 7abe 3e2a 993e
00000010: f312 463d 38f4 e83d c069 9b3d ec27 68be
00000020: 959a babc e704 343e 74e9 debe c47f 9c3e
00000030: 43a7 f0bd 0ebc a4bb 25b0 0ebd 60d7 183f
00000040: 6875 b1be 6fad c3be 7425 18bf 44e4 e6be
00000050: 8a12 22be bd1e afbe fc0f 373e 7ff4 c9bd
00000060: 5983 ac3e e6eb b4be 9786 593e f2df ea3e
00000070: ef32 24be 8806 e7bd 1ddd c93e 8de3 cdbd
00000080: 6211 94be b86f 28be da93 3ebe cf03 79be
00000090: 1176 7cbe fc9f 813e b698 8fbe ac69 8f3e
000000a0: 4874 1f3e e5df c5be 1ca2 16bf ca9b 54bd
000000b0: 3cb6 0abf 01ce 5bbd 87f5 cebb 840b 943e
000000c0: cdd4 bdbd caa2 e0be 6a66 7cbe 317e 8d3e
000000d0: cbd9 35be 60e4 67be 7a8d 303f 5123 a53e
000000e0: 3b23 24be 3523 babd ce52 a3be 0c50 d4be
000000f0: 0fb6 403c 060c 073d 0e71 dbbc a7a9 07bf
00000100: fba3 873c 1b05 0cbf dca0 933d 94e5 a03e
00000110: 0ca3 083f 7b0f 703e 829c adbd 75fb aebe
00000120: dfae 9e3c aad4 1b3e b0d5 cc3d f98f 84bd
00000130: 1f68 133f c388 a73e f563 593e fa66 5f3d
00000140: 53c4 e53d 18ff a13e ab87 823e 8bd6 a5be
00000150: 36a9 25bf 3747 603e de20 c53e a9fe 52bd
00000160: 39a9 c23d ce1d 70be e0b8 69be 47eb a03e
00000170: 80cd a5be febc c8be 0397 93be d4ab 0fbe
00000180: e66d 5b3e 02f5 c03d 8ad7 e63b 9613 26bb
00000190: 72ab 283d 6e2e 85be f05c a3be 9f29 833e
000001a0: 1c69 d53e 510e c3be fa6c c63d 5335 83be
000001b0: 6218 cebd 89f0 003c 378f 6f3c 677c 2b3e
000001c0: 9a11 2abf 1563 72bd d3c3 003f 97e7 73bd
000001d0: 0b70 c13e d78b afbd f34f eabe 9726 5a3e
000001e0: 5bb9 4c3d cbaa 92bd cade 57be 178f 803e
000001f0: a515 76be 700a 893c ac2a 293e a21a 34bd
00000200: e2c6 9b3d 15da 6d3e 62fe b2be 233f e13e
00000210: 698b 8dbe 9265 79be 601d adbd 7c8c d33d
00000220: 5c69 333f cea1 c53e 399e 8abc 7820 b03d
00000230: d2fa 13be 5126 dd3e f710 abbe a23a 563c
00000240: dd64 4ebe 5690 6b3c 5540 9fbc 7131 02bf
00000250: 21b9 92bd a773 40be df56 073e f534 debe
00000260: 5ac9 563f 6863 52bf d04a cebd f68f 0abe
00000270: 3f86 d13e 78d9 5e3e 3e30 a8be 87e7 5e3e
00000280: 4bb6 493d 8370 90bf a5ea 78be bd0c 2a3e
00000290: 26f1 b7bd 6a28 3dbe 5cec 62bf 28da b93e
000002a0: 96e9 433f 762c ebbe ac7c afbe ced1 2b3e
000002b0: e428 fbbe 6614 e53e c2cf 9f3f 8d93 9fbd
000002c0: fd4e e13e 85ee babf 3dbb d33d 99d0 b1bd
000002d0: b70a 703e dc8a 89be 4f28 343f ec85 043f
000002e0: 8138 cdbd 2fd4 0bbf 7c89 bcbe 8e22 abbe
000002f0: 6942 dcbd 11b6 b4be 0517 9abe 1c76 0abe
00000300: eaba 4d3c 9c0b bb3c 9e36 88bd 84c5 16be
00000310: 76cd e3bd 6b81 643c 67b8 fbbd 0065 a53d
00000320: 285c 14bd 20cd b8bd 5ea8 dc3d 9c6f 03bd
00000330: 3a4a 7abd 4918 553c ccfb e33d c960 3f3d
00000340: a218 bebd 7f03 243d 8081 9ab9 8cdf acbd
00000350: 2e61 933c 43db 03bc b102 aebd 0f19 2bbd
00000360: dfca eabc 33ee 493b 9ccf 87bd fc5f ff3d
00000370: 08b2 2dbc 77c8 7a3d c4ad 633c c263 203d
00000380: 2aeb 67bd 86cc d33c 311d 2ebc 764a 903d
00000390: d997 31bd df12 0fbe 02af d5bc 0c06 313a
000003a0: 4d32 bf3c 64fa 1fbd 02d3 6abd a71a c4bc
000003b0: 7968 523d 738a 023c da29 8cbd 7c1a 033e
000003c0: 0086 0d3c 696b 18be 13b4 913d 2c33 c0bd
000003d0: ba2f 893d fff4 dcbd 16f9 013d 6c2f f8bc
000003e0: 1f37 3b3e 6419 d0bd a96c 993d 67d3 e63d
000003f0: c229 68bd e959 e33c 1ae4 043d c814 873d
0.3856555 0.12869392 -0.2449387 0.2991504 0.048357915 0.11374706 0.075885296 -0.22671479
-0.022778789 0.17579995 -0.43537486 0.30566227 -0.11750653 -0.0050273007 -0.034835953 0.59703636
-0.34659886 -0.38218257 -0.5943215 -0.45096028 -0.15827385 -0.3420314 0.17877191 -0.09861087
0.3369396 -0.35336226 0.21242748 0.45873982 -0.16035055 -0.112805426 0.3942651 -0.100531675
-0.28919512 -0.16448867 -0.18611088 -0.24317859 -0.24654414 0.2531737 -0.28046197 0.2801031
0.15571702 -0.3864738 -0.5884111 -0.051906385 -0.5418432 -0.053663258 -0.0063158902 0.28915036
-0.09269104 -0.43874198 -0.24648443 0.2763534 -0.17758863 -0.22645712 0.68965876 0.32253507
-0.16029064 -0.090887465 -0.31899112 -0.4146732 0.011762156 0.03297045 -0.026787307 -0.52993244
0.016557684 -0.5469529 0.07208416 0.31425154 0.5337379 0.23443405 -0.08477117 -0.3417622
0.019370494 0.15217844 0.10001695 -0.06472773 0.5758075 0.32721528 0.21229537 0.054541565
0.112190865 0.31639934 0.2549413 -0.32390246 -0.6471132 0.21902166 0.38501638 -0.051512394
0.09504933 -0.2344887 -0.2282443 0.31429502 -0.32383347 -0.3920669 -0.2882615 -0.14030391
0.21428642 0.094217315 0.007044737 -0.0025341264 0.041179128 -0.26011986 -0.31906843 0.25617692
0.41681755 -0.3809686 0.096887544 -0.2562662 -0.100632444 0.007869848 0.014621547 0.16746674
-0.6643311 -0.059176523 0.50298804 -0.059547033 0.37780795 -0.08571594 -0.4576412 0.21303783
0.049981456 -0.071614824 -0.21081081 0.2510917 -0.24031694 0.01672861 0.16520184 -0.04397071
0.07606293 0.23227723 -0.34959704 0.43993482 -0.27645424 -0.24355152 -0.084528685 0.1032953
0.7008264 0.3860001 -0.01692115 0.08599943 -0.14451149 0.43193296 -0.3341138 0.013075503
-0.20155664 0.014377674 -0.019439856 -0.5085669 -0.07164217 -0.18794118 0.13216732 -0.43399778
0.8390099 -0.8218293 -0.10072863 -0.13531479 0.40922734 0.21762645 -0.32849306 0.21768008
0.049246114 -1.1284336 -0.2430826 0.16606422 -0.08981542 -0.18472448 -0.88641906 0.36299253
0.765283 -0.45932359 -0.34274805 0.16779253 -0.49054635 0.44742125 1.2485278 -0.07791815
0.44005576 -1.460404 0.10338447 -0.08682365 0.23441587 -0.26863754 0.70374006 0.5176685
-0.10020543 -0.5462064 -0.36823642 -0.334248 -0.10754854 -0.35295156 -0.30095688 -0.13521618
0.012556771 0.022832684 -0.066510424 -0.14723784 -0.11123173 0.013946871 -0.12291031 0.08075905
-0.0362207 -0.090234995 0.10774301 -0.03208886 -0.061105944 0.013006278 0.11132011 0.04672316
-0.09282042 0.040042397 -0.00029469654 -0.08441076 0.017990675 -0.008047882 -0.08496607 -0.041771945
-0.02866119 0.0030812144 -0.06631395 0.124694794 -0.010601528 0.061226334 0.013896409 0.039157636
-0.056620754 0.02585436 -0.010627077 0.07045452 -0.043357704 -0.13972043 -0.026084427 0.0006752915
0.023339415 -0.03905715 -0.05733014 -0.02393849 0.051369164 0.007967579 -0.0684392 0.12803072
0.008637905 -0.14884724 0.071144246 -0.0938476 0.06698556 -0.10788917 0.031731687 -0.03029605
0.18282746 -0.10161093 0.074914284 0.112707905 -0.05668045 0.027752833 0.032444097 0.065957606

fc1.bias f4 [512]
00000000: fc72 763e ce05 fcbd e53c 8c3d 036d 2cbe
00000010: e532 70be 4c05 15bf 150c 0fbe bb75 903c
00000020: 31ee 80be d39b 2dbd cb13 f7bc 7d3e fabd
00000030: e784 4dbe 2f77 473e bb72 22be 07bc 3bbe
00000040: 221e 81be 71fa 16be ef20 bcbd 6f42 a9be
00000050: 8e1b fabc 1022 863e ce42 233d a444 b3be
00000060: c928 1e3d 456b 21bf 1202 9fbe 3b24 62be
00000070: 7bfa cc3d f8e9 80bd dc6c 48be be97 44be
00000080: f16c 0b3e 9939 8c3d d8f8 07be 14bb 11be
00000090: e175 b1be 4b8f 0dbe 3ecb 52be 53d1 433d
000000a0: 1c9d 81bf 68b3 24be f1ff 97be 00d6 453e
000000b0: 0a78 81be 39a6 07be 75d8 183e c8bc 81be
000000c0: 4522 fcbd 2852 48bf 20e6 e4be c91e 7cbe
000000d0: 6118 3ebe 0e7e ffbc a6c2 c8be 5f84 abbc
000000e0: abd7 6abe 1352 bcbe d200 233d 9201 1abf
000000f0: 217f b13e d7cb 10bf 085c 4fbd 53a2 b73d
00000100: 96d6 06bf 08ff acbd d6f9 a6bd d956 ac3e
00000110: bc53 f5be 9117 16bc 5639 b5bd c322 83be
00000120: 0edb 283c 0b96 4dbd fc0f e1bd 94d5 873e
00000130: 1abd f0be 10f1 aebd fa98 a6be 6bb2 023e
00000140: 53e1 98bd 5c34 d8be a95c c0bd 274b c0be
00000150: c2c1 27be 0120 e8bd 94c6 f93d 877c efbd
00000160: 6c7a 2cbe 552c 8ebe 19da 5bbe e72b 2d3d
00000170: dd35 18bf caff 9bbe 0d42 d1bc bcea a3be
00000180: 684a babe 109d 693e 7c3e ab3d e714 ffbd
00000190: 62bb 4abe 5a52 d5bd 3c37 b5be 2f66 aabe
000001a0: b1b7 c5bd d7d3 85bd e909 3f3e 1e41 c1bd
000001b0: 4e19 60be fdd7 6dbe acf0 eebd 25a7 5fbe
000001c0: 6799 59be f5cb 29be d336 87bd 87bd 8fbe
000001d0: fb07 9abe a1b7 2d3e 2e4d 1abe 4b9c 70be
000001e0: 9550 cdbc 79a3 d4be c70c 26bf 2f67 9abd
000001f0: 2389 ebbd 8458 c3bd 6d63 82be 8366 bfbe
00000200: 1f63 2abe 4211 f1bd bd38 12be 3404 f9bd
00000210: e0dd 37be 417e a7be 3a24 f7bd 46c0 1ebe
00000220: 1c69 02be b1d5 9bbe 6967 82be 2eac 68be
00000230: 13cc 443e 715d 69be 0f61 9fbe d9d8 7fbe
00000240: d897 6ebe 798d 09be e081 17be 2c3d a3be
00000250: 8b4d 9bbe ad19 2ebe 29e8 abbe ee83 9fbe
00000260: f3f1 5abd 3ddc 45be 7364 a5be bd73 a5be
00000270: a475 76bd 5992 0a3c ee89 c6be 6c72 0ebe
00000280: 3f11 07bc d4ba 193d 655b 10be bca8 23be
00000290: 4afb 1abb 33c8 95be 01e5 31bd 4bb0 0cbe
000002a0: 44d2 43be 1669 c2bb 8778 993d 9c7d cdbd
000002b0: 4abd 9ebd b69b 86be 2d2e 5cbe 8a4e 613e
000002c0: ec93 f7bd da03 7ebb 03b1 5fbe 9e97 263d
000002d0: d8f7 3dbe 26e2 b03c 4349 64bd acb3 01bf
000002e0: 005f babd 3f5a 27be 4aaa d7bd 1458 1bbc
000002f0: a9e9 32be 3576 d4bd 87e4 dfbd 9fd9 17be
00000300: 2263 11be 45f9 f0bd b95d 9fbe 6a8e 2dbe
00000310: e2c9 ddbe e0b0 b1bd 3834 37bd f0f0 c0be
00000320: e322 20be 5880 2fbf 9fd0 17be db43 f4bd
00000330: cc08 68be 3393 0dbf fd5f ccbd 1c28 93be
00000340: bc10 0fbe b657 9dbc 154f f9bd d364 83be
00000350: 8f73 103e 1e4a 1cbe a6dd a0be 8af0 a1be
00000360: befc 3e3c d76e 8e3d 0108 51be 2b96 80be
00000370: 3b4b 74bd cb78 e93e 38bb a0be 1a46 dcbe
00000380: 59ab abbe 570c 013d 695f 38be dfaa 88be
00000390: 023a e6bd 4432 83be a2bd 0dbf 0600 a1be
000003a0: aba2 cd3d fcbf 0cbf 1dc0 5ebe 1700 c33e
000003b0: ca01 86be 8dbe 94be e860 453e 2be0 b6bd
000003c0: 96c9 03be b7b4 2fbe a4cf d7bc 7ad2 4cbe
000003d0: e135 e1bd 99b8 e43c 0b5a a6bd 3a69 19be
000003e0: a650 a33e 9d2f 9fbe de2e 933c 8b5f 2d3d
000003f0: 5590 6fbf 2515 d1bd 7b61 aebd bf0a 573e
0.240673 -0.12305795 0.06847552 -0.1683846 -0.23456915 -0.5821121 -0.13969453 0.017634263
-0.25181726 -0.042384934 -0.030160805 -0.1221895 -0.2007023 0.19479059 -0.15864079 -0.18333445
-0.25218302 -0.14743973 -0.09185969 -0.33058497 -0.030530717 0.26197863 0.03985863 -0.35013306
0.038613115 -0.63054305 -0.31056267 -0.22084133 0.10008713 -0.06294626 -0.19572777 -0.1919851
0.13615777 0.068469234 -0.1327852 -0.14231521 -0.34660247 -0.13824193 -0.20585343 0.04780705
-1.0126071 -0.16084063 -0.29687455 0.19319916 -0.25286895 -0.13247003 0.14926322 -0.2533934
-0.12311224 -0.7825036 -0.4470682 -0.24621119 -0.18563987 -0.031188037 -0.39211005 -0.020937143
-0.22933833 -0.36781368 0.039795704 -0.60158646 0.34667304 -0.56561035 -0.050624877 0.08966508
-0.5267118 -0.08447081 -0.08153121 0.3366001 -0.47915447 -0.009160892 -0.088488266 -0.2561246
0.010306133 -0.05019192 -0.10989377 0.26530135 -0.47019273 -0.08542073 -0.32538587 0.12763374
-0.07464852 -0.42227447 -0.093926735 -0.37557337 -0.16382506 -0.11334229 0.12196079 -0.116936736
-0.16843575 -0.27768198 -0.21469916 0.042278197 -0.5945719 -0.3046859 -0.02554419 -0.32015026
-0.36384892 0.22813821 0.08361527 -0.12455159 -0.19798043 -0.10416098 -0.35393703 -0.33281085
-0.09654177 -0.06534546 0.18656124 -0.09436248 -0.21884653 -0.23226924 -0.11666998 -0.21841104
-0.21249925 -0.1658171 -0.06602254 -0.28074285 -0.30084214 0.1696458 -0.15068504 -0.23497121
-0.025062839 -0.4153097 -0.64863247 -0.07539212 -0.11500766 -0.095383674 -0.2546648 -0.37382898
-0.16639374 -0.1177087 -0.14279456 -0.12159005 -0.17955732 -0.32713512 -0.120674565 -0.15503034
-0.12735409 -0.3043647 -0.2546952 -0.22721931 0.19218473 -0.22789551 -0.31128737 -0.24985065
-0.23300111 -0.13432874 -0.14795637 -0.31882608 -0.30332598 -0.17001982 -0.33575562 -0.31155342
-0.053453397 -0.19322295 -0.323032 -0.32314864 -0.060170785 0.008457744 -0.38777107 -0.13910836
-0.008243858 0.03753169 -0.14097364 -0.15982336 -0.0023648315 -0.29254302 -0.043431286 -0.13739125
-0.19123179 -0.0059329374 0.07493692 -0.10033724 -0.07750948 -0.26290673 -0.2150199 0.22002617
-0.12088761 -0.003875962 -0.21844868 0.040671937 -0.18551576 0.021592211 -0.05573393 -0.5066478
-0.09100151 -0.1634302 -0.10530527 -0.009481449 -0.17471947 -0.10374109 -0.1093226 -0.1482911
-0.14197972 -0.117662944 -0.31126192 -0.16948858 -0.43318087 -0.08676314 -0.044727534 -0.3768382
-0.15638308 -0.6855521 -0.14825676 -0.11927005 -0.22659606 -0.55302733 -0.09979246 -0.2874154
-0.13971227 -0.019206863 -0.12173287 -0.2566286 0.14106582 -0.15262648 -0.31419104 -0.3162883
0.011656938 0.06954735 -0.2041321 -0.2511457 -0.059642058 0.4559997 -0.31392837 -0.43022233
-0.33529165 0.03150591 -0.18005146 -0.26692864 -0.11241533 -0.25624287 -0.5536748 -0.3144533
0.10040792 -0.54980445 -0.21752973 0.38086006 -0.2617324 -0.2905163 0.19275248 -0.089294754
-0.12869868 -0.17158781 -0.026344128 -0.20002165 -0.10996605 0.027920054 -0.08122643 -0.14981547
0.31897467 -0.31091014 0.017966684 0.042327445 -0.9357961 -0.10209111 -0.08514687 0.21000193

fc2.weight f4 [256, 512]
00000000: 18b8 24bd 5242 2f3c 6232 f43b 4648 ce3c
00000010: 1edc 64bd d352 96ba 47cd 113d c646 c9bd
00000020: 8789 18bd f9b3 89bd 2247 4cbd 4739 08bc
00000030: 6a6a 8cbc c65b 86bd 66bf bcbc 15cf 173b
00000040: 7a1b b13c 8a2d fbbc 2416 25bc 856d 3dba
00000050: 2ea8 19bd 76b7 b1bd 4586 163d 03fd 1bbd
00000060: 3a22 a8ba 9869 86bc e2fb 8bbd a0c3 93bc
00000070: 48a3 04bd 6b12 b7bb b3f1 113d 1475 2ebc
00000080: 9f03 6abd 7bab 8dbd 40ef 82bb 0b08 ecbc
00000090: ee81 d4bc a969 f13c fa31 ee3c 0558 b4bd
000000a0: fb83 59bd 997d 03bd 1ad5 9b3d c98a 33bc
000000b0: b646 313c 36ea 55bd c148 a0bd b6df 0139
000000c0: d07a a1bc 27dc 8bbc d6d9 eb3d 32d1 80bd
000000d0: b00b a5bc d564 e1bd a400 f5bc 0ff6 9dbd
000000e0: 35a4 0abb 6bea 02bd 4b09 9bbd a901 363d
000000f0: 7b4a 46bd 21bd e03b 5667 bbbd 8783 5cbd
00000100: 9c01 cf3c 0d51 6c3c 5379 603b 970c b03c
00000110: d163 61bd 1054 543b 9b95 a4bc 421e 533a
00000120: e312 63bd f4fb bebc d3fc aebd 287d 01bc
00000130: a41f 2dbc 36ea b7bc 720b a73c 3061 3abc
00000140: 2066 57bb 100a 4fbd c459 fdbc 8a67 a53c
00000150: c294 11bd be76 c43c 52a6 1ebd a2bf c73c
00000160: ccbf 6cbc ea42 6dbd aaa5 913c 2232 173c
00000170: 2a7d 723d 9166 b0bb d398 f8bc 2192 f43c
00000180: e001 55bd ec13 6cbd 3e61 33bd 4033 efba
00000190: 4546 b0bd 0686 c5bd f831 50bd 75d8 b9bc
000001a0: 6452 573b ee1f 193c ea1a a9bd d03c 753c
000001b0: b814 29bc ed09 f1bc c975 e0bb 14e7 5fbd
000001c0: 3eb3 053a eb81 bb3c ffa2 48bd 3b59 e63b
000001d0: 13ac 7cbd 184d f9bc bed9 973c 67c9 093d
000001e0: 60b7 31bd e0d5 a6bc 74c7 10bc 1854 093e
000001f0: a0d5 4fbc 9d87 9bbd a2d5 8bbc 88d4 80bc
00000200: a949 8abc 52c7 ecbb eb3b 0a3d e569 78bd
00000210: 40cd 04bd 4b0d 05bd 8882 283d 2b06 b4bc
00000220: 4c07 13bc 10ac 1a3b 9959 1ebd 0313 e7bc
00000230: 1838 cebd 650c e2bc 2508 32bd 1645 603a
00000240: 9d4c 0cbd ef50 0bbd 7027 0b3c 38f2 a2bc
00000250: 7073 1bbc 6fa6 d9bd e1a9 c8ba cac1 183d
00000260: 5a80 363c ec32 6d3c 71bf a1bc 8483 b5bd
00000270: 8c29 72bd 0ac3 4cbd ec0c 78bd e062 873c
00000280: 4a32 083d c829 c13d 3429 5c3c 8581 18bd
00000290: 2612 b5bc b038 4fbd 81ce 8439 0b55 a4bc
000002a0: aef9 d43c 6800 323c 2324 22bd 9526 c0bc
000002b0: 6e6c 2abd 99c3 ba3c 58db 5cbc bc35 a2bd
000002c0: 9906 97bd 85ab 8a3d f9cd 9abd 7059 36bd
000002d0: d245 a03a f7e4 f13c 8867 cebc fb78 493c
000002e0: 2af7 04bd 1c96 05bd 59e6 2bbd b2ff aebd
000002f0: 6491 003d 2fa8 0b3e 0b2c 2f3d d0e0 0c3c
00000300: dde2 173d fa23 99bd 9d2e 06bd 1ced 57bc
00000310: 2f9c bfbd 8b35 17bc 173a 74bd 5213 21bd
00000320: cde0 323d fc4e 87bd c298 c13d 5aa1 183c
00000330: 01b5 e0bc 96db 66bd 14c9 e73b bbb9 e63c
00000340: 6329 a33d c90f 31bd 7e56 1cbd 648b 6dbd
00000350: 126c e7bc d848 62bd 798b b83c 90d2 61bc
00000360: cd2d be3c e1b0 16bd f4b2 d43c ebe4 1ebd
00000370: 5be7 a6bc d30d 9ebd 33fa c5bc 348e 85bb
00000380: e4a9 43bd dcf3 febc 17f1 913c 178f 12bd
00000390: 53a3 cfbb 5cc5 0fbd 06d9 0cbd 3f54 2bbd
000003a0: e7e6 aabc 98e3 85bd f9c3 e0bc f8bc 753d
000003b0: 87d3 23bd 9eee 03bd d481 bd3d 9661 873c
000003c0: 17ff 123d 3e01 4d3c aedb aabc 645e ae3c
000003d0: 2d2e 9e3c 87c6 25bc 9ec0 5b3a b1e9 51bc
000003e0: 181e 85bd 5639 b33c 1a07 b8bc 27fe 833c
000003f0: 05ba cabd 0335 c3bb 9cee 333b 1344 8fbd
-0.040214628 0.010696964 0.007452295 0.025180947 -0.055873983 -0.0011468775 0.03559616 -0.09827952
-0.03724053 -0.0672378 -0.049872525 -0.008314437 -0.017140586 -0.06560473 -0.023040485 0.0023164202
0.021619547 -0.030661363 -0.0100760795 -0.00072260975 -0.037513904 -0.086775705 0.036749143 -0.038083088
-0.0012827583 -0.016407773 -0.06835152 -0.018037617 -0.03238228 -0.0055869124 0.035630893 -0.010648031
-0.05713236 -0.06917473 -0.003995806 -0.028812429 -0.025940862 0.029469328 0.029076565 -0.08805851
-0.053104382 -0.0321022 0.07609005 -0.010958382 0.010820081 -0.052225314 -0.07826377 0.00012385738
-0.019711882 -0.01707275 0.11516158 -0.06289901 -0.020147175 -0.1100556 -0.029907532 -0.077129476
-0.0021155004 -0.03196184 -0.07570132 0.044435177 -0.048410874 0.0068584834 -0.09150569 -0.05383637
0.025269322 0.014423621 0.0034252002 0.021490378 -0.055026833 0.0032398738 -0.020090869 0.000805352
-0.055437934 -0.0233135 -0.08544316 -0.007903375 -0.010566626 -0.022450548 0.0203912 -0.01137571
-0.0032867268 -0.050546706 -0.030926593 0.020190973 -0.035542257 0.023982402 -0.038732834 0.02438337
-0.014450025 -0.057925142 0.01777919 0.009228261 0.059201397 -0.0053833206 -0.03034631 0.029854836
-0.05200374 -0.057636186 -0.04379391 -0.0018249527 -0.08607153 -0.096447036 -0.050828904 -0.022686223
0.0032855505 0.009345992 -0.082570866 0.014968112 -0.010319881 -0.029423678 -0.0068499786 -0.054663733
0.00051002565 0.022889098 -0.04898357 0.00702968 -0.06168754 -0.030432269 0.018536445 0.033639338
-0.04338777 -0.020365655 -0.008836616 0.13410985 -0.0126852095 -0.075942256 -0.017069642 -0.015726343
-0.016880827 -0.0072259093 0.03374855 -0.060647864 -0.032422304 -0.03248338 0.04114011 -0.021975597
-0.008973908 0.0023601092 -0.038659666 -0.028207308 -0.10069293 -0.0275938 -0.0434648 0.00085552165
-0.03425275 -0.03401273 0.008493289 -0.01989089 -0.009487972 -0.10627448 -0.0015309417 0.037294187
0.011139 0.014477473 -0.019744607 -0.08862975 -0.059121653 -0.04999069 -0.0605592 0.01652664
0.033251084 0.09431797 0.013437558 -0.037232894 -0.02210338 -0.05059117 0.0002533086 -0.020060083
0.025997963 0.010864355 -0.039585244 -0.023455897 -0.041607313 0.022798346 -0.01348003 -0.07920405
-0.07374305 0.06770996 -0.075588174 -0.044518888 0.0012227839 0.029528124 -0.025195852 0.01229691
-0.032462277 -0.03261386 -0.041967724 -0.08544864 0.031388655 0.13638376 0.042766612 0.008598521
0.037081588 -0.07477565 -0.032759298 -0.01317909 -0.093559615 -0.009229074 -0.05962571 -0.039325066
0.043671418 -0.06606862 0.09452964 0.009315813 -0.02743006 -0.056361757 0.007073531 0.028164735
0.07966878 -0.043227945 -0.038168423 -0.05799426 -0.028249774 -0.05524525 0.022527443 -0.013783112
0.023215199 -0.03678978 0.025964238 -0.038792532 -0.02037399 -0.077174805 -0.024167156 -0.00407579
-0.047769442 -0.03112214 0.017815156 -0.035780992 -0.0063366084 -0.035100326 -0.034386657 -0.04182839
-0.020862056 -0.06537551 -0.027437197 0.059994668 -0.03999665 -0.032209985 0.092532784 0.016526025
0.035887804 0.012512503 -0.020856705 0.021285243 0.019309128 -0.010118133 0.0008382889 -0.012812064
-0.064998806 0.021877926 -0.022464324 0.0161124 -0.09898762 -0.005957247 0.0027455455 -0.06995406

fc2.bias f4 [256]
00000000: 6318 bcbd e023 653e 3023 663c 30ae 013e
00000010: fa59 ddbe 7a66 08be c2ab 03bf d4a7 943d
00000020: e412 1abf 5b60 57bf 9f02 22bf 3d8e 8abd
00000030: ddff 963f b529 10bf d4ff 70be fe68 efbb
00000040: b769 6cbd 8188 433e 2129 15bd 1975 5dbd
00000050: 9a9f 83bd c142 7dbb 536c 8fbe 7b91 fe3d
00000060: df01 253f e797 22bf f1e5 32bd 3225 62bd
00000070: dc67 95be 5c30 afbd cc53 9ebe dab1 60be
00000080: aeb6 803c b6b6 de3c bb6d 07bc adda c9bc
00000090: dd8b 27bd 4473 33be 02ed 09bd ab97 c9bd
000000a0: 7798 14bf 1a89 39bd 3db9 d8bd 1286 d2bc
000000b0: d5a1 25bb 8979 a4bd 1b4f a1bd 945b f4bc
000000c0: 2ab6 eebd 0623 063f 299e 82be 2fde 38be
000000d0: 2870 4abd 7a81 7abd f6e4 b2bd fc02 5abf
000000e0: 527a cdbe 400f aabd 472c 363d 667a 8cbe
000000f0: 1706 95be cb78 acbd 2c6f 86bd cfb0 0dbf
00000100: bb16 24be a6b8 55bd d1e9 3bbf 71cd b5be
00000110: a32f a6bd 0985 91bd b95e 61be 547c d53e
00000120: 73ea 07bf 0f1a e23b 0f5d 83be 816f bebd
00000130: 8143 62bc 9d1d 1fbd 760d 4abd f3cb 813e
00000140: 0ea0 22be 0cd7 28bc 4547 b0be 5e00 85bd
00000150: aed4 42bd 42cf 9ebe 30c1 c9be 4031 133e
00000160: 735f 5ebd 510c ddbc d6e7 32be dd18 49bd
00000170: fabf 68bf de6a 07b9 055e 69be 2869 64bd
00000180: 784d 88bc cf9d 5ebd 11a9 97bd 0eac 13be
00000190: d2c7 ecbb 16ef cbbe 6bcc aa3d f082 83bd
000001a0: 9500 e1bd 25cf 88bd 2e44 80be d36b dbbe
000001b0: 44aa b7bd 5c38 15bd dfa4 c2bd 2844 b6bd
000001c0: 00d8 9abd bcfc 3f3e 3273 163f 0dcd 44bd
000001d0: 6b22 febe bd62 04bd 0d17 db3d c289 5ebd
000001e0: 171f 35bf e7c5 c1bd 6129 79bd 999b 80bd
000001f0: 5280 b9b9 c4f6 9bbd b091 6abe 8e33 ebbe
00000200: 8129 1abf 7f9e 313d 6cd4 c7be fb23 3cbd
00000210: af42 87be 080a 65bd c470 0b3f 8ce8 18bd
00000220: de76 c5be 6b37 50be 82e8 97be 5d00 61bc
00000230: 720e a4bc ee13 70be e8c7 21bd 7be3 923f
00000240: 5520 473e 0166 74bd ab61 a83e 8a3c 43be
00000250: 057d 2cbf 2827 0b3e 94f3 73be c5c4 1bbe
00000260: 8fcb 33be 9fe8 61bf b119 bc3e ed6d 89bc
00000270: e9e3 a7bd 25ad 1fbd a5c5 31be 5ad3 0bbd
00000280: a5ef cbbd 2eb9 ecbe fb09 24bd 7a49 62bd
00000290: c749 f5bd d100 41bf 0007 68bd aa91 c1be
000002a0: c93e 513b 9fca 5ebe 8198 b8bd ddeb 18bd
000002b0: 7e46 3ebd 1757 07be 7a79 6ebd f4f5 46bd
000002c0: c651 9e3e 8a63 17be 9363 8cbe 4bc6 f7bb
000002d0: b48b 5fbf b4da 29bd f1f6 1dbd 1b9b d6bc
000002e0: eba6 f43e e336 46bf 1cb0 6ebf 7c20 f7bb
000002f0: 9b61 65bd 38d7 093e 4287 fbbe 7de4 63bd
00000300: 1907 01be 7c54 8ebd 17be 3bbd 879b a4be
00000310: 0801 ca3e 0697 663e 0d53 a1bd e200 39bd
00000320: 495b 27bf 4076 51bd 04da 35bb 92a5 62bf
00000330: 743c d0be c702 60bd 4fe1 07bf f5cb 97be
00000340: 1bc6 1cbe 64ea 95bc f8b4 b9be d67b a7bd
00000350: 38d6 55bd 2ea3 33bc 1229 ea3d 5c37 b8bd
00000360: 2336 70bd bb0d 643e cb3f 76bd 9e33 8bbe
00000370: 9b3c 93bd 9fc3 4d3e 4a93 95bc 0a81 e5be
00000380: 4ed8 24bc 5167 bd3d 864c bbbd e804 45bf
00000390: 6c2e c5bd 3f5d e9be e2e1 1dbf 95d2 57bd
000003a0: cc66 84bd a26a 963e 0014 86bd 7ac3 40bf
000003b0: ae61 abbd 3545 d0be 1de2 0ebd a93f c1bd
000003c0: b984 1fbd 376f 00bd 966c cdbc 9983 73bd
000003d0: 4388 7bbd 239c 0fbf 3961 48bd 3517 38be
000003e0: a8de 13bd c57d 44be c630 75bd 54aa ef3d
000003f0: 81ce 35bd b8e6 0a3f f9f2 9dbd 908c 43be
-0.09184339 0.22376966 0.014046475 0.12664104 -0.4323271 -0.13320342 -0.51433957 0.07258573
-0.60185075 -0.841314 -0.6328525 -0.06765411 1.1796833 -0.5631364 -0.2353509 -0.007306217
-0.057718005 0.19095041 -0.036416177 -0.05406675 -0.06426926 -0.0038644525 -0.28012332 0.12430092
0.6445598 -0.63513035 -0.04367632 -0.055211253 -0.291808 -0.08554146 -0.30923307 -0.21942845
0.015712108 0.027186733 -0.008265908 -0.024640406 -0.04090487 -0.17524439 -0.033673294 -0.098433815
-0.5804514 -0.045296766 -0.105822064 -0.025698695 -0.0025273461 -0.080309935 -0.07876416 -0.029828824
-0.11655839 0.5239719 -0.25511292 -0.18053506 -0.049423367 -0.061158635 -0.08735077 -0.85160804
-0.40132385 -0.0830369 0.04447582 -0.27437133 -0.2910621 -0.08421477 -0.06564173 -0.55347914
-0.16024296 -0.052178048 -0.7340365 -0.35508302 -0.08114555 -0.071054526 -0.2200879 0.41696417
-0.53092116 0.006900079 -0.25656936 -0.092986114 -0.0138100395 -0.0388466 -0.049329244 0.25350913
-0.15881369 -0.010305177 -0.34429374 -0.06494211 -0.04756611 -0.310175 -0.39405203 0.14374256
-0.054290246 -0.026983412 -0.17471251 -0.049095977 -0.90917933 -0.00012914414 -0.22789772 -0.055764347
-0.016638502 -0.054349717 -0.07405294 -0.14421102 -0.007225969 -0.39830846 0.08339771 -0.06421459
-0.10986439 -0.06680135 -0.25052017 -0.428557 -0.089680225 -0.0364307 -0.09504103 -0.088997185
-0.0756073 0.18748754 0.58769524 -0.048047114 -0.49635634 -0.032320727 0.10697756 -0.054330595
-0.70750564 -0.09461575 -0.060830478 -0.06279678 -0.00035381556 -0.07615426 -0.22907138 -0.4593777
-0.6021958 0.043364044 -0.39029253 -0.04593275 -0.26418063 -0.05591777 0.5446894 -0.03733115
-0.3856725 -0.2033364 -0.29669577 -0.013732997 -0.02002642 -0.23445103 -0.039497286 1.1475672
0.19445927 -0.05966759 0.32887015 -0.19066063 -0.67378265 0.13589156 -0.23823386 -0.1521178
-0.1755812 -0.88245577 0.3673835 -0.01677605 -0.08197767 -0.038983483 -0.17360552 -0.034137107
-0.09957818 -0.4623503 -0.04004858 -0.055245854 -0.119769625 -0.7539187 -0.0566473 -0.37806445
0.0031928292 -0.21756981 -0.09013463 -0.03733431 -0.046453945 -0.13216816 -0.058221318 -0.048574403
0.30921763 -0.14784065 -0.2741972 -0.00756148 -0.87322545 -0.041468337 -0.03856558 -0.026197007
0.47783598 -0.774275 -0.9323747 -0.0075417142 -0.056001287 0.13461006 -0.4912663 -0.055637825
-0.12600364 -0.06949708 -0.04583558 -0.32149908 0.39453912 0.22518548 -0.07877169 -0.045166858
-0.65373665 -0.051138163 -0.0027748356 -0.8853389 -0.40671122 -0.05469015 -0.5307817 -0.29647794
-0.15309946 -0.018300243 -0.3627088 -0.08177917 -0.052206248 -0.010964198 0.11433615 -0.08994934
-0.05864538 0.22270863 -0.06011943 -0.27187818 -0.07189294 0.20094155 -0.01825871 -0.44825011
-0.010061337 0.09248222 -0.09145455 -0.7696061 -0.09627995 -0.45578954 -0.61672795 -0.05269106
-0.064649194 0.2937823 -0.065467834 -0.75298274 -0.0836824 -0.406778 -0.034883607 -0.0943597
-0.038944934 -0.031356063 -0.025076192 -0.059451673 -0.061409246 -0.5609762 -0.048920844 -0.17977603
-0.036101013 -0.19188602 -0.059860967 0.117024094 -0.04438639 0.542583 -0.07712359 -0.19096589
